results/'Barcelona-mar25'/MoveSomewhere/checkpoint.pt (torch, 932666 bytes, 52 tensors)

discrete_act_size_vector f4 [1, 2]
000000 00 00 40 40 00 00 40 40
       3.0 3.0

network_body._body_endoder.seq_layers.0.weight f4 [128, 34]
000000 0f c5 9d bc c0 c8 34 bd 6d d1 0a 3e 54 30 11 bd
       -0.019259004 -0.044136763 0.13556452 -0.03544648
000010 94 50 19 3e 0e 1a 38 be b7 25 08 bf 32 de a4 be
       0.14972144 -0.17978689 -0.5318255 -0.32200772
000020 10 b5 9b bd 41 1c 87 3d 69 d5 47 3e a1 50 5d be
       -0.07602894 0.06597186 0.19515003 -0.21612789
000030 ba a0 41 bd 51 c4 c9 bc e7 3c 05 bd 35 a3 19 bd
       -0.04727242 -0.024629744 -0.032528784 -0.037509162
000040 45 c4 02 be 0f 6a 78 3e 3d 99 17 3e fb 8f 82 bd
       -0.12770183 0.24259208 0.1480455 -0.06375118
000050 a4 96 0f 3e 55 13 db bd e2 d5 88 be 79 89 97 3a
       0.14022309 -0.10697047 -0.2672568 0.0011561356
000060 c4 05 7b be a2 c6 ba 3c 82 ed 08 3e 6a d3 9e 3d
       -0.24513918 0.022799794 0.13371852 0.07755168
000070 e6 23 73 be 94 81 80 bd 98 7a 0c be c9 ae 24 bf
       -0.23744163 -0.06274715 -0.13718641 -0.643292
000080 5e 60 22 bd b1 26 47 be 85 48 87 3e 2f 75 fb bd
       -0.039642684 -0.19448353 0.26422516 -0.1227821
000090 7b 65 0e be 5f 7b 0d 3e c0 4f 6a bd 46 5d 6a be
       -0.13905899 0.13816594 -0.05720496 -0.22887143
0000a0 63 f5 de bd 8d 34 c6 3b c7 f1 10 bd a1 66 46 3d
       -0.108866476 0.006048745 -0.035386827 0.04843772
0000b0 ce 17 08 3d 18 7d 26 3d e5 a4 ff bc 76 bc 4a bc
       0.033225827 0.040646642 -0.031206558 -0.012374034
0000c0 73 67 7a be c5 ad 45 bd 0a 79 bf 3d 34 78 32 3e
       -0.24453525 -0.048261423 0.09349258 0.17428666
0000d0 38 27 10 3e e8 ff 6a be 9e bc 04 3e 00 78 e5 bd
       0.14077461 -0.22949183 0.12962577 -0.11204529
0000e0 ae 1f 16 3d b2 58 90 3d 4c 10 38 39 a3 27 8f 3e
       0.036651306 0.07048167 0.00017553678 0.27959928
0000f0 d9 66 01 3e 3d 01 dc 3d 30 3f 73 3e 64 63 fe 3b
       0.1263689 0.10742424 0.23754573 0.007763313
000100 03 f8 a5 be f4 00 45 be c5 f8 a8 3e 43 b2 81 be
       -0.3241578 -0.19238645 0.33002296 -0.25331315
000110 35 66 9a bc 1c 1d 3b be 39 c7 83 be c5 0f f9 3c
       -0.018847564 -0.18272823 -0.25737932 0.030403027
000120 25 85 0a 3e f4 1d f2 bd 0e ae e5 3e 7b 7f 93 be
       0.13527353 -0.11822119 0.44859356 -0.28808197
000130 7b 21 40 3d 5f 01 90 3b e1 d2 2b 3e d2 e0 d9 bd
       0.04690693 0.0043946947 0.16779663 -0.10638584
000140 df da 0b be ec 91 69 be 13 2a 91 be cf 90 37 3e
       -0.13657711 -0.22809571 -0.28352413 0.17926334
000150 4c 66 d3 bd c1 e4 37 3e 37 49 c8 bd 62 ab 4c bd
       -0.10322246 0.17958356 -0.097795896 -0.04996813
000160 cc 66 b1 3d 88 cb 11 3e f8 e7 a1 bc f7 09 65 be
       0.08662185 0.14237797 -0.019763932 -0.22367083
000170 8f d0 9a be bb 8e b1 bd 4e 31 26 be bd 2e bd bd
       -0.30237243 -0.08669802 -0.16229746 -0.0923743
000180 63 26 a7 3e be b0 70 be 97 62 94 3e dc 6c b1 3d
       0.32646474 -0.23504922 0.28981468 0.086633414
000190 69 0d f7 3c 60 f2 3c 3e d3 0a a4 be aa 9f 97 bd
       0.030157762 0.18451834 -0.32039508 -0.074035004
0001a0 aa 2a 30 bc f2 ad 13 3e e9 c5 80 be 18 f3 89 3c
       -0.010752359 0.14421824 -0.25150993 0.016839549
0001b0 d1 31 60 bd 3d 9a ed bd 17 fe 0d 3e 92 57 a8 3d
       -0.05473501 -0.11601684 0.13866459 0.08219828
0001c0 72 f8 5e 3d e6 3a 69 3d b7 71 0e 3e 12 9b 25 3d
       0.054436155 0.056940936 0.13910566 0.04043109
0001d0 aa db 9f 3d 18 bc 33 be 31 7c 7c bd 44 00 94 3e
       0.078055695 -0.17552221 -0.061641876 0.28906453
0001e0 01 79 0b be db 51 c4 3e 02 92 60 3d e3 a0 31 3e
       -0.13620378 0.383437 0.054826744 0.1734653
0001f0 99 0c aa bd 73 7d d6 3b a2 3c fe bd db 8b 41 bd
       -0.08303184 0.0065457164 -0.124139085 -0.047252517
000200 dc 43 0d 3e b3 55 13 bd 09 52 7e bd 7e f4 ee bd
       0.13795418 -0.0359704 -0.062089954 -0.11667727
000210 81 35 02 be 72 ba 9a bb f4 0c ff 3d ad 08 e1 3d
       -0.12715723 -0.004721933 0.124536425 0.10987983
000220 a3 2a 18 3e db af 75 be 33 bf 98 3e 19 48 0b 3e
       0.14860015 -0.23992865 0.29833373 0.13601722
000230 69 7b 8b 3e 57 74 a3 3e 97 6f 46 be 59 2f 65 bc
       0.27242592 0.31924698 -0.19378506 -0.013988339
000240 d9 7f 3a 3e aa b1 5a 3d db 53 0e 3d 81 5b d3 3d
       0.18212833 0.05339209 0.03474794 0.10320187
000250 06 63 42 3e 89 9d 8d bd a4 1e 1e 3e fa a6 2a be
       0.18983087 -0.06914813 0.15441376 -0.16665259
000260 5c a9 14 bc 2b db 19 bd 0e b4 03 3e d4 71 24 be
       -0.009073582 -0.03756253 0.12861654 -0.16059047
000270 fd ec fc bd 54 a7 4b 3b 8d 36 63 be e0 0d 2e 3d
       -0.123498894 0.0031075077 -0.22188778 0.0424937
000280 8f 87 23 3e 4a 3a 9c bc a7 31 b4 bd bb 72 7b 3d
       0.1596968 -0.019070763 -0.08798533 0.061388712
000290 19 ea bf bd 79 21 54 3d 09 97 31 3e 8a de 3b bd
       -0.093708225 0.051789735 0.17342772 -0.045866527
0002a0 22 17 b0 be c6 f2 0f be 0a 31 62 bd 61 9b 1c 3e
       -0.3439265 -0.14057454 -0.05522255 0.15293647
0002b0 af 90 0b 3e 37 f3 53 bd 8d b6 20 be 8d 8f b5 bd
       0.13629411 -0.05174562 -0.15694638 -0.08865271
0002c0 ac 63 0e bd 8d 5e ab 3e 0b 47 9c 3c 5a 13 17 3d
       -0.034763023 0.33470574 0.019076845 0.03688369
0002d0 78 b2 70 3d 6f eb c1 3b 4d b0 69 be ab fd 0b 3e
       0.05876395 0.0059179584 -0.2282116 0.13670985
0002e0 48 43 08 be 80 fe 46 3e e1 a4 8d be 27 04 fc bd
       -0.13306916 0.19433022 -0.27664855 -0.123054795
0002f0 23 29 08 3e b9 b3 80 3e f5 e9 13 3e 36 2f 79 3e
       0.13296942 0.25137118 0.14444716 0.24334416
000300 28 83 b9 bc 34 96 a5 bd f5 de ca bd 8c 63 40 3d
       -0.022645548 -0.080852896 -0.09905807 0.046969935
000310 24 30 ca be 71 9d c5 3d a0 77 7e be 49 38 26 3e
       -0.39489853 0.0964917 -0.24850321 0.16232409
000320 1f 9f a4 3e b2 e7 3d 3d d6 94 ce bd 04 61 dd 3b
       0.3215265 0.04636354 -0.10086982 0.00675595
000330 1b 43 a1 bd 1b 45 b9 3d 5a 15 80 bc 46 14 b9 3e
       -0.078741275 0.09046384 -0.015635181 0.3614828
000340 ff 4e 82 3d 11 ae 0a 3c a7 bf 71 bd 4d b2 a0 bd
       0.063627236 0.008464352 -0.059020665 -0.07846508
000350 cc 58 8a be 5b 32 f1 3d ef 4d 98 bd 34 2e 7c bc
       -0.27020872 0.11777183 -0.0743674 -0.015391875
000360 a0 ea 44 3d 05 ae db bc 64 5b 0f 3e 29 1f 06 be
       0.04807532 -0.026816377 0.13999707 -0.13097824
000370 2c 91 39 bd db 35 80 3d b0 37 88 bd 71 d1 f7 bd
       -0.045304462 0.06260272 -0.066512465 -0.12100495
000380 d1 b3 b2 bc 1c 8b bc bd 53 d3 c3 3d 21 56 8b be
       -0.021814259 -0.092062205 0.09561791 -0.2721415
000390 28 9b e3 bd d0 12 d3 bb 95 ad d0 bd 3f 6d f1 bd
       -0.11113578 -0.0064414516 -0.10189358 -0.11788415
0003a0 f3 7e ba 3e 09 3b e4 bd 73 b1 88 3d 02 28 8e bd
       0.3642498 -0.111440726 0.06674471 -0.06941225
0003b0 17 1c 0c be 8b 51 86 bd c0 25 6f 3e 3c e0 d5 3c
       -0.1368259 -0.06558522 0.23354244 0.0261079
0003c0 31 04 86 bd ae 52 6b 3d 78 f6 04 3e f5 df 2d be
       -0.06543768 0.057451896 0.12984645 -0.16979964
0003d0 e3 e7 6b be 89 27 09 bc 99 99 8a bd 12 59 94 bd
       -0.23037677 -0.008371242 -0.06767578 -0.07243551
0003e0 3e 0e 3b 3e c5 5f 5c be 26 2c 3e bd 55 f2 de bd
       0.18267152 -0.21520908 -0.046428822 -0.10886065
0003f0 27 39 1e bd c9 d5 66 bd a8 c5 40 3e 8e 55 83 bd
       -0.038628723 -0.056356225 0.188254 -0.06412803

network_body._body_endoder.seq_layers.0.bias f4 [128]
000000 04 ba b3 bc 23 cc bb bc 32 3d c2 bc 4f 2c 01 bd
       -0.021939285 -0.022924488 -0.02371082 -0.031536397
000010 bc 2e 0f bd be d1 b8 bc f8 8b 8e bc 50 fc 96 bc
       -0.03495668 -0.02256095 -0.017400727 -0.018430859
000020 74 65 98 bc 20 b8 0d bb 83 8d 90 bc e1 63 82 bc
       -0.018603064 -0.002162464 -0.017645603 -0.015916767
000030 ca 86 83 bb 3d 46 05 bd 06 50 b4 bc 9c f6 a7 bc
       -0.004013871 -0.032537688 -0.022010814 -0.020503335
000040 db 81 5b b9 f1 7d 74 3c 04 a4 e6 bb 6e e6 e5 bc
       -0.00020933842 0.014922605 -0.007038595 -0.028063979
000050 cb bf 6c bc 03 ae 5c 3b cc ac e4 bb ae f9 61 bc
       -0.014450024 0.0033673055 -0.006978607 -0.013792438
000060 91 9f 2b bb 8c cb 6b 3c c7 6f dc 3b 6a ef a3 bc
       -0.0026187638 0.014391791 0.006727192 -0.020011622
000070 8a 01 d2 bc 38 8f 10 bc c3 69 0b 3c e3 d8 12 bd
       -0.0256355 -0.0088232085 0.008509102 -0.03585137
000080 27 b8 ad bc d6 69 93 bc 79 65 60 3c 24 50 8b bb
       -0.021205975 -0.017994802 0.013696068 -0.004251497
000090 55 cb ae 3c f2 ab b8 bc 1e 85 e9 bc 99 d8 74 3c
       0.02133719 -0.022542927 -0.028505858 0.014944219
0000a0 dc a2 b7 3b 31 83 1a bb 11 2b eb bc 5d 41 a5 ba
       0.005604131 -0.0023576731 -0.02870706 -0.0012607981
0000b0 1e 5c 0b bc c8 63 a3 3c 06 6a 88 bc af 1e 2f 3c
       -0.008505849 0.01994504 -0.016652118 0.010688468
0000c0 44 29 e7 bc e9 dd c3 bc bc 39 1b bb 2c 57 98 bc
       -0.02821792 -0.023909526 -0.0023685535 -0.018596254
0000d0 22 ad f1 3b f7 93 20 3c 8b 5a d3 3c d3 1f f7 bc
       0.0073753754 0.009800903 0.02580001 -0.030166542
0000e0 16 02 a7 bc 9b 4a 58 bb 9a 01 84 bb a5 47 f2 bc
       -0.020386737 -0.0033003453 -0.0040285112 -0.029575178
0000f0 04 d8 cb bc 2c e0 f9 bb c4 d1 90 bc e2 dc d9 bc
       -0.024883278 -0.0076256003 -0.017678149 -0.026594583
000100 f2 d5 1e 3b df db 58 3c f3 56 e7 bc 78 ed 91 bc
       0.0024236408 0.013236015 -0.028239703 -0.01781343
000110 cd 72 63 bc 04 cd fa bb e0 e8 ce bc 99 44 a0 bc
       -0.013882351 -0.0076538343 -0.025257528 -0.01956396
000120 6d 26 90 bc 5a d2 20 bc a8 50 35 bc aa db 89 3c
       -0.017596448 -0.009815777 -0.011066593 0.016828377
000130 9a 28 32 bc ce d3 2b bc 16 a1 12 bc c1 3c 0e 3b
       -0.010873938 -0.01048751 -0.008949539 0.0021703693
000140 67 2a 29 bc 72 5f ac bc 90 52 1d 3c 0c 70 92 bc
       -0.010325051 -0.021041606 0.009602204 -0.017875694
000150 46 27 ac bc 4e 68 90 bb a6 95 13 bd 1d 61 b9 bb
       -0.02101482 -0.0044069653 -0.036031388 -0.0056573288
000160 93 39 42 3c a8 de b1 bc 6b a3 12 bc d7 0b b3 bb
       0.011854547 -0.021712616 -0.008950095 -0.005464058
000170 c2 2f a5 3b 52 eb 17 bd a3 fc 88 3b fb 2f f7 ba
       0.0050410936 -0.037089653 0.0041805073 -0.0018858904
000180 5f 8d b6 3c fb a4 25 bd ef b2 1c 3c ad 3b 65 bc
       0.022284208 -0.04044054 0.0095641455 -0.013991279
000190 f9 91 1f 3b 20 1b b1 3c eb 5e c5 bc 3c 60 39 bc
       0.002434848 0.02161938 -0.024093112 -0.011314448
0001a0 e5 15 0a bd aa 3e c7 3a b5 09 9e 3c 99 16 96 3c
       -0.033712287 0.001520117 0.019291738 0.018321322
0001b0 fc f7 b3 3b 95 31 a8 bc d9 99 01 bd 56 30 01 bd
       0.0054922085 -0.020531455 -0.03164086 -0.031540237
0001c0 83 5f 9f bb ce 6d 1b 3c c4 68 41 3c de e9 83 3c
       -0.004863681 0.009486629 0.011804763 0.016102728
0001d0 e6 d0 9a bc 42 8a ce bb f9 5b 8c bc fd 86 95 bc
       -0.018898439 -0.0063031027 -0.0171337 -0.018252844
0001e0 96 d6 7f bc fc 95 d9 bc a4 60 93 bc 53 c0 25 bc
       -0.015615126 -0.026560776 -0.017990418 -0.010116654
0001f0 2d 92 0e bc 55 54 4e bc 43 87 e7 bc 77 c4 6a ba
       -0.008701843 -0.0125933485 -0.02826274 -0.0008955667

network_body._body_endoder.seq_layers.2.weight f4 [128, 128]
000000 b1 7d 2e be 9c a0 10 3d 22 5c 67 be b1 7e 81 3d
       -0.17040135 0.03530942 -0.2259374 0.063229926
000010 39 b0 73 bd 30 8f 7c 3d 80 43 71 3d 0e 96 8f 3d
       -0.05949423 0.06165999 0.058902264 0.070110425
000020 48 59 96 3d 97 2f 59 3d ac 34 7f 3c 6e 68 8b bd
       0.07341248 0.0530239 0.015576523 -0.06807028
000030 d2 af ed bd d9 8e 24 3e 10 dc 99 bc 3e 3b 77 3d
       -0.11605801 0.16070117 -0.018781692 0.060359232
000040 fe 2d 8b bc b4 73 60 3d a5 90 5d 3d 8a c3 b2 bc
       -0.016989704 0.054797843 0.054093022 -0.021821756
000050 b6 fd 5f 3d 5f fe 9a bd 66 b7 ab 3d b9 96 66 3c
       0.054685317 -0.07568049 0.0838459 0.014074021
000060 8a 9d 27 bb 3f 39 11 3d 14 91 b2 bd 59 a1 ba 3d
       -0.0025576078 0.035454985 -0.08719078 0.09112806
000070 d8 f2 cb 3c 78 58 18 be 44 d2 f3 3d c2 b3 4a bd
       0.02489607 -0.14877498 0.11905339 -0.049487837
000080 5c 86 07 bd 41 f4 99 bd 6d aa 72 3c 53 88 bd bd
       -0.03308712 -0.07517291 0.0148111405 -0.092545174
000090 7f f9 e6 3d ea 09 93 bc 33 09 db 3d 18 be 6f 3d
       0.11278056 -0.017949063 0.10695114 0.058530897
0000a0 30 8e f8 3c 37 29 76 3d 05 dd c7 bd b9 1a 7b 3c
       0.030341238 0.0600979 -0.09758953 0.015326195
0000b0 27 6f 15 3d 1b 51 f0 3b b4 d7 99 bc ea 1b 2a 3e
       0.036482956 0.0073338873 -0.018779613 0.16612211
0000c0 f1 37 a2 3d 01 9e ba bc 5e c2 06 3e a4 81 0b be
       0.07920826 -0.02278042 0.13160083 -0.13623673
0000d0 60 44 8e bc 49 de 70 3d 3f db 9e bc ab 37 34 3e
       -0.017366588 0.058805738 -0.019391654 0.1759936
0000e0 6c 87 f0 bc 1f e0 c0 bd bc 14 43 3d 88 10 0f 3e
       -0.02936145 -0.09417748 0.047627196 0.1397115
0000f0 ea 15 59 bd 2d 2f 34 3b 2f 62 04 3d 93 e1 78 bd
       -0.052999415 0.002749394 0.032320198 -0.060762
000100 a5 aa c9 bd d1 e5 90 3d 6f 82 13 b8 52 d1 fb bc
       -0.09847001 0.07075084 -3.5169007e-05 -0.03073946
000110 17 e8 c8 3d 91 df ba 3c 87 31 2b 3d f2 9a c6 bd
       0.098098926 0.022811683 0.04179528 -0.09697522
000120 5f fc 0b 3e c8 27 3a 3d 98 a7 07 be b6 a0 7a bd
       0.1367049 0.045448095 -0.13247526 -0.061188422
000130 6a e1 8d bc f7 f9 87 3d 09 00 10 3d ad 16 9a 3d
       -0.0173194 0.06639474 0.035156284 0.07523856
000140 c3 95 98 3d f6 29 be 3d a4 70 51 3d ec 85 3c bd
       0.0745044 0.09285347 0.051132813 -0.046026155
000150 38 48 84 3d 36 b9 0b 3e 33 01 02 3d 41 db e8 bd
       0.06459087 0.13644871 0.031739425 -0.11369944
000160 e0 e3 65 bd f2 65 5f bd 7a 46 2e 3d ad 92 b5 3c
       -0.05612552 -0.054540582 0.04254768 0.022164667
000170 98 ab ab 3d f1 f6 1c 3d 27 fe a5 3a 3d cb 4c 3d
       0.08382338 0.03832144 0.0012664244 0.04999851
000180 76 6d a5 bc ab 54 8d bd 01 6b 18 3d af 53 fa 3d
       -0.020193797 -0.06900915 0.037211422 0.12222993
000190 ce 36 8a 3d 71 d9 1a bd 54 65 56 3d f3 61 e4 bd
       0.067487344 -0.037805025 0.052342728 -0.11151495
0001a0 31 aa 92 bb 4a ae 95 3d d7 10 87 3e 9d a1 81 3c
       -0.004475855 0.073086336 0.26380035 0.015824134
0001b0 8c 7e c5 3c df 93 d2 bd 07 ef 6b bc d7 8d af bd
       0.024108194 -0.102821104 -0.01440025 -0.08571976
0001c0 f0 93 1f 3d 0e c3 af bc 5c fa db 3d 0a df 23 bd
       0.038959444 -0.021455314 0.10741112 -0.04000763
0001d0 e6 a5 c6 bd 7e fa 8b bd c2 67 9e 3c c0 68 36 3e
       -0.09699611 -0.06834887 0.019336585 0.17813396
0001e0 c6 26 aa bd 84 55 83 bd 7f 33 b3 bd 82 da 84 bd
       -0.08308177 -0.06412795 -0.087500565 -0.064869896
0001f0 df 96 85 bc dc 6d 35 bd d9 94 96 3c 67 a7 c0 3c
       -0.016307293 -0.044294223 0.018381523 0.023517324
000200 f7 34 3c 3d b2 90 8b 3d 6c 6e 13 be 8d b1 4d be
       0.04594895 0.06814708 -0.14397591 -0.20087261
000210 95 27 9f bc 93 43 ff bc 67 4b 9f 3c 36 90 f6 bc
       -0.019428054 -0.031160152 0.019445134 -0.030098062
000220 78 45 ee b9 29 9e 7b bb 0b 46 8b bd 47 80 b1 bd
       -0.00045446656 -0.0038393831 -0.06800469 -0.08667045
000230 d4 4d a1 bd f9 91 15 3e b8 eb 86 3d d7 d3 a3 3d
       -0.07876173 0.14606465 0.065879285 0.079993896
000240 80 cd 27 3d 43 86 31 3c 23 14 b6 bc ba 2c af 3d
       0.040967464 0.010835233 -0.022226399 0.08553453
000250 06 68 35 be 67 05 25 3c 99 81 b0 bd 96 b3 06 be
       -0.17715463 0.010072089 -0.08618469 -0.13154444
000260 45 7a 89 bd 8a b8 80 3d 84 56 c5 3c 7a a3 a4 bd
       -0.06712774 0.06285198 0.024089105 -0.08038993
000270 67 21 8a 3d ec 1c 73 be 57 d8 2c be 0e 5b 13 3c
       0.06744652 -0.23741502 -0.16879402 0.008993877
000280 ef fc 01 be 4f 15 0c bd c3 e7 6a bb 6c 16 8d 3d
       -0.12694143 -0.03420001 -0.0035843707 0.06889042
000290 85 c5 c4 bd 05 e9 47 bd a0 9e 63 3e 56 f6 62 3d
       -0.09607986 -0.04880621 0.2222848 0.055410706
0002a0 c3 8b f2 3c 02 a5 a0 3d 38 9f fc bd 79 a6 22 3d
       0.02960766 0.07843973 -0.12335056 0.039709542
0002b0 8c 96 cd 3c 98 33 b3 3d 7d ab 82 b9 f1 3f 32 3e
       0.0250962 0.08750075 -0.000249233 0.17407204
0002c0 64 37 8a bd dc 2b 15 3d 0c ad 3e be 95 09 b4 bd
       -0.06748846 0.03641878 -0.186207 -0.0879089
0002d0 d1 22 25 bd 95 0e 24 3d d9 e7 df 3b d8 c7 e4 bd
       -0.040316407 0.04005297 0.0068330583 -0.1117093
0002e0 23 7a 2e 3d 83 9e 1e bd b7 9c 23 3d 7d 09 88 3d
       0.042596947 -0.038725387 0.039944377 0.06642435
0002f0 c4 c2 9c bd e8 89 41 bd be 5b 0a 3d 6b 49 b0 3d
       -0.07654336 -0.04725066 0.0337789 0.08607753
000300 09 d0 47 3d 8d 9a 55 3d ac 8e 1e 3c f6 a2 87 bc
       0.048782382 0.052149344 0.00967757 -0.016557198
000310 27 e3 73 3c 5a 1a f5 3d 01 ff 35 3e a7 ec f4 3c
       0.0148857 0.11967917 0.17773058 0.029898
000320 d5 b7 dc 3d fe dc fe 3b a2 27 ca bd 13 33 b7 bd
       0.10777251 0.007777809 -0.098708406 -0.089452885
000330 dc e5 7b 3d 7f 9e da bd 19 35 85 3d 0b 0b 24 be
       0.061498508 -0.10674762 0.06504268 -0.16019838
000340 14 d2 ae 3d 56 25 37 be 97 44 40 3d ff ed 9e bd
       0.08536163 -0.17885336 0.046940412 -0.07760238
000350 71 22 03 3d 87 1b 02 3d 34 ff 85 3e 12 44 5e 3d
       0.032015268 0.031764533 0.26171267 0.054264136
000360 dc c6 3b bd 8d ab 1a 3c 41 8b 90 3d 93 f5 87 3d
       -0.045843944 0.009440315 0.070578106 0.066386364
000370 fc 08 a0 bd 6e 9a 1d bc 1f 80 3f 3e db 99 01 be
       -0.07814214 -0.009619338 0.18701218 -0.12656347
000380 e3 9f f4 3c 42 1d c2 3c ee 11 40 3d cc fe 2c 3e
       0.029861396 0.023695592 0.0468921 0.16894072
000390 e1 70 76 3d 17 42 1e bc 24 dd a6 bc 55 bd c4 3d
       0.060166243 -0.009659312 -0.02036912 0.09606425
0003a0 4a 54 11 bc a5 e5 3c bd 65 7b 46 bd 28 23 a7 3b
       -0.008870194 -0.046117444 -0.048457522 0.0051006265
0003b0 08 a8 f6 bc 52 3e 34 3e 12 26 29 3d c7 f5 d3 3c
       -0.03010942 0.17601898 0.041296072 0.025874032
0003c0 07 63 fd 3d 4a 66 ee 3c d9 50 e6 bb 11 28 ed b8
       0.123724036 0.02910151 -0.0070286808 -0.000113085036
0003d0 db 63 06 3d 24 68 0d bb c3 e7 71 3d 31 98 f0 3b
       0.032810073 -0.0021576965 0.059058916 0.0073423614
0003e0 b6 79 a0 3d b8 9b 82 bd bb 36 b9 bd 6a 44 2a 3d
       0.078357145 -0.06377357 -0.09043642 0.04156915
0003f0 76 0d b4 bd 65 46 37 3d 37 b7 d0 bd b1 51 99 3d
       -0.0879163 0.044744868 -0.101911955 0.074862845

network_body._body_endoder.seq_layers.2.bias f4 [128]
000000 0e 1a b5 bc 2d 83 52 bc 8e e1 82 bc 60 30 90 bc
       -0.02210715 -0.012848658 -0.015976693 -0.017601192
000010 bf 22 7b bc e8 47 aa bb f6 c9 a8 bb 98 bd 5b bb
       -0.015328108 -0.00519656 -0.0051510287 -0.0033529755
000020 cf fd 13 bd 81 46 db bc 99 f5 30 bd 35 c6 ff bc
       -0.036130723 -0.026767017 -0.04320297 -0.031222442
000030 24 74 69 3c bc 9b 89 bc 74 3a 29 3c 95 a0 87 3b
       0.0142488815 -0.016797893 0.010328878 0.004139016
000040 f3 49 9c ba f6 4f 33 bc 47 74 e0 bc 23 30 72 bc
       -0.0011923894 -0.010944357 -0.027399195 -0.0147819845
000050 67 0d 8b bc 2c db ab bb 37 66 d4 bc 96 dc 52 bc
       -0.016974164 -0.005244633 -0.025927646 -0.012869975
000060 1b d1 9a bc 48 8a af bc 2b 20 87 bc 34 88 88 bc
       -0.018898537 -0.021428242 -0.016494831 -0.01666651
000070 ff af 71 bc 24 d5 cc bc 3b 5d b5 bb 04 34 0a bd
       -0.014751433 -0.025003977 -0.0055347956 -0.033741012
000080 1a 92 21 3c fd ef f3 bc 4a 01 86 bc 9c 13 bb bc
       0.0098614935 -0.029777521 -0.016358037 -0.022836499
000090 d3 f7 09 bc 66 ee ec bc da 5a 28 bc bc be 5a bc
       -0.008420902 -0.028922271 -0.010275567 -0.013351139
0000a0 45 88 72 bc 16 15 d4 bb d5 b5 ed bb 68 a8 4b bc
       -0.014802997 -0.00647224 -0.007254342 -0.012430288
0000b0 8a 2c 87 bc 2e 8e a4 bc 02 cb b7 bc 14 e1 11 3c
       -0.01650073 -0.020087328 -0.022435669 0.00890376
0000c0 a2 3e ac ba 0d db f9 3b 78 8b 8b bc 50 a2 a0 bc
       -0.0013141225 0.00762499 -0.017034277 -0.019608647
0000d0 35 0d dc bc 89 80 d4 3b 6d 6b 67 bc d0 7e 1a 3c
       -0.026861766 0.006485049 -0.014124733 0.0094296485
0000e0 ab 1f 96 3b c7 24 c4 bb 07 07 f6 bc 6c bb b0 bc
       0.004581412 -0.0059858295 -0.030032648 -0.021573745
0000f0 7b 9c ce 3b 00 06 b5 bc c4 53 ef ba a3 ce 98 bc
       0.006305275 -0.022097588 -0.0018259217 -0.01865322
000100 10 1e 78 bb d1 ca 82 bc 72 f2 c6 bc d3 c2 98 bb
       -0.0037859716 -0.015965851 -0.024285529 -0.0046618967
000110 b5 bc 6f bc 52 24 ac 3a be 8e 6f bc 67 d3 d5 bc
       -0.014632394 0.0013133383 -0.014621435 -0.026101781
000120 9c fc 68 bc 4e 56 3f bc 26 0e 16 bc b5 44 9d bb
       -0.014220383 -0.0116782915 -0.009158647 -0.0047994503
000130 83 02 83 bc ae b4 59 bc da 07 4d bb fc d1 33 3b
       -0.015992409 -0.013287706 -0.0031285197 0.0027438393
000140 24 9e 07 bd 9e 8f ca bc 18 21 93 bc 22 b5 50 bc
       -0.0331098 -0.024726685 -0.017960116 -0.012738498
000150 1f c0 08 bc 94 52 88 3c 90 f3 bd bc 7a 39 06 bb
       -0.0083465865 0.016640939 -0.023187429 -0.0020481036
000160 7d bb da 3b 32 8e cb bc b7 c4 0c bc f3 a8 d1 bc
       0.0066751824 -0.024848077 -0.008591822 -0.025593257
000170 fb 2e 65 bc 14 43 b6 bb b8 bb 6a bc 99 7a 0a bd
       -0.013988252 -0.0055621956 -0.014326982 -0.033808324
000180 6c d0 8d bc ca 07 cb bb 8c 4f c8 bb ae 03 98 3a
       -0.017311297 -0.006195997 -0.0061129984 0.0011597776
000190 e4 56 9b bc 27 05 94 3c ec 7d 13 3c c9 f7 96 bc
       -0.018962331 0.018068863 0.00900219 -0.0184287
0001a0 51 59 ff 3b 28 b2 59 3b f5 f2 0b bd 84 24 17 bc
       0.00779263 0.0033217762 -0.03416725 -0.009225015
0001b0 8f dd 1e bb 9f cc 60 3b 94 63 32 bc 53 28 af bc
       -0.0024240946 0.0034301651 -0.010887999 -0.021381533
0001c0 b9 a5 05 bd a5 ef 49 3c 50 f6 48 bc da a9 46 ba
       -0.03262875 0.012325202 -0.012265757 -0.00075784104
0001d0 15 65 6e 3c ce 4c 59 bc 86 ac f9 3b 79 00 e7 bc
       0.014550467 -0.013262941 0.0076194433 -0.028198468
0001e0 0d b7 b4 bc bf cb a9 bb 03 2b f9 b9 7c 43 94 bc
       -0.022059942 -0.005181759 -0.00047525027 -0.018098585
0001f0 2d 75 bc bc 28 9c d9 bc fa fa d7 bc 3d b2 6f 3c
       -0.023005093 -0.026563719 -0.026364792 0.014629898

network_body._body_endoder.seq_layers.4.weight f4 [128, 128]
000000 38 68 07 3e 80 10 9e bc 93 a1 09 3d c3 cf 06 3b
       0.1322335 -0.019294977 0.033601355 0.0020570613
000010 c5 b0 ba bb 01 54 d7 3c 62 73 35 bd 1a bf 2e 3d
       -0.005697342 0.026285173 -0.04429949 0.042662717
000020 2e a4 f8 bd b8 be 00 3d 60 af 99 bd 76 1f df 3d
       -0.1214069 0.031431884 -0.07504153 0.108946726
000030 0f 64 d9 bc a1 48 23 bd a5 21 13 be 31 77 db 3d
       -0.02653697 -0.039864186 -0.14368303 0.10716093
000040 d9 23 0b 3e 45 c8 00 bd 08 27 f0 bd ff 8c 33 be
       0.13587894 -0.031440992 -0.117261946 -0.17534254
000050 d0 5a 86 bd 18 54 b8 bd 4f 4c fe 3d 2e 94 8b bd
       -0.0656029 -0.090004146 0.124168985 -0.068153724
000060 fc e8 83 3d 52 a2 96 bd 74 9e a7 3d 6c f0 7a 3d
       0.064409226 -0.07355179 0.081845194 0.06126444
000070 05 b8 7f 3d 1a 52 4f 3d 0b f4 71 3e 84 d8 c3 bb
       0.062431354 0.050615408 0.23628251 -0.0059767384
000080 71 b8 e9 39 08 61 58 bd a0 b1 d9 3b 46 d7 73 bd
       0.00044578643 -0.05282691 0.006643489 -0.059531473
000090 15 d2 63 bd a6 da 34 3e 43 00 cc bd 2a f4 ef bd
       -0.05562027 0.17661533 -0.099609874 -0.117164925
0000a0 9b ff 91 bc a7 15 bd bc 62 3a 45 bd 60 4e 2b 3e
       -0.017822077 -0.023081614 -0.04815138 0.16729116
0000b0 cb aa 22 bd e6 41 49 3d 29 e6 25 be 0f 4f f4 3d
       -0.039713662 0.04913511 -0.1620108 0.11929142
0000c0 ca a0 57 bd 9c 3c d8 3c eb 55 92 bd ae cd da 3d
       -0.052643575 0.026396088 -0.07145294 0.106837615
0000d0 f6 c1 71 3c 65 1b be 3d 7b 91 c7 bd 9d 43 50 be
       0.014755717 0.09282569 -0.09744545 -0.20338292
0000e0 02 03 e0 3d c2 48 29 be f2 2f 40 be 41 d5 4b be
       0.10938074 -0.16531661 -0.1876829 -0.19905569
0000f0 b8 42 32 bc 20 67 1c 3c ad 7c ad 3c f3 1e 96 3d
       -0.010880165 0.009546071 0.021177614 0.07330122
000100 fa 01 c5 3c c3 74 92 bc 81 c5 0d be f2 47 da 3d
       0.024048794 -0.017877942 -0.13844873 0.10658254
000110 59 2d 93 bb 48 52 a9 3d b9 30 31 bd 15 5d de bd
       -0.00449149 0.08267647 -0.043259356 -0.10857598
000120 b3 5b b0 3d 8b de e7 3d 1f 5b f2 bc 39 fc 7d 3d
       0.0861124 0.113217436 -0.029584466 0.062008116
000130 5a 82 10 3b 4e be 57 be 0c 62 ba 3d d1 fb 0f bd
       0.0022050352 -0.21068689 0.09100732 -0.03515226
000140 3c 76 a9 bd b4 b1 15 3d b2 f8 86 3d 24 3e 87 bd
       -0.082745045 0.036546424 0.065904036 -0.06603649
000150 85 d0 19 3e 74 36 a8 3d 8f 28 f3 3c 2a 25 15 be
       0.1502095 0.08213511 0.029682426 -0.14564958
000160 12 b9 1c bc 88 97 63 3c af 93 63 3d a6 3b 40 be
       -0.009565609 0.013891108 0.055560764 -0.18772754
000170 77 5e 33 3d cc e1 be bd 05 66 66 3d 4b 0b 98 bc
       0.04379126 -0.09320411 0.056249637 -0.018560072
000180 9b 80 a5 3d 40 1c 98 3d 93 38 4f bd 96 fc 0e 3d
       0.0808117 0.07427263 -0.050591063 0.034908853
000190 89 3a bd bc 8a 47 7c bd 58 24 c0 3d b4 eb c9 bd
       -0.0230992 -0.061591662 0.09381932 -0.0985941
0001a0 e0 4a 63 3c a0 d9 13 be f8 d9 5f bd eb 80 68 bd
       0.013872832 -0.14438486 -0.05465123 -0.05676357
0001b0 8d c4 45 3e 4b 0f 28 be c2 10 a8 3d 2e 1b c9 bc
       0.1931326 -0.16412084 0.08206321 -0.024549093
0001c0 c7 f1 f8 3c 89 b3 4c 3c 88 35 d3 3d 96 3f 5a 3c
       0.030388726 0.012493976 0.10312945 0.013320824
0001d0 68 de 18 3e e8 ba e8 bc 54 3d 34 be 82 49 de bc
       0.14928591 -0.028409436 -0.1760152 -0.02713466
0001e0 45 97 d9 bd 79 6e 86 bc a4 1c 3f be d7 16 de bd
       -0.106245555 -0.0164101 -0.1866327 -0.108442
0001f0 ff 8c 2b 3e 67 96 15 bd 38 94 da bd 4f c6 ea bb
       0.16753004 -0.036520388 -0.10672802 -0.0071647535
000200 8a 62 f7 3c b1 85 98 3d b6 e2 c5 3d 93 41 1d be
       0.030198354 0.074473746 0.09662382 -0.15357046
000210 d1 40 85 3d 28 f1 f8 3d 5b d2 2e bd 1b 57 e0 3d
       0.065065034 0.12155372 -0.04268108 0.10954114
000220 7a 1c ab bd 4f 57 b3 3b 7c 5c 3d 3d fc c8 21 3b
       -0.08355041 0.0054730545 0.046230778 0.0024686446
000230 37 fe e8 bd fe db aa 3d dd 55 68 bd a5 01 2c bb
       -0.11376613 0.083427414 -0.05672251 -0.0026246097
000240 77 54 ba 3d 77 3b 80 3b f8 55 42 be 49 a3 96 bd
       0.09098142 0.0039133388 -0.18978107 -0.07355363
000250 82 78 96 3d 0f ca f4 bd 75 f2 1f bd d9 8c 9b 3d
       0.07347204 -0.11952602 -0.039049584 0.07595224
000260 01 4d c9 3d 1d 01 88 bd bd b2 1b be 33 5f e7 3d
       0.098291405 -0.06640837 -0.15204902 0.11297455
000270 54 da 91 3c ff 4e 17 3d 6c 91 31 3d 32 5c 25 be
       0.017804302 0.03694057 0.043351576 -0.16148451
000280 fe 23 cb bc ad b4 f6 3c 9b 09 23 3d 74 48 fa 3d
       -0.024797436 0.03011545 0.039804082 0.122208506
000290 5b 0d 63 3c 63 26 2b 3e 49 f0 eb 3d a6 d4 25 be
       0.013858165 0.16713862 0.1152044 -0.161944
0002a0 d4 3e 51 3c 7d fc 04 be 02 6c 5f bd 96 09 94 bd
       0.012771327 -0.12986942 -0.054546364 -0.07228391
0002b0 dc f1 17 bd a4 d6 e3 3c 3b 51 89 bd 9f 85 94 bc
       -0.03709589 0.02781231 -0.067049466 -0.018130122
0002c0 c0 7e 40 3d 7b fd 51 3d b5 9f ef bc 9b dc 50 3d
       0.04699588 0.05126713 -0.029250959 0.050991636
0002d0 1b 59 b0 bc 83 59 55 bd 38 95 1e be de 69 e5 3c
       -0.021526864 -0.05208732 -0.1548661 0.028004583
0002e0 2e 75 b1 bd 16 85 0a be 03 75 11 bd 1f e3 f6 3c
       -0.086649284 -0.13527331 -0.03551198 0.030137597
0002f0 2a 91 0d 3d b9 12 0a 3e 60 d3 3b bd 58 d2 21 bc
       0.034562267 0.13483705 -0.04585588 -0.00987681
000300 8c 80 59 bc d3 85 9e bc 24 38 de bc 5d 65 b7 bd
       -0.013275277 -0.019350922 -0.02712638 -0.089548804
000310 9c cc 12 bd b9 98 8f bd e5 26 8e 3d b6 65 85 3e
       -0.035839662 -0.070115514 0.06941012 0.26054162
000320 c6 6e 9c 3d 49 5d 66 3d 45 ae e0 3d 7a 86 02 bd
       0.07638316 0.056241307 0.10970739 -0.031866528
000330 42 32 55 3d 4c 7b 8f bc 79 f6 36 3e 5a cf c5 bd
       0.052049883 -0.017514847 0.1786746 -0.0965869
000340 80 03 30 be 2d cd 26 be ed 18 34 be 0f cb 35 bd
       -0.17188835 -0.16289206 -0.17587633 -0.044383105
000350 55 8f 39 3e 2c f4 a2 3d 59 ba 78 ba 06 8e ee 3d
       0.18121083 0.07956728 -0.0009488217 0.116481826
000360 5c 4c a6 3d b1 0e 6a be 71 5d 0f bc b1 6a c1 bd
       0.08120033 -0.22857167 -0.0087503055 -0.09444178
000370 72 17 9b 3d 9f 76 c9 3d 51 56 40 3d 5f 3d 6a bd
       0.07572831 0.09837078 0.046957318 -0.057187434
000380 b3 9b 89 3d 7d e1 3c bc 5c 18 bd 3b e3 11 7a bd
       0.067191504 -0.01152837 0.005770726 -0.061052214
000390 e0 bc 95 3d ab f2 a8 bc ff c8 ac bd c0 39 3f bd
       0.07311416 -0.020623526 -0.084367745 -0.046685934
0003a0 18 59 99 bd 07 f3 e5 bd 6d ab 0c 3d e4 1f f6 bc
       -0.074876964 -0.112279944 0.034343172 -0.030044504
0003b0 00 44 d7 3d ee ce af bd 16 2f b3 bb 9a fc 7f bc
       0.10511017 -0.085843906 -0.0054682596 -0.01562419
0003c0 2e d3 e8 3a a8 7b 82 3d dc e8 fc bc 32 3d b5 bb
       0.0017763132 0.06371242 -0.030872755 -0.0055309767
0003d0 35 5f b0 bd d3 55 a2 3d 72 5a 1e 3c eb 0d 50 3e
       -0.08611909 0.07926526 0.0096651185 0.2031781
0003e0 69 9d bc bd 38 1e 88 3c d1 80 20 3d 08 9d 9e bc
       -0.09209711 0.016615972 0.03918535 -0.019361988
0003f0 72 0c 2b 3d 23 35 40 3e 97 62 c7 bd d6 f1 bc bc
       0.041759916 0.1877027 -0.097356014 -0.023064535

network_body._body_endoder.seq_layers.4.bias f4 [128]
000000 7e 32 6a bc a8 02 d2 bc fb 6e 77 bc c4 c3 65 bc
       -0.014294265 -0.025636032 -0.015102143 -0.014023725
000010 98 ad cd bc e1 78 60 bc 13 e2 b1 bc c0 c3 da bc
       -0.02510719 -0.013700695 -0.021714246 -0.026704669
000020 fe 86 49 bd 58 81 61 3b 33 01 de bc fc 0e c8 3b
       -0.049201004 0.003440937 -0.027100181 0.006105302
000030 53 95 bc bc 3f 4f d5 bc 85 7d 92 bc e6 cc 46 bc
       -0.023020422 -0.026038764 -0.017882118 -0.0121338125
000040 16 62 a1 bc 48 6c f6 bb 3e d9 be bc ee df 8d bc
       -0.019700091 -0.0075202323 -0.023296949 -0.017318692
000050 57 a3 2b bd 1c 49 f8 bc 32 cc 05 bd 9c e8 08 bd
       -0.04190382 -0.030308299 -0.03266544 -0.03342496
000060 f0 93 0a bd a4 42 e8 bc 4b 0c ec 3a 07 3b c2 bc
       -0.03383249 -0.02835209 0.0018009035 -0.023709787
000070 f7 7f c9 bc cc 9e ab bc 72 9f a8 ba 82 51 7f bc
       -0.024597151 -0.020949744 -0.0012864901 -0.015583398
000080 4e 44 14 bc 8a 56 b2 bc d6 e2 87 bc 4c 98 95 bc
       -0.009049488 -0.02176978 -0.016587656 -0.018261097
000090 5d 45 4e bc 4a 14 36 bc 88 e1 43 bc c0 82 d1 bc
       -0.01258978 -0.011113236 -0.011955626 -0.025575042
0000a0 49 70 61 bc a9 47 04 bd a2 92 b3 bc 75 af c0 bc
       -0.013759681 -0.032294903 -0.021920506 -0.023521164
0000b0 29 9a 5c bc f3 13 e2 bc de df 8e ba e2 03 05 bd
       -0.013464489 -0.027597403 -0.0010900458 -0.032474406
0000c0 f6 13 82 bc ed 93 ac bc a3 fe a8 bb 06 71 83 bc
       -0.015878659 -0.02106663 -0.005157308 -0.016045105
0000d0 dc 39 c8 bc 1c 70 90 bc a7 33 30 bd 53 e4 c6 bc
       -0.024441652 -0.017631583 -0.04301801 -0.024278795
0000e0 f1 09 e8 bc 2c 96 ca bc c8 ae 4d bc 38 5e 9e bc
       -0.028325053 -0.02472981 -0.012553878 -0.019332036
0000f0 54 c1 67 bc 9a 11 94 bc 2a de b5 bc f7 98 0d bd
       -0.014145214 -0.0180748 -0.022200663 -0.034569707
000100 34 87 5a bc 2a b8 68 bc c9 cd 8c bc 5f b7 77 bc
       -0.013337899 -0.014204064 -0.01718797 -0.015119403
000110 e4 89 eb bc e1 c6 d7 bb f0 08 6a bc d2 39 39 bc
       -0.028752275 -0.0065849875 -0.014284357 -0.011305289
000120 c7 81 6e bc 8e 77 60 bc 05 8c 99 bc ce f6 90 bc
       -0.0145573085 -0.013700379 -0.018743524 -0.01769581
000130 10 07 28 bd 17 29 c9 bc 24 ee b5 bc 03 7a cd bc
       -0.04102236 -0.024555726 -0.02220828 -0.025082594
000140 0d f9 82 bc cd 58 65 bc 8e 78 85 bc e5 57 eb bc
       -0.015987897 -0.013998223 -0.016292837 -0.028728435
000150 59 cf 48 bd be df cd bb a2 51 71 bc 90 d7 d1 3a
       -0.049025867 -0.0062827757 -0.014728935 0.0016009677
000160 37 44 e1 bc 9e 04 82 3c 5a 52 c5 bc 6d 05 61 bd
       -0.027498348 0.015871342 -0.02408712 -0.054936815
000170 7a f4 b1 bc 42 47 7b 3c 30 f6 d7 bc 0e e3 0c 3b
       -0.02172302 0.015336813 -0.026362509 0.002149764
000180 a4 50 54 bc 0e a8 89 bc d5 98 07 bd 02 ac 2e 3b
       -0.012958679 -0.016803768 -0.033104736 0.0026652818
000190 08 72 d8 bc 0a 28 55 bc b0 81 d0 bc 02 1e c0 bc
       -0.026421562 -0.013010034 -0.025452465 -0.023451809
0001a0 49 cf 26 bc 4e 2a 13 bd 85 e5 63 bc 1b b5 00 bd
       -0.010181257 -0.035929017 -0.013909702 -0.031422716
0001b0 f4 da da 3b 92 99 d1 b9 03 f4 77 bd e8 a3 e4 bb
       0.0066789333 -0.00039978005 -0.060535442 -0.006977547
0001c0 a3 1e f8 ba ac 2f 77 bc 8a 46 c9 bc 64 f9 7f bb
       -0.0018930029 -0.015087049 -0.024569768 -0.003905856
0001d0 ca 73 30 bd 20 57 88 bd 0c 56 fe 3b ed de a9 ba
       -0.043079175 -0.06657243 0.0077617224 -0.0012960114
0001e0 6b 77 c4 bc fc 6e d6 bc 54 7b a4 bc 69 3e 43 bc
       -0.023982724 -0.026175968 -0.020078339 -0.011916735
0001f0 94 75 d2 bc 4d 2b e9 bc ea 68 e1 bc 0f c7 1a 3b
       -0.025690831 -0.02846303 -0.027515847 0.0023617183

action_model._discrete_distribution.branches.0.weight f4 [3, 128]
000000 05 ab 0f bb 99 30 ee 3b 6f a5 2e bc 36 8b 2c 3b
       -0.0021922004 0.007268977 -0.01065956 0.0026328093
000010 8f bd 95 bc ca 6a 0e 3c 5a 4a 24 3c 47 48 8a 3b
       -0.018278865 0.008692453 0.010027492 0.004220042
000020 37 33 47 3b 2d d9 72 3a 46 c5 c3 3c 8e 70 c7 bc
       0.0030395517 0.0009263929 0.023897778 -0.024345662
000030 ca ea aa bb b7 1b f6 bb 4d 72 c9 bb 03 dc ca 3a
       -0.0052159773 -0.007510628 -0.006147659 0.0015476946
000040 ca e8 a5 3c 5f fd 9e ba b0 32 0c bc 6a 39 1a bc
       0.020252604 -0.0012129954 -0.008557007 -0.009413103
000050 f0 e2 f1 3b d2 df 5a ba bd 43 0a bc a9 a9 47 bb
       0.0073817894 -0.0008349392 -0.008439002 -0.0030466116
000060 29 4e 17 bc a7 c0 f1 3a 58 aa 25 3c 2c 90 80 3c
       -0.009234943 0.0018444256 0.010111414 0.015693747
000070 1c 59 cf 38 e7 ae 72 bc ec 13 ae 3c db e7 ae 3b
       9.887127e-05 -0.014812208 0.021249734 0.005337698
000080 6e cc 76 bb b7 5a 59 bc 6d b6 34 bc 31 de f5 3b
       -0.003765847 -0.013266257 -0.011029822 0.007503294
000090 a2 4b a7 bb d9 34 16 bb cc e7 10 3b cc 35 98 bc
       -0.0051054517 -0.0022919683 0.0022110818 -0.01858034
0000a0 5a 4e bf bb c4 ce fd 3b bd 7f 61 3c 69 a8 fc bc
       -0.0058381977 0.0077455956 0.013763365 -0.030842023
0000b0 73 ed 81 3c 90 b9 8a 3c b3 ef 0d 3c 2f 53 83 3b
       0.015860295 0.016934186 0.008663106 0.004007719
0000c0 dd f8 7c bb 3d 3f d0 bb 9f 1f 31 bc 3c 7f ad 3b
       -0.0038600483 -0.006355195 -0.010810762 0.0052947085
0000d0 35 4e 96 bc cd af 4b 3a b4 2c 8e 3b 74 b6 3d 3b
       -0.018347839 0.0007770032 0.004338825 0.0028947862
0000e0 96 a7 21 3c ca fd 4e bc 92 50 8b bb c6 44 c7 3b
       0.009866616 -0.01263375 -0.004251548 0.0060811965
0000f0 31 84 ce 3b 8b cc 8c 39 b7 f8 fd ba 88 b9 90 bc
       0.0063023795 0.00026855277 -0.0019376491 -0.017666593
000100 6e df 4c ba 05 fb 8f 3c 46 db 06 3c 46 ef 31 3c
       -0.0007815276 0.01757575 0.00823099 0.01086027
000110 ff c9 83 bc 79 4a 17 3c 5f ae 67 3c b9 d1 51 3c
       -0.01608753 0.009234064 0.014140694 0.012806349
000120 90 5f 69 ba 9f 13 b5 bc 93 bc ff 3b 01 8f 80 3b
       -0.00089024846 -0.022104083 0.007804462 0.0039232974
000130 b6 5a d6 3b d7 d5 ea bb c8 a3 ed 38 35 26 42 bc
       0.0065415753 -0.007166605 0.00011331547 -0.01184993
000140 85 1a e2 3b e8 9e e3 3b 74 d3 e6 bb 5f eb 93 bc
       0.006900134 0.0069464333 -0.00704425 -0.01805657
000150 a4 e4 d1 bb 07 53 5e 3b e0 ef 90 3b 32 05 2e bc
       -0.00640543 0.0033924 0.0044231266 -0.010621356
000160 52 09 87 3b 53 9a 30 bc 48 2c ba 3b 59 40 a6 3b
       0.004120984 -0.010778981 0.0056815483 0.005073589
000170 74 00 0e 3c 6c 8d 2a 3a a9 e1 7a 3b 3a 28 58 3b
       0.0086671 0.0006506059 0.0038281477 0.0032982961
000180 89 e4 4a 3c d7 ee b6 3c c2 34 32 bc 41 99 cb 3b
       0.012383589 0.022330685 -0.010876836 0.0062133376
000190 0a 29 48 bb d5 6d 22 bc f8 fb 1c 3c 16 1f 03 3d
       -0.003054204 -0.009913881 0.009581558 0.032012068
0001a0 91 ee 07 3c 1b 78 b1 bc a5 ff ec 3b b5 c0 8e ba
       0.008296625 -0.021663716 0.0072326236 -0.0010891171
0001b0 12 6d 74 3c f6 a1 c8 3b 6b d3 a9 bb cf 5e 70 ba
       0.0149185825 0.006122823 -0.0051826737 -0.0009169401
0001c0 76 24 81 3a cf c5 08 bc f1 cc 25 bc 70 bd cd bb
       0.0009852785 -0.0083479425 -0.010119663 -0.006278686
0001d0 3c 79 30 3b e4 52 4c ba ea af c8 3b ca 07 8e bb
       0.002692773 -0.0007794334 0.006124486 -0.0043344246
0001e0 77 db 74 3c 48 c6 e0 bb 47 2b 84 3c fe c9 96 bb
       0.014944903 -0.0068595745 0.016133917 -0.004601716
0001f0 2d f3 58 bb e2 fd ec bc 0f 6c 2e 3b 67 a0 a5 bb
       -0.0033103928 -0.028929655 0.00266147 -0.005054522
000200 51 b3 3f bc 16 fc a3 3b d5 b5 b4 3a 86 e3 28 bb
       -0.011700467 0.005004416 0.00137871 -0.002577038
000210 45 10 8b 3c 61 10 94 bb 19 5c 6a bc b1 9f f6 3b
       0.016975531 -0.004518554 -0.014304184 0.007526361
000220 45 c8 98 3b b3 4c 1f 3c ae 17 80 bb cf 43 e6 3b
       0.004662546 0.009722876 -0.003909073 0.0070271264
000230 df 86 ef bb 4e e0 31 bb b2 93 f5 3b 96 a6 25 3c
       -0.007309779 -0.0027141753 0.0074944133 0.010110518
000240 08 d6 e3 bb ce e0 89 bb 58 12 77 3b d7 61 2b 3c
       -0.0069530047 -0.004207707 0.0037700143 0.010460339
000250 a5 60 41 bb ea 46 68 3c 3f ab d0 3b 0d 83 9f 3b
       -0.0029507068 0.0141770635 0.0063680704 0.0048679174
000260 da 7a a9 ba bc ce 44 3c c4 03 74 bb 59 76 fc ba
       -0.0012930289 0.01201218 -0.003723369 -0.0019261345
000270 1e 10 c0 bb 2d 27 3d 3b c0 a3 61 bc 24 8b 98 ba
       -0.0058612963 0.0028862462 -0.013771951 -0.0011638147
000280 05 f5 00 bc 1c 7c 38 3b 5e 34 3f 3c cc ad 53 bc
       -0.007870917 0.0028150147 0.0116702 -0.012919854
000290 8b d3 4a 3a c8 1a 3e bc d8 61 70 bc 15 b0 c3 3b
       0.0007737211 -0.011603065 -0.014671765 0.0059719183
0002a0 15 19 97 3b ca 5a ff 3b 0a cb e1 3b fc 59 1d 3c
       0.0046111443 0.0077928053 0.006890659 0.0096039735
0002b0 39 2d d3 3b f0 c8 2f bc 5b fb 03 3c 43 87 34 3b
       0.0064446 -0.01072906 0.008055533 0.0027546443
0002c0 6e a8 8b 3b c6 21 2b bc 16 c4 a3 3c 6f 3a b5 bb
       0.0042620217 -0.010445064 0.019990962 -0.0055306475
0002d0 23 86 62 3c 7c c7 bf bb 6d 46 10 3b 6e 00 7c 3b
       0.013825926 -0.005852638 0.0022014633 0.0038452405
0002e0 d6 96 42 bc 39 90 ae 3c 6e 73 26 bb f8 18 2b bb
       -0.011876782 0.021309005 -0.0025398391 -0.0026107412
0002f0 23 53 ad bc 85 66 13 3c c0 c9 86 3b d5 c8 8b 3c
       -0.021157807 0.0089966105 0.004113406 0.017063538
000300 0f 3c 1c bc 15 a1 27 bc 22 eb 92 bc 5d 8a ee bb
       -0.009535803 -0.010231276 -0.017934386 -0.007279678
000310 db bc 0d 3c ec 32 34 bb ef e1 b0 3b 0b 06 d4 bb
       0.008650984 -0.0027496172 0.005398027 -0.006470447
000320 17 78 a4 3b a2 49 13 3b 7d a6 b3 bb 4f 1f 4f bb
       0.0050191986 0.0022474308 -0.0054824934 -0.0031604355
000330 90 22 c5 bb 2c 99 1b bb c9 b6 1e 3b c5 b0 bc 3b
       -0.006016083 -0.002374242 0.0024217835 0.0057583773
000340 56 c4 a6 bc b7 04 00 bc df b0 ab bb 07 fd cc 3c
       -0.020357292 -0.007813624 -0.0052395905 0.025022997
000350 07 35 03 3c 5d a4 f4 3b 17 0b d5 37 c7 77 b6 ba
       0.008008248 0.0074658827 2.5396743e-05 -0.0013921194
000360 9d d8 70 3b 37 f7 a2 3b 31 81 29 bc f8 4c c2 3b
       0.0036750205 0.004973318 -0.010345743 0.0059295855
000370 6b 87 29 3b 9c b6 ec 3b c7 71 e4 3b 12 19 36 bb
       0.002586807 0.007223917 0.006971571 -0.002778594
000380 72 ff 87 bb 0e f0 60 bb 3e a3 00 bc 1a 1a 20 bc
       -0.0041503245 -0.0034322771 -0.00785142 -0.009771848
000390 76 59 8d 3b 91 19 93 bb 22 e3 52 3b ac e6 fc bc
       0.004313643 -0.0044891317 0.0032178839 -0.030871712
0003a0 3a fc e4 b8 aa 68 0e bc e9 0f 37 3c 5e b1 5d 3c
       -0.00010918868 -0.008691946 0.011173227 0.013531057
0003b0 34 5c 38 bc ac 8c 25 bc 28 d6 05 bb 08 12 18 3b
       -0.011252452 -0.01010434 -0.0020421837 0.0023204107
0003c0 9b ac b6 bc 68 b0 f6 3b 6f 9a 17 bc 92 06 ca bb
       -0.022299102 0.0075283535 -0.009253128 -0.006165334
0003d0 4a 7c 84 bb 4f 0d 05 bb 83 79 19 bb 85 98 30 3c
       -0.0040431367 -0.0020302122 -0.0023418374 0.010778551
0003e0 11 b9 35 ba 03 37 27 3c ec 84 ad bc df 77 4e bb
       -0.0006932179 0.010205987 -0.021181546 -0.0031504554
0003f0 44 c3 f5 3c 57 0a ca 3c 0d b7 bd 3b 64 4b 19 ba
       0.030000336 0.024663134 0.0057896436 -0.0005847721

action_model._discrete_distribution.branches.0.bias f4 [3]
000000 4f 03 bf 3b 51 38 51 bb 2d fa ab b9
       0.005829252 -0.0031924436 -0.00032802057

action_model._discrete_distribution.branches.1.weight f4 [3, 128]
000000 90 84 d6 3b 5f f7 ec bc 62 f9 4a bc 14 74 4d 3c
       0.0065465644 -0.02892655 -0.012388559 0.012539882
000010 65 52 52 bc 71 1b 5e 3c ae 94 4c 3c 56 b2 3a bc
       -0.012837027 0.013556347 0.01248662 -0.011395058
000020 62 8b 3b bc 77 fe fd ba aa 0a ac 3c b4 20 de bc
       -0.011446806 -0.0019378205 0.021001179 -0.027115203
000030 b7 28 52 3b 21 7d 26 3c bb 3a 60 bc 0f a1 f6 3a
       0.0032067725 0.010161669 -0.013685877 0.001881631
000040 48 03 8a 3c 9e b7 92 b8 65 5b 56 bc a8 9e be bc
       0.016847268 -6.996024e-05 -0.013083314 -0.023269013
000050 0e 18 e6 3a 67 52 de bb 0b 53 75 ba a4 92 06 bd
       0.0017554776 -0.0067847255 -0.00093583827 -0.03285469
000060 d4 66 d8 bb 46 3d 2f bb b9 14 25 3b e7 9b 9d 3c
       -0.006604055 -0.0026739403 0.0025189354 0.01923938
000070 52 b9 b8 3b 51 0d 30 3b dd 25 ad 3c 8f 16 05 3c
       0.0056373263 0.0026863406 0.021136219 0.008123054
000080 13 d2 61 3c 35 20 a5 bc 5c fb c0 3a e9 69 33 3c
       0.013782996 -0.02015696 0.0014723348 0.010950544
000090 6c 06 13 3a 8f 38 8f 3c b4 78 48 3c 66 c1 8f bb
       0.0005608562 0.017483024 0.012235809 -0.0043870686
0000a0 d9 e6 63 3a 46 05 ec 39 35 e9 99 3a b1 a0 2f bc
       0.0008693762 0.00045017357 0.0011742475 -0.010719464
0000b0 95 89 a8 39 33 ba 78 3c 69 ee 31 bc 94 ee 40 bc
       0.00032145964 0.015181112 -0.010860064 -0.011775631
0000c0 8a 72 c9 bc aa cc 19 3c 51 9c c0 bb 14 09 78 3b
       -0.02459075 0.009387175 -0.0058780094 0.0037847208
0000d0 4d 96 98 bc 73 e4 84 3c ed c2 18 bc 9c 8a 53 3c
       -0.018626356 0.016222214 -0.009323818 0.012911465
0000e0 af 4d 31 3a 42 60 1d bc 29 04 4f bc 21 8b 07 bc
       0.000676359 -0.009605469 -0.012635269 -0.008272917
0000f0 79 bf b5 3c 84 77 e3 39 ec 8e 0c b9 43 be d6 bb
       0.022186028 0.0004338586 -0.00013404683 -0.0065534427
000100 f2 2f 3e 3c 9f c6 bd 3a 67 0b 37 3c 84 3d 60 3c
       0.011608111 0.0014478749 0.011172152 0.0136865415
000110 1f 8a ca bc 54 12 85 3c d7 65 c2 3c a9 6a 11 bb
       -0.024724064 0.016244091 0.023730202 -0.0022188819
000120 56 f5 5a bc 45 ee 1a bd 50 94 a4 3c 8b 75 80 3c
       -0.013364157 -0.037824888 0.020090252 0.015681049
000130 00 13 dd 39 16 7a 3f 3c 4d a7 eb ba bd b0 84 bc
       0.0004216656 0.011686822 -0.0017978937 -0.016197557
000140 8f e7 8d ba 00 95 66 3c 63 0c bf bb d9 91 f4 bc
       -0.0010826456 0.01407361 -0.005830334 -0.029854702
000150 a4 90 41 3c 2d 46 c7 b9 de 7c cd 3b 3e 58 8a 3c
       0.01181427 -0.00038008523 0.006270989 0.01688778
000160 3e 00 92 bb 1a 52 e0 ba 25 a7 35 3c 85 ea d0 bb
       -0.0044555953 -0.0017114312 0.011087214 -0.006375613
000170 25 16 51 3c 6e bd fc ba 09 8b 12 bc b2 f1 73 3c
       0.012761627 -0.0019282529 -0.008944281 0.014889168
000180 30 4f 32 bb b7 c5 b9 3c 69 3d e9 ba 88 da f3 3b
       -0.0027207844 0.022677286 -0.0017794791 0.0074418224
000190 b1 27 99 bb 66 94 0f 3c d4 8e 5e 3c a3 0f 1c 3c
       -0.004673921 0.008763408 0.013583858 0.009525212
0001a0 f2 42 8e 3c 75 e1 9f bc 5d e5 36 3c b5 20 66 bc
       0.017365906 -0.019516686 0.011163083 -0.014045884
0001b0 2d f4 44 3c 13 80 28 3b 1f eb 34 bc 0a bf ee bc
       0.012021107 0.0025711104 -0.011042385 -0.029143829
0001c0 81 c9 1a 3c 21 a2 a6 bc 05 9f 87 bc bb e1 6e bc
       0.009447456 -0.020340981 -0.016555319 -0.0145801855
0001d0 cd e5 07 bc 3b d5 57 3b d3 5f 37 ba 94 03 dc 3b
       -0.008294535 0.0032933492 -0.0006995175 0.0067142937
0001e0 8a 91 3e 3c c0 98 c9 bc 1e b2 b0 3c e4 cc 5b 3c
       0.011631379 -0.02460897 0.021569308 0.013415549
0001f0 48 ff 1d bd 36 0e 70 bc a7 45 a7 3a 13 b2 46 bc
       -0.038573533 -0.014651826 0.0012761847 -0.012127417
000200 59 f0 9e 3c a2 c3 33 3b 53 35 6c bc 61 3e 95 3b
       0.019401716 0.0027429839 -0.01441701 0.0045545553
000210 07 57 ec bb fd f0 9e 3c 07 f4 ec 3b 17 09 27 bd
       -0.007212523 0.019402022 0.0072312388 -0.040780153
000220 a9 40 84 3b 75 a8 dc bc cf 3a 7c 3c 25 fd b9 bc
       0.0040360284 -0.026935795 0.01539488 -0.022703717
000230 cd 92 02 bc 80 a8 0f 3c 3f ca 67 bb 8d fd 81 bc
       -0.00796957 0.008768201 -0.003536835 -0.015867973
000240 45 92 31 3c 88 7d 46 3b 71 49 5d bc 12 61 77 bc
       0.010838096 0.0030287225 -0.013506279 -0.015098827
000250 49 dd 72 bc b4 03 3f bc 94 a6 22 3c ff d4 11 bc
       -0.014823266 -0.011658598 0.009927411 -0.00890088
000260 0f 89 10 3c 97 97 58 bb 86 fb e8 36 7b aa 34 bc
       0.00882174 -0.003304934 6.94342e-06 -0.011026974
000270 0f 9a da ba 44 ee 9d bb b2 05 08 3b 3b ed 0c 3b
       -0.0016677993 -0.0048196632 0.0020755348 0.0021503705
000280 2f 6c 02 3c 2d 0b 04 3c c7 d9 aa b8 06 00 7e 3c
       0.007960363 0.008059305 -8.146796e-05 0.015502935
000290 bb f8 5a 3b 78 da fc 3b 8b 23 0c 3c ec 9f 4c bc
       0.0033412415 0.007716473 0.008553396 -0.0124893
0002a0 82 d6 03 bc 61 c2 09 bb 4c 8c 18 bc 54 70 9b bc
       -0.008046748 -0.00210204 -0.009310793 -0.01897446
0002b0 d8 bd fc 3a d8 46 8b 3c 3d 07 78 bc 9a 88 f7 bb
       0.0019282652 0.017001554 -0.0151384445 -0.007554126
0002c0 62 b1 55 bc 9d d7 75 bb e1 94 dd 3b 13 c0 16 3c
       -0.01304278 -0.0037512549 0.0067621325 0.0092010675
0002d0 7a ef 78 bc 2e 2f 1e 3c 29 a8 a2 bb f5 b2 8d bc
       -0.015193814 0.009654803 -0.004963894 -0.017297247
0002e0 76 96 8a bb bb 22 19 bc 2a 41 2a bb fc f3 a2 bb
       -0.004229362 -0.009346659 -0.0025978782 -0.004972933
0002f0 8f 62 82 3c 93 14 31 bc c4 fc 58 bb 62 ef 3a 3b
       0.015916137 -0.010808128 -0.0033109644 0.002852403
000300 21 90 48 3c 78 19 3e bb ba 81 de 3b d6 3f 91 3c
       0.012241394 -0.002900688 0.006790367 0.017730635
000310 ab 78 56 bc 9e de 33 bb fd af bf 3b 62 78 6c 3c
       -0.013090293 -0.0027445923 0.005849837 0.014432998
000320 9d 6e 05 3b fa b2 09 bb f3 be 5e bc 12 0c 79 3b
       0.002036012 -0.002101122 -0.0135953305 0.003800158
000330 98 55 55 3c a6 28 5d 3c ac 07 c8 3b 79 83 25 bc
       0.013020895 0.013498461 0.00610443 -0.010102146
000340 9c 92 3b 3b 0c 71 84 bb de d6 59 3b cb 44 b1 bc
       0.0028621322 -0.0040417966 0.0033239643 -0.021639248
000350 08 b1 bd ba 44 75 78 bb ef d3 b9 3b 3d 20 28 bc
       -0.0014472315 -0.0037911693 0.0056710164 -0.010261592
000360 df 99 8d bb 0c ae ec 3b 71 6c 08 3c c9 ed 0f 3c
       -0.0043213214 0.0072228964 0.008326636 0.00878472
000370 78 1e ff 3b 6d 77 14 bc 13 89 e1 bb bd 7e fb 3b
       0.0077856146 -0.009061676 -0.0068827956 0.0076750205
000380 62 ee e5 bb bb 32 6b 3c 28 79 f8 bb cd 39 ca bb
       -0.007016943 0.014355357 -0.0075828023 -0.006171441
000390 9d 6b 79 bc a8 4b e1 3c c0 56 4f 3c 4d 6c 6b 3c
       -0.015223411 0.027501896 0.01265496 0.014369083
0003a0 d5 3a e7 3b 5d 3e c7 bb 04 63 b8 bb 6b 25 f4 bb
       0.007056574 -0.0060804323 -0.005627038 -0.0074507496
0003b0 9b d5 81 3c 14 8f 5c 3c dd 76 9c ba c1 cb 45 bc
       0.015848925 0.013461847 -0.001193728 -0.0120725045
0003c0 d5 ed 17 3b 36 55 af bc 86 cf d6 bc 02 b3 c2 3a
       0.002318253 -0.021402936 -0.026222002 0.0014854374
0003d0 02 80 4b b8 d0 55 33 bc 83 95 f5 ba d5 79 b0 bc
       -4.8518188e-05 -0.010945752 -0.0018736575 -0.021542469
0003e0 fc 6e 81 3c 4d 43 cb bc 70 66 f5 3b 63 53 ec 3c
       0.015799992 -0.024812365 0.007489018 0.028848356
0003f0 c3 ef ec bc 23 7a d2 bb b3 a5 04 3c b4 8c ab bc
       -0.028922921 -0.0064232512 0.008096146 -0.020941116

action_model._discrete_distribution.branches.1.bias f4 [3]
000000 6c 26 57 3c 70 60 0f 3c 49 cc 48 bc
       0.013131719 0.00875102 -0.012255737
