results/TwoKinkTrack-AWSTrack-TL-Apr20-3-49pm/MoveSomewhere/MoveSomewhere-6499991.onnx (onnx, 638066 bytes, 11 tensors)

action_model._discrete_distribution.branches.0.bias f4 [3]
000000 03 ac ab bb 7f f9 24 be 49 9c 42 3e
       -0.0052390113 -0.161108 0.1900493

action_model._discrete_distribution.branches.0.weight f4 [3, 256]
000000 d7 c4 48 3d 6e 37 22 bd fd 73 cb 3c c1 cb 96 bc
       0.049015846 -0.039603643 0.024835581 -0.018407704
000010 72 b4 0a be 5d f3 e0 bc 44 df d4 3c 7e fb 01 3e
       -0.13545397 -0.027459795 0.025985368 0.12693593
000020 94 40 30 3d f0 14 cc bc 21 fa a2 3d dd 09 fe bc
       0.043030336 -0.024912328 0.079578646 -0.031010563
000030 d3 aa dc bc 44 bf cc bc aa 42 81 3c c8 e2 21 bd
       -0.026936924 -0.024993546 0.015778858 -0.039522916
000040 1b 3f cc 3c ac 2f cf bc 8e 37 0c 3d f5 05 bf 3d
       0.024932435 -0.025291286 0.03423267 0.09327308
000050 ad 3b 80 3c 23 ad 88 bd 5e ff 38 3e 6d a1 69 bb
       0.015653456 -0.06673648 0.18066165 -0.0035649196
000060 63 0a 36 3c 7e 9d b7 bc fb a1 c5 3d 2e e1 03 bd
       0.011110875 -0.022413965 0.09650036 -0.03219717
000070 3a 5c 10 3d 1a 95 72 3d f9 8b 53 3c 40 de e3 3d
       0.035244204 0.059224226 0.01291179 0.11126375
000080 75 9b 08 3d e7 3a 99 bd 28 66 5f 3d 41 30 fd 3c
       0.03335138 -0.07481938 0.054540783 0.030906798
000090 e6 1f 3e 3d 42 a3 7a 3c 06 e8 a8 bb 21 70 91 3c
       0.04641714 0.015297713 -0.0051546125 0.017753663
0000a0 f9 96 19 bb 28 0e 94 3d 1d 0e 64 3c b7 e3 6c bc
       -0.0023435934 0.072292626 0.0139193805 -0.014458588
0000b0 7c b4 84 3c 93 7c 5a 3c 07 01 2b bb 4c 45 aa 3d
       0.016199343 0.013335365 -0.0026093142 0.083139986
0000c0 79 57 57 bb 6b e4 12 3d bc d4 86 3a 89 db 34 3d
       -0.0032858534 0.035862368 0.0010286788 0.044154678
0000d0 0c 32 42 3d 90 b0 67 3c 51 a9 7a 3c 48 bf bb 3c
       0.04741101 0.014141217 0.015299157 0.022918358
0000e0 96 08 a2 3d 42 a1 1b be 15 98 ce 3c 82 5b d2 3d
       0.07911794 -0.15198234 0.025219003 0.1027136
0000f0 9b b9 d0 bd 49 c3 2d 3a 87 e1 ed bc 5b fd 79 3d
       -0.101916514 0.0006628526 -0.029038204 0.061032634
000100 2c c4 4a 3c 17 bf 07 3d b8 a7 48 bd 19 00 f4 3d
       0.012375873 0.03314122 -0.048988074 0.11914081
000110 e9 c3 85 bd a1 2d 35 bc c9 ee d3 bb 67 53 9e bc
       -0.065315075 -0.011058242 -0.0064676744 -0.019326879
000120 f8 65 77 3d 05 6b 35 bc 17 5c fa bb 75 bb ac bc
       0.06039998 -0.011072879 -0.0076403725 -0.02108548
000130 83 65 45 bb 20 7b 9e 3c a0 c1 50 3e 5c 40 0c 3d
       -0.003012032 0.01934582 0.20386362 0.034241065
000140 56 39 4c bd 02 6c 59 bd c4 c1 60 bd 58 99 8a 3d
       -0.049859367 -0.05308152 -0.05487229 0.06767529
000150 0c aa 45 3d f5 a0 32 bd 4e 35 9e 3d 12 28 32 be
       0.048257872 -0.04361053 0.07725011 -0.17398098
000160 c5 60 26 3d 01 8e aa bd d4 43 b4 3d a9 11 4d bd
       0.04061963 -0.08327866 0.08802 -0.05006567
000170 e1 44 84 bc 02 d3 6e 3c 55 9c 24 bd f0 f4 f8 bc
       -0.016146125 0.014576675 -0.040188152 -0.030390233
000180 de 66 65 bd 89 8c 16 3d 96 98 57 bd bc 32 8a 3d
       -0.056006305 0.03675512 -0.05263575 0.06747958
000190 9b 72 91 3d 0f 75 0e 3d d3 4b 20 3d 5f 8b 0f bc
       0.071019374 0.034779605 0.03913481 -0.008761256
0001a0 a1 de 35 3c 2c f5 fd bc 3f 05 0e bd ea 8b 01 bd
       0.011100442 -0.031000696 -0.03467297 -0.031627573
0001b0 0a 26 2e 3c d6 0e 4c 3d 2c d5 dc bd 49 be f0 bc
       0.010629186 0.049818836 -0.10782847 -0.02938761
0001c0 c0 17 d6 bb c4 1b d3 3c 10 40 00 bb 42 0d a8 3c
       -0.006533593 0.025770076 -0.0019569434 0.020514134
0001d0 1d f6 2c 3d e4 8c 24 bd d7 bc 21 bd 67 a6 a8 3c
       0.0422269 -0.040173426 -0.039486732 0.02058716
0001e0 d0 47 f9 3c b0 3e 59 b7 ef e2 a9 3c 01 6b 3c 3c
       0.03042975 -1.29488035e-05 0.020738093 0.011500121
0001f0 a7 95 4a 3d 72 9a 29 3c 8a e0 6c bd 73 15 7b bd
       0.049459126 0.010351764 -0.057831325 -0.061299752
000200 84 d2 fd 3b 35 85 98 3c f5 93 b5 bc ff 47 2d 3d
       0.0077460427 0.018618206 -0.022165278 0.04230499
000210 8b 89 35 3d 94 d6 fa bb 21 fa 1e 3d 05 6e 67 3c
       0.044320624 -0.0076549742 0.03881276 0.014125352
000220 60 e4 07 3e fe bc 52 3c 05 37 69 bd 0e 01 00 bd
       0.13270712 0.012862442 -0.056937236 -0.031251006
000230 82 40 a8 3c 43 c6 25 3e 50 75 82 3c 53 c6 e1 3d
       0.020538572 0.16188912 0.01592508 0.110241555
000240 58 f2 c2 3b e1 33 9c bd b0 66 40 3d 53 17 45 bd
       0.0059493 -0.076270826 0.04697293 -0.048117947
000250 16 37 10 3e 5f 0a a3 bd fc 93 00 3d 1d ee d1 3c
       0.14083514 -0.079609625 0.03139113 0.025626237
000260 66 62 8f 3c 3d d6 cf 3c a4 37 1a 3d 83 dd a2 3d
       0.017502975 0.025370711 0.03765072 0.07952406
000270 db 17 db bc 28 9a 64 3d c4 d9 90 3c e0 b8 44 3d
       -0.026744774 0.055811077 0.017681964 0.048027873
000280 46 3e 27 bc dd e0 40 bd 23 be b0 3c 9b 60 be bb
       -0.010207718 -0.047089446 0.02157504 -0.005809856
000290 20 58 1b 3d 8d 10 63 bd fd c7 bb bd 6d d6 73 3c
       0.03792584 -0.055435706 -0.09169004 0.014882666
0002a0 a1 ba 49 3d 50 39 2d 3d ed 56 6c 3d d9 b2 1e 3b
       0.04925025 0.042290986 0.057700086 0.0024215488
0002b0 10 a6 47 bd 41 67 9c 3c d2 38 07 3c 0c f8 9f bc
       -0.048742354 0.019092204 0.008253293 -0.019527458
0002c0 da b0 a2 3a 52 eb e7 3c 6f 85 95 3c 1c ba a6 3c
       0.0012412325 0.028310452 0.018252103 0.020352416
0002d0 6d ed 0e bc 52 ff 8b bd be d2 25 bb 60 f2 a1 3d
       -0.008723599 -0.06835808 -0.0025302614 0.079075575
0002e0 6f 73 8d bb f1 0c eb bc 06 9c 78 bd fa d9 95 3d
       -0.0043167393 -0.028692694 -0.06069567 0.07316966
0002f0 34 6a 3d 3d 8f 08 69 bd 18 36 76 3d 37 c4 53 3d
       0.04624386 -0.056892928 0.06011018 0.051700797
000300 dc 76 0e bd 46 3e 8b 3d 69 ed 47 bb 55 8f d8 3d
       -0.034781322 0.06798987 -0.0030506498 0.105742134
000310 2f 6d c0 3c 7e 83 43 bc ea d8 5b 3d bb bf 7e 3c
       0.023489563 -0.011933206 0.053673662 0.015548642
000320 7b 51 02 3d 7d c1 1e 3d 16 e9 98 3c 1f c9 89 bd
       0.031815987 0.038758744 0.018665832 -0.06727814
000330 28 6f 21 3c 02 e4 89 3d d8 0a bf 3c af 88 62 bd
       0.009853162 0.06732942 0.0233206 -0.055306133
000340 57 e0 e2 3c 45 86 8e bd 94 db 44 3d 6b 3a cb 3d
       0.027694864 -0.06959204 0.04806097 0.09923252
000350 01 dc d6 3d da 79 bb 3d 34 87 59 bd dc 52 e4 3a
       0.10491181 0.09154101 -0.053107455 0.0017419714
000360 21 c5 12 bd 20 74 a3 3d 3d b4 af bc d9 f2 e7 3b
       -0.035832528 0.079811335 -0.021448249 0.0070785102
000370 fc 86 2a 3d 2b 9d b4 3d f4 f7 78 3c 50 54 a1 bc
       0.041632637 0.0881904 0.015195835 -0.019693524
000380 54 23 92 bc a6 be c8 3d 88 d1 f2 bc 63 5e 97 3b
       -0.017839111 0.09801988 -0.029640928 0.004619406
000390 e7 da c3 3c 5c 2b 54 3e 0e 13 96 3c c9 34 9d bd
       0.023908092 0.20719665 0.018319633 -0.076760836
0003a0 02 ff 83 bc ef 60 c6 3c eb b8 8d 3d b6 83 4e 3d
       -0.016112808 0.024216143 0.06920036 0.050418578
0003b0 30 96 06 3e c3 23 98 3c 5e 04 31 3d 1a 29 f0 3b
       0.1314323 0.01857174 0.043217055 0.0073291184
0003c0 17 cc 0e be 2b 95 7e 3d 61 51 69 3d 85 97 03 3d
       -0.13945042 0.062153976 0.056962375 0.032126922
0003d0 de 10 71 be f8 21 76 bd f8 f2 63 bc b3 95 2f bd
       -0.2354159 -0.06009099 -0.013912909 -0.042867374
0003e0 8c 0e f0 3b c5 33 80 3d 2e 8e c2 3d 0d 74 84 bd
       0.007325953 0.06259874 0.09499775 -0.064674474
0003f0 be 11 89 bd e8 ff 00 3e 1d 2a 81 3d bb 64 fa bd
       -0.06692837 0.1259762 0.063068606 -0.12226244

action_model._discrete_distribution.branches.1.bias f4 [3]
000000 a0 8b cc bd b9 b5 d7 3d 6b 7e bf bc
       -0.09987569 0.10532708 -0.02337571

action_model._discrete_distribution.branches.1.weight f4 [3, 256]
000000 6d 88 d3 3d 35 60 15 3d 00 24 de 3d 93 64 94 39
       0.103287555 0.036468703 0.1084671 0.00028303693
000010 7e d2 02 3d a6 b5 d9 3b dc be f5 3d ee 19 96 3d
       0.031939022 0.0066439686 0.11999294 0.073291644
000020 8f 4c 6d 3d b6 0f dc 3b 20 47 7d 3c c1 2d 16 3c
       0.05793434 0.00671574 0.015458852 0.009166182
000030 e1 8d 9d 3d b7 66 74 3d 16 89 8f bc 28 1b e8 3d
       0.07693077 0.05966827 -0.017521422 0.11333305
000040 0f d9 8d 3c b5 00 d3 3d ff fb 7b 3d 55 16 1c be
       0.017315416 0.10302869 0.06151962 -0.15242894
000050 50 4f d5 bb 38 11 34 3b e5 f6 47 bd 93 fb 85 3d
       -0.006509699 0.0027476083 -0.04881944 0.065421246
000060 38 dd 46 3d c1 01 97 3d cb f6 c1 3d 82 bc e6 3c
       0.048550814 0.073733814 0.094709 0.02816606
000070 81 c3 b3 3d 30 53 40 bc cc 17 c9 3d 46 56 f7 bc
       0.08777524 -0.011738583 0.09818992 -0.030192506
000080 a0 80 5f 3d 27 92 82 3d 83 ac 00 3d fe 25 07 3d
       0.054566026 0.063755326 0.03141452 0.032995217
000090 f8 4c 15 bb d5 4e b1 3c 47 21 b2 3d f2 79 97 bb
       -0.0022781473 0.021644035 0.086977534 -0.0046226913
0000a0 c0 50 b5 3c 89 ce d6 ba 63 36 df 3c 5a 54 f5 3c
       0.022133231 -0.0016388457 0.027247613 0.029947449
0000b0 a4 51 cb 3d 43 1e 03 3e e8 92 f1 bb 4c 97 1a bd
       0.09927681 0.12804513 -0.007372249 -0.037741944
0000c0 2c de a5 3c 15 a6 d5 3c 53 01 35 3c 92 af e7 bc
       0.020247541 0.02608017 0.011047679 -0.02828196
0000d0 1b fa 82 3c f5 f1 1e 3d 2a 51 75 3d 2c 08 ca 3d
       0.0159884 0.038804967 0.059891857 0.0986484
0000e0 24 9c 03 3e 78 fe 4f bd f8 15 d3 3d c2 28 7b bd
       0.12852532 -0.05077979 0.103069246 -0.061318167
0000f0 27 59 bd 3b c8 92 ff bc c0 73 03 bd c8 96 2f 3e
       0.00577845 -0.03119792 -0.03209281 0.17147362
000100 bb 78 05 3e 96 23 a0 3c a3 f0 c9 3d 89 a9 1f 3d
       0.13034336 0.019548219 0.09860351 0.03898004
000110 c3 84 e1 bc 20 da e0 3c 5e 51 d4 bc fd 6d 82 3d
       -0.027529126 0.02744776 -0.025917705 0.06368635
000120 75 d9 44 3d bd d4 b4 3d a0 cd a3 3c 51 84 ba 3d
       0.048058946 0.08829639 0.01999551 0.091072686
000130 1a 2a b2 3b 8b cf a8 3d c4 22 1e 3d 23 e3 33 3d
       0.005437148 0.08242711 0.038607374 0.043917786
000140 e9 e6 19 3b 9d 53 f1 39 f8 a4 a3 bd ec 0c af bc
       0.002348358 0.000460294 -0.0799045 -0.021368466
000150 3a 91 d5 3c 02 da b3 3d 9b af cf 3d e1 54 53 bc
       0.026070226 0.08781816 0.10140916 -0.012898655
000160 f2 04 83 3d 57 b6 35 3b 60 e3 82 3d f5 90 ba bb
       0.063974276 0.0027727091 0.063910246 -0.0056935498
000170 20 c4 36 3d be 5e 6b bc 05 2a a9 3d f2 6e 9c 3d
       0.044620633 -0.01436585 0.08259968 0.07638349
000180 e2 b8 6a bd 66 74 1a bd 3c e9 8b 3d 70 d7 a7 3d
       -0.057305224 -0.037708662 0.06831595 0.08195388
000190 55 97 6b 3c 34 ee 13 3c 3a 8d c7 bb a0 c5 c2 3c
       0.014379342 0.00902896 -0.0060898336 0.023775876
0001a0 69 d4 45 3d cb 14 a7 3c a3 44 d4 bc 2f a9 ba bc
       0.048298273 0.020395657 -0.025911635 -0.022785751
0001b0 be ad 6a 3c ec 26 de 3c d7 39 84 bc 3f 79 72 3d
       0.01432365 0.027118169 -0.016140861 0.05919766
0001c0 10 5a 8a 3d 6e 46 88 3c e9 17 96 3d 47 96 44 3d
       0.06755459 0.016635146 0.07328779 0.04799488
0001d0 1d 70 14 3e 56 0f 83 3d b5 d2 dd 3b 7d 67 27 3d
       0.14495893 0.063994095 0.006769503 0.04087018
0001e0 97 10 c7 ba b3 d2 e2 3b 9f 34 8b 3d 5f 73 63 3c
       -0.0015187439 0.00692209 0.06797146 0.013882487
0001f0 ee 73 50 3d 12 0c c7 3c 25 8b 7c bd a4 37 34 bd
       0.05089181 0.024297748 -0.061656136 -0.043998376
000200 5c bb 11 3d 0a c1 12 3e 58 50 1c bc 61 74 8e bd
       0.03557907 0.14331451 -0.00954064 -0.06955791
000210 b3 4c 7e 3c 72 a3 a7 3c 4d 82 53 3d a6 98 0a bd
       0.015521216 0.020463679 0.051637936 -0.033836983
000220 e9 3a b8 bc a2 93 8c bc 68 ec 81 3d 3a 4c 72 3d
       -0.022489028 -0.01716024 0.06343919 0.059154727
000230 d3 ba 2a 3d 84 bd 6b 3d 68 15 90 bc 33 5e cc 3d
       0.041682076 0.057553783 -0.017588332 0.099789046
000240 2f c1 67 3d 56 4f 18 bd ca 67 89 3d 38 32 52 bc
       0.05658072 -0.037185036 0.06709249 -0.012829356
000250 5a 57 7b 3d 48 0a b8 bd 0d bf 18 3d e2 09 9e 3d
       0.0613626 -0.08986336 0.037291575 0.07716729
000260 81 aa ad 3c 66 24 3c 3d 9a d6 f5 3d 1d 67 ad 3d
       0.021199467 0.04593315 0.120038226 0.08466933
000270 3c 98 85 3d 5d 22 81 3d e4 11 65 3c 74 bc 9f bd
       0.06523177 0.063053824 0.013981316 -0.077996165
000280 c4 ec a3 3d ce ab 8c bc e9 08 7e 3d ae 52 57 bd
       0.08004144 -0.017171767 0.062020216 -0.052569084
000290 04 c2 fb 3c cc 85 ac 3d 03 4e 77 bd 99 b8 52 3c
       0.030732162 0.08423957 -0.060377132 0.012861394
0002a0 87 ba 9c bd 85 52 3a 3d 76 5d 77 bc 76 23 dd 3d
       -0.07652765 0.045488853 -0.015097966 0.10797779
0002b0 d3 91 08 3e 6b 7e e9 bb 21 ff ee 3b 9a d3 a9 bc
       0.13336878 -0.007125666 0.0072935973 -0.020730782
0002c0 13 18 1d 3b 2e 14 51 bc 72 56 04 3e a4 e8 9c bd
       0.0023970648 -0.012761159 0.12923601 -0.0766156
0002d0 9e a0 27 bd 8b 63 fc 3c 09 d2 01 3e a5 41 0c be
       -0.04092466 0.030809185 0.12677778 -0.13696916
0002e0 8e c7 86 3d 88 ff 18 bd 36 aa 90 bd 44 2a 57 3d
       0.06581031 -0.03735307 -0.07063715 0.052530542
0002f0 59 41 0b 3d 2f 04 a6 3b d8 5a 8f bd c3 7b c5 3d
       0.033997867 0.0050664167 -0.06999749 0.09642746
000300 ab b8 e4 ba 2a 52 3a bc 59 43 e2 3b 9e b6 f3 bc
       -0.0017450055 -0.0113721285 0.006905001 -0.029750165
000310 cf f1 8e 3c b3 82 a4 3c ef 6f 7a 3d a5 41 00 3e
       0.017449288 0.020081853 0.061141904 0.12525041
000320 42 d5 e8 3d 9c d1 ca 3a 1c 93 ea bd eb 1e c0 bc
       0.11368801 0.0015473845 -0.1145384 -0.023452243
000330 f2 1a 3b 3d e5 34 fe bb 0d 06 f5 3b 79 e4 20 3d
       0.045679994 -0.0077577704 0.007477528 0.03928039
000340 d2 d8 b0 3c 5f 5c 84 bd b4 e5 2f 3d 28 0e b2 bd
       0.021587763 -0.06462931 0.04294367 -0.08694106
000350 94 72 58 be 3d 52 02 3b 9d 2a 79 bd a4 9d 12 bc
       -0.21137458 0.0019885444 -0.060831655 -0.008948717
000360 3b 82 0a 3e 4b 3c 8e bc 6a 2c 8b 3d 56 26 22 bb
       0.13526241 -0.017362734 0.06795581 -0.0024742088
000370 17 e5 a9 bc 19 0b 58 bc 2c 66 85 ba ab ce 48 3d
       -0.020739121 -0.01318624 -0.0010177544 0.04902522
000380 53 ec a7 b9 17 b0 91 bb f6 4b 52 3c 8d 21 35 3d
       -0.00032028797 -0.0044460404 0.012835493 0.04422145
000390 cf 30 8a bc 08 44 fa bd 23 75 4d 3d b6 2b 6b be
       -0.016868977 -0.12220007 0.05016054 -0.22965893
0003a0 57 3f 54 bd bd f0 c1 3d c9 3e 3b bd 28 8e 66 3d
       -0.051818218 0.09469745 -0.045714173 0.056287915
0003b0 0b 91 1f bd 28 6b fa 3d a2 75 25 3d 15 d2 d3 bc
       -0.038956683 0.1222747 0.040395387 -0.02585701
0003c0 71 13 96 3c b8 db a1 3d 80 ac 80 bd c0 e3 90 3d
       0.018319817 0.07903236 -0.06282902 0.0707469
0003d0 5f f7 14 3e ef 78 d6 3d 20 83 32 3b 00 a3 81 3d
       0.1454749 0.10472285 0.00272388 0.06329918
0003e0 95 50 ce 3d 7a 93 a8 bc 60 b5 2c 3d 08 31 bf bc
       0.100739636 -0.020578135 0.04216516 -0.02333881
0003f0 0c 82 0d be bb 8b 25 be 56 73 65 bd 55 e5 5a bd
       -0.1381914 -0.16166584 -0.056018196 -0.053441364

discrete_action_output_shape f4 [1, 2]
000000 00 00 40 40 00 00 40 40
       3.0 3.0

network_body._body_endoder.seq_layers.0.bias f4 [256]
000000 d6 e7 35 3c 5b 3b 2c be ba f8 2a be 59 0f bd bb
       0.011102637 -0.16819517 -0.16696444 -0.005769652
000010 16 08 96 3c 79 66 80 b9 2a 6b 26 be d5 19 1c 3e
       0.018314403 -0.0002449041 -0.16251817 0.15244229
000020 46 18 7f 3d 9b 54 49 3d 7e c4 46 bc 49 53 b1 bd
       0.06227901 0.04915295 -0.012131808 -0.086584635
000030 e8 f2 3e be 4d 61 3e 3c 25 ea 8f be 92 e0 6f bd
       -0.18647349 0.011619878 -0.28108326 -0.058563776
000040 f8 50 11 3d 77 b7 82 bc 51 fc 50 3d 74 a4 c2 bd
       0.03547761 -0.015956623 0.051021878 -0.09504023
000050 5c 75 98 3c e1 37 16 bd 92 62 a0 bd 16 f9 1f be
       0.018610649 -0.036674384 -0.07831301 -0.15622362
000060 92 e4 db bd 2c ae d3 bd ea 19 6b bd 84 23 dd bd
       -0.10736956 -0.10335955 -0.05739776 -0.1079779
000070 08 56 44 be 33 ec 12 bd 66 8b 0f be 25 70 1b 3e
       -0.19173443 -0.03586979 -0.1401802 0.15179498
000080 64 3d 3e bd f9 73 34 be 50 d1 c7 bd 38 b8 b7 bd
       -0.046445265 -0.17622365 -0.0975672 -0.08970684
000090 7c ed 3a bd 78 c4 85 bc 78 01 85 bd 43 96 76 3c
       -0.04563664 -0.016329035 -0.06494421 0.015050474
0000a0 c3 63 2c be a4 43 3c be 3b 51 24 be 5d c5 03 3e
       -0.16834931 -0.18385178 -0.16046612 0.12868257
0000b0 c1 d9 9a bd 89 97 e9 3d 2d a8 bf bd dd 17 a3 bd
       -0.075610645 0.11405856 -0.09358249 -0.07963536
0000c0 b0 73 54 bd 88 3a 4f be d1 4a 9b 3d 88 ad 12 bc
       -0.05186814 -0.20237172 0.075826295 -0.008952506
0000d0 34 46 06 bd d6 1c b0 bc bb 8d 9e bd 34 76 b1 bc
       -0.032781795 -0.021498125 -0.07741877 -0.021662809
0000e0 5f e5 37 be 8b 23 0e be d1 ae 83 be 7f f0 ed bd
       -0.17958592 -0.13880746 -0.25719312 -0.116181366
0000f0 30 33 19 be a7 76 32 be 8a ae 24 be c0 5e 0b 3d
       -0.14960933 -0.17428075 -0.16082206 0.034025908
000100 25 02 08 be a2 30 48 bd c6 4a b0 bd f9 c9 79 bb
       -0.13282068 -0.048874505 -0.08608012 -0.003811477
000110 5e cf 1d bb e7 4e c8 bd bb 0f 6b bd b8 af 8b 3d
       -0.00240799 -0.097806744 -0.05738805 0.06820625
000120 bc 37 47 be 98 fb 27 be dd e4 43 be cb 6a 12 be
       -0.19454855 -0.16404569 -0.19130273 -0.14298551
000130 b5 15 fc 3c 13 ac 33 be 80 41 50 be 65 42 35 be
       0.03077207 -0.1754611 -0.20337486 -0.17701109
000140 bd 18 8a 3d cd 33 0a be f1 ff 4d 3e 37 8e d9 bc
       0.06743 -0.13496323 0.20117165 -0.026557071
000150 b0 66 15 be d1 d8 c1 bd 25 4e d5 bd c5 28 52 bd
       -0.14589953 -0.094651826 -0.104152955 -0.051308412
000160 9e 08 6b bd d4 e1 b7 bc 91 53 96 3d 6e 49 6f bd
       -0.057381265 -0.02244655 0.07340158 -0.058419637
000170 26 09 19 be f3 97 2d be 19 29 af bd 77 fc 34 be
       -0.14944896 -0.16952495 -0.08552761 -0.17674433
000180 77 bc 3a be de 5b 3f 3c 5f e2 bc bd cf 94 2a be
       -0.18235956 0.011679618 -0.09222864 -0.16658328
000190 99 0a 16 bd f8 aa 31 be ff 1e 6c bd 79 d7 be bd
       -0.0366312 -0.17350376 -0.057646748 -0.09318442
0001a0 0c ef 0d be 03 bf e9 3d 8d 2c a8 bd 0a 47 3d b9
       -0.1386072 0.11413386 -0.082116224 -0.00018050909
0001b0 2c 6d 0f be 8d 3f e0 bd f3 65 bc 3c f5 ef a3 bd
       -0.1400649 -0.10949621 0.022997832 -0.080047525
0001c0 05 0d 32 be fb 6f 55 be 89 5b 15 be 39 27 f0 bd
       -0.17387779 -0.20843498 -0.14585699 -0.11726231
0001d0 e9 3a 22 be 42 53 98 3d 77 39 45 be a1 1a fb bd
       -0.15842785 0.07437755 -0.19260202 -0.122609384
0001e0 94 ef 87 bd 67 fe b9 bd 8a 41 0a bd f8 34 52 bd
       -0.06637493 -0.090817265 -0.03375391 -0.051320046
0001f0 5a e1 4a be 83 ef 81 bd ce 5d 25 be a2 32 b5 3d
       -0.19812527 -0.06344511 -0.16149065 0.08847548
000200 e3 1a 9d bd 73 23 e0 3c 53 7f 00 be e0 18 e2 bc
       -0.07671144 0.027360654 -0.1254857 -0.027599752
000210 1a 01 31 be a0 de fe bd f3 37 08 be 0e ff 4c bd
       -0.17285576 -0.12444806 -0.13302593 -0.050047927
000220 ef 2c 04 be ed 45 a5 bd 30 eb 30 3e f6 27 5c be
       -0.12907766 -0.08069978 0.17277217 -0.21499619
000230 4d 0c 80 bd 64 68 d4 bc c7 45 3a be 86 e9 60 be
       -0.06252346 -0.025928684 -0.1819068 -0.21964082
000240 66 42 f5 bd 52 3c 30 be 99 89 2d bb 9b 92 80 3d
       -0.11975555 -0.1721051 -0.002647972 0.06277963
000250 2d 03 0d be 85 03 0f be 8b 62 54 bc f0 24 ef bd
       -0.13770743 -0.13966186 -0.012962948 -0.11676967
000260 ce 34 87 bd 34 80 5f be 57 bf a9 3b 4f 03 32 be
       -0.066018686 -0.2182625 0.00518028 -0.17384075
000270 98 50 f4 39 a9 4a be 3d 56 2c 93 bd 67 a6 a5 3d
       0.00046599354 0.09291584 -0.07186191 0.08088379
000280 23 85 e7 bd fe 12 18 be 42 2b fc bd 7b 42 12 be
       -0.11304691 -0.14850995 -0.12312938 -0.14283173
000290 76 69 d9 bd e4 93 41 be ba 63 08 bc eb 71 f7 3c
       -0.10615818 -0.18904072 -0.008324558 0.030205688
0002a0 92 6a 10 be 9d 29 42 be d6 9d bf bd 0f 2c 16 3d
       -0.14103153 -0.18961187 -0.09356277 0.03666311
0002b0 91 f2 09 be 45 85 e7 bd 8d ff 90 be ac bb 13 be
       -0.13471438 -0.11304716 -0.2831997 -0.1442706
0002c0 4d 57 6f bd e9 f8 a8 bd 39 77 55 be 90 b1 54 bd
       -0.058432866 -0.08250601 -0.20846261 -0.05192715
0002d0 c8 cc 2f bd 59 d6 06 bd 7b cb b6 bd 3b 36 08 be
       -0.042919904 -0.03291926 -0.089255296 -0.13301937
0002e0 68 40 c8 bd a2 bd 6d bd 28 32 d1 3c c9 0c 27 be
       -0.097779095 -0.058042176 0.025536612 -0.16313471
0002f0 a1 d1 40 bc 7f ae 49 be 1d c8 ba bd 77 ab 0e bd
       -0.011768729 -0.19695471 -0.091202 -0.03483149
000300 31 71 83 bd 84 b5 54 bd d6 7b c4 3c f3 a6 d0 3d
       -0.06418074 -0.05193092 0.02398483 0.10188093
000310 d0 aa a9 3b 66 52 08 be 2a 17 87 3c 02 d4 0e be
       0.005177833 -0.13312683 0.016490538 -0.13948062
000320 29 5d ba bc 36 21 2b be 93 69 2e be 91 a4 39 be
       -0.0227495 -0.16711888 -0.17032461 -0.18129183
000330 39 35 02 be 91 43 ea bd a1 09 9c bd 49 2c 52 be
       -0.12715615 -0.114386685 -0.07619024 -0.20524706
000340 0c 64 06 3e 1c c0 fc bd 94 8b 53 be 1b 9b 87 3d
       0.13124102 -0.123413295 -0.20658714 0.06621381
000350 b1 59 15 be f7 98 5c be 73 26 20 bd 6d 2b da bc
       -0.14584996 -0.21542726 -0.039099168 -0.026632035
000360 d9 0b f7 bd c6 f9 21 bd 31 66 07 be 76 e0 9e bb
       -0.12062807 -0.039544843 -0.13222577 -0.004848535
000370 42 9e 65 be e1 69 6d bd fa 50 83 be e9 c9 cc bd
       -0.22423652 -0.057962302 -0.25647718 -0.09999449
000380 f2 d3 0f 3d 51 1e 29 be e1 26 ce bc f7 95 1d be
       0.035114236 -0.16515471 -0.025165023 -0.15389238
000390 12 47 48 bd 13 4c 1e be 15 66 64 be d4 4a 52 bd
       -0.048895903 -0.15458708 -0.22304566 -0.051340893
0003a0 26 04 5d 3e 80 5a 7c bd a6 dc 49 be 17 aa 5d be
       0.21583614 -0.061609745 -0.19713077 -0.21646915
0003b0 4e b7 49 be bf 20 02 be 5d b6 cb bc d9 54 58 be
       -0.19698831 -0.12707804 -0.024867231 -0.21126117
0003c0 a8 fd 86 be 67 70 5f be 99 90 91 3d d4 b1 0f bd
       -0.263654 -0.21820222 0.07107658 -0.0350817
0003d0 a6 b5 4a be 34 12 a4 bd 62 c7 44 3d e0 0c 34 be
       -0.19795856 -0.080112845 0.04804171 -0.17583036
0003e0 9c 34 cf bd 24 fc e5 bb e3 91 64 bd 78 06 d8 bd
       -0.10117456 -0.007018583 -0.05580319 -0.10548109
0003f0 80 6a 6a be 07 99 35 be 7e f0 e4 bd d0 b2 29 be
       -0.22892189 -0.17734157 -0.11178683 -0.16572118

network_body._body_endoder.seq_layers.0.weight f4 [256, 99]
000000 9e 25 bd 3b d3 69 87 bd 50 5d 02 be f3 c9 34 3d
       0.0057723066 -0.06611981 -0.12730908 0.044137906
000010 f0 da a6 3d c6 90 a9 3e 0a 6f 49 3d c6 ad be be
       0.08147228 0.33118266 0.04917816 -0.37241954
000020 5c 4e fa be 01 c3 be be 9c bc 21 3d 18 21 89 bd
       -0.48887908 -0.3725815 0.039486513 -0.06695765
000030 21 83 ce be ef f1 1e bd af 87 22 be b0 b5 08 3e
       -0.40334418 -0.038804945 -0.15872072 0.13350558
000040 f8 73 0c be 7a a8 17 bf 43 2d 23 bf 61 87 23 bf
       -0.13716114 -0.5924145 -0.6374094 -0.63878447
000050 85 cf 4d be 04 1b c7 bc 0b 1f 7f be e5 41 c5 3e
       -0.20098694 -0.024304874 -0.24914186 0.38526836
000060 c4 a3 88 ba d9 73 00 be 3d 32 50 3e 57 85 11 bd
       -0.0010424783 -0.12544192 0.20331664 -0.035527553
000070 24 53 74 bc 0c 4a 8b be bf 55 f8 be 20 75 d7 3d
       -0.0149124 -0.2720493 -0.4850292 0.10520387
000080 81 cc 8b be 59 07 3f 3e 2d d2 a4 bc 74 bc b3 be
       -0.27304462 0.18655147 -0.02011975 -0.35104716
000090 da 17 1a 3e 35 43 69 3c 9c 0c 00 bf 16 be 4a be
       0.15048161 0.014237215 -0.5001924 -0.19799075
0000a0 8a 7a e5 bc c7 5a 75 3c e0 f5 76 be d1 3b 72 bd
       -0.028012533 0.014975256 -0.24117231 -0.059139077
0000b0 71 76 08 be f4 b3 28 bd d0 cc 8e 3e f3 b3 8d be
       -0.13326432 -0.04118724 0.27890635 -0.27676353
0000c0 e4 cc 67 3d cc f5 32 be 50 71 8c 3d c4 0a 44 bd
       0.056591883 -0.17476577 0.0685755 -0.04786183
0000d0 69 be e9 bd 4b 32 07 3e ee 67 45 bd 68 c4 2b bc
       -0.11413271 0.13202779 -0.04819482 -0.010483839
0000e0 75 b5 24 bd 90 ec ba 3e 95 d6 10 be 01 cc 00 3b
       -0.040212113 0.36508608 -0.14144357 0.0019652846
0000f0 14 c1 1a be 75 65 98 3e df ef 0f 3e e7 38 60 3d
       -0.15112716 0.29764906 0.14056347 0.054741766
000100 62 32 22 be fc 8e a8 3c 6b c6 11 3e 63 fa 53 3e
       -0.15839532 0.020575993 0.14235847 0.20700984
000110 19 9a 2d bd 8f 3b 45 bc fb 7b 46 be d4 91 d1 3e
       -0.042383287 -0.012038126 -0.19383232 0.4093157
000120 0d 8d e3 3e 38 64 32 3e ff 81 27 3d 99 13 2e be
       0.4444355 0.17421043 0.04089546 -0.16999663
000130 3f ca 83 3e ca ac 21 3e 75 4e 6a bb 0d 29 4b 3d
       0.2574024 0.1578857 -0.003575233 0.049599696
000140 3c c4 20 bf 5e 9f 5e 3e 3c b1 7c 3f ba 8f b6 bd
       -0.6279943 0.21740481 0.9870794 -0.089141324
000150 2a f4 1c bd aa bf 21 be 52 6e d9 3e 8e 91 a3 bc
       -0.03831879 -0.1579577 0.4246698 -0.019966867
000160 48 16 2b 3e a5 0d fc 3d 01 5a e1 be 5f 86 3e be
       0.16707718 0.1230729 -0.4401398 -0.18605946
000170 e5 3e a9 3e 25 69 d1 3d 7e c1 ba be a4 84 0d be
       0.33055797 0.10225133 -0.36475748 -0.1382013
000180 ca f6 51 be 58 7d c8 bc 5b bd 45 3d 53 8f 80 be
       -0.20504299 -0.024473831 0.048276287 -0.25109348
000190 de 8d 80 be 5c fb ad 3e 43 50 c7 3e 1f 3e cd 3d
       -0.25108236 0.33980834 0.38928422 0.10021614
0001a0 c7 30 15 3d 2a 30 23 be b6 3e 91 3e 3b 95 ed 3e
       0.03642347 -0.15936342 0.28368157 0.46402916
0001b0 9b de ca 3d 00 50 f0 be 69 55 83 3d 8f 39 5a bc
       0.0990574 -0.46936035 0.06412775 -0.013319387
0001c0 54 d7 a2 3e e6 61 4b be 8c f7 9d 3e f4 a1 14 be
       0.31804907 -0.19861564 0.30852926 -0.14514905
0001d0 1e 0e 5e 3e 8f 19 ca 3e 8f e8 23 be c0 07 18 bf
       0.21685073 0.39472625 -0.16006683 -0.59386826
0001e0 19 ac f9 bc b6 66 17 3d 39 7b 3c 3e f2 82 13 3d
       -0.03047757 0.036963187 0.1840638 0.03601355
0001f0 ba 23 8a 3e 35 5b a1 be 2c f2 e8 be 1f 3b 1d 3f
       0.26980382 -0.31514898 -0.45497262 0.61418337
000200 bb d5 c6 3c 98 94 00 be 69 d7 47 be d0 65 02 3d
       0.024271837 -0.12556684 -0.19515766 0.031835377
000210 46 5e 43 3e d3 cf bf bb bc 03 77 bd 89 53 b2 3d
       0.19078931 -0.005853632 -0.060306296 0.08707339
000220 c1 52 09 3e 3e 43 86 3e 18 d5 53 3d 55 99 31 be
       0.13410474 0.26223177 0.051716894 -0.17343648
000230 ca a2 b9 be cb d5 7d 3a 5c e7 6f 3d dd a4 27 be
       -0.3625701 0.0009683042 0.05857025 -0.16371484
000240 f2 91 b7 bc 33 c0 c5 bc 86 62 74 be a8 ef 83 3e
       -0.02240846 -0.0241395 -0.23865709 0.2576878
000250 c2 d8 9e bc 33 ff ca be 88 37 7a 3d 6c 46 dc bc
       -0.019390468 -0.39647827 0.061088115 -0.026889049
000260 0c e8 45 bd 0d f7 a6 bc 74 1d dc be be a4 d7 bd
       -0.048317 -0.020381475 -0.4299122 -0.10529469
000270 f0 00 73 3e 63 a6 5e 3e 4b 15 a3 be 9c 69 b2 be
       0.23730826 0.21743159 -0.31852183 -0.348462
000280 14 ac e2 3c 99 04 fd bd a4 6f 5c bd 31 4c 82 be
       0.027669944 -0.123543926 -0.053817406 -0.25448754
000290 cc 5f 69 be 8b 61 e7 be e3 c0 06 3e ce f3 55 bc
       -0.2279045 -0.45191607 0.13159518 -0.013058616
0002a0 aa ed 00 bf 8d 0d 50 be 6f 6c a5 be fa aa 40 3c
       -0.50362647 -0.20317669 -0.3230929 0.011759514
0002b0 60 53 4d bc 78 15 23 be 1c 93 c4 3b 2f a4 8a 3d
       -0.012532085 -0.15926158 0.005998982 0.06769597
0002c0 d8 b7 1a bf 81 86 a4 3b 6b bd b5 be b1 85 3d be
       -0.60436773 0.005020917 -0.35496077 -0.1850803
0002d0 18 5f 08 be 8c cf 24 bd e8 20 1c bd 50 8b c4 3c
       -0.13317525 -0.040236995 -0.03811732 0.02399221
0002e0 b1 e2 be bc 36 10 c0 3e 00 45 46 be 39 36 02 be
       -0.023301454 0.37512368 -0.19362259 -0.12715997
0002f0 54 39 07 be 1d b6 bd bd 61 7a a9 3d 94 bd e3 bd
       -0.13205463 -0.09263251 0.08275295 -0.111201435
000300 9a 36 a7 bd f5 15 ce bc cd e5 eb bd 25 e3 a1 bc
       -0.08164711 -0.025156954 -0.115184404 -0.019761631
000310 8f 20 7d bd 44 2d f5 3d 37 90 74 bd ad ce c5 be
       -0.06179863 0.11971524 -0.059707846 -0.38634244
000320 82 31 12 3e a1 9b 96 3e 8a 47 37 3e 2a 7c 34 bc
       0.14276698 0.2941561 0.17898384 -0.011015931
000330 3a 90 a5 be 4e 28 36 3b 05 a4 94 3e 4b d2 d0 3d
       -0.323366 0.002779502 0.29031387 0.1019636
000340 3f 05 4a bd c6 5d b7 be 84 f9 4f 3d 81 52 78 3d
       -0.04932141 -0.3581373 0.050775066 0.060625557
000350 ba ff 11 3a 46 29 ab bd ef 82 f0 be 74 6a 3c bb
       0.0005569417 -0.08357482 -0.46974894 -0.0028749974
000360 33 3f a5 3e 82 91 04 be dc 1f 0c be c6 4e 23 be
       0.3227478 -0.12946132 -0.13684028 -0.15948018
000370 49 14 93 3e 99 b0 2d 3e 6f 17 4e be cd ba a7 3d
       0.28726414 0.16961898 -0.20126127 0.08189926
000380 63 30 92 be 3a 42 84 3d 7a 73 da 3c 28 1f d1 be
       -0.2855254 0.06457944 0.026666392 -0.40844083
000390 8e 02 8f be 1f 76 aa bd 4d 2c 7b 3e ff a1 2a 3d
       -0.27931637 -0.08323311 0.24528618 0.041658398
0003a0 06 14 cc be 51 2e 17 be b0 2f 61 be 67 0e 9a 3d
       -0.39859027 -0.14763762 -0.21990848 0.07522278
0003b0 1a 3c bc bd eb e3 88 be 0c 5b 86 be cc fd 96 bc
       -0.09191151 -0.26736388 -0.26241338 -0.018431567
0003c0 80 82 fe 3d 2a 6e 09 be e7 02 b1 be 7a d7 a5 be
       0.12427235 -0.1342093 -0.34572527 -0.32390958
0003d0 87 15 8f be bc f0 58 3c 82 02 8f 3a 20 99 e3 bd
       -0.27946112 0.013240989 0.0010910782 -0.11113191
0003e0 d9 a8 ba be 68 d6 f4 bd ea ca ad 3e c8 ac 78 3e
       -0.36456946 -0.11954957 0.33943874 0.24284661
0003f0 37 aa bb be 72 2b 5b be fc fd 58 bd 09 72 cf bd
       -0.366533 -0.21403292 -0.052976593 -0.10129172

network_body._body_endoder.seq_layers.2.bias f4 [256]
000000 1b 9e d1 bd de c4 bd be 15 d5 d5 bd 61 95 d1 be
       -0.10235234 -0.3706426 -0.10441033 -0.4093428
000010 0f 04 25 be 4a 46 94 bd fb c8 53 be c1 72 b3 be
       -0.1611483 -0.07239969 -0.20682137 -0.35048488
000020 1a 1d f3 3d fb ab 9f be 5c 0b 7c 3d 81 28 82 3d
       0.11870785 -0.31185898 0.06153427 0.06355382
000030 7a fb 16 be c5 1b 1f 3e b8 77 a2 be f5 ce 38 be
       -0.14744368 0.15537937 -0.31731963 -0.18047698
000040 a3 1e ce 3b a7 a2 99 be 26 5f 2f bd 74 00 39 be
       0.0062902733 -0.30006906 -0.04281535 -0.18066579
000050 d7 b1 de bc 4c a6 7c 3e be b1 12 be 33 84 e7 bd
       -0.02718441 0.24672812 -0.14325616 -0.11304512
000060 50 ad 12 be 58 a1 0b be 81 8a bd bd 26 88 5a bd
       -0.14323926 -0.13635767 -0.09254933 -0.053352498
000070 80 49 4a be 08 70 0e 3e fa 5a bf be 98 0b 3f be
       -0.197546 0.13909924 -0.37374097 -0.18656766
000080 1e f6 66 be e5 41 d5 be b4 c1 3d be 34 2a b5 be
       -0.22554824 -0.41651836 -0.18530923 -0.3538376
000090 72 3f 42 be 01 72 8f be b4 46 31 be 70 09 37 bd
       -0.18969515 -0.28016666 -0.17312127 -0.044686735
0000a0 90 39 a4 be fa f9 98 be a7 3e 60 be 5b c9 61 be
       -0.32075167 -0.29878217 -0.218989 -0.22049467
0000b0 b1 03 94 bd b6 27 08 be d7 e1 f6 3c 4b c9 90 be
       -0.072272666 -0.13296399 0.030136986 -0.28278574
0000c0 24 f2 c7 3c 4f b9 0f be db 63 0c be eb fe 92 be
       0.024407454 -0.14035533 -0.13709967 -0.28710112
0000d0 6e d2 7f be 8c ef 0b be f5 ad 11 be fd 07 c6 be
       -0.24982616 -0.13665599 -0.14226516 -0.3867797
0000e0 51 fb ad be 78 86 88 be 46 69 81 be b7 db d0 bd
       -0.33980802 -0.26665092 -0.2527563 -0.10198157
0000f0 2a ee a0 be 21 b7 4c bd 29 5e bc be 01 0d 35 be
       -0.31431705 -0.049979333 -0.36790588 -0.17680742
000100 e5 6c a9 bd b3 5f 81 be 43 a9 33 be e3 d4 36 3d
       -0.08272723 -0.25268325 -0.17545037 0.04463662
000110 f3 e5 a4 be 88 76 71 be 69 46 6f be fd 69 81 be
       -0.32206687 -0.23580372 -0.23366703 -0.25276175
000120 22 57 85 be db 83 df bd ed 97 b1 bd 84 1c 89 be
       -0.2604304 -0.10913821 -0.08671556 -0.26779568
000130 80 74 06 be 38 60 98 be b0 72 2c bd dd a9 63 bd
       -0.13130379 -0.2976091 -0.042101562 -0.055581916
000140 91 8d 4e 3c 68 71 75 be d7 7b 00 3d b2 61 4f 3b
       0.012606994 -0.23969042 0.031368103 0.0031643924
000150 0a d6 b5 bc 22 62 2f 3b 85 c4 a0 bc bb b2 0a be
       -0.022196788 0.0026761373 -0.019624958 -0.13544743
000160 fa 39 69 bd 2a 08 9b bd a4 16 40 bd 0e f8 08 be
       -0.056940056 -0.075699165 -0.04689659 -0.13375875
000170 91 b3 fd bd e9 f2 e2 bd ae c5 97 bd de 19 df bc
       -0.12387765 -0.11081488 -0.07410751 -0.027234014
000180 aa 7e 79 be ab f6 20 3c 0e 3e 56 bd 7d ca b0 bd
       -0.24364725 0.009824435 -0.052305274 -0.086323716
000190 c7 01 c3 bd ea 45 4c be 7d a1 8f be 10 4a 3a be
       -0.095218234 -0.19948545 -0.28052893 -0.18192315
0001a0 a5 bd 2f be fc b1 38 bd f5 24 d6 bd 90 ff 49 be
       -0.17162187 -0.045091614 -0.10456268 -0.19726396
0001b0 46 b0 9e be ae 7b 26 ba 28 61 64 3e f5 6f a9 be
       -0.3099386 -0.0006350827 0.22302687 -0.3309323
0001c0 5c 6b 1f 3d 8f 49 60 bc 84 73 a1 be 0f 6f cb be
       0.038920745 -0.013689413 -0.31533444 -0.39733168
0001d0 d2 2e 91 be 62 61 4d be 9d 2d 14 be 8a 34 7b be
       -0.28356034 -0.2005668 -0.14470525 -0.24531761
0001e0 33 d6 8d be c2 c3 be bd 95 c9 e2 bd 96 ad 4e be
       -0.27702484 -0.093146816 -0.11073605 -0.20183405
0001f0 ab a8 91 be 30 9e cb be 12 85 01 be 91 4d a6 be
       -0.28448996 -0.39769125 -0.12648419 -0.32481053
000200 34 10 f3 bd cd c9 1c be 51 e5 70 be 22 f6 55 be
       -0.11868325 -0.15311356 -0.23524977 -0.20894673
000210 9f c5 b6 be 26 5d bb be 2f d0 3b be ac 17 85 bc
       -0.35697648 -0.36594504 -0.18341134 -0.01624664
000220 18 3e c1 be 52 2d b9 bd 47 f3 2a be 4f 31 25 be
       -0.37742686 -0.09041847 -0.16694365 -0.16132091
000230 b8 8f 0b be 70 40 32 be 09 37 a8 bd e0 26 43 3e
       -0.13629043 -0.17407393 -0.08213622 0.19057798
000240 35 9d 13 be af 07 ac 3d 0a dd 81 be 61 75 e1 be
       -0.14415438 0.08399903 -0.25363952 -0.44034865
000250 46 6b a9 bd f6 de 83 be 8d 4d bb bd a5 33 16 be
       -0.08272414 -0.25756043 -0.09145651 -0.14668138
000260 b7 e0 b3 bd 42 d0 58 be e8 94 9e be bc 98 47 bd
       -0.08783095 -0.21173194 -0.3097298 -0.048729643
000270 65 99 95 be 8a d0 57 be 6c 23 1c bd 09 2f cd bd
       -0.29218593 -0.21075645 -0.03811972 -0.10018737
000280 5b 11 76 be c6 02 84 be 8f 1d e3 be 31 16 83 be
       -0.24030058 -0.25783366 -0.4435849 -0.25602868
000290 7a 0f af be 70 44 c0 3c 2b 2d 27 bd ba 36 64 bc
       -0.34191495 0.023470134 -0.04081456 -0.013929063
0002a0 e3 8f 42 be 8c d2 e3 3b 7e a4 40 3e 2e 97 7f be
       -0.19000201 0.0069525894 0.18812749 -0.24960014
0002b0 e1 81 2f bc 6b 91 94 3c ab cd 6a bd 56 4f 48 be
       -0.010712118 0.018135747 -0.057325047 -0.19561514
0002c0 78 4c 39 bd 5b 20 cf be a5 a1 1f 3b e6 7e 69 bd
       -0.045238942 -0.40454373 0.0024357822 -0.057005785
0002d0 25 59 1e be b9 8b 86 be 64 d0 21 be 82 29 2d be
       -0.15463693 -0.26278475 -0.15802151 -0.16910365
0002e0 07 c9 55 be 01 8b 34 bd 05 04 da bd 32 2f 92 be
       -0.20877467 -0.044077877 -0.10645298 -0.28551632
0002f0 d2 f7 c6 bd 26 b4 9d bd 06 c1 c2 be 97 be 40 be
       -0.09715237 -0.07700376 -0.3803789 -0.18822704
000300 04 0c 43 3c 39 6b 2c 3e 7a ed a1 bd c5 65 e6 be
       0.01190472 0.16837777 -0.07906623 -0.4499952
000310 7a e6 74 bd 07 dd f6 bd ac 3e 8f 3c 9f 7d 49 be
       -0.059790112 -0.12053876 0.017485939 -0.19676827
000320 4e f4 79 be be 39 57 be 65 e8 85 bd e8 5d 1d be
       -0.24409601 -0.2101812 -0.06538466 -0.15367854
000330 1f d9 cd bc 86 6e 0e bd aa c3 f9 bd 81 e4 2f be
       -0.025127945 -0.034773372 -0.12195523 -0.17177011
000340 f2 1d 03 be 98 32 1d bd e2 a0 d3 3d ea eb d8 bd
       -0.12804392 -0.038378328 0.1033342 -0.10591872
000350 62 66 65 be 06 bd 03 3e 8d f3 18 be 6d 23 8e be
       -0.22402337 0.12865075 -0.14936657 -0.27761403
000360 e9 ec 4d be 88 3c db bd 32 c6 d6 be 69 6a ae be
       -0.20109905 -0.10704905 -0.41948086 -0.3406556
000370 a6 85 6d be 20 03 99 be 99 fb c9 bd 67 51 99 be
       -0.23195514 -0.29885197 -0.098624416 -0.29944918
000380 90 1e 59 be bc 4b db be 55 d2 73 be 39 dc 41 be
       -0.21203065 -0.42831218 -0.23810704 -0.18931665
000390 5b 62 ef be 02 2e 82 be e9 43 0f 3e 73 04 5b bc
       -0.46754727 -0.25425726 0.1399075 -0.01336776
0003a0 5d 84 4c be f5 50 22 bd 24 08 ec bd 63 b0 39 be
       -0.19972368 -0.039627988 -0.1152499 -0.18133692
0003b0 fc dd 25 bd 25 12 7e be d6 c7 48 bd d7 f3 3c be
       -0.040494904 -0.24811609 -0.049018703 -0.18452393
0003c0 6d 1a c9 be af d2 ac bd d9 31 aa 3d 4b fa 23 be
       -0.39277974 -0.08438622 0.08310289 -0.16013448
0003d0 5a 61 b3 bd 03 e8 50 3e 4e 87 1f be ab 50 74 ba
       -0.08758803 0.20401005 -0.15578958 -0.0009319882
0003e0 01 17 55 be 1c e9 e9 be 2b 2d 33 be 27 4d ab bd
       -0.20809557 -0.4568566 -0.17497699 -0.08364325
0003f0 44 ad 8c be 09 1b 62 be 46 03 2a be 01 bb 5f be
       -0.2747594 -0.22080626 -0.16602811 -0.2184868

network_body._body_endoder.seq_layers.2.weight f4 [256, 256]
000000 30 ef d9 bd 92 68 73 3c aa 7b 87 be 8b 5b 70 be
       -0.106413245 0.0148564745 -0.26461536 -0.23472421
000010 c1 61 82 be 0a 36 d7 3d 71 bc ac be 59 ed 14 be
       -0.25465205 0.10508354 -0.3373752 -0.14543666
000020 3e f0 85 be 6f ca b6 3d 71 ba aa be f2 fd ca 3d
       -0.26159853 0.0892533 -0.33345369 0.099117175
000030 6e c5 09 3e 60 47 33 bc de e9 92 be cf 6e 49 be
       0.1345422 -0.01094231 -0.28694052 -0.19671176
000040 ab 22 98 be 1c ec a1 3d 19 09 10 be 5e be 93 bd
       -0.2971395 0.079063624 -0.1406597 -0.07214044
000050 94 e4 e6 3c fc 1e ce bd 5f b5 fa be 50 85 54 be
       0.028185166 -0.100645036 -0.489665 -0.2075398
000060 28 5d c8 3d 22 e5 47 bd a4 75 4f bd df 46 2a bd
       0.09783393 -0.048802502 -0.0506493 -0.041571494
000070 e5 5a 05 3e aa 0e 69 3d 74 63 f5 bd 23 de 68 be
       0.13022955 0.05689875 -0.1198186 -0.22740988
000080 05 fa 33 3e c1 1d ad 3e 29 36 f0 3d 40 95 82 be
       0.17575844 0.33811763 0.1172908 -0.25504494
000090 a3 bb 1d bd aa a3 b1 be ab dc 97 3d 7e 2b 60 be
       -0.038509022 -0.34695178 0.07415136 -0.21891591
0000a0 63 fd 8a bd 44 f1 02 be 72 4b f3 bd 39 52 3f 3e
       -0.06786611 -0.12787348 -0.118796244 0.18683709
0000b0 86 93 0e 3e f7 5c fc bb 17 61 03 be 8c d8 29 bd
       0.13923463 -0.007701512 -0.12830006 -0.04146628
0000c0 e6 e4 4e bc 6c b6 d7 bd d3 b7 38 be 32 15 f3 3d
       -0.012627816 -0.10532841 -0.18038873 0.11869277
0000d0 f6 c5 6a 3e c6 fe df 3e fe 6f 92 bd 43 ad f9 3d
       0.22927079 0.43749064 -0.07150267 0.1219125
0000e0 64 98 06 be 84 84 67 bd 13 41 1a be 87 51 e3 bd
       -0.1314407 -0.05652286 -0.15063886 -0.110995345
0000f0 33 92 89 3e 5a 54 4e be c2 1c e6 3d a1 71 3b 3d
       0.26869354 -0.20149365 0.11235954 0.04576266
000100 97 51 e4 bd 1b fc 5d 3e e8 b3 be bc d3 2b 71 be
       -0.111483745 0.21678202 -0.023279145 -0.23551874
000110 48 86 18 3e c1 f4 7c bc cd ce 33 3d ea 1a 5b be
       0.14894974 -0.015439213 0.043898392 -0.21396986
000120 c9 5c ec bd 13 2d f6 3c 09 19 10 3e 91 7e 2c 3e
       -0.11541135 0.03005079 0.1407205 0.16845156
000130 ef 10 e4 bc 49 a9 12 bd c8 62 b9 bb 1a c4 0d 3e
       -0.027840106 -0.035805974 -0.0056575276 0.13844338
000140 b5 86 61 bd b1 06 e9 bc ac 64 bd 3c 75 27 9b bd
       -0.055060107 -0.028445574 0.023119293 -0.07575885
000150 47 b2 ec bc 88 ec 53 be 77 1f 4a 3e 67 4e c2 3c
       -0.028893603 -0.20695698 0.19738565 0.023719026
000160 78 c5 5f 3d 1f 11 05 3d d9 a6 d9 bc 83 05 45 bb
       0.05463168 0.03248703 -0.026568817 -0.00300631
000170 58 55 5f 3d 8d 62 90 be 03 8c 22 bd 4d 83 de bd
       0.05452475 -0.28200188 -0.039684307 -0.108648874
000180 63 19 a8 3c eb 2f 3c be bb 69 6d be f2 86 3a 3e
       0.020519918 -0.18377654 -0.23184864 0.1821554
000190 52 cc 02 3e 3d fa 07 3d 74 58 b9 be 16 d7 d8 bd
       0.12773255 0.03319763 -0.36200297 -0.105878994
0001a0 1b 60 cf bd e6 0a 32 3c 06 9e 3c 3e 5f 96 4b be
       -0.101257525 0.010866856 0.18419656 -0.19881581
0001b0 48 a2 98 3d 41 b3 e8 3d bb 13 ab be 28 aa d6 bd
       0.07452828 0.11362315 -0.3341349 -0.104816735
0001c0 5a 4a 5e bd 38 42 8f 3d dc 52 b4 3e 46 d4 aa be
       -0.054270126 0.06995052 0.35219467 -0.33365077
0001d0 ee d7 1d 3d aa 52 72 3e d0 41 f7 3d 51 88 cc bd
       0.038536005 0.23664346 0.120730996 -0.09986938
0001e0 a0 24 5f 3e 51 b1 9c bd c3 59 02 3e cf fa fb 3c
       0.21791315 -0.07651008 0.12729554 0.030759243
0001f0 4f ea 52 bd a7 5d 3b 3e 7e 79 b0 bc 2e f7 da 3d
       -0.051492985 0.18297444 -0.021542307 0.10691677
000200 01 3a 68 bb 44 65 18 3e 9e a7 8a bd 40 c4 f3 3d
       -0.0035434964 0.1488238 -0.06770252 0.11902666
000210 f9 a8 2c be 71 1d 63 bd 02 5a 1e be a0 9b a9 be
       -0.16861333 -0.055448 -0.15464023 -0.33126545
000220 a4 49 c4 3c 68 53 a3 bd 45 d5 d3 be 59 00 c2 3d
       0.023960896 -0.07974893 -0.4137365 0.094727226
000230 89 19 64 be 56 3a 9c 3d eb 1f 0d bd 40 22 26 3e
       -0.22275366 0.07628314 -0.034454267 0.16224003
000240 25 6f 83 be e9 17 7e be ec c3 e5 3c 86 ae db bd
       -0.25670734 -0.24813809 0.028047524 -0.10726647
000250 77 45 57 3d 79 cb fa 3c a1 9f 81 3e 71 69 be 3d
       0.05255648 0.030614601 0.253171 0.09297455
000260 aa 4c 3a 3b 6b 78 4a 3e 9a e4 cb bd a7 72 b5 3e
       0.0028427043 0.19772498 -0.09955712 0.35439035
000270 ba dc 8c 3d 2e 30 e5 3d 86 fe 34 be e9 56 69 3e
       0.06878038 0.1119083 -0.17675218 0.2278706
000280 38 40 0a 3e 47 a4 94 3e ce 74 30 bd d3 a0 3b bd
       0.1350106 0.29031584 -0.043080144 -0.04580767
000290 e7 49 cd 3d 61 5d 74 3e a6 1a 80 3d 62 9c 22 be
       0.100238614 0.23863746 0.06255083 -0.15879968
0002a0 98 c9 94 be 0c 05 e8 3e ea 58 1b bd 6a 89 ca be
       -0.29060054 0.4531635 -0.037926592 -0.39557964
0002b0 4b fb 68 bd bb 45 4e bd 39 3b 25 be 7b dc c9 3c
       -0.056880277 -0.05035947 -0.16135873 0.024641266
0002c0 10 9a 50 bc 08 fe 0a be b4 f7 7e bb 68 d4 e5 bc
       -0.012732044 -0.13573468 -0.0038904967 -0.028055385
0002d0 38 25 63 be 10 7f f2 3d e8 a8 e7 3c 6d 38 c9 bd
       -0.22182167 0.118406415 0.028278783 -0.098252155
0002e0 45 1e 78 be 47 8f 48 3c 74 37 92 3e 03 9a d5 bd
       -0.24230297 0.012241191 0.28557932 -0.10429766
0002f0 1c ef 46 be 55 f9 b7 3d f4 e6 83 bd e8 aa c1 bb
       -0.1942715 0.08983103 -0.06440535 -0.005910266
000300 6b 96 9c be c4 b5 25 3e 5d 16 52 be d8 aa c8 bd
       -0.3058351 0.1618262 -0.20516343 -0.09798211
000310 0d 8a ee be 86 e8 4a bd 78 78 3a be 02 93 0a be
       -0.465897 -0.049538158 -0.18210018 -0.13532642
000320 5b 7c 69 bd 53 8a 37 bd e0 98 7e be 87 61 c6 bd
       -0.05700336 -0.04480965 -0.24863005 -0.096865706
000330 aa 1e 83 3d a4 5e 0c be d7 5a 84 3e a4 0a 8e bd
       0.06402333 -0.13707978 0.25850555 -0.06935623
000340 31 3b 40 3e 76 d0 5c be 18 4f af bd 67 d0 7a be
       0.1877258 -0.21563897 -0.08560008 -0.24493562
000350 cd e4 15 3c 56 fa c6 bd ba 45 67 be 7a d3 ca 3c
       0.009148789 -0.097157165 -0.22585192 0.024759043
000360 97 f9 4c be c7 67 88 3e 44 b6 62 be a7 79 a8 bd
       -0.20017086 0.26641676 -0.22139841 -0.08226328
000370 fa f0 4d be 0a 73 c5 3e 76 64 56 3d 94 f5 d0 3e
       -0.20111457 0.3856433 0.0523419 0.4081236
000380 58 f9 65 bd f9 ee 9e bd 78 f2 9e bd c8 07 32 be
       -0.056145996 -0.07760424 -0.07761091 -0.17385781
000390 77 65 a9 be 74 08 4a bd 5a 4e 46 3e d8 30 d9 3b
       -0.33085224 -0.049324468 0.19365826 0.006628137
0003a0 7a b6 dd be a3 c0 89 bd 8e d0 13 be 04 08 7a 3c
       -0.4330328 -0.06726196 -0.14435026 0.0152607
0003b0 ad 81 d5 3d bb 2a b2 3c 81 a8 43 bc 47 69 6a be
       0.10425124 0.021748891 -0.01194203 -0.22891723
0003c0 a2 b7 f2 bd 35 69 10 3f a5 d1 29 be 64 8f 5f be
       -0.118514314 0.56410533 -0.1658388 -0.21832043
0003d0 89 25 36 3c 4c f4 0b 3e 3f 81 c4 ba ae b4 1c 3e
       0.0111173475 0.1366741 -0.0014992132 0.15303299
0003e0 28 97 1d 3e 3e 13 4a 3e 2b 28 78 bd 87 a3 ef b9
       0.15389693 0.19733903 -0.060585182 -0.0004570747
0003f0 8a 6f 41 3e b6 17 e4 3d 5c 9e 9f 3e b4 e6 17 be
       0.18890205 0.11137335 0.31175506 -0.148341

network_body._body_endoder.seq_layers.4.bias f4 [256]
000000 69 cc 22 be 29 65 36 be f4 ec fb bd 0a 87 7b be
       -0.15898289 -0.17812027 -0.123010546 -0.24563232
000010 3a 9d a8 bd b8 75 d1 bd 7c a7 00 be 0e 95 22 be
       -0.082331136 -0.10227531 -0.1256389 -0.15877172
000020 f8 d6 46 be c4 43 bc be b9 c6 0a be cf 9c 8a be
       -0.19417942 -0.3677045 -0.13552369 -0.2707276
000030 e4 07 c7 be 34 50 b9 be ee c1 6d be ac 06 a3 bd
       -0.38873208 -0.36194003 -0.2321851 -0.07960257
000040 e4 d3 6f be 65 ae ce bd 12 e7 96 bd ae 37 bc bc
       -0.23420674 -0.10091857 -0.07368292 -0.022975769
000050 ab 1e 90 be e9 58 f2 3d b2 33 57 be 9e 63 74 be
       -0.28148398 0.118333645 -0.21015814 -0.23866126
000060 74 d9 bc bd da a5 ba be 2f 36 26 be 70 9f f8 be
       -0.092211634 -0.3645466 -0.16231607 -0.4855914
000070 c3 a3 af bd 2f 89 d1 be 4a 2f 17 be a2 db 47 be
       -0.08576157 -0.40924975 -0.14764133 -0.19517377
000080 08 47 6f 3d 8d 25 05 be e4 9f 2a be de b9 46 be
       0.05841735 -0.13002606 -0.16662556 -0.1940684
000090 e3 51 d7 be 97 1a b2 be f8 a2 49 be 77 8b b1 be
       -0.42054662 -0.3478591 -0.19691074 -0.34676716
0000a0 d4 ca 26 be f1 2b 80 be 12 a1 40 be c8 3c e3 be
       -0.1628831 -0.25033525 -0.18811443 -0.4438231
0000b0 da f3 e5 be 63 8e 79 be 74 f9 95 be 14 23 70 be
       -0.44912606 -0.24370722 -0.2929188 -0.23450881
0000c0 c7 55 48 be 6c 30 c4 be e3 ff e3 be 5f b6 6d be
       -0.19563971 -0.38318193 -0.44531164 -0.232141
0000d0 f1 59 33 be 09 ca 84 be a8 98 01 be 69 00 9a be
       -0.17514779 -0.2593539 -0.1265589 -0.30078438
0000e0 d1 c2 38 be c3 59 53 be c3 55 71 be 6c 81 80 bc
       -0.18043067 -0.2063971 -0.23567872 -0.015686713
0000f0 60 64 79 be cb 76 78 be 70 d2 74 be 3f fb b5 bd
       -0.24354696 -0.24264066 -0.239084 -0.08885812
000100 14 88 46 be 06 6b 85 be 8b 72 55 be ac e8 52 be
       -0.19387847 -0.26058215 -0.20844476 -0.2059657
000110 97 78 42 be be 09 7e be d7 63 32 be 0e 5d 76 be
       -0.18991314 -0.24808404 -0.17420898 -0.24058935
000120 0f c1 36 be 91 5d 19 be 97 99 99 be fd 39 ed be
       -0.17847084 -0.14977099 -0.29999992 -0.46333304
000130 b1 1d 12 be 9a 91 eb 3d 5a d9 ef bd 9b 3d 82 be
       -0.14269139 0.11502381 -0.117113784 -0.25437626
000140 0d 5a b5 be 46 ed 4a be 45 cf 89 be e7 c4 56 be
       -0.35420266 -0.19817075 -0.26915947 -0.2097355
000150 c3 77 89 be 08 aa a9 bd f7 30 96 bc 84 7a 0f be
       -0.26849183 -0.08284384 -0.018333895 -0.1401158
000160 78 c0 0b be 8a 31 8d be d9 95 60 be 83 4e 7c be
       -0.1364764 -0.27576858 -0.21932162 -0.24639325
000170 c8 e4 30 be fd f8 50 be 20 a7 e3 bd 9f 2b 32 be
       -0.17274773 -0.20407481 -0.11115861 -0.17399453
000180 cd cb 95 be 8b 55 1c be 65 64 3e be fd f9 9f bd
       -0.2925705 -0.15267007 -0.18592985 -0.07811353
000190 07 d6 60 be 26 e7 80 be 6c ad a6 bd 7b 70 37 be
       -0.21956645 -0.25176352 -0.08138546 -0.17914002
0001a0 d8 22 4e be 52 2f 52 be 2e 3d be be fb a9 d1 3d
       -0.2013048 -0.20525864 -0.3715605 0.10237499
0001b0 e8 7d 82 be ce 64 70 be b2 b5 9b be 3c 87 9b be
       -0.25486684 -0.23475954 -0.3041206 -0.30376613
0001c0 48 35 a5 be 56 6b 4d be bf f9 54 be cf 31 54 be
       -0.32267213 -0.20060477 -0.20798396 -0.20722125
0001d0 ba e5 88 bd 5e 86 7c be b2 1e b1 be b0 be 3b be
       -0.06684442 -0.24660632 -0.3459373 -0.1833446
0001e0 62 a8 27 be c8 6f a6 be a6 4f 6c be 39 62 53 be
       -0.16372827 -0.32507157 -0.23077258 -0.20642938
0001f0 a9 c6 09 be ff bc 7b be ec 9c 29 be 73 eb 62 be
       -0.13454689 -0.24583815 -0.16563767 -0.22160129
000200 c2 ab 81 be a7 b4 92 3b 48 3e 53 be c6 c5 8d ba
       -0.25326353 0.004477102 -0.20629227 -0.0010816387
000210 d8 0c 2b be 27 83 15 be f2 fa 33 be 82 7d 93 be
       -0.16704118 -0.14600812 -0.17576197 -0.28806692
000220 88 73 a2 be 89 71 1b be bf 97 c2 bd 11 0a 80 be
       -0.31728768 -0.15180029 -0.095015995 -0.2500768
000230 3c 6b 33 be ef 03 8c be 48 49 9e be f5 1e d8 bd
       -0.17521375 -0.2734675 -0.30915284 -0.105527796
000240 9d 54 6b be 71 ba 78 be 48 aa 68 be a2 e2 f9 bd
       -0.22981496 -0.24289872 -0.22721207 -0.1220143
000250 3b 85 0a be ba 54 74 be 91 1e 5a be d1 3d e3 bd
       -0.13527386 -0.23860446 -0.21300723 -0.11095775
000260 06 b4 33 be 78 cb 9f bd 20 5a 1d be d4 6a 57 be
       -0.17549142 -0.078024805 -0.15366411 -0.21036845
000270 34 21 c2 bd c4 68 98 be 18 d7 9b be 3e 04 20 be
       -0.09478989 -0.2976743 -0.3043754 -0.15626618
000280 b4 80 a0 be 51 50 7f be 27 64 b1 bd 01 29 1c be
       -0.31348193 -0.24932982 -0.08661681 -0.15250017
000290 f3 81 23 be 7f 2f e3 bd 4c 81 8c be 5d 5b 84 be
       -0.1596754 -0.110930435 -0.27442396 -0.25850955
0002a0 d0 63 23 be c2 69 83 be 9a 75 32 be cf 78 9c be
       -0.15956044 -0.25666624 -0.17427674 -0.3056092
0002b0 cf 46 e4 be 21 06 36 be 1c 4c 82 be ba 67 90 be
       -0.44585273 -0.17775775 -0.25448692 -0.28204137
0002c0 92 c6 87 be 0b 6a 5e be a6 3e c0 bd 58 5c 6e be
       -0.26518685 -0.2172014 -0.09386949 -0.23277414
0002d0 8d a0 01 be 8b ff 84 be df fc 56 bd ac 6d a8 bd
       -0.12658902 -0.25976214 -0.05248725 -0.08224043
0002e0 66 25 e1 be 66 aa 76 be 32 5d 93 be 32 f8 1e be
       -0.43973845 -0.2408844 -0.2878204 -0.15524366
0002f0 9e a3 39 be f4 cd 3b be b6 95 4d be 47 cd 64 be
       -0.18128821 -0.18340284 -0.20076641 -0.22343932
000300 4e c7 e3 be 98 cb 13 be a4 1b 67 be 92 ec 1c be
       -0.44487995 -0.14433134 -0.22569138 -0.1532462
000310 8b b9 54 be e4 05 5b be 06 b4 c1 bd e0 e5 8f be
       -0.20773904 -0.21388966 -0.09458165 -0.28105068
000320 aa 34 e3 be f3 87 38 be 98 4c 6c be b5 da 48 be
       -0.44376117 -0.1802061 -0.23076093 -0.1961468
000330 b9 cf 34 be 87 c0 cf be a5 09 53 be cd f8 b7 bd
       -0.17657365 -0.40576574 -0.20609148 -0.08983002
000340 0e 89 25 be 4d 2e 7a be 71 3a 9a be 58 bf dc bd
       -0.16165563 -0.24431725 -0.30122712 -0.107786834
000350 ae bd d0 bd b5 9e 33 be 8f f5 a0 be f4 a9 97 be
       -0.101924285 -0.1754101 -0.31437346 -0.2962185
000360 c2 d9 d6 be 16 b5 24 be 79 c8 65 be 98 3d 26 be
       -0.4196301 -0.16084704 -0.22439755 -0.16234434
000370 d2 3b a4 bd e6 f4 54 be 3a 66 76 be 5c 59 4b bd
       -0.08019222 -0.20796546 -0.24062434 -0.049645767
000380 a6 c3 51 be f9 29 45 be ff fa 3b be 27 4e f8 bd
       -0.2048479 -0.19254293 -0.18357466 -0.121242814
000390 98 f3 40 be 8c 77 1e be ed 98 be bd b3 bb a2 bc
       -0.18842924 -0.15475291 -0.09306512 -0.019864893
0003a0 3a f6 93 be a7 65 73 bd 7c f7 17 be f3 08 30 be
       -0.28898793 -0.059423115 -0.14840502 -0.17190914
0003b0 5b fe d9 bc ac a3 4f be c3 f7 83 bd 37 5b 93 be
       -0.026610544 -0.2027728 -0.06443741 -0.2878053
0003c0 53 5c 46 be ca dd 54 be b7 8c 22 be ee 5c c5 be
       -0.19371156 -0.20787731 -0.15873991 -0.38547462
0003d0 10 88 f9 bc f2 9b cf bd 8b 78 bc be 77 2d 7a be
       -0.030460387 -0.10137166 -0.36810717 -0.24431406
0003e0 cf 51 a4 be 69 85 b7 be 38 59 d4 bd c7 63 24 be
       -0.32093665 -0.3584397 -0.103685796 -0.16053687
0003f0 8f 58 5e be 0d 1c 89 bd 8d 55 48 be c7 ff 92 be
       -0.2171347 -0.066948034 -0.19563885 -0.28710768
