results/'Mar22-01'/MoveSomewhere/MoveSomewhere-15175.onnx (onnx, 105239 bytes, 9 tensors)

action_model._discrete_distribution.branches.0.bias f4 [3]
000000 da 1e 30 ba 8a 11 95 3a 18 12 82 ba
       -0.00067184644 0.0011373025 -0.0009923605

action_model._discrete_distribution.branches.0.weight f4 [3, 128]
000000 82 75 52 3b 59 2b b3 3b e6 23 f9 3b ac 4a a0 bc
       0.0032113497 0.005467814 0.0076031564 -0.019566856
000010 b9 d4 0e 3b c6 02 ac 38 6a cd 34 bb 61 c2 b2 3b
       0.0021794273 8.202116e-05 -0.0027588257 0.0054553007
000020 ec d0 10 bb 9e b4 d2 3b a4 7d fc 3b 1b b5 4c bb
       -0.0022097183 0.0064302227 0.007705407 -0.0031235877
000030 a9 77 4d 3c 3d d9 66 bc ae d1 18 bb 48 4c d8 3b
       0.012540736 -0.01408988 -0.0023318338 0.0066008903
000040 35 48 76 bb 79 90 91 bb 46 6e c4 bb 85 93 c8 ba
       -0.003757966 -0.0044422713 -0.005994591 -0.0015302753
000050 f9 76 53 3c 37 b9 1e 3c 10 b3 9a bb fd 83 7c bc
       0.012906783 0.009687713 -0.004721053 -0.015412328
000060 cc 1c 41 3c 38 aa a0 bc 4f 23 c4 bc 85 ad 0b bc
       0.011786651 -0.019612417 -0.023942618 -0.008525257
000070 d3 32 13 3b 3d 40 aa ba b7 11 4d 3a 06 4d 1c 3c
       0.0022460714 -0.0012989115 0.0007822769 0.009539848
000080 21 6b 50 bb 08 dc 62 ba ed cd ca 3b d9 75 2b bb
       -0.0031802135 -0.0008654003 0.006189099 -0.0026162772
000090 44 5e ae 3b d1 e4 8b 3b bd bd 43 3b 1d 8e 0b bc
       0.005321296 0.0042692204 0.0029867732 -0.008517769
0000a0 04 ca 21 bb 80 7d 11 bc ea 7b 98 bb 0b 43 90 3a
       -0.002468706 -0.008880019 -0.0046534436 0.0011006308
0000b0 06 82 5a bc 60 05 b7 bb ac 7f 19 3c 33 9c 06 bc
       -0.013336664 -0.0055853575 0.009368818 -0.008215952
0000c0 39 dc 7f 3b b2 58 b5 3c 80 0b f6 ba 37 cd e6 bb
       0.0039041175 0.02213702 -0.0018771738 -0.0070435065
0000d0 68 5f 55 3c 91 d4 c4 bb 0b 92 1f bc 81 3d 53 3b
       0.013023235 -0.006006785 -0.009739409 0.0032232704
0000e0 bd 52 2d bc 8a 09 2c bc 7c b3 94 3b 26 5d eb 3a
       -0.010578808 -0.010500321 0.004537998 0.0017956838
0000f0 39 af 78 bb ef 56 4b bb 4d 86 1d bc 09 42 fe ba
       -0.0037946238 -0.0031027158 -0.009614539 -0.0019398342
000100 dc 68 14 3b b1 19 1c 3b 5b 86 49 3b 88 37 38 bb
       0.002264551 0.0023819024 0.0030750248 -0.002810927
000110 1a b1 df bb f5 9e 63 bb f4 23 2c 3a d6 ef 9b 3b
       -0.006826532 -0.0034732197 0.0006566637 0.0047588153
000120 d1 2d 40 3b 8f fe 96 bb cb 92 08 bc 7c 3c e7 ba
       0.0029324184 -0.0046079825 -0.008335779 -0.0017641927
000130 87 9c 59 3b 7d 2e ae 3c 49 05 f7 3b 96 87 2e 39
       0.003320487 0.021262402 0.007538472 0.00016644443
000140 c6 28 0a bc 66 04 61 3c 1d ac 44 bb ce 28 d0 3b
       -0.008432573 0.013733959 -0.0030009814 0.0063525205
000150 bf 08 da ba 53 07 f9 3b a3 35 9d bb 23 e3 f8 3a
       -0.0016634687 0.00759975 -0.0047976538 0.001898859
000160 48 6d 87 3c 94 37 14 bc 23 99 5a 3c 68 c3 ac bb
       0.016531602 -0.009046454 0.013342175 -0.0052723177
000170 8e 39 42 3b ad 11 38 3c d6 11 8d bb c9 08 b8 bb
       0.0029636356 0.011234683 -0.0043051047 -0.0056162816
000180 9f 68 30 bc 38 c0 36 bc 30 1f b3 3b 87 7a 08 bb
       -0.010767131 -0.011154227 0.0054663643 -0.0020824985
000190 56 ff 2f 3c 55 7a 85 bb 76 07 c4 bb 58 13 93 bb
       0.010742029 -0.004073421 -0.0059823347 -0.00448839
0001a0 76 a9 12 bc 93 c6 44 bb fe 6a 39 bc 8b a5 3f bb
       -0.008951535 -0.0030025586 -0.011317013 -0.0029242958
0001b0 a7 2b 8c 3b 3c 55 3e 3b e3 9a 72 3b 57 1c 75 3c
       0.0042776647 0.0029042503 0.003701859 0.01496037
0001c0 9d 24 93 b9 54 0c df bb 4a fc ed b9 3f 03 d2 3b
       -0.00028065304 -0.0068068895 -0.00045392133 0.0064090784
0001d0 ab f1 b2 3a 45 85 d9 bb 46 27 72 bb 9a c0 72 bc
       0.0013652345 -0.0066382014 -0.0036949678 -0.014816428
0001e0 b6 c3 3c 3c 61 ce 0d bc 17 00 3d 3c cc 58 0d 3c
       0.0115212705 -0.008655162 0.011535666 0.008627128
0001f0 9a b7 58 3c 0c 7e 35 bc f7 0b ca 3b ae 3b 29 b9
       0.013227368 -0.011077415 0.006165977 -0.00016139328
000200 8c 92 ad 3b 4a 43 7c bb c0 17 9c bb 1a 7a 67 ba
       0.0052970108 -0.0038492256 -0.0047635734 -0.0008830145
000210 b0 68 e7 ba 8c 67 78 ba b3 06 b0 3a 97 b2 99 bb
       -0.0017655101 -0.0009475879 0.0013429731 -0.004690479
000220 50 66 5a bb 34 d6 db 3b 7d 3c c1 ba 2f 47 0f bc
       -0.0033325143 0.0067088846 -0.0014742758 -0.008744999
000230 7b 57 10 3c 2e 7a b8 3a 9f cc 28 bc 45 63 f4 3a
       0.0088099195 0.0014074498 -0.010302692 0.0018645307
000240 0a 1f 99 3b db 1e d2 b9 da a1 19 bc 0b 19 9d bb
       0.0046728896 -0.0004007731 -0.009376967 -0.004794245
000250 70 9b bc bb b7 69 c9 3b e4 73 2f 3c 3f 6e f2 bb
       -0.0057558343 0.0061466354 0.010708783 -0.0073983963
000260 30 ad 21 3b 41 2c 6a bc 2a 7f 8a bc a4 39 08 bc
       0.0024669878 -0.0142927775 -0.01690634 -0.008314524
000270 76 24 6c 3b e7 46 21 3c 76 1a 2f bb c6 0d 42 3b
       0.0036032475 0.009843565 -0.0026718653 0.002961026
000280 0e b7 68 bc c5 9f 16 bc 0d f1 53 3c 65 1e bc bb
       -0.0142038 -0.009193365 0.012935889 -0.005740928
000290 64 99 1a bb 00 f0 57 3b b0 eb fb bb a8 63 40 3c
       -0.0023589963 0.0032949448 -0.0076880082 0.01174251
0002a0 4b 27 e4 3b fd 6c 77 bc 0f c3 92 bb 12 8a 9d bb
       0.006962692 -0.015101668 -0.004478819 -0.004807719
0002b0 d6 bd 12 bc 3b 08 e6 bb ff d6 fc 3b 65 0d 8e bb
       -0.008956393 -0.007020024 0.007716059 -0.004335093
0002c0 0e 60 8f bc 25 52 1f bc bd 3b 5a bb 4a 12 9e bb
       -0.017501857 -0.009724175 -0.0033299767 -0.0048239576
0002d0 8e af 87 3c a4 d0 10 bb 21 2c 81 bc ce 95 18 3c
       0.016563203 -0.0022097016 -0.015768113 0.00931306
0002e0 dd 4f 0e 3b f6 e9 0a bc af 9e 33 3a 73 0e aa bb
       0.0021715083 -0.008478632 0.0006851954 -0.0051897108
0002f0 2c 70 03 3c bd 5e 8e ba 24 94 6f bb ee 9f 30 bb
       0.008022349 -0.0010861974 -0.0036556805 -0.0026950794
000300 ed 68 16 bb fc 1b fd ba 50 f6 4c 3a 8b 9d 49 bc
       -0.0022950724 -0.0019310708 0.0007818686 -0.012305628
000310 fb 6a ff 3a 93 ea 46 bb f4 86 45 bc 50 03 42 bc
       0.0019486839 -0.003035222 -0.012056101 -0.01184161
000320 bd ed 85 bc e9 ee 8c ba ca f0 fa 3a c3 93 1b 3c
       -0.016348714 -0.0010752353 0.0019145247 0.009495678
000330 3d d8 93 3b 77 54 5c 3c 2c c5 2d 3c da 0e 2a bc
       0.0045118616 0.013447872 0.0106060915 -0.010379517
000340 37 ff 11 ba 1e 75 6b 3c a9 fb 31 bc 73 8b 45 3c
       -0.0005569341 0.014371185 -0.010863223 0.012057173
000350 44 18 84 bb 40 c0 1d ba 7f 1e 60 b7 0f 69 39 3c
       -0.004031213 -0.0006017722 -1.3358541e-05 0.011316552
000360 9f ad ca bb 6e cf 10 bc e0 71 0b bc c7 ba 98 3b
       -0.006185248 -0.008838518 -0.008511037 0.0046609375
000370 13 29 e9 bb 6b 69 97 ba d9 ef 12 bc 4e 85 08 3c
       -0.007115492 -0.0011551803 -0.008968317 0.008332564
000380 e6 75 ec 3b 78 ba 32 3c d0 9f 5f 3c 4f d7 8f b9
       0.007216203 0.010908715 0.013648942 -0.00027435503
000390 ad ab 74 3c 47 3e 35 bc bd 68 50 ba 53 e3 e9 3b
       0.014933509 -0.011062211 -0.00079501775 0.007137695
0003a0 c7 0d da 3b d1 fa d1 3b 7e 7f 8d 3c a4 d4 91 bb
       0.0066544744 0.0064080735 0.017272707 -0.0044503976
0003b0 f6 72 fe 3b 81 cd 8c ba 3a a9 3b ba f3 05 c1 3b
       0.0077651693 -0.0010742397 -0.00071587006 0.005890602
0003c0 c0 77 f2 ba da 3e 0d bb eb 96 dd bc a9 48 41 bc
       -0.0018498823 -0.0021552355 -0.027049502 -0.011797109
0003d0 47 fc dd ba b1 3a 89 bc 0e 7b b8 bb 79 eb 83 bb
       -0.0016936146 -0.016751619 -0.0056299036 -0.0040258733
0003e0 87 82 e8 bb 36 37 be 3b 21 73 24 bb 4d e9 ea bb
       -0.007095638 0.0058049215 -0.0025093036 -0.007168925
0003f0 fe da 49 bc 69 2b 35 3c 4b f1 69 3c d3 7f d0 3b
       -0.012320278 0.011057713 0.01427872 0.006362894

action_model._discrete_distribution.branches.1.bias f4 [3]
000000 b2 90 e6 3a 86 f8 8b ba 39 fa 6f 39
       0.001759073 -0.0010678924 0.00022886031

action_model._discrete_distribution.branches.1.weight f4 [3, 128]
000000 74 0e a8 bb 1c 27 b2 bc 64 c5 83 3c 5a 06 3b 3c
       -0.005128676 -0.021747164 0.016085334 0.011415089
000010 d5 0c 9c 3b f9 dc e5 ba ae f1 8f 3a 22 47 6d 3c
       0.004762272 -0.0017537168 0.001098206 0.014482291
000020 64 ef b5 bb f5 4a 99 3b ed fb b3 b9 5a 46 52 3a
       -0.005552219 0.004678125 -0.0003432924 0.00080213475
000030 1e fc b7 bc 7f ef af ba 4e a1 d5 3a 24 8f 64 3b
       -0.022459086 -0.0013422816 0.0016298683 0.0034875358
000040 d9 69 3d 3c 31 a3 e4 3b 78 17 0a 3c 10 bf 5c 3b
       0.011560881 0.0069774617 0.008428447 0.0033683218
000050 17 f8 43 bc 9b f6 1e bb f8 56 17 bb db b5 19 bc
       -0.011961005 -0.0024255875 -0.002309261 -0.009381737
000060 93 ae 90 3b f1 67 19 bc 6b d1 db 3a eb c3 10 bc
       0.004415342 -0.0093631605 0.0016770785 -0.008835773
000070 3e 2e 44 bb f7 11 be b8 75 1a d2 b8 16 53 1c 3b
       -0.002993479 -9.063252e-05 -0.00010018508 0.0023853234
000080 37 b5 07 3c fb ab 2d bb 25 d1 3d bc ff 92 0d 3b
       0.008282951 -0.0026500213 -0.0115855085 0.002160251
000090 89 df 84 3b 23 6f 14 bc dc b1 8a bb 0d 45 a9 3b
       0.004054968 -0.0090597 -0.0042326283 0.005165702
0000a0 12 d5 c1 bc dc d8 fd 39 e6 7f db bb 4c fc a6 bb
       -0.02366117 0.00048417493 -0.0066985963 -0.005095994
0000b0 c9 24 32 3c 85 bb db 3a b4 c3 13 ba 10 d6 12 3c
       0.010873028 0.0016764259 -0.0005636767 0.008962169
0000c0 42 d0 85 bc 2b 8b 55 3c b2 9d 0a 3a 71 de 48 bc
       -0.016334657 0.0130336685 0.00052877807 -0.012260065
0000d0 8c 4c 95 3b 9b 8e 30 ba b8 3b 98 3a 50 09 20 3c
       0.0045562442 -0.0006735117 0.0011614477 0.009767845
0000e0 e0 99 d8 ba 23 df 88 bb fe 8a 12 bc cd d6 92 bb
       -0.001652535 -0.0041769906 -0.008944271 -0.0044811727
0000f0 1e 6e b7 3b 07 3f e1 ba 81 6a 8f 3b ad 00 a2 ba
       0.005597844 -0.0017184921 0.00437671 -0.001235982
000100 1e 81 69 3c 8a 63 8b 3b c9 ac 21 bb 5f 1f 54 bc
       0.014251975 0.0042538093 -0.0024669638 -0.012946933
000110 79 3e 55 3c 77 7a cf bb 3c f7 02 b7 aa cc fa 39
       0.013015383 -0.0063317376 -7.806168e-06 0.00047836202
000120 d4 aa 56 bb 5e 1b 76 3c 5e 7e bc bb a4 49 d2 3b
       -0.003275563 0.015021173 -0.005752369 0.00641747
000130 f7 94 0b bc 82 14 19 bc 7d 43 ff b8 35 6c 97 bb
       -0.008519403 -0.009343268 -0.00012171918 -0.0046210536
000140 56 50 f5 ba 50 19 0b 3c cf 6c 0e bb 47 5f 21 bc
       -0.0018715959 0.008489922 -0.0021732335 -0.009849376
000150 93 45 a9 bb 1a 7d b0 3c 61 93 27 bb e5 b7 3c bc
       -0.0051657646 0.021544028 -0.0025570022 -0.011518453
000160 9b dd 98 ba 5a 33 fe 3b 16 dc 13 3a 64 c0 ad bb
       -0.0011662723 0.0077575864 0.00056404003 -0.0053024758
000170 f7 59 09 bc 34 31 75 bc 2c af 3b bb 15 f7 7e bb
       -0.008383266 -0.014965344 -0.0028638346 -0.0038904597
000180 89 e9 8b bc 2c 3c af bb 55 d0 74 bb 4c 3d 8b 3b
       -0.017079132 -0.005347749 -0.003735562 0.0042492505
000190 77 f4 54 bb 13 37 52 3c 5a 29 24 3c 27 35 db 3c
       -0.0032494345 0.0128305135 0.010019625 0.026758743
0001a0 e1 a0 c7 3b da d6 c7 3b 4a fc 26 bc dd 68 9c bb
       0.0060921763 0.0060986103 -0.010191986 -0.004773243
0001b0 8d 64 28 3c d8 c5 93 ba 7c 5d 63 3c 2c ac 26 3c
       0.010277879 -0.0011274172 0.013877269 0.010172885
0001c0 c2 f5 84 3c 34 9c 5c bc de 00 02 bc f4 5a 19 bc
       0.016230468 -0.013464976 -0.007934777 -0.009360064
0001d0 8c 67 99 3a 4a 2d 13 bb fb 00 94 3a 8b 91 66 3c
       0.0011703833 -0.0022457414 0.0011291796 0.014072786
0001e0 cb e5 b5 3b 5e 02 bd 3b e1 0d ff ba f7 ef c0 b9
       0.005551075 0.0057681045 -0.0019459092 -0.00036799881
0001f0 0d dd 08 bb 65 4b 5d 3c 0d 19 58 3c 05 37 4e bc
       -0.002088371 0.013506745 0.013189566 -0.01258636
000200 bf b7 2c bc 06 2a 05 bc 88 a1 01 3c bd 5f ca 3b
       -0.010541855 -0.008127695 0.007912047 0.0061759637
000210 bf 38 16 bc 3e ea 02 bb 93 47 7f 3c 6c 4c 30 3b
       -0.009168803 -0.0019976045 0.0155810295 0.002690102
000220 67 d0 0f 3c f7 b5 28 bc fc 65 93 bc 8a 46 14 bb
       0.008777714 -0.01029729 -0.017992966 -0.0022625052
000230 fb 60 a6 3b 92 95 0d 3c 3e b2 93 3b 81 e1 4e bc
       0.005077479 0.008641617 0.004507332 -0.0126270065
000240 7b 20 34 3b 42 c7 ce bb a9 b3 7c 3c 90 49 98 3b
       0.002748518 -0.0063103745 0.015423694 0.004647441
000250 cd 04 90 3c ea 2c 57 bb 0b ec bd bb 0b c0 ce 3b
       0.017580414 -0.0032833167 -0.005795961 0.0063095144
000260 2b e4 22 bc 2d da 76 3b 19 38 c2 3b 2b c3 8d 3b
       -0.009942095 0.0037666664 0.0059270975 0.0043262444
000270 06 80 12 3b d8 db 36 bc 9f 56 e7 3b 5a af 49 bc
       0.002235414 -0.011160813 0.0070598866 -0.0123098735
000280 67 88 a6 3b d2 c3 2e 3b 3e a3 04 3c f6 59 93 bc
       0.0050821784 0.002666701 0.008095561 -0.017987233
000290 24 53 90 3b 7f 93 30 bb a9 fc ec ba 7c 64 fd bb
       0.0044044424 -0.0026943383 -0.001808067 -0.007732926
0002a0 09 70 89 3c 6b 80 a9 3b 0e 3d 71 3c 28 cf 94 bb
       0.016777055 0.0051727793 0.014724029 -0.0045412965
0002b0 cc 7c e6 3a 76 70 08 3c 1d 32 27 3b f8 a6 69 bb
       0.00175848 0.008327594 0.0025512048 -0.00356525
0002c0 24 5c d3 3b 01 c6 06 bb ac 02 6a ba 18 df 77 3c
       0.006450193 -0.0020564797 -0.000892679 0.015128873
0002d0 13 aa 07 bc a5 4a 10 3c bf 66 a9 bb f5 83 3f bc
       -0.008280295 0.008806859 -0.005169719 -0.011689176
0002e0 10 ea 8c bb 7f 72 a3 ba cf d5 69 3c 74 6c 1e 3b
       -0.0043003634 -0.0012470036 0.014272167 0.002417353
0002f0 db e9 f1 3b 2d c1 8d bc 97 6a 90 3a 27 ed 72 bc
       0.007382614 -0.017304027 0.0011018094 -0.014827049
000300 9a bd 83 3a 4b 83 cf 3b bc ea d1 3a 16 ce 5c bc
       0.0010051013 0.00633279 0.0016015391 -0.013476869
000310 9c 52 98 bb bf 44 08 bb 5e 0d ee bb aa 3e 30 bb
       -0.0046485197 -0.002079293 -0.007264777 -0.002689282
000320 b2 de 98 3c 36 1e 1f 3c be f1 0e bc e0 96 ee bb
       0.018660877 0.009711793 -0.008724628 -0.0072811693
000330 61 a8 d7 3a f3 24 34 3c aa 64 d2 ba 6c 24 93 3b
       0.0016453379 0.0109951375 -0.0016051729 0.004490426
000340 00 93 89 bb 59 4a 8e 3c e4 57 f0 3b bb 93 97 3c
       -0.004198432 0.017369436 0.007334696 0.01850306
000350 8a ab e5 bb ee 5c b1 3c 8c e4 82 3b 03 ea 18 bc
       -0.0070089744 0.021650758 0.00399453 -0.0093331365
000360 8e c2 e0 3a 51 74 7a 3b 88 13 4f 3b ac 88 88 bc
       0.0017147826 0.0038216303 0.0031597335 -0.016666733
000370 0f b1 d1 3a 48 b4 32 bc 7a 00 85 3b e4 17 68 bb
       0.0015998202 -0.01090724 0.0040588947 -0.003541463
000380 9c 2a c2 3b 19 55 3f bc d2 1d 7a 3c a3 30 45 bc
       0.0059254896 -0.011678004 0.015265899 -0.012035522
000390 2d a4 35 bc 1d 31 c7 bb fa 0b f4 3b f5 ac 07 bc
       -0.011086506 -0.006078853 0.007447717 -0.008280982
0003a0 58 a5 ad 3c de 4a 8c bc 7f 10 8c ba d8 0c b4 3b
       0.021197006 -0.017125543 -0.0010686069 0.005494695
0003b0 f0 84 26 3c 6a 9b e2 3b 0c ad 82 3c ee 6e 83 3b
       0.010163531 0.0069154995 0.015951656 0.0040110266
0003c0 df 2f 07 bc 64 8b e4 3a 08 75 de bb d9 43 9f 3b
       -0.008251159 0.0017436561 -0.0067888536 0.004860383
0003d0 66 39 3b bc 27 fb 90 bc 99 c2 f4 bb f1 db 73 3b
       -0.011427259 -0.017697884 -0.007469487 0.0037209953
0003e0 e7 df 35 3b b0 30 26 3c 48 98 c5 3b 25 13 0b 3b
       0.0027751864 0.010143444 0.006030116 0.0021221128
0003f0 23 2d 23 3c ad f6 33 bc 7b c1 f4 3b 24 99 46 ba
       0.009959492 -0.010984105 0.0074693537 -0.00075759203

discrete_action_output_shape f4 [1, 2]
000000 00 00 40 40 00 00 40 40
       3.0 3.0

network_body._body_endoder.seq_layers.0.bias f4 [128]
000000 80 c6 d6 ba 75 f5 58 3b 6c 69 87 3b 96 c8 4a 3a
       -0.0016386062 0.0033105288 0.0041324403 0.0007735578
000010 20 d1 bf 3a b8 10 31 ba 16 2f 89 ba f4 04 a9 ba
       0.0014634468 -0.00067545054 -0.0010466303 -0.0012895153
000020 44 be af 3a 13 37 97 3a 7f 1b c5 39 6c e8 37 bb
       0.0013408144 0.0011536799 0.00037595254 -0.0028062118
000030 e2 9a 9c ba c4 f7 25 ba 22 99 db 39 4f e2 ed 3a
       -0.0011948014 -0.00063311704 0.00041885028 0.001814911
000040 36 8c 9e ba f3 be be ba b6 d7 4f 3a 2c 60 d0 3a
       -0.001209623 -0.0014552757 0.0007928567 0.0015897802
000050 8c aa cb 3a b9 73 47 b9 e6 e2 73 3a fb 87 48 3a
       0.0015538498 -0.00019021229 0.0009303525 0.0007649657
000060 b8 cb 90 ba d0 c6 b0 3a ec 93 0d 3a 09 b9 3e 3a
       -0.0011047041 0.0013486985 0.0005400765 0.0007275497
000070 e7 c9 2b ba 1c ec 21 bb e6 a5 c6 3a ef 04 eb ba
       -0.0006553218 -0.0024707383 0.0015155643 -0.0017930547
000080 6d 37 47 3b 8b 28 96 3a f8 41 c5 3a ab 80 93 ba
       0.0030398027 0.0011456175 0.0015049567 -0.0011253556
000090 62 c3 5c 3a b3 05 97 39 96 87 a4 b9 83 9a cd 3a
       0.00084214483 0.0002880521 -0.00031381537 0.0015686307
0000a0 95 2d 2e 3b af d2 8f 3a 54 7a de 37 4b 64 2a 3a
       0.0026577462 0.0010972823 2.6521426e-05 0.000649993
0000b0 45 68 2d ba a7 f0 30 bb c0 2e 09 bb 2a 78 e4 38
       -0.00066149636 -0.0026998909 -0.0020932406 0.000108942695
0000c0 ae b6 e0 b8 b4 cb 18 3b 8b 41 df b9 0a e3 17 bb
       -0.00010715179 0.0023314776 -0.00042582708 -0.0023176097
0000d0 2a 26 bb 39 93 b5 03 ba 49 70 8a bb c4 2d 04 bb
       0.00035695854 -0.000502431 -0.004224811 -0.002016888
0000e0 05 76 1f 3b e4 9a c6 ba cc c6 55 ba 3c 3f b3 3a
       0.002433182 -0.0015152362 -0.0008154928 0.0013675462
0000f0 83 86 0d bb bb b4 19 bb 1b 7b 8c 3a ea 60 8f b9
       -0.0021595068 -0.002345367 0.0010717841 -0.00027347292
000100 63 86 12 ba 93 c8 1d bb 9b d5 1e ba ff d3 00 3a
       -0.0005589483 -0.002407585 -0.00060590514 0.00049144024
000110 ba ff 7b 3a 2c 48 a8 3a d5 0c c2 39 58 ff 12 bb
       0.00096129964 0.0012838892 0.00037012124 -0.0022430029
000120 b2 c2 54 ba f5 7b 4f ba 23 3d 41 3a 98 37 2f b8
       -0.000811617 -0.00079148944 0.0007371476 -4.1775027e-05
000130 84 72 8b ba 84 4a a0 ba ec 79 bc 3a 93 f3 d3 ba
       -0.0010638987 -0.0012229239 0.0014379597 -0.0016170613
000140 86 3b 61 ba 6a 33 cb 37 ff 7d c6 ba 25 69 20 39
       -0.00085919385 2.4223427e-05 -0.0015143751 0.00015297958
000150 da f9 b0 3a 56 70 b8 3a 1b d6 0c bb 7a 31 95 ba
       0.0013502196 0.0014071565 -0.0021489921 -0.0011382543
000160 2c 35 91 3a 2f 6d a6 3a ea f7 6f 3b 7e 87 a4 3a
       0.0011078469 0.0012697334 0.0036616274 0.0012552587
000170 68 30 12 ba 1f 39 08 39 d1 f6 90 ba c5 1d 8b b8
       -0.0005576671 0.0001299125 -0.0011059885 -6.6335815e-05
000180 0a 07 5c b9 40 39 35 3a fc 50 62 3a f9 15 3a ba
       -0.00020983457 0.0006913133 0.00086332834 -0.0007098611
000190 c1 87 0b 3a 99 75 c5 3a cb db 03 38 b8 87 65 3a
       0.0005322658 0.0015064954 3.1437532e-05 0.00087558804
0001a0 81 8b d7 39 8b 21 d2 ba 58 0c 10 3a 7a aa 33 ba
       0.00041111934 -0.0016031725 0.00054950034 -0.0006853711
0001b0 cf 2c 9b 3a 24 0e bf 3a b6 a9 85 ba c8 29 51 ba
       0.0011838916 0.0014576358 -0.0010197673 -0.0007978943
0001c0 93 55 0a 3a 36 21 3a ba 1b 9c a5 b8 9e 78 c5 ba
       0.0005277034 -0.0007100286 -7.89689e-05 -0.0015065854
0001d0 09 f4 61 ba 7b c4 19 bb f7 9f c9 ba 0e 0b 98 3a
       -0.0008619433 -0.0023463059 -0.0015382756 0.0011599974
0001e0 82 8e fb b8 95 f2 12 3b a3 29 8f ba 06 8c 16 3b
       -0.00011995157 0.0022422422 -0.0010922443 0.0022971644
0001f0 f6 75 ba b9 eb ab 88 bb 19 cd 74 ba 26 27 3f 3a
       -0.00035564572 -0.004170885 -0.0009338423 0.00072919053

network_body._body_endoder.seq_layers.0.weight f4 [128, 64]
000000 c4 81 31 3e 22 a0 b0 3d 3f 9a b1 3d a1 14 69 bd
       0.17334658 0.08624293 0.08671998 -0.05690444
000010 62 df 18 be 1b fc 73 be 61 03 59 3d d8 14 00 3e
       -0.14928964 -0.2382664 0.052981738 0.12507951
000020 66 2f 5e bd 31 0e df bd 2e 69 1e 3e d2 9c 7b 3e
       -0.05424442 -0.10891379 0.1546981 0.24571541
000030 38 4d ad bc cf 63 1f 3e 26 15 57 3e ab f8 5f bd
       -0.021154985 0.15565418 0.21004161 -0.054680508
000040 a6 5c bf 3d 99 18 43 b8 1c 2e 43 be 8e 7a f2 bd
       0.09343843 -4.651453e-05 -0.19060558 -0.11839782
000050 75 07 8d bd db 55 93 bd f7 a1 fa bd 88 56 93 3e
       -0.06886188 -0.0719411 -0.122379236 0.28776956
000060 19 d0 ba bd aa 40 d1 bd c5 1f ce 3c 83 3e 74 3e
       -0.09121723 -0.10217412 0.025161633 0.23851971
000070 45 9d 0d bd f1 30 07 3e 7c 9d 9e 3d 12 c3 cf 3d
       -0.034573812 0.13202263 0.077448815 0.101446286
000080 d7 90 22 bd 6e 65 a7 bd 40 12 86 3d 76 f3 bf 3c
       -0.03968891 -0.08173643 0.0654645 0.02343152
000090 e6 42 02 3e 63 58 16 bd 30 7e 31 3e dc a0 10 be
       0.12720832 -0.036705386 0.17333293 -0.14123863
0000a0 46 71 cf 3d f1 83 0b be aa 45 e9 bc 98 90 01 be
       0.10129027 -0.1362455 -0.028475601 -0.12652814
0000b0 e4 b2 67 be 01 9f 18 bd ad da 42 bd 4e ea b8 3d
       -0.22626835 -0.037261013 -0.047571827 0.09029065
0000c0 e1 a7 43 be 71 5e a6 3d 31 da 80 3d 50 40 4f be
       -0.1910701 0.08123482 0.06291617 -0.20239377
0000d0 93 fb 8d 3e 6a 7a 01 be d5 67 54 3d 4d 0d c5 bd
       0.27730998 -0.12644354 0.051856834 -0.096216775
0000e0 62 10 94 3d c5 bd 2f be ef 94 fc bd 5f 14 c4 bd
       0.07229687 -0.17162235 -0.12333094 -0.09574198
0000f0 fc d7 f2 3d ee 90 8c bb 57 5e 0d 3d 4e b9 b4 3d
       0.11857602 -0.004289738 0.034513798 0.088244066
000100 6f d8 50 3e 88 fd a2 bd af 81 60 3e 08 12 14 be
       0.20395063 -0.079585135 0.2192447 -0.14460003
000110 ab a7 ce 3d ea d2 02 be 5c 26 57 bd 40 e5 f6 bd
       0.10090574 -0.1277577 -0.052526817 -0.12055445
000120 c6 e8 72 3d bd 01 ea 3c 80 0c 13 3d 88 de 5e bd
       0.05930402 0.028565282 0.035900593 -0.05441144
000130 94 ed 22 3c a6 87 09 3e 81 c4 ec bc bc 29 34 3e
       0.009944338 0.13430652 -0.028902294 0.17594045
000140 15 79 64 3d f4 ab 35 bd ec e3 7b 3e 04 bb 9f bd
       0.055779535 -0.04435344 0.24598664 -0.07799342
000150 35 1d cc 3d 2b 19 78 bd 53 1d 9e 3d 49 6f a2 bd
       0.09966508 -0.060570877 0.07720437 -0.07931382
000160 00 b3 91 3d 7d 77 f5 bd f3 68 b2 3c 13 40 d6 3d
       0.0711422 -0.11985681 0.02177856 0.1046144
000170 2d 65 04 be 9a d2 0a be 75 d3 4d 3c 82 d4 e9 bd
       -0.1292922 -0.135569 0.012562622 -0.11417486
000180 11 23 50 3e 66 6a c8 3d a1 fb 72 3d 14 a6 1c 3e
       0.20325877 0.09785919 0.059322003 0.15297729
000190 90 3a 98 bd 5f 4d 7e bd 91 80 96 bd 30 d0 af bd
       -0.07433045 -0.062085506 -0.07348741 -0.085846305
0001a0 7d c7 51 3e 81 1b 58 bd b5 df a6 bd 5f 11 3b 3e
       0.20486255 -0.052760605 -0.081481375 0.18268345
0001b0 75 42 b8 3d e2 c9 fe 3d 72 b6 02 3e 66 76 5b bd
       0.08997051 0.1244085 0.1276491 -0.05357971
0001c0 12 29 dc bd 31 d5 0b bd e2 33 22 be 2a 3b 88 bd
       -0.10750021 -0.034138862 -0.15840104 -0.0665191
0001d0 22 4d 90 3d 92 c1 fc 3d e1 e1 26 3d 99 61 13 3e
       0.07045962 0.12341608 0.04074276 0.143927
0001e0 c3 01 9b bc 41 32 41 3d fa 6f 7f bc a7 2b 82 be
       -0.018921738 0.047167066 -0.015590662 -0.2542393
0001f0 f5 b3 a1 3e 0b 03 14 be fe fa 8b 3d 0b 49 24 3e
       0.3158261 -0.14454286 0.06834982 0.16043489
000200 5f 02 a0 3e 56 0d cc bc 8b 5b 47 be 61 86 fb 3c
       0.3125181 -0.024908703 -0.19468515 0.030703725
000210 76 0f e4 3d 66 83 a7 3c b1 e1 67 3d 6a 25 43 3e
       0.111357614 0.020448398 0.05661172 0.19057241
000220 37 d4 a5 bd 58 2b c0 3d 51 29 01 bd 41 3b b5 3d
       -0.080971174 0.09383267 -0.031533543 0.088491924
000230 5c d2 97 3d b1 0d 1a 3e e9 56 45 3e 13 af 8d 3c
       0.0741317 0.15044285 0.19271435 0.017295396
000240 1a a1 9d bb 05 e8 5f bd 30 32 a4 be 20 b4 18 bc
       -0.0048104646 -0.05466463 -0.3206954 -0.009320289
000250 c6 d7 6e 3b ab 8d 9f 3d 3d c0 37 3d bb af d6 bc
       0.003644453 0.07790693 0.044861067 -0.026206842
000260 53 13 e6 bb 5d 00 58 bd 0b 6a 00 3e 1d 07 b8 3b
       -0.0070213466 -0.05273472 0.12540452 0.0056160823
000270 e6 cb 62 be 07 bb af 3c 22 66 a0 3d e1 84 3d be
       -0.22148094 0.021451486 0.0783198 -0.1850772
000280 45 96 d5 3d 7f fc 7c 3e ee 38 4e 3d e1 e9 5d bc
       0.10429052 0.24705695 0.05034726 -0.013544531
000290 63 ac 8f 3e c9 64 dc 3d c8 77 8a 3d d4 48 c7 3c
       0.28061208 0.10761411 0.06761128 0.02432672
0002a0 62 7e ac 3d ca eb 02 3d 8a fc d9 3d f4 b5 e2 bd
       0.08422543 0.031963147 0.10643871 -0.11069861
0002b0 97 63 a2 3d f6 de 22 bd 37 c0 23 be e7 6d f0 3d
       0.079291515 -0.039763413 -0.15991293 0.11739712
0002c0 06 5c a5 3d 67 d7 14 3d 66 2f b0 bd 52 bc b1 3d
       0.08074193 0.036338236 -0.086027905 0.086784974
0002d0 68 d8 cb 3c f5 f7 90 3c 37 df a9 bd bb ae c1 bd
       0.024883464 0.01769636 -0.08294528 -0.09457155
0002e0 01 db 8a 3e 17 15 be bd fd 39 ba 3d a4 0e 1e be
       0.27120212 -0.09281366 0.09093092 -0.15435272
0002f0 67 84 0f 3e 11 b1 06 be 70 71 0d 3e e9 d6 26 3e
       0.14015351 -0.13153483 0.13812804 0.16292919
000300 e9 2a b5 bd 40 d4 c7 bd 62 a4 7f 3e 95 1b b4 3d
       -0.08846075 -0.0975728 0.24965051 0.08794323
000310 67 7f 41 be 1a ba 1e 3d f4 fc c8 bd f3 c3 cc 3c
       -0.18896256 0.0387517 -0.09813872 0.02499578
000320 7a 5a 95 3d 2a 27 95 3d 42 d8 43 3d e2 e2 62 bd
       0.07292648 0.072828606 0.04781366 -0.055392154
000330 c2 98 1f 3d 45 eb b4 bd da 9f db 3b 00 2a 99 3c
       0.03896404 -0.088339366 0.0067024054 0.018696785
000340 77 61 1a be 01 5c 61 3e 56 5b 3a 3d 0e fe 17 3d
       -0.15076242 0.22007753 0.04549726 0.03710752
000350 28 c3 1d 3d 45 dc 1b bc d6 90 59 3d 28 5e 78 3e
       0.038516194 -0.009512966 0.053116642 0.24254668
000360 a1 96 fc 3c ba a2 d8 3d ac d8 59 3e de f5 8c bd
       0.030833544 0.10577913 0.2127406 -0.06882833
000370 95 cd d7 3d 4f 12 55 3e 02 df 8c 3e 9b 5c d6 3d
       0.105372585 0.20807765 0.2751389 0.10466882
000380 50 36 6d be f8 18 6a bd 99 66 1a 3e 92 6b 07 be
       -0.2316525 -0.05715272 0.150782 -0.13224629
000390 db 2b b5 bd 94 f3 30 3e a2 47 1d bd 05 12 8f bd
       -0.088462554 0.17280418 -0.038398392 -0.06985859
0003a0 46 52 80 3d c5 18 1e 3d 5e 97 e0 3d b5 c5 4e be
       0.062656924 0.03859784 0.10966371 -0.20192607
0003b0 3d 37 f4 3d 59 d7 82 3d 4e 46 f3 bd f2 68 22 3c
       0.11924598 0.063887306 -0.11878644 0.009912716
0003c0 6b 8f 29 3e 59 6a c7 3d 95 66 fc bc 98 ee 83 3e
       0.16558616 0.09737081 -0.030810634 0.2576797
0003d0 c7 6f fa bd bd 91 8e bd 46 af b6 bd 5d 70 ba 3d
       -0.12228351 -0.06961391 -0.089201495 0.09103463
0003e0 cb 0e a4 3d c8 8d 22 be b8 fc 79 bd 1d 81 b2 bc
       0.08010634 -0.15874398 -0.061032027 -0.021790082
0003f0 4f a1 7f 3c 0a 53 8b 3d 1c 68 83 3d 87 1a 8b bd
       0.015602424 0.06802948 0.06416342 -0.06792169

network_body._body_endoder.seq_layers.2.bias f4 [128]
000000 11 73 92 3b 4e 8a 5b b9 ab a4 cb ba 39 25 36 3a
       0.0044692834 -0.0002093699 -0.0015536746 0.00069482956
000010 9f ce b3 ba 94 4c 96 ba ee f3 92 ba ec 32 23 3a
       -0.0013718194 -0.0011466914 -0.0011211613 0.00062255445
000020 5c c5 b7 ba 29 fc 3c 3a bb f3 00 3a 87 c1 e8 ba
       -0.001402061 0.00072092057 0.0004919131 -0.0017757871
000030 0c a4 0a bb 73 5a 70 3b 93 61 4b ba 69 db 36 ba
       -0.0021154908 0.0036675006 -0.0007758375 -0.00069754437
000040 f9 23 01 3a d2 c3 8c 3a 36 34 0b bb d7 b4 18 3a
       0.000492632 0.0010739511 -0.0021240837 0.0005825287
000050 f8 67 72 b9 f7 5b 0b 3b 96 55 89 3a 8a f0 c2 ba
       -0.0002311765 0.0021264532 0.0010477777 -0.0014872712
000060 9c c8 e3 ba ac 50 08 b9 27 e5 aa b9 53 2f 48 bb
       -0.0017378512 -0.00013000023 -0.0003259566 -0.0030545786
000070 c9 5e 67 ba 1c 54 7a 3a 54 8f d5 ba 2e 65 a0 ba
       -0.0008826075 0.00095492764 -0.0016293325 -0.0012237185
000080 98 46 a6 ba 21 a0 13 bb f1 2f 69 b9 84 75 04 3a
       -0.0012685833 -0.0022525864 -0.00022238471 0.00050529116
000090 5c 40 bb 3a a2 0a c4 ba 09 4c d3 ba 6d 09 5d 3a
       0.0014286148 -0.0014956782 -0.0016120683 0.00084318855
0000a0 5b 15 80 b9 bc 63 b9 3a ca d8 44 bb bf ba c7 ba
       -0.00024429974 0.0014144103 -0.0030036443 -0.001523815
0000b0 01 25 f1 ba ab c2 dd 3a dd 58 d8 b9 37 50 36 ba
       -0.0018397869 0.0016918977 -0.0004126494 -0.0006954702
0000c0 03 90 48 b9 8d 5f 27 3b 00 cc 1d bb 16 56 ac 3a
       -0.00019127135 0.002553913 -0.0024077892 0.0013148214
0000d0 cf 43 95 3a 68 d5 8b ba c9 0e ce ba 21 27 19 3a
       0.0011388006 -0.0010668458 -0.0015720959 0.00058423175
0000e0 14 aa 81 39 27 8f 7a 3b 57 84 82 3a 0b ea cc b8
       0.00024731515 0.0038232298 0.0009957653 -9.771072e-05
0000f0 5b 56 8d ba f9 6b c8 bb b8 02 5e 3a 45 c4 2e ba
       -0.0010783182 -0.006116387 0.0008469033 -0.00066668197
000100 2e 55 b7 b8 b6 94 7f 3a 3d 43 69 39 95 60 bf ba
       -8.741986e-05 0.00097496377 0.0002224566 -0.0014600927
000110 61 a4 f8 38 bd 5a c9 ba c8 73 99 ba 68 3d c9 ba
       0.000118561795 -0.0015362125 -0.0011707479 -0.0015353383
000120 db 5d 3f 3b f2 8a 46 bb d5 6a a4 ba 28 1a 92 3a
       0.002920023 -0.003029522 -0.0012544045 0.0011146711
000130 39 be 9c 37 bd 17 0c ba b0 3f 6c b8 b0 89 f8 3a
       1.8685228e-05 -0.00053441135 -5.63261e-05 0.0018961933
000140 c8 a2 fe ba 94 b0 9d ba ce bc 2e bb 18 70 83 3a
       -0.0019427175 -0.0012030774 -0.002666283 0.0010027913
000150 c0 94 e0 ba ff 95 0d ba a4 96 b7 ba 14 2e bc ba
       -0.0017134175 -0.00054010743 -0.0014006686 -0.0014356994
000160 b6 c2 92 ba 03 e2 a0 ba bc da e6 ba 7e 8a 78 3a
       -0.0011196944 -0.0012274388 -0.0017612795 0.0009481086
000170 01 5c 54 3b 98 c4 84 ba 02 b3 0f bb 72 79 6e 3a
       0.0032403471 -0.001012939 -0.0021926765 0.0009097076
000180 49 fd 9c b9 80 56 7a 3a fe 29 47 b9 56 d3 75 3b
       -0.0002994335 0.00095496327 -0.00018993762 0.003751
000190 50 5b 3c 3a 42 7f 78 b8 e4 14 ac ba f6 5d 1d 3b
       0.00071852375 -5.9246326e-05 -0.0013128784 0.0024012304
0001a0 20 e0 97 ba ba e8 97 3a c3 98 18 3a 62 80 90 ba
       -0.001158718 0.0011589744 0.0005821103 -0.0011024589
0001b0 53 ff aa ba 4a 17 a5 ba ef b8 06 bb 5e e4 1e ba
       -0.0013046063 -0.0012595442 -0.0020557006 -0.0006061251
0001c0 13 d0 dc ba 7f 9b 51 bb 8c 42 42 bb 48 42 f8 ba
       -0.0016846679 -0.0031983552 -0.0029641716 -0.0018940652
0001d0 f7 6b c9 ba a3 35 5c ba 6e a7 4d ba 82 db b5 b8
       -0.0015367259 -0.00084003265 -0.00078450784 -8.671639e-05
0001e0 58 7b 6d ba 9d 18 c6 39 4b 9e 28 ba 53 5c d0 ba
       -0.0009059212 0.0003778384 -0.0006432279 -0.0015896655
0001f0 4f 5a 81 3a 99 e7 a4 3a 86 31 49 3a ab 46 df 3a
       0.0009868833 0.0012581229 0.0007674921 0.001703461

network_body._body_endoder.seq_layers.2.weight f4 [128, 128]
000000 6b 83 d3 3d ff 55 41 be 7e 0a 26 bd 53 cb 43 bd
       0.103278 -0.18880461 -0.04053735 -0.047801327
000010 62 e2 c0 bc ad 2f 64 3c 05 9b b1 bd 41 2b 27 3d
       -0.023545448 0.013927382 -0.08672146 0.040812735
000020 e8 f9 92 3d 41 00 88 3d 1b 12 e2 3d a5 7e 1f bd
       0.07176572 0.066406734 0.110386096 -0.038939137
000030 12 f1 29 bd e5 38 b6 3c fb e1 9f bb 1f 2a 20 3e
       -0.04148967 0.022243926 -0.004879234 0.15641068
000040 9d 60 e7 bd b6 f6 23 3e f9 95 92 3c 48 86 f2 3c
       -0.112977244 0.16012082 0.017893778 0.029605046
000050 56 b0 cb bd 25 72 f6 bd 7d 9e 55 3d fd 80 07 3d
       -0.09945743 -0.1203349 0.0521531 0.033081997
000060 39 0d 29 3d ba 0c 87 bc 2a cf 78 bc 54 fe a0 bc
       0.041272376 -0.01648556 -0.0151861105 -0.019652523
000070 a5 6f 6a 3c 7b 13 f8 bc 4c a2 05 be c9 af d3 bd
       0.014308845 -0.030282727 -0.13050193 -0.10336263
000080 08 6e 02 3e 44 e1 8e bc 10 e1 7e 3d 44 c4 97 3b
       0.12737286 -0.0174414 0.062226355 0.004631551
000090 9c 9c 72 bd 36 ab 6b 3d 35 fc f9 3c ec 80 8a 3d
       -0.059231386 0.057536326 0.03051577 0.06762871
0000a0 d8 a4 b7 3d ee 34 0e bd c7 a3 d2 3d 6f af 2f bd
       0.08966988 -0.034718446 0.10285144 -0.042891916
0000b0 10 e5 e0 bb 1a 0e 03 3c e7 eb bb 3c 26 15 e4 bd
       -0.006863244 0.007998968 0.022939635 -0.11136846
0000c0 8b 5b ac bc 57 00 a9 3d 19 83 56 39 4f 97 8c 3d
       -0.021039745 0.08252018 0.00020457468 0.06864797
0000d0 9c 52 d8 3c a9 a7 ed bc c8 1c a7 3d cd 2d 9e 3b
       0.026406579 -0.02901061 0.081597865 0.004827237
0000e0 a3 b0 44 3e 74 eb b8 bd 8b 8e 1f 3d ba d4 4f 3c
       0.19208007 -0.09029284 0.0389543 0.012684995
0000f0 30 65 47 3c f0 11 05 be 5a 71 26 bd dc 3e b1 bd
       0.012170121 -0.12995124 -0.040635444 -0.086545676
000100 b4 80 c6 bc 0c 44 5d bd 44 7f a6 3c f7 bf 97 3d
       -0.024231292 -0.054019973 0.020324357 0.07409661
000110 c5 8c 51 bc 41 af d0 bc e8 81 a7 bd c0 ab 99 3c
       -0.01278991 -0.025474193 -0.081790745 0.018758655
000120 7c 95 11 be ab 20 db 3d 76 67 a3 bd 90 b6 da ba
       -0.1421718 0.1069959 -0.07978718 -0.0016686488
000130 29 74 ac 3d 71 4c 0c 3e df c4 3f 3c fe 3f 10 3d
       0.08420593 0.13701035 0.011704653 0.035217278
000140 22 76 96 3c 4a bd 0f be 8c d1 81 3d 18 74 16 bd
       0.018366877 -0.14037052 0.06338796 -0.03673181
000150 cb 47 12 be 8e 93 81 bd f9 4b 0c 3c 59 34 65 3c
       -0.142852 -0.06326972 0.008563035 0.013989531
000160 50 4a 24 bc 51 c2 15 3d 00 fe 1b 3e 0f a3 06 3d
       -0.010027483 0.036562268 0.15233612 0.03287035
000170 c2 a5 e6 bb b3 0e e3 3b 0b ea a5 bd 5e 5f 86 bd
       -0.007038803 0.0069292425 -0.08101281 -0.065611586
000180 48 83 f1 bb f1 f8 9e 3b 88 f3 a7 bc db 4c b0 3b
       -0.0073703863 0.0048514535 -0.020501867 0.0053802556
000190 14 cb 7d bc ad 2c 98 bd 8c 2e 31 bd 47 6c ea bc
       -0.015490312 -0.07430396 -0.04325728 -0.028616084
0001a0 c3 69 38 bd da e4 cb 3d 19 69 ad bd 6d 45 a4 bc
       -0.045022737 0.09955759 -0.084673114 -0.020052636
0001b0 47 78 8f bd a3 44 5b be dd a2 4f be dd d6 61 38
       -0.07005363 -0.21412902 -0.20276971 5.3844287e-05
0001c0 d6 57 08 be f2 a6 ec bc 5e d5 39 bd c4 35 39 bc
       -0.13314757 -0.0288882 -0.0453695 -0.011304323
0001d0 17 60 ec 3c 2b bc fd 3d 7a b9 15 bc e6 ee e2 bd
       0.028854413 0.12389406 -0.009138459 -0.110807225
0001e0 a5 51 ab 3d a2 2a 0e 3e 67 51 19 3d a4 65 38 be
       0.08365182 0.1388345 0.037431147 -0.18007523
0001f0 d2 bd fb 3c 06 79 85 bd 13 da 10 3c 97 9a 50 3d
       0.030730162 -0.06517224 0.008841055 0.05092868
000200 5a ab 85 bd 9f a3 0a bc 9c 5c 37 3c c9 f3 8d bd
       -0.06526823 -0.008461862 0.011191513 -0.06931264
000210 36 b5 ec 3c 62 59 92 bd ec 2b 51 3d 0f ee fa 3c
       0.028895002 -0.07145955 0.051067278 0.030631093
000220 0d da 72 3d 0d 62 bb bd 2f bb 4d be 9a b4 9b bd
       0.05928998 -0.09149561 -0.20090936 -0.076028064
000230 8a a7 b4 3c 4f 35 69 bc a9 13 b7 bd f4 60 36 3b
       0.022052545 -0.014233901 -0.08939297 0.0027828785
000240 3e 4b 01 3e 8d fe b7 bd 37 f6 10 3c 33 d4 24 be
       0.12626359 -0.089840986 0.008847765 -0.16096573
000250 dc e2 65 3e 44 9b c4 3d 4d 64 02 bc 5b c6 04 be
       0.22449821 0.09599927 -0.007958484 -0.12966292
000260 7e 7b 02 3e aa e5 49 3d fe 21 41 3e df f7 fa bc
       0.12742421 0.04929129 0.18860623 -0.030635772
000270 2d b1 da 3d 3d 11 6e bd a7 05 e5 3d ab 7e 2a 3d
       0.10678325 -0.05812191 0.11182719 0.041624706
000280 e8 4d 0e be 5b c5 0a be ae cb 79 bd 5c c1 93 3d
       -0.13896906 -0.13551848 -0.06098526 0.07214615
000290 b3 90 38 bd cc 4f 05 be 6e 6a ef 3d 3f e8 ac 3d
       -0.04505987 -0.13018721 0.11690222 0.08442735
0002a0 26 ff 1a 38 35 aa b5 3b ea c4 93 3c 27 1f 8b 3d
       3.6954087e-05 0.005543972 0.018038232 0.06793051
0002b0 81 c1 c8 bd 25 ed 98 bc f2 fd 96 3c cd 24 a6 3c
       -0.09802533 -0.018667767 0.018431637 0.02028122
0002c0 5a ae 69 3d 7a 21 27 3e a3 23 a7 3d 24 e0 22 3e
       0.05705104 0.16321364 0.08161094 0.15905815
0002d0 4b b6 e3 3d ee 8a 93 3d 9b 60 f9 bd 3e 1d 6d bd
       0.11118754 0.07204233 -0.12176629 -0.057889216
0002e0 4f 6c f2 bd f9 ff 3f 3d 46 34 08 3e ae c7 1b 3e
       -0.118370645 0.046874974 0.1330119 0.1521289
0002f0 89 45 71 3d a3 a9 0c 3d a0 77 1d be ed 0a 54 3e
       0.058904205 0.034341466 -0.15377665 0.20707293
000300 71 41 5f 3e 2c 2f 6c 3d 24 ca 34 be a6 bc 80 bb
       0.21802308 0.057662174 -0.17655236 -0.0039287386
000310 ce 8e 20 ba c7 a1 d0 3d 50 ce 2c bd 5a 93 0e 3d
       -0.0006124795 0.101871066 -0.042188942 0.034808494
000320 01 82 dc 3d 76 00 19 bd bd b0 ce bd d0 3c 10 3e
       0.10766984 -0.037353955 -0.10092304 0.14085698
000330 73 3e bc 3d c6 48 22 bc 86 fc 68 3c e5 c0 4c bc
       0.09191599 -0.009905046 0.0142203625 -0.0124971615
000340 65 09 90 bd f2 b9 f2 bd ef 68 8c 3d 04 3d ce bb
       -0.07033042 -0.118518725 0.06855952 -0.0062938947
000350 ed 2f 8c 3d 1c c5 dd 3a 77 5a e8 3d 0f be 15 3e
       0.068450786 0.0016919705 0.1134538 0.14623283
000360 0a a9 03 be 76 ca 19 be 15 28 f5 3d 29 41 f7 bd
       -0.12857452 -0.15018639 0.11970536 -0.12072975
000370 8c 96 c9 3b 5c 15 e6 bd 01 2a 1e bc aa 70 ab bd
       0.00615198 -0.11234543 -0.009653569 -0.08371098
000380 18 77 da bd d4 09 d9 bd 1e 39 2c be 13 7e 8d 3d
       -0.106672466 -0.10597578 -0.16818663 0.069088124
000390 ea a0 33 bd e1 3a 79 bd 22 6a 90 bd b4 aa a8 bd
       -0.04385463 -0.060847167 -0.07051493 -0.08235684
0003a0 25 66 c6 3b e8 c1 6b 3d dd bd e7 3d 84 3d f5 bd
       0.006054657 0.05755797 0.113155104 -0.11974624
0003b0 56 16 a9 bd e1 07 26 be 1b c5 c7 bd c0 cc 03 3d
       -0.08256213 -0.16213943 -0.09754392 0.032177687
0003c0 13 7c f0 bd 25 60 49 be 87 6e 34 3e 17 c6 cb 3d
       -0.11742415 -0.19665582 0.17620288 0.09949892
0003d0 da a9 ac 3d c6 79 e9 3c 3a 16 0f 3e 5a 16 20 bd
       0.08430834 0.028500449 0.13973323 -0.039083816
0003e0 c6 9c 38 bd e5 33 01 be 52 57 d7 bc 38 4a 81 bd
       -0.045071386 -0.12617452 -0.026286755 -0.06312984
0003f0 98 e9 50 3c 83 50 75 3d 2d 70 6a 3e b5 db d6 3d
       0.012751006 0.059891235 0.22894354 0.104911245
