Assets/Models/EvenMoreComplicatedTrackModel.onnx (onnx, 173682 bytes, 11 tensors)

action_model._discrete_distribution.branches.0.bias f4 [3]
0	0x3db51d4b	0.08843478
1	0xbe899e1f	-0.2687845
2	0x3e46e2f2	0.1942251

action_model._discrete_distribution.branches.0.weight f4 [3, 128]
0	0x3d261f3e	0.04055714
1	0xbd288b9a	-0.04114876
2	0x3de14ae6	0.11000614
3	0x3c8ed4fb	0.017435541
4	0x3a91eca7	0.001113315
5	0x3ce9405d	0.028473074
6	0xbdcc09c6	-0.09962802
7	0x3df73989	0.12071521
8	0xbd9b3269	-0.07577974
9	0x3d9eff3e	0.07763527
10	0xbca98698	-0.020694062
11	0x3e0b3027	0.13592587
12	0xbcf8592c	-0.030315958
13	0xbd0d1c36	-0.034450732
14	0x3ce9fefd	0.02856397
15	0x3d645209	0.055742297
16	0x3c3c1369	0.011479237
17	0x3cc616a8	0.024180725
18	0x3deb9fbb	0.115050755
19	0x3d63c407	0.055606868
20	0x3d0d24a9	0.03445879
21	0x3b87b664	0.0041416157
22	0x3ce754bb	0.028238645
23	0x3a95f3aa	0.0011440415
24	0x3e05b71e	0.13058135
25	0xbc51555c	-0.012776699
26	0x3d8ca8c6	0.068681285
27	0x3d5fcf43	0.05464102
28	0x3db99030	0.09060705
29	0xbcc89898	-0.024486825
30	0xbdc66450	-0.09687102
31	0x3d012dde	0.031537883
32	0xbbe5abcf	-0.0070090066
33	0xbe1148ab	-0.14187877
34	0xbcfb9eeb	-0.030715426
35	0x3e1a7249	0.15082659
36	0x3dc5e538	0.09662861
37	0xbbcdbdbb	-0.006278721
38	0x3d834986	0.06410508
39	0x3b901d2a	0.004398008
40	0xbd6f0e61	-0.058363322
41	0xbdada745	-0.0847917
42	0x3d147672	0.03624577
43	0x3c87e075	0.016586522
44	0x3d3e740e	0.046497397
45	0x3ddb0182	0.10693647
46	0xbaae4d87	-0.0013298251
47	0xbae95e9a	-0.0017804683
48	0xbd54ace9	-0.051922712
49	0xbcc8f3db	-0.024530342
50	0x3dcd2d40	0.100183964
51	0xbdc66252	-0.09686722
52	0xbbeff898	-0.007323336
53	0x3d1313ae	0.03590744
54	0xbc7543c2	-0.014969768
55	0x3d2e0737	0.04248735
56	0xbc278857	-0.010225377
57	0x3d73597a	0.059411503
58	0x3e53cf8e	0.20684645
59	0x3ccaec44	0.024770863
60	0x3e0db411	0.13838221
61	0xbdc6acdf	-0.09700941
62	0x3d4606f3	0.04834647
63	0x3d9b719e	0.0759003
64	0x3d1efec6	0.03881719
65	0x3cd5b068	0.026085094
66	0xbc9a96aa	-0.01887067
67	0x3c84bf1c	0.01620441
68	0x3d2cfc20	0.042232633
69	0xbc691e53	-0.014228421
70	0x3e19312c	0.14960164
71	0x3dae81d6	0.08520858
72	0xbc12b871	-0.008955107
73	0x3d3dfc64	0.046383277
74	0x3df32710	0.11872685
75	0xbbb590c0	-0.005540937
76	0x3e2ba24f	0.16761135
77	0x3c8225f8	0.015887246
78	0x3d778757	0.060431805
79	0xbc6d36a5	-0.01447836
80	0xbe042b98	-0.12907255
81	0xbbb405f4	-0.0054938737
82	0x3d423071	0.04740948
83	0xbcc0bddb	-0.02352803
84	0x3c1f20c6	0.009712404
85	0xbd66f4e9	-0.05638591
86	0xbe142c96	-0.14470133
87	0x3dee3ca7	0.11632662
88	0x3d2982f8	0.041384667
89	0x3c0ed5cc	0.008717965
90	0x3d92fb2b	0.07176813
91	0x3c991187	0.018685116
92	0xb9d891db	-0.000413074
93	0x3c2f8374	0.010712493
94	0x3d59c477	0.05316588
95	0xbd4a3561	-0.049367312
96	0x3cff2390	0.031144887
97	0x3c817950	0.015804917
98	0x3c8ed850	0.01743713
99	0x3d045543	0.032307874
100	0xbdcb1a14	-0.099170834
101	0xbddc5605	-0.107585944
102	0xbc3a014c	-0.011352848
103	0xbc17d01e	-0.009265928
104	0xbb3b852e	-0.0028613317
105	0xbd5ddbf0	-0.054164827
106	0x3e09c2d8	0.13453233
107	0xbd5c4917	-0.05378064
108	0xbd27d7db	-0.04097734
109	0xbe14da7d	-0.14536472
110	0xbd75de81	-0.06002665
111	0x3d2672d8	0.040636867
112	0x3d162cfa	0.036663987
113	0x3d9f0131	0.07763899
114	0xbc50e28a	-0.012749324
115	0x3d777ecb	0.060423654
116	0x3da67b4f	0.08128988
117	0x3d774e47	0.060377385
118	0x3d20e25b	0.03927837
119	0x3dc2e6b3	0.09516659
120	0xbc9a2072	-0.0188143
121	0x3dd667de	0.1046903
122	0x3c9052e5	0.017617652
123	0x3d5b4279	0.05353019
124	0x3aa5754d	0.0012623459
125	0x3d886f8c	0.06661901
126	0x3d60625e	0.05478131
127	0xbd7c94b2	-0.061665244
128	0x3e008b5e	0.12553164
129	0xbae71854	-0.0017631152
130	0xbdba5d33	-0.090998076
131	0x3dfb2f27	0.12264853
132	0xbe333423	-0.17500357
133	0x3e069425	0.1314245
134	0x3e55dbd6	0.20884642
135	0x3c8f92a8	0.017525986
136	0x3e8bf16a	0.27332622
137	0x3d875170	0.0660733
138	0x3d0b545e	0.034016006
139	0xbe587e13	-0.21141843
140	0xbe29d7ea	-0.16586271
141	0x3e21dc04	0.15806586
142	0xbd9c6bf7	-0.0763778
143	0x3e620cc7	0.22075187
144	0xbdeb080e	-0.11476146
145	0xbde38a53	-0.111103676
146	0xbe84136d	-0.2579607
147	0xbd5fd137	-0.054642882
148	0xbda38626	-0.07984571
149	0xbb2eed38	-0.0026691686
150	0x3cc507d7	0.02405159
151	0xbd87e676	-0.06635754
152	0xbda97627	-0.08274489
153	0x3cf96d8a	0.03044774
154	0xbe7b48e4	-0.24539524
155	0xbc15e644	-0.009149138
156	0x3b200da0	0.0024422184
157	0xbd95b553	-0.073099755
158	0x3d35cd8a	0.04438547
159	0xbdd6f57c	-0.10496041
160	0xbd57ed3c	-0.05271648
161	0xbd433931	-0.047661964
162	0xbc0d80d3	-0.008636671
163	0xbdb6eda4	-0.08932045
164	0x3cff4bdc	0.031164102
165	0x3e5da37d	0.21644397
166	0xbbf95098	-0.0076084845
167	0xbe21ac8d	-0.15788479
168	0xbce527a9	-0.027973013
169	0x3e6c2f66	0.23064956
170	0x3e1677b1	0.14694096
171	0xbd0063e1	-0.031345252
172	0x3e5410b5	0.20709498
173	0x3d8ca828	0.06868011
174	0x3e68bfe6	0.22729453
175	0xbe11bcc4	-0.14232165
176	0xbe38622a	-0.18006197
177	0xbe01b4b5	-0.1266659
178	0xbe6850fd	-0.22687145
179	0x3b9c3504	0.004767062
180	0xbd97620d	-0.073917486
181	0x3e4fbf1b	0.20287745
182	0xbd9d4682	-0.07679464
183	0xbd31a0bc	-0.04336618
184	0x3e610a3e	0.21976563
185	0x3e15bc54	0.14622623
186	0x3d6b1d7f	0.057401177
187	0xbd071b09	-0.032984767
188	0xbe46ce55	-0.19414647
189	0xbcefdca6	-0.029280018
190	0x3e87a694	0.26494277
191	0x3e14c9f3	0.14530163
192	0xbdb3c078	-0.08776945
193	0xbe6c42c0	-0.23072338
194	0xbd9f4a81	-0.07777882
195	0xbe035ba8	-0.12827933
196	0xbc14e60c	-0.009088051
197	0x3ce22835	0.027607063
198	0x3cb2f607	0.02184583
199	0x3bedb75a	0.007254523
200	0x3d08e973	0.03342576
201	0xbceba1d7	-0.028763695
202	0xbe3a7f1c	-0.18212551
203	0xbd4014a9	-0.046894703
204	0xbea56f71	-0.32311586
205	0x3c3029d9	0.010752165
206	0xbcfa5305	-0.030557165
207	0xbe2e8f22	-0.17046788
208	0x3e625a73	0.22104816
209	0x3e71ca3d	0.23612304
210	0xba3e36a6	-0.0007256068
211	0x3df9a84d	0.12190304
212	0x3e12fdd8	0.14354646
213	0x3da38c2b	0.07985719
214	0x3dfdc809	0.12391669
215	0xbe7a5e6c	-0.24450082
216	0xbe847053	-0.25866947
217	0x3dd4c935	0.1038994
218	0xbe6e8f04	-0.23296744
219	0xbd8e2cdf	-0.06942152
220	0xbd2a9fe1	-0.04165638
221	0x3e42b73a	0.19015208
222	0xbe0969f4	-0.13419324
223	0x3e01739c	0.12641758
224	0xbd906ce6	-0.07052021
225	0x3e223be0	0.15843153
226	0xbc57c42f	-0.013169332
227	0xbe104e12	-0.14092281
228	0xbe051f11	-0.13000132
229	0xbd3f82ae	-0.046755485
230	0x3d3136c5	0.043265123
231	0xbe3d0182	-0.18457606
232	0xb9efe273	-0.0004575435
233	0x3e7d7570	0.2475183
234	0x3dc4fdea	0.09618743
235	0x3d6d9627	0.058004525
236	0xbda05e69	-0.07830507
237	0x3cebca2c	0.028782926
238	0x3d8e822b	0.06958421
239	0xbccd6d46	-0.02507652
240	0xbe65c4ca	-0.2243835
241	0xbd802372	-0.06256761
242	0xbb923b1f	-0.004462614
243	0x3c88fb2e	0.016721334
244	0x3d51d906	0.05123236
245	0x3e9648a7	0.29352304
246	0xbd27ac41	-0.04093576
247	0xbddd89a8	-0.108172715
248	0x3d936b97	0.071982555
249	0xbe519f17	-0.20470844
250	0x3db77e32	0.08959617
251	0x3e1f8af1	0.15580346
252	0x3e3b3154	0.18280536
253	0x3b256ba4	0.002524116
254	0xbd9e0e8c	-0.07717618
255	0x3bd249bb	0.0064174808

action_model._discrete_distribution.branches.1.bias f4 [3]
0	0xbd93aa53	-0.07210221
1	0x3e774f3f	0.24151324
2	0xbe240e22	-0.16021016

action_model._discrete_distribution.branches.1.weight f4 [3, 128]
0	0x3d9bb13a	0.07602163
1	0x3e54ac5e	0.20768878
2	0x3c7fafdb	0.015605892
3	0xbd240be6	-0.04005041
4	0x3dc9ae51	0.09847701
5	0xbd35c7dd	-0.044380058
6	0x3e2f9ee2	0.17150453
7	0xbc5f7627	-0.01363901
8	0xbd32dbe7	-0.043666746
9	0x3d2171fe	0.039415352
10	0x3c3baa93	0.011454242
11	0x3d63527f	0.055498596
12	0x3de07691	0.10960115
13	0x3d46f422	0.048572667
14	0x3db68d67	0.08913689
15	0xba75725a	-0.0009363048
16	0x3dfed0de	0.12442182
17	0x3df28ad2	0.11842884
18	0xbd16e936	-0.0368435
19	0x3e17c39f	0.14820717
20	0xbd16b0f1	-0.03678984
21	0x3b605489	0.0034230074
22	0x3d9a69c4	0.075397044
23	0x3de61bf1	0.11235798
24	0x3d1e20bb	0.038605433
25	0xbcfdfd5e	-0.031004604
26	0x3d847561	0.06467701
27	0x3deebad8	0.11656731
28	0x3e0bd4db	0.13655417
29	0xbda3e97b	-0.08003517
30	0x3e2dbd2d	0.16966696
31	0x3e12b685	0.14327438
32	0x3d04f2c0	0.032458067
33	0x3d2565a8	0.04038015
34	0x3e3dc7d9	0.18533267
35	0xbd85c6fc	-0.06532094
36	0x3e0c9c0b	0.137314
37	0xbd0b66ed	-0.034033705
38	0x3d1db0ab	0.03849856
39	0x3c6e58ac	0.014547508
40	0x3e01eb98	0.12687528
41	0x3d1be0df	0.03805625
42	0x3d2c5559	0.04207358
43	0x3e7683af	0.24073671
44	0xbdc4dec2	-0.096128
45	0x3d980e25	0.07424573
46	0x3cab7edf	0.02093452
47	0x3e22aa0f	0.15885185
48	0x3e4e98cb	0.20175473
49	0x3e319e16	0.17345461
50	0x3c4ce5d0	0.012505963
51	0x3be75124	0.0070592333
52	0x3dd0aa85	0.10188774
53	0xbca2c5bd	-0.01986968
54	0x3e143e40	0.14476871
55	0x3de7b351	0.11313499
56	0xbdec2168	-0.11529809
57	0x3d75d892	0.06002099
58	0xbe08fd8d	-0.13377972
59	0xbcc83ae4	-0.024442144
60	0x3d5ec240	0.05438447
61	0x3e7d009f	0.24707268
62	0x3dac98a8	0.08427554
63	0x3d442468	0.047886282
64	0xbdd29e4e	-0.102841005
65	0x3dcf921d	0.10135291
66	0x3d9dd140	0.07705927
67	0x3da6f1ba	0.081515744
68	0xbddded6e	-0.10836302
69	0x3d911b91	0.07085336
70	0x3d563d6a	0.052304663
71	0x3db4aa99	0.088216014
72	0x3d35caea	0.044382967
73	0x3de19daa	0.110164
74	0x3d162e38	0.03666517
75	0x3d4ae788	0.04953721
76	0x3dbaf1e8	0.09128171
77	0x3de3da77	0.11125653
78	0xbd0e086f	-0.03467601
79	0x3e07fe49	0.13280596
80	0xbd62bcd1	-0.05535585
81	0x3e12d40b	0.143387
82	0xbdf411bd	-0.11917446
83	0x3d208302	0.03918744
84	0x3d957d31	0.07299269
85	0xbcb1f6ca	-0.021724124
86	0x3e3c488f	0.18387054
87	0x3cdd70e9	0.027031379
88	0x3dad0f73	0.08450212
89	0x3e1e62f6	0.15467438
90	0x3e331932	0.1749008
91	0x3d7389a6	0.059457444
92	0x3db098c5	0.086228885
93	0x3df5f6f6	0.12009995
94	0xbd9bc50d	-0.07605944
95	0x3ccb96f4	0.024852253
96	0x3c9019f1	0.017590495
97	0x3d86b9df	0.06578421
98	0x3d6ea643	0.05826403
99	0x3dc81a8d	0.09770689
100	0xbc8a9119	-0.016914891
101	0x3e20c669	0.15700687
102	0x3d7488f3	0.059700917
103	0xbce7b485	-0.02828432
104	0xbd1fbc62	-0.038998015
105	0x3dfb9b64	0.12285498
106	0xbdda4ee5	-0.10659579
107	0x3dd17b00	0.102285385
108	0x3e1c9002	0.1528931
109	0x3e118610	0.14211297
110	0xbd85d85f	-0.0653541
111	0xbd629ded	-0.05532639
112	0xbd82ecc4	-0.06392816
113	0xbd15ed5b	-0.036603313
114	0x3c930c9d	0.01795035
115	0x3ddbe8f3	0.10737791
116	0x3d9b867f	0.075940125
117	0x3ca9a8f6	0.02071045
118	0x3d4801c3	0.048829805
119	0xbdbfa922	-0.093584314
120	0x3b935be0	0.0044970363
121	0xbd77afb6	-0.060470305
122	0x3d0fc542	0.03510023
123	0x3c8561ad	0.016281927
124	0x3d31b04e	0.043381028
125	0xbd8afb1b	-0.06786176
126	0xbdc4829a	-0.09595223
127	0xbd96ab99	-0.073569484
128	0xbe17c3dc	-0.14820808
129	0x3e7a396a	0.24435964
130	0xbdb49545	-0.088175334
131	0xbe4c2573	-0.1993616
132	0x3e3ad904	0.18246847
133	0xbd8a3853	-0.06749024
134	0xbe43455b	-0.19069426
135	0xbe87f5b1	-0.26554635
136	0xbe100835	-0.1406563
137	0xbda5c02e	-0.08093296
138	0xbe8013b6	-0.25015038
139	0xbd8053ec	-0.06266007
140	0x3dee7bde	0.116447195
141	0x3da1882f	0.07887303
142	0x3de3c321	0.11121202
143	0xbdc2f5ea	-0.09519561
144	0x3e49713a	0.19672099
145	0x3dc4858a	0.09595783
146	0x3dbc3eec	0.09191689
147	0xbec13c44	-0.37741292
148	0xbec51391	-0.3849149
149	0xbe9aadfc	-0.30210865
150	0x3ea3d1ec	0.31996095
151	0x3e3cc77a	0.1843547
152	0xbd9016c1	-0.0703559
153	0xbe8307a1	-0.25591758
154	0xbda71f46	-0.08160262
155	0x3dbe067a	0.09278579
156	0xbe87cdcc	-0.26524198
157	0x3ec5532f	0.38540027
158	0x3e724431	0.23658825
159	0x3e45b8a2	0.19308713
160	0xbd6466a1	-0.055761937
161	0x3dec531a	0.11539288
162	0x3e1d9470	0.15388656
163	0xbcf982b3	-0.03045783
164	0xbe8ea28b	-0.27858385
165	0x3e3e3472	0.18574694
166	0x3e1b707d	0.1517963
167	0x3d3355e3	0.04378308
168	0x3decaaa5	0.11555985
169	0xbe8c0cc2	-0.27353483
170	0xbe772380	-0.24134636
171	0xbf0c039e	-0.5469302
172	0xbd81e349	-0.06342179
173	0xbe616e19	-0.22014655
174	0xbea88b36	-0.3291871
175	0xbeb2079b	-0.34771428
176	0x3e455610	0.19271111
177	0x3def5887	0.11686807
178	0xbcafdf97	-0.02146892
179	0x3a4e244a	0.0007863684
180	0x3d96a1af	0.073550574
181	0xbd2a78f5	-0.04161926
182	0x3e143754	0.14474231
183	0x3dc3d755	0.09562556
184	0xbc1d4e81	-0.009601236
185	0xbe9d5b52	-0.30733734
186	0xbd386888	-0.045021564
187	0x3c0489b8	0.008089475
188	0x3dca926e	0.098912105
189	0x3ce099e1	0.027417125
190	0xbe7cbb07	-0.2468072
191	0xbc0cc5b5	-0.008592059
192	0x3e814ddf	0.25254723
193	0xbe306e0b	-0.17229478
194	0x3e91cbed	0.28475896
195	0x3d6d7067	0.057968523
196	0x3e9a9fde	0.30200094
197	0x3c5266a3	0.012841853
198	0x3c5d51f8	0.013508312
199	0xbe2641b7	-0.16236006
200	0xbea3b56d	-0.31974354
201	0x3e4d0789	0.20022406
202	0xbd225cfb	-0.039639454
203	0x3e17fcf4	0.14842588
204	0x3e09cd8c	0.13457316
205	0x3e2d2c40	0.16911411
206	0x3e9dd682	0.3082772
207	0xbd7607d0	-0.060066044
208	0xbe2726b6	-0.16323361
209	0xbe51167a	-0.2041873
210	0xbdddf303	-0.108373664
211	0xbd8205c1	-0.06348754
212	0x3d4f2e83	0.050581466
213	0xbe302c56	-0.17204413
214	0xbd2c3a84	-0.042047992
215	0x3e1c0a05	0.15238197
216	0x3e1c00e7	0.15234719
217	0xbd74647b	-0.05966614
218	0x3e4771e5	0.19477041
219	0x3eab46b7	0.3345239
220	0x3defcd8c	0.11709127
221	0xbdd79967	-0.10527306
222	0x3d4eff55	0.050536472
223	0xbe799350	-0.24372602
224	0x3d98245e	0.074288115
225	0xbb99d734	-0.0046948437
226	0xbc6bb5a7	-0.014386571
227	0x3e2a287b	0.16617005
228	0x3e27edb8	0.16399276
229	0x3d3dd524	0.046345845
230	0xbe44f30a	-0.19233337
231	0x3d869dd6	0.065730736
232	0xbe6da010	-0.2320559
233	0xbda3e0d6	-0.080018684
234	0xbd67e42d	-0.05661409
235	0x3e976962	0.29572588
236	0x3d5cc4cd	0.05389862
237	0x3e011807	0.12606822
238	0x3d668557	0.056279507
239	0xbe6c0696	-0.23049387
240	0xbd6912a9	-0.05690256
241	0xbd093c3d	-0.033504713
242	0xbdb196f6	-0.08671372
243	0xbead6915	-0.33869234
244	0xbe15bdf1	-0.14623238
245	0xbe44e911	-0.19229533
246	0x3d8c21f2	0.06842412
247	0xbdcff981	-0.10155011
248	0xbdf32034	-0.11871377
249	0x3eb0a9e7	0.34504625
250	0x3da86ab9	0.08223481
251	0xbe99b002	-0.30017096
252	0x3d8a9d38	0.06768268
253	0x3e1c76c9	0.15279688
254	0x3dd5dd76	0.10442631
255	0xbd852f86	-0.06503205

discrete_action_output_shape f4 [1, 2]
0	0x40400000	3.0
1	0x40400000	3.0

network_body._body_endoder.seq_layers.0.bias f4 [128]
0	0xbdf45676	-0.119305536
1	0xbe4f0cb4	-0.2021969
2	0xbe1c9b4f	-0.1529362
3	0xbe78a4bc	-0.24281591
4	0xbeb6e62a	-0.35722476
5	0xbe48ea03	-0.19620518
6	0x3d9ab30a	0.0755368
7	0x3cd93d09	0.026518362
8	0xbe32f672	-0.17476824
9	0xbe37aeff	-0.1793785
10	0xbe1aadf3	-0.15105419
11	0xbdcaecb8	-0.09908432
12	0xbe1eb599	-0.15498962
13	0xbdd8c9f3	-0.10585394
14	0xbde3d028	-0.11123687
15	0xbe843fe4	-0.25829995
16	0xbe0c99c0	-0.13730526
17	0xbe48e83b	-0.19619839
18	0xbe3193e1	-0.17341568
19	0xbe0f6b67	-0.14005814
20	0xbe0e59d7	-0.13901459
21	0xbe6be41b	-0.23036234
22	0xbe56a284	-0.20960432
23	0xbe510221	-0.20410968
24	0xbeab1f78	-0.33422446
25	0xbe7868f2	-0.24258783
26	0xbe84a294	-0.25905287
27	0xbe7cf922	-0.24704412
28	0xbe601497	-0.21882854
29	0xbe7dc8ea	-0.24783674
30	0xbe3ac878	-0.18240535
31	0xbe5dd064	-0.21661526
32	0xbd49579c	-0.049155816
33	0x3d69d772	0.05709023
34	0xbe1360a7	-0.14392339
35	0xbdf2c711	-0.11854375
36	0xbe4ec1c6	-0.20191106
37	0xbe3ae54e	-0.18251535
38	0xbe13ddb7	-0.14440046
39	0xbe80ff23	-0.25194654
40	0xbe600411	-0.21876551
41	0xbe6d3c50	-0.23167539
42	0xbe303f00	-0.17211533
43	0xbe9e68a2	-0.30939204
44	0xbe17aac5	-0.14811237
45	0xbe18bc6d	-0.14915629
46	0xbdb2c0aa	-0.08728154
47	0xbe48e500	-0.19618607
48	0xbd4d3a89	-0.05010465
49	0xbe0bb918	-0.13644826
50	0xbe892a5d	-0.26790133
51	0xbe70fce1	-0.23533966
52	0xbe54f9ee	-0.20798466
53	0xbe40cf96	-0.18829188
54	0xbddfbfc7	-0.109252505
55	0xbdec7451	-0.11545623
56	0xbe317996	-0.17331538
57	0xbe4eb9e2	-0.20188096
58	0xbe224ede	-0.15850398
59	0xbe46145c	-0.19343704
60	0xbe6d318e	-0.23163435
61	0xbc4b9477	-0.0124255335
62	0xbdfb7fc4	-0.12280229
63	0xbe1d92ec	-0.15388077
64	0xbe54e86f	-0.20791791
65	0xbe8a4074	-0.270023
66	0xbe3c4f7a	-0.18389693
67	0xbe26c76f	-0.16287015
68	0xbe2aecca	-0.1669189
69	0xbe12c8b7	-0.14334379
70	0xbe193dce	-0.14964983
71	0xbe32a0e8	-0.17444193
72	0xbe66e39a	-0.2254776
73	0xbe4175b7	-0.18892561
74	0xbd61f50b	-0.05516533
75	0xbe348170	-0.17627501
76	0xbe6c80c5	-0.23095997
77	0xbe197d0a	-0.14989105
78	0xbe6447b2	-0.22292975
79	0xbe60cdc6	-0.21953496
80	0xbd10dc0d	-0.035366107
81	0xbe4b6f5e	-0.19866702
82	0xbe7a5d9a	-0.24449769
83	0xbe948b9c	-0.29012764
84	0xbe8306dc	-0.2559117
85	0xbe0ab509	-0.13545622
86	0xbe6fddfb	-0.23424523
87	0xbdabc7e5	-0.08387736
88	0xbdf00d84	-0.11721328
89	0xbe2b2e37	-0.16716848
90	0x3e2685c5	0.16261967
91	0xbe697532	-0.22798613
92	0xbdcff8a0	-0.10154843
93	0xbb6040f9	-0.0034218414
94	0xbe388cb0	-0.18022418
95	0xbe07dae5	-0.13267095
96	0xbe30e53a	-0.17274943
97	0xbe7ccd6f	-0.24687742
98	0xbd7dd8be	-0.06197428
99	0xbe5c43e1	-0.21510269
100	0xbe2b76bf	-0.16744517
101	0xbdc5faf2	-0.09667005
102	0xbb79a7bc	-0.0038094362
103	0xbd97c820	-0.07411218
104	0xbda57caa	-0.080804184
105	0xbeabc80b	-0.33551058
106	0xbe1d1285	-0.15339096
107	0xbe1f615e	-0.15564486
108	0xbe7ec867	-0.24881135
109	0xbe7769bd	-0.2416143
110	0xbebf6b71	-0.3738666
111	0xbe53bf85	-0.20678528
112	0xbe0b70b1	-0.13617207
113	0xbe1e34ef	-0.1544988
114	0xbe465764	-0.19369274
115	0xbe6c10e7	-0.23053323
116	0xbe174145	-0.14770992
117	0xbe5866b3	-0.21132927
118	0xbd8fd003	-0.07022097
119	0xbe6b0fa7	-0.2295519
120	0xbe4f96f0	-0.20272422
121	0xbe3f61f4	-0.1868971
122	0xbe27de87	-0.16393481
123	0xbe6b5dfe	-0.22985074
124	0xbe3aa608	-0.18227398
125	0xbd432a39	-0.04764769
126	0xbdfe661d	-0.1242182
127	0xbe2d6b1a	-0.16935387

network_body._body_endoder.seq_layers.0.weight f4 [128, 68]
0	0xbd96a741	-0.0735612
1	0x3b96f0d7	0.004606347
2	0xbe4c93e2	-0.19978288
3	0xbeb5879f	-0.35455033
4	0xbe1d24ef	-0.1534612
5	0xbdc42b79	-0.09578604
6	0x3e158057	0.14599739
7	0xbe054ad6	-0.13016829
8	0xbea5ed9d	-0.32407847
9	0xbe848d8d	-0.25889245
10	0x3d1c33a4	0.038135186
11	0xbe71450c	-0.23561496
12	0xbe7bbd6e	-0.2458398
13	0xbdf80946	-0.12111144
14	0xbcdf6953	-0.027271902
15	0xbe6b93fa	-0.23005667
16	0xbdf627c5	-0.12019304
17	0xbec826a9	-0.39091995
18	0xbe138542	-0.14406303
19	0xbe838394	-0.25686324
20	0x3d16bf30	0.036803424
21	0xbdd8fc13	-0.10594954
22	0x3e0f4ead	0.13994856
23	0x3df99740	0.12187052
24	0x3ce52def	0.027976004
25	0xbda07ded	-0.078365184
26	0xbdb34e24	-0.087551385
27	0xbda129dc	-0.07869312
28	0x3da87efe	0.08227347
29	0x3da6ccfb	0.08144566
30	0xbd18df2d	-0.037322212
31	0x3d9dede5	0.077113904
32	0xbde0de12	-0.109798566
33	0xbec1ec20	-0.37875462
34	0x3cbf77ef	0.023372618
35	0xbe74131d	-0.23835416
36	0xbe954b11	-0.29158834
37	0xbe367130	-0.17816615
38	0xbcbe03cd	-0.023195172
39	0xbe3a5254	-0.18195468
40	0x3e5d562c	0.21614903
41	0xbe84ca62	-0.25935656
42	0xbd3597dc	-0.044334278
43	0xbe1cbf11	-0.15307261
44	0xbd8a696b	-0.06758388
45	0x3d74e256	0.059786163
46	0xbdd00c13	-0.10158553
47	0xbd9d3d4c	-0.07677707
48	0xbe57a88d	-0.21060391
49	0xbddfba20	-0.109241724
50	0x3dd91c5e	0.10601114
51	0xbea2a860	-0.31769085
52	0x3e2f95a5	0.17146929
53	0x3dd8dabc	0.10588595
54	0x3e000374	0.12501317
55	0xbe669a82	-0.22519878
56	0x3df238ab	0.11827215
57	0x3dac80ce	0.08423005
58	0x3d874713	0.06605353
59	0xbea7325f	-0.32655618
60	0x3dd4d312	0.10391821
61	0x3e9baa98	0.3040359
62	0xbe02457b	-0.12721817
63	0xbe2412b3	-0.16022758
64	0xbd6f4f04	-0.058424965
65	0xbcd93a9e	-0.026517209
66	0xbda7f748	-0.08201462
67	0xbe54394f	-0.20724986
68	0xbe340b73	-0.17582493
69	0xbe25eb68	-0.16203082
70	0x3c0ac2a2	0.008469256
71	0xbe965024	-0.29358017
72	0xbe2f3863	-0.17111354
73	0xbcd442fd	-0.025910849
74	0x3de8213f	0.11334466
75	0x3c2a81e2	0.010406943
76	0xbe20ed20	-0.15715456
77	0xbe566bc0	-0.20939541
78	0xbcd0f011	-0.025505098
79	0xbe167936	-0.14694676
80	0xbe7a0e7f	-0.24419592
81	0x3d99c621	0.07508493
82	0x3df0599a	0.1173584
83	0xbde16bd9	-0.110068984
84	0xbe8daf8d	-0.27672997
85	0xbcf32d67	-0.029684735
86	0x3e07b6b2	0.13253286
87	0xbc94c28f	-0.018159179
88	0xbedd94ae	-0.43277496
89	0xbea2a016	-0.3176276
90	0xbe447820	-0.19186449
91	0xbcac2dc0	-0.021017909
92	0x3d470eef	0.048598226
93	0xbea7cd2d	-0.32773724
94	0xbe445152	-0.19171646
95	0xbe54b883	-0.2077351
96	0xbdf00c73	-0.117211245
97	0xbdddeaae	-0.10835777
98	0x3d611b99	0.05495796
99	0xbe4f6205	-0.20252235
100	0x3ce2eb33	0.027700042
101	0xbda87902	-0.082262054
102	0x3e1ef267	0.15522157
103	0xbdc53f7e	-0.09631251
104	0xbebab13c	-0.36463344
105	0xbe9b3096	-0.30310506
106	0x3cc48516	0.023989242
107	0xbe9a01bf	-0.30079457
108	0x3e3f70fd	0.18695445
109	0xbeace821	-0.3377085
110	0xbda8af68	-0.08236581
111	0xbdc3969d	-0.095502116
112	0xbdcdf336	-0.100561544
113	0xbe59a270	-0.21253371
114	0x3e5512f7	0.20808016
115	0xbe8dc9d0	-0.27693033
116	0xbd1cd865	-0.038292307
117	0xbf06974e	-0.5257462
118	0x3df83d63	0.121210836
119	0x3dd89208	0.10574728
120	0x3e118073	0.14209156
121	0x3e9bd6e4	0.30437386
122	0xbc9b3eb9	-0.018950807
123	0xbeee3b04	-0.465294
124	0xbdcbbce7	-0.0994814
125	0xbda22069	-0.07916338
126	0x3dfece51	0.124416955
127	0xbe397787	-0.18112002
128	0x3e423e27	0.18969022
129	0x3e450b77	0.19242655
130	0xbe5512ad	-0.20807905
131	0xbea85929	-0.32880524
132	0x3d1abe30	0.037779033
133	0x3e14121f	0.14460038
134	0xbd8a9300	-0.06766319
135	0xbe532705	-0.20620354
136	0x3a549b31	0.00081102835
137	0xbcbb5e89	-0.022872226
138	0x3e2f27f7	0.17105089
139	0xbf037c66	-0.5136169
140	0x3cd63f01	0.02615309
141	0xbee85044	-0.45373738
142	0x3b541cbe	0.0032365764
143	0xbeee2b20	-0.46517277
144	0xbd80cb75	-0.06288806
145	0xbea68892	-0.3252607
146	0xbd49f3e6	-0.049304865
147	0xbe389a9e	-0.18027732
148	0x3c3c08bf	0.011476695
149	0xbdb7e8dc	-0.08979961
150	0x3e0746db	0.13210623
151	0x3c667295	0.014065404
152	0xbe000a31	-0.12503888
153	0xbe1c60c5	-0.1527129
154	0x3da815c1	0.08207274
155	0xbe06192e	-0.13095543
156	0xbe4e27e8	-0.2013241
157	0x3c82b52d	0.015955532
158	0xbd480a85	-0.048838157
159	0xbd691a4b	-0.05690984
160	0x3c1de682	0.009637477
161	0xbe19ad22	-0.15007451
162	0xbe0d1fb9	-0.13781632
163	0xbeccd1ca	-0.40003806
164	0xbdedd7fc	-0.116134614
165	0xbe100270	-0.1406343
166	0x3e71b87c	0.23605531
167	0xbe72144a	-0.23640552
168	0xbc12f8d9	-0.008970463
169	0xbdfee5f1	-0.124462016
170	0x3d976fb5	0.07394353
171	0xbe0b46c0	-0.13601208
172	0xbd8d9a55	-0.06914202
173	0x3d1fea35	0.039041717
174	0xbd6249c0	-0.055246115
175	0xbe5adaf4	-0.21372586
176	0x3ce97ab0	0.028500885
177	0xbda8143d	-0.08206985
178	0x3e334119	0.17505302
179	0xbead8d71	-0.33896974
180	0x3cb54977	0.022129757
181	0xbe559fff	-0.20861815
182	0xbd8e1b9b	-0.06938859
183	0xbdf0a60d	-0.11750422
184	0x3ccd926f	0.025094239
185	0x3d263664	0.040579215
186	0x3e15e296	0.14637217
187	0x3e239627	0.15975247
188	0x3d603b6c	0.05474417
189	0x3ea320d4	0.31860983
190	0xbe034c3d	-0.12822051
191	0xbd5bf91b	-0.053704362
192	0x3dcb262f	0.09919392
193	0x3e2ad658	0.16683328
194	0x3e9f32a8	0.31093335
195	0xbe7e98c0	-0.24862957
196	0x3ed51ffc	0.41625965
197	0x3e94f735	0.29094854
198	0x3e84cde3	0.2593833
199	0xbdcd259c	-0.10016939
200	0xbd50b1a7	-0.050950672
201	0x3dac5a62	0.08415677
202	0xbe9f7346	-0.31142634
203	0x3e3f8fc0	0.1870718
204	0xbeabfa4d	-0.33589402
205	0xbec79396	-0.38979787
206	0x3c0f833d	0.008759317
207	0xbdc1646a	-0.094429806
208	0xbd6c2f88	-0.057662517
209	0xbe93aba1	-0.2884188
210	0x3e278394	0.16358787
211	0xbd9e1a66	-0.07719879
212	0xbec9193f	-0.39277074
213	0xbece48b7	-0.40289852
214	0xbddd3ac2	-0.10802223
215	0xbdd88a6d	-0.105732776
216	0xbe83c691	-0.25737432
217	0xbe7c12ef	-0.24616598
218	0xbd33f89a	-0.043938257
219	0xbda1fd7c	-0.079096764
220	0xbe82e054	-0.25561774
221	0xbe07fdde	-0.13280436
222	0x3d3a8533	0.045537185
223	0xbe6ad9be	-0.22934625
224	0xbe28dda7	-0.16490804
225	0xbce48e26	-0.027899813
226	0xbe6b13d2	-0.2295678
227	0xbdf8688e	-0.12129317
228	0xbe4b4fcf	-0.19854663
229	0xbe4d63b9	-0.20057572
230	0x3e4210b6	0.18951687
231	0xbe5c2181	-0.21497156
232	0xbf0676b7	-0.52524894
233	0xbbf4a79c	-0.0074662697
234	0x3d44456a	0.04791776
235	0x3c7ca2dc	0.015419688
236	0xbf15bfcf	-0.584958
237	0xbe01a1f6	-0.1265944
238	0x3e070562	0.13185647
239	0xbd94d4b8	-0.072671354
240	0xbea67101	-0.3250809
241	0xbef26864	-0.4734527
242	0x3e2fe081	0.17175485
243	0xbed4fb31	-0.41597894
244	0xbe6db951	-0.23215224
245	0xbea7e34c	-0.327906
246	0x3d2fad64	0.042889968
247	0xbddcb54a	-0.10776766
248	0xbe709bb3	-0.23496895
249	0xbdf356ed	-0.11881814
250	0x3d4355f4	0.047689393
251	0xbe2020de	-0.15637538
252	0xbe23b194	-0.1598571
253	0xbe7b2554	-0.24525958
254	0xbd959dbe	-0.073054776
255	0xbdf85615	-0.12125794

network_body._body_endoder.seq_layers.2.bias f4 [128]
0	0xbe370805	-0.17874153
1	0xbe6abbed	-0.2292325
2	0xbe46ea2d	-0.19425268
3	0xbe82e9a1	-0.2556887
4	0xbe1194f5	-0.14216979
5	0xbe1cc00b	-0.15307634
6	0xbe654a80	-0.223917
7	0xbe5bd6e9	-0.214687
8	0xbe68db39	-0.22739877
9	0xbec73c70	-0.38913298
10	0xbd521ec1	-0.05129886
11	0xbe226ae9	-0.15861095
12	0xbe3c7059	-0.18402232
13	0xbcfe1a59	-0.031018423
14	0xbe1d3954	-0.153539
15	0xbc72a8fc	-0.014810797
16	0x3d8bf3fa	0.06833644
17	0xbde13e67	-0.109982304
18	0xbe695064	-0.22784573
19	0xbd91292e	-0.070879325
20	0xbe8b53bd	-0.27212325
21	0xbdf911b6	-0.12161581
22	0xbe3e4ef8	-0.18584812
23	0xbe79d04e	-0.24395868
24	0xbd91af2a	-0.07113488
25	0xbe316ce6	-0.17326698
26	0xbe892672	-0.26787144
27	0xbd84d63e	-0.06486176
28	0xbdb07110	-0.08615315
29	0xbe888b16	-0.26668614
30	0xbdb5a580	-0.08869457
31	0xbda01586	-0.07816605
32	0x3cbeff5e	0.023315128
33	0xbf0038cf	-0.50086683
34	0xbe1ed4e1	-0.15510894
35	0xbe2c0379	-0.167982
36	0xbe106a89	-0.1410314
37	0xbe76a256	-0.24085364
38	0xbe21d767	-0.15804826
39	0xbe5825a3	-0.21108107
40	0xbe9bfcda	-0.30466348
41	0xbe5d4fb5	-0.21612437
42	0xbda0fb8e	-0.0786048
43	0xbced37bf	-0.028957246
44	0xbde25319	-0.11051006
45	0xbd4a9be9	-0.049465094
46	0xbe4ba53c	-0.1988725
47	0xbe4641c5	-0.19361027
48	0xbe23991c	-0.15976375
49	0xbe9dabf6	-0.30795258
50	0xbe074d40	-0.13213062
51	0xbe38e01c	-0.18054241
52	0xbe2d7604	-0.1693955
53	0xbe7326f2	-0.23745325
54	0xbeeef5ce	-0.4667191
55	0xbea05523	-0.31314954
56	0xbe2af7ca	-0.16696087
57	0xbe05eaf9	-0.13077916
58	0xbd991ccd	-0.074761964
59	0xbe993484	-0.2992288
60	0xbe2d92b7	-0.16950499
61	0xbe827f09	-0.25487545
62	0xbbadad93	-0.0053002327
63	0xbd0e115c	-0.034684524
64	0xbe39d0c9	-0.18146051
65	0xbe1295f5	-0.14315017
66	0xbd7f68d1	-0.06235582
67	0xbe676a1a	-0.22599068
68	0xbe3771fc	-0.17914575
69	0x3e135d5c	0.14391083
70	0xbe390c40	-0.18071079
71	0xbeb2c0c0	-0.34912682
72	0xbe4f9a0d	-0.2027361
73	0xbd4b5c33	-0.049648475
74	0xbe5b8319	-0.21436729
75	0xbe9c55df	-0.30534264
76	0xbe20dd26	-0.15709361
77	0xbe487462	-0.19575647
78	0xbe163c01	-0.14671327
79	0x3c5f791b	0.013639714
80	0xbd040a10	-0.03223616
81	0xbde8d057	-0.11367863
82	0xbe8f522b	-0.27992377
83	0xbdd398ba	-0.10331865
84	0x3ce84654	0.028353848
85	0xbe7c0a44	-0.24613291
86	0xbe8100c1	-0.25195888
87	0xbc2e4d47	-0.010638542
88	0xbe167540	-0.14693165
89	0xbe90b619	-0.2826393
90	0x3d6b4ba6	0.05744519
91	0xbeb07b36	-0.34469002
92	0xbe106c90	-0.14103913
93	0xbd291c53	-0.041286778
94	0xbeb4b5c8	-0.35294938
95	0xbe354c61	-0.17704917
96	0xbe40b8a8	-0.18820441
97	0xbea24474	-0.3169285
98	0xbd26ad49	-0.0406926
99	0xbe882b9d	-0.26595774
100	0xbe5526cb	-0.2081558
101	0xbe0502d2	-0.12989357
102	0xbe563064	-0.20916897
103	0xbe82abc6	-0.25521678
104	0xbdaa0d33	-0.08303299
105	0x3dba0bde	0.09084295
106	0xbe347ccf	-0.17625736
107	0xbd55a64e	-0.052160554
108	0xbe9e6e19	-0.30943373
109	0xbcf8cd2a	-0.030371267
110	0xbe55b987	-0.20871554
111	0xbdc69ee8	-0.09698278
112	0xbe7028b2	-0.23453024
113	0xbe6c5283	-0.2307835
114	0xbe9e3a4f	-0.3090386
115	0xbe2dbae0	-0.16965818
116	0xbe4b80fc	-0.19873422
117	0xbe1b6905	-0.1517678
118	0xbe044bea	-0.12919584
119	0xbe1affcd	-0.15136643
120	0xbe5322b6	-0.2061871
121	0xbe056fdb	-0.1303095
122	0xbee86ee8	-0.45397115
123	0xbea85b47	-0.3288214
124	0xbdf20660	-0.11817622
125	0xbe363c02	-0.17796329
126	0xbe0c6d61	-0.137136
127	0xbe3e8021	-0.18603565

network_body._body_endoder.seq_layers.2.weight f4 [128, 128]
0	0x3dc2f281	0.0951891
1	0xbd94db0f	-0.072683446
2	0x3dbaf441	0.09128619
3	0x3d8f5bee	0.06999956
4	0x3d19d976	0.037560903
5	0x3b6611a4	0.003510573
6	0xbefe3fee	-0.4965815
7	0x3e7d1303	0.24714284
8	0xbd8c8802	-0.06861879
9	0xbd7f6888	-0.06235555
10	0xbd57c7d5	-0.05268081
11	0x3d1cd364	0.038287535
12	0xbda34744	-0.07972577
13	0x3c88cee0	0.016700208
14	0xbe490ee8	-0.19634593
15	0x3db24b61	0.08705784
16	0x3dff7a2e	0.12474476
17	0xbe36bdbe	-0.17845818
18	0x3da2d354	0.07950464
19	0x3d19aaa7	0.037516262
20	0xbeeb9f2e	-0.46019882
21	0x3d9a3ca5	0.07531098
22	0x3c79a775	0.015237679
23	0x3d2d2db8	0.04227993
24	0x3cc27d0b	0.023741266
25	0xbe33b4bc	-0.17549413
26	0x3da748de	0.08168195
27	0xbe6a9616	-0.22908816
28	0xbd6dd39b	-0.05806313
29	0xbe0721c4	-0.13196474
30	0x3cf99257	0.030465288
31	0x3d5ea604	0.054357544
32	0x3e076bc1	0.13224699
33	0xbd8c26a7	-0.0684331
34	0xbd32b649	-0.043630872
35	0xbd2aeff6	-0.04173275
36	0xbdd09bef	-0.10185992
37	0xbd0d367e	-0.034475796
38	0x3d754be9	0.059886847
39	0x3de65549	0.112467356
40	0xbd9d86ed	-0.07691751
41	0x3a909a59	0.0011032327
42	0xbdd5d41a	-0.10440846
43	0xbe9c4552	-0.30521637
44	0xbcb8cf2b	-0.022559723
45	0xbd07be39	-0.033140395
46	0x3d0b1edc	0.033964977
47	0xbb4c9b4c	-0.0031220494
48	0xbd25f8cd	-0.040520478
49	0x3ceb3df2	0.028716061
50	0x3e4fc868	0.20291293
51	0x3bdd5a93	0.006755182
52	0x3e4f874b	0.20266454
53	0xbe020be3	-0.12699847
54	0xbd0828a7	-0.033241894
55	0xbe3674d5	-0.17818005
56	0x3d1b2367	0.03787556
57	0x3dd18402	0.102302566
58	0x3d89fb73	0.06737413
59	0xbdda45a0	-0.10657811
60	0xbcaf9e27	-0.021437718
61	0x3e6547d8	0.22390687
62	0xbd070444	-0.032963052
63	0xbe89fb4d	-0.2694954
64	0xbeab0205	-0.33399978
65	0x3db81936	0.089891836
66	0x3da0e99d	0.07857058
67	0xbe87b75b	-0.26507077
68	0x3d8c73bd	0.06858013
69	0xbe09d7fc	-0.13461298
70	0xbe01beaf	-0.12670396
71	0xbe5f21d4	-0.21790248
72	0xbd9de8f5	-0.07710449
73	0xbd3de14d	-0.04635744
74	0xbd2bc592	-0.041936465
75	0x3d84d83d	0.06486557
76	0x3cd965b4	0.026537754
77	0xbc8e2a71	-0.017354222
78	0x3b68fb43	0.0035550154
79	0xbdeb41eb	-0.11487182
80	0xbe09f3b0	-0.13471866
81	0xbb6bb4c8	-0.0035965908
82	0xbd021a05	-0.031763095
83	0xbcb3abd3	-0.021932518
84	0x3dc964ce	0.0983368
85	0xbbfaa90a	-0.0076495456
86	0xbc8a8a7b	-0.016911736
87	0xbe725cd1	-0.23668219
88	0xbde20ee9	-0.11038
89	0x3e06baa1	0.13157131
90	0xbdffca64	-0.12489775
91	0x3e012613	0.1261218
92	0xbe283a54	-0.164285
93	0xbe6c4058	-0.2307142
94	0x3cd4c065	0.025970647
95	0xbba787a2	-0.0051126042
96	0xbd9528dc	-0.07283184
97	0x3e39d037	0.18145834
98	0x3dc06961	0.093950994
99	0x3d6c4a34	0.057687953
100	0xbe66965d	-0.22518297
101	0x3e031c5c	0.12803787
102	0xbeff448d	-0.49856988
103	0x3d5aaa6a	0.053385176
104	0x3e01e54c	0.12685126
105	0xbe087ad6	-0.13328108
106	0xbb419653	-0.0029539063
107	0x3b2d6a16	0.0026460937
108	0x3c6f4842	0.01460463
109	0xbe775513	-0.24153547
110	0x3cf8758d	0.03032949
111	0x3df0e09f	0.11761593
112	0x3db0dcfd	0.086359
113	0xbd07f7ef	-0.033195432
114	0xbd4ea0ab	-0.050446194
115	0x3e7519be	0.23935601
116	0x3d136d1d	0.03599273
117	0xbe0245cc	-0.12721938
118	0x3e5db3c8	0.21650612
119	0xbdf646c8	-0.12025219
120	0x3da957fd	0.082687356
121	0xbd5d2430	-0.05398959
122	0xbda7ba39	-0.08189816
123	0x3de36520	0.111032724
124	0xba841478	-0.0010076901
125	0x3d9134be	0.07090138
126	0x3d919f5a	0.07110472
127	0x3ddafc6d	0.10692678
128	0x3d6cb876	0.057793103
129	0xbdd7629e	-0.105168566
130	0xbdd69a27	-0.10478621
131	0x3e37af68	0.17938006
132	0xbcb1b8a6	-0.021694493
133	0x3e53cdb4	0.20683938
134	0xbdea0ea1	-0.114285715
135	0x3da93c1a	0.082634166
136	0xbd091f27	-0.033476975
137	0x3b5504fe	0.0032504196
138	0xbdf93c62	-0.1216972
139	0xbea7302d	-0.32653943
140	0xbdcfb0de	-0.101411566
141	0xbdd9a419	-0.10627002
142	0x3e1284d7	0.14308487
143	0x3d06bbad	0.032893825
144	0x3befa253	0.0073130517
145	0xbe03b062	-0.12860253
146	0xbe0a67a1	-0.13516094
147	0x3d7d0046	0.06176784
148	0xbd729dbb	-0.059232455
149	0xbdf7844b	-0.1208578
150	0x3b9492ec	0.004534116
151	0xbd1226f0	-0.035681665
152	0xbd8d5f8c	-0.0690299
153	0x3c6bb6f2	0.014386879
154	0xbca3475a	-0.019931484
155	0xbc5869a8	-0.013208784
156	0xbd5ed727	-0.054404404
157	0x3d492a94	0.04911287
158	0xbdd17fe7	-0.102294736
159	0xbcd68db4	-0.026190616
160	0x3d2ace9d	0.041700948
161	0xbe7bc5c1	-0.24587156
162	0x3dfa8b6d	0.122336246
163	0xbbdd7c96	-0.0067592366
164	0x3c9f81d4	0.019471087
165	0xbd1009af	-0.035165485
166	0x3d66dbb1	0.056361858
167	0xbcfaada8	-0.030600384
168	0xbdc5afd1	-0.09652675
169	0xbc07aa76	-0.008280387
170	0xbd21385d	-0.039360393
171	0xbe1cbee0	-0.15307188
172	0x3d52facd	0.051508714
173	0xbd60ccfb	-0.054882985
174	0xbc962ec8	-0.018332854
175	0x3d9c71a9	0.076388665
176	0x3dd72efd	0.10507009
177	0xbe4cd420	-0.20002794
178	0x3e2de404	0.16981512
179	0xbcba4d23	-0.02274186
180	0xbe36863a	-0.17824641
181	0x3c72a86f	0.0148106655
182	0x3def3184	0.11679366
183	0xbca25bc7	-0.019819153
184	0x3ddb30f6	0.10702698
185	0xbca81c54	-0.02052132
186	0xbcde50c6	-0.027138125
187	0x3e25a19a	0.16174927
188	0x3e69823c	0.22803587
189	0x3d8e182b	0.069382034
190	0x3d9c2727	0.07624655
191	0xbee5b8a8	-0.44867444
192	0xbdee5d7a	-0.11638923
193	0xbe315349	-0.17316927
194	0x3dff980c	0.124801725
195	0xbea512fb	-0.32241043
196	0xbc54e949	-0.012995073
197	0x3e0e049d	0.13868947
198	0xbdcb9298	-0.0994007
199	0xbddf4969	-0.10902674
200	0xbd6a0c47	-0.057140615
201	0xbde26ed6	-0.110562965
202	0xbdc32a63	-0.09529569
203	0xbd5f8c35	-0.05457707
204	0x3df25c2f	0.11833989
205	0xbda4abff	-0.08040618
206	0xbdc9abb6	-0.098472044
207	0xbdf9e640	-0.1220212
208	0x3d5972af	0.053087886
209	0xbd10b5ee	-0.03532975
210	0xbd113810	-0.035453856
211	0xbd197a9d	-0.03747045
212	0xbdcd34be	-0.100198254
213	0x3d183f6c	0.03716986
214	0x3e4f1759	0.2022375
215	0x3e227df6	0.15868363
216	0x3d067dc3	0.03283478
217	0xbd822aa5	-0.0635579
218	0xbe03a999	-0.12857665
219	0xbe22e8ee	-0.15909168
220	0xbe130761	-0.14358284
221	0xbe402759	-0.1876501
222	0xbd36ae44	-0.044599786
223	0xbd9f30aa	-0.07772954
224	0xbd854b47	-0.06508499
225	0x3da05f00	0.0783062
226	0xbe069a21	-0.13144733
227	0xbcb2e232	-0.021836374
228	0x3e035154	0.12823993
229	0x3e81dbe7	0.25363085
230	0xbead5559	-0.33854178
231	0xbc910f4f	-0.017707495
232	0xbe44bdc5	-0.19213016
233	0x3d559564	0.052144423
234	0xbd056b67	-0.03257313
235	0x3cd27b49	0.025693553
236	0xbd81126c	-0.06302342
237	0xbd89ebeb	-0.06734451
238	0x3da133b9	0.078711934
239	0xbd9f8334	-0.07788697
240	0x3cee3a9c	0.029080682
241	0xbdddd61b	-0.10831853
242	0xbe9edc66	-0.31027526
243	0x3d29d4f4	0.041462854
244	0x3d188004	0.03723146
245	0x3ce1d0aa	0.02756532
246	0xbd24a3bc	-0.04019521
247	0x3c2de071	0.010612593
248	0xbdcead0b	-0.10091599
249	0xbda435d6	-0.08018081
250	0x3c45f939	0.012083345
251	0x3e1e4a67	0.1545807
252	0x3d336832	0.04380054
253	0xbdc3ca49	-0.09560067
254	0x3bad13f5	0.00528192
255	0x3bce6992	0.006299206

network_body._body_endoder.seq_layers.4.bias f4 [128]
0	0xbdb5633e	-0.088568196
1	0xbf016185	-0.5053943
2	0xbe722d03	-0.23649983
3	0xbe575562	-0.21028665
4	0xbe80349a	-0.25040132
5	0xbdfa07cb	-0.12208518
6	0x3dbf570a	0.09342773
7	0xbe1d3452	-0.1535199
8	0xbe0efe15	-0.13964112
9	0xbeff0ebb	-0.49815926
10	0xbe704799	-0.23464812
11	0xbea3f4c3	-0.32022676
12	0xbe50681c	-0.20352215
13	0x3d14843a	0.036258914
14	0xbe23ccfb	-0.15996163
15	0xbe1c7149	-0.1527759
16	0xbe53b59b	-0.20674746
17	0xbdd6ab67	-0.10481911
18	0xbeac2742	-0.336237
19	0xbe4f6d6a	-0.20256582
20	0x3bda000a	0.0066528367
21	0xbedfb267	-0.43690798
22	0xbe886462	-0.26639086
23	0xbe36fcb1	-0.17869832
24	0xbeb3174e	-0.34978718
25	0xbe8d8e12	-0.27647454
26	0xbefe89a9	-0.497144
27	0xbe43a425	-0.19105585
28	0xbd87fc33	-0.066399
29	0xbef1e345	-0.47243705
30	0xbe155203	-0.14582066
31	0xbea07bf0	-0.31344557
32	0xbee7df6e	-0.4528765
33	0xbe1e91a0	-0.15485239
34	0xbe96bb2d	-0.2943968
35	0xbe867e42	-0.26268202
36	0xbe6d70a5	-0.23187502
37	0x3d94e5d1	0.072703965
38	0x3c9b0fa1	0.01892835
39	0xbea33e36	-0.318834
40	0xbdc69e83	-0.096982025
41	0xbe496dda	-0.19670811
42	0xbe005235	-0.1253136
43	0xbe9910c4	-0.29895604
44	0xbdf8a4d6	-0.12140815
45	0xbb8de592	-0.0043303454
46	0xbe540ed6	-0.20708784
47	0xbe04cbf1	-0.12968422
48	0xbe1c0106	-0.15234765
49	0xbdf47464	-0.11936262
50	0xbe195d78	-0.14977062
51	0xbebfb5a4	-0.37443268
52	0xbe90f748	-0.2831366
53	0xbe310136	-0.17285618
54	0xbc943965	-0.018093774
55	0xbe3d8742	-0.18508628
56	0xbe6ebce1	-0.23314239
57	0x3e630b6c	0.22172326
58	0xba7107d8	-0.0009194589
59	0xbe980cb3	-0.2969719
60	0xbdbc2828	-0.09187347
61	0xbc8a1d1a	-0.01685958
62	0xbeabbe5e	-0.33543676
63	0x3cb89570	0.022532195
64	0xbeb2486a	-0.34820873
65	0xbea78c46	-0.32724208
66	0xbeaeb7bd	-0.34124556
67	0xbe7470eb	-0.238712
68	0xbddcd2f5	-0.10782424
69	0xbdfbe7ce	-0.123000726
70	0xbe0f7db2	-0.14012793
71	0xbe240171	-0.16016175
72	0xbd70c1b7	-0.05877849
73	0xbe743aca	-0.23850551
74	0xbe51559e	-0.20442817
75	0xbe9f654e	-0.31131977
76	0xbea6f4a4	-0.3260852
77	0xbeb1191b	-0.34589466
78	0x3dd6395d	0.1046016
79	0xbda0af19	-0.07845897
80	0xbdd40191	-0.10351861
81	0xbe1ded52	-0.15422562
82	0xbe11928e	-0.14216062
83	0x3b8af131	0.004240178
84	0xbe55ea40	-0.2089014
85	0xbed07419	-0.40713575
86	0xbde28a97	-0.1106159
87	0xbeb75b78	-0.35811973
88	0xbe964b3a	-0.29354268
89	0xbe8d33da	-0.27578622
90	0xbee4bbb8	-0.44674468
91	0xbe9b0524	-0.3027736
92	0xbf14bad5	-0.58097583
93	0x3d74e15c	0.059785232
94	0xbe2d8b25	-0.1694761
95	0xbe96f587	-0.29484197
96	0xbc11df44	-0.008903328
97	0xbdf008a0	-0.11720395
98	0xbec62cc3	-0.38706025
99	0xbdf1f5a3	-0.118144296
100	0xbefb21c4	-0.490492
101	0xbd8b9606	-0.06815724
102	0xbe3fbb80	-0.1872387
103	0xbec8fc28	-0.3925488
104	0xbe21ee2a	-0.15813509
105	0x3dbbd02e	0.091705665
106	0xbe03133c	-0.12800306
107	0xbea01ec1	-0.31273463
108	0xbead27e7	-0.33819506
109	0x3d0bbff4	0.034118608
110	0x3d393c63	0.045223605
111	0xbdcba5c1	-0.099437244
112	0xbeaf5194	-0.34241927
113	0xbde2be51	-0.11071456
114	0xbeab91c3	-0.33509645
115	0xbe94e63f	-0.29081914
116	0xbcedbf6a	-0.029021937
117	0xbd042a9d	-0.0322672
118	0xbe9315b4	-0.28727496
119	0xbdb6386a	-0.08897479
120	0xbdd1d9c8	-0.102466166
121	0xbe94d7f7	-0.29071018
122	0xbdea82b0	-0.11450708
123	0xbe07b148	-0.13251221
124	0xbd9ffb16	-0.07811563
125	0xbeb100f1	-0.3457103
126	0xbe99730d	-0.2997059
127	0xbeb1b989	-0.34711865

network_body._body_endoder.seq_layers.4.weight f4 [128, 128]
0	0x3e468bbe	0.19389245
1	0xbd3b69a5	-0.045755047
2	0xbe5ee779	-0.21767987
3	0x3e4ee716	0.2020534
4	0x3c97300e	0.018455531
5	0xbbcebe76	-0.006309326
6	0xbde0a204	-0.10968402
7	0xbe2e3636	-0.17012867
8	0x3da6c599	0.081431575
9	0x3dd9fed5	0.106443085
10	0xbf3cb0f0	-0.73707485
11	0x3d92f464	0.0717552
12	0xbe19334a	-0.14960971
13	0x3e53b9a0	0.20676279
14	0x3d93407f	0.07190036
15	0xbe5b2dfc	-0.2140426
16	0xbe7ccf86	-0.24688539
17	0x3e05bbbf	0.130599
18	0x3d6f91c7	0.058488633
19	0xbea41198	-0.32044673
20	0x3c8ecf48	0.017432824
21	0xbd75b44c	-0.059986398
22	0x3df34385	0.11878113
23	0x3cb91048	0.022590771
24	0x3dcab598	0.098979175
25	0x3cf23829	0.029567795
26	0xbe15ce6a	-0.14629522
27	0xbe78b2e5	-0.24286993
28	0xbeba6d41	-0.3641148
29	0xbd93958d	-0.07206259
30	0xbdeb4184	-0.114871055
31	0x3e95b3b3	0.29238662
32	0x3dcdbd0a	0.10045822
33	0x3e680618	0.22658575
34	0xbe0f4d09	-0.1399423
35	0x3e13dba1	0.1443925
36	0x3d5567e0	0.052101016
37	0xbd386607	-0.045019176
38	0x38c0e7a2	9.1984184e-05
39	0x3e6b08ac	0.22952527
40	0x3cc4a020	0.024002135
41	0x3e311041	0.17291357
42	0xbdbe79cd	-0.093005754
43	0x3d50fa6f	0.051020082
44	0x3e59bb74	0.21262914
45	0xbd038f8e	-0.032119326
46	0x3d58d335	0.052935798
47	0x3de9c882	0.11415197
48	0x3e49dcd4	0.19713145
49	0x3b2da4a2	0.0026495834
50	0x3da32ff4	0.07968131
51	0x3e41dce0	0.18931913
52	0x3d6e7be2	0.058223613
53	0x3d14c590	0.036321223
54	0x3cbe584c	0.023235463
55	0x3d4b15bb	0.04958127
56	0xbd2e7db4	-0.04260035
57	0x3e2e2f2a	0.17010179
58	0xbee0a875	-0.43878523
59	0xbe05df22	-0.130734
60	0x3d8999ef	0.06718814
61	0x3d1dc84f	0.038521107
62	0xbe592b89	-0.21208014
63	0xbeb25516	-0.3483054
64	0x3e2755b4	0.16341287
65	0x3de2f567	0.11081963
66	0xbeb5d173	-0.3551136
67	0x3dcfdd51	0.10149635
68	0x3d68bcf0	0.05682081
69	0xbe4bc11b	-0.19897883
70	0xbcbfb9f5	-0.0234041
71	0x3d8b8687	0.068127684
72	0x3db65501	0.08902932
73	0xb9503b20	-0.00019858452
74	0x3e9fc1b7	0.3120248
75	0x3dc63520	0.096781015
76	0x3e703f55	0.23461659
77	0x3ea78e61	0.32725814
78	0xbd9394e3	-0.07206132
79	0xbefc3286	-0.49257296
80	0xbe7055b9	-0.234702
81	0x3cfaf811	0.030635865
82	0xbd770cfe	-0.060315125
83	0xbd5bda54	-0.05367501
84	0xbeb514e6	-0.35367507
85	0x3da9e5e0	0.08295798
86	0x3cc83c11	0.024442704
87	0xbe1bf750	-0.15231061
88	0x3d30622f	0.043062385
89	0xbcb5b1a4	-0.022179432
90	0xbdeb2bac	-0.11482939
91	0xbc78ca3d	-0.015184936
92	0x3dd68182	0.104739204
93	0x3e16fb3d	0.14744277
94	0x3d70ff91	0.058837477
95	0xbaa9203f	-0.0012903287
96	0x3e22dd35	0.15904696
97	0x3c08ab47	0.008341617
98	0x3df4b498	0.11948508
99	0xbe98f433	-0.2987381
100	0x3ddb57b1	0.10710085
101	0x3e08b4ec	0.13350266
102	0x3e58760d	0.21138783
103	0xbe4638c0	-0.19357586
104	0x3e73f7e1	0.23825027
105	0xbd291ff7	-0.04129025
106	0xbd1c260b	-0.038122218
107	0x3ca41842	0.020031098
108	0xbd5324d0	-0.05154878
109	0x3d0c3946	0.034234308
110	0xbda318c2	-0.079637066
111	0xbe3666d4	-0.17812663
112	0xbd842c49	-0.06453759
113	0xbd945924	-0.07243565
114	0x3d96c43b	0.07361647
115	0x3e2ef507	0.17085658
116	0x3c625ded	0.013816339
117	0x3dbb2fe2	0.09139992
118	0x3e321ee5	0.17394598
119	0xbd3afbdc	-0.045650348
120	0xbe9502cc	-0.29103696
121	0xbe16096f	-0.14652036
122	0x3e2681a8	0.16260397
123	0xbd86c3c2	-0.065803066
124	0x3d5be3c3	0.053684007
125	0xbc75193d	-0.014959631
126	0x3e767a7c	0.24070162
127	0x3e6670c2	0.22503951
128	0x3e040f93	0.12896566
129	0x3eb09c53	0.34494266
130	0x3dfe671f	0.124220125
131	0x3f03db4e	0.5150651
132	0x3e92db5c	0.28682983
133	0xbd4eca32	-0.050485797
134	0xbcbe5f7b	-0.023238888
135	0x3ee2c784	0.44292843
136	0x3ec1098b	0.37702593
137	0x3dcbfc47	0.099602275
138	0xbdc48622	-0.09595896
139	0x3e37ea26	0.17960414
140	0x3ab51020	0.001381401
141	0x3ed4cbc9	0.41561726
142	0x3e7baa18	0.24576604
143	0xbe612423	-0.21986441
144	0xbe5a858c	-0.21340007
145	0x3dae9da0	0.08526158
146	0x3da83c96	0.08214681
147	0x3d954abf	0.07289647
148	0x3e46d3d8	0.1941675
149	0x3e833413	0.25625667
150	0x3e464702	0.19363025
151	0xbd1e2d03	-0.038617145
152	0x3e556158	0.20837915
153	0x3ee48468	0.44632268
154	0x3e5ce7af	0.21572755
155	0xbd5947ec	-0.053047106
156	0x3e970ad1	0.2950044
157	0x3ead42c7	0.3384001
158	0x3e088d23	0.1333509
159	0x3ec994b5	0.39371267
160	0x3e5c8289	0.2153417
161	0x3f1226fc	0.57090735
162	0xbd16ed2e	-0.036847286
163	0x3efe88be	0.497137
164	0x3eb24f02	0.34825903
165	0x3ebfeb63	0.37484273
166	0x3e8a2efa	0.26988965
167	0x3cc6cc14	0.024267234
168	0x3e90b6c0	0.28264427
169	0x3e73706c	0.23773354
170	0x3de2824f	0.11060011
171	0x3e0a0499	0.13478316
172	0x3ec47ac2	0.38374907
173	0x3ec529f6	0.38508576
174	0x3ea50cb0	0.32236242
175	0x3e5a79d1	0.21335532
176	0x3f216561	0.63045317
177	0x3bed6952	0.007245221
178	0x3e1f66f3	0.15566616
179	0x3eaed0ca	0.34143668
180	0x3ed5dc55	0.41769662
181	0x3f02363c	0.50864005
182	0x3e3368f8	0.17520511
183	0x3da76f53	0.0817553
184	0x3dc75843	0.097336315
185	0x3e158469	0.14601292
186	0xbd87936f	-0.066199176
187	0x3d4026bc	0.04691194
188	0x3edcf389	0.43154553
189	0x3f2661fc	0.6499326
190	0x3c763bea	0.015028933
191	0x3dff837d	0.12476251
192	0x3f091f04	0.5356295
193	0x3dfd10ca	0.12356718
194	0x3e701c49	0.2344829
195	0x3f07deb4	0.53074193
196	0x3db3af30	0.08773649
197	0xbce6fdb3	-0.028197145
198	0x3cf83174	0.030297019
199	0x3e78336e	0.24238369
200	0x3edeedb9	0.43540743
201	0x3ed2596e	0.41083854
202	0x3d97e60b	0.07416924
203	0x3e4a489b	0.1975426
204	0x3c24bc7c	0.010054704
205	0x3f1e3ce6	0.61811674
206	0xbbcb2faf	-0.0062007527
207	0x3e53f607	0.2069932
208	0xbe9e8522	-0.30960947
209	0x3eeff48f	0.4686627
210	0x3e3076af	0.17232774
211	0xbe22cb6f	-0.15897916
212	0x3b48fe90	0.003066931
213	0x3e247fad	0.1606433
214	0xbbdf6800	-0.0068178177
215	0x3e13225b	0.14368574
216	0xbe3306bc	-0.17483038
217	0x3e003fe1	0.12524368
218	0x3e6e6848	0.23281968
219	0x3d2cbf96	0.042174898
220	0x3d9bd790	0.07609475
221	0x3e253e68	0.16137087
222	0x3ea41734	0.32048953
223	0x3e8ed8ce	0.27899784
224	0x3cd2fdd4	0.0257558
225	0x3e24017e	0.16016194
226	0xbe0b0dda	-0.13579503
227	0x3cab6554	0.02092234
228	0x3de672f9	0.11252398
229	0xbe2e368f	-0.17013
230	0xbee6bfa8	-0.45068097
231	0xbdfac6c4	-0.12244943
232	0x3e190934	0.14944917
233	0xbe0e6c06	-0.13908395
234	0x3ec7f25e	0.390521
235	0x3e67bc50	0.2263043
236	0x3e9fc95a	0.31208307
237	0x3dfa7850	0.12229979
238	0xba84da3f	-0.0010135843
239	0x3df1d241	0.11807681
240	0x3f1417e6	0.57848966
241	0xbd5c09ad	-0.053720165
242	0xbda0b090	-0.078461766
243	0x3ea959f3	0.33076438
244	0x3cbdf610	0.02318862
245	0xbee822ed	-0.45339146
246	0x3e02c0d5	0.12768872
247	0x3e2d8a16	0.16947207
248	0x3dca8cdc	0.09890148
249	0x3e4cab7c	0.19987291
250	0x3e8d2692	0.2756849
251	0xbcbfe593	-0.0234249
252	0xbe7b9944	-0.24570185
253	0x3e34a005	0.17639168
254	0x3ec9cfa2	0.39416224
255	0x3f28eb69	0.6598421
