results/'OppDirectionRun-Mar23'/MoveSomewhere/MoveSomewhere-13541479.onnx (onnx, 156274 bytes, 11 tensors)

action_model._discrete_distribution.branches.0.bias f4 [3]
-0.028264483 0.5714835 -0.5439481
00000000: eb8a e7bc be4c 123f 2f40 0bbf

action_model._discrete_distribution.branches.0.weight f4 [3, 128]
-0.066090755 -0.024580177 -0.006030372 0.20265068 -0.008314498 0.06679758 -0.19049491 0.045727517
0.013886607 0.0358867 -0.045902662 -0.032795366 0.20905761 0.023492599 -0.015015102 0.043663695
-0.029596008 0.024967512 0.033210382 -0.11513514 0.00782802 0.047726016 -0.043689802 -0.013249749
-0.061658345 0.049644478 0.0668028 0.121438056 -0.07468397 -0.061322898 0.0370456 0.10546215
-0.048329584 -0.06402981 0.025515607 0.047085296 -0.036028244 -0.05770057 -0.0020798857 0.063741736
0.20167398 0.033855826 -0.018271789 0.048919406 0.15899664 -0.017076207 -0.104295 0.08219869
0.01463601 0.061309874 -0.09064679 0.048947666 0.16832954 -0.04025773 0.088226594 0.130774
-0.08828392 0.1068011 -0.047961432 -0.040608466 -0.04756278 -0.10220529 -0.041416194 -0.078596085
-0.061374713 0.05226052 0.11972726 -0.046581276 -0.051479302 -0.007808875 0.06067797 0.1289128
0.011547326 0.13708304 -0.0135304015 -0.08151941 -0.056765266 -0.092520244 -0.07084365 0.0015101965
-0.05260381 0.10001604 0.17410101 -0.034663167 -0.05569413 -0.041585017 0.06209548 0.06531701
-0.05085058 0.074334346 -0.008381429 -0.08501259 -0.08051664 0.074581146 0.13552286 -0.078085735
-0.004475931 0.08900235 -0.009673291 -0.07275871 0.09266789 -0.0092893215 -0.037698068 -0.06484661
-0.023945875 0.023709625 0.015650358 0.118896835 0.108896725 -0.05076496 -0.057692673 0.12289349
0.009382803 -0.10872784 0.1097081 0.21363083 0.017678127 -0.0011833216 0.07387254 0.07890127
0.17571403 0.14370488 0.061271742 0.06559146 -0.047536377 0.08720892 0.07518069 -0.037704222
0.034567364 0.16353214 0.048813827 -0.44571108 0.08296415 -0.18743382 0.0923832 0.046180177
-0.031072373 -0.01017647 0.12593731 -0.011429053 -0.29444623 -0.22203624 0.12733957 -0.25033283
0.04575078 0.026530657 0.11301052 -0.06761871 0.007026075 -0.03586311 0.14839366 0.020585196
0.03130425 -0.00473348 -0.18005344 -0.2039008 -0.034042925 0.03192208 -0.03077115 -0.08610328
0.11279787 0.10327336 -0.21990165 0.025696702 0.052431345 -0.043240145 0.076030456 0.1587323
-0.3705442 -0.18638058 0.11751882 -0.1805835 -0.029862309 0.0059410366 0.0636327 -0.15693757
-0.00021090721 0.21182957 0.08536258 -0.048141155 -0.1300775 -0.03119001 -0.1792636 -0.028332168
0.0059319357 -0.2212792 0.017481428 0.077879526 0.13091941 0.19957308 -0.11256094 -0.08118321
-0.0747546 0.069279194 0.09811603 -0.12002248 -0.017924184 -0.06630019 -0.01948289 -0.17113693
-0.11079262 -0.20670877 0.03868436 -0.08814615 0.025802208 0.09696197 -0.11409418 -0.20769247
0.011061558 -0.11879455 -0.3276488 -0.034863345 0.047625236 0.3114308 -0.11641022 0.17897275
0.011306907 -0.016822116 0.10064175 -0.027760932 -0.022408752 0.010379436 -0.016127035 0.12859894
-0.008437376 -0.073877364 -0.10583266 -0.019682772 -0.035526764 -0.050573803 -0.066358656 0.16570687
-0.047320627 0.10592242 0.08531241 0.0019221263 0.029509997 0.016034747 -0.049605925 -0.005060234
-0.11264287 -0.020529743 -0.13782011 -0.090052605 -0.029567283 0.014403758 0.12435779 -0.06807684
-0.24913679 -0.37320378 -0.06574533 -0.025510546 0.10801525 -0.19690156 -0.26267156 0.076343715
00000000: 975a 87bd 5e5c c9bc 6d9a c5bb a983 4f3e
00000010: 8839 08bc 2bcd 883d 1911 43be c74c 3b3d
00000020: a784 633c effd 123d 6e04 3cbd 6f54 06bd
00000030: 3313 563e 8d73 c03c e701 76bc b4d8 323d
00000040: 5473 f2bc ab88 cc3c 9c07 083d f9cb ebbd
00000050: 1841 003c 5b7c 433d 14f4 32bd 7a15 59bc
00000060: 768d 7cbd 0258 4b3d e8cf 883d 84b4 f83d
00000070: e9f3 98bd b82d 7bbd 21bd 173d 8afc d73d
00000080: 3ef5 45bd 1022 83bd 1b06 d13c 83dc 403d
00000090: 5a92 13bd 6f57 6cbd b14e 08bb 078b 823d
000000a0: a083 4e3e 68ac 0a3d b8ae 95bc b75f 483d
000000b0: 04d0 223e 67e3 8bbc 9e98 d5bd c957 a83d
000000c0: e0cb 6f3c 1020 7b3d 06a5 b9bd 597d 483d
000000d0: 945e 2c3e 4ae5 24bd 25b0 b43d 9fe9 053e
000000e0: 33ce b4bd 89ba da3d 3573 44bd 1055 26bd
000000f0: 31d1 42bd 0251 d1bd 07a4 29bd fcf6 a0bd
00000100: 0d64 7bbd 210f 563d 9133 f53d 02cc 3ebd
00000110: f6db 52bd 97e1 ffbb 7789 783d b801 043e
00000120: ff30 3d3c 7f5f 0c3e 9eae 5dbc a6f3 a6bd
00000130: b282 68bd 417b bdbd 7a16 91bd c9f1 c53a
00000140: 1877 57bd 36d5 cc3d 8947 323e f7fa 0dbd
00000150: 871f 64bd 0d55 2abd d457 7e3d edc4 853d
00000160: b348 50bd 9b3c 983d 4352 09bc 151b aebd
00000170: e8e5 a4bd 00be 983d 81c6 0a3e 6aeb 9fbd
00000180: d5aa 92bb dd46 b63d b97c 1ebc 8502 95bd
00000190: aac8 bd3d 3d32 18bc 4a69 1abd 4dce 84bd
000001a0: 242a c4bc b03a c23c 2e35 803c 2f80 f33d
000001b0: 3f05 df3d ebee 4fbd 274f 6cbd 95af fb3d
000001c0: 54ba 193c b4ac debd a4ae e03d 0ac2 5a3e
000001d0: b8d1 903c af19 9bba 7c4a 973d fd96 a13d
000001e0: 61ee 333e 5f27 133e 14f8 7a3d d154 863d
000001f0: 81b5 42bd 979a b23d 55f8 993d be6f 1abd
00000200: 8296 0d3d f874 273e 02f1 473d 3e34 e4be
00000210: 1ce9 a93d a7ee 3fbe 6733 bd3d 6d27 3d3d
00000220: 7d8b febc 35bb 26bc b6f5 003e ec40 3bbc
00000230: a8c1 96be 785d 63be 4e65 023e a02b 80be
00000240: 2b65 3b3d d256 d93c 0f72 e73d ae7b 8abd
00000250: fd3a e63b 32e5 12bd 82f4 173e 49a2 a83c
00000260: e338 003d 4f1b 9bbb ee5f 38be 5fcb 50be
00000270: 9870 0bbd bac0 023d c713 fcbc eb56 b0bd
00000280: 9202 e73d fc80 d33d e62d 61be e481 d23c
00000290: 40c2 563d 941c 31bd dbb5 9b3d b88a 223e
000002a0: f8b7 bdbe 8dda 3ebe b5ad f03d e2ea 38be
000002b0: cda1 f4bc 07ad c23b dc51 823d 3eb4 20be
000002c0: f926 5db9 dae9 583e 94d2 ae3d a92f 45bd
000002d0: 0933 05be 3182 ffbc e190 37be dd18 e8bc
000002e0: af60 c23b 0497 62be 3635 8f3c 4d7f 9f3d
000002f0: bd0f 063e e35c 4c3e 5a86 e6bd 6243 a6bd
00000300: f118 99bd 40e2 8d3d 0ff1 c83d 59ce f5bd
00000310: bdd5 92bc 65c8 87bd 959a 9fbc 853e 2fbe
00000320: 3ee7 e2bd 77ab 53be 7e73 1e3d f885 b4bd
00000330: 275f d33c ff93 c63d 36aa e9bd 56ad 54be
00000340: 893b 353c 8f4a f3bd 95c1 a7be decc 0ebd
00000350: ae12 433d dc73 9f3e 7b68 eebd a244 373e
00000360: 9b40 393c 89ce 89bc 431d ce3d e56a e3bc
00000370: 8f92 b7bc 830e 2a3c d81c 84bc 71af 033e
00000380: eb3c 0abc 044d 97bd cbbe d8bd c43d a1bc
00000390: 8384 11bd 7a26 4fbd 0ce7 87bd 10af 293e
000003a0: 46d3 41bd dbed d83d 46b8 ae3d dbef fb3a
000003b0: f3be f13c 4d5b 833c 952f 4bbd 52d0 a5bb
000003c0: 4eb1 e6bd fe2d a8bc b720 0dbe 806d b8bd
000003d0: 1637 f2bc bdfd 6b3c 4caf fe3d df6b 8bbd
000003e0: b71d 7fbe 9114 bfbe 7da5 86bd 7efb d0bc
000003f0: 1937 dd3d 90a0 49be e37c 86be 185a 9c3d

action_model._discrete_distribution.branches.1.bias f4 [3]
0.082962014 -0.019274585 -0.029308036
00000000: fde7 a93d bce5 9dbc 6817 f0bc

action_model._discrete_distribution.branches.1.weight f4 [3, 128]
-0.006410196 0.08115255 0.10003787 0.057778407 0.0037811163 -0.00033133867 -0.07687833 -0.0011139765
0.014789323 -0.10562158 -0.072662495 -0.010070322 0.0262482 0.1423651 -0.048373934 0.019806772
-0.07565954 0.0088245105 0.022528572 0.001183605 -0.02829212 0.1962903 0.062838204 -0.03711271
-0.03651057 -0.07104269 0.046120774 0.17165673 0.013491797 -0.1138568 -0.034424957 -0.079521164
-0.14618695 0.07657658 0.11661333 -0.10390226 -0.15497091 0.12298784 0.010118471 -0.010299085
-0.08490784 -0.015494414 0.013292294 0.14896318 -0.09236416 -0.114669375 0.12560534 -0.05023476
-0.06671346 0.09432591 0.076007664 0.016481651 0.015061478 0.102992475 -0.027888477 0.093176164
-0.10802647 -0.08534703 -0.014437853 6.4821215e-05 -0.006732433 -0.007303081 -0.022765638 0.014236032
0.110914044 0.10096379 0.0002495747 0.0074645374 -0.046745624 0.005807008 -0.0058135926 -0.09308995
-0.016809635 0.026675547 -0.0829979 -0.048053782 0.17084605 0.153923 -0.023214353 0.061243255
-0.061971955 -0.0663398 0.07690437 -0.08060275 -0.09512295 0.002063483 -0.07987651 -0.031052766
-0.06603845 -0.026000047 -0.117006294 -0.028883914 -0.03029118 -0.16985542 -0.15188405 0.056900933
-0.067080304 0.15549283 -0.013735036 0.16415478 0.14960408 -0.03817181 -0.08706814 -0.019551946
0.07031023 0.0324283 0.030441321 0.0067978464 0.20084107 -0.06994696 -0.008218228 0.03388765
-0.04883009 -0.07408825 -0.044820283 -0.026476728 -0.11886622 -0.0808918 0.012981902 0.14378764
-0.09091608 0.10978597 -0.122210726 0.13510327 0.16678788 0.081827 0.09603928 0.19179419
-0.039502263 -0.0059846896 -0.15637861 0.012843491 0.1796797 -0.01388708 0.26399973 -0.102071695
0.1680234 -0.028369844 0.13001774 -0.022868525 -0.2029817 -0.117799886 0.12812975 -0.03395604
-0.033348475 0.08451994 0.098185286 0.0006005925 0.17217192 -0.15523969 0.19003004 -0.057378817
-0.040271886 0.0041398117 -0.08209927 -0.075429626 -0.042489268 -0.03330866 -0.007391762 0.1653519
0.031988177 -0.069579095 -0.08276912 0.18500665 -0.03868978 0.02786512 0.23331682 0.057784475
0.10408081 0.05659795 0.037517264 -0.44790432 0.2435225 0.09442993 -0.1974258 0.023028476
0.021774566 -0.13067365 0.02987451 -0.024176424 0.10346291 -0.16969556 -0.053009227 -0.01641868
-0.09103692 0.029164743 -0.04071436 -0.08269983 -0.06442597 -0.031584855 0.02566498 -0.05150792
0.0045780274 -0.13761605 -0.05885893 0.006519726 -0.05586654 -0.19548008 -0.08598001 0.12058224
0.10310467 0.015416334 -0.004534764 -0.032446865 -0.06461672 -0.06852991 -0.13071029 -0.09239728
-0.01604303 -0.01884044 -0.06981236 0.08565195 0.05582043 0.019834924 0.13614736 0.177277
-0.01252694 0.08393836 -0.0915518 -0.028121453 -0.051253095 0.007851136 0.02585891 0.06636123
0.0091401385 0.16496597 0.009312602 -0.0224188 -0.20062771 0.1251246 0.09519246 0.14895222
-0.16016541 -0.08947863 0.0787981 0.24453172 -0.09702534 -0.04447581 -0.003338515 -0.122749776
0.19862272 0.08737518 -0.083911575 -0.04146959 0.053437654 -0.015362259 -0.15432578 0.15572268
-0.030967807 -0.021866221 0.001368475 -0.17764512 0.07950839 -0.044095617 0.06272545 -0.2274882
00000000: 9f0c d2bb 4f33 a63d a8e0 cc3d 0da9 6c3d
00000010: 9bcc 773b 86b7 adb9 6372 9dbd d902 92ba
00000020: eb4e 723c 2050 d8bd 13d0 94bd fefd 24bc
00000030: 7706 d73c 28c8 113e bf23 46bd d041 a23c
00000040: 64f3 9abd ae94 103c d78d b83c 3223 9b3a
00000050: e0c4 e7bc 5300 493e 51b1 803d 7f03 18bd
00000060: 1c8c 15bd d47e 91bd 23e9 3c3d c8c6 2f3e
00000070: b30c 5d3c c12d e9bd 2f01 0dbd fedb a2bd
00000080: 08b2 15be 2fd4 9c3d f8d2 ee3d b5ca d4bd
00000090: b2b0 1ebe 0ce1 fb3d f2c7 253c 7ebd 28bc
000000a0: 29e4 adbd 48dc 7dbc ecc7 593c ce89 183e
000000b0: 6c29 bdbd c7d7 eabd b09e 003e f7c2 4dbd
000000c0: 11a1 88bd f12d c13d e8a9 9b3d 8704 873c
000000d0: 6bc4 763c b8ed d23d 6076 e4bc 25d3 be3d
000000e0: fb3c ddbd 6cca aebd bf8c 6cbc a0f0 8738
000000f0: be9b dcbb af4e efbb 017f babc 3f3e 693c
00000100: e726 e33d 1bc6 ce3d 59d9 8239 1499 f43b
00000110: 5778 3fbd b748 be3b f37f bebb f2a5 bebd
00000120: 5cb4 89bc ad86 da3c cefa a9bd 0bd4 44bd
00000130: 44f2 2e3e fe9d 1d3e 072c bebc 35da 7a3d
00000140: 4ed6 7dbd 29dd 87bd 0a80 9d3d 0e13 a5bd
00000150: d2cf c2bd 803b 073b 4c96 a3bd 5f62 febc
00000160: 2b3f 87bd 0dfe d4bc ffa0 efbd f59d ecbc
00000170: 3525 f8bc 94ee 2dbe 7e87 1bbe f410 693d
00000180: 6661 89bd 8339 1f3e eb08 61bc 3118 283e
00000190: d031 193e 0b5a 1cbd c850 b2bd 672b a0bc
000001a0: cffe 8f3d 89d3 043d 1460 f93c 78c0 de3b
000001b0: 48a9 4d3e 5a40 8fbd bfa5 06bc c7cd 0a3d
000001c0: 0f02 48bd 95bb 97bd 7995 37bd b9e5 d8bc
000001d0: 2270 f3bd 9aaa a5bd 0bb2 543c 113d 133e
000001e0: 3632 babd 77d7 e03d 9e49 fabd 8358 0a3e
000001f0: 71ca 2a3e ea94 a73d 3eb0 c43d b265 443e
00000200: 20cd 21bd 371b c4bb b721 20be 816d 523c
00000210: f5fd 373e a386 63bc f92a 873e f70a d1bd
00000220: 530e 2c3e e067 e8bc 5f23 053e c656 bbbc
00000230: 6fda 4fbe 1141 f1bd 7234 033e 7d15 0bbd
00000240: 6998 08bd ca18 ad3d 5e15 c93d 1571 1d3a
00000250: d64d 303e 27f7 1ebe 3c97 423e 0d06 6bbd
00000260: 22f4 24bd 42a7 873b a923 a8bd d97a 9abd
00000270: 3a09 2ebd a96e 08bd 9836 f2bb 0252 293e
00000280: 0906 033d 7c7f 8ebd db82 a9bd 6272 3d3e
00000290: 2d79 1ebd 6445 e43c 9bea 6e3e 6aaf 6c3d
000002a0: 5228 d53d 41d3 673d b4ab 193d b753 e5be
000002b0: f65d 793e 7b64 c13d fd29 4abe 37a6 bc3c
000002c0: 9360 b23c 50cf 05be 63bb f43c a30d c6bc
000002d0: 5de4 d33d acc4 2dbe 3420 59bd 7880 86bc
000002e0: 9171 babd e6ea ee3c 1ac4 26bd 875e a9bd
000002f0: c3f1 83bd 1f5f 01bd 5d3f d23c f8f9 52bd
00000300: 4703 963b 39eb 0cbe 1016 71bd 6da3 d53b
00000310: 50d4 64bd ee2b 48be 4a16 b0bd d2f3 f63d
00000320: 8b28 d33d cb94 7c3c 5c98 94bb 01e7 04bd
00000330: c555 84bd 6959 8cbd ebd8 05be c93a bdbd
00000340: ac6c 83bc 4457 9abc c8f9 8ebd 4a6a af3d
00000350: f7a3 643d da7c a23c 376a 0b3e 1a88 353e
00000360: cb3d 4dbc e0e7 ab3d 837f bbbd f65e e6bc
00000370: c4ee 51bd 0da2 003c 11d6 d33c 66e8 873d
00000380: 85c0 153c d7ec 283e e293 183c a2a7 b7bc
00000390: 5a71 4dbe aa20 003e 44f4 c23d ee86 183e
000003a0: 6702 24be 9240 b7bd e660 a13d 8666 7a3e
000003b0: 39b5 c6bd 442c 36bd fdca 5abb 3c64 fbbd
000003c0: c163 4b3e c2f1 b23d d5d9 abbd 04dc 29bd
000003d0: 71e1 5a3d fcb1 7bbc 9407 1ebe c475 1f3e
000003e0: 33b0 fdbc ca20 b3bc 675e b33a 9ae8 35be
000003f0: 4bd5 a23d 9b9d 34bd 3376 803d abf2 68be

discrete_action_output_shape f4 [1, 2]
3.0 3.0
00000000: 0000 4040 0000 4040

network_body._body_endoder.seq_layers.0.bias f4 [128]
-0.049606387 0.07917606 -0.40631676 -0.27906746 -0.048329256 0.11314269 -0.44650325 -0.06158037
-0.025484238 -0.07506842 0.28206033 -0.08671168 -0.35682228 -0.23818243 -0.09822051 -0.1083665
-0.22908425 -0.44347775 0.24931246 -0.09630153 -0.15086254 -0.11823984 0.042480286 -0.3424807
-0.1809541 -0.05867928 -0.20597513 -0.44215137 0.010714854 -0.2894641 -0.27466547 -0.023964854
-0.31286493 0.131657 -0.37115335 -0.2605565 -0.38712558 -0.13908747 0.18533963 -0.33862105
-0.25004393 -0.24957404 0.01947996 -0.030932248 0.038359288 -0.12872195 -0.43045214 0.10247565
-0.28285748 -0.22145998 -0.26911622 -0.2649775 0.13234894 -0.1881668 -0.15283142 -0.2688453
0.12631856 -0.27664545 -0.43548384 -0.22410339 -0.08399905 -0.0012446335 -0.5705634 -0.01968724
0.15227383 -0.508924 -0.2543533 -0.32757452 -0.025973821 -0.2864364 -0.05961274 -0.118465364
-0.40958497 -0.19282469 -0.21086723 0.09117317 0.18705556 -0.21860324 -0.39514986 -0.10912794
-0.11991566 -0.2295779 -0.21069305 -0.07062814 0.37498677 -0.2395608 0.031870384 0.11307627
-0.17554498 -0.27885243 0.0101425685 -0.3490589 -0.27902752 -0.3914567 -0.0007517128 -0.17446785
-0.2483525 -0.2666535 -0.053744156 -0.52947843 -0.039711274 -0.28571528 -0.17464992 0.017725902
-0.13239011 -0.0071340175 -0.23767334 -0.3931431 -0.14881484 -0.05669978 -0.18751901 -0.24315709
-0.10679722 -0.15605363 0.0033199722 -0.32370222 -0.3733763 0.061100584 -0.08793423 -0.5014275
-0.33821997 -0.18809484 0.009593897 -0.35606578 -0.19936953 -0.5288261 0.105230674 0.062052224
00000000: 1130 4bbd 0f27 a23d c008 d0be eee1 8ebe
00000010: e6f4 45bd 5bb7 e73d 139c e4be b33b 7cbd
00000020: 52c4 d0bc 79bd 99bd 366a 903e e595 b1bd
00000030: 69b1 b6be 18e6 73be d627 c9bd 41ef ddbd
00000040: 1095 6abe 840f e3be c44b 7f3e bd39 c5bd
00000050: b67b 1abe bb27 f2bd cfff 2d3d a159 afbe
00000060: 084c 39be af59 70bd 25eb 52be aa61 e2be
00000070: 5b8d 2f3c a334 94be f4a0 8cbe f151 c4bc
00000080: d52f a0be 18d1 063e d007 bebe a967 85be
00000090: 5335 c6be f26c 0ebe acc9 3d3e bd5f adbe
000000a0: c205 80be 5690 7fbe 7094 9f3c a065 fdbc
000000b0: a11e 1d3d b0cf 03be 3964 dcbe c1de d13d
000000c0: b2d2 90be 68c6 62be 9ac9 89be 22ab 87be
000000d0: 7b86 073e ccae 40be d77f 1cbe 17a6 89be
000000e0: a759 013e 79a4 8dbe bdf7 debe 5c7b 65be
000000f0: b207 acbd f822 a3ba 7110 12bf 2247 a1bc
00000100: aced 1b3e d848 02bf 993a 82be d9b7 a7be
00000110: 0dc7 d4bc cba7 92be 7d2c 74bd f89d f2bd
00000120: 1fb5 d1be d673 45be 94ed 57be 00b9 ba3d
00000130: 7e8b 3f3e 87d9 5fbe 1551 cabe 787e dfbd
00000140: 5796 f5bd 7816 6bbe ebbf 57be 7ca5 90bd
00000150: 44fe bf3e 6d4f 75be 858a 023d 8894 e73d
00000160: 10c2 33be bfc5 8ebe 042d 263c d9b7 b2be
00000170: b2dc 8ebe 036d c8be 980e 45ba b3a7 32be
00000180: 1e50 7ebe cf86 88be d522 5cbd e68b 07bf
00000190: 4aa8 22bd 4649 92be 6ed7 32be e935 913c
000001a0: 4691 07be 7ac4 e9bb a460 73be 0d4a c9be
000001b0: eb62 18be 073e 68bd fc04 40be 2cfe 78be
000001c0: 80b8 dabd 86cc 1fbe e493 593b 4cbc a5be
000001d0: 2e2b bfbe 9b44 7a3d dd16 b4bd 8d5d 00bf
000001e0: 2b2b adbe ef9b 40be b82f 1d3c 414e b6be
000001f0: 8727 4cbe 2661 07bf 2e83 d73d 792a 7e3d

network_body._body_endoder.seq_layers.0.weight f4 [128, 34]
-0.004380009 -0.6572904 -0.039862536 -0.42520767 0.057050098 -0.85506135 0.40620446 -0.21585771
0.12915394 -1.4136194 0.029888403 -0.35829973 0.31610206 -1.1330522 0.26206815 -0.17622298
0.04573466 -1.440287 0.115966156 -0.3544081 0.2643308 -1.3904088 0.10012337 -0.3848783
-0.014384937 -0.6284866 0.15323009 -0.297009 0.09171927 -0.54533607 0.3210918 0.025017539
0.07594008 0.20088246 0.57713526 0.5480381 0.0680775 0.23874758 -0.042219028 0.48316658
0.18084314 0.2911586 -0.00035038753 0.65303946 0.04725532 0.7401429 -0.1541767 1.0154526
-0.19211704 0.7210488 0.097837284 1.2613801 0.022111956 0.45394725 0.1404256 1.0304638
-0.040967327 0.8219655 0.22782439 1.2030039 -0.23277812 0.33888015 0.0123974 0.97341895
0.5862161 0.23613226 -0.102924824 -0.17965676 -0.08968283 -0.09829409 -0.149939 -0.30257368
-0.079974584 -0.6438507 -0.2565929 -0.24351205 0.14743856 -0.60848224 0.101585105 -0.33781946
-0.07024946 -0.5061086 0.076837175 -0.56493974 -0.08902441 -0.8629463 -0.14744176 -0.35224825
0.028140154 -0.79954356 -0.050197847 0.058204122 -0.013638602 -0.65136606 0.16355118 -0.2954876
-0.03316112 -0.8385105 0.35759452 -0.42722055 -0.05549777 0.10517357 0.043800227 -0.47927848
-0.2628456 -0.5583601 0.08160529 -0.15548399 0.11943505 -0.57097214 0.014760738 0.46751997
0.115023114 -0.7584617 0.3161641 0.45578724 -0.09541857 -0.5630828 -0.029800437 1.0774503
0.09898046 -0.37423393 0.011777161 0.6838552 0.17865674 -0.114163056 0.20200974 0.5670035
0.1152068 0.34660542 -0.10959963 -0.73918915 0.12945971 -0.23353362 -0.25778636 0.050628006
0.040414713 -0.384968 0.3125937 -1.029652 0.09881531 -0.18432909 0.044282954 -1.0385574
0.28900862 -0.17959648 -0.011638082 -1.2359514 -0.115223065 0.26015845 -0.08383076 -1.3621103
0.18652287 0.24004637 -0.13203132 -1.3091387 0.084254496 0.15572366 0.14155586 -0.81734943
0.09472091 0.056684908 -0.029501317 -0.29069373 -0.03080653 -0.22647326 0.065927595 -0.20963171
0.14453873 -0.055955242 0.25619006 0.63086253 0.103371546 0.5950708 0.07904816 0.65279317
-0.116795205 -0.059886705 -0.11456815 0.93804413 0.18153146 0.31977588 0.01742694 1.1404502
0.12387377 0.47345603 -0.08790994 0.81786585 -0.0077701895 0.639213 0.2263801 0.7877652
-0.15508468 0.42130718 -0.12025876 0.8236984 0.24433526 0.4317813 -0.08202767 0.92259395
-0.19055742 0.14525078 0.18543623 -0.8704576 -0.14884862 0.104325615 0.07455471 -0.15926951
0.05679439 -0.22308388 0.06762005 -0.2650016 0.016829254 -0.3285514 -0.15783994 -0.31015322
-0.012718477 -0.1881427 0.034690868 -0.32352445 -0.26852888 -0.28145966 -0.13626571 -0.38053623
0.17665112 -0.443414 0.1993336 -0.46039706 -0.058167722 -0.60176307 0.23325576 -0.013971785
-0.2926047 -0.58980507 0.2790667 -0.5688293 0.065569974 -0.51576805 0.26928934 0.044288613
0.40347478 0.49256694 -0.13848552 0.39004904 -0.21567485 0.4422476 0.4191054 0.1247441
0.102218896 0.395542 0.2972836 0.512306 -0.0032834096 0.17728034 -0.054882776 0.1499739
00000000: 2e86 8fbb 2f44 28bf e646 23bd d2b4 d9be
00000010: 5dad 693d 4de5 5abf 08fa cf3e ce09 5dbe
00000020: ee40 043e 7bf1 b4bf 86d8 f43c 1073 b7be
00000030: 21d8 a13e db07 91bf cc2d 863e cc73 34be
00000040: 4454 3b3d 535b b8bf aa7f ed3d fa74 b5be
00000050: 5e56 873e eaf8 b1bf 7b0d cd3d c50e c5be
00000060: ccae 6bbc 7fe4 20bf 59e8 1c3e 9011 98be
00000070: 50d7 bb3d 259b 0bbf 2566 a43e 95f1 cc3c
00000080: 7986 9b3d 22b4 4d3e 23bf 133f 3a4c 0c3f
00000090: 376c 8b3d 3f7a 743e dced 2cbd 9c61 f73e
000000a0: f22e 393e bd12 953e 38b4 b7b9 982d 273f
000000b0: cb8e 413d 017a 3d3f 7fe0 1dbe 5afa 813f
000000c0: 54ba 44be a796 383f ea5e c83d e774 a13f
000000d0: 2224 b53c c66b e83e bacb 0f3e 3de6 833f
000000e0: 5bcd 27bd 556c 523f cc4a 693e 08fc 993f
000000f0: 635d 6ebe b381 ad3e 771e 4b3c fc31 793f
00000100: 4212 163f a8cc 713e 40ca d2bd f1f7 37be
00000110: a2ab b7bd 694e c9bd 9c89 19be f0ea 9abe
00000120: b7c9 a3bd 66d3 24bf 2560 83be 395b 79be
00000130: 22fa 163e 7ec5 1bbf da0b d03d acf6 acbe
00000140: f3de 8fbd 5590 01bf cf5c 9d3d e49f 10bf
00000150: 6e52 b6bd 0cea 5cbf f9fa 16be e259 b4be
00000160: 2e86 e63c e3ae 4cbf 429c 4dbd 7267 6e3d
00000170: 7174 5fbc edbf 26bf f679 273e 274a 97be
00000180: f4d3 07bd a0a8 56bf a116 b73e a7bc dabe
00000190: a151 63bd 3e65 d73d de67 333d fd63 f5be
000001a0: b393 86be b0f0 0ebf ad20 a73d 3237 1fbe
000001b0: 5d9a f43d 3b2b 12bf 06d7 713c c75e ef3e
000001c0: 3d91 eb3d 8c2a 42bf 43e0 a13e f25c e93e
000001d0: d06a c3bd 3226 10bf 0c20 f4bc e4e9 893f
000001e0: 44b6 ca3d 979b bfbe fef4 403c 2211 2f3f
000001f0: cbf1 363e 52ce e9bd a4db 4e3e 2427 113f
00000200: 8bf1 eb3d 4476 b13e c575 e0bd 803b 3dbf
00000210: 1691 043e 7023 6fbe 93fc 83be 505f 4f3d
00000220: e689 253d 871a c5be 480c a03e a3cb 83bf
00000230: ae5f ca3d c4c0 3cbe 0b62 353d 73ef 84bf
00000240: f0f8 933e 24e8 37be a7ad 3ebc a833 9ebf
00000250: 12fa ebbd 7d33 853e 76af abbd a159 aebf
00000260: daff 3e3e b7ce 753e 3833 07be db91 a7bf
00000270: 9f8d ac3d 0676 1f3e 05f4 103e d03d 51bf
00000280: 09fd c13d 6f2e 683d bfac f1bc cfd5 94be
00000290: fa5d fcbc 9be8 67be 0c05 873d b2a9 56be
000002a0: f601 143e 5331 65bd 582b 833e 3580 213f
000002b0: 76b4 d33d 8f56 183f 00e4 a13d 741d 273f
000002c0: 5332 efbd c34b 75bd b5a2 eabd a923 703f
000002d0: 62e3 393e aab9 a33e f1c2 8e3c 46fa 913f
000002e0: 88b1 fd3d d468 f23e 200a b4bd a85f 513f
000002f0: 139d febb 77a3 233f 2fd0 673e fbaa 493f
00000300: 85ce 1ebe 93b5 d73e 3a4a f6bd e6dd 523f
00000310: 0633 7a3e 7012 dd3e 20fe a7bd 1e2f 6c3f
00000320: 7c21 43be 9fbc 143e ffe2 3d3e 4fd6 5ebf
00000330: c66b 18be aba8 d53d 24b0 983d 8c17 23be
00000340: 3ca1 683d 1a70 64be 617c 8a3d 4aae 87be
00000350: 81dd 893c e437 a8be cba0 21be 67cc 9ebe
00000360: 2961 50bc 7ba8 40be 0318 0e3d ffa4 a5be
00000370: 9e7c 89be 7b1b 90be 3d89 0bbe a5d5 c2be
00000380: 08e4 343e 2907 e3be 1b1e 4c3e 2ab9 ebbe
00000390: 4741 6ebd 250d 1abf 99da 6e3e eae9 64bc
000003a0: 49d0 95be 77fd 16bf d5e1 8e3e cc9e 11bf
000003b0: 8d49 863d 6009 04bf 4be0 893e fa67 353d
000003c0: 3f94 ce3e bc31 fc3e 26cf 0dbe 82b4 c73e
000003d0: ded9 5cbe 476e e23e fc94 d63e d679 ff3d
000003e0: 2458 d13d 7b84 ca3e 8e35 983e 7c26 033f
000003f0: 792e 57bb fa88 353e c3cc 60bd c292 193e

network_body._body_endoder.seq_layers.2.bias f4 [128]
-0.33681214 0.1343831 -0.1854315 -0.12682132 0.13338381 0.04937406 0.08995388 -0.23757753
0.004820785 -0.03369206 0.075321324 0.20206809 0.020014565 0.07675336 -0.33065408 -0.009846728
-0.005413441 -0.33479628 0.09413308 -0.40105355 -0.010404015 -0.006755616 -0.06420951 -0.23127627
-0.21277823 0.32746994 -0.2110064 -0.031190155 0.11256067 -0.011867421 -0.13069934 -0.35573068
-0.068475395 -0.052829698 0.03026583 -0.09322345 0.081342794 0.072789215 -0.38642842 0.1305068
0.09091687 -0.18068966 -0.06945483 0.030571047 0.18432707 -0.16304006 -0.39532956 0.09994456
-0.4364712 -0.011864438 -0.23444533 -0.020323843 -0.13998622 0.0196652 -0.10380904 0.07764372
-0.026660118 -0.33793658 -0.16012052 -0.001456976 -0.20391554 0.058704216 -0.35564813 -0.17828201
-0.25738177 -0.23343736 -0.26119813 -0.14382194 0.071453124 0.13160747 0.02284005 -0.18423124
-0.29514492 -0.31462097 -0.11009621 -0.11184884 -0.06820975 -0.07772217 -0.13916197 -0.18254787
-0.3255861 -0.33520627 0.19612886 -0.10093589 0.18471745 -0.2905831 -0.026454106 0.027631689
-0.16473535 0.016476708 0.15089855 -0.39068338 -0.07097952 -0.010748316 -0.2458534 -0.038577802
-0.033808287 -0.112261444 0.017857522 0.109258845 -0.1419255 -0.026425105 -0.08576902 -0.055039797
-0.0040688594 -0.030925587 -0.3204359 -0.2637444 -0.18440098 -0.13410728 -0.09767706 0.050540004
-0.08203375 -0.02208233 -0.13557328 0.04365828 -0.06938661 -0.0331266 -0.11475483 0.24483396
-0.3649659 0.06566726 -0.05320121 -0.2427173 -0.08938358 -0.10229606 -0.3572481 -0.046817265
00000000: a472 acbe b99b 093e c1e1 3dbe 73dd 01be
00000010: c495 083e 743c 4a3d bd39 b83d 8647 73be
00000020: adf7 9d3b af00 0abd 1142 9a3d f0ea 4e3e
00000030: 96f5 a33c de30 9d3d 7e4b a9be 2c54 21bc
00000040: 3c63 b1bb 6b6a abbe d8c8 c03d e456 cdbe
00000050: 9a75 2abc 375e ddbb 4780 83bd b0d3 6cbe
00000060: 89e2 59be 24aa a73e 1012 58be 7f82 ffbc
00000070: 3586 e63d 926f 42bc 0cd6 05be 5522 b6be
00000080: d43c 8cbd f463 58bd 0cf0 f73c f0eb bebd
00000090: 0d97 a63d 8312 953d f2d9 c5be 93a3 053e
000000a0: a032 ba3d b606 39be 553e 8ebd 2270 fa3c
000000b0: 3cc0 3c3e f9f3 26be a368 cabe bcaf cc3d
000000c0: 2779 dfbe 0f63 42bc 7012 70be 307e a6bc
000000d0: 8c58 0fbe ea18 a13c d599 d4bd ac03 9f3d
000000e0: 5266 dabc 0606 adbe a2f6 23be 01f8 beba
000000f0: 3ccf 50be d573 703d 8317 b6be 8f8f 36be
00000100: 8bc7 83be 340a 6fbe c3bb 85be 0f46 13be
00000110: 0456 923d 1cc4 063e 0e1b bb3c 1da7 3cbe
00000120: 3c1d 97be 0016 a1be 1f7a e1bd 0111 e5bd
00000130: 8eb1 8bbd cd2c 9fbd 7a80 0ebe d4ed 3abe
00000140: 39b3 a6be 28a0 abbe 01d6 483e 7ab7 cebd
00000150: 9226 3d3e 4fc7 94be 48b6 d8bc da5b e23c
00000160: 62b0 28be 29fa 863c 2685 1a3e a707 c8be
00000170: b65d 91bd b419 30bc fec0 7bbe c203 1ebd
00000180: 8f7a 0abd 54e9 e5bd f049 923c 1ac3 df3d
00000190: eb54 11be 7679 d8bc aba7 afbd 6971 61bd
000001a0: 1154 85bb a857 fdbc 2d10 a4be 8209 87be
000001b0: 9cd3 3cbe 6b53 09be e90a c8bd 0903 4f3d
000001c0: 5001 a8bd 01e6 b4bc b9d3 0abe 06d3 323d
000001d0: 911a 8ebd c2af 07bd 9504 ebbd c1b5 7a3e
000001e0: cfdc babe 8e7c 863d 83e9 59bd e28a 78be
000001f0: bd0e b7bd 9980 d1bd 39e9 b6be 76c3 3fbd

network_body._body_endoder.seq_layers.2.weight f4 [128, 128]
-0.109320536 -0.09639872 0.085378945 -0.28673592 -0.06855793 -0.035518546 -0.011510145 -0.018957524
-0.69890594 -0.02497747 0.1754661 -0.04495076 0.08207018 0.002143011 -0.08821456 0.015293425
0.11965551 -0.122578725 -0.13991214 -0.13634968 -0.029063856 -0.04949819 0.04337056 -0.18124239
0.058981676 -0.015014114 -0.03802907 -0.046017073 -0.033138845 -0.20319283 -0.38851738 0.014232146
-0.044357233 0.11741058 -0.02351519 0.032038398 -0.08489977 -0.14682932 -0.0006707583 -0.09129759
0.041877102 -0.01178095 -0.076768816 -0.030581992 -0.27163786 -0.0902414 0.16727996 0.01741364
-0.034316804 -0.36321712 0.06275557 -0.012020258 0.074704096 -0.13646226 -0.13148241 0.080067925
-0.06933136 0.22493294 -0.18991987 0.00714281 0.22808692 -0.060186952 0.12796538 0.00321947
-0.091783494 -0.04230251 0.1975742 8.599528e-05 0.49436563 0.018538006 -0.051001713 -0.1104234
-0.010644119 -0.08696106 -0.20328368 -0.10787966 0.08123888 0.08130644 -0.1546794 0.26401412
-0.76055044 -0.056544334 0.3853584 0.09939072 0.124475434 -0.12374418 -0.1520474 -0.057562687
-0.04755875 -0.45978212 -0.0765335 0.08323096 0.014849972 -0.015709793 0.009555049 0.121120185
-0.18741211 -0.09676111 0.2371831 -0.087232985 0.038974673 -0.27737188 -0.13899168 -0.09412554
0.05356035 -0.21337079 -0.06302842 0.055453096 -0.10083485 -0.038744073 0.03546862 -0.12269172
-0.03915771 0.018574502 -0.04697006 -0.03192898 0.15567984 0.035701666 0.03076121 -0.058847383
-0.022233512 -0.016079452 -0.14069088 0.0550402 0.22312243 0.01913994 -0.042229243 -0.25996876
0.10726487 0.035760168 -0.14694609 -0.029947447 -0.39598677 -0.039513025 -0.15605986 -0.14081353
0.0109715685 -0.3245179 0.19239606 -0.068393506 -0.21297869 0.08291086 -0.06826156 -0.31316182
-0.082142465 -0.8038743 -0.041679047 -0.15351096 -0.5707026 -0.41580647 -0.42427054 -0.16088301
-0.5627745 -0.23338135 -0.10903891 0.20718871 0.060950093 -0.03488965 -0.14316641 -0.29413435
0.059944216 -0.30644903 -0.0052229622 -0.24239327 -0.19841154 -0.21399462 -0.04190262 -0.14862706
-0.21234506 -0.052826367 -0.47453168 0.15532248 0.12869363 -0.032614462 0.12252567 -0.033286326
-0.30636573 -0.32873434 -0.012114889 -0.07708878 0.012956644 -0.0066591334 -0.010293704 -0.030162282
0.14681706 -0.25183666 -0.27202758 -0.23692812 -0.020620193 -0.22611311 -0.0650066 -0.016956719
-0.114889875 0.009841072 -0.6839466 -0.42187113 -0.94121945 -0.04265139 -0.04376995 -0.533395
-0.1183034 -0.07337822 -0.14949802 -0.061043788 -0.5251762 -0.16222598 -0.18476732 0.014526841
-0.20132941 -0.5321033 -0.036538824 -0.4676766 0.10937222 -0.43461034 -0.25487885 -0.026435625
-0.00028457528 -0.058505874 -0.03308556 0.019515721 0.1276574 -0.39819112 -0.08334009 0.03451975
-0.11844095 -0.07890577 0.032400113 -0.3018713 -0.051074833 0.11291783 -0.2217215 0.033156034
-0.40983614 0.17001857 -0.39653188 -0.37421718 -0.29103652 -0.22303735 -0.27604726 -0.011714941
-0.45769617 -0.18729816 -0.06422616 -0.20581257 -0.24842224 -0.78293437 0.11133979 -0.08469591
-0.006156082 -0.24833202 -0.33737856 -0.41100803 -0.41330543 -0.2876771 0.02025616 -0.115045
00000000: 72e3 dfbd b16c c5bd 28db ae3d 0dcf 92be
00000010: 1a68 8cbd e57b 11bd 0c95 3cbc cf4c 9bbc
00000020: 80eb 32bf 8d9d ccbc 63ad 333e 4a1e 38bd
00000030: 6914 a83d c271 0c3b d6a9 b4bd 4691 7a3c
00000040: f30d f53d 8e0a fbbd 2145 0fbe 409f 0bbe
00000050: 5317 eebc 9dbe 4abd 54a5 313d 9b97 39be
00000060: c596 713d c2fd 75bc 5fc4 1bbd 667c 3cbd
00000070: 99bc 07bd c811 50be c0eb c6be f22d 693c
00000080: eeaf 35bd f574 f03d eea2 c0bc b23a 033d
00000090: eedf adbd 6d5a 16be d4d5 2fba 3bfa babd
000000a0: 5387 2b3d e304 41bc f838 9dbd 1687 fabc
000000b0: 1e14 8bbe 7cd0 b8bd 704b 2b3e 0da7 8e3c
000000c0: c78f 0cbd 98f7 b9be fe85 803d 9ef0 44bc
000000d0: 76fe 983d c3bc 0bbe 53a3 06be a7fa a33d
000000e0: 9afd 8dbd d254 663e 5b7a 42be 3c0e ea3b
000000f0: 9e8f 693e 9886 76bd 5b09 033e befd 523b
00000100: fcf8 bbbd 6645 2dbd e450 4a3e 5d58 b438
00000110: 7e1d fd3e 04dd 973c 2ce7 50bd aa25 e2bd
00000120: ac64 2ebc a418 b2bd 9929 50be 03f0 dcbd
00000130: 9260 a63d fe83 a63d 4764 1ebe dc2c 873e
00000140: 6fb3 42bf 089b 67bd b24d c53e 5d8d cb3d
00000150: faec fe3d 976d fdbd 50b2 1bbe dac6 6bbd
00000160: f7cc 42bd 9068 ebbe 98bd 9cbd fe74 aa3d
00000170: 4c4d 733c d3b1 80bc c88c 1c3c dc0d f83d
00000180: f6e8 3fbe b02a c6bd 20e0 723e 35a7 b2bd
00000190: e8a3 1f3d b003 8ebe d653 0ebe e4c4 c0bd
000001a0: 1962 5b3d df7d 5abe 0b15 81bd c922 633d
000001b0: 8082 cebd 1bb2 1ebd 8b47 113d cc45 fbbd
000001c0: d663 20bd 8e29 983c ad63 40bd f6c7 02bd
000001d0: 896a 1f3e e93b 123d effe fb3c f409 71bd
000001e0: 0e23 b6bc 0eb9 83bc 4511 10be d571 613d
000001f0: 357a 643e 5dcb 9c3c 92f8 2cbd a01a 85be
00000200: afad db3d 4179 123d 0979 16be 5954 f5bc
00000210: c7be cabe 69d8 21bd 28ce 1fbe 6c31 10be
00000220: 18c2 333c 3627 a6be 7903 453e e511 8cbd
00000230: 1617 5abe 2bcd a93d b7cc 8bbd bf56 a0be
00000240: 4f3a a8bd b5ca 4dbf a6b7 2abd fa31 1dbe
00000250: 9119 12bf 96e4 d4be fd39 d9be 84be 24be
00000260: fd11 10bf 85fb 6ebe cb4f dfbd 4729 543e
00000270: cea6 793d 73e8 0ebd 379a 12be c798 96be
00000280: 1188 753d e3e6 9cbe 6225 abbb f135 78be
00000290: 652c 4bbe 6821 5bbe 15a2 2bbd b131 18be
000002a0: fc70 59be 7660 58bd d1f5 f2be db0c 1f3e
000002b0: 43c8 033e be96 05bd bdee fa3d 3e57 08bd
000002c0: f8db 9cbe de4f a8be 877d 46bc b9e0 9dbd
000002d0: 1b48 543c dc34 dabb eda6 28bc e416 f7bc
000002e0: 3657 163e bcf0 80be 3347 8bbe 499d 72be
000002f0: aeeb a8bc 328a 67be 2e22 85bd d1e8 8abc
00000300: 624b ebbd 733c 213c 2017 2fbf 7eff d7be
00000310: c2f3 70bf 39b3 2ebd 1e48 33bd 938c 08bf
00000320: 0e49 f2bd 5247 96bd 0216 19be 0d09 7abd
00000330: f371 06bf 911e 26be a533 3dbe fd01 6e3c
00000340: 4c29 4ebe ec37 08bf bca9 15bd 4f73 efbe
00000350: 8bfe df3d 3f85 debe 7b7f 82be 868f d8bc
00000360: 0c33 95b9 dba3 6fbd b984 07bd 6fdf 9f3c
00000370: 9fb8 023e b5df cbbe 36ae aabd 9564 0d3d
00000380: 2b91 f2bd 5999 a1bd fbb5 043d e08e 9abe
00000390: d833 51bd 7741 e73d f60a 63be 9fce 073d
000003a0: 0bd6 d1be 5919 2e3e 3a06 cbbe 6599 bfbe
000003b0: bd02 95be e763 64be 1156 8dbe 06f0 3fbc
000003c0: 2757 eabe 17cb 3fbe 0189 83bd 88c0 52be
000003d0: 6662 7ebe 636e 48bf 1e06 e43d 0d75 adbd
000003e0: f5b8 c9bb c04a 7ebe e2bc acbe a56f d2be
000003f0: c59c d3be 6a4a 93be 3ff0 a53c b79c ebbd

network_body._body_endoder.seq_layers.4.bias f4 [128]
-0.18683922 -0.2031254 -0.052452493 -0.2069807 0.082199104 -0.15040934 -0.21397926 -0.15882693
-0.21445675 -0.3139046 -0.19177265 -0.5547553 -0.10640368 -0.38533187 -0.253833 -0.38828316
-0.30467984 -0.30542657 -0.1687026 -0.19936039 -0.19195175 0.0018809243 -0.1370693 -0.3024072
-0.27739495 -0.25458282 0.25940022 -0.08720468 -0.27549973 -0.21811214 -0.15366322 -0.19483349
-0.10575129 -0.20658524 -0.28380683 -0.16073829 -0.047412463 -0.11934723 -0.21275279 -0.23858471
-0.07103172 -0.25928947 -0.15782163 -0.01620086 -0.0017979261 -0.34219387 -0.28589493 -0.28525728
-0.1848983 -0.045350157 0.0033356308 -0.3820802 -0.058122717 -0.05083863 -0.19879225 -0.10418364
0.01878466 -0.21267115 -0.46387082 -0.26274753 -0.0731661 -0.15453435 -0.4562994 -0.08350518
-0.40756145 -0.2200994 0.07906577 -0.08859399 -0.19655897 -0.07646236 -0.1663416 -0.34958395
-0.32355502 -0.18179941 -0.27420625 -0.32138523 -0.24939436 -0.16926733 -0.20527253 -0.39874274
-0.3294462 -0.1044079 -0.260073 -0.337755 -0.25753716 0.015595924 -0.45121682 -0.13991699
-0.37338817 -0.33900946 -0.022182379 -0.51835996 -0.46215782 -0.120055266 -0.19697529 -0.05118745
-0.4151703 -0.28895187 -0.47446406 0.06609418 -0.14907973 -0.316235 -0.4256491 -0.1347114
-0.12444333 -0.2139963 -0.13991305 -0.19436713 -0.059829094 -0.50515723 -0.5888596 -0.132503
-0.27481207 -0.123726614 -0.2035228 -0.25118253 0.2018435 -0.3405227 -0.007594383 0.015455602
-0.26244232 -0.11398855 -0.26951134 -0.15959764 0.04628712 -0.12331427 -0.4032314 -0.016917758
00000000: c852 3fbe 1b00 50be 6dd8 56bd c0f2 53be
00000010: 0158 a83d e804 1abe 611d 5bbe 87a3 22be
00000020: 8d9a 5bbe 1bb8 a0be 0d60 44be 7104 0ebf
00000030: 2cea d9bd 384a c5be 66f6 81be 0dcd c6be
00000040: fffe 9bbe df60 9cbe 60c0 2cbe 2125 4cbe
00000050: 008f 44be 5989 f63a e55b 0cbe 1ed5 9abe
00000060: b606 8ebe ae58 82be 1bd0 843e 5e98 b2bd
00000070: 4d0e 8dbe ca58 5fbe e459 1dbe 6e82 47be
00000080: 2294 d8bd 158b 53be 214f 91be 9498 24be
00000090: 9233 42bd 526c f4bd dedb 59be 8d4f 74be
000000a0: 1479 91bd 97c1 84be fe9b 21be aab7 84bc
000000b0: 64a8 ebba 0934 afbe d260 92be 3e0d 92be
000000c0: fb55 3dbe 16c1 39bd 999a 5a3b 04a0 c3be
000000d0: 1612 6ebd 2b3c 50bd 3290 4bbe 3b5e d5bd
000000e0: 4ae2 993c 77c6 59be 7a80 edbe d886 86be
000000f0: 1cd8 95bd 413e 1ebe 13a0 e9be c404 abbd
00000100: e5ab d0be bd61 61be 3ced a13d c470 b5bd
00000110: c146 49be 4c98 9cbd 7455 2abe abfc b2be
00000120: 01a9 a5be a029 3abe c364 8cbe 9b8c a4be
00000130: 3c61 7fbe 6a54 2dbe f632 52be 0228 ccbe
00000140: 2cad a8be cfd3 d5bd 4a28 85be 39ee acbe
00000150: e9db 83be 0c86 7f3c e405 e7be 6646 0fbe
00000160: bc2c bfbe a692 adbe d2b7 b5bc 3db3 04bf
00000170: f39f ecbe 89df f5bd e4b3 49be eea9 51bd
00000180: 3491 d4be 80f1 93be f4ec f2be 635c 873d
00000190: 5ba8 18be 8ee9 a1be aeee d9be c9f1 09be
000001a0: 25dc febd d921 5bbe 5e45 0fbe 2d08 47be
000001b0: 5a0f 75bd fc51 01bf 81bf 16bf deae 07be
000001c0: 2bb4 8cbe 6164 fdbd 4868 50be ff9a 80be
000001d0: 10b0 4e3e fe58 aebe 4dda f8bb 7e39 7d3c
000001e0: d75e 86be d472 e9bd 64fd 89be 906d 23be
000001f0: 9097 3d3d 318c fcbd 5974 cebe 1c97 8abc

network_body._body_endoder.seq_layers.4.weight f4 [128, 128]
-0.06746584 0.058717545 -0.12255721 -0.09813266 -0.30997473 -0.03536577 0.261436 -0.16067407
-0.18252556 -0.0692509 -0.060537204 0.017244518 -0.20348862 0.09287703 0.018422648 -0.054315656
-0.12800166 0.03439515 -0.2069085 -0.03019747 0.17423661 -0.5721459 0.0017258453 -0.07102347
0.24170503 0.07707838 0.13789152 0.42878237 -0.045361597 -0.07721243 0.100516126 0.21247508
-0.22696878 0.17467286 -0.15902786 0.7620926 -0.23505533 -0.101953775 -0.11448911 -0.45677057
0.25461343 -0.061175097 0.091755904 0.021310735 0.1290895 -0.2767425 -0.06413026 0.08158515
-0.020912437 -0.07228517 -0.033654444 -0.008214698 -0.09268629 -0.02730349 -0.066921294 0.089902796
-0.17650583 -0.0076842164 -0.090975635 -0.19293067 -0.18273038 0.3376786 -0.07841608 0.49660382
0.029822143 -0.0070821736 -0.092706874 0.076218955 -0.31537607 0.030894758 0.08866785 0.3943474
-0.12205794 -0.16126598 -0.16655388 0.00022954012 -0.16876243 0.04855469 -0.18623175 -0.0653855
0.00397381 0.048163723 -0.0177967 0.06473637 0.019459829 -0.12089056 0.047875486 -0.028598709
-0.26114196 -0.24934533 0.30840528 -0.13274957 0.067935064 0.06591182 -0.0699492 -0.10143952
-0.21946448 -0.20765296 -0.3208867 0.015550489 -0.25297672 -0.09498404 -0.10642318 -0.2836641
0.06641722 0.2423125 0.04459045 -0.015428408 -0.31636545 -0.12314419 -0.08495652 0.17976737
-0.43143037 0.1736707 -0.03669006 0.36597443 -0.14612776 -0.23418315 -0.09077185 -0.2430024
0.07414924 -0.05450891 0.12533915 -0.20717321 -0.04325715 -0.15208669 -0.122056946 0.0047920872
0.13845654 0.3227235 0.034145497 -0.124316536 0.06008908 -0.122344464 0.55454814 0.2660751
0.31499705 -0.39768273 0.3378642 0.5210275 0.3443759 0.38214976 0.025503578 0.17773063
-0.08698185 0.24944405 0.5413301 0.098112166 0.305694 0.103298165 -0.027152872 0.27135172
0.26881945 0.4048467 0.34855294 -0.083470255 -0.4400773 0.010487803 0.3993554 0.29636058
-0.08723651 0.22895746 0.35606617 0.6024517 0.37449256 0.6435434 0.23568717 0.4059897
0.48828974 0.35967818 0.23625293 0.12738335 -0.1533441 0.0890929 0.10053652 0.061409283
0.13274944 -0.2622852 0.04226798 -0.1293103 0.17207134 -0.15094082 0.2623542 0.4968533
-0.24959335 0.15772034 0.3170677 0.28395835 0.27319986 0.60089767 0.07540805 -0.28304023
0.29077289 0.00735752 0.19303821 0.20345153 -0.027256424 0.5305749 0.23341618 0.25128922
0.22472066 0.23922782 0.13932367 0.112561665 0.25718996 0.2849858 0.14670119 -0.39637613
0.60901093 -0.018227005 -0.05897599 -0.12144849 0.04132332 0.08518798 0.042437356 0.1965268
0.07620883 0.16935547 0.29233202 0.08515225 0.032500684 0.3409052 0.44224167 0.17284784
-0.1506353 -0.3501899 0.115349896 0.14502022 0.2436238 -0.009522059 0.21242501 0.12776491
-0.05126328 0.51337063 0.12951809 0.29879934 0.12559396 0.07234563 -0.060609657 0.15767437
-0.014717302 0.21176875 0.07398646 0.48317397 0.41059273 -0.05487154 -0.016757585 -0.23424107
-0.025167126 0.42472503 0.17139941 -0.0043998705 0.06265948 0.22121401 -0.019644529 0.24450938
00000000: 882b 8abd cf81 703d 46ff fabd c7f9 c8bd
00000010: 02b5 9ebe b3db 10bd f0da 853e be87 24be
00000020: fbe7 3abe 6ad3 8dbd dcf5 77bd 6044 8d3c
00000030: 525f 50be 5036 be3d 18eb 963c 187a 5ebd
00000040: de12 03be eee1 0c3d d2df 53be af60 f7bc
00000050: 156b 323e 2778 12bf c235 e23a c174 91bd
00000060: 8681 773e 45db 9d3d 6f33 0d3e 5d89 db3e
00000070: 15cd 39bd 8d21 9ebd 66db cd3d 1193 593e
00000080: 816a 68be 71dd 323e 33d8 22be 8018 433f
00000090: 58b2 70be 24cd d0bd 4479 eabd d5dd e9be
000000a0: b15c 823e bd92 7abd 85ea bb3d da93 ae3c
000000b0: 0a30 043e 31b1 8dbe ba56 83bd 1d16 a73d
000000c0: 8f50 abbc 3f0a 94bd 3ed9 09bd f196 06bc
000000d0: 4fd2 bdbd 92ab dfbc 080e 89bd f51e b83d
000000e0: f2bd 34be e1cb fbbb 6f51 babd 9e8f 45be
000000f0: ac1d 3bbe 36e4 ac3e 9c98 a0bd db42 fe3e
00000100: 914d f43c 9411 e8bb 1add bdbd af18 9c3d
00000110: f978 a1be 0117 fd3c 7d97 b53d e7e7 c93e
00000120: 83f9 f9bd e922 25be 1a8d 2abe b5b0 7039
00000130: 0fd0 2cbe 48e1 463d 89b3 3ebe d5e8 85bd
00000140: bc36 823b 5347 453d 63ca 91bc 8194 843d
00000150: 386a 9f3c 7895 f7bd 1619 443d d747 eabc
00000160: 66b4 85be 6254 7fbe 4ce7 9d3e 81ef 07be
00000170: 8a21 8b3d c7fc 863d 8741 8fbd 86bf cfbd
00000180: 4cbb 60be faa2 54be 434b a4be 7ac7 7e3c
00000190: 2a86 81be fe86 c2bd 65f4 d9bd 6c3c 91be
000001a0: c005 883d c520 783e 7aa4 363d 6fc7 7cbc
000001b0: a7fa a1be 0533 fcbd affd adbd f014 383e
000001c0: 71e4 dcbe bbd6 313e 5148 16bd 0061 bb3e
000001d0: 84a2 15be b5cd 6fbe 97e6 b9bd 9fd5 78be
000001e0: 8fdb 973d bc44 5fbd e858 003e 3725 54be
000001f0: 692e 31bd 9dbc 1bbe fef8 f9bd f106 9d3b
00000200: 8dc7 0d3e 043c a53e 26dc 0b3d ab99 febd
00000210: f81f 763d bc8f fabd def6 0d3f ff3a 883e
00000220: 4b47 a13e 129d cbbe 89fc ac3e 0f62 053f
00000230: 0a52 b03e 22a9 c33e e1ec d03c 05ff 353e
00000240: 8a23 b2bd 436e 7f3e 9c94 0a3f 08ef c83d
00000250: ed83 9c3e fd8d d33d b36f debc 9dee 8a3e
00000260: b4a2 893e 1148 cf3e 8875 b23e 74f2 aabd
00000270: d051 e1be 09d5 2b3c 5078 cc3e 93bc 973e
00000280: 0ea9 b2bd d373 6a3e 4e4e b63e 463a 1a3f
00000290: 7dbd bf3e 43bf 243f fa57 713e e2dd cf3e
000002a0: 1d01 fa3e bd27 b83e 4aec 713e c870 023e
000002b0: 3c06 1dbe 5776 b63d 17e6 cd3d 4d88 7b3d
000002c0: 78ef 073e 3f4a 86be 3021 2d3d eb69 04be
000002d0: 7833 303e 3b90 1abe 4a53 863e 8e63 fe3e
000002e0: 6695 7fbe 7181 213e b356 a23e fd62 913e
000002f0: dae0 8b3e 6ed4 193f 896f 9a3d a6ea 90be
00000300: 2fe0 943e 5a17 f13b cfab 453e 9955 503e
00000310: dd48 dfbc c2d3 073f a704 6f3e fba8 803e
00000320: 2c1d 663e 23f8 743e ddaa 0e3e bb86 e63d
00000330: 67ae 833e a9e9 913e d638 163e d0f1 cabe
00000340: 24e8 1b3f cd50 95bc cf90 71bd fcb9 f8bd
00000350: a442 293d 0977 ae3d cbd2 2d3d 523e 493e
00000360: 6013 9c3d 856b 2d3e 8bac 953e 4e64 ae3d
00000370: 701f 053d 208b ae3e 806d e23e 06ff 303e
00000380: 2440 1abe 174c b3be 913c ec3d 2e80 143e
00000390: 8478 793e 6902 1cbc f185 593e ced4 023e
000003a0: 72f9 51bd 426c 033f 64a0 043e 3afc 983e
000003b0: b49b 003e f229 943d d541 78bd 6475 213e
000003c0: d720 71bc e8d9 583e 3786 973d 9462 f73e
000003d0: 3639 d23e fbc0 60bd 3447 89bc e4dc 6fbe
000003e0: 4a2b cebc 8f75 d93e 5483 2f3e ca2c 90bb
000003f0: 9d53 803d ed85 623e 90ed a0bc ab60 7a3e
