results/'OppDirectionRun-Mar23'/MoveSomewhere/MoveSomewhere-14014819.pt (torch, 933143 bytes, 52 tensors)

discrete_act_size_vector f4 [1, 2]
000000 00 00 40 40 00 00 40 40
       3.0 3.0

network_body._body_endoder.seq_layers.0.weight f4 [128, 34]
000000 1b f1 06 3b 12 be 27 bf 00 2a 10 bd 03 52 d9 be
       0.0020590487 -0.655244 -0.035196304 -0.42445382
000010 68 71 38 3d 42 30 5b bf c4 38 cf 3e 5c e8 5c be
       0.045030028 -0.8562051 0.40472996 -0.21573013
000020 9e d7 f1 3d 6e 56 b5 bf 74 52 d9 3c c3 bb b5 be
       0.11808704 -1.4167001 0.026528575 -0.35494813
000030 fb 80 99 3e 5c c9 91 bf 24 74 87 3e ef 0c 27 be
       0.29981217 -1.1389575 0.26455796 -0.16313528
000040 b9 8b c6 3c f9 a5 b8 bf 2d e6 e4 3d 43 43 af be
       0.024236547 -1.4425651 0.11176715 -0.34231004
000050 ee ad 79 3e a9 30 b2 bf 64 59 e0 3d e2 4c be be
       0.24382755 -1.39211 0.1095455 -0.37168032
000060 51 3f d8 bc 49 a8 21 bf 59 e8 1c 3e 32 bf 93 be
       -0.02639738 -0.6314741 0.15323009 -0.28856808
000070 50 d7 bb 3d 3d 94 0b bf 4a 55 a0 3e 95 67 85 3c
       0.09171927 -0.5452307 0.3131507 0.016284743
000080 04 45 a5 3d 1c 6f 44 3e 14 fa 10 3f ce 88 0d 3f
       0.08069804 0.1918301 0.5663159 0.5528687
000090 22 22 4e 3d a9 ec 77 3e 11 35 6a bd 9f a8 fa 3e
       0.05032552 0.24211372 -0.057179514 0.48956773
0000a0 fc 3b 25 3e f9 29 97 3e fe 8c 8f bc 8f 18 28 3f
       0.16136163 0.2952421 -0.017523285 0.65662473
0000b0 39 21 dc 3c d7 6a 3f 3f de 91 36 be 2d c8 81 3f
       0.02687131 0.747724 -0.17829081 1.0139214
0000c0 2f 3c 3c be 4b bb 3c 3f 33 89 a2 3d ea 41 a1 3f
       -0.18382333 0.73723286 0.07936325 1.259824
0000d0 10 99 95 3c a8 e1 ef 3e 76 81 fc 3d 9b f6 83 3f
       0.018261462 0.4685185 0.1232938 1.0309633
0000e0 3a 1c 1f bd 29 1e 56 3f 4e 51 55 3e c9 20 98 3f
       -0.03884528 0.8363977 0.20831797 1.1885005
0000f0 63 5d 6e be 71 8d b4 3e 77 1e 4b 3c 3f bd 75 3f
       -0.23277812 0.3526416 0.0123974 0.9599189
000100 5d 57 16 3f 0b 5e 74 3e 41 9c dc bd ee ff 34 be
       0.58727056 0.23864 -0.107719906 -0.17675754
000110 ce e8 9e bd fa a1 e2 bd 34 f5 15 be ee cf a0 be
       -0.07759248 -0.11066051 -0.14644319 -0.31408638
000120 95 10 95 bd dc 2c 28 bf 5a a2 82 be f9 e3 83 be
       -0.072785534 -0.6569345 -0.2551449 -0.25759867
000130 57 8e 17 3e 3b 87 1f bf 04 10 d7 3d 11 27 b4 be
       0.14800392 -0.6231572 0.105011016 -0.35186055
000140 12 f7 8d bd 46 1d 05 bf 26 b3 b3 3d f9 d3 12 bf
       -0.069318905 -0.5199779 0.08774404 -0.57354695
000150 cb b6 b3 bd e2 d5 5f bf 58 da 17 be 72 03 b8 be
       -0.08775099 -0.87435734 -0.14829385 -0.3594013
000160 5f 73 d6 3c 74 89 4e bf 0e ae 38 bd 08 c0 49 3d
       0.02617806 -0.80678487 -0.045087866 0.0492554
000170 3a 81 4f bc 9b 11 29 bf f6 79 27 3e 73 c6 9a be
       -0.012665087 -0.6604249 0.16355118 -0.3022953
000180 f4 d3 07 bd 32 17 5a bf 34 33 b6 3e 48 22 dc be
       -0.03316112 -0.85191643 0.3558594 -0.42994905
000190 8e 67 80 bd f6 9f d4 3d db 29 01 3d d4 ee f5 be
       -0.062697515 0.10382073 0.031534057 -0.48033774
0001a0 94 3d 8d be ed eb 0e bf 94 be 87 3d 5a 07 1e be
       -0.27586043 -0.55828744 0.06628147 -0.15432492
0001b0 cd 6b d9 3d 3d 2f 12 bf 02 dd 86 ba ee 65 f2 3e
       0.106162645 -0.5710333 -0.0010289254 0.4734339
0001c0 32 cb cd 3d 28 b0 41 bf 04 0c 97 3e 0a 17 ed 3e
       0.10048522 -0.7565942 0.29501355 0.4630664
0001d0 73 f1 c6 bd f4 d4 0d bf bd d3 4f bd 72 46 8a 3f
       -0.097140215 -0.55403066 -0.05073904 1.0802748
0001e0 08 7b b9 3d 1f fb b9 be 82 d2 a9 bb 59 56 30 3f
       0.090566695 -0.36324403 -0.005182565 0.68881756
0001f0 a5 38 33 3e 84 e2 cf bd d5 fa 35 3e dc 58 11 3f
       0.17502077 -0.10150626 0.17771466 0.56776214
000200 8b f1 eb 3d 2b ef b4 3e c5 75 e0 bd 9e a4 3e bf
       0.1152068 0.3533872 -0.10959963 -0.74469936
000210 43 b2 06 3e fe fd 6e be ef 14 87 be 0e bc 56 3d
       0.13153939 -0.23339078 -0.2638316 0.052425437
000220 ff 62 26 3d 19 f1 c6 be 6e 2f a0 3e a1 59 84 bf
       0.040621754 -0.38855818 0.31286186 -1.0339853
000230 bd cb ca 3d 36 0f 3e be 11 80 36 3d 4c c0 85 bf
       0.09902141 -0.1856049 0.044555727 -1.0449309
000240 2d 2b 94 3e 62 a9 36 be f1 13 3a bc 18 6c 9f bf
       0.2893919 -0.17838052 -0.011357293 -1.2454863
000250 2d 98 e9 bd 49 49 86 3e d5 99 a9 bd 49 d9 af bf
       -0.11405978 0.26227787 -0.08281294 -1.3738185
000260 0a 34 40 3e 93 12 77 3e 9b 2d 07 be bc 3d a9 bf
       0.18769851 0.24128179 -0.13200991 -1.3221965
000270 1f f3 ae 3d 67 5a 1a 3e be f9 10 3e a8 8a 51 bf
       0.085424654 0.15073548 0.14157769 -0.818522
000280 02 02 c2 3d e4 7f 1d 3d bf ac f1 bc 09 61 8f be
       0.09473039 0.038452044 -0.029501317 -0.2800372
000290 fa 5d fc bc 05 5d 86 be 62 3f 86 3d aa b3 5b be
       -0.03080653 -0.26242843 0.06555058 -0.21455255
0002a0 7c d4 15 3e 33 4c 67 bd 58 2b 83 3e e0 c6 21 3f
       0.14631838 -0.056469154 0.25619006 0.63194084
0002b0 76 b4 d3 3d 3b 9e 18 3f 00 e4 a1 3d 02 7b 27 3f
       0.103371546 0.5961644 0.07904816 0.6542207
0002c0 53 32 ef bd 66 7e 70 bd b5 a2 ea bd f9 94 70 3f
       -0.116795205 -0.058714293 -0.11456815 0.93977314
0002d0 62 e3 39 3e ad 5a a4 3e f1 c2 8e 3c 49 38 92 3f
       0.18153146 0.3210043 0.01742694 1.1423427
0002e0 88 b1 fd 3d 45 19 f3 3e 20 0a b4 bd 0d ea 51 3f
       0.12387377 0.47480217 -0.08790994 0.8199776
0002f0 13 9d fe bb 7b 07 24 3f 2f d0 67 3e 8a 66 4a 3f
       -0.0077701895 0.64073914 0.2263801 0.7906271
000300 85 ce 1e be b6 25 d8 3e 3a 4a f6 bd 38 80 53 3f
       -0.15508468 0.4221627 -0.12025876 0.8261752
000310 06 33 7a 3e 92 6f dd 3e 20 fe a7 bd 80 cf 6c 3f
       0.24433526 0.43249184 -0.08202767 0.9250412
000320 7f f9 42 be 60 33 15 3e a1 87 32 3e 8c d4 5e bf
       -0.19040488 0.1457038 0.17434551 -0.8704307
000330 c6 6b 18 be ff e0 d3 3d 24 b0 98 3d ac 0b 24 be
       -0.14884862 0.10345649 0.07455471 -0.16020077
000340 3c a1 68 3d 47 6a 65 be 61 7c 8a 3d 5c 32 88 be
       0.05679439 -0.22403823 0.06762005 -0.2660092
000350 81 dd 89 3c 80 b8 a8 be cb a0 21 be 1e 6a 9f be
       0.016829254 -0.32953262 -0.15783994 -0.31135648
000360 29 61 50 bc 4c 9a 41 be 03 18 0e 3d 53 54 a6 be
       -0.012718477 -0.18906516 0.034690868 -0.3248621
000370 9e 7c 89 be 80 60 90 be 3d 89 0b be a0 a6 c3 be
       -0.26852888 -0.28198624 -0.13626571 -0.38213062
000380 08 e4 34 3e c8 b4 e3 be 1b 1e 4c 3e bb 53 ec be
       0.17665112 -0.44473863 0.1993336 -0.4615763
000390 47 41 6e bd 83 68 1a bf 99 da 6e 3e 62 73 76 bc
       -0.058167722 -0.6031572 0.23325576 -0.015042158
0003a0 49 d0 95 be da 5a 17 bf 76 cc 8e 3e a4 d4 11 bf
       -0.2926047 -0.59123003 0.27890366 -0.5696509
0003b0 0a a7 87 3d f6 d3 03 bf 26 79 84 3e 8a da d7 3c
       0.06623657 -0.514953 0.2587368 0.026349325
0003c0 ba d0 c8 3e 31 48 f3 3e 77 2a 1f be 17 85 bd 3e
       0.39221746 0.47516015 -0.15543543 0.37015602
0003d0 e9 de 66 be 2e a3 da 3e 6a e2 c7 3e d3 74 d6 3d
       -0.22545971 0.4270262 0.39039928 0.10471501
0003e0 28 06 c1 3d 0e 4e c6 3e 42 cd 85 3e 2d 52 fd 3e
       0.09425002 0.38731426 0.26133162 0.49476758
0003f0 5b a4 2a bc 1c 99 34 3e 99 3e b0 bd 7e 86 0d 3e
       -0.010415162 0.17636532 -0.086056896 0.13820836

network_body._body_endoder.seq_layers.0.bias f4 [128]
000000 9f f4 6e bd fc 49 a7 3d 5b 6e d1 be 38 cf 8e be
       -0.058338758 0.08168408 -0.40904507 -0.2789247
000010 fe 1c 5a bd d5 9e e8 3d 88 05 e5 be 32 5f 85 bd
       -0.053250305 0.1135842 -0.44730783 -0.06512298
000020 22 12 d1 bc 15 da b4 bd 86 45 8c 3e ec b6 9e bd
       -0.025521342 -0.08830658 0.27396792 -0.07749733
000030 7d 20 b6 be 24 b0 77 be b1 92 d3 bd 7c 60 d4 bd
       -0.35571662 -0.24188286 -0.103307135 -0.103699654
000040 f2 3e 65 be 75 df e4 be 3a 59 7f 3e 79 77 c3 bd
       -0.22387293 -0.44701734 0.24936381 -0.09544272
000050 6c 45 17 be a9 02 f0 bd 11 37 26 3d 16 b1 ab be
       -0.14772576 -0.117192574 0.04057986 -0.33533543
000060 f3 2a 37 be db 2e 8e bd e1 af 4c be 47 a0 e4 be
       -0.17887478 -0.06942531 -0.19988967 -0.44653532
000070 1e 1b 36 3c 2f f9 94 be 15 94 8d be 48 f3 cf bc
       0.011114864 -0.29096362 -0.2765204 -0.02538456
000080 38 f3 a3 be 2f 0a 08 3e bb 55 be be 94 5f 84 be
       -0.320215 0.13285135 -0.37174782 -0.2585417
000090 4a 6a ca be 74 96 0c be fb 9e 3e 3e 59 f3 ab be
       -0.39534217 -0.13729268 0.18615334 -0.33584097
0000a0 c3 30 84 be 47 b7 7f be 11 11 a7 3c 34 e1 05 bd
       -0.25818452 -0.24972259 0.02039388 -0.032685474
0000b0 a2 9f 14 3d 5a 89 0a be 93 a7 dd be a8 44 cf 3d
       0.03628505 -0.13528958 -0.4329191 0.10120517
0000c0 2f 2c 88 be c6 f9 65 be 64 8a 8c be 29 d1 88 be
       -0.2659621 -0.22458562 -0.27449334 -0.26722077
0000d0 89 7f 08 3e 4f 4a 41 be 97 c2 1b be 5d 88 89 be
       0.13329901 -0.18876003 -0.15210949 -0.2686185
0000e0 cb 21 fc 3d 89 ba 8e be 11 0c dd be 83 63 6f be
       0.12311133 -0.2787669 -0.43173268 -0.23377804
0000f0 70 22 a6 bd 2f 32 1b bb fc 4d 11 bf 1d 98 74 bc
       -0.08112037 -0.0023681035 -0.5675962 -0.014928845
000100 05 eb 12 3e 56 6d 02 bf f4 b3 80 be 0a d5 a8 be
       0.14347465 -0.50948083 -0.25137293 -0.32975036
000110 32 82 d5 bc 07 f2 96 be fe af 76 bd 5e ac ea bd
       -0.026063059 -0.29481527 -0.060226433 -0.11458658
000120 9d 85 ce be a6 36 42 be 73 3f 56 be c5 47 b4 3d
       -0.40336314 -0.18966159 -0.20922641 0.088027515
000130 af 1a 3f 3e 63 3f 5a be 23 91 cb be 1a 5f e1 bd
       0.18662523 -0.21313243 -0.39759168 -0.11004467
000140 2b 82 f3 bd 70 3b 67 be 54 9d 5f be 28 f5 89 bd
       -0.11890062 -0.22581267 -0.2183736 -0.06736213
000150 23 b5 bb 3e ff 2c 72 be 46 9b 14 3d bb 94 e7 3d
       0.36661634 -0.23649977 0.036280893 0.11307665
000160 55 0d 33 be 4a 82 90 be c8 2d ee 3b 86 8f b3 be
       -0.17485555 -0.28224403 0.007268641 -0.35070437
000170 38 f0 91 be 81 f0 cb be 59 72 12 3c 5a ae 3a be
       -0.28503585 -0.39831927 0.008938395 -0.18230572
000180 5e f9 82 be 67 41 8a be 0e a8 47 bd 4f e5 05 bf
       -0.25580877 -0.27003023 -0.048744254 -0.5230302
000190 8e 68 27 bd e5 4f 8e be 33 9b 36 be 1d 8a 39 3c
       -0.040871195 -0.2779533 -0.17832641 0.011324433
0001a0 51 3d 08 be d8 84 38 bc 38 46 73 be bb 2a c4 be
       -0.1330464 -0.011262141 -0.23757255 -0.3831385
0001b0 1b 78 1b be 3b 37 5f bd 81 c8 47 be e7 b3 73 be
       -0.15182535 -0.05449603 -0.1951008 -0.23799096
0001c0 f7 af d9 bd f9 69 15 be 65 86 e6 3b 9c 1a a7 be
       -0.10629266 -0.14591207 0.007035064 -0.3263749
0001d0 b8 04 bf be 81 06 5b 3d 20 ef a6 bd 64 9c 01 bf
       -0.37308288 0.053473 -0.08151078 -0.5062926
0001e0 43 3d ad be 58 07 41 be 37 30 13 3c 68 79 b7 be
       -0.338358 -0.18850458 0.008983663 -0.35834813
0001f0 58 df 40 be 25 9f 08 bf 12 fd d1 3d da b5 7c 3d
       -0.18835199 -0.53367835 0.102533475 0.061696865

network_body._body_endoder.seq_layers.2.weight f4 [128, 128]
000000 b9 85 d8 bd b5 fb c5 bd 91 ef b7 3d ff 5c 96 be
       -0.105723806 -0.0966715 0.089812405 -0.29367825
000010 d7 7a 8c bd e5 7b 11 bd 0c 95 3c bc 3d e9 97 bc
       -0.06859367 -0.035518546 -0.011510145 -0.018543834
000020 13 cc 2e bf 26 ab cc bc 2a 3f 34 3e 1c ec 76 bd
       -0.6828014 -0.024983954 0.1760222 -0.060283765
000030 4f 18 a5 3d 4f aa 17 3b c9 5e b4 bd 3d b3 86 3c
       0.08061277 0.0023142283 -0.08807141 0.01644289
000040 d8 0d f5 3d c9 e4 fa bd 21 45 0f be f0 9e 0b be
       0.11965531 -0.122506686 -0.13991214 -0.13634849
000050 53 17 ee bc c8 a3 38 bd f5 51 33 3d 17 b8 38 be
       -0.029063856 -0.04507807 0.043779332 -0.18038975
000060 e8 8a 71 3d 64 28 74 bc 5f c4 1b bd 16 83 3b bd
       0.058970362 -0.014902208 -0.03802907 -0.04577931
000070 03 1d 21 bd 71 12 50 be 34 fe c8 be f8 f4 68 3c
       -0.03933431 -0.20319535 -0.39256442 0.014218561
000080 54 ab 35 bd 30 72 f0 3d d7 b1 bf bc 40 71 0c 3d
       -0.044352844 0.117405295 -0.02340023 0.03428769
000090 58 d9 ad bd 99 5a 16 be 5e 1f bc ba 94 fa ba bd
       -0.08488721 -0.14682998 -0.001435261 -0.09129825
0000a0 14 87 2b 3d b2 b8 10 bc 64 3d 9d bd e1 03 1d bd
       0.041876867 -0.008833097 -0.07677725 -0.038333777
0000b0 39 25 8b be e9 2a b1 bd 6c 4b 2b 3e cf dc bb 3c
       -0.27176836 -0.086507626 0.1672799 0.022932438
0000c0 60 95 0c bd be 2b bd be 31 64 8d 3d 1e 58 4e bc
       -0.034322143 -0.36947435 0.069038756 -0.012594251
0000d0 5d 1b 9b 3d c3 bc 0b be 6c fb 13 be 73 db a1 3d
       0.075735785 -0.13646226 -0.14451379 0.07903185
0000e0 af 54 9c bd 8a 5c 63 3e 7f 62 42 be 74 ad ea 3b
       -0.076333396 0.2220327 -0.18982886 0.0071617905
0000f0 36 84 69 3e aa 76 87 bd 5b 09 03 3e ee 2e 53 3b
       0.2280434 -0.0661443 0.12796538 0.0032224017
000100 70 75 bc bd f8 de 25 bd a0 f6 4a 3e 0e 45 37 ba
       -0.09202087 -0.040495843 0.19820642 -0.0006991186
000110 88 5b ff 3e 2f 6e 9a 3c 2c e7 50 bd 05 9e e1 bd
       0.4987452 0.018851368 -0.051001713 -0.11016468
000120 df b5 4b bc 39 38 ba bd 8f 31 53 be 32 c3 dd bd
       -0.012433498 -0.09092755 -0.20624374 -0.10828246
000130 ad 72 a6 3d ed 85 b1 3d 47 20 19 be 9d 31 87 3e
       0.081273414 0.086681224 -0.14953719 0.2640504
000140 fe 11 3e bf 0a d6 61 bd e0 76 c5 3e 6d 8e cb 3d
       -0.74246204 -0.055135764 0.38567257 0.09939275
000150 1d eb fe 3d 3b 97 fc bd 25 2c 29 be da c6 6b bd
       0.12447188 -0.123335324 -0.16520746 -0.057562687
000160 66 fc 3e bd c4 9c e9 be 8f 1b a1 bd 26 75 aa 3d
       -0.046627425 -0.45627415 -0.078665845 0.083231255
000170 55 6e 7a 3c 1b 1e 5b bc e8 b7 93 3c cf 9c ff 3d
       0.015285094 -0.013373877 0.01803203 0.12481081
000180 d4 b8 3e be 3b 26 c6 bd 22 0d 70 3e 75 a7 b2 bd
       -0.18625194 -0.09675261 0.2344251 -0.08723346
000190 dc c4 20 3d 38 28 8e be ac 94 0d be b0 30 c6 bd
       0.03925024 -0.2776506 -0.13826245 -0.09677255
0001a0 27 8b 5b 3d 9a 5b 59 be ca 55 6d bd ad f0 62 3d
       0.053599503 -0.2122635 -0.057943143 0.055405308
0001b0 d5 30 c6 bd e6 27 1f bd e6 4a 11 3d c4 45 fb bd
       -0.09677283 -0.03885641 0.03547182 -0.12269166
0001c0 4e 66 13 bd 31 e1 95 3c 46 8f 40 bd ed c4 02 bd
       -0.035986237 0.018295856 -0.047011636 -0.031926084
0001d0 04 bf 1f 3e dd 00 15 3d ef fe fb 3c 93 0a 71 bd
       0.1560021 0.036377776 0.03076121 -0.058847975
0001e0 99 a5 93 bc f5 e2 47 bc 4b 9a 10 be fe 3f 6d 3d
       -0.018023299 -0.012200107 -0.14121358 0.057922356
0001f0 2c a2 63 3e 89 0a 9f 3c e3 7e 24 bd 2d d9 8a be
       0.22229832 0.019414203 -0.04016007 -0.27118817
000200 53 52 e0 3d a7 a4 27 3d 38 a2 0f be 99 1e 25 bd
       0.10953202 0.04092851 -0.14026725 -0.040312383
000210 40 15 ca be 73 d8 21 bd 28 ce 1f be 95 3d 0b be
       -0.39469337 -0.039513063 -0.15605986 -0.1359771
000220 6c 57 4d 3c 2e cb b4 be a6 52 41 3e 6f 76 c1 bd
       0.01253305 -0.35311264 0.18879184 -0.094464175
000230 a1 a9 57 be 48 c7 c5 3d 68 ea 8e bd 3a 4c 9c be
       -0.21060802 0.096571505 -0.06978303 -0.30526906
000240 94 42 a8 bd e1 7c 4e bf 2b 9a 2a bd 48 22 1e be
       -0.08215824 -0.806593 -0.041650932 -0.15442765
000250 7a 19 12 bf da 5d d4 be 96 af d0 be c9 9e 24 be
       -0.57070124 -0.41477853 -0.4075896 -0.16076197
000260 ff 12 11 bf bf 58 66 be 14 4d df bd 10 49 50 3e
       -0.5666961 -0.22494791 -0.10903373 0.20340371
000270 8a 3e 7c 3d 91 2a 10 bd 08 bf 14 be 0a 17 9c be
       0.06158308 -0.035196844 -0.14525998 -0.30486327
000280 7d 9d 75 3d 06 49 a2 be b2 73 2c bb 51 0a 74 be
       0.059964646 -0.31696337 -0.0026314077 -0.2383206
000290 49 f3 46 be 15 1b 67 be 8b 4c 25 bd c7 9f 24 be
       -0.19428743 -0.22568925 -0.0403562 -0.16076575
0002a0 51 93 5b be 24 4b 2b bd 34 6d fa be c7 e5 1f 3e
       -0.21442915 -0.041819707 -0.4891144 0.15614997
0002b0 19 96 05 3e 97 4f 04 bd 0f ef fa 3d fd 8d 01 bd
       0.13045539 -0.032302465 0.12252628 -0.03162955
0002c0 20 40 9d be 0a 5f ad be 01 6e 5c bc d1 bf 84 bd
       -0.30712986 -0.33861572 -0.013453961 -0.064818986
0002d0 72 0e cf 3c f6 64 ce bb 03 86 1b bc ea b5 e8 bc
       0.025275443 -0.0062986566 -0.0094924 -0.028407056
0002e0 7f b2 16 3e 75 72 80 be df 88 8b be f5 12 85 be
       0.14716528 -0.25087324 -0.27252862 -0.25991026
0002f0 e6 e1 df bc 85 53 66 be 9e 2a 85 bd 7d 14 f7 bc
       -0.027329396 -0.22492798 -0.06502269 -0.030161137
000300 70 59 eb bd ac 73 17 3c 52 ae 2d bf 7c ca d6 be
       -0.11491668 0.009243887 -0.67844117 -0.41951358
000310 a0 57 6f bf 28 f0 2e bd 31 48 33 bd 75 6d 0a bf
       -0.9349308 -0.0427095 -0.04377002 -0.5407327
000320 f6 98 f0 bd ee 62 94 bd 78 0a 1e be d8 4e 52 bd
       -0.11747925 -0.07245432 -0.15433681 -0.051344723
000330 db c4 05 bf 6f 04 26 be 31 6d 3f be 67 67 78 3c
       -0.522535 -0.16212629 -0.18693997 0.015161372
000340 9e ca 4d be 92 09 09 bf a4 cd 13 bd 44 f4 f5 be
       -0.20096824 -0.5353023 -0.036084786 -0.48037922
000350 1f 01 d4 3d a6 0a dd be ce 37 90 be 86 8f d8 bc
       0.10351776 -0.43172187 -0.28167576 -0.026435625
000360 0f 5a 4e 3c ef 96 6f bd ac 7f 2a bd 16 d5 9b 3c
       0.012594714 -0.05849355 -0.041625664 0.019022506
000370 d3 78 fc 3d 3c 2a c7 be ea e5 8d bd 8e ba 0c 3d
       0.12327733 -0.3889941 -0.06928618 0.0343576
000380 12 1d e7 bd bb b1 a4 bd 00 f1 0b 3d 26 dd 9a be
       -0.112848416 -0.08041712 0.034165382 -0.30246848
000390 ed c9 72 bd b6 a2 ea 3d 18 c2 62 be 97 bb 0a 3d
       -0.059274603 0.11456816 -0.22144353 0.033870306
0003a0 64 b2 de be b2 c6 36 3e e1 96 c5 be 46 95 c2 be
       -0.43495476 0.17849234 -0.38591674 -0.38004512
0003b0 3e 2e 95 be 2b 12 69 be d6 2a 8f be 2b 7a 40 bc
       -0.29136842 -0.22760837 -0.2796237 -0.011747877
0003c0 bc 84 e7 be a5 7d 42 be ce 0c 89 bd 89 0d 54 be
       -0.45218456 -0.18993242 -0.066918954 -0.20708288
0003d0 60 3d 80 be bf 10 4a bf 52 05 e4 3d c2 52 ad bd
       -0.25046825 -0.789318 0.11133827 -0.084630504
0003e0 4c 32 c5 bb 12 c4 78 be 42 26 aa be 58 91 cc be
       -0.0060179587 -0.24293545 -0.33232313 -0.39954638
0003f0 14 22 dc be be 05 94 be ca 63 b1 3c 6e 16 ec bd
       -0.4299475 -0.2891063 0.021654028 -0.115277156

network_body._body_endoder.seq_layers.2.bias f4 [128]
000000 5a c4 ae be 17 2d 0a 3e 62 ce 2c be 05 10 07 be
       -0.3413418 0.13493763 -0.16875604 -0.13189705
000010 80 ad 0a 3e cd e2 46 3d 7f 7e af 3d 34 af 78 be
       0.13542747 0.048556138 0.08569049 -0.24285585
000020 a3 41 99 3b 3f 41 e8 bc 2f 01 99 3d aa 81 4e 3e
       0.004677014 -0.028351424 0.07470929 0.2016665
000030 70 d6 c7 3c 9d 18 b3 3d 6a ec aa be ef bd 06 bc
       0.024394244 0.08744929 -0.33383495 -0.008223995
000040 1c e8 9c 3a ac 5b a8 be c9 17 bb 3d e6 b3 d0 be
       0.001197103 -0.3288244 0.09135396 -0.40762252
000050 c1 26 eb bb 04 ca 1d bc 40 a3 81 bd 95 72 6e be
       -0.0071762507 -0.009630684 -0.063299656 -0.23285897
000060 d7 54 68 be 34 77 a8 3e 52 f5 5b be 7b 21 36 bd
       -0.22688614 0.32903445 -0.21480301 -0.044465523
000070 2f 9d cf 3d 8d 2c 8c bc ed bd 07 be 09 4f b1 be
       0.10137402 -0.017111087 -0.13256045 -0.34630612
000080 f5 6c 86 bd 49 47 46 bd b8 c0 14 3d a2 8c b5 bd
       -0.06563751 -0.048407827 0.036316603 -0.08864714
000090 f9 eb b7 3d 48 af 89 3d 80 87 c7 be 2a 08 01 3e
       0.08980555 0.06722885 -0.38970566 0.1260077
0000a0 bb d9 bc 3d cc 37 41 be 17 0f a0 bd 2d 1e 28 3d
       0.09221216 -0.18868941 -0.07815378 0.041044403
0000b0 9a 60 3d 3e e6 69 1f be 54 75 c9 be 1d 7a d2 3d
       0.18493882 -0.15567741 -0.39347327 0.102771975
0000c0 af c6 e2 be d8 9a a9 bc 72 f1 78 be d8 6c a6 bc
       -0.4429221 -0.020703718 -0.24310854 -0.020315573
0000d0 66 a4 1d be f8 54 7b 3b 01 10 e1 bd 4b 48 a6 3d
       -0.15394744 0.0038350206 -0.10989381 0.081192575
0000e0 b9 88 b6 bb 56 51 ad be 36 70 2b be 2d fa 25 bc
       -0.005570498 -0.33851117 -0.16742024 -0.010130447
0000f0 f8 be 4e be ab ef 76 3d 78 c9 b7 be 31 ec 30 be
       -0.20190036 0.06028716 -0.35895896 -0.172776
000100 4e c9 84 be 22 1d 73 be c9 70 86 be 51 29 0d be
       -0.25934833 -0.23741582 -0.26257923 -0.13785292
000110 dd cd a6 3d bc 4e 06 3e 60 1e e1 3c b4 ad 29 be
       0.08144734 0.13115972 0.027480304 -0.16570169
000120 80 f4 90 be 58 69 a3 be eb e4 f9 bd 8b e7 e9 bd
       -0.2831154 -0.31916308 -0.12201866 -0.114211164
000130 5a a6 95 bd e1 4f aa bd fc f5 15 be 47 12 3d be
       -0.0730712 -0.08316017 -0.14644617 -0.18464004
000140 ce 87 a8 be 32 6c aa be 88 0c 4f 3e 4f 2f d4 bd
       -0.3291611 -0.3328567 0.20219624 -0.10360586
000150 65 90 3a 3e 4e 8c 97 be ac cd 0b bd eb 8f fb 3c
       0.18219145 -0.2959923 -0.03413169 0.030708274
000160 6f f8 29 be ca 8b 04 3d 6e 52 0f 3e 34 33 c9 be
       -0.16598676 0.032359876 0.13996288 -0.39296877
000170 78 e1 82 bd 49 90 73 bc 94 23 82 be 23 db fa bc
       -0.06390661 -0.014865943 -0.2541777 -0.03062207
000180 bc 67 09 bd bb f4 eb bd b0 2d 79 3c 7a 47 da 3d
       -0.033546194 -0.11521288 0.015208647 0.10658164
000190 17 25 17 be 24 11 d7 bc b8 e3 be bd 35 76 72 bd
       -0.14760242 -0.02625329 -0.09320778 -0.059194762
0001a0 d3 90 6f bc 3b a2 cb bc 47 37 95 be 71 47 89 be
       -0.014621931 -0.024857631 -0.29143736 -0.26812318
0001b0 f9 9a 3d be 68 11 16 be 29 3e ad bd 03 f8 4b 3d
       -0.18516149 -0.14655077 -0.08459122 0.04979707
0001c0 e9 d7 a5 bd be 7c bb bc 3f 4c 07 be c1 6d 3f 3d
       -0.08097822 -0.02288663 -0.1321268 0.04673553
0001d0 b7 39 86 bd 63 36 05 bd eb 8f db bd 26 b2 7a 3e
       -0.06553977 -0.03252257 -0.107208095 0.2448202
0001e0 6f 2d c0 be d3 08 92 3d 61 97 61 bd 9e 36 81 be
       -0.37534663 0.07130589 -0.055076007 -0.25236982
0001f0 24 7e b0 bd 71 68 d9 bd 0b d1 b9 be c4 b1 27 bd
       -0.086178094 -0.10615624 -0.362923 -0.040941015

network_body._body_endoder.seq_layers.4.weight f4 [128, 128]
000000 cb 27 88 bd 1c 47 75 3d 12 40 ef bd 0d 79 dc bd
       -0.06648215 0.05988227 -0.11682142 -0.10765276
000010 90 72 9f be df 05 0f bd 73 b3 87 3e d9 63 22 be
       -0.31142092 -0.03491771 0.26504096 -0.15858401
000020 9c 91 36 be c8 06 8e bd de de 6f bd 24 f2 a2 3c
       -0.17828983 -0.06934887 -0.058562152 0.019890852
000030 5c 43 4c be f4 85 bd 3d 2d 10 a0 3c a8 2d 4d bd
       -0.1994757 0.09254065 0.019538963 -0.05009237
000040 d5 96 fc bd ee df 19 3d 89 7a 4e be ee 06 e7 bc
       -0.123334564 0.03756707 -0.20163931 -0.028201547
000050 43 ec 33 3e 96 50 11 bf 8e 80 6c 3a fc 5e 8a bd
       0.17570595 -0.5676359 0.00090218417 -0.06756398
000060 e3 17 7b 3e a3 08 a4 3d 6c 5c 16 3e e6 20 db 3e
       0.24520831 0.0800946 0.14683694 0.42798537
000070 06 37 2f bd a6 81 9f bd 9d 15 d5 3d d9 2a 5f 3e
       -0.042777084 -0.077884 0.10404513 0.21793689
000080 45 e3 60 be 3f c0 36 3e fa 74 2b be 7c c8 43 3f
       -0.21961696 0.17846774 -0.16743842 0.7647779
000090 6b 8a 6c be 74 68 c9 bd a0 07 e3 bd 0c a5 e7 be
       -0.23099677 -0.09834376 -0.11085439 -0.45243108
0000a0 b4 be 82 3e 17 35 66 bd 01 34 c0 3d 3f 2b 83 3c
       0.2553612 -0.056202974 0.09384919 0.016011832
0000b0 d9 8b 07 3e d8 10 8b be d3 c1 7b bd 4a ae b3 3d
       0.13236941 -0.27161288 -0.061464142 0.087734774
0000c0 97 51 a0 bc 02 f8 8f bd 15 22 01 bd f3 e5 3c bc
       -0.019570155 -0.070297256 -0.031526644 -0.011529434
0000d0 6d 6f b8 bd bf cf ca bc ed b0 81 bd 64 91 c2 3d
       -0.09005628 -0.024757264 -0.06332574 0.09500387
0000e0 31 7b 30 be fd 29 ae bb 26 45 bf bd c4 cb 43 be
       -0.17234494 -0.005315064 -0.09339361 -0.19120699
0000f0 5a 37 3f be cb 2c ad 3e 49 a7 9c bd 90 fe fc 3e
       -0.18673459 0.33823237 -0.076490946 0.49412966
000100 09 f8 fd 3c 6b 62 cc bb 0d be bb bd d2 ad a5 3d
       0.031002061 -0.0062373183 -0.09167109 0.08089794
000110 0f 48 a5 be 31 fa 08 3d 60 5c ab 3d c6 2b cb 3e
       -0.3228154 0.033441726 0.083672285 0.39681834
000120 c8 b1 f3 bd a4 99 23 be b7 47 29 be 94 0a ab 3b
       -0.118991435 -0.15976578 -0.16531263 0.005219767
000130 de 0b 27 be 3c 12 56 3d 4b 90 3c be d9 d5 98 bd
       -0.1631312 0.052263483 -0.18414418 -0.07462663
000140 10 f2 89 3b c4 92 47 3d 20 a3 db bc 8a b9 8c 3d
       0.0042097643 0.04872395 -0.026811182 0.06871326
000150 49 99 ba 3c ad 7c f6 bd db 21 50 3d 24 51 d7 bc
       0.02277817 -0.12035499 0.050813537 -0.026283808
000160 94 aa 86 be 6a 26 7b be d9 16 a0 3e f9 e0 06 be
       -0.26302016 -0.24526373 0.3126743 -0.13171758
000170 ac 4e 92 3d 49 63 90 3d 03 ec 87 bd ba e0 c6 bd
       0.07143912 0.07050187 -0.066368125 -0.09710832
000180 c2 b4 60 be 82 61 62 be f3 f4 a6 be 8e cd 96 3c
       -0.21943954 -0.22107509 -0.32608756 0.018408563
000190 e0 30 82 be cf 36 be bd 45 95 d2 bd 51 d0 90 be
       -0.25427914 -0.09287798 -0.10282377 -0.28283933
0001a0 a7 a7 4a 3d 84 da 7c 3e 75 eb 4a 3d f7 4b 1e bc
       0.049476292 0.24692732 0.049540956 -0.009661666
0001b0 f3 ed 9f be 89 01 00 be 2a 88 ac bd 8a 7e 39 3e
       -0.31236228 -0.12500586 -0.08424409 0.18114677
0001c0 85 99 e3 be f9 58 35 3e 1f 31 ef bc 9b 20 bf 3e
       -0.44453064 0.17709722 -0.029198227 0.37329563
0001d0 09 42 12 be 78 d5 7b be d1 cf a6 bd c7 44 75 be
       -0.14283003 -0.2459315 -0.081451066 -0.23952018
0001e0 ad 5e 99 3d 1a 4f 4b bd 71 5d 03 3e 2c 4e 53 be
       0.07488761 -0.049635984 0.12828614 -0.20635289
0001f0 4a 2b 27 bd ca 8c 1a be 8b c7 f3 bd df 65 05 3c
       -0.040812768 -0.1509277 -0.11903294 0.008141964
000200 9b 69 11 3e 7b 63 aa 3e 41 2c ce 3c 03 97 fb bd
       0.14200442 0.33279023 0.025167586 -0.122846626
000210 c1 b7 8a 3d 78 22 fa bd a2 44 11 3f 0c 46 8b 3e
       0.067733295 -0.12213606 0.5674535 0.2720188
000220 18 0e a1 3e 6f 95 d3 be 81 f4 aa 3e d6 73 05 3f
       0.31456065 -0.41324946 0.33389667 0.52129877
000230 02 7d b5 3e 6a c7 c3 3e 4c 2c e7 3c 65 68 41 3e
       0.35446936 0.38238078 0.028219365 0.1888748
000240 dc 48 81 bd 12 5d 84 3e 91 1c 0d 3f 6f b5 d3 3d
       -0.06312725 0.25852257 0.55121714 0.1033734
000250 53 e3 9f 3e 65 74 cb 3d 9e ec 88 bc 31 b8 8f 3e
       0.31228122 0.0993431 -0.01671439 0.28070214
000260 a6 09 8f 3e cc eb d4 3e 41 18 b5 3e a3 cf a7 bd
       0.2793705 0.4158615 0.35370067 -0.081939004
000270 1d 9b e2 be ec 19 e8 3c af 84 cc 3e a7 ad 9c 3e
       -0.44258967 0.028332673 0.3994498 0.30601236
000280 c4 88 9d bd a9 e6 69 3e c1 57 b4 3e a9 47 1d 3f
       -0.076921016 0.22841896 0.352232 0.6143747
000290 88 aa c9 3e 73 f1 27 3f 31 c9 79 3e 32 95 d1 3e
       0.39387918 0.656028 0.24393155 0.4093414
0002a0 05 59 fb 3e a4 90 bc 3e 29 18 7f 3e db e1 0f 3e
       0.49091354 0.36829102 0.2491156 0.14051001
0002b0 09 fe 17 be c8 b6 cb 3d d6 44 dd 3d c0 3c 58 3d
       -0.14843 0.09946972 0.10804145 0.05279231
0002c0 e8 3d 0a 3e 8d d7 8e be 07 b8 4d 3d 29 e1 02 be
       0.13500178 -0.27898827 0.05022433 -0.12781204
0002d0 16 05 35 3e 5b c2 18 be 2e b1 8c 3e 36 82 f9 3e
       0.17677721 -0.1491789 0.27478927 0.48732156
0002e0 90 f0 80 be 85 2f 1f 3e 91 9b 94 3e 7b 51 97 3e
       -0.25183535 0.15545471 0.29024938 0.29554352
0002f0 38 06 8f 3e 2a 9c 1b 3f 5a c0 a0 3d 90 3f 94 be
       0.27934432 0.6078516 0.07849188 -0.28954744
000300 d3 32 94 3e af 02 97 3c e8 7e 49 3e ee 3e 65 3e
       0.28945026 0.018433897 0.19677317 0.22387287
000310 fa b3 63 bc c0 32 0a 3f 8d 33 6e 3e 1e 3d 8f 3e
       -0.01389789 0.5398369 0.23261853 0.27976316
000320 57 79 6f 3e c8 9f 77 3e 44 5a 13 3e f4 de 02 3e
       0.23386131 0.24182045 0.14389902 0.12780362
000330 c6 eb 89 3e 3a 6a 98 3e 97 0e 1e 3e 62 4e d7 be
       0.26937693 0.29768544 0.15435253 -0.4205199
000340 72 b8 1b 3f 8a fc 9d bc 39 ec 49 bd f8 a0 f9 bd
       0.60828316 -0.01928546 -0.049297545 -0.121889055
000350 43 c5 49 3d a1 6c ac 3d a1 6a 92 3d 53 9c 53 3e
       0.04926039 0.08419157 0.07149244 0.20665102
000360 5f e0 98 3d bf 68 2d 3e 6b 2f 9a 3e a1 b7 b2 3d
       0.074646704 0.16934489 0.30114302 0.08726431
000370 32 7d 86 3c 1e fe b5 3e d8 b0 e7 3e 7d eb 4a 3e
       0.01641712 0.3554544 0.4525211 0.19816394
000380 2d 4c 1c be 07 03 b7 be be f9 a5 3d 04 ea 15 3e
       -0.15263434 -0.35744497 0.08104275 0.14640051
000390 d4 a0 82 3e 94 54 91 bb 4b dd 5c 3e 56 1b 0e 3e
       0.25513327 -0.0044351313 0.21568792 0.13877615
0003a0 ea d8 86 bd 27 e7 06 3f b0 d2 1d 3e 82 ee 9b 3e
       -0.06584342 0.5269646 0.15412402 0.30455405
0003b0 97 1d 09 3e 4b 4d bb 3d ee 30 f2 bc da e7 1b 3e
       0.13390194 0.09145602 -0.029564347 0.15225163
0003c0 bf f0 12 3b 49 2b 4d 3e 93 d9 b4 3d 16 b3 02 3f
       0.0022421328 0.20036043 0.088305615 0.51054513
0003d0 78 37 da 3e 07 74 33 bd 72 dd 50 bc b7 98 69 be
       0.42620444 -0.043811824 -0.012748109 -0.22812162
0003e0 96 91 ca bc 0e 0d d1 3e bd b3 37 3e d3 dc 1d bb
       -0.024727624 0.40830272 0.17939658 -0.002408792
0003f0 1f ca 2f 3d c3 84 67 3e 3b 8c 5d bc ba 55 7b 3e
       0.042917367 0.22609238 -0.013522203 0.24544421

network_body._body_endoder.seq_layers.4.bias f4 [128]
000000 eb 31 41 be 42 71 55 be 52 0f 6a bd b4 40 4a be
       -0.18866698 -0.20843986 -0.057143517 -0.19751245
000010 9f 38 b8 3d 49 89 17 be e8 f3 54 be 72 ab 20 be
       0.089951746 -0.14798464 -0.20796168 -0.15690401
000020 1f 39 58 be d5 46 a1 be 4f d6 2f be f1 cb 10 bf
       -0.2111554 -0.31499353 -0.17171596 -0.5656119
000030 8e e0 ea bd 89 24 c1 be fc 83 8c be 05 f1 bd be
       -0.11468612 -0.37723187 -0.27444446 -0.37097946
000040 e2 5c a3 be 3d dc a0 be 96 de 31 be 84 15 53 be
       -0.319068 -0.31418028 -0.17370066 -0.20613676
000050 5d 3b 3b be a6 41 71 3b be 7c 0f be 2c 9c 9e be
       -0.18284364 0.003681281 -0.14012429 -0.30978525
000060 dd 1f 92 be 5c 41 81 be c7 56 85 3e d6 71 dc bd
       -0.28539935 -0.25245178 0.26042768 -0.107639
000070 c6 c6 8e be e7 88 61 be af 94 17 be 7e a7 3b be
       -0.27886027 -0.2202488 -0.14802812 -0.18325612
000080 54 36 e5 bd 99 de 57 be 5b 9d 95 be bf 66 13 be
       -0.11192003 -0.21081008 -0.29221615 -0.14394663
000090 e2 17 24 bd 93 2f fe bd c5 78 5a be e5 dc 76 be
       -0.04006184 -0.12411418 -0.21335132 -0.24107702
0000a0 70 99 97 bd ac ea 74 be 1e c9 1c be 28 8f e2 bc
       -0.07402313 -0.23917645 -0.15311095 -0.027656153
0000b0 68 ba 74 3b 78 ac ad be 2e ff 8f be c1 c0 96 be
       0.0037342552 -0.33920646 -0.28124374 -0.29443935
0000c0 0e e6 36 be bb 77 2a bd 0e 8a 8c 3c cb 15 c2 be
       -0.17861196 -0.04161809 0.017155673 -0.37907252
0000d0 b1 c0 3b bd f1 08 47 bd 7e fd 4b be d9 7a da bd
       -0.04583806 -0.04859251 -0.19920918 -0.106679626
0000e0 17 0c 04 3c cb b8 5e be 61 9e f3 be 60 cc 8c be
       0.008059523 -0.2175018 -0.4758177 -0.27499676
0000f0 12 6e 9e bd 01 30 1e be 36 1e e2 be a9 09 7e bd
       -0.07735838 -0.15448 -0.44163674 -0.06202093
000100 7b 3e cb be d8 05 5d be c9 ee c4 3d 3b db a5 bd
       -0.39696106 -0.2158426 0.09615857 -0.080984555
000110 36 6c 43 be 1a f8 ca bd eb c4 2f be cf 05 b3 be
       -0.19084248 -0.09910603 -0.17164962 -0.3496537
000120 2d 38 a5 be 1d 49 35 be 4b 78 94 be 75 c3 9c be
       -0.3226942 -0.17703672 -0.28998026 -0.30617872
000130 2b 5b 7e be 67 55 34 be 79 c9 3d be b3 6f c5 be
       -0.24839465 -0.17610703 -0.18533887 -0.38561782
000140 6b f4 ac be 31 e5 e7 bd a4 46 88 be 07 4c a6 be
       -0.33780226 -0.11323012 -0.26616395 -0.3247988
000150 a0 bb 8a be 48 14 4d 3c 6a 98 e5 be 0d b5 0b be
       -0.27096272 0.012517042 -0.44842845 -0.13643284
000160 b4 13 ca be 41 6c b6 be 92 43 ab bc 5c 26 04 bf
       -0.39468157 -0.35629466 -0.020906243 -0.5162103
000170 24 e3 ed be 5c dc de bd 8d cc 39 be c4 9f 31 bd
       -0.46462357 -0.10881874 -0.18144436 -0.043365255
000180 d1 9e d5 be f1 0f 99 be 8a be ea be ec d2 77 3d
       -0.4172273 -0.29894975 -0.45848495 0.060503885
000190 bc bb 1b be 2e c8 a1 be a7 67 d0 be 52 83 0d be
       -0.15208334 -0.31598037 -0.4070408 -0.13819626
0001a0 3d 19 fb bd 1f 5b 64 be 07 02 0b be 69 f0 33 be
       -0.12260673 -0.22300385 -0.13574992 -0.17572178
0001b0 0f 00 5e bd 8f b1 03 bf 9f 25 14 bf bc 6b 08 be
       -0.054199275 -0.5144281 -0.57869905 -0.13322347
0001c0 a2 87 83 be 8d 4b 0a be a4 9e 57 be 85 f2 80 be
       -0.25689417 -0.13505383 -0.2105661 -0.25185028
0001d0 a0 20 4d 3e 52 cc b2 be 63 94 6b 3b 4b 2d 93 3c
       0.20031977 -0.3492151 0.00359466 0.017965933
0001e0 9b d7 80 be c0 2d fb bd 8f cd 88 be 49 30 12 be
       -0.25164494 -0.122645855 -0.2671933 -0.14276232
0001f0 5d 20 3c 3d 7f af 00 be 37 2e ce be 01 9d 95 bc
       0.0459293 -0.12566946 -0.40269634 -0.018263342

action_model._discrete_distribution.branches.0.weight f4 [3, 128]
000000 59 6a 6f bd 80 df 0b bd 2d 0d 8c bc 9f 2b 4a 3e
       -0.05845103 -0.034148693 -0.017096126 0.19743203
000010 eb b3 c5 3a 93 cd 8f 3d b3 10 3e be 13 ee 4f 3d
       0.0015083527 0.07021632 -0.18561058 0.050764155
000020 d0 87 3b 3c 1b 47 23 3d 4f 3c 61 bd 01 e3 07 bd
       0.011445954 0.039862733 -0.054989155 -0.033175472
000030 9b 08 56 3e 2c 28 6b 3c 39 27 b4 bc c7 5b 47 3d
       0.2090172 0.014352839 -0.02199136 0.04867151
000040 11 c7 aa bc c0 44 d3 3c d8 a1 28 3d 95 59 f9 bd
       -0.020846875 0.025789618 0.04116997 -0.121752895
000050 6b 88 62 3c 46 d6 3d 3d 20 19 1a bd bd 6e 92 ba
       0.01382647 0.046346925 -0.037621617 -0.0011171919
000060 33 eb 72 bd 5c ae 4f 3d fa 0d 82 3d 0b a1 d4 3d
       -0.059306335 0.05070339 0.06350322 0.10382279
000070 e2 cc 8e bd d1 9b 58 bd 0a 91 39 3d 13 c9 da 3d
       -0.06972672 -0.052882973 0.045304336 0.10682883
000080 a0 3c 66 bd 91 09 8a bd b0 e9 91 3c 26 c4 62 3d
       -0.05621016 -0.06740106 0.017811626 0.055362843
000090 fb cd fa bc 93 63 5f bd 5c 1f 1c bb 00 81 98 3d
       -0.030615797 -0.05453832 -0.0023822403 0.0744648
0000a0 15 21 4f 3e 6d c1 0c 3d 1d d3 f7 bc c3 f0 1c 3d
       0.20227464 0.034364153 -0.030252034 0.038315546
0000b0 69 50 21 3e 2c 35 de bc 58 50 db bd d9 70 b4 3d
       0.1575333 -0.027124964 -0.10708684 0.088105865
0000c0 69 21 04 3d 8a 04 7b 3d db bc bb bd 59 4c 4f 3d
       0.032258425 0.061283626 -0.09166881 0.05060992
0000d0 f3 3e 35 3e 92 48 3d bd 98 38 be 3d 77 73 02 3e
       0.17699794 -0.046211787 0.09288138 0.12739359
0000e0 fb 75 a5 bd 7a e7 db 3d 71 ec 3a bd 38 fb 17 bd
       -0.080791436 0.1073751 -0.045635644 -0.037104815
0000f0 b9 e9 4a bd bf a9 d8 bd 7a 96 34 bd fe 9d b0 bd
       -0.0495393 -0.105792515 -0.044088818 -0.086238846
000100 fa 29 7d bd 8c 8c 55 3d 91 22 fc 3d 77 a5 65 bd
       -0.06180761 0.05213599 0.123112805 -0.056066003
000110 47 54 2c bd e7 1d ce ba ba b1 82 3d 19 2a fd 3d
       -0.04207256 -0.0015725464 0.06381555 0.12361545
000120 9f 29 6a 3c bf 85 06 3e 87 b0 a4 bb f3 4b a9 bd
       0.01429215 0.13136958 -0.0050259265 -0.08266439
000130 f9 e1 8d bd 20 fe b2 bd 63 84 a0 bd 07 4c 85 bb
       -0.069278665 -0.08739877 -0.07837751 -0.004067901
000140 2f 86 32 bd cf bd ce 3d f9 97 33 3e 12 f3 07 bd
       -0.043585 0.10094797 0.17538442 -0.033190794
000150 c6 fa 4c bd 49 65 5c bd 2b 9a 5a 3d 23 05 a1 3d
       -0.050043844 -0.05380753 0.053369682 0.07862308
000160 a1 13 3f bd 4c 02 90 3d e5 d0 2d b9 f3 b0 ac bd
       -0.04664958 0.07031688 -0.00016576385 -0.08432188
000170 28 3e a2 bd d1 7b ae 3d f1 a7 1b 3e c4 c3 c7 bd
       -0.079220116 0.0851971 0.15200783 -0.09754136
000180 ea 02 90 bb 34 7b cd 3d bf f9 c1 bb 98 c3 ab bd
       -0.0043948786 0.10033265 -0.0059196646 -0.08386916
000190 38 83 a9 3d fb 85 ca bb 44 54 0c bd 50 0c 7a bd
       0.08276981 -0.0061805225 -0.03426005 -0.0610469
0001a0 93 9f d3 bc 98 d6 96 3c 8a 2c 87 3c 62 48 ef 3d
       -0.025832927 0.018412873 0.01650073 0.11683728
0001b0 15 23 e4 3d 12 74 18 bd e2 88 5b bd e9 b4 09 3e
       0.11139504 -0.03722007 -0.05359734 0.13447918
0001c0 ce d2 4f 3c 65 f7 dc bd 1b d2 dc 3d 0e e5 5c 3e
       0.012684537 -0.10789374 0.10782262 0.21571752
0001d0 f5 3e 3d 3c c8 e8 29 3c 98 ff ad 3d fb 26 96 3d
       0.011550655 0.010370441 0.08496016 0.07331654
0001e0 8c e0 3b 3e ca 72 07 3e e1 dc 8e 3d e5 6c 8e 3d
       0.18347377 0.13227382 0.06975723 0.06954364
0001f0 4a 2a 25 bd 6c 89 bb 3d aa f7 a4 3d b4 f9 05 bd
       -0.040323533 0.091570705 0.08055051 -0.03270884
000200 7b 6b 76 3c 97 d4 30 3e db 97 4e 3d 88 80 ea be
       0.015040274 0.17268597 0.05043779 -0.45801187
000210 58 8c a6 3d 3e 01 43 be 0c db a3 3d 6b a4 f7 3c
       0.08132237 -0.19043443 0.08000764 0.030229768
000220 10 fb 0c bd 5f 93 93 bc 92 88 02 3e 12 de ee bc
       -0.03441912 -0.018014608 0.1274741 -0.029158626
000230 26 6e 92 be f7 a1 67 be f1 27 04 3e 5f 88 88 be
       -0.28599662 -0.22620378 0.12905861 -0.26666543
000240 b3 97 d3 3c ea e9 26 3c f5 fc dd 3d d2 57 a5 bd
       0.025829172 0.010187605 0.10839263 -0.08073391
000250 43 68 fa 3b 4a 09 f8 bc 15 84 19 3e cb 94 1e 3b
       0.0076418235 -0.030277867 0.14991792 0.0024197574
000260 41 ef 53 3c 9a bc ab bc ed a8 2d be 04 b4 45 be
       0.012935461 -0.020963956 -0.16958971 -0.19306952
000270 56 bf 1b bd 55 70 44 3c 14 97 45 bd ed bc e2 bd
       -0.03802427 0.011989673 -0.048239782 -0.11071191
000280 31 a8 f1 3d b0 52 c5 3d 3b ce 6b be 08 fc 45 3c
       0.11799658 0.09634912 -0.2302789 0.012084015
000290 2d 91 38 3d c4 9d 4f bd 65 20 9d 3d 64 d7 15 3e
       0.045060325 -0.050687566 0.076721944 0.14632946
0002a0 27 30 bc be 5f e4 56 be 29 00 ea 3d 38 17 34 be
       -0.36755487 -0.20985554 0.11425812 -0.17586982
0002b0 c4 29 4e bc d4 5e f8 ba fd 83 4c 3d c0 6c 27 be
       -0.0125832 -0.001894916 0.04993056 -0.16350079
0002c0 93 24 8a bc 85 fa 65 3e 72 0a 97 3d 5e 5a 4e bd
       -0.016863143 0.22458847 0.07375039 -0.05037915
0002d0 43 30 17 be 2d 8f 9e bc ac 73 46 be e0 34 8c bc
       -0.14764504 -0.01935538 -0.19380063 -0.017115057
0002e0 fa 94 4d 3c b7 92 6d be 5c e4 98 ba 16 f3 66 3d
       0.012547726 -0.23200499 -0.0011664736 0.05638417
0002f0 e7 d8 ec 3d a7 68 4a 3e 2d 2d 03 be 1b a0 be bd
       0.11564808 0.19766484 -0.12810202 -0.093078814
000300 34 7b b8 bd 5d 12 60 3d 85 65 cb 3d c1 85 06 be
       -0.09007874 0.054705013 0.09931473 -0.1313696
000310 ad 93 13 bd f6 49 89 bd 2b fc 08 bd 1d 28 3e be
       -0.036029506 -0.0670356 -0.03344361 -0.1856999
000320 5a 11 01 be 51 44 5e be 48 e4 88 3c 0e e1 ce bd
       -0.12604275 -0.21705748 0.016710415 -0.101015195
000330 5b 40 98 3c e1 4a 9f 3d 81 2f fc bd 5b 07 5d be
       0.018585375 0.07777954 -0.12313748 -0.21584837
000340 cd 42 06 bc 13 8d 03 be 0c 73 a7 be bf ce 55 bd
       -0.0081946375 -0.12846784 -0.3270496 -0.05219912
000350 94 e2 e6 3c 80 2d a5 3e 0f 68 04 be dc a1 27 3e
       0.028184213 0.32261276 -0.1293032 0.16370338
000360 3f 2c 0d bc 44 e9 12 bd 49 9f a6 3d 03 8f 3f bd
       -0.008616506 -0.03586699 0.0813585 -0.046767246
000370 e8 e6 36 bd b6 02 91 bb 2c 90 5d bc 2d 4c 14 3e
       -0.044653803 -0.004425372 -0.013523143 0.14482184
000380 5c ae 11 bc 58 b9 b7 bd 10 50 f8 bd c5 cd 4f bb
       -0.008891668 -0.089708984 -0.12124646 -0.0031708342
000390 dc bf 35 bd 6f 7b 8e bd 94 e8 b7 bd c6 12 28 3e
       -0.044372424 -0.06957137 -0.08979908 0.16413411
0003a0 f2 e1 78 bd b2 7c c2 3d 07 d6 a8 3d 86 97 08 bb
       -0.060762353 0.0949644 0.082439475 -0.0020842268
0003b0 0c 3f 06 3d 26 31 7c bb 7a 4b 86 bd 43 91 8c bc
       0.03277497 -0.0038481443 -0.06557365 -0.01715911
0003c0 61 99 0b be 8e 3c 8f bc 22 b7 0e be 65 85 d4 bd
       -0.13632728 -0.01748493 -0.13937047 -0.103770055
0003d0 34 75 c3 bc 70 eb 42 ba 5d 4e 0e 3e 4d a4 7f bd
       -0.023859598 -0.00074355956 0.1389708 -0.06241255
0003e0 09 5b 87 be db 51 c2 be 72 ac ae bd 09 24 04 bd
       -0.26436642 -0.37953076 -0.08528985 -0.03226093
0003f0 b9 3c d8 3d 53 34 57 be e9 16 87 be 1b f4 86 3d
       0.10558457 -0.21016054 -0.26384667 0.06589528

action_model._discrete_distribution.branches.0.bias f4 [3]
000000 a2 c3 c7 bc da a1 11 3f 3f 70 0b bf
       -0.024385277 0.5688759 -0.5446815

action_model._discrete_distribution.branches.1.weight f4 [3, 128]
000000 bb 9e 07 3b 45 77 88 3d 25 83 bd 3d 84 e9 6c 3d
       0.0020693976 0.06663374 0.092535295 0.057839885
000010 a7 5c 36 ba 25 a1 83 3b 0f ae b5 bd c8 7c 99 3b
       -0.00069565553 0.0040170127 -0.0887109 0.0046840645
000020 1d 57 86 3c 72 4f d2 bd 94 2b ad bd 2d 06 f3 ba
       0.01639896 -0.10269059 -0.084555775 -0.0018541269
000030 f2 ce c8 3c 7f 5a 14 3e 8a 0c 7f bd 7e 43 cb 3c
       0.024512742 0.14487647 -0.062267818 0.024812456
000040 a8 98 8c bd b6 86 d7 3b d5 10 84 3c 41 8e 1d 3c
       -0.06865054 0.006577338 0.016121307 0.0096164355
000050 47 26 90 bc dd ba 4e 3e 40 c7 89 3d 0d 23 06 bd
       -0.017596377 0.2018847 0.06727457 -0.03274827
000060 bf 1b de bc 83 30 8e bd 40 ff db 3c eb 23 21 3e
       -0.02711284 -0.069428466 0.026855111 0.15736358
000070 6b a6 4f 3c a9 a9 da bd b7 45 d6 bc 34 20 b9 bd
       0.0126739545 -0.10676891 -0.02615629 -0.090393454
000080 e5 fb 0c be 0f 9c 9b 3d 0e 6b f9 3d 0f 6d e0 bd
       -0.13767965 0.07598125 0.12178622 -0.10958301
000090 31 1e 1c be 46 82 d3 3d 44 16 6c 3c bd 12 23 bc
       -0.15245892 0.10327582 0.014409605 -0.009953198
0000a0 74 cc f3 bd 97 68 57 bc 64 8e dd 3c ce d3 16 3e
       -0.11904231 -0.013147495 0.027045436 0.14729235
0000b0 60 d7 cf bd 53 51 02 be d0 7a 02 3e 0c ae 40 bd
       -0.101485014 -0.12726335 0.12742162 -0.047040984
0000c0 8b f9 8b bd e3 a9 b6 3d 24 f8 bd 3d 3c a3 a1 3c
       -0.06834706 0.08919122 0.09275845 0.019731157
0000d0 cf 38 cf 3c 47 a6 c8 3d 3e b7 03 bd 0c ed be 3d
       0.025295643 0.0979734 -0.032157175 0.09322557
0000e0 65 17 d0 bd be ec aa bd f6 a1 86 b9 d2 29 12 3c
       -0.10160712 -0.08345936 -0.00025679142 0.008921104
0000f0 42 75 e9 b9 40 cf 95 bb 30 d0 b4 bc f1 2e ad 3c
       -0.00044528587 -0.0045718253 -0.022071928 0.021140547
000100 91 e8 f1 3d 59 2e df 3d 88 3d 44 bb 9b 8e dd bc
       0.11811937 0.10897512 -0.0029943902 -0.027045539
000110 3d 97 27 bd e3 7a 62 3c 0b a7 b0 3b bb 3e b7 bd
       -0.040915716 0.013823244 0.005391007 -0.08947512
000120 6c 51 1e bc 3f 88 fa 3c e8 01 a5 bd 15 24 1e bd
       -0.009662967 0.030582545 -0.08057004 -0.03860863
000130 f7 bd 2b 3e 7f 84 21 3e e7 c6 b3 bc a8 4b 8a 3d
       0.16771685 0.157732 -0.02194543 0.067527115
000140 66 37 57 bd 95 d7 44 bd b6 34 8f 3d 18 db b0 bd
       -0.052543066 -0.048057158 0.06992476 -0.08635539
000150 da 4c bc bd 53 a8 65 3c 5a 2a a0 bd 12 d0 8b bc
       -0.09194346 0.014017182 -0.07820578 -0.01706699
000160 49 93 75 bd 0d ef e8 bc 0d 7e e0 bd 57 19 cb bc
       -0.059954915 -0.0284343 -0.10961542 -0.024792356
000170 ff 88 ba bc 74 1f 2b be 47 5c 39 be 6e 03 82 3d
       -0.022770403 -0.16711217 -0.18101607 0.063483104
000180 f9 cf 87 bd ca b6 1c 3e ce 41 72 bc 6a 91 19 3e
       -0.066314645 0.15304103 -0.014786197 0.14996877
000190 39 b7 1a 3e 42 d1 0a bd 75 93 ae bd 4d 05 0e bc
       0.15108956 -0.03389097 -0.08524219 -0.008668256
0001a0 66 5d a7 3d 2d 9e 0c 3d 52 1f 24 3d 2d 19 20 3c
       0.08172111 0.034330536 0.040068932 0.009771627
0001b0 df da 54 3e fe 22 8d bd c1 e4 05 bb ca 66 27 3d
       0.20786618 -0.0689144 -0.0020430537 0.04086951
0001c0 1e 6f 73 bd 97 3e a2 bd b3 98 3a bd 9e 7e df bc
       -0.05943214 -0.07922094 -0.04555578 -0.027282055
0001d0 04 8d f5 bd 9d e2 93 bd b8 ea 78 3c 96 93 13 3e
       -0.11989787 -0.072209574 0.01519268 0.14411768
0001e0 a9 f3 b4 bd de 83 e6 3d 38 66 f9 bd 1b 05 12 3e
       -0.08835537 0.112556204 -0.121777 0.1425976
0001f0 76 28 2b 3e c5 a2 ab 3d 64 cf a0 3d 6b 6d 57 3e
       0.16714653 0.08380655 0.078520566 0.21037833
000200 ff a3 4d bd 32 ee 44 3c 31 8e 19 be e2 ff 0f 3c
       -0.050205227 0.012019681 -0.14995648 0.008789035
000210 16 8d 3d 3e 26 9e bb bb 4e ee 8d 3e 0b 6a e5 bd
       0.18510851 -0.00572564 0.27720875 -0.11201867
000220 68 f9 2c 3e 48 94 0e bd 54 a4 11 3e 18 22 15 bd
       0.16892016 -0.03480938 0.14222842 -0.036409467
000230 8a 1c 4c be a1 4a 01 be 16 78 18 3e 2b 68 38 bd
       -0.19932762 -0.12626125 0.14889559 -0.045021217
000240 5d e3 23 bd 11 1f a5 3d 82 f6 d2 3d 0d c4 5c bc
       -0.040011752 0.08062566 0.10300924 -0.0134744765
000250 96 da 33 3e d2 fc 22 be 30 93 39 3e ad 33 7c bd
       0.17563853 -0.15916756 0.18122554 -0.06157272
000260 b6 14 59 bd f9 3f ba 3a 19 11 b4 bd a6 d6 81 bd
       -0.052998267 0.0014209739 -0.087923236 -0.06339769
000270 c4 f9 24 bd 06 fd 2f bd 66 a4 88 bc 10 70 33 3e
       -0.040277258 -0.04296591 -0.016679954 0.17523217
000280 ec 18 dd 3c 56 49 92 bd 1b 38 b7 bd b3 1b 48 3e
       0.026989423 -0.07142894 -0.08946248 0.19541816
000290 91 6a 29 bd 31 91 39 3d f9 4e 72 3e 7d 8d 4e 3d
       -0.041361395 0.04530448 0.23662938 0.050427902
0002a0 3c 19 b4 3d 4d c7 41 3d a9 40 02 3d ad 0c e5 be
       0.087938756 0.04730921 0.031799946 -0.44736233
0002b0 37 ae 84 3e 8e 6d e1 3d 11 03 53 be 0e 28 8b 3c
       0.25914165 0.11007224 -0.20606638 0.016986873
0002c0 6b f8 90 3c 09 09 f8 bd ae b3 ae 3c fc 71 e3 bc
       0.01769658 -0.12111098 0.021325912 -0.027764313
0002d0 25 de c2 3d 56 24 2e be 6d ec 5a bd 4b d0 e6 bc
       0.09515027 -0.17006049 -0.05344813 -0.028175494
0002e0 5e 65 b6 bd 87 d8 c4 3c 0d ec 6b bd 1d 05 c2 bd
       -0.08906053 0.02402903 -0.057598162 -0.094736315
0002f0 1f e4 98 bd e6 8d 18 bd 76 68 70 3c 6d 25 82 bd
       -0.07465386 -0.0372447 0.014673343 -0.06354795
000300 4a 9a df bb 2a 3b 18 be 02 cd 6a bd f8 5d b8 3c
       -0.0068238126 -0.1486632 -0.057324417 0.022505745
000310 b2 94 85 bd 40 ec 40 be f7 9b c7 bd 0c 71 e8 3d
       -0.06522502 -0.18840122 -0.09746545 0.11349687
000320 f6 ad bb 3d aa cd 04 3c 95 09 49 bc ef ce 35 bd
       0.0916404 0.008105675 -0.012270351 -0.0443868
000330 bb d3 87 bd 42 b3 9a bd 23 3d 0c be 06 66 d5 bd
       -0.06632181 -0.07553722 -0.13695197 -0.1041985
000340 76 21 db bc b3 26 c5 bc 95 ef 7b bd 56 5d be 3d
       -0.026749354 -0.024066305 -0.06150778 0.09295146
000350 09 9f 48 3d b9 f2 4e 3c e8 b3 07 3e 93 90 3b 3e
       0.048979793 0.012631112 0.13252223 0.1831687
000360 40 3c b1 bc e6 d8 a3 3d cd fb cb bd 49 9e 21 bd
       -0.021635175 0.080003545 -0.099601366 -0.039457593
000370 7f 23 89 bd 19 a1 58 3b b4 50 5a 3c de fa 81 3d
       -0.066962235 0.0033055006 0.013324905 0.06346677
000380 c1 c0 df 3b 03 7c 2d 3e 1a b8 6d 38 8d 91 01 bc
       0.006828398 0.16941838 5.667666e-05 -0.007908237
000390 19 5c 51 be 7d 77 ec 3d 6b e1 b7 3d fb ee 13 3e
       -0.20445289 0.11546228 0.08978542 0.14446633
0003a0 b8 8a 31 be 7a 54 c5 bd 5e b1 98 3d dd 4e 82 3e
       -0.17338073 -0.09635253 0.07455705 0.25450793
0003b0 e3 41 bd bd cc db 47 bd 0d d8 5b bc 80 8c f9 bd
       -0.092410825 -0.0487936 -0.01341821 -0.121850014
0003c0 f0 59 55 3e 5f 45 ba 3d f4 f7 a4 bd af 9c 20 bd
       0.2083509 0.09095263 -0.08055106 -0.039211925
0003d0 6d 69 47 3d 8a d7 a4 bc 7c 99 10 be 62 16 20 3e
       0.048684526 -0.020122308 -0.1412105 0.15633538
0003e0 55 95 1f bd d8 60 cd bc 0a c7 8f bb 74 9a 3e be
       -0.038960773 -0.025070593 -0.004387741 -0.18613607
0003f0 d9 26 a2 3d a6 5b 4d bd b9 d7 d9 3d 3b 22 75 be
       0.07917566 -0.05013623 0.10636849 -0.23938839

action_model._discrete_distribution.branches.1.bias f4 [3]
000000 62 07 9e 3d f8 c7 93 bc 6a dc bd bc
       0.07716252 -0.018039688 -0.02317639
