results/Barcelona-Video-Test1/MoveSomewhere.onnx (onnx, 617586 bytes, 11 tensors)

action_model._discrete_distribution.branches.0.bias f4 [3]
000000 30 ef 1e bc 9f ac 03 3d cb 0c e3 bc
       -0.009700581 0.032147046 -0.027716061

action_model._discrete_distribution.branches.0.weight f4 [3, 256]
000000 64 2b 3d 3c 0c 40 f0 3b 1b 59 8e 3c ff 12 e9 3b
       0.01154599 0.0073318537 0.017376473 0.00711286
000010 26 ed cf 3b 6e 57 1b 3c 2e 55 d3 3b 9e 94 34 3c
       0.006345409 0.009481294 0.006449363 0.011021761
000020 90 f1 19 3c e0 77 b0 3c 06 c7 5f 3c 8a 87 04 bc
       0.009395972 0.021541536 0.013658291 -0.008088956
000030 29 7a a6 3b 76 11 6f 3b 22 2e fc 3a 66 26 25 bb
       0.0050804806 0.0036478913 0.0019239823 -0.002519989
000040 82 c9 80 3c d2 b9 54 bc ca 29 65 3c 46 8f fe bb
       0.015721086 -0.012983756 0.013987014 -0.0077685444
000050 62 01 92 bb c0 b8 0b 3b 6d 54 d1 3b df 1c cd 3c
       -0.0044557313 0.0021319836 0.006388238 0.02503818
000060 c4 b4 b2 ba f9 9a b9 3b db 41 8b 3b 23 a6 53 3b
       -0.0013634195 0.005664226 0.004249794 0.003229507
000070 09 48 00 3b db 70 17 3b 2d 5e db 3b 36 13 40 3c
       0.0019574186 0.0023108039 0.0066945762 0.01172333
000080 3b fe 16 3c 9b cf 4e bc 94 f7 24 bc 3d da 23 3c
       0.009215887 -0.012622739 -0.010068793 0.0100007625
000090 71 fd 06 3c e1 e2 71 3b ec c3 69 3c c6 e6 f5 bb
       0.008239136 0.0036908912 0.014267903 -0.007504317
0000a0 41 1c 21 3c e0 3b 3b bc 37 88 98 3c 18 b3 44 bb
       0.009833396 -0.0114278495 0.01861964 -0.0030013975
0000b0 9a 55 c3 3c fc 89 12 bc e6 36 c7 ba 6a 53 90 3c
       0.023844529 -0.008944031 -0.0015198856 0.0176179
0000c0 29 77 bf 3b 7c d2 25 3b 31 ad 1f bc 5a f0 12 3c
       0.0058430624 0.002530246 -0.009745882 0.008968437
0000d0 0d 07 09 bb ec bd 34 3c bf c9 15 3c b5 c7 83 bc
       -0.0020908744 0.011031609 0.009142338 -0.016086439
0000e0 97 6e de ba b2 b5 4b ba 55 63 22 3c 8b 84 02 bb
       -0.0016970214 -0.000777091 0.009911378 -0.0019915428
0000f0 21 7f 9b bb ed 9b 10 3c 8f f9 91 3c 45 66 bc bc
       -0.0047453796 0.008826238 0.017819194 -0.022997985
000100 05 2a 6b 3c 2f 18 9e bb 65 9c db 3a 28 02 d8 ba
       0.01435328 -0.0048246603 0.0016754983 -0.0016480135
000110 8d 75 fa 3b 2e ab ca 3b fd 08 7f 3b d9 71 4a 3c
       0.0076434077 0.006184957 0.003891527 0.012356245
000120 f0 40 0c bb ec 7a 95 3b 06 ed 1a bb b7 9b 43 3c
       -0.002140101 0.0045617726 -0.0023639812 0.011938981
000130 60 fb 29 37 8c e9 a8 3b 6c d8 87 3c a3 e1 81 bb
       1.0131713e-05 0.005154794 0.01658269 -0.0039636656
000140 10 09 36 bc af 17 b9 3c ea c5 00 3d 9f 24 d2 bb
       -0.011110559 0.022594301 0.031438746 -0.006413057
000150 57 32 41 3c a8 b0 d0 bc 6e e7 9e bc 39 17 23 3b
       0.011791787 -0.025474861 -0.019397464 0.0024885668
000160 06 68 0c bb 3f 6b 82 3a c3 73 10 3c 09 3d 2e 3c
       -0.0021424307 0.0009950175 0.008816662 0.010634669
000170 24 59 15 39 5c 8f 3d bb 05 c5 88 3c 2b 8e 22 3c
       0.00014242955 -0.002892456 0.016695509 0.009921591
000180 57 96 ba 3a 4c 89 da bb 18 f5 8e 3b 30 93 8c 3a
       0.0014235479 -0.006669199 0.0043627135 0.0010725018
000190 fe 60 49 3c d3 98 39 bc 43 68 80 bc bf 69 f5 3b
       0.012291191 -0.01132794 -0.015674716 0.0074894126
0001a0 93 fb 2d 3c 38 0a ad 3a f0 4b 30 3b 11 60 67 3c
       0.010619062 0.0013201898 0.002690073 0.014122025
0001b0 78 a9 3c 3c 7d db b8 3b 31 46 95 3c 65 3f 98 3c
       0.011515014 0.0056413994 0.018221946 0.018584916
0001c0 11 e5 21 3b 78 53 d2 37 36 d0 de 3a 9e 23 fd 3a
       0.0024703185 2.5072819e-05 0.0016999308 0.0019312983
0001d0 a0 4a 70 3c 85 02 9a 3b 2a b5 ba 3b a2 0d 04 bc
       0.0146662295 0.0047000074 0.005697866 -0.008059891
0001e0 f4 02 be 3b b5 d3 36 38 fb 6e 9c bb 4c 85 df bb
       0.005798692 4.358935e-05 -0.004773972 -0.00682131
0001f0 b5 c3 9a 3c 41 52 8a bc df 1e 86 bc 48 58 f8 bb
       0.018892149 -0.016884925 -0.016372142 -0.0075788833
000200 d0 9a 0a 38 34 c3 b9 3c 31 70 3c 3c 02 22 e9 3b
       3.3045944e-05 0.022676088 0.011501358 0.0071146498
000210 25 5c 14 bb 71 e2 84 3b 87 a0 55 bc 4b d3 24 3c
       -0.002263793 0.004055314 -0.013038761 0.010060142
000220 49 2c c3 ba 76 fa 3e 3c 60 1e 9a 39 81 2d 0f bc
       -0.0014890517 0.011656394 0.000293958 -0.008738876
000230 42 7d 8c 3b 3d cf ba ba e8 84 0f ba bb 13 1c 3c
       0.004287393 -0.0014252436 -0.00054748217 0.0095261885
000240 b8 bd b2 bc cb 82 9e 3b 98 40 1e 3c 52 37 cf bb
       -0.02181898 0.004837369 0.009658955 -0.0063237334
000250 2c 60 04 3c 11 2d 05 bc 34 ba aa 3c c4 a5 99 3c
       0.00807957 -0.00812842 0.020840742 0.018755801
000260 c3 50 f9 3b ca 28 e6 ba f4 90 fb ba 30 ec dd 3a
       0.0076085045 -0.0017559764 -0.001919298 0.0016931351
000270 bd 89 28 3b 84 81 97 bc de f0 c8 3a 58 eb ce 3b
       0.0025716864 -0.018494375 0.0015330573 0.0063146763
000280 77 97 dd 3b 70 e8 de 3b d1 c6 a1 ba a5 f9 93 3c
       0.006762441 0.006802611 -0.0012342577 0.018063376
000290 13 a5 01 3c 25 73 e1 3b c0 db 67 bb 80 00 16 3c
       0.007912892 0.0068801814 -0.0035378784 0.009155393
0002a0 af 52 b6 bb 0c 0e d6 bb 05 23 56 3c fc 89 cb 3b
       -0.005564056 -0.0065324362 0.013069873 0.0062115174
0002b0 51 8e 91 3c af fb 3e bb 4a 0a 14 3c 18 b4 10 3c
       0.017768057 -0.0029141714 0.009035656 0.008832
0002c0 46 b6 02 39 a3 a9 41 3b 97 57 8a bb dc 0f 3c 3c
       0.00012465668 0.0029550574 -0.0042218673 0.011478391
0002d0 8c f9 2d b9 cf 03 21 3b 81 68 29 bc 5c 8e a6 3b
       -0.00016591529 0.002456892 -0.010339857 0.0050828885
0002e0 a7 0e ff 3b b8 57 40 3c 6f 95 91 ba 5c 73 38 39
       0.007783729 0.011739664 -0.0011107157 0.00017590582
0002f0 79 9d f8 3b 6d e6 3c 3c c7 f4 60 3c e8 b3 57 3c
       0.0075871316 0.011529547 0.0137302345 0.013165452
000300 b4 38 83 3c d9 24 cc 3b 14 db f3 3b 00 b3 e0 3b
       0.01601825 0.0062299785 0.0074418876 0.006857276
000310 36 ba 23 3c d0 d4 f8 bb ae ca ed 3a 96 6c c4 3c
       0.009993127 -0.0075937286 0.0018142068 0.023977559
000320 df ec 31 bb 49 54 14 bb af d1 b6 bb ac 6d d0 ba
       -0.0027149243 -0.0022633246 -0.0055791955 -0.0015901825
000330 59 03 f2 3b dd 50 3a bc da ca 98 3b fc 9f 0b bd
       0.007385653 -0.011371818 0.0046628537 -0.03408812
000340 21 43 91 3c 23 8f 3e 3c 94 29 a3 3c 62 f1 16 bc
       0.017732205 0.011630806 0.019917287 -0.009212824
000350 8d a9 65 3c 7d d1 8c bb 7c 56 e3 3b 0c 62 09 3b
       0.014017475 -0.004297434 0.0069378 0.0020962982
000360 c5 d6 9e bb f7 35 7a 3c 1e 09 f5 3b ff 04 a0 bb
       -0.00484738 0.015271655 0.0074778935 -0.004883408
000370 a5 ab 22 bb 18 d0 38 3c 72 80 b4 bb ca 8a 3e 3c
       -0.0024821546 0.011280082 -0.005508476 0.01162977
000380 f1 69 cf 3b 7a 5d 14 bc f4 28 11 3b 36 76 c8 3b
       0.006329768 -0.00905549 0.0022149654 0.0061176075
000390 42 26 cc 3b 20 f7 29 bb b7 cd 96 3b 5b f9 df 3b
       0.0062301466 -0.0025934651 0.00460216 0.0068351454
0003a0 d1 1f 9b bb 53 55 b0 ba ce 49 e9 3b c3 c3 89 3b
       -0.0047340174 -0.0013453163 0.007119394 0.004204245
0003b0 7c 51 3a 3c 9b ad 09 bc e0 db 32 38 81 9a 91 3b
       0.011371966 -0.008403207 4.264328e-05 0.004443467
0003c0 e2 c6 cb 39 18 00 98 3b 5c f6 24 3c 01 f2 a5 3b
       0.00038867356 0.004638683 0.010068502 0.0050642495
0003d0 72 2e 8d bc 88 96 24 3b 38 2a 39 ba 21 7b 4b bc
       -0.01723406 0.0025114138 -0.0007063481 -0.012419493
0003e0 3c 1d 71 bc a4 30 a4 bc 49 87 8a 3b 3f ff a5 3c
       -0.014716443 -0.020042725 0.004227553 0.020263312
0003f0 b8 c7 c9 3b eb e4 0b bb 44 33 19 3c b2 46 3f 3c
       0.0061578415 -0.0021346163 0.009350602 0.01167457

action_model._discrete_distribution.branches.1.bias f4 [3]
000000 aa 9f 12 bc 7a 15 13 3c 9a f7 72 3b
       -0.0089492 0.008977288 0.0037073852

action_model._discrete_distribution.branches.1.weight f4 [3, 256]
000000 c4 7a eb 3b 97 e4 9d 3c 16 be 8e 3b d8 a7 1a ba
       0.0071862657 0.01927404 0.004356156 -0.00058996445
000010 23 23 b1 bc 76 9e ee 3b da 03 bd 3b dc 8b 91 3b
       -0.0216232 0.0072820736 0.0057682814 0.0044417214
000020 f1 78 0a 3b a0 ce ce 38 46 3a 57 bc c0 a6 90 3c
       0.0021129216 9.8613324e-05 -0.013136452 0.017657638
000030 e4 04 6e bb a2 42 95 bc a6 07 0e bc 22 63 22 3c
       -0.0036318833 -0.01822025 -0.008668816 0.00991133
000040 47 85 35 3c d0 58 0c 3c 4f cd a2 bc 0e 9f e1 3c
       0.011079139 0.008566096 -0.01987329 0.027541663
000050 20 7e aa bb 7a fd 15 3c 5a 9e 18 3c 6c 9b a1 3c
       -0.0052030236 0.009154672 0.009315098 0.019727431
000060 59 72 58 3b 7f 03 9b bc 24 f4 a7 bc c6 72 29 3c
       0.003302714 -0.018922566 -0.020502158 0.0103423055
000070 66 32 8f bc 9f 89 df 3c 7a a7 8c 3c b9 e0 44 bb
       -0.017480087 0.027287303 0.017169703 -0.0030041172
000080 d3 77 9f bc d1 39 1a bb c5 82 bb 3c ab ca da bb
       -0.019466316 -0.0023532996 0.022889504 -0.006676992
000090 c6 4c 29 bc c6 0d 7d 3c 60 b7 1e bb b6 93 2b 3c
       -0.010333246 0.015445178 -0.0024218187 0.010472229
0000a0 9b a9 9e 3c 59 30 c4 3b 9c 3f 7c 3c 4c 65 b4 3b
       0.019367984 0.005987209 0.015396025 0.0055052396
0000b0 77 57 eb bb ce c2 de ba 36 66 6c bc c8 16 11 bb
       -0.0071820575 -0.0016995312 -0.014428666 -0.0022138823
0000c0 ca fd b1 3b d3 ac 28 3b c9 79 c4 bc fe e8 88 3c
       0.0054318653 0.0025737777 -0.023983853 0.016712662
0000d0 d4 60 2d 3c c1 92 b1 3b 04 0b 8c 3c 54 c4 0b 3c
       0.010582168 0.0054191058 0.017095096 0.008530695
0000e0 52 b6 71 bc 39 15 88 3c 46 fb aa 3b ca ef b8 bb
       -0.014752941 0.016611682 0.0052179424 -0.0056438195
0000f0 ad 67 c6 3c 6a 6e 58 3b 13 8d ff 3a 0b f5 84 3c
       0.024219358 0.0033024796 0.0019497 0.016230127
000100 7e 7e f2 3c e3 56 21 bb c3 fd a3 3b 3e d1 20 bb
       0.029601332 -0.002461844 0.005004616 -0.002453878
000110 8c 47 dd bb 4a 95 5e 3b 76 37 4b 3c ca a2 19 bb
       -0.006752914 0.0033963495 0.01240336 -0.0023442977
000120 9f 30 92 bb 10 47 74 3b 7e ce fc bb e9 2d d6 bb
       -0.0044613625 0.0037273802 -0.0077150455 -0.0065362346
000130 74 d1 12 3c 15 b3 ce bb 03 74 1c bb 96 82 ce ba
       0.00896107 -0.0063079693 -0.002387286 -0.001575547
000140 e8 ce b8 bb 35 ce bd 3b a9 ba 41 bc b4 5c 5a 3a
       -0.0056398995 0.005792404 -0.011824288 0.0008329854
000150 fd 0d 03 ba 1c 80 ca 3c 28 de 38 3c 78 db ad b9
       -0.0004999338 0.02471929 0.011283435 -0.00033160648
000160 fc c2 68 bc 33 1c cc 39 bd d9 1c bc 48 f7 b8 3c
       -0.014206644 0.00038930922 -0.009573397 0.02257885
000170 40 c6 20 bc b1 ec 57 3c 18 3b cd 3a d6 3d 03 3c
       -0.0098128915 0.01317899 0.001565787 0.008010348
000180 0a 06 3f bc cf 8e e6 ba 27 43 04 3a ca e3 17 3c
       -0.011659155 -0.0017590168 0.0005045407 0.009270618
000190 f7 e0 26 bc eb b8 15 bc b8 db 39 bb c8 bc 0f 3c
       -0.010185472 -0.009138326 -0.0028359722 0.008773036
0001a0 c4 00 f0 3b 18 53 2c 3c a6 ad 96 bb 7b 28 49 3c
       0.00732431 0.010517858 -0.004598337 0.012277718
0001b0 f4 4c b5 39 43 7d 29 3c 0d 38 bb 3b 27 2d 1f ba
       0.00034580345 0.010344806 0.005713469 -0.0006072097
0001c0 a1 52 aa 3b ae fb ec 3b 9c 31 99 3a 7c a4 fd 3b
       0.0051978384 0.007232151 0.0011687758 0.0077405553
0001d0 3c 7d 93 3b ea e4 8f 3c b2 b1 07 39 1f 84 41 3c
       0.004501013 0.01756521 0.000129408 0.011811285
0001e0 e8 52 d0 3c 87 79 b0 3c ff 1a 45 3c 08 d8 39 bc
       0.025430158 0.021542324 0.012030362 -0.01134301
0001f0 53 23 89 3c c1 c0 22 bc 4b e6 a8 bc 71 c3 43 bc
       0.016740477 -0.009933651 -0.020617625 -0.011948452
000200 c5 41 d0 bb 5c d3 c8 3b f3 5a 01 bb df 8d 1b 3b
       -0.0063554966 0.0061287116 -0.0019738048 0.0023735685
000210 31 fd d9 3b d2 b5 3b bb cc bc 3b 3c 6e b8 4e 3c
       0.006652497 -0.002864231 0.011458587 0.012617214
000220 2b e3 29 bc 4a 99 db ba 20 96 94 3b 9b 34 a6 3c
       -0.0103691025 -0.0016754058 0.004534498 0.020288756
000230 58 91 00 3c bb 02 29 39 fc 05 cb bb 7f 46 f3 bb
       0.007847153 0.00016118113 -0.0061957818 -0.0074241753
000240 26 6e e3 bb 7c df 81 bc 46 a8 d2 bb 5e bd 44 bb
       -0.006940621 -0.015853636 -0.006428751 -0.0030020098
000250 08 d6 9a bb 86 f4 1c 3c f9 09 96 3b 6c 98 89 3c
       -0.0047252215 0.009579783 0.0045788256 0.016796313
000260 46 85 4e 3c c2 2e 86 3c 1a 31 bf 3a 03 9f 3e 3c
       0.012605017 0.016379718 0.0014586777 0.011634591
000270 59 0a 28 3c b0 6e 24 3c 6b e5 3f 3c dd f6 66 3c
       0.010256373 0.010036156 0.011712412 0.014096943
000280 97 2d b7 3c ca c9 8a ba 08 84 e4 bb 89 9d e0 3c
       0.022360606 -0.0010588702 -0.006973747 0.027418869
000290 93 89 e7 3b 3a 2e 11 3c b6 2b 92 3b b9 b9 72 3c
       0.0070659607 0.008861119 0.004460777 0.014814788
0002a0 99 62 17 bc 90 df 2a bc 90 f8 47 bb f0 48 8b bb
       -0.009239816 -0.010429278 -0.0030513145 -0.004250638
0002b0 bc dd 40 3c ab a7 13 bc f9 8c 05 bb 21 8a 72 3c
       0.011771616 -0.009012143 -0.0020378216 0.01480344
0002c0 00 86 ab b7 46 9a 0e bc f7 a3 b3 3b b3 5c 71 bb
       -2.0447187e-05 -0.008703774 0.0054821926 -0.0036828935
0002d0 96 39 ce ba 1a 99 9e 3c 4b 72 6c bc db 55 d8 3b
       -0.0015733715 0.019360114 -0.014431546 0.0066020316
0002e0 18 80 76 3c a5 e4 1b 39 5a 2a 59 bb 28 00 bd bb
       0.015045188 0.00014867129 -0.0033136816 -0.005767841
0002f0 e8 e2 1d 3c fe 29 9f 3c e9 47 5e bc 96 97 cb bb
       0.009636618 0.019429203 -0.013566949 -0.006213139
000300 d4 a7 74 3b 54 9c 75 3a 28 e9 4b bb a0 0a 46 3c
       0.0037331479 0.0009369303 -0.0031114314 0.012087494
000310 4b 39 36 3c 7b 27 e0 bb 28 02 89 38 a7 38 bc 3c
       0.011122058 -0.006840644 6.533071e-05 0.022976233
000320 84 4b b6 bb 12 6c 9f 3c c1 a1 29 bc 59 9b 8e 3b
       -0.0055632014 0.019460712 -0.010353507 0.004352015
000330 53 3e 20 bb 1c 84 44 bc 3e 75 48 3c 82 6f 8a bb
       -0.002445121 -0.011994388 0.012234984 -0.0042247185
000340 ad 2c 14 3a 3a 87 6e 3c 09 3e eb bb cc fe a4 3b
       0.0005652409 0.014558608 -0.007179026 0.005035257
000350 3c 2a 46 3b 86 42 ea ba fd e7 74 b9 f2 3d 8b 3b
       0.0030237576 -0.0017872609 -0.00023356076 0.004249328
000360 06 0a fc 3b b4 f2 0a 3a 6e 88 2a bc 8f 40 7f 3c
       0.0076916246 0.0005300448 -0.010408504 0.015579357
000370 b6 f5 8e 3c 95 fe 8b 3a 40 dd ee 3b b6 93 e2 3b
       0.017451148 0.001068073 0.0072895586 0.006914581
000380 27 5f 77 3b fe f1 2a 3b 5b 88 b4 3c 9f 1c 80 3a
       0.0037745924 0.002608418 0.022037676 0.0009774155
000390 31 47 10 3b ec 7e 2d 3c 2a ab 39 bc 12 1c 55 bb
       0.002201509 0.010589343 -0.011332313 -0.0032517952
0003a0 f6 85 20 3c 34 d3 ab 3c 2d 0f 4e 3c e9 16 35 3c
       0.009797564 0.020974733 0.01257686 0.0110528255
0003b0 a1 e4 e2 3c 0d 13 85 bc 9d 22 84 3b 91 2d ec 3b
       0.02769691 -0.016244436 0.0040324465 0.0072075804
0003c0 bf c0 08 3d 83 2f 6b 3c 42 08 44 3c b5 15 ce 3c
       0.033386942 0.014354589 0.011964859 0.025156835
0003d0 58 bd ec bb fd b5 81 3a 73 21 2e 3c 37 72 cc 3b
       -0.00722472 0.0009896156 0.010628092 0.0062392014
0003e0 4e d2 9d 3a 77 ef bc 3c 7f 1c 4b 3b 02 2b 48 3c
       0.0012040825 0.023063404 0.0030992327 0.012217285
0003f0 4f d6 3b 3c 18 1a dc 3b 41 a3 09 bb a4 ef 2c bb
       0.011464669 0.006716978 -0.0021001848 -0.0026387954

discrete_action_output_shape f4 [1, 2]
000000 00 00 40 40 00 00 40 40
       3.0 3.0

network_body._body_endoder.seq_layers.0.bias f4 [256]
000000 d6 ad fc 3b a7 11 39 3c b6 52 22 bd 3b 52 09 bd
       0.0077111525 0.011295713 -0.03962966 -0.033525687
000010 cf bc 2b bc 09 a3 d8 bb 73 4e fd 3b 64 e3 e3 b9
       -0.010482027 -0.006611232 0.007730299 -0.00043466233
000020 b6 22 08 bd 87 71 24 bc c3 c4 59 bc 9c b9 4f 3c
       -0.033236228 -0.010036833 -0.013291541 0.01267853
000030 87 4c 37 3c 71 78 06 bc cd 1b d4 bb fe 73 9a bc
       0.011187679 -0.008207426 -0.0064730407 -0.018854138
000040 b0 94 5d bc 15 f3 8a bc 29 97 f7 3b 3b 8e 09 bd
       -0.013524219 -0.016961614 0.0075558615 -0.033582907
000050 aa a7 62 bc 24 ef 38 bd 30 67 2d 3d 70 35 51 bc
       -0.01383392 -0.045149937 0.042334735 -0.012769088
000060 6d 46 49 bb ba f3 9b 3c c9 e7 d9 3c 1f 79 77 3a
       -0.0030712143 0.019037116 0.026599782 0.00094403507
000070 7f b1 d6 bc 28 ac 74 bc 3b 65 10 bd 0a 0e 05 bb
       -0.026207684 -0.014933623 -0.03525279 -0.0020302557
000080 83 00 4b 3c 13 ca 7a 3b c1 39 0a 3d c8 b4 b3 bb
       0.012390259 0.0038267418 0.033746485 -0.0054841973
000090 6b 48 87 bc 64 dd 6a 3c 08 53 00 bd 69 41 39 bd
       -0.016514024 0.01433501 -0.031329185 -0.045228396
0000a0 ed ae 09 3c 9f 86 2d bd 73 cd d5 bc ea 01 f2 bc
       0.008403522 -0.042364713 -0.026098942 -0.029541928
0000b0 3c 0b f0 bc 9e 0a 26 bd b1 1b a0 bc 43 b8 a4 3c
       -0.029302232 -0.04053747 -0.019544454 0.020107394
0000c0 27 30 8c 3c d6 44 c6 bb 26 b7 4c bc bc 87 58 3a
       0.017112805 -0.0060506864 -0.012494838 0.0008259972
0000d0 ef 43 ad bc c0 36 74 bc 70 6d 4a 3c 9c fe 14 bd
       -0.021150557 -0.014905632 0.0123551935 -0.036375627
0000e0 20 b8 36 bc 30 83 f4 bc 63 f9 52 bd 83 89 1e bc
       -0.011152297 -0.029847711 -0.051507365 -0.00967634
0000f0 d4 50 a9 bb 82 63 b7 3b 99 e3 af 3c 06 44 35 3d
       -0.005167106 0.005596579 0.021470832 0.044254325
000100 68 11 f6 bc 25 01 ac 3c 15 ec 1b 3d f7 11 b4 3a
       -0.030037597 0.02099664 0.038066942 0.0013738264
000110 d2 02 41 3d b2 eb 08 3c 87 37 49 3c 82 d0 c5 3c
       0.04712183 0.008356975 0.012281305 0.024147276
000120 ea ec 0e bd bf 44 f7 bb 4b 80 3e 3d 74 a3 02 3c
       -0.034893908 -0.007546037 0.04650907 0.007973541
000130 9e a8 f3 bb bf c1 ec 3c 82 43 ea bc 60 8c 05 3c
       -0.007435872 0.02890098 -0.028596643 0.008151144
000140 6e 7e b2 bc 0c a8 a9 bc f4 79 ed bb fe 8f 75 bc
       -0.021788802 -0.020710014 -0.007247204 -0.014987944
000150 8c 19 e0 bc 40 9d 12 3c 03 6a 15 bc ee fc 83 bc
       -0.027355932 0.008948624 -0.009119513 -0.016111817
000160 08 78 ca bc 8e 60 5a bb 1a 03 73 bc 50 53 0a 3c
       -0.024715438 -0.0033321711 -0.014832282 0.008442715
000170 fe 03 44 bc 0d a8 44 bb 53 74 67 bd 32 1b 2c bd
       -0.011963842 -0.0030007393 -0.05650742 -0.042018123
000180 56 52 60 bd 99 f2 84 3c db 4b ee bb 7e 6c cc 3a
       -0.05476602 0.01622896 -0.0072722263 0.0015596298
000190 af 83 04 3d fa 70 65 3a 5c b6 0c bd 22 08 1b bd
       0.032352146 0.00087524916 -0.0343536 -0.037849553
0001a0 24 f0 f8 3b e3 48 f2 bb 21 54 82 bc 59 de b0 bb
       0.0075969864 -0.0073939427 -0.015909256 -0.0053975997
0001b0 55 87 55 3d 4b f4 fb ba ac ef ba 3c 4a 4f 9a bc
       0.052131016 -0.0019222585 0.022819363 -0.018836636
0001c0 3c 9c cd bc b7 73 88 3c 93 b2 92 bc 86 25 5e 3c
       -0.025098912 0.01665674 -0.017907416 0.013558751
0001d0 20 66 b7 bc 00 47 0b bd 4f 16 33 3c 35 5b 00 bb
       -0.022387564 -0.034003258 0.010930612 -0.0019585614
0001e0 ca 4b 07 bd 48 ca 04 bd da e5 ca bb 67 af bd bc
       -0.033031262 -0.032419473 -0.006191951 -0.023154927
0001f0 f2 92 e5 bc 37 1a a9 3c 26 f6 cf bc 91 bc 86 bc
       -0.02802417 0.020642383 -0.025385927 -0.016447337
000200 cd 4e 48 3c f0 f6 b1 bc e0 df c3 bb 72 b4 98 bc
       0.012225819 -0.021724194 -0.0059776157 -0.01864073
000210 6a 08 44 bd dc e7 f4 3b d2 cc 0a 3d f2 47 40 bc
       -0.047859587 0.007473929 0.033886738 -0.011735903
000220 69 0f c4 bc 3d 28 41 bc 34 17 d7 bc ec 31 80 3c
       -0.02393313 -0.011789379 -0.026256181 0.015648805
000230 f6 e5 ea bc d4 f7 ef 3a cc 7d 06 3c db 12 bb bc
       -0.028674107 0.0018308111 0.008208703 -0.02283614
000240 5e 9a 30 3c f6 8a 5c 3c 71 9a 77 3b 8d 3c 0f bd
       0.0107789915 0.013460865 0.0037781263 -0.034969855
000250 1d a9 48 bc 0f 26 f3 bb d8 02 8e bc f2 be 22 3c
       -0.012247351 -0.0074203084 -0.01733534 0.00993322
000260 3e 27 14 bc d2 9a a7 3b 94 6f 53 bb e3 fc 37 bb
       -0.009042559 0.0051148916 -0.003226255 -0.0028074316
000270 ef 73 aa 3c bd 79 ed 3a b1 f1 6b bc 3d 16 3b 3a
       0.020807235 0.0018117946 -0.014400885 0.00071367976
000280 64 91 71 3b 09 c8 91 3c e6 76 e9 b9 42 81 a4 bc
       0.0036860341 0.01779558 -0.0004452981 -0.020081166
000290 01 46 ae bc c5 1d 2b bd 41 37 a3 3c d0 8b 3c bd
       -0.021273615 -0.041776437 0.019923808 -0.046031773
0002a0 83 0b cd 3a 17 21 00 bc 39 b3 e0 3b 06 97 d9 bb
       0.001564369 -0.007820389 0.0068573025 -0.006640318
0002b0 50 58 d4 bc ab b8 5a bc cd d2 ad 3c 3d cb 52 3c
       -0.025921017 -0.013349692 0.021218682 0.012865839
0002c0 a2 b7 95 bb f9 c0 cf 3c 5d 49 dc 3c 37 90 25 bd
       -0.00456901 0.025360571 0.026890451 -0.040420737
0002d0 2f d9 88 3c 9e 4e c7 bc 2e 48 68 3d 90 b4 5c bc
       0.016705124 -0.02432948 0.05670946 -0.013470784
0002e0 6d 37 ae bc 7a 40 af bc b0 c2 10 bd bd d7 a6 3c
       -0.021266663 -0.02139305 -0.03534192 0.020366544
0002f0 8f df a4 bc 6a cc c2 bc a6 e2 f0 bc c0 2e a2 ba
       -0.020126132 -0.023779113 -0.02940495 -0.0012373552
000300 b0 d5 e0 3c 1d d9 38 3c 07 d6 aa bc 7b 1e 1f bb
       0.027445644 0.011282233 -0.02085401 -0.0024279642
000310 7f ea 9c 3c 1e e0 8a bc 95 70 78 bc 6c 49 f0 b7
       0.019154785 -0.01695257 -0.01516356 -2.864442e-05
000320 18 5c 29 3d c9 00 2c 3d 3f 01 eb bc a8 a0 df 3b
       0.041347593 0.041992936 -0.028687118 0.0068245716
000330 a6 1c 79 bc 69 53 86 bc 9e 02 23 bd 2e 1c b5 bc
       -0.015204584 -0.016397195 -0.039797418 -0.022108164
000340 bb ab 2e 3d 43 b0 a1 3c 1e da d6 bc 07 b1 3a bc
       0.042644244 0.019737368 -0.026227053 -0.011394746
000350 03 74 08 bd 24 c6 43 bd 5f be a6 bc be f0 42 bc
       -0.033313762 -0.047796384 -0.020354448 -0.011898218
000360 39 c4 c8 3c 35 2a f6 3b 9b 72 53 3c 93 58 71 3c
       0.024507629 0.0075123557 0.012905742 0.01473059
000370 bf 22 5d bd 40 9b 18 bc fb e7 22 3b ee 95 53 bc
       -0.053988215 -0.009314358 0.002485751 -0.012914164
000380 bf c8 a5 bc 80 63 ae bc 83 85 93 bc e5 4e 6b 3d
       -0.020237325 -0.02128768 -0.018008 0.057448287
000390 66 38 06 bd 85 d4 60 bc de a5 03 bd d6 4d d1 bc
       -0.03276863 -0.013722544 -0.032140605 -0.02554981
0003a0 7b 81 38 3c 34 33 d4 3b c6 df ca ba e0 3b f5 ba
       0.011261339 0.0064758305 -0.0015478067 -0.0018709861
0003b0 d7 4c 09 bb c5 b9 52 bb 19 fb 4b bc e7 06 eb bc
       -0.002095034 -0.0032154184 -0.012450003 -0.028689815
0003c0 a3 40 c6 bc 15 8b 8e bc bd 0f ef bb 8f 54 92 bb
       -0.024200743 -0.017400304 -0.0072955773 -0.0044656466
0003d0 bb fa bf bb 46 04 f6 bc 92 30 9d bc 89 2d 04 bd
       -0.005858747 -0.030031335 -0.0191882 -0.03226999
0003e0 e8 c4 61 3c ea 3c c7 bc f5 cb b7 bb a8 fd 9a bb
       0.013779856 -0.024321038 -0.0056090304 -0.004729945
0003f0 bb 73 a4 3b 9d ac 5e bd 33 d0 a9 3c 6d 04 0d 3b
       0.005018679 -0.054363836 0.02072916 0.002151753

network_body._body_endoder.seq_layers.0.weight f4 [256, 79]
000000 81 9c e0 bd 90 ff e6 3d 6e 97 39 3d 58 6f 1e 3d
       -0.10967351 0.112792134 0.04531043 0.038680404
000010 68 1b fb bd 67 d6 4b be 8d 15 dc 3c ba e3 90 3c
       -0.12261087 -0.19906007 0.026865745 0.017686713
000020 46 57 f6 bd a0 a4 b7 bd 65 c5 81 be 6f 90 51 3e
       -0.12028365 -0.089669466 -0.25345913 0.20465253
000030 5f 2a 0f be 83 00 19 be 2d a0 b1 3a d6 42 a1 bd
       -0.13981007 -0.14941601 0.0013551764 -0.07874076
000040 80 da 71 3e 56 fa 8b bd b8 ab 0e bc fd a5 9b bc
       0.23618507 -0.06834857 -0.008707933 -0.019000048
000050 9f bb c1 bd 0e 31 17 3e 66 ad 2b be a7 e2 1d 3e
       -0.09459614 0.14764807 -0.16765365 0.15418492
000060 84 71 ae 3d 8c 15 f1 3d de 5d 62 3d 7b c0 57 3d
       0.08517745 0.11771688 0.0552653 0.052673798
000070 48 c3 e1 3c b2 d2 01 3e 4f 28 46 be 1f 94 ce 3d
       0.027558938 0.1267803 -0.19351314 0.100868456
000080 97 de a5 3d e5 67 8c bc 4a b3 df bd b1 ac 91 3e
       0.08099096 -0.017139385 -0.109228685 0.28452066
000090 8d 94 15 bd e4 3f dd 3d d2 b0 d0 bd f4 2e e6 3d
       -0.036518622 0.10803202 -0.10189976 0.11239424
0000a0 fa 5e 6c be 31 04 ae bd a6 8c 0d be 27 29 c3 bc
       -0.23083106 -0.08496893 -0.13823184 -0.023823334
0000b0 cc 62 98 3b 3b 80 de 3d 8f 32 d0 bd 6e f7 e3 3d
       0.0046504494 0.10864302 -0.10165893 0.11131178
0000c0 1c b9 e7 bd 7b cc 18 bc be dc d3 bd f7 ca 6e 3d
       -0.11314604 -0.009326096 -0.103448376 0.05829903
0000d0 a6 0a d9 bd 87 12 0a 3d ec 70 96 bd 5a 8a a3 3d
       -0.10597734 0.033709075 -0.07345757 0.07985373
0000e0 06 aa 97 bd c8 94 d2 bd 7f 27 e7 bd d8 cd 2e 3e
       -0.07405476 -0.10282284 -0.1128683 0.1707071
0000f0 46 5c 8d 3c cb 13 09 3e f7 fe a3 3d af 20 18 3e
       0.017255913 0.13386457 0.08007615 0.14856218
000100 a1 77 59 3d b1 65 bd 3d be 70 55 bd 92 bd 86 3d
       0.053092603 0.09247912 -0.052109472 0.065791264
000110 d8 86 54 3e 83 5c bd bc 3f e4 f2 3d 7a 8c e2 3b
       0.20754564 -0.023115402 0.11859941 0.006913719
000120 83 21 29 3c 0e 41 41 3e 25 41 e2 bc d9 78 96 bc
       0.010322931 0.18872473 -0.027618954 -0.018368172
000130 a0 14 18 be 4c 07 2b bd b3 99 21 3e 7d 32 9d bc
       -0.14851618 -0.041755006 0.15781288 -0.019189114
000140 97 b2 b7 3d 3b 0c 0d be d2 5c c0 bd 3a 01 6d 3d
       0.0896961 -0.13774197 -0.09392704 0.057862498
000150 c8 c2 0f be cd 11 c8 3d 1d 53 e3 bd de b4 3b bc
       -0.14039147 0.0976902 -0.11099837 -0.011456696
000160 2a dc 5e be 1f f1 d0 bb 9e 8d df 3c aa 11 3e 3e
       -0.21763673 -0.0063764 0.027289208 0.18561426
000170 43 6f ce 3d 68 e4 2b 3d b2 a3 55 be 2a b3 09 bd
       0.10079815 0.041965872 -0.20863226 -0.03361813
000180 48 3d 91 3d 8c 48 5d bd 39 4d e1 3a a0 4e 29 be
       0.070917666 -0.054024264 0.0017189152 -0.165339
000190 ad 45 70 bc 9f d5 bd bc e7 c2 32 bc e0 83 d7 3c
       -0.0146650495 -0.023173152 -0.010910726 0.026308
0001a0 c5 b3 6a bd a9 31 e0 bc 72 5a e6 3d f3 13 4e bc
       -0.057300348 -0.02736743 0.1124772 -0.012577998
0001b0 cc 62 c0 bd 14 13 40 3d 49 d5 c1 bd c1 2c 0e 3e
       -0.09393844 0.046893194 -0.09464509 0.1388426
0001c0 21 74 1b be ff cd d8 3d 1e f3 e4 ba 13 dd a3 bd
       -0.15181018 0.10586166 -0.0017467474 -0.08001151
0001d0 99 55 a7 3c 7b e1 01 3b de 44 4b 3e ef 61 1f bd
       0.020426558 0.0019818235 0.1985049 -0.038911756
0001e0 bf 6a 3e be 04 2b ce bd 54 fa ff bb ef e5 01 bc
       -0.18595408 -0.10066798 -0.007811824 -0.007928356
0001f0 63 8f 0a be 7d cc c5 bd 89 45 9f 3d 67 e5 fe 3d
       -0.1353126 -0.09658144 0.07776935 0.12446099
000200 23 ed 2b 3e fe 9e bc 3d ce e9 be 3d 3e 7c 05 be
       0.16789679 0.09210013 0.093219385 -0.13035676
000210 f8 8d 67 3e ec 2a 8a bd 86 9d f3 bd f3 67 21 3c
       0.2261275 -0.06746468 -0.118952796 0.009851444
000220 f9 92 30 bc e8 7d 15 be 1c 34 0b 3e ea 91 39 be
       -0.0107772285 -0.1459881 0.13594097 -0.18122068
000230 27 2a 2b 3e a3 2c 08 3d 16 cd 00 3e 51 23 8b 3d
       0.16715299 0.033245694 0.12578234 0.067938454
000240 87 33 4f 3e 05 aa ff 3c 18 c3 0f 3d b6 7b 79 3d
       0.202345 0.031209001 0.035098165 0.060908996
000250 56 34 7b 3e 11 50 ab 3d 10 71 02 be 76 28 72 be
       0.24531683 0.08364881 -0.12738442 -0.23648247
000260 59 8b 08 3e e5 e0 20 3e 7a 00 1a 3e 11 4e 6d bc
       0.13334407 0.1571079 0.15039244 -0.0144839445
000270 7c b1 76 be 81 b6 9e bc 97 e2 88 bc 0c d1 1e be
       -0.24091142 -0.019374134 -0.016709609 -0.15509433
000280 29 63 ed 3d ab 77 62 bc dd 9e bf 3c a0 8b 00 3e
       0.11591179 -0.013822476 0.023391182 0.12553263
000290 a3 69 72 3d 25 34 58 bd 30 f8 d5 bc 54 15 bb 3c
       0.059182774 -0.052784104 -0.026119322 0.022837318
0002a0 30 4d d6 3d 97 11 e2 3b 7c ad b7 bd ab ae b8 bd
       0.10463941 0.0068990695 -0.089686364 -0.0901769
0002b0 ea 21 d4 3d 5f 27 33 bd 8c f6 07 bd 4f 74 86 bd
       0.10358031 -0.04373872 -0.03319411 -0.06565153
0002c0 3d 4d 3b be ec ba 98 3d 8b d4 b1 bd 5a ea 81 bd
       -0.18291183 0.074575275 -0.086831175 -0.06343527
0002d0 26 17 2d bd 4e 83 db 3d 0e d9 07 be 50 c4 d4 bd
       -0.042258404 0.10718404 -0.13266394 -0.10389006
0002e0 47 87 8a bd be fa 03 3d 64 df d4 3d f5 cf 43 be
       -0.06764083 0.03222155 0.10394171 -0.19122298
0002f0 51 49 2f be 82 f1 da 3d cb 0c d4 bd 20 03 f1 bc
       -0.17117812 0.10690595 -0.103540026 -0.029420435
000300 0e c0 d0 bd 12 31 4e be 27 c0 5d 3d 7e 62 b9 bd
       -0.101928815 -0.20135906 0.05413833 -0.09051989
000310 f7 72 d4 3d cc d3 58 bc f0 7e a9 bc b0 4c 91 b8
       0.1037349 -0.01323409 -0.020690411 -6.928423e-05
000320 40 f5 8d 3d 7e bc 1f 3d 97 f2 4b bd 39 52 7a 3d
       0.06931543 0.03899812 -0.0497919 0.06111357
000330 fb f5 4e 3d 1e 6b 13 be a2 b7 01 3e 26 44 19 3e
       0.050527554 -0.1439633 0.12667707 0.14967403
000340 a5 3f 43 be 5c 9f ad bd 43 bd bb bc ae d6 0f 3e
       -0.19067247 -0.08477661 -0.022917395 0.14046738
000350 cb fd 96 3b 77 77 b9 bd a9 ee 3f be 9f 15 94 bb
       0.004607891 -0.09055989 -0.18743385 -0.004519179
000360 c9 f1 08 bd 09 73 69 be ce 56 f6 bd d0 4c 00 3e
       -0.03343371 -0.22797789 -0.120282754 0.12529302
000370 ea 93 d4 bd c1 5e 12 bc 8b 32 f2 bd a5 ef 3f be
       -0.10379775 -0.008933724 -0.118260466 -0.18743761
000380 0a 27 8d 3c a7 3d 89 be bd e3 24 3d 8b 9c 00 be
       0.01723053 -0.2680485 0.04025625 -0.12559716
000390 f0 08 09 be 88 d9 43 bd f5 dd 78 3d 2c e5 16 be
       -0.13382316 -0.047814876 0.06075855 -0.1473586
0003a0 be 81 a2 3e a2 1b a7 bb 9b ad aa bd b8 0e 47 be
       0.3173961 -0.0050997296 -0.08333894 -0.19439209
0003b0 27 76 d1 bd 14 e5 a6 3d b6 74 17 bc ae f3 91 bd
       -0.10227614 0.08149162 -0.009244135 -0.07126556
0003c0 52 97 94 3e 53 bd b4 bc 78 88 73 bd 01 0d 8a 3c
       0.29021698 -0.022062933 -0.05945632 0.016851904
0003d0 8d ec cc bd 25 84 9b 3d 25 42 3b 3d 9d e8 83 bd
       -0.10006056 0.07593564 0.045717377 -0.06440852
0003e0 c2 ac 9f 3d 82 5b 84 3d b7 2e 9c bb 10 7d 8f 3d
       0.07796623 0.06462766 -0.004766311 0.07006276
0003f0 8b 70 c2 bc b2 85 33 bc 6c ed 19 bb 66 6d 68 bd
       -0.023735305 -0.010957168 -0.0023487462 -0.056744955

network_body._body_endoder.seq_layers.2.bias f4 [256]
000000 c9 51 84 bc 55 ce d8 bb 07 c9 22 bc 34 f7 06 ba
       -0.01615228 -0.0066163936 -0.009935624 -0.00051485305
000010 da ff fb bc 04 36 4e bc 83 75 15 bc 43 00 ac bc
       -0.030761648 -0.0125861205 -0.009122255 -0.020996219
000020 1e fb f2 39 02 78 25 39 82 20 b0 bc 55 76 00 bd
       0.00046344934 0.00015780333 -0.021499876 -0.03136285
000030 fd c0 3a bc a0 91 07 bd 19 39 8f 3c 1f e4 22 bd
       -0.011398551 -0.033097863 0.017483281 -0.039768334
000040 5f 50 2b ba c6 7b 86 3b b6 01 cb bb 46 90 8c bc
       -0.00065351086 0.0041041104 -0.0061952723 -0.017158639
000050 8d 05 fd bb cb 53 0f 3b 30 1f eb bc 6b 22 5a bc
       -0.007721609 0.0021870013 -0.028701395 -0.01331387
000060 60 cc 46 bc 6e 66 59 bc fa ff b3 bc c4 27 8a bc
       -0.012133688 -0.01326905 -0.021972645 -0.016864665
000070 c4 f9 4d bc b7 1f fe bb 25 7f ee bc a3 f5 93 bc
       -0.012571756 -0.0077552455 -0.029113362 -0.018061465
000080 96 03 47 bc 75 5c 9a 3b 12 7d 93 bc ed 7d 00 bd
       -0.012146851 0.004710729 -0.018003974 -0.031370092
000090 43 d6 bf 3b fe 0c b5 bb 64 cc 41 3c 7a e3 c4 bb
       0.0058543994 -0.0055252304 0.011828516 -0.0060085626
0000a0 c1 63 e1 3b 88 26 07 39 09 0f 22 bd 77 dc 50 3c
       0.0068783467 0.00012888957 -0.03956512 0.012747875
0000b0 0a ea 50 bd 44 21 01 bd f2 96 77 bc cb b7 f4 bb
       -0.051004447 -0.031525865 -0.015111672 -0.007468199
0000c0 31 5c b0 bc f9 65 c3 bc fe 6d d2 3b 00 33 f7 bc
       -0.021528335 -0.023852335 0.0064218035 -0.030175686
0000d0 e7 45 51 bd e2 25 41 bc d8 89 0a bc 29 04 90 3a
       -0.051092055 -0.011788817 -0.008455716 0.0010987568
0000e0 51 ee 89 bb fe 34 10 bd ea e5 1d 3b e0 70 5b 3c
       -0.0042093177 -0.035206787 0.0024093338 0.013393611
0000f0 7c 62 02 bc f8 c7 23 bc 1b 2f e0 3b 27 69 81 3b
       -0.007958051 -0.009996407 0.006841553 0.0039493027
000100 19 73 1c 3c d7 8f 17 3c e4 fd ce bc ae 01 53 3c
       0.009548926 0.009250603 -0.025267549 0.012878818
000110 19 43 d4 bc 53 32 09 bb ac 76 94 bc 4a 21 49 bc
       -0.0259109 -0.0020934537 -0.018122993 -0.012276003
000120 e8 e8 44 3b 1d eb 7b bc f1 13 a6 bc 08 9c bc bc
       0.003004605 -0.01537588 -0.02027318 -0.02302362
000130 68 b4 10 bc f4 c3 c5 bc 74 28 29 ba a7 2c 66 bb
       -0.008832075 -0.02414129 -0.00064528664 -0.003512183
000140 2d 53 ab bc 57 de 49 bc dc 1d eb b9 00 d3 ee bc
       -0.020913685 -0.012321076 -0.0004484494 -0.029153347
000150 97 b8 30 3b f7 db 57 3c dc 47 3e 3b 2e 30 7f bc
       0.0026965493 0.013175002 0.002903453 -0.015575452
000160 8d f0 cb bc b0 60 07 bc 04 42 8a bc 76 64 26 bd
       -0.024894977 -0.008262798 -0.016877182 -0.04062315
000170 e3 32 4a bc 44 21 0b bd 89 68 39 bc 09 55 a4 bc
       -0.012341234 -0.03396727 -0.011316427 -0.02006008
000180 9f 95 b7 3a 9a ef 75 bb 16 05 8e bc 4b 97 4f bc
       0.0014006383 -0.0037526847 -0.01733641 -0.012670348
000190 9e 8d 3b 3b a9 c9 31 bd 76 e0 67 3c 3f 97 0f bd
       0.0028618346 -0.04340521 0.014152637 -0.03505635
0001a0 ad cb b1 3a 04 9e 10 3b 83 3a 5a bc 99 a9 4f bc
       0.0013564728 0.002206684 -0.013319614 -0.012674713
0001b0 40 00 b5 bc 1c 80 21 bc ee 48 20 bc ae 8d 85 3c
       -0.022094846 -0.009857204 -0.009783013 0.01630291
0001c0 5b f2 22 bc 22 b5 af bc 7a 4d 1d bc 27 06 d7 bb
       -0.009945477 -0.021448676 -0.009600991 -0.0065620127
0001d0 3d 21 f5 3a 1a 9e 76 bd a0 61 2d b8 4a 4a 0d bb
       0.0018701922 -0.06020937 -4.1337335e-05 -0.0021559172
0001e0 80 59 7d bc 13 b3 96 bb 47 42 3c bc 12 35 87 bc
       -0.015463233 -0.004598984 -0.011490411 -0.016504798
0001f0 6f d3 10 bd ad 5c 73 3c 5b a9 de bb 60 19 b6 bc
       -0.03535789 0.014853639 -0.006795091 -0.022228897
000200 07 68 97 3c 33 07 b0 bc 70 35 ce bc 7f a0 9e bc
       0.018482221 -0.021487808 -0.025171965 -0.01936364
000210 fe 53 44 3c b6 4f f8 ba 48 5c 80 3b fc 83 21 bd
       0.011982916 -0.0018944654 0.003917251 -0.03943251
000220 50 85 0a b9 61 e7 68 bc 3e 9e ae 3b 32 cf ef bc
       -0.00013210368 -0.014215321 0.0053289225 -0.029273603
000230 12 98 3d bd 9d 9d 4a bc a9 a9 1e bc ca 29 20 3b
       -0.046287604 -0.0123666795 -0.009684005 0.002443897
000240 51 3a 16 bc d0 c1 7d bc be 21 d6 bc 92 74 0d bc
       -0.009169177 -0.015488103 -0.026139136 -0.00863375
000250 03 e3 c2 bb fe ad 66 bc 7a fe cd 3b 8a 5c 1b 3b
       -0.005947472 -0.014079569 0.0062864395 0.002370628
000260 dc 79 53 bc da e6 10 bc ce b2 27 bc 19 67 17 bc
       -0.0129074715 -0.008844102 -0.010235501 -0.009240889
000270 c5 11 04 bc 38 64 1d 3c 37 0a bf bc 3c 48 8f bc
       -0.008060877 0.009606414 -0.0233203 -0.017490499
000280 5e 96 83 bc 74 b2 38 bd 81 ec cb bc aa 6d 07 bd
       -0.016062912 -0.04509206 -0.024893047 -0.03306357
000290 25 b8 8c bc 18 9e 0e bb d6 de 1f 3c 54 6c e2 ba
       -0.01717765 -0.0021761712 0.009757718 -0.0017274716
0002a0 e7 96 e0 bc d8 25 9f 3a c4 1f b7 bc b1 5d 7e bc
       -0.027415706 0.0012142016 -0.022354014 -0.015525267
0002b0 a1 aa 21 bd 55 26 85 bb 0e ba 73 3c af 2b 7e 3b
       -0.039469365 -0.0040634074 0.014875902 0.0038783362
0002c0 75 49 90 bc da c3 eb 3a 80 c7 8d 3c c2 b7 bd 3a
       -0.017613152 0.0017987445 0.017307043 0.001447432
0002d0 c1 3d ce bc 46 63 95 bc 63 8f f1 3b 66 75 ab 3a
       -0.025175931 -0.018235814 0.0073718294 0.0013081252
0002e0 80 d8 4a 3c 3f 67 d7 bc a2 92 0d 3c 2c 14 65 bc
       0.012380719 -0.026294349 0.008640917 -0.01398186
0002f0 48 e4 49 bb a9 3d 46 bc c0 f7 5b 38 d9 4c e7 bb
       -0.0030806232 -0.012099662 5.2444404e-05 -0.0070587215
000300 60 21 61 bc 16 eb d2 bb cd a0 97 3c ca ea 8a bb
       -0.013740867 -0.006436716 0.018509293 -0.004239415
000310 96 78 7a bb 2b b8 fa 3b 0a a3 73 bc 25 04 6c 3b
       -0.0038218847 0.007651349 -0.0148704145 0.0036013213
000320 db 76 c8 3b fc 40 ab ba df 66 0e bd c1 f2 41 bb
       0.0061176843 -0.0013065632 -0.034766074 -0.0029594155
000330 a8 56 0b bd 4a 00 70 bc 32 b8 04 bd dc d9 82 3b
       -0.03401819 -0.014648506 -0.032402225 0.003993256
000340 f3 99 e9 bc 87 73 40 bc cf bf ba bc 6d 11 30 bc
       -0.028515792 -0.011746294 -0.02279654 -0.010746342
000350 bb c0 6b bc 97 19 83 ba 00 12 8a bc 4f 2f d7 bc
       -0.014389212 -0.0010002133 -0.016854286 -0.026267676
000360 eb f5 3f bb ff 4a 44 bd d9 f9 1b bd de 8c 3f bc
       -0.0029290866 -0.047923084 -0.03808007 -0.0116913
000370 08 75 62 3b 36 9d 4d 3c aa 55 c3 3b e4 40 5a 3c
       0.003455462 0.012549689 0.0059611397 0.013321135
000380 66 c0 2b bc 1d c0 6c 3c f0 eb ee bb e6 80 ff bc
       -0.010482883 0.0144501 -0.0072913095 -0.031189393
000390 9c b8 9e bb a0 93 ae bc 2f 2e b0 bc 39 8b 97 3c
       -0.0048437845 -0.021310627 -0.021506397 0.018499004
0003a0 c4 92 ce 3c a9 ff f6 3b b4 d1 56 bc 89 c5 c1 39
       0.025216468 0.0075378013 -0.013111521 0.00036959004
0003b0 45 d0 87 ba 4e c1 86 3c b2 a5 57 bc db 9c d0 bc
       -0.0010361752 0.016449597 -0.013162063 -0.02546542
0003c0 c9 a4 8e bc 82 c8 ea bc 17 83 37 bc 8b b5 c9 bc
       -0.01741256 -0.028660063 -0.011200688 -0.0246227
0003d0 a7 f7 39 bc b3 e7 ec bc d4 6d 89 bc c5 d4 4a bc
       -0.011350549 -0.028919077 -0.016776003 -0.01237983
0003e0 98 2f 67 3b 46 e6 e5 3b 83 1d c0 bb 99 dc a1 bc
       0.003527617 0.007015976 -0.005862893 -0.01975851
0003f0 7c 4d 82 bc 42 53 02 bd d0 a9 b2 bb fc f0 3f bc
       -0.015906088 -0.031817682 -0.005452372 -0.01171517

network_body._body_endoder.seq_layers.2.weight f4 [256, 256]
000000 0c 2a 85 3d 97 5f 83 3d c5 a6 63 3c 4a c4 39 ba
       0.065021604 0.06414717 0.013894741 -0.0007086439
000010 fd ff bf bc 95 99 b4 3c 48 4a 98 3c b6 82 dc ba
       -0.023437494 0.02204589 0.018590108 -0.0016823623
000020 1a 8d d0 3d 36 1e 45 3c 20 7d b1 bb ed 47 cb bb
       0.10183163 0.012031129 -0.0054165274 -0.0062036426
000030 d7 64 7a bd 29 11 5e 3d b1 98 06 3d b8 dd d9 b9
       -0.061131325 0.054215584 0.03286046 -0.0004155466
000040 44 c7 7a bd f3 77 d4 ba e1 6b 95 3d c8 bf 55 bd
       -0.06122519 -0.0016210064 0.07295967 -0.05218485
000050 3e 11 28 3d d4 5c 30 bd 9f 33 13 3d ef 63 ce 3c
       0.04103207 -0.043057278 0.0359379 0.025194136
000060 a2 b0 96 bc 7a 19 d6 3d 7a 65 18 3d 98 d7 07 3c
       -0.018394772 0.10454078 0.03720615 0.008291148
000070 fd 61 24 3c c6 89 cf bb 56 09 34 3d 94 b6 9e 3c
       0.010033128 -0.0063335625 0.043954216 0.01937417
000080 ab 47 e1 3d d3 fc 45 3d 46 c0 af 3d 65 84 20 3d
       0.10999998 0.048336815 0.08581595 0.03918876
000090 05 66 a6 3d 91 fb 01 3e 55 e8 23 bd 14 c7 ca bd
       0.081249274 0.12693621 -0.04001649 -0.099012524
0000a0 3c e7 f8 bb 46 35 ee 3d 5a 07 4d bd f7 3c 82 bd
       -0.0075959247 0.11631255 -0.05005584 -0.06359284
0000b0 5d 7b 8e bd e7 a6 b9 3c 8f c8 8f 3d dc 0c 39 bd
       -0.069571234 0.022662593 0.070206754 -0.04517828
0000c0 60 cf f5 3b 33 44 e1 3d fb 4f a6 3d 8f c8 81 3d
       0.0075015277 0.10999336 0.08120724 0.06337082
0000d0 97 3d e7 3c 52 39 9a 3d 0f 81 c2 3c b3 18 d1 3b
       0.02822761 0.07530464 0.02374318 0.006381118
0000e0 32 78 3d bd ad 1a 18 bd cf 39 0d bc b7 73 fa bc
       -0.046257205 -0.037134815 -0.00861974 -0.030572755
0000f0 e5 21 ac bc 86 ff 1e ba 63 fa 10 bd cf 31 5b 3d
       -0.021012256 -0.00060652976 -0.035395037 0.053514298
000100 f7 46 46 3d a9 fc cc 3c 27 2e dc bd 19 4c 67 3d
       0.04840752 0.025022822 -0.1075099 0.056469057
000110 8a 13 f7 3d ba eb a3 bd c0 79 6d bd e3 73 b3 3c
       0.12064274 -0.08003946 -0.057977438 0.021905845
000120 ab 84 8b bd 72 6c bb 3d f0 eb 82 3c 82 fa ab bd
       -0.06812414 0.09151544 0.015981644 -0.0839739
000130 30 cd da bb 94 24 c7 3d a8 69 eb bd d1 f4 5e 3b
       -0.0066772923 0.097237736 -0.11494762 0.0034020434
000140 e1 4b 24 3d 1f c2 33 3d 90 f7 ab 3d 85 c1 40 bd
       0.040111426 0.0438863 0.08396828 -0.047059555
000150 25 ab 81 3d 72 a1 88 bc a6 a7 c1 bd 03 6e a9 3c
       0.06331471 -0.016678546 -0.094558045 0.02068234
000160 48 42 b0 3d d1 d1 5c 3d b7 4b 34 3d 7c df ed bc
       0.08606392 0.053911034 0.04401752 -0.02903723
000170 de 47 3e 3d ac 24 aa bd 34 a8 6e bd ca 0a 51 3d
       0.046455257 -0.08307776 -0.05826588 0.05103568
000180 34 75 7a bb 66 11 b7 3d a0 5f 3c bd 2f b9 ae 3c
       -0.003821683 0.08938865 -0.045989633 0.021328537
000190 f8 b3 d2 bb 1e 45 18 bb 9d 13 d4 3c 96 d3 91 3c
       -0.0064301454 -0.0023234556 0.025888259 0.017801087
0001a0 ca af 29 bd 50 cd dc bc 79 1f 80 3d a1 c9 3a 3d
       -0.04142741 -0.02695337 0.06256003 0.045602445
0001b0 0b 63 ca bc f3 02 fe 3d c7 c1 07 bd 55 d0 c5 bc
       -0.02470543 0.12402906 -0.033143785 -0.024147192
0001c0 50 9c 86 bd 70 79 92 bd f2 b1 09 3e 26 a7 74 bb
       -0.06572783 -0.071520686 0.13446787 -0.0037331074
0001d0 db 33 a7 3b 59 62 2d 3c 1d 5d d0 3c 53 0a c2 bd
       0.005102617 0.01058253 0.025435025 -0.094746254
0001e0 28 13 38 3d 7a 84 ac 3d db e5 1d 3d 58 7a bf 3d
       0.044940144 0.084237054 0.038549285 0.09349507
0001f0 2c db d5 bd 8d 02 ca bd ea 57 ad 3c d1 2b 33 bd
       -0.10442194 -0.09863768 0.021160085 -0.04374296
000200 3c 88 11 3c 0f 4a 15 3d b0 e3 c1 bc 81 5c 92 bd
       0.008882578 0.03644758 -0.02366814 -0.0714655
000210 67 01 21 3e c2 d7 0b 3e 85 3e 9c bc 75 a2 9b 3d
       0.15723191 0.13656524 -0.01907278 0.075993456
000220 5c 4e 43 bc 6b bc 3f bd 1f cf cc 3c e9 2a fa 3a
       -0.011920538 -0.04681055 0.025001107 0.0019086275
000230 b0 76 10 3d 11 09 ee bd e6 77 ca bc e9 82 eb 3b
       0.03526944 -0.11622823 -0.024715375 0.0071872366
000240 d1 59 0e bd 81 49 5e bd 9f 0e d5 bc 56 4c 11 bc
       -0.034753624 -0.054269318 -0.026007948 -0.008868298
000250 3b e3 a3 bd af fe fd 3d 47 56 b9 bd 35 5f 8b bc
       -0.08002325 0.12402093 -0.09049659 -0.017013172
000260 e9 07 13 bd 8a 96 15 bc b2 08 b1 3d 1e 22 24 3d
       -0.035896216 -0.00913013 0.086442366 0.0400716
000270 3d 69 7d 3d 5b 62 b6 3d fc 57 26 bd 36 b3 d2 bc
       0.06186794 0.089054786 -0.040611252 -0.02572022
000280 b5 d4 85 3d a8 70 65 3d 4a 63 a1 bd 1c 15 aa bd
       0.06534711 0.05601564 -0.07880266 -0.083048075
000290 35 cc dd 3d 25 6f 52 3d 6e e7 f9 3c 00 3d 5b bd
       0.10829965 0.051375527 0.030505862 -0.05352497
0002a0 91 72 17 3c d6 0e 0f bd dd 76 1a bd b2 24 0f bd
       0.009243623 -0.034926258 -0.037711013 -0.034947105
0002b0 2a 09 47 bd 21 5a 91 bd 9f 37 04 be d7 30 d8 3c
       -0.048592724 -0.07097269 -0.12911843 0.026390476
0002c0 21 53 e8 3d ef e0 7a 3c ca 7c 27 bb 9b cc 46 bd
       0.113439806 0.015312417 -0.0025556558 -0.04853497
0002d0 e8 36 09 3c 6c ed 4c bd 2d 68 26 be e4 f9 6b bd
       0.008374907 -0.05003111 -0.16250677 -0.05761136
0002e0 c8 5b 68 bb 6f 3a c8 bd 36 69 23 bc 2e c8 b2 bb
       -0.0035455097 -0.0977677 -0.009973815 -0.005455992
0002f0 3e 13 9d 3c 28 69 c1 bc bd eb 78 bd a7 2f 63 3d
       0.019174214 -0.023609713 -0.060771693 0.055465367
000300 a4 1a 83 3d ab 8c 1d 3d c4 21 a2 3b 71 8e 9f 3d
       0.06401566 0.03846423 0.004947873 0.077908404
000310 bc b9 9d bd c5 da 3e 3d b4 6d 11 3d 16 ef 8f 3d
       -0.07701442 0.046595354 0.03550501 0.07028024
000320 91 cb 26 bd 01 5c 93 3d 45 34 08 bd 72 5c b3 bc
       -0.04072148 0.07195283 -0.033252973 -0.021894667
000330 3b 36 57 3d 51 14 8c 3c 09 d1 8a 3d 9b 57 b4 bc
       0.052541953 0.017099531 0.067781515 -0.02201443
000340 3b 0c b9 3d 4b 6e aa 3c 89 86 91 3b 77 18 21 bd
       0.09035536 0.020804545 0.0044410867 -0.039329972
000350 01 bd 95 bd 1f 5a f9 bc 15 e3 04 bd 5e ce 36 bd
       -0.0731144 -0.03043848 -0.032443125 -0.0446304
000360 95 40 26 3d c7 fe 1c bc 39 89 c2 3d 92 1d bf bb
       0.040588934 -0.009582228 0.094988294 -0.0058323825
000370 5e 7b 30 3d d8 05 d8 3d d3 c1 73 bd d6 8d b6 3b
       0.043086402 0.105479896 -0.059511017 0.0055711074
000380 75 13 84 3d 49 9f 41 3d 19 57 af 3c 0f 7d 25 3d
       0.06449024 0.047271047 0.021403836 0.04040247
000390 0e 41 b9 3d b3 37 0f 3b 02 89 47 3d 4b 9f 89 bc
       0.09045611 0.0021853268 0.048714645 -0.01679959
0003a0 9c 55 f2 3d 16 21 a9 bd 75 dd 90 bd 4b 55 15 be
       0.11832735 -0.08258264 -0.070734896 -0.14583318
0003b0 50 50 99 bc 98 cb 0b 3d cb d8 8b 3c 79 d0 a9 bd
       -0.018715054 0.03412971 0.017071148 -0.08291716
0003c0 48 39 0a be aa 09 51 bb 54 ec 5d 3d 29 34 be bd
       -0.13498414 -0.003189663 0.05418046 -0.092872925
0003d0 71 56 8b 3d d9 cd dd 3d 71 5c 91 3d 22 8c c6 bc
       0.06803597 0.10830278 0.0709771 -0.024236742
0003e0 b1 f4 25 be 9d 54 10 bd f1 ea 37 bc 67 59 62 3c
       -0.16206624 -0.035236944 -0.011225448 0.0138152605
0003f0 b6 ae 21 bd 76 79 ee 3d 14 ff e1 3d 44 18 b0 3d
       -0.039473258 0.116442606 0.110349804 0.08598378
