results/TwoKinkTrack-AWSTrack-TL-Apr20-3-49pm/MoveSomewhere.onnx (onnx, 638066 bytes, 11 tensors)

action_model._discrete_distribution.branches.0.bias f4 [3]
-0.011904574 -0.14078826 0.17598802
00000000: 670b 43bc cc2a 10be 3436 343e

action_model._discrete_distribution.branches.0.weight f4 [3, 256]
0.04081888 -0.045119822 0.0194898 -0.035845034 -0.17675081 -0.01816575 0.029564489 0.127815
0.034807865 -0.015578821 0.06639836 -0.066297226 -0.019235155 -0.014637538 -0.027222717 -0.040672272
0.023712048 -0.020093426 0.03711446 0.10675435 -0.001756438 -0.071408615 0.16873817 0.0033999435
0.0026221068 -0.019033693 0.0689458 -0.009429817 0.014634057 0.06410871 0.0079670055 0.092691295
0.030876918 -0.09533574 0.064407974 0.028522722 0.04806145 0.0153321065 -0.009214168 0.032828625
-0.006797873 0.051542573 0.012592334 -0.0008265118 0.033746123 0.011908143 -0.07967465 0.064461425
-0.014278509 0.023493873 -0.003679202 0.04134472 0.042281017 0.006298895 0.014909764 0.047266062
0.07252071 -0.15315086 0.03875492 0.107747056 -0.10848711 -0.0100193005 -0.045021553 0.07319342
0.013273008 0.027418485 -0.055056248 0.112128064 -0.072749704 -0.01137129 -0.021687346 -0.022107532
0.07164207 0.0011848222 0.0002322928 0.00081333675 -0.018238649 0.057395387 0.18473014 0.046535358
-0.02146735 -0.06730962 -0.0549667 0.0589211 0.06238775 -0.06358622 0.07349543 -0.19064318
0.05789108 -0.08232424 0.081828654 -0.06266112 0.008386188 0.0074498504 -0.051182456 -0.04599386
-0.054282952 0.031167507 -0.069801986 0.038896833 0.06922517 0.036624286 0.016410554 0.008086472
0.013191376 -0.038358044 -0.033536445 -0.026938232 0.010439783 0.047998782 -0.1113449 -0.034045286
0.0113831265 0.019405756 -0.003277686 0.0128829405 0.037743613 -0.039969534 -0.03549727 0.017129991
0.03653112 -0.025362631 0.02810871 0.02250234 0.05251101 -0.003298338 -0.086944796 -0.07116188
-0.014268891 0.007505523 -0.018823272 0.03521044 0.036330137 -0.004423288 0.049941767 0.047567043
0.099614784 0.0030397028 -0.08201225 -0.035386667 0.006811949 0.14521064 -0.012375279 0.11232886
-0.0034158938 -0.084534384 0.03539521 -0.01689186 0.16934483 -0.09132147 0.019918166 0.028163264
0.020757198 0.015897797 0.027537901 0.086014815 -0.0039721113 0.05698015 0.012912506 0.035826832
-0.0006287312 -0.03757788 0.008223935 -0.033604737 0.050962664 -0.058122553 -0.08826611 0.014648446
0.03256936 0.025562141 0.037275452 -0.003983655 -0.041018188 0.0480786 -0.008711092 -0.050352003
0.01308281 0.010096815 0.03499781 -0.012710312 -0.03545794 -0.10444479 0.0017360419 0.040248476
0.00890567 -0.03842847 -0.054469477 0.08004898 0.047354586 -0.056356117 0.028665759 0.060259443
-0.01450401 0.039844055 -0.011757478 0.0967698 0.009621519 -0.020765053 0.06502633 0.01145318
0.039906837 0.037899386 0.003381075 -0.07295751 0.0010112108 0.103770144 0.002477939 -0.045969594
0.02792144 -0.07798633 0.058984872 0.09940316 0.08405524 0.09687182 -0.09815997 0.017682966
-0.028562613 0.054711558 -0.015534789 0.007302256 0.06925407 0.055743955 -0.0034715878 -0.030311072
-0.034497242 0.085925944 -0.03335809 0.013487373 -0.008294512 0.19493188 -0.009237941 -0.053906597
-0.02615916 -0.0015328943 0.05367605 0.025653157 0.14519246 -0.013033328 0.027324395 -0.02904106
-0.14019385 0.039406102 0.04766172 0.050088722 -0.25283736 -0.071030624 -0.01574924 -0.06909821
0.018053345 0.05969696 0.08961671 -0.07216157 -0.039611317 0.12305738 0.038996294 -0.14300998
00000000: b331 273d 90cf 38bd 13a9 9f3c 3ed2 12bd
00000010: 2afe 34be 57d0 94bc 3a31 f23c efe1 023e
00000020: b192 0e3d 503e 7fbc ddfb 873d d7c6 87bd
00000030: 0b93 9dbc 49d2 6fbc 2d02 dfbc f897 26bd
00000040: c53f c23c f89a a4bc 5505 183d 06a2 da3d
00000050: 4838 e6ba ae3e 92bd b3c9 2c3e 96d1 5e3b
00000060: a7d7 2b3b 8cec 9bbc 7533 8d3d 857f 1abc
00000070: afc3 6f3c 6d4b 833d 0b88 023c efd4 bd3d
00000080: 97f1 fc3c 623f c3bd 54e8 833d 7ca8 e93c
00000090: 15dc 443d 8433 7b3c 06f7 16bc 4f77 063d
000000a0: b1c0 debb 4e1e 533d 1450 4e3c 45aa 58ba
000000b0: 6039 0a3d 5f1a 433c 772c a3bd 5a04 843d
000000c0: 68f0 69bc 3976 c03c c41e 71bb 1559 293d
000000d0: dc2e 2d3d f666 ce3b 1548 743c 0f9a 413d
000000e0: bd85 943d 94d3 1cbe 7bbd 1e3d 7daa dc3d
000000f0: 7d2e debd fe27 24bc 8568 38bd 6fe6 953d
00000100: 0877 593c bb9c e03c a982 61bd 66a3 e53d
00000110: ccfd 94bd a64e 3abc a9a9 b1bc db1a b5bc
00000120: 14b9 923d 094c 9b3a a093 7339 1b36 553a
00000130: 3869 95bc 6d17 6b3d e629 3d3e dc9b 3e3d
00000140: 4cdc afbc a0d9 89bd c324 61bd 4057 713d
00000150: 4c8a 7f3d 7e39 82bd c684 963d f737 43be
00000160: 321f 6d3d 9c99 a8bd c895 a73d 7954 80bd
00000170: 3966 093c e01d f43b b2a4 51bd 0f64 3cbd
00000180: cd57 5ebd 0053 ff3c 58f4 8ebd 4952 1f3d
00000190: edc5 8d3d 5903 163d 6d6f 863c 1f7d 043c
000001a0: a420 583c 531d 1dbd 835d 09bd 91ad dcbc
000001b0: a00b 2b3c 5f9a 443d cc08 e4bd 1273 0bbd
000001c0: 4b80 3a3c d2f8 9e3c 72ce 56bb f812 533c
000001d0: 0c99 1a3d 18b7 23bd 9665 11bd 3254 8c3c
000001e0: a8a1 153d 4bc5 cfbc 3d44 e63c d456 b83c
000001f0: c915 573d ee28 58bb 1d10 b2bd 52bd 91bd
00000200: 11c8 69bc e4f0 f53b 4333 9abc d338 103d
00000210: e9ce 143d 3bf1 90bb bd8f 4c3d a9d5 423d
00000220: d602 cc3d c035 473b 0af6 a7bd 9cf1 10bd
00000230: c536 df3b 19b2 143e afc1 4abc ac0c e63d
00000240: 30dd 5fbb 5d20 adbd 91fa 103d cc60 8abc
00000250: bb68 2d3e c006 bbbd 6c2b a33c a5b6 e63c
00000260: 000b aa3c 193c 823c 2a97 e13c 8928 b03d
00000270: 7c28 82bb 0564 693d fa8e 533c 28bf 123d
00000280: 70d1 24ba 43eb 19bd afbd 063c 1fa5 09bd
00000290: 3abe 503d ea11 6ebd ddc4 b4bd 0900 703c
000002a0: 7367 053d b267 d13c 25ae 183d 5289 82bb
000002b0: b002 28bd 11ee 443d f8b8 0ebc e73d 4ebd
000002c0: 4859 563c 1d6d 253c dd59 0f3d ea3e 50bc
000002d0: 583c 11bd 26e7 d5bd e68b e33a 96db 243d
000002e0: 16e9 113c 2c67 1dbd 631b 5fbd b8f0 a33d
000002f0: e2f6 413d acd5 66bd 74d4 ea3c 9bd2 763d
00000300: 3aa2 6dbc 8533 233d 70a2 40bc 3f2f c63d
00000310: 93a3 1d3c 791b aabc 862c 853d 1ea6 3b3c
00000320: 5a75 233d 633c 1b3d 0795 5d3b bf6a 95bd
00000330: 9b8a 843a 7185 d43d eb64 223b 9d4a 3cbd
00000340: 81bb e43c 4cb7 9fbd 1f9a 713d e293 cb3d
00000350: 2725 ac3d bc64 c63d 1808 c9bd dedb 903c
00000360: 24fc e9bc 3a19 603d a185 7ebc c347 ef3b
00000370: 14d5 8d3d c653 643d 9483 63bb ed4e f8bc
00000380: fb4c 0dbd f1f9 af3d 7ea2 08bd 24fa 5c3c
00000390: b4e5 07bc 399c 473e bc5a 17bc 2acd 5cbd
000003a0: bc4b d6bc 66eb c8ba 6bdb 5b3d 9226 d23c
000003b0: 55ad 143e bd89 55bc 69d7 df3c 84e7 edbc
000003c0: fa8e 0fbe 4b68 213d f038 433d d529 4d3d
000003d0: e673 81be 8178 91bd 8d04 81bc 5d83 8dbd
000003e0: 9ce4 933c cd84 743d f788 b73d 72c9 93bd
000003f0: 7a3f 22bd 8205 fc3d 94ba 1f3d 3571 12be

action_model._discrete_distribution.branches.1.bias f4 [3]
-0.11140473 0.11873343 -0.025687395
00000000: 2a28 e4bd 832a f33d 5f6e d2bc

action_model._discrete_distribution.branches.1.weight f4 [3, 256]
0.11442842 0.045721006 0.10857643 0.010575009 -0.0061127706 0.012756506 0.13328063 0.082732655
0.0697227 0.021740446 0.023782799 0.0013939315 0.109683335 0.076462954 -0.013194295 0.11365244
0.03058962 0.12114918 0.08146765 -0.13857943 0.0052738157 -0.0026377123 -0.048404653 0.083596535
0.020297784 0.11795565 0.10458833 0.04560631 0.104381725 0.027509443 0.12775932 -0.026486497
0.04812295 0.06096744 0.03517311 0.044087924 0.012193447 0.041309543 0.08530555 -0.014847707
0.038039967 0.0148777645 0.037573796 0.043188218 0.14098504 0.16510063 -0.023399275 -0.027264219
0.03678245 0.03748251 0.026663762 -0.024939638 0.01990711 0.033811316 0.06659803 0.12649389
0.16696306 -0.03782337 0.13663152 -0.05418099 0.026041294 -0.029383462 0.0030326582 0.15624095
0.13369378 0.031601686 0.09927561 0.06538919 0.007827591 0.05204797 -0.0038115499 0.07855059
0.079119764 0.1008329 0.028981855 0.13349974 0.02047148 0.058929507 0.054172955 0.08213621
0.019774104 0.03520729 -0.06061033 -0.010083624 0.04225586 0.11222987 0.077467725 -0.0017049817
0.09296988 0.030543936 0.0627568 0.022659931 0.06566257 -0.0017318523 0.10094145 0.09334394
-0.024694853 -0.040240813 0.06595089 0.11619962 0.026258443 0.013070341 -0.0051636593 0.034737352
0.06956302 0.053894754 -0.008549468 -0.026890427 0.026237736 0.03854406 0.013115923 0.098952845
0.10451745 0.025613902 0.09472988 0.06671488 0.133338 0.09191136 0.030049397 0.06129075
0.020612068 0.022151794 0.09238115 0.024808953 0.06990289 0.023810778 -0.07805281 -0.0048109395
0.0461386 0.1020782 0.029026557 -0.05372705 0.027801443 0.043634914 0.057091042 -0.059762012
0.015581142 -0.055920444 0.044787336 0.07955037 0.059173167 0.05935733 -0.010080928 0.14690624
0.09031737 -0.014796196 0.04180101 -0.01774594 0.03207238 -0.058568496 0.0573262 0.07675398
0.054678332 0.07269236 0.13145515 0.11371994 0.07632768 0.10507235 0.01949717 -0.07002122
0.09330582 0.0095222015 0.07812212 -0.06115739 0.04758239 0.10495773 -0.03721859 0.028029844
-0.10070617 0.07239558 -0.0065103257 0.12307816 0.1754997 -0.01797633 0.005086651 -0.015252918
0.026341718 -0.007264755 0.13569407 -0.069225065 -0.015895069 0.04619594 0.13193971 -0.14315937
0.08767335 -0.02731111 -0.030333655 0.07922611 0.01215653 0.038874544 -0.061301798 0.07968648
0.03557872 0.05177592 0.0136772 -0.022524245 0.026486987 0.029234422 0.08567082 0.15094757
0.119798295 0.015225084 -0.08936627 0.009136325 0.05934833 0.007345374 0.0027668588 0.049709518
0.042290132 -0.05069454 0.045687985 -0.08561804 -0.20873623 0.010716682 -0.004373907 -0.00039513034
0.14384578 -0.0045050383 0.0872458 0.019451102 -0.018271096 -0.0054098163 0.010319443 0.06390312
0.0014777022 0.016873905 0.021755647 0.045635827 -0.018698666 -0.09938304 0.09138229 -0.22055009
-0.03726921 0.07724652 -0.04441615 0.05580639 -0.06895266 0.1803357 0.07591438 -0.020891376
0.05310986 0.08703902 -0.07399161 0.09332136 0.17445914 0.11386076 0.024681106 0.06014769
0.11237561 -0.018092252 0.039638907 0.00858529 -0.1397537 -0.15647128 -0.042838 -0.047958214
00000000: 7359 ea3d f345 3b3d 525d de3d cd42 2d3c
00000010: a34d c8bb aa00 513c b87a 083e bd6f a93d
00000020: c6ca 8e3d 0519 b23c 25d4 c23c 94b4 b63a
00000030: a8a1 e03d 9c98 9c3d e22c 58bc 9cc2 e83d
00000040: 1597 fa3c 101d f83d 83d8 a63d c4e7 0dbe
00000050: f9cf ac3b 78dd 2cbb f543 46bd a934 ab3d
00000060: 8a47 a63c bb92 f13d 6832 d63d afcd 3a3d
00000070: 16c6 d53d 7c5b e13c 57d3 023e 36fa d8bc
00000080: 921c 453d ffb8 793d ae11 103d 8a95 343d
00000090: 06c7 473c 3234 293d adb4 ae3d cc43 73bc
000000a0: cccf 1b3d dec1 733c fbe6 193d 21e6 303d
000000b0: 625e 103e 2410 293e d6af bfbc 3659 dfbc
000000c0: 32a9 163d 4387 193d f66d da3c 364e ccbc
000000d0: 3c14 a33c bc7d 0a3d 8c64 883d 9d87 013e
000000e0: 5df8 2a3e aeec 1abd 22e9 0b3e e3ec 5dbd
000000f0: 8d54 d53c 96b5 f0bc 90bf 463b a1fd 1f3e
00000100: 06e7 083e c570 013d 0351 cb3d c5ea 853d
00000110: 4c3f 003c 4130 553d 32cb 79bb 22df a03d
00000120: 8b09 a23d 7b81 ce3d 5b6b ed3c 28b4 083e
00000130: ceb3 a73c 1160 713d 76e4 5d3d 0737 a83d
00000140: 4dfd a13c 8535 103d 8a42 78bd c935 25bc
00000150: 7b14 2d3d c6d8 e53d 66a7 9e3d b179 dfba
00000160: fe66 be3d 4737 fa3c a386 803d 52a1 b93c
00000170: 197a 863d 52ff e2ba 64ba ce3d 1c2b bf3d
00000180: dc4c cabc 8dd3 24bd 4311 873d 11fa ed3d
00000190: f21b d73c fc24 563c ea33 a9bb c148 0e3d
000001a0: 0e77 8e3d bfc0 5c3d 1113 0cbc 5049 dcbc
000001b0: 85f0 d63c 60e0 1d3d 2be4 563c caa7 ca3d
000001c0: 3f0d d63d 3fd4 d13c bd01 c23d d0a1 883d
000001d0: c289 083e 063c bc3d 272a f63c 020c 7b3d
000001e0: a4da a83c ae77 b53c 5432 bd3d 253c cb3c
000001f0: 3f29 8f3d d20e c33c 27da 9fbd 16a5 9dbb
00000200: d4fb 3c3d 600e d13d 1ac9 ed3c e510 5cbd
00000210: dabf e33c 86ba 323d 4cd8 693d 03c9 74bd
00000220: 0c48 7f3c d60c 65bd ed72 373d 4eeb a23d
00000230: 905f 723d ac20 733d 7a2a 25bc 976e 163e
00000240: 50f8 b83d be6b 72bc 8937 2b3d ef5f 91bc
00000250: 545e 033d 85e5 6fbd e1ce 6a3d 3131 9d3d
00000260: 63f6 5f3d bbdf 943d 2e9c 063e 00e6 e83d
00000270: b051 9c3d 2c30 d73d 87b8 9f3c 4967 8fbd
00000280: 1f17 bf3d 0203 1c3c 7dfe 9f3d 2c80 7abd
00000290: c1e5 423d 14f4 d63d 8572 18bd d89e e53c
000002a0: 093f cebd 2244 943d 9254 d5bb 6710 fc3d
000002b0: 31b6 333e 1943 93bc ecad a63b 60e7 79bc
000002c0: 96ca d73c 2f0d eebb 63f3 0a3e dfc5 8dbd
000002d0: 6036 82bc f437 3d3d 341b 073e 5f98 12be
000002e0: 168e b33d 8dbb dfbc 497e f8bc 4c41 a23d
000002f0: 2f2c 473c ea3a 1f3d 9817 7bbd aa32 a33d
00000300: feba 113d fd12 543d 5616 603c c484 b8bc
00000310: 3dfb d83c 077d ef3c 2f74 af3d 0092 1a3e
00000320: cf58 f53d a172 793c aa05 b7bd 86b0 153c
00000330: 3c17 733d 77b1 f03b 3054 353b 359c 4b3d
00000340: 6b38 2d3d 14a5 4fbd 5323 3b3d 8358 afbd
00000350: f3be 55be 0695 2f3c fe52 8fbb 7f29 cfb9
00000360: 4f4c 133e 009f 93bb edad b23d eb57 9f3c
00000370: 44ad 95bc d444 b1bb e212 293c a4df 823d
00000380: 75af c13a 253b 8a3c e638 b23c a2ec 3a3d
00000390: f22d 99bc 5689 cbbd a326 bb3d e2d7 61be
000003a0: 99a7 18bd 6c33 9e3d b5ed 35bd 3e95 643d
000003b0: 0d37 8dbd eca9 383e 0079 9b3d 6424 abbc
000003c0: b989 593d 8441 b23d ea88 97bd 451f bf3d
000003d0: 6ba5 323e d52f e93d 0830 ca3c 6d5d 763d
000003e0: 2f25 e63d 3436 94bc 685c 223d 51a9 0c3c
000003f0: 981b 0fbe 023a 20be e676 2fbd d56f 44bd

discrete_action_output_shape f4 [1, 2]
3.0 3.0
00000000: 0000 4040 0000 4040

network_body._body_endoder.seq_layers.0.bias f4 [256]
0.03213101 -0.17576842 -0.17571615 0.0065096365 -0.00681927 -0.02131047 -0.15873072 0.15222682
0.057204477 0.03274344 -0.0076496876 -0.08543592 -0.15911332 0.015593371 -0.29465583 -0.0752053
0.016566806 -0.004415294 0.058545444 -0.07159319 0.020123027 -0.04465781 -0.10162664 -0.14156842
-0.081381775 -0.096364625 -0.052956738 -0.087074734 -0.17340618 -0.052692365 -0.11318071 0.1484
-0.05600008 -0.16365233 -0.08592212 -0.089699514 -0.042010557 -0.014889595 -0.08454028 0.015415529
-0.14288862 -0.1763677 -0.1298566 0.113380164 -0.10931798 0.0911906 -0.113530196 -0.075441375
-0.040225092 -0.18855146 0.08654634 -0.014654544 -0.03424777 -0.017827522 -0.085039444 -0.02245058
-0.19573341 -0.095858596 -0.2612754 -0.07319042 -0.12987672 -0.1572066 -0.13820791 0.029953577
-0.13197513 -0.06057173 -0.07039727 -0.027850721 -0.004763426 -0.076207414 -0.08803185 0.048362594
-0.1831574 -0.14894103 -0.20489639 -0.11766325 0.02861784 -0.13622798 -0.17157263 -0.18366738
0.038643837 -0.13004616 0.19826509 -0.025563562 -0.14188018 -0.07024359 -0.09742275 -0.049932197
-0.080092914 -0.021195337 0.09839703 -0.060405456 -0.16714849 -0.17652614 -0.081690855 -0.16802086
-0.16018781 0.01990026 -0.10133017 -0.15187259 -0.06410881 -0.20062612 -0.052680448 -0.089003846
-0.12912014 0.10896865 -0.084291235 -0.018168597 -0.1228592 -0.09018816 0.0088193435 -0.09934949
-0.16452245 -0.18943922 -0.13722573 -0.10052104 -0.13972396 0.07575078 -0.17207362 -0.11028861
-0.08022403 -0.089453325 -0.028184123 -0.06814779 -0.19896862 -0.07058178 -0.17160136 0.07962349
-0.054870058 0.024381487 -0.09749832 -0.02935042 -0.17842558 -0.10005552 -0.11129596 -0.104866125
-0.08735194 -0.10041222 0.1787105 -0.23193577 -0.049647376 0.015568283 -0.18221553 -0.19219157
-0.12111086 -0.16574234 -0.005886829 0.039635222 -0.13372594 -0.13396376 -0.029026812 -0.09914463
-0.07697248 -0.215562 0.035792325 -0.17882004 -0.00326478 0.10171698 -0.11757852 0.07216152
-0.09657879 -0.14353947 -0.12872468 -0.14742015 -0.062228452 -0.16939396 -0.0326264 0.034434162
-0.13193402 -0.15464291 -0.05828341 -0.009520533 -0.10420527 -0.13148615 -0.29533678 -0.15404376
-0.07319962 -0.071298555 -0.20633903 -0.020902248 -0.035699114 -0.033752054 -0.09964565 -0.13229847
-0.10289066 -0.060225148 0.013384422 -0.16149002 0.0043203165 -0.19811289 -0.087417 -0.019753786
-0.07131054 -0.020845545 0.004729258 0.08856837 0.007228588 -0.11633771 0.036563598 -0.14336751
-0.015879925 -0.14484447 -0.14182365 -0.14842744 -0.10644197 -0.116565004 -0.08582664 -0.1971428
0.12936936 -0.111139946 -0.15346877 0.055960774 -0.13229099 -0.21960208 -0.07254079 -0.016650852
-0.14376308 -0.089028716 -0.10530726 0.0047707837 -0.20359506 -0.06604309 -0.23059396 -0.089327194
0.05256219 -0.14514524 -0.019100858 -0.1745448 -0.027677352 -0.14419794 -0.20154957 -0.04845484
0.22396274 -0.050802894 -0.19937004 -0.22438185 -0.14984523 -0.13504827 -0.056687616 -0.20939845
-0.24251343 -0.20470633 0.066615276 -0.03855858 -0.16550367 -0.07419268 0.030416837 -0.1581332
-0.12204287 -0.011931866 -0.07026244 -0.09076418 -0.25177783 -0.16232026 -0.115882844 -0.15263271
00000000: ce9b 033d a3fc 33be efee 33be ca4e d53b
00000010: 2f74 dfbb 4b93 aebc 4e8a 22be 59e1 1b3e
00000020: 3e4f 6a3d fc1d 063d 3baa fabb 07f9 aebd
00000030: 9aee 22be 577b 7f3c 21dd 96be 3c05 9abd
00000040: 1cb7 873c 2cae 90bb 59cd 6f3d 739f 92bd
00000050: 0cd9 a43c 1ceb 36bd a121 d0bd 50f7 10be
00000060: 7dab a6bd d15a c5bd 2ae9 58bd 3d54 b2bd
00000070: 6491 31be f3d3 57bd 4acb e7bd 2bf6 173e
00000080: 5760 65bd 7a94 27be f0f7 afbd 61b4 b7bd
00000090: 4313 2cbd 7df3 73bc 7423 adbd 6a91 7c3c
000000a0: 6551 12be bc99 34be 21f9 04be dc33 e83d
000000b0: 1be2 dfbd 23c2 ba3d 8582 e8bd 0281 9abd
000000c0: 11c3 24bd a213 41be 353f b13d 9d19 70bc
000000d0: 6447 0cbd 060b 92bc 2929 aebd 47ea b7bc
000000e0: 576e 48be 8351 c4bd e4c5 85be dce4 95bd
000000f0: 67fe 04be c4fa 20be 6086 0dbe 3461 f53c
00000100: 7d24 07be 101a 78bd 722c 90bd 3227 e4bc
00000110: 8316 9cbb a212 9cbd 0b4a b4bd db17 463d
00000120: 9d8d 3bbe ff83 18be 5cd0 51be 6ef9 f0bd
00000130: f66f ea3c 597f 0bbe bcb0 2fbe 4d13 3cbe
00000140: 0049 1e3d d22a 05be 0106 4b3e ad6a d1bc
00000150: 0a49 11be dfdb 8fbd 9485 c7bd b485 4cbd
00000160: c107 a4bd d8a1 adbc 6284 c93d b66b 77bd
00000170: f928 2bbe 45c3 34be 894d a7bd a90d 2cbe
00000180: 4608 24be df05 a33c 3186 cfbd 7d84 1bbe
00000190: 7b4b 83bd ef70 4dbe 74c7 57bd a647 b6bd
000001a0: 1238 04be f52a df3d e2a0 acbd 4fd6 94bc
000001b0: 9b9d fbbd 92b4 b8bd 027f 103c bf77 cbbd
000001c0: 9378 28be 5bfc 41be e784 0cbe fadd cdbd
000001d0: cc13 0fbe 3a23 9b3d 1134 30be ffde e1bd
000001e0: 7f4c a4bd 4e33 b7bd 64e2 e6bc 1291 8bbd
000001f0: 6ebe 4bbe 2e8d 90bd 44b8 2fbe a411 a33d
00000200: 6dbf 60bd afbb c73c 33ad c7bd 4b70 f0bc
00000210: 32b5 36be e9e9 ccbd 23ef e3bd 0dc4 d6bd
00000220: 93e5 b2bd eca4 cdbd e3ff 363e 9280 6dbe
00000230: 0c5b 4bbd 1d12 7f3c b596 3abe decd 44be
00000240: f808 f8bd 5cb8 29be 4de6 c0bb 8b58 223d
00000250: 74ef 08be cc2d 09be a3c9 edbc 570c cbbd
00000260: bfa3 9dbd 49bc 5cbe f99a 123d 9a1c 37be
00000270: ebf5 55bb fe50 d03d 02cd f0bd 6bc9 933d
00000280: 1acb c5bd 03fc 12be 67d0 03be 4ff5 16be
00000290: 43e3 7ebd 9c75 2dbe 43a3 05bd d60a 0d3d
000002a0: b619 07be b65a 1ebe 96ba 6ebd 02fc 1bbc
000002b0: 9369 d5bd 4ea4 06be 6236 97be a6bd 1dbe
000002c0: afe9 95bd fa04 92bd 8a4a 53be 313b abbc
000002d0: 3c39 12bd 983f 0abd 0513 ccbd 4079 07be
000002e0: 57b8 d2bd a5ae 76bd 564a 5b3c a45d 25be
000002f0: 7191 8d3b 1bde 4abe af07 b3bd b1d2 a1bc
00000300: 430b 92bd 47c4 aabc e4f7 9a3b 5563 b53d
00000310: cbdd ec3b 7742 eebd b6c3 153d efce 12be
00000320: 9e16 82bc 1c52 14be 383a 11be 5dfd 17be
00000330: 3ffe d9bd a2b9 eebd e1c5 afbd cddf 49be
00000340: 6779 043e 579d e3bd eb26 1dbe 2037 653d
00000350: 4a77 07be 5edf 60be 4490 94bd 5e67 88bc
00000360: a136 13be b054 b6bd 55ab d7bd 3c54 9c3b
00000370: 397b 50be 9941 87bd d320 6cbe 2df1 b6bd
00000380: 734b 573d f4a0 14be 6779 9cbc dfbb 32be
00000390: 9dbb e2bc a0a8 13be 0363 4ebe 9578 46bd
000003a0: 7d56 653e b216 50bd a927 4cbe 5bc4 65be
000003b0: 0771 19be 184a 0abe 4631 68bd 8c6c 56be
000003c0: 7155 78be 899e 51be 976d 883d 9aef 1dbd
000003d0: cb79 29be 55f2 97bd bb2c f93c abed 21be
000003e0: 9df1 f9bd e07d 43bc c1e5 8fbd 92e2 b9bd
000003f0: 06e9 80be 4837 26be fc53 edbd c04b 1cbe

network_body._body_endoder.seq_layers.0.weight f4 [256, 99]
0.024069522 -0.040953398 -0.100823365 0.041305423 0.08948181 0.35197878 0.041082554 -0.37082568
-0.4769263 -0.36303002 0.059770644 -0.06860866 -0.3936956 -0.024296582 -0.14224936 0.15568726
-0.11623217 -0.61425495 -0.6382862 -0.64097464 -0.18308376 -0.019215774 -0.23632388 0.3894632
0.009299974 -0.10645686 0.22383234 -0.055277873 0.028522514 -0.24322352 -0.4589277 0.11495543
-0.27343002 0.17416534 -0.028869135 -0.3475893 0.17704676 0.022332657 -0.50080365 -0.17411612
0.0011425788 0.03034719 -0.26767173 -0.070285924 -0.13078043 -0.02686834 0.2915397 -0.27166077
0.052301727 -0.14782104 0.09376704 -0.05540261 -0.12209088 0.13623045 -0.035305057 0.0072571896
-0.0331324 0.37292257 -0.14624569 0.030911718 -0.13888153 0.3027311 0.15940242 0.054741766
-0.13354048 0.029571723 0.1576822 0.2214841 -0.042383287 0.01692812 -0.21896894 0.4145825
0.49036124 0.17421043 0.062085684 -0.15966396 0.26992023 0.16946957 -0.003575233 0.07318461
-0.62890106 0.20721032 1.0124028 -0.089141324 -0.025364034 -0.13493207 0.4335549 -0.0018889053
0.16707718 0.15039147 -0.4215997 -0.1936867 0.34829545 0.10225133 -0.35290614 -0.15540294
-0.23094474 -0.039906055 0.023206512 -0.25969207 -0.25207332 0.33306187 0.3965846 0.10852239
0.03889737 -0.1658436 0.28574762 0.46460146 0.10576802 -0.47822854 0.07636003 -0.009814095
0.3065147 -0.20533068 0.29117984 -0.12764551 0.22043125 0.381694 -0.16098064 -0.62832695
-0.011624778 0.044188987 0.1599643 0.021378456 0.26566812 -0.31716505 -0.45796293 0.6103757
0.023550937 -0.15188463 -0.18440963 0.025446467 0.17215274 -0.012203001 -0.0608698 0.06911495
0.12867425 0.26742488 0.051987097 -0.18682803 -0.37100995 0.003933277 0.039680682 -0.17538749
-0.019890197 -0.037448663 -0.26482108 0.27376422 -0.011018763 -0.4138049 0.05421095 -0.02766966
-0.097632326 -0.01823681 -0.41499454 -0.15751405 0.25242957 0.21763894 -0.3117651 -0.37830764
0.033266075 -0.11187222 -0.053817406 -0.24563378 -0.23214954 -0.4778103 0.16466026 -0.013058616
-0.51982236 -0.22833376 -0.3324228 0.024178317 -0.012532085 -0.15416904 0.00034103732 0.05925813
-0.61065847 0.005020917 -0.36789435 -0.22354156 -0.12239976 -0.020822683 -0.03811732 0.02416537
-0.031673722 0.37287116 -0.18967812 -0.12715997 -0.14499068 -0.11523688 0.094098166 -0.116092384
-0.08164711 -0.02488511 -0.11299558 -0.016871514 -0.05919685 0.12262701 -0.06607243 -0.3842332
0.14004777 0.28910804 0.17103326 -0.005070788 -0.33522385 -0.0012610394 0.28352392 0.09212243
-0.04152134 -0.35805163 0.05590384 0.044926845 -0.014110898 -0.09548225 -0.4861711 -0.0037856575
0.33440614 -0.12422939 -0.13379537 -0.16223161 0.2809986 0.1644677 -0.2142949 0.06340843
-0.2770258 0.058370873 0.027053209 -0.4020853 -0.27017885 -0.08556843 0.2296036 0.01509993
-0.4204256 -0.16779195 -0.21956103 0.0857465 -0.09191665 -0.2633971 -0.25198373 -0.021408731
0.10316614 -0.14229453 -0.36487785 -0.3340142 -0.28984264 0.016370343 0.0014717481 -0.11081271
-0.35554206 -0.122454785 0.3156412 0.2424452 -0.37728417 -0.22032095 -0.07819822 -0.082960136
00000000: 722d c53c c0be 27bd 7b7c cebd e02f 293d
00000010: 3d42 b73d 9036 b43e 2e46 283d dddc bdbe
00000020: af2f f4be 12df b9be 10d2 743d b282 8cbd
00000030: 7892 c9be a009 c7bc d1a9 11be 7b6c 1f3e
00000040: 220b eebd d03f 1dbf b966 23bf ea16 24bf
00000050: 4f7a 3bbe 666a 9dbc e3fe 71be b867 c73e
00000060: eb5e 183c 0e06 dabd 4e34 653e 0d6b 62bd
00000070: 0ca8 e93c 960f 79be 92f8 eabe c16d eb3d
00000080: 05ff 8bbe 6658 323e f77e ecbc 3af7 b1be
00000090: bf4b 353e faf2 b63c ab34 00bf 7f4b 32be
000000a0: 95c2 953a ac9a f83c 450c 89be 11f2 8fbd
000000b0: 4eeb 05be fe1a dcbc b144 953e 1f17 8bbe
000000c0: 563a 563d 665e 17be ef08 c03d d9ed 62bd
000000d0: c90a fabd ff7f 0b3e 099c 10bd b8cd ed3b
000000e0: d7b5 07bd b5ef be3e 6ec1 15be 923a fd3c
000000f0: f636 0ebe 92ff 9a3e 633a 233e e738 603d
00000100: d6be 08be 6640 f23c 7177 213e bacc 623e
00000110: 199a 2dbd d7ac 8a3c 6539 60be 2844 d43e
00000120: a110 fb3e 3864 323e 8f4d 7e3d f37e 23be
00000130: fc32 8a3e 6e89 2d3e 754e 6abb d0e1 953d
00000140: a9ff 20bf f12e 543e 6a96 813f ba8f b6bd
00000150: 3cc8 cfbc a22b 0abe e8fa dd3e 2595 f7ba
00000160: 4816 2b3e 3900 1a3e eadb d7be ce55 46be
00000170: c853 b23e 2569 d13d 1db0 b4be f321 1fbe
00000180: c77c 6cbe 8874 23bd 951b be3c 5cf6 84be
00000190: c10f 81be 1687 aa3e 230d cb3e fd40 de3d
000001a0: d952 1f3d e8d2 29be 834d 923e 3ee0 ed3e
000001b0: e79c d83d 5fda f4be a662 9c3d 4ccb 20bc
000001c0: 7fef 9c3e 3542 52be 8615 953e 81b5 02be
000001d0: bbb8 613e 656d c33e 1cd8 24be 09da 20bf
000001e0: da75 3ebc 83ff 343d aecd 233e df21 af3c
000001f0: a705 883e 7563 a2be 1e7a eabe 9541 1c3f
00000200: e5ed c03c a587 1bbe e1d5 3cbe 1c75 d03c
00000210: cf48 303e 19ef 47bc 9d52 79bd 248c 8d3d
00000220: 2fc3 033e eaeb 883e 6cf0 543d d94f 3fbe
00000230: 04f5 bdbe b8e2 803b 3688 223d c798 33be
00000240: c4f0 a2bc c563 19bd a196 87be d32a 8c3e
00000250: 0b88 34bc 3cde d3be 4d0c 5e3d 7cab e2bc
00000260: 75f3 c7bd 5d65 95bc 2a7a d4be 5d4b 21be
00000270: 733e 813e bedc 5e3e ad9f 9fbe 8ab1 c1be
00000280: 0242 083d 431d e5bd a46f 5cbd 6c87 7bbe
00000290: 9cb8 6dbe 8da3 f4be b39c 283e cef3 55bc
000002a0: 1413 05bf 53d0 69be 5233 aabe 9b11 c63c
000002b0: 6053 4dbc 7dde 1dbe 41cd b239 a7b8 723d
000002c0: 1d54 1cbf 8186 a43b a65c bcbe 14e8 64be
000002d0: baac fabd 5594 aabc e820 1cbd 74f6 c53c
000002e0: 4ebc 01bd f8e8 be3e fb3a 42be 3936 02be
000002f0: 7078 14be 5001 ecbd 8ab6 c03d d8c1 edbd
00000300: 9a36 a7bd dcdb cbbc 3a6a e7bd 2136 8abc
00000310: 6578 72bd df23 fb3d fb50 87bd 37ba c4be
00000320: af68 0f3e f805 943e 5823 2f3e da28 a6bb
00000330: 76a2 abbe 7649 a5ba 0c2a 913e afaa bc3d
00000340: 4812 2abd 8b52 b7be 6dfb 643d 3605 383d
00000350: 6531 67bc 338c c3bd 6beb f8be cb18 78bb
00000360: 4837 ab3e fa6b febd a701 09be 0b20 26be
00000370: 0cdf 8f3e 396a 283e 1f70 5bbe 47dc 813d
00000380: 53d6 8dbe 4c16 6f3d b19e dd3c 20de cdbe
00000390: e254 8abe 803e afbd 351d 6b3e b265 773c
000003a0: 0642 d7be a7d1 2bbe 9bd4 60be dc9b af3d
000003b0: cc3e bcbd fcdb 86be 0304 81be 5d61 afbc
000003c0: c548 d33d a8b5 11be 45d1 babe e903 abbe
000003d0: 4166 94be 191b 863c ace7 c03a c6f1 e2bd
000003e0: 9c09 b6be 93c9 fabd b99b a13e 8e43 783e
000003f0: 642b c1be d19b 61be 6326 a0bd 01e7 a9bd

network_body._body_endoder.seq_layers.2.bias f4 [256]
-0.09800573 -0.36042473 -0.079292126 -0.415927 -0.14934899 -0.09875253 -0.21099071 -0.34394822
0.11401134 -0.3230764 0.058199387 0.0787342 -0.1383414 0.14479594 -0.29901856 -0.18741044
0.0017203968 -0.30574685 -0.05264891 -0.15029082 -0.038509738 0.23636226 -0.1410207 -0.10464754
-0.12313424 -0.10959241 -0.066525236 -0.044167127 -0.21170035 0.15358554 -0.39488634 -0.17854267
-0.23112679 -0.42753407 -0.19487545 -0.36106005 -0.18480013 -0.29295576 -0.1581025 -0.027776528
-0.3198153 -0.31975153 -0.22849402 -0.22245999 -0.08317105 -0.12999912 0.0007935707 -0.29522762
0.07633414 -0.12818527 -0.12716258 -0.28419617 -0.2607726 -0.11906807 -0.12932044 -0.39276505
-0.37004364 -0.27796072 -0.24663451 -0.08986847 -0.34558296 -0.041464545 -0.38039386 -0.18852705
-0.06772837 -0.24317841 -0.16302972 0.094735034 -0.31428617 -0.21003357 -0.23175873 -0.22115578
-0.23897308 -0.11778347 -0.07043118 -0.2448033 -0.12511902 -0.2811776 -0.043595996 -0.036411617
0.016253216 -0.23322487 0.027005278 -0.020342417 0.04677345 0.0030885166 -0.052110292 -0.16429149
-0.03643715 -0.08182053 -0.016926415 -0.11302628 -0.12728623 -0.111049175 -0.07050392 -0.005680494
-0.2806606 0.0029629807 -0.062395114 -0.0878411 0.008381108 -0.22692466 -0.28172922 -0.17077611
-0.19332021 -0.035715178 -0.08055894 -0.19290948 -0.3100271 0.039946325 0.23576246 -0.33924136
-0.0170626 -0.022207953 -0.30600366 -0.41282806 -0.27511856 -0.21433501 -0.14554504 -0.25008798
-0.2826409 -0.118241325 -0.09211092 -0.18111217 -0.2748604 -0.39771792 -0.117117524 -0.2681735
-0.11361778 -0.18682627 -0.25385797 -0.22707409 -0.34920868 -0.3632961 -0.17970629 -0.033050887
-0.38247418 -0.11185652 -0.13586743 -0.16697587 -0.10111436 -0.17372306 -0.08073559 0.17747992
-0.09606413 0.09924314 -0.24763794 -0.47242907 -0.0853968 -0.27398965 -0.07666219 -0.14493315
-0.083331 -0.18965922 -0.29256776 -0.059708446 -0.2987807 -0.22635183 0.0030765478 -0.08200554
-0.22471501 -0.22974439 -0.4204348 -0.23573077 -0.29649335 0.021595707 -0.047277708 0.015476475
-0.18050516 0.020511543 0.1866886 -0.24638045 0.0038879293 0.023946546 -0.05828548 -0.22265181
-0.021112908 -0.39540827 0.010032183 -0.04108374 -0.15422466 -0.24152245 -0.1343759 -0.15879904
-0.2023356 -0.027968043 -0.088781014 -0.279016 -0.087726146 -0.080296844 -0.40943062 -0.18568636
0.003651358 0.16013506 -0.06051936 -0.43653226 -0.0644335 -0.09807443 0.042173944 -0.18763636
-0.2281578 -0.21887696 -0.06346544 -0.15934104 -0.0068683894 -0.025572903 -0.107955925 -0.1992103
-0.14062747 -0.044572998 0.10666317 -0.09750285 -0.21385728 0.12299027 -0.15820765 -0.2778596
-0.20821938 -0.07945036 -0.4552193 -0.33158293 -0.20043932 -0.28882053 -0.09597312 -0.32332233
-0.19957513 -0.42367348 -0.22656086 -0.19837946 -0.4780863 -0.2602205 0.11739549 -0.043402553
-0.20000412 -0.021344189 -0.068157285 -0.13208625 -0.016214235 -0.2280135 -0.0428021 -0.20081875
-0.41413942 -0.07456856 0.09398361 -0.1564271 -0.08855102 0.22194943 -0.124037266 -0.03176151
-0.21435365 -0.45444214 -0.1659137 -0.09593344 -0.29596868 -0.23982017 -0.17648509 -0.20761009
00000000: 3ab7 c8bd 9789 b8be e963 a2bd 62f4 d4be
00000010: f1ee 18be c43e cabd f30d 58be fb19 b0be
00000020: c77e e93d 456a a5be 7b62 6e3d 653f a13d
00000030: 5ea9 0dbe 6345 143e f618 99be 86e8 3fbe
00000040: f07e e13a da8a 9cbe 62a6 57bd d6e5 19be
00000050: 63bc 1dbd f308 723e bb67 10be 7351 d6bd
00000060: ce2d fcbd fc71 e0bd 623e 88bd 97e8 34bd
00000070: fac7 58be 8745 1d3e 8b2e cabe e4d3 36be
00000080: 80ac 6cbe bfe5 dabe 6e8d 47be dddc b8be
00000090: 3f3c 3dbe 4cfe 95be 9fe5 21be 9a8b e3bc
000000a0: d5be a3be 79b6 a3be 56fa 69be 8dcc 63be
000000b0: 9555 aabd 7d1e 05be a107 503a 1328 97be
000000c0: 1355 9c3d 0043 03be e836 02be 2982 91be
000000d0: fc83 85be f6d9 f3bd 946c 04be 8018 c9be
000000e0: 5c76 bdbe de50 8ebe c28d 7cbe f60c b8bd
000000f0: 40f0 b0be bad6 29bd fcc2 c2be 3c0d 41be
00000100: 2cb5 8abd c303 79be 43f1 26be 7104 c23d
00000110: 1eea a0be 0a13 57be 2952 6dbe a976 62be
00000120: 5cb5 74be 7638 f1bd 393e 90bd b7ad 7abe
00000130: 331f 00be 83f6 8fbe b791 32bd 5924 15bd
00000140: 7725 853c 80d2 6ebe 2c3a dd3c 24a5 a6bc
00000150: 8495 3f3d b668 4a3b 9a71 55bd 073c 28be
00000160: 1f3f 15bd 8691 a7bd 44a9 8abc 537a e7bd
00000170: 5257 02be c06d e3bd 5c64 90bd 7023 babb
00000180: bfb2 8fbe 912e 423b 0592 7fbd 09e6 b3bd
00000190: ea50 093c f05e 68be d03e 90be efdf 2ebe
000001a0: bcf5 45be 144a 12bd 16fc a4bd 108a 45be
000001b0: dfbb 9ebe c29e 233d b76b 713e 0bb1 adbe
000001c0: dec6 8bbc 74ed b5bc 83ac 9cbe 335e d3be
000001d0: 57dc 8cbe a37a 5bbe c209 15be 880b 80be
000001e0: 4fb6 90be 8228 f2bd a6a4 bcbd 7875 39be
000001f0: 81ba 8cbe afa1 cbbe 50db efbd 094e 89be
00000200: 70b0 e8bd 634f 3fbe acf9 81be 1c86 68be
00000210: 7bcb b2be f201 babe ed04 38be 5e60 07bd
00000220: a8d3 c3be 0815 e5bd d520 0bbe b9fb 2abe
00000230: 0c15 cfbd 75e4 31be b358 a5bd 4cbd 353e
00000240: 45bd c4bd fd3f cb3d cd94 7dbe 39e2 f1be
00000250: 84e4 aebd 5f48 8cbe 1101 9dbd 5b69 14be
00000260: 71a9 aabd 0736 42be 71cb 95be d890 74bd
00000270: c9f9 98be c6c8 67be e89f 493b 85f2 a7bd
00000280: b11b 66be 1d42 6bbe 3b43 d7be 6863 71be
00000290: facd 97be 7be9 b03c 45a6 41bd 0a91 7d3c
000002a0: 58d6 38be d307 a83c 4c2b 3f3e 284b 7cbe
000002b0: a1cc 7e3b 8c2b c43c c1bc 6ebd d6fe 63be
000002c0: faf4 acbc f472 cabe 065e 243c 6c47 28bd
000002d0: 12ed 1dbe a951 77be d699 09be 379c 22be
000002e0: 1031 4fbe 3d1d e5bc d2d2 b5bd 2fdb 8ebe
000002f0: c4a9 b3bd ac72 a4bd e4a0 d1be 9124 3ebe
00000300: 9f4b 6f3b 72fa 233e 26e3 77bd 2881 dfbe
00000310: b6f5 83bd 3fdb c8bd 96be 2c3d bf23 40be
00000320: 33a2 69be 4821 60be 2bfa 81bd 4c2a 23be
00000330: 3a10 e1bb 447e d1bc ff17 ddbd c9fd 4bbe
00000340: a600 10be 2d92 36bd 3872 da3d 93af c7bd
00000350: 67fd 5abe 53e2 fb3d 3001 22be 9d43 8ebe
00000360: 7637 55be dfb6 a2bd 8112 e9be 3dc5 a9be
00000370: f73f 4dbe 49e0 93be 8e8d c4bd 818a a5be
00000380: 6c5d 4cbe bbeb d8be 92ff 67be fc23 4bbe
00000390: bac7 f4be 9f3b 85be 0c6d f03d e0c6 31bd
000003a0: e1cd 4cbe 02da aebc 0c96 8bbd 9e41 07be
000003b0: b7d3 84bc 5f7c 69be 4151 2fbd 6ea3 4dbe
000003c0: 150a d4be 67b7 98bd 7b7a c03d 6d2e 20be
000003d0: 3d5a b5bd b646 633e 4007 febd 5b18 02bd
000003e0: 867f 5bbe a4ac e8be 48e5 29be c078 c4bd
000003f0: 3589 97be 6b93 75be 82b8 34be bd97 54be

network_body._body_endoder.seq_layers.2.weight f4 [256, 256]
-0.11290632 -0.0014803438 -0.25136685 -0.26378366 -0.2574128 0.086851746 -0.3095903 -0.13468134
-0.27801198 0.1010196 -0.33303857 0.08010899 0.12308698 -0.031203216 -0.28965062 -0.21725982
-0.30081657 0.090266734 -0.12097472 -0.08692917 0.021009479 -0.13727324 -0.5347731 -0.22940093
0.07861243 -0.055546787 -0.07429893 -0.033009168 0.13206224 0.0882959 -0.11394469 -0.2535863
0.20495085 0.36040387 0.08861572 -0.26139617 -0.037378997 -0.35342336 0.08649731 -0.1947611
-0.07730404 -0.15386026 -0.097547896 0.13654768 0.1687083 -0.0063248198 -0.13022943 -0.06876282
-0.026594121 -0.054590866 -0.192565 0.09307762 0.21236357 0.37109354 -0.10887373 0.11040383
-0.14784677 -0.051832035 -0.16686636 -0.12420624 0.2796556 -0.23391485 0.10660276 0.05644542
-0.1287954 0.21792 -0.037239276 -0.26469228 0.11162531 -0.026757874 0.05180515 -0.21934792
-0.12784511 0.021575216 0.14850573 0.14801852 -0.067047 -0.027070008 -0.017235685 0.16782306
-0.06699754 -0.04818516 0.012570393 -0.07355872 -0.061457034 -0.21740672 0.18217726 -0.007931641
0.057163782 0.07032594 -0.049886685 0.03647222 0.058738537 -0.28391176 -0.060051933 -0.11718105
0.024210138 -0.20372872 -0.23011693 0.17017698 0.113208726 0.050923366 -0.37078232 -0.1169266
-0.08821933 0.008720263 0.1792111 -0.24084139 0.07913647 0.11606419 -0.36459494 -0.122046225
-0.041285712 0.061133854 0.3829382 -0.35851893 0.057156887 0.23461057 0.1260413 -0.10401234
0.18693717 -0.043139517 0.12299135 0.020837152 -0.032898784 0.2258246 -0.02240491 0.10027737
-0.0047540786 0.14320208 -0.06281916 0.09119103 -0.17040314 -0.06622457 -0.15280807 -0.33131024
0.014656713 -0.07517389 -0.44691557 0.10351778 -0.24845774 0.022602195 -0.025683597 0.16938831
-0.25320303 -0.26218498 -0.0021402927 -0.11645488 0.041716415 0.015841102 0.24884483 0.0903163
0.0025942647 0.19829667 -0.11500345 0.38160723 0.049867295 0.10768368 -0.17416659 0.19056448
0.14606988 0.27406088 -0.03835161 -0.048238184 0.081666514 0.21981323 0.066821426 -0.15124989
-0.31059948 0.48508197 -0.03650439 -0.4014139 -0.058339074 -0.058741566 -0.16734579 0.013898155
0.036078535 -0.15564038 -0.01123162 -0.014093924 -0.24377878 0.106606774 -0.0029928966 -0.114469334
-0.2553677 0.034441773 0.29642478 -0.077920705 -0.26495627 0.08512435 -0.10636854 0.023744708
-0.3167677 0.17877634 -0.18290338 -0.08192317 -0.49243698 -0.057944294 -0.20388807 -0.12897328
-0.08492394 -0.04456092 -0.28814697 -0.11399042 0.07555625 -0.11272651 0.28189754 -0.08810728
0.18782112 -0.17307447 -0.10245667 -0.29572323 -0.0046788612 -0.07308823 -0.24992473 0.0008746106
-0.1840224 0.2647805 -0.24369515 -0.1070617 -0.21096388 0.40155154 0.04822104 0.4043692
-0.08014064 -0.065765664 -0.08953629 -0.20646882 -0.32837483 -0.06043023 0.22967307 0.009558148
-0.4628554 -0.14117704 -0.13298325 0.029278377 0.09977599 0.008346856 -0.014417473 -0.2117829
-0.11538435 0.60956746 -0.15424609 -0.19893587 0.021006893 0.12414017 -0.034896903 0.15158235
0.1469432 0.17448193 -0.022237586 -0.013102197 0.2427784 0.11348037 0.34313032 -0.15392941
00000000: 6e3b e7bd 1808 c2ba 28b3 80be a70e 87be
00000010: 9ccb 83be 54df b13d 9f82 9ebe e8e9 09be
00000020: 9657 8ebe 5de3 ce3d 0884 aabe 2f10 a43d
00000030: 0715 fc3d e39d ffbc 164d 94be 5c79 5ebe
00000040: a104 9abe c4dd b83d 98c1 f7bd ec07 b2bd
00000050: 121c ac3c 5b91 0cbe e4e6 08bf 14e8 6abe
00000060: 8eff a03d 0785 63bd 0a2a 98bd 9f34 07bd
00000070: 533b 073e 7bd4 b43d d55b e9bd 10d6 81be
00000080: a3de 513e db86 b83e 297c b53d b8d5 85be
00000090: b81a 19bd e8f3 b4be 8025 b13d 746f 47be
000000a0: 9551 9ebd 8b8d 1dbe 31c7 c7bd 28d3 0b3e
000000b0: dec1 2c3e 6f40 cfbb dd5a 05be 85d3 8cbd
000000c0: eadb d9bc ac9a 5fbd c22f 45be 7b9f be3d
000000d0: d675 593e f9ff bd3e 31f9 debd 671b e23d
000000e0: 2565 17be d44d 54bd 04df 2abe d75f febd
000000f0: 052f 8f3e 6087 6fbe 8c52 da3d 5033 673d
00000100: f1e2 03be 6c26 5f3e 3688 18bd bf85 87be
00000110: cf9b e43d 5433 dbbc a331 543d be9c 60be
00000120: d4e9 02be 82be b03c e311 183e 2b92 173e
00000130: f04f 89bd ecc1 ddbc da31 8dbc cfd9 2b3e
00000140: 0236 89bd cd5d 45bd 0df4 4d3c f4a5 96bd
00000150: 5fba 7bbd de9f 5ebe ad8c 3a3e b7f3 01bc
00000160: 9224 6a3d 0c07 903d fb55 4cbd e563 153d
00000170: d297 703d e25c 91be 04f9 75bd 9efc efbd
00000180: 5754 c63c 439e 50be c6a3 6bbe e042 2e3e
00000190: fad9 e73d 0595 503d 2ed7 bdbe 3777 efbd
000001a0: 56ac b4bd 6fdf 0e3c 1d83 373e 209f 76be
000001b0: 4d12 a23d 10b3 ed3d 30ac babe 5ff3 f9bd
000001c0: 351b 29bd 7e67 7a3d 7a10 c43e cb8f b7be
000001d0: 571d 6a3d c13d 703e f810 013e 6c04 d5bd
000001e0: 756c 3f3e 10b3 30bd e4e2 fb3d adb2 aa3c
000001f0: e0c0 06bd 903e 673e 808a b7bc 395e cd3d
00000200: 1ac8 9bbb 91a3 123e 55a7 80bd 5dc2 ba3d
00000210: 297e 2ebe bfa0 87bd b879 1cbe 7fa1 a9be
00000220: b622 703c c5f4 99bd 1ed2 e4be 2101 d43d
00000230: b56b 7ebe 3d28 b93c 6866 d2bc 2174 2d3e
00000240: d4a3 81be 1c3d 86be 2744 0cbb e57f eebd
00000250: d5de 2a3d 33c5 813c 2ed1 7e3e c1f7 b83d
00000260: 8a04 2a3b 480e 4b3e ee86 ebbd 0662 c33e
00000270: a641 4c3d 4389 dc3d ba58 32be 5623 433e
00000280: 5893 153e b551 8c3e 9416 1dbd 6795 45bd
00000290: c640 a73d b816 613e acd9 883d 40e1 1abe
000002a0: e506 9fbe aa5c f83e a185 15bd 1f86 cdbe
000002b0: f4f4 6ebd ff9a 70bd b25c 2bbe 16b5 633c
000002c0: 16c7 133d 3160 1fbe d404 38bc 34ea 66bc
000002d0: 25a1 79be a754 da3d 7924 44bb e66e eabd
000002e0: 8ebf 82be d112 0d3d fdc4 973e e494 9fbd
000002f0: 59a8 87be ad55 ae3d c0d7 d9bd 4384 c23c
00000300: 602f a2be 2511 373e 064b 3bbe 56c7 a7bd
00000310: b320 fcbe ff56 6dbd 09c8 50be 9211 04be
00000320: 9aec adbd 8385 36bd 0088 93be cf73 e9bd
00000330: 3cbd 9a3d 28dd e6bd e054 903e 9771 b4bd
00000340: 2e54 403e 6f3a 31be cdd4 d1bd 0969 97be
00000350: 2251 99bb 48af 95bd 45ec 7fbe 2046 653a
00000360: 5e70 3cbe 4f91 873e 398b 79be 2a43 dbbd
00000370: ea06 58be 2a98 cd3e 6d83 453d 7b09 cf3e
00000380: c720 a4bd 26b0 86bd cd5e b7bd 906c 53be
00000390: bf20 a8be b085 77bd 6b2f 6b3e c799 1c3c
000003a0: 62fb ecbe b790 10be c32c 08be 35d9 ef3c
000003b0: 5b57 cc3d 40c1 083c 4437 6cbc 9edd 58be
000003c0: a14e ecbd 9d0c 1c3f b0f2 1dbe d8b5 4bbe
000003d0: a616 ac3c 343d fe3d 0ef0 0ebd 6738 1b3e
000003e0: 4778 163e 64ab 323e 992b b6bc 99aa 56bc
000003f0: e79a 783e 6568 e83d c7ae af3e ac9f 1dbe

network_body._body_endoder.seq_layers.4.bias f4 [256]
-0.17137052 -0.16920474 -0.10528653 -0.2198029 -0.08974029 -0.09920116 -0.13426305 -0.17659946
-0.22103833 -0.35900062 -0.1504109 -0.22322132 -0.3603858 -0.34328943 -0.19347814 -0.07893992
-0.23158804 -0.11393418 -0.082174145 -0.016737442 -0.29611167 0.14096797 -0.22062978 -0.23764011
-0.05972003 -0.3379073 -0.16992414 -0.4886881 -0.09885157 -0.42122322 -0.13013147 -0.2190529
0.06300921 -0.1224204 -0.15853389 -0.18148181 -0.42310002 -0.32967037 -0.18228674 -0.35924086
-0.15447728 -0.27614644 -0.17378935 -0.42918313 -0.4182176 -0.21686801 -0.28049928 -0.25161114
-0.18317986 -0.3924858 -0.45695093 -0.24386345 -0.18472949 -0.28516343 -0.10954356 -0.27687016
-0.15723917 -0.24053252 -0.20082761 -0.017518736 -0.2509577 -0.21911182 -0.21904501 -0.07759536
-0.2123778 -0.25090027 -0.22877997 -0.20110878 -0.1795255 -0.21536207 -0.19380723 -0.24216188
-0.16715273 -0.1426664 -0.2830023 -0.4387376 -0.12679206 0.1116394 -0.144896 -0.24409862
-0.3538839 -0.18481317 -0.25053373 -0.22662772 -0.2505102 -0.069576465 -0.02689473 -0.13221538
-0.13470891 -0.27133816 -0.23261802 -0.22590898 -0.17527944 -0.19265495 -0.104367614 -0.15425235
-0.28561544 -0.1334757 -0.1871136 -0.09874948 -0.21720955 -0.24534763 -0.06621923 -0.1566677
-0.19694936 -0.1700062 -0.34613654 0.090777755 -0.23289084 -0.2426074 -0.27691346 -0.31222564
-0.3284675 -0.19452001 -0.20099321 -0.21260117 -0.087551594 -0.23683788 -0.33033517 -0.18246004
-0.16089419 -0.32211655 -0.21915041 -0.19098796 -0.12665656 -0.24210444 -0.11082411 -0.19969814
-0.24870609 0.0039960216 -0.19060953 0.015955297 -0.1719539 -0.1364039 -0.1693731 -0.28659356
-0.34774867 -0.16091903 -0.08268886 -0.24800418 -0.1509236 -0.27662334 -0.30245823 -0.10940247
-0.20467307 -0.26481208 -0.2254311 -0.09815283 -0.13297462 -0.21816 -0.19595107 -0.10226884
-0.17561683 -0.097775325 -0.16174625 -0.20690303 -0.11098097 -0.28266555 -0.29512164 -0.14006557
-0.30698964 -0.25760862 -0.09886305 -0.1426945 -0.1348139 -0.11657759 -0.26298526 -0.25330985
-0.16098045 -0.26345092 -0.18845057 -0.28647223 -0.42685002 -0.19559577 -0.23384114 -0.2552575
-0.2611642 -0.23581642 -0.09629352 -0.23698933 -0.11054052 -0.239422 -0.054300107 -0.09655027
-0.4187359 -0.2228123 -0.29322666 -0.16577682 -0.18540841 -0.15916467 -0.20792794 -0.1919131
-0.45121986 -0.13719541 -0.19347905 -0.1715507 -0.20527375 -0.19721667 -0.08379903 -0.2790808
-0.4509509 -0.1289048 -0.22931075 -0.1811878 -0.17107034 -0.3930509 -0.19571048 -0.09315597
-0.14198217 -0.2355498 -0.30001754 -0.10034032 -0.106454626 -0.16615765 -0.27422112 -0.31206447
-0.41342333 -0.17497206 -0.21660596 -0.15447803 -0.04252797 -0.20029663 -0.25064623 -0.037335325
-0.17100906 -0.21481545 -0.1732838 -0.09569314 -0.1427806 -0.17832327 -0.09445732 -0.040649407
-0.27594092 -0.06499562 -0.15387793 -0.17904517 -0.016222432 -0.17524707 -0.06439485 -0.28015208
-0.1907387 -0.22037233 -0.16343044 -0.36327648 -0.02893863 -0.117300175 -0.3830476 -0.2334159
-0.31660464 -0.36891377 -0.12647748 -0.17989959 -0.26218992 -0.07243696 -0.20395406 -0.29722354
00000000: c17b 2fbe 0244 2dbe 77a0 d7bd 0314 61be
00000010: c2c9 b7bd fa29 cbbd 417c 09be 7dd6 34be
00000020: df57 62be eece b7be 5105 1abe 2194 64be
00000030: 7d84 b8be a2c3 afbe 221f 46be 41ab a1bd
00000040: 6a25 6dbe 5356 e9bd eb4a a8bd f61c 89bc
00000050: f39b 97be e859 103e c6ec 61be ee57 73be
00000060: fd9c 74bd 3002 adbe 9800 2ebe 5435 fabe
00000070: b172 cabd 92aa d7be 2f41 05be 674f 60be
00000080: f90a 813d 8cb7 fabd b556 22be 5ed6 39be
00000090: 91a0 d8be 8eca a8be 60a9 3abe 6bee b7be
000000a0: 4b2f 1ebe 1163 8dbe d6f5 31be e4bd dbbe
000000b0: 9e20 d6be a612 5ebe 9a9d 8fbe 2dd3 80be
000000c0: 8093 3bbe e6f3 c8be 79f5 e9be 57b7 79be
000000d0: ba29 3dbe f100 92be 6058 e0bd edc1 8dbe
000000e0: 4e03 21be 284e 76be c1a5 4dbe 7483 8fbc
000000f0: 877d 80be d95e 60be 564d 60be 51ea 9ebd
00000100: 9179 59be 0076 80be 4c45 6abe 76ef 4dbe
00000110: 88d5 37be e087 5cbe 6775 46be 49f9 77be
00000120: 162a 2bbe 2417 12be ade5 90be 37a2 e0be
00000130: c7d5 01be 33a3 e43d 9e5f 14be fdf4 79be
00000140: 4530 b5be aa3f 3dbe f545 80be 1911 68be
00000150: df42 80be 1b7e 8ebd 5652 dcbc 7863 07be
00000160: 22f1 09be d6ec 8abe 6b33 6ebe af54 67be
00000170: 747c 33be 5747 45be b0be d5bd 54f4 1dbe
00000180: 303c 92be dbad 08be b59a 3fbe 2b3d cabd
00000190: 2e6c 5ebe 693c 7bbe f39d 87bd 7f6d 20be
000001a0: 18ad 49be 1b16 2ebe cf38 b1be b0e9 b93d
000001b0: f07a 6ebe 136e 78be 9ac7 8dbe 0adc 9fbe
000001c0: e42c a8be 4130 47be 2ad1 4dbe 1fb4 59be
000001d0: 404e b3bd a185 72be b121 a9be ced6 3abe
000001e0: 72c1 24be 76ec a4be f768 60be 5992 43be
000001f0: 42b2 01be 3aea 77be c0f7 e2bd ab7d 4cbe
00000200: cfac 7ebe 0ff1 823b 252f 43be afb4 823c
00000210: af14 30be 77ad 0bbe 2470 2dbe 64bc 92be
00000220: 1d0c b2be f5c7 24be c758 a9bd cff4 7dbe
00000230: b78b 1abe 93a1 8dbe cedb 9abe 670e e0bd
00000240: d195 51be 7395 87be 69d7 66be 5a04 c9bd
00000250: 802a 08be 5665 5fbe 66a7 48be 5372 d1bd
00000260: e6d4 33be 6e3e c8bd cfa0 25be 63de 53be
00000270: fe49 e3bd 8ab9 90be 2f1a 97be 596d 0fbe
00000280: bf2d 9dbe 47e5 83be b678 cabd 821e 12be
00000290: a80c 0abe 3bc0 eebd 01a6 86be d4b1 81be
000002a0: 0fd8 24be 0ae3 86be 30f9 40be 7dac 92be
000002b0: 168c dabe 424a 48be 0d74 6fbe 1cb1 82be
000002c0: 50b7 85be dc79 71be 8935 c5bd 55ad 72be
000002d0: 1163 e2bd 0a2b 75be ca69 5ebd 26bc c5bd
000002e0: 8d64 d6be e828 64be ce21 96be 66c1 29be
000002f0: b4db 3dbe 10fc 22be 10eb 54be de84 44be
00000300: 4a06 e7be f47c 0cbe 5f1f 46be fdaa 2fbe
00000310: 4833 52be 2bf3 49be d39e abbd aee3 8ebe
00000320: 09e3 e6be 9fff 03be 70d0 6abe 4b89 39be
00000330: 102d 2fbe f83d c9be 5468 48be 8fc8 bebd
00000340: c663 11be f733 71be e69b 99be 3a7f cdbd
00000350: e204 dabd 3b25 2abe b666 8cbe eac6 9fbe
00000360: 39ac d3be e02b 33be f4cd 5dbe 7d2f 1ebe
00000370: cf31 2ebd 8f1a 4dbe b454 80be edec 18bd
00000380: 001d 2fbe 95f8 5bbe 4f71 31be c4fa c3bd
00000390: 1435 12be 609a 36be d772 c1bd fe7f 26bd
000003a0: 2148 8dbe 6c1c 85bd 2d92 1dbe 9e57 37be
000003b0: e8e4 84bc f873 33be 72e1 83bd 1870 8fbe
000003c0: 0151 43be 49a9 61be 4f5a 27be 60ff b9be
000003d0: b510 edbc 133b f0bd d11e c4be 9404 6fbe
000003e0: 011a a2be 44e2 bcbe 5083 01be 9937 38be
000003f0: c23d 86be d459 94bd 55d9 50be af2d 98be
