results/AWSTrackRayPerceptionOnlyApr14/MoveSomewhere/MoveSomewhere-23999940.onnx (onnx, 638066 bytes, 11 tensors)

action_model._discrete_distribution.branches.0.bias f4 [3]
00000000: 8708 8d3d e462 08bf 14c1 ff3e
0.06886392 -0.53275895 0.49951994

action_model._discrete_distribution.branches.0.weight f4 [3, 256]
00000000: 98a4 7e3c 3d6f bdbc c232 41bc 6c16 583e
00000010: 4bf6 053e 1068 cfbe 2734 f9be 4ee5 44be
00000020: f392 8dbd e7ae 4d3c 5bbe 1cbd 556a 3dbe
00000030: 4f01 d0be 9f1e 463e 0172 223d 980f 47be
00000040: 6677 86bc f1c4 3bbe 3711 b2bc 4d28 263e
00000050: 0e5f 0c3f 1125 3a3e 4482 0bbe dff8 c3bd
00000060: 6be4 67be 2dd2 50be ebbb 323e 16af ae3e
00000070: af50 87be 593e 14be a81e 533e 1834 093e
00000080: 6bdb a23e bf0d 2fbe ece7 a13e cfe4 573e
00000090: 4c70 913e fd25 243e 6ecf a43c d0f8 93be
000000a0: 3343 633e 27b3 9a3e 6f7f 33bd 00db 80be
000000b0: 4486 33be 4e2c 81bd de0a 5f3e 39c2 863e
000000c0: 63b5 1ebe e1e0 bbbc 625d f0bc 31ef 523e
000000d0: 3671 c6bd 7544 4f3e 77b8 60be 99d7 313e
000000e0: e9b1 b2be d565 6b3e 60fd 9cbd 7eff 35be
000000f0: ce1c aa3c 7f6e a83d 9e42 3bbe d9a7 693e
00000100: 9ccd f7bb 4ed9 eebd d4c9 003d 524b 073f
00000110: 806a f53d b308 cbbd 6c86 debe 0e1a 6cbe
00000120: d5cc 25bd da60 59be 8a28 51bd 29bd c83e
00000130: 2b48 7c3e 7b4e b53c 626c cabe 53af d33c
00000140: b5aa 7bbe 0bcb 153e b264 59bd d7af 8cbd
00000150: 4147 92bd 65a7 05be 54e2 9dbd f362 76bd
00000160: 1193 5e3c 3748 b23d 6dc9 d8be fa0a 11bd
00000170: c180 0bbf 6d83 0b3e e749 30be 3f51 153e
00000180: 43cb c83c 1413 35bd d7d1 c93d d40b a5be
00000190: b7ba 0bbf eb70 bebd 5ba8 473e 7456 753e
000001a0: b674 d2bc efbf 61bc ead8 19be a377 b23e
000001b0: 9c56 0fbe cf70 91be 7b64 163e 2d18 21be
000001c0: 6c24 233d 5b29 653e 394c 963b ba60 fe3e
000001d0: 26bd b03e 8f58 d23d 5821 7f3e 603d 903e
000001e0: cb4d 9e3d 018d 563e 29db 6cbe eec3 c8bd
000001f0: 2f3e 8a3e 3bbf a13e 01af 27be 76cb acbd
00000200: df13 74bd a708 963d d715 0dbf bee7 5ebd
00000210: 1812 cbbd f535 023d ac45 75be 35c6 843e
00000220: ea30 30bd 4a66 00be ca1e 45be 73ab 123e
00000230: 3034 973d a8d0 5a3e 2c96 d23e 795f c53c
00000240: 4dc0 de3d 7655 7c3e 2789 ac3c 07e2 4c3e
00000250: 8253 0dbd 67be 7abe 497e 9abe 9bff 063e
00000260: a349 9abe 77fc fcbc 9004 cd3e 6edc 4ebe
00000270: af1e 6a3e 7b93 ac3e b02f 10bc 4c6e 41be
00000280: 871c ab3e e513 23be 9b11 0d3b e164 c7bd
00000290: 2468 c13e eef6 cf3e 1103 773c d3be d7be
000002a0: c77c f33d 920a 943c 0941 dc3d 700f bf3d
000002b0: dccb afbe 1b52 ca3e b9a7 0abe ec29 6c3e
000002c0: bfa0 7c3e d7cc b53d c238 b439 3793 6b3c
000002d0: 7a5c febc b2ce 36be 3569 11be 3c06 18bf
000002e0: 795f 043e 1bf7 91be 5bb4 8d3e 7317 b53e
000002f0: 5b24 b2bd c51e 96be 5381 b03e c336 5a3e
00000300: 1d6e 2e3d 3e0b 4d3e 4ba5 8e3e 5bc0 31be
00000310: d3fc 99bd 181f 88be d101 6fbe 6c65 5cbe
00000320: 6f00 c83c 239f afbd f6cb a73e 6022 35be
00000330: 0918 713e 658f 243e 1919 06bf 76b7 603e
00000340: 4e9b 05be b209 353e 3b4c 0bbd e605 433d
00000350: ab85 00be 64f2 42bf 7ae6 cebd 9ce5 b23d
00000360: 34cc cfbd f4fe 9d3e 2a53 cebe a813 f63e
00000370: bb1e a0be c5a7 15bd 7e2a 803e 7397 28be
00000380: c1c1 b2bd b395 953e 63fd 39be ebb5 773a
00000390: e43d 01bf b6ae 373f e768 58be 13a3 c53e
000003a0: 6d2f 2fbd afb4 ba3d a02c 5ebb a084 9a3d
000003b0: 226c f2bd a33b 83bd 4c03 233e d877 f0bd
000003c0: e445 f83e 2eb8 e0bd 7d68 87bc 442f e8be
000003d0: 74d2 b73b 1ad5 403d ec09 d23d 49b7 c8bd
000003e0: cac8 efbc 55b4 863e 3d5a 40bf d1b8 323e
000003f0: 1aa6 4bbd 1a05 edbd 2c2d 823c bbe3 0f3e
0.015542172 -0.023124332 -0.011791887 0.21102303 0.13082235 -0.4050908 -0.48672602 -0.19228098
-0.06912794 0.012553907 -0.038267475 -0.18497594 -0.40625998 0.19347619 0.039659504 -0.19439542
-0.016414355 -0.18336846 -0.021736724 0.16226311 0.5483254 0.18178202 -0.13623911 -0.09568953
-0.22645728 -0.20392676 0.17454498 0.34117955 -0.26428744 -0.14476909 0.20617163 0.13398778
0.31808028 -0.17095087 0.31622255 0.21083377 0.28405988 0.16030116 0.020118441 -0.28900766
0.22193603 0.30214807 -0.043822702 -0.25167084 -0.17531687 -0.063072786 0.21781489 0.26320055
-0.15498881 -0.022934379 -0.029341403 0.20599057 -0.09689562 0.20240958 -0.21945368 0.173674
-0.3490136 0.22988065 -0.07665515 -0.17773244 0.020765688 0.082242005 -0.18287131 0.22817935
-0.0075623523 -0.11662541 0.03144248 0.52849305 0.11983204 -0.099137686 -0.4346193 -0.23056814
-0.040478546 -0.21228352 -0.05106405 0.39206818 0.24636905 0.022132149 -0.39535815 0.025840437
-0.24576838 0.14628236 -0.053074546 -0.06869476 -0.07142497 -0.13052137 -0.07709184 -0.06015296
0.013584868 0.0870518 -0.42341176 -0.03541086 -0.5449334 0.13624354 -0.17215692 0.14581774
0.024510985 -0.044207647 0.09854477 -0.32235587 -0.5458178 -0.09298881 0.19497816 0.2395876
-0.025690418 -0.013778671 -0.15024152 0.348569 -0.13997883 -0.2840638 0.14686768 -0.15731879
0.039829656 0.22379057 0.004586723 0.49683172 0.3451931 0.102707975 0.24915063 0.28171825
0.077296816 0.20952226 -0.23130478 -0.098029956 0.27000567 0.3159121 -0.16375352 -0.084372446
-0.059589263 0.07325869 -0.5511145 -0.054420225 -0.099155605 0.03178974 -0.23952359 0.2593247
-0.043015398 -0.1253902 -0.19250026 0.14323215 0.07383001 0.21368659 0.41130197 0.024093376
0.10876522 0.24641976 0.021061493 0.20008098 -0.034503467 -0.24486695 -0.30174473 0.13183443
-0.30134305 -0.030882103 0.40042543 -0.20201275 0.22863267 0.3370627 -0.008800432 -0.18889731
0.33420202 -0.15925558 0.0021525386 -0.09736038 0.37774765 0.4061808 0.015076415 -0.42137775
0.11889034 0.018071447 0.10754592 0.09329116 -0.3433522 0.39515767 -0.13540544 0.23062867
0.24670695 0.08876961 0.00034374563 0.0143783605 -0.031049956 -0.17852286 -0.1420029 -0.5938451
0.12927045 -0.2850884 0.27676663 0.35369453 -0.086983405 -0.2932035 0.34473667 0.21309952
0.04258548 0.2002382 0.27860484 -0.17358534 -0.075189255 -0.26586223 -0.23340537 -0.21523064
0.02441427 -0.08575275 0.32772797 -0.17688894 0.23544325 0.16070326 -0.52382046 0.21944985
-0.13047525 0.1767948 -0.034008246 0.047613047 -0.1255099 -0.7615111 -0.10102554 0.08735201
-0.101463705 0.30858576 -0.40297824 0.48061872 -0.31273445 -0.03653695 0.2503242 -0.16464023
-0.08728362 0.29215774 -0.18163066 0.000944941 -0.5048506 0.7175096 -0.21133767 0.38600978
-0.042769838 0.09116494 -0.003390111 0.075448275 -0.11837031 -0.06407859 0.15919226 -0.117416084
0.48490822 -0.109726295 -0.016529316 -0.4534856 0.0056098048 0.04707823 0.10255799 -0.09800584
-0.029270548 0.26309457 -0.7513769 0.17453314 -0.049718954 -0.11573239 0.01589068 0.14051716

action_model._discrete_distribution.branches.1.bias f4 [3]
00000000: 8753 38bd d6a8 fb3d 2573 71bd
-0.045001533 0.12288062 -0.0589477

action_model._discrete_distribution.branches.1.weight f4 [3, 256]
00000000: e32e f93c 74ac e0bc ee92 573e 97b9 c0be
00000010: 0ab6 683d 44ab aabe 31d0 643d b919 1e3e
00000020: 317c bf3d 10d6 be3b 80a5 d13e 4698 3fbc
00000030: ba8e 33bd 05dc bf3b f913 833b d5f7 b9bc
00000040: 8f4e e0bd 3c83 90be a620 403e bd04 1a3e
00000050: d637 fc3d 66eb fe3c 87d6 893d 6569 1abe
00000060: 5d5c 8fbe 8a3a 033e 2b67 cd3e 3df0 cd3d
00000070: 651a c7bd 6579 eb38 308c c83b 862b ec3d
00000080: 6fab 51be f891 58be b751 0abe fca7 ea3e
00000090: 5975 2c3e 1364 38bd bf43 b2bc 71a5 7e3d
000000a0: 4773 debd fb51 97bd cb64 7b3e 433b 7abd
000000b0: 97c7 c2bc d7d7 0d3e 7abf aabd e1f7 bd3e
000000c0: c7c0 023d 532b 803d 5ae4 22bc d494 7dbe
000000d0: 99a5 c0bc 5ac6 38be fd3c ca3d cf2d 793d
000000e0: d326 2e3e 23b1 cd3e 9cae 793e 4b49 fe3d
000000f0: 13d6 bd3c 9727 263e 0638 993d 1273 8a3e
00000100: 150e e9bd 0308 4abd 9c4e d3bd 7bd0 5fbe
00000110: 71bc 823d 71e7 80bd b462 7fbc 5e6e a63d
00000120: 6895 37be 5bb5 643d 71ec 0ebe 76dc 14bd
00000130: dbca fe3e e419 b53c 57f8 dcbe 4337 b5be
00000140: 59cb c53e f764 b83d 807c 46be b123 333c
00000150: c7ef 4f3e fecd 913e ad61 c8bd 6845 80bd
00000160: 3973 a0bc c2e9 273e f85a 8a3e fc37 84be
00000170: b914 243e 81a5 9a3e e405 b83e 4b5c 05bd
00000180: e757 273e 82a5 90bd 3477 7e3e eb96 54be
00000190: d040 2fbe 23c0 21bd 7329 60bd 5e63 3cbe
000001a0: 0702 a63d 4ad1 613e 3cc4 f03d 69f6 533d
000001b0: a3b3 8bbd d22e 023e d3ca 7ebe 6687 003e
000001c0: 3558 83be 5103 a13c 1086 283d 27a2 653e
000001d0: 7467 e03c 6ac0 afbe 7bf9 cb3e 8f72 a63d
000001e0: 0544 1c3e 6dd7 4d3e 67e4 97bb d573 7d3d
000001f0: 2647 07be 538b dbbc 0a07 063e b2b0 94be
00000200: e50f d3bc e82f a3bc b95e 3f3e f8a3 20bd
00000210: cd8c db3d d5f1 9f3d 7458 413e a457 dcbe
00000220: b5a1 9b3d b723 06bd a445 df3e 39ef c8be
00000230: a4a6 4c3e 2fb9 9c3e ccd6 0fbe 7d2c 88bd
00000240: be4f 883e 05c7 c4be af36 a63b 3b43 50be
00000250: 78dc 5e3e 9822 253d 85bb dbbd eea6 07be
00000260: e59d 533e e5a6 463d e1fe 863e 533f 633e
00000270: 9bf0 c53e 92e7 833e 24c4 983e 9197 c8be
00000280: 2d63 15be 9c72 b4bd b994 2fbc 364a 1b3e
00000290: 371d ec3c a79a 883e 9252 1b3d 6869 373f
000002a0: 37cf 013d e881 283e 10b1 eb3e f417 a73e
000002b0: 1303 79be 8da6 14be 951f 983e 8ac0 5cbd
000002c0: 3e07 cebd 81d2 fbbb 6222 02be d21e 32be
000002d0: 81aa 413f e04e 12be 022d b2bd 796e c03e
000002e0: 6496 99be 961f 8c3e 1d41 66be c5ac 8dbe
000002f0: 6194 f4bc bfa9 8e3c 0c05 a538 1706 4fbe
00000300: 3b32 debe f693 e0bd e0ea 24be c063 4ebe
00000310: 7560 5e3b 2593 13bd 81e8 3fbd 188c 093e
00000320: 442e 5abb 61cc 923d 6377 323d 43c7 703e
00000330: a398 f9bb f141 8e3e 6e95 3a3e dd4f 6d3e
00000340: 8cf5 833d b0df cfbe 4ee3 88bd 946c 09bc
00000350: b002 d63c b8b6 8f3d 66e7 f23d aa12 8bbd
00000360: 85ed a03e c442 f03e 54f6 3e3d 036b d7bd
00000370: f8f9 273d 1680 d1bc 2c04 0bbc ce42 8a3d
00000380: 0eb6 33bf b9bb 68bc caf4 fb3e 43b4 2cbe
00000390: 5dd5 cb3c 462c de3e ce01 533e 5cf0 d2be
000003a0: 6338 c03c 9875 12be d9d1 853c 3edf 64be
000003b0: d415 8b3d 6c6f bf3e 0b51 143f 012e 1abc
000003c0: 2538 193d 9a44 75be 3e37 093f f9ec f53c
000003d0: 1f96 8f3d ac94 b53d 1c5f 14be 0238 033e
000003e0: a0f4 36be badc 81be 67a5 7bbe 0d8b 783d
000003f0: 01a3 3a3e fdd5 e6bd 294a bf3c b5de d23e
0.030417865 -0.027425982 0.21052143 -0.37641594 0.05681423 -0.3333379 0.05586261 0.154395
0.093498595 0.005823858 0.4094658 -0.01169402 -0.043837287 0.005855086 0.0040001837 -0.022701183
-0.10952484 -0.28225124 0.18762454 0.1504087 0.12315337 0.031118106 0.06730371 -0.15079267
-0.28000155 0.128153 0.40117773 0.100555874 -0.09721831 0.00011228285 0.0061202273 0.11531739
-0.20475553 -0.21149433 -0.13507734 0.45831287 0.1684164 -0.045017313 -0.02176082 0.062169496
-0.10861831 -0.073886834 0.24550168 -0.061091673 -0.023776812 0.13851868 -0.083373025 0.3710318
0.031922128 0.062582634 -0.009942139 -0.24763805 -0.023516463 -0.18044415 0.09874914 0.060834702
0.17006998 0.40174207 0.24383014 0.12416323 0.023173368 0.1622604 0.07481389 0.27040917
-0.11379639 -0.049324047 -0.10317728 -0.21856873 0.063835986 -0.06294144 -0.0155874975 0.081265196
-0.17928088 0.055837017 -0.13957383 -0.03634306 0.4976414 0.022107072 -0.43158218 -0.35393724
0.38631704 0.090036325 -0.1938343 0.010933802 0.20306312 0.28477472 -0.09784255 -0.06263238
-0.019586192 0.16397765 0.2702253 -0.25823963 0.1602353 0.30204394 0.35941994 -0.03255872
0.16342126 -0.07062818 0.2485016 -0.20760696 -0.17114568 -0.039489876 -0.05472703 -0.1839728
0.081058554 0.22052494 0.11756179 0.051748667 -0.06821372 0.12713173 -0.24882059 0.1255165
-0.25653234 0.019654902 0.041143477 0.22425137 0.02739308 -0.34326488 0.39838776 0.08127319
0.15260322 0.2010171 -0.004635382 0.061878044 -0.13210735 -0.026799833 0.13088623 -0.29041058
-0.025764415 -0.019920304 0.18688478 -0.039218873 0.10720215 0.07809798 0.18881398 -0.43035614
0.075992025 -0.032748904 0.4360782 -0.39245012 0.19985443 0.30610034 -0.14046782 -0.066491105
0.26623338 -0.3843309 0.0050724368 -0.20338146 0.2176379 0.040316194 -0.10729126 -0.13247272
0.206657 0.048499007 0.26366332 0.22192125 0.3866013 0.25762612 0.29837143 -0.39178136
-0.14588614 -0.088109225 -0.010716611 0.15165028 0.028822524 0.2668049 0.037920542 0.7164521
0.031691756 0.16455805 0.46033525 0.32635462 -0.24317579 -0.14516659 0.29711595 -0.053894557
-0.10059975 -0.007685006 -0.12708429 -0.1739457 0.75650793 -0.14287901 -0.08699991 0.37584284
-0.2999755 0.27367848 -0.22485776 -0.27670875 -0.029855909 0.017414926 7.868753e-05 -0.20217167
-0.43397698 -0.10965721 -0.16105223 -0.20155239 0.0033932005 -0.036029 -0.046852592 0.13432348
-0.0033291737 0.071678884 0.043570887 0.23513512 -0.0076170727 0.27784684 0.18221065 0.23174997
0.06443319 -0.40600348 -0.0668398 -0.008387703 0.026124328 0.07017273 0.11860542 -0.06790669
0.31431213 0.46925938 0.046621636 -0.10518458 0.041009873 -0.025573771 -0.008484881 0.06751023
-0.7019967 -0.014204913 0.49210197 -0.1686564 0.024882013 0.43393153 0.20606157 -0.41199005
0.023464387 -0.14302671 0.016335415 -0.22350785 0.06791273 0.37389696 0.5793616 -0.009410382
0.03740706 -0.2395195 0.5359992 0.030020224 0.07011055 0.088662475 -0.14489406 0.12814334
-0.17866755 -0.25363714 -0.24574815 0.060679484 0.18226244 -0.11271284 0.023350792 0.41185537

discrete_action_output_shape f4 [1, 2]
00000000: 0000 4040 0000 4040
3.0 3.0

network_body._body_endoder.seq_layers.0.bias f4 [256]
00000000: 9842 56be b0ad 0cbf fe83 14bf f649 b2be
00000010: 3a8f 01bf f829 8bbe 4465 87be 7d03 e7be
00000020: 74fc 9bbe c94e 4cbd b01a dfbe e943 9f3e
00000030: de1e bcbe 9074 cabe 326d c0bd 81c8 27be
00000040: f72e 7fbe c442 56be 742f 11be 08d1 b7be
00000050: 0bd0 22be 147b 2dbe 9a59 1bbc 74bf d7be
00000060: 6bbe 083d 5e0f ccbe b2f6 14be 953a a2be
00000070: 6716 d0be 23b7 38bf 1f24 abbe 5dca 0fbf
00000080: ef8c 4bbf 9adb b6be 7a38 37be b228 8bbe
00000090: 6084 76be 2df9 cdbe b3b4 ecbe d15d 0cbe
000000a0: 8773 40be a6cd 9ebe 1fa9 15be 3199 08be
000000b0: 87ae aebd 67ed d7be 6420 1dbe 1e0a d2be
000000c0: d75e 37bf 8217 c8ba 3c35 aabe 1e3b 81be
000000d0: be57 a9be 3d75 29be c387 bfbe c1a2 adbe
000000e0: d41b 00bf 7270 39be 7356 49bf 5a26 38be
000000f0: 0056 89be 0892 a6bd 7c4c a1be 8514 b6be
00000100: b498 75be 8f48 6ebe 476d c6be eff4 86be
00000110: d16f 6abe 9c1f 9ebd bd05 39be 5238 46be
00000120: e7d5 65be 9852 48be 3f13 61be 9311 03bf
00000130: c76e 30be 7e1c 81be 818b 27bf f045 79be
00000140: 1a90 8cbe 77de 36be d50a 863e 60d7 76be
00000150: cbb8 b8be 1d56 f0bd 179f 17bf ecc6 12bf
00000160: 3daf 20be ca25 6cbc dc3d 29bd 9220 77bd
00000170: 644b c3bd 2729 51be bd95 18bf ddf8 86be
00000180: 8fd3 eebd 1716 b1be 3e29 35be cbec 0f3d
00000190: 1883 13be ad5b d4be 5a80 283d f994 09be
000001a0: 218e 94be 43cf 673e ecfd b6be 54b5 7dbe
000001b0: 2129 b1be 16f8 81be eeb3 a2be e66a 81bd
000001c0: 8870 04bf 5ea4 aebe 3574 f3be cb00 33be
000001d0: 699d 80be e0e8 dcbe b2d7 52be ca2c 08bf
000001e0: 5b49 6cbe b98e d8be d54a 3dbe 9d49 4a3e
000001f0: 592e 33be bade fdbe 81a2 3dbe 5db3 7ebf
00000200: e9ce adbd 540e 9bbd 61f6 53be 553f 8cbe
00000210: e8bc 99be 5881 5fbe 2487 49be 0b06 8fbe
00000220: af2d 56be 0722 4cbe 53e6 31be 824d b73c
00000230: 116d 713d ce31 38bf 3e61 78be e513 47be
00000240: 04d2 3fbe 26c5 90be f3e6 49be 136f 9ebe
00000250: 1878 a5bc 63ac dabd 2a0f 22be 892b 973e
00000260: 42d4 87bd 17f5 25be ed7b 27be 0854 e1be
00000270: ce4a e6bd 4af4 9cbc 495a a5be 4c10 6ebe
00000280: 1a81 06be f174 93be 5b35 bdbe ad65 dfbe
00000290: 67c9 25be 0da3 bb3e 9b4e 87bd fde9 b03c
000002a0: e241 aabe ea4d e9bd 125a 1bbe 87e2 9bbe
000002b0: bc1c 86be 3ffa e7be 5606 66be b05c a3be
000002c0: af4b 84be 5760 bfbe db30 a3be ccf9 e2be
000002d0: 70b0 83be 4a4e 83be d91a b8be 0d33 cebd
000002e0: 09cd f3be cd00 51be d02c 05bd 4ca1 65be
000002f0: 4a20 0cbe cd5c 75bd 807c 14be 79a9 00bf
00000300: 350f 84be c4c2 2dbc 60e8 86be 2b1d eebd
00000310: b22c 9fbe 20e1 99be abfa 6dbe 7fd2 19bf
00000320: 0803 ccbe 58dc 74be 1f4c 433e 6b56 59be
00000330: e978 16be 61c2 9bbe 9294 36be 957a 4cbe
00000340: e458 cbbd 9c90 ecbc 4bd0 66be 0cde 9fbd
00000350: 9361 ccbe 451e 09bf a4c0 39be 81ec 90be
00000360: dcfd 06be 6e8c 83be e5ac 5bbc 95e1 1ebe
00000370: 47d3 14be 9344 82bd 7b41 78be 0b31 b2be
00000380: 0fe1 e8be 4087 16be e432 18bf bd67 43be
00000390: 4412 38be ffd0 3fbe 82e9 b2be 7c21 2bbe
000003a0: c5e4 8cbe acad 30bf 15fe 1bbe 0082 1dbe
000003b0: 486f 5abe a472 b2be ca0f 92be f92e 9dbe
000003c0: da6e d2be 712e 1abd e86a b6be aa55 cfbe
000003d0: 3716 89be 3ff8 99be 0757 32be a0e6 3abf
000003e0: b0a0 a9be ba80 fb3d 1799 94be 7e68 0bbf
000003f0: 83bd 99bd 50d0 5dbe 10c1 0fbe 2557 69be
-0.20923841 -0.54952526 -0.58013904 -0.34822053 -0.5060917 -0.27180457 -0.26444447 -0.4511985
-0.30466044 -0.049879823 -0.43575048 0.311065 -0.367423 -0.39542055 -0.09395827 -0.1638508
-0.2492026 -0.20923907 -0.14178258 -0.35901666 -0.15899675 -0.16941482 -0.009481812 -0.42138255
0.03338472 -0.39855474 -0.14547232 -0.3168532 -0.40642092 -0.72154444 -0.33425996 -0.56168157
-0.7951192 -0.35714418 -0.17892638 -0.27179486 -0.24073935 -0.4022917 -0.46231613 -0.13707663
-0.1879407 -0.31016272 -0.14615296 -0.13339688 -0.08529382 -0.4217331 -0.15344387 -0.41023344
-0.7162909 -0.0015265795 -0.3324374 -0.25240415 -0.33074754 -0.16548629 -0.37408265 -0.33913234
-0.5004246 -0.181093 -0.78647536 -0.1798338 -0.26823425 -0.08133322 -0.31503665 -0.3556253
-0.23984033 -0.23269866 -0.38755247 -0.26358745 -0.22894217 -0.07720873 -0.18068595 -0.19357422
-0.22444879 -0.19562757 -0.21979998 -0.5119869 -0.17229758 -0.2521705 -0.6544724 -0.24343085
-0.2745369 -0.17858301 0.2618014 -0.24105597 -0.36078486 -0.11735175 -0.59227127 -0.5733478
-0.15691848 -0.0144133065 -0.04131876 -0.060333796 -0.09535864 -0.20425855 -0.5960348 -0.26361743
-0.11661445 -0.34587166 -0.17691514 0.035137933 -0.14405477 -0.41476193 0.04113803 -0.13435735
-0.29014686 0.22637658 -0.35740602 -0.24776202 -0.3460169 -0.25384587 -0.317779 -0.063192174
-0.5173421 -0.34109777 -0.47549596 -0.17480771 -0.25120094 -0.4314642 -0.20590094 -0.5319334
-0.23074858 -0.4229639 -0.18485577 0.19754644 -0.17498149 -0.4958399 -0.18519022 -0.99492437
-0.084867306 -0.07571092 -0.20699455 -0.27392069 -0.30026937 -0.21826684 -0.19680458 -0.27934298
-0.20915864 -0.19934855 -0.17373018 0.022375826 0.058941904 -0.71950996 -0.24255845 -0.19441183
-0.18732458 -0.28275412 -0.19717006 -0.30944118 -0.020198867 -0.106774114 -0.15826097 0.29525402
-0.06632282 -0.16206776 -0.16355868 -0.44009423 -0.112447366 -0.019159455 -0.32295445 -0.23248404
-0.13135186 -0.28800157 -0.3695477 -0.4363226 -0.1619011 0.36647835 -0.0660679 0.02159595
-0.3325339 -0.11391814 -0.15171078 -0.30446264 -0.26193798 -0.4530811 -0.22463354 -0.31906652
-0.25838992 -0.3737819 -0.3187321 -0.44331205 -0.2572055 -0.25645667 -0.35957983 -0.10068331
-0.47617367 -0.20410462 -0.03251344 -0.22424811 -0.13684192 -0.059902955 -0.14500618 -0.50258595
-0.25792852 -0.010605518 -0.26349163 -0.11626657 -0.31088787 -0.3005457 -0.23240153 -0.60086817
-0.39846063 -0.2391218 0.19072007 -0.21224372 -0.14694561 -0.30421737 -0.17830113 -0.19968636
-0.09929064 -0.028877549 -0.22540395 -0.07806024 -0.39918193 -0.5356181 -0.18139893 -0.28305438
-0.13182777 -0.25693077 -0.0134079205 -0.1551574 -0.14533721 -0.06360736 -0.24243729 -0.34803042
-0.45484206 -0.14700031 -0.5945265 -0.19082542 -0.17975718 -0.1873207 -0.34943777 -0.16711992
-0.27518287 -0.69015 -0.15233643 -0.15381622 -0.21331513 -0.3485309 -0.2852767 -0.306999
-0.41100198 -0.037641946 -0.35628438 -0.40495044 -0.2677476 -0.3007221 -0.17416011 -0.73008156
-0.33130407 0.12280412 -0.29023048 -0.5445632 -0.075068496 -0.21661496 -0.14038491 -0.22787149

network_body._body_endoder.seq_layers.0.weight f4 [256, 99]
00000000: 233b 9bbd fb2b 0b3e d02b 703c e8dd e6bc
00000010: 6e47 6abf 73c6 48be 2297 9dbe dee4 463e
00000020: b742 aabd a8a0 84bf acef 9dbe 4b12 d8bc
00000030: e3e0 adbd 9f35 e93c 1982 fbbe acdf 953c
00000040: 0812 09bf c830 523e 415a 7c3d 5222 32bf
00000050: e76a 243e c84a 41be dfaf c1be b683 5c3e
00000060: 01c6 e8be 3f2d 6abe 6bc7 3f3e 088e 33bd
00000070: 0040 463e ab74 0dbf 250e bebe 4437 e83e
00000080: f883 73be c55e f33c 8b31 14bf b201 0e3e
00000090: 24f0 d2bc 268c d6be e542 bb3d 4bea 18bf
000000a0: 01a8 a4be 4f92 3e3d d6cd f53c 66e0 063e
000000b0: d33e e3be 2a57 dc3e 6927 b5be f4e2 0ebf
000000c0: b3dd 093d f3d2 28bf 531e 583e 08da a4be
000000d0: 969e 93be c58f 833c 7bf5 ccbe 7cb0 cbbd
000000e0: ed51 3f3d 205a 64be 3135 a3bd cd4c d8be
000000f0: fc4c 22bf 63cb bb3d 7f44 b0bd fdba d5bd
00000100: cd2d 613d 5e0e 24be 77f8 133e d3a9 e5bd
00000110: 44f0 fe3c c305 64be 3880 d2be f607 9fbe
00000120: ea70 c3bd 8f71 7c3d ea8b b6bb 2d23 94be
00000130: 82fd 963d 8981 5fbd 2bf3 913d aa78 ef3c
00000140: 8355 5fbe b7b8 9f3c 6539 343e 69fc d93d
00000150: 31ac 433e a18d 9cbe 586d 0a3f 05d7 2cbe
00000160: 6a4f f3bd efea bd3d 4ead e43d 1ccd 12bf
00000170: c03a 06bf 4353 153e 48f9 0e3e b7b0 33bf
00000180: f62b b6be 039b b6bf d402 8ebf 464c 0dbf
00000190: 7767 34bf ba90 e1be 8214 ac3d 7f7b 4cbf
000001a0: b09e 84be ad89 0ebf d54f 03bf a446 06be
000001b0: bfa3 7fbf a2b2 b0bd b8a4 27bf 6f7a a2be
000001c0: 8043 84bd f039 40bf 4604 583d 863f 82be
000001d0: 077a 6bbf 3624 abbd 3d63 5fbf 715a 6dbd
000001e0: 0f2a a8be 4f2b d1be f37e 3b3e 6f77 50bf
000001f0: ff2c a6be 2b45 8ebe 12e9 59bf c28e a23b
00000200: 3050 62bf 984f a8be cfc5 84be ee18 bc3d
00000210: 9aab f1bd 6923 30bf 0252 c9be 38db 1ebe
00000220: 10e9 4bbf 242a 983d ef80 1bbf 0e73 78be
00000230: 47b4 03bf 33ec 8fbe ff6f b13b 2fc8 4abf
00000240: 2d0a e5be 3074 653e 776e 68bf a284 ae3d
00000250: 036e 3cbf 4ab2 aabe b8f6 1dbf da86 8b3e
00000260: 1e13 4a3e 6d9c 01bf 6599 76bf 1fe8 d03e
00000270: e409 ddbe 96c1 c63d 29e0 99be 9879 08bf
00000280: 7f5a 853e 96f5 a83e 626c 903d 6877 2bbf
00000290: 69d9 5fbf 9deb 873e ceba 163e edea a2bc
000002a0: f22a edbe a2ed 7fbf 2b13 773d fe9c d03e
000002b0: cfbc 2fbc e8c6 0bbf 8783 0abf 0e05 eb3e
000002c0: 8560 273e 1680 6ebd d892 01bf 285f eebe
000002d0: 6353 653e b6f9 993d f3e6 8f3d 29fb f0be
000002e0: ff62 20bf 6e44 bf3e 9c7f 30be cd99 c73d
000002f0: fc94 18bf f043 45bf 2a07 cb3e 6362 c0bd
00000300: f304 40bd 9ae6 02bf baca 00bd 39e6 2cbe
00000310: fa12 0abd 0097 ccbc 7b86 28bf 9d30 1dbe
00000320: 2390 4fbe 19af 973d ed26 9ebf b7a1 bfbe
00000330: a86d c1bc bb4b ccbe dcbc 10bd 1209 adbf
00000340: 1835 71bf e145 48be 1295 8bbe 233c 11be
00000350: 6b6f 39bf bebf b9be 28a7 f9bd 9c06 cfbe
00000360: 7312 0ebd dece d6bf 1eb4 adbc ddaa c7be
00000370: cce0 a0be 05f5 c2bb a531 5abf 8dbf f3be
00000380: e2bc 3bbe c196 bcbd b194 ce3c cfa5 bebf
00000390: c474 45bf 9515 8abe dc12 e1be bc99 01be
000003a0: 132e efbe f30d 2bbf 4a35 72bf 3771 dabd
000003b0: 6a9a b93c 1ee8 bdbf 1af4 7abe ca70 0ebf
000003c0: 9be1 ecbd 9d9e 15bd a2d1 41be c74a 37bf
000003d0: a417 1b3e b59b cd3e ced7 e5bd c83e 96bf
000003e0: 9f97 cdbd 3bd6 83be 8eb8 2dbf 09a3 913d
000003f0: da9e f53d 70f7 ffbe 5b8a 32be 315e 85be
-0.07579639 0.13590996 0.014658883 -0.028181985 -0.91515243 -0.19606952 -0.30779368 0.19423243
-0.08313506 -1.0361528 -0.30846918 -0.02637591 -0.08490159 0.028467951 -0.49122694 0.018295132
-0.5354314 0.20526421 0.06160951 -0.6958362 0.16056405 -0.18876183 -0.37829491 0.21534619
-0.45463565 -0.22868823 0.18728416 -0.043836623 0.19360352 -0.55256146 -0.37120166 0.45354664
-0.23780811 0.029708276 -0.57888097 0.13867834 -0.025749274 -0.419038 0.091436185 -0.597325
-0.32159427 0.04652625 0.030005377 0.13171539 -0.4438387 0.4303525 -0.3538163 -0.55815053
0.033658694 -0.6594688 0.21105318 -0.32197595 -0.2883193 0.016059766 -0.40031037 -0.09945771
0.04670899 -0.22300005 -0.0796913 -0.42246094 -0.6339872 0.09169652 -0.086068146 -0.10436056
0.05497532 -0.16021106 0.1445025 -0.11214032 0.031120427 -0.22267823 -0.41113448 -0.3106076
-0.09543021 0.061631735 -0.0055708783 -0.28933087 0.073725715 -0.054566894 0.07126459 0.029232342
-0.21809964 0.019497259 0.1760002 0.106438465 0.19108655 -0.30576804 0.54073095 -0.16878898
-0.118803814 0.09273326 0.11165868 -0.5734422 -0.52433395 0.14582543 0.13962281 -0.7019152
-0.35580415 -1.4266056 -1.1094613 -0.5519451 -0.70470375 -0.4405573 0.08402349 -0.7987594
-0.2590232 -0.55678827 -0.5129369 -0.13112885 -0.9985923 -0.086278215 -0.65485716 -0.31734034
-0.06458187 -0.75088406 0.05273845 -0.2543909 -0.91983074 -0.08356516 -0.872608 -0.05794758
-0.32844588 -0.40853354 0.18310146 -0.8143224 -0.32456204 -0.27787146 -0.8512126 0.0049608657
-0.88403606 -0.32873225 -0.25932166 0.091844425 -0.118003085 -0.6880403 -0.3932038 -0.15513313
-0.796525 0.07429913 -0.6074361 -0.2426264 -0.51446956 -0.28109893 0.0054149623 -0.79211706
-0.44734326 0.22407603 -0.90793556 0.085213915 -0.73605365 -0.3333915 -0.6170459 0.2725132
0.19733855 -0.5062931 -0.9632781 0.40802094 -0.43171608 0.09704892 -0.30053833 -0.5331054
0.26045606 0.32999867 0.070519224 -0.66979074 -0.87441117 0.26546946 0.14719698 -0.019887412
-0.46321827 -0.99971974 0.060321014 0.40744776 -0.010726168 -0.5460038 -0.54106945 0.45902294
0.16345413 -0.05822762 -0.5061469 -0.46556973 0.22395091 0.07518332 0.07026472 -0.4706662
-0.62651056 0.37356895 -0.17236179 0.09746132 -0.5960233 -0.7705679 0.39653903 -0.09393766
-0.04687972 -0.5113312 -0.031443335 -0.16884698 -0.033709504 -0.024974346 -0.658302 -0.15350576
-0.20269828 0.07406444 -1.2355629 -0.37428066 -0.023611858 -0.39901528 -0.03533636 -1.3518393
-0.9422164 -0.19557907 -0.2726217 -0.14183097 -0.72435635 -0.362791 -0.12190086 -0.4043473
-0.034685563 -1.6781881 -0.02120405 -0.38997546 -0.31421506 -0.0059496188 -0.85232 -0.4760708
-0.18333772 -0.092084415 0.025217386 -1.4894351 -0.77131295 -0.2696959 -0.439597 -0.12656301
-0.4671484 -0.6681816 -0.9461256 -0.10666125 0.022656638 -1.4836462 -0.2450718 -0.5564085
-0.11566468 -0.03652822 -0.18927625 -0.71598476 0.15145737 0.40157858 -0.11222802 -1.1737909
-0.10038685 -0.25749382 -0.67859733 0.071111746 0.11993189 -0.49993467 -0.17435591 -0.26048425

network_body._body_endoder.seq_layers.2.bias f4 [256]
00000000: 71a5 e7be e455 5cbf 28ab a6be 5469 2cbf
00000010: 5c52 91be fb57 07bf 5475 bcbe be8d 8bbf
00000020: 2992 57be 9593 e6ba df28 17bf 212b 213f
00000030: 982d fcbe 1b16 6a3c 3003 e1be c3b5 20bf
00000040: 93e5 3bbe f2c9 68be be2b 95be 81e6 93bd
00000050: 605b cbbe a648 d4be 14ab 22be 42d0 5bbe
00000060: 8637 40be 8e93 70be 5def a2be cdff cd3e
00000070: 45d6 b7be e25c cbbe 3506 703e db8c e8be
00000080: f8cc 2ebf 0672 fdbe 2ea1 1abf 117c 47be
00000090: 9b51 cdbd 67f7 53be e342 acbe 156b 35be
000000a0: 9996 ffbe 26ca eebe 02b4 18be 9c58 6ebe
000000b0: 8df0 fc3d a5a4 01be b3e3 81bd 054b e0be
000000c0: 46a3 1abf df1a 10bf eec5 1ebf f098 7ebe
000000d0: d6b8 5cbf 6e69 aabe fdc7 05be 00c6 d13d
000000e0: e47b 42bf c0fd d1be 23d4 94be d40e 9fbe
000000f0: 7852 b0be 2c53 f0bd 991b b0be e5cf 0abf
00000100: 65a2 fabe 0bc8 31bf ce2e f2be e8a6 cabe
00000110: 06a5 1cbf 10e3 07bd 23dc 53bf d61a 61bf
00000120: 484d 80bd 2b4a bfbe f8e9 27bf b18d 45be
00000130: a92a 9dbe 99f3 c0be 38a6 ce3e 06f3 9ebe
00000140: fa57 1cbe 1e9c a4be 44bd 60be 51d1 a3be
00000150: 5f18 11bf 2bff 1cbf 0c74 10bf ed03 0bbf
00000160: 21ce 5cbe e174 0ebe 80cd ffbe 8b0e 8bbe
00000170: 556f ee3c 5d6f 58be 3562 a3be 1080 763e
00000180: bd00 38bf 8f4a 01bf b907 12bf 25f3 2abf
00000190: b5a9 8dbe 089a a4be 133f c3be a1a9 45bf
000001a0: 9428 75be 1b2f 4dbe a0c8 92be 9fae 8cbd
000001b0: 9a86 47bf df41 dbbe b30f 32bf c46a 15bf
000001c0: 16e7 fabc eb39 68be 61e6 04bf d61c c5be
000001d0: 6447 64be 2e28 83be 70af d0be 906a ebbe
000001e0: 2cf0 10bf 9fa6 a9be 2e8a 37be 5601 22bf
000001f0: 2356 0bbf 32f0 2fbf 7540 5abf d8b4 93be
00000200: 6d22 f2be 01a4 113e ea9d 93be 4f92 efbe
00000210: 4f39 64be 92b0 40be 4838 6dbf 80ae 00bf
00000220: aa9b 6bbe 4cca c2be ce16 d8be a84d fb3b
00000230: eed5 dfbe fe78 da3e da04 9dbb 0f24 cfbe
00000240: 6223 a8be be66 24bf 36c2 d3be d289 29be
00000250: 75c5 04bf ead6 2bbe 2ac7 03bf 7dcb dfbe
00000260: b2c6 26bf 72df 76bd 4bc2 9abe 17db 50bf
00000270: b3b3 3bbf 2418 c3be 1eac 75be b528 aebe
00000280: ec49 db3d 85a6 d0be 96be 0dbf 0fe7 c7be
00000290: d833 42bf 3733 eebc cd6c bcbd 260d dabe
000002a0: 730d e33d 2514 b3be ba2e 3dbe cd4d 09bf
000002b0: 87ae 76be e2b2 1cbf 04c9 2ebe ceed 06bf
000002c0: f0cb c9bb be8c afbe 1e3d 8dbe e8c3 c0be
000002d0: a5f2 babd 09ea 25bf 0bbf 05bf 4837 74be
000002e0: 554d 7fbd 665b 34bd 2368 a6be 322d 743e
000002f0: 5687 e1be 753e 18bf e091 0abe b084 14bf
00000300: d82d 91be e9fd 12be c038 bcbe ba12 f2be
00000310: 6441 91be f48d d3bd 99a9 93be 6382 41bf
00000320: f878 87be 5f0c 623e 948c 2bbf 7d35 ccbe
00000330: 0c3a 0abf c34f 09bf 843d adbe 79d6 b3be
00000340: 9fd7 fcbe 08ff 35bf 7de8 11bf e105 3ebe
00000350: 1e07 18bf aa87 15be 52bb d5bd 19c6 eebe
00000360: a02c 07bf daca 9fbe ef67 d1be 7669 08bf
00000370: a683 b1be 11ec 97be 387f 18bf e50f 0bbf
00000380: 7e17 f8bd 7744 ea3e d9ef d2be 970b 40be
00000390: f6b7 03bf 5bb0 6fbf 0796 2abf 76f9 92be
000003a0: 5abc 083f 03f1 e13d 05ae 1cbf 0cb1 02bf
000003b0: 3c16 87be 9f03 8e3e bde0 5bbf 2928 a7be
000003c0: e90c 29bf 7fd9 b2be 7ecc 24be d0f2 23bf
000003d0: 78ad 70bf cff4 bfbe 604f d4be 5138 efbe
000003e0: ffea bebe 4ac6 0cbf 273e ebbe 961e aabe
000003f0: 970c 1cbe 1a60 37bf 22c4 d3be 97d6 73bd
-0.4524341 -0.8606856 -0.32552457 -0.6734822 -0.28383148 -0.5286862 -0.36808264 -1.0902631
-0.2105185 -0.001759159 -0.5904674 0.62956434 -0.49253535 0.014287497 -0.43947744 -0.62777346
-0.18349294 -0.22733286 -0.29134935 -0.072216995 -0.3971815 -0.41461676 -0.15885574 -0.21466163
-0.1877118 -0.23493788 -0.31823245 0.40234223 -0.35905662 -0.397193 0.23439868 -0.45419964
-0.6828151 -0.49501055 -0.6040219 -0.19480921 -0.10025331 -0.20699845 -0.3364478 -0.1771663
-0.49919584 -0.46638602 -0.14912418 -0.2327599 0.12350569 -0.12660463 -0.06342258 -0.43807235
-0.60405385 -0.56291 -0.62020767 -0.24863029 -0.8621954 -0.3328356 -0.1306457 0.10242844
-0.7597029 -0.41013908 -0.29068097 -0.31066 -0.3443792 -0.11734614 -0.34396055 -0.5422347
-0.48952022 -0.69445866 -0.47301334 -0.39580464 -0.61189306 -0.033175528 -0.82757777 -0.87931573
-0.0626474 -0.37361273 -0.65591383 -0.19292332 -0.3069661 -0.3768585 0.4036119 -0.31044787
-0.15267935 -0.32150358 -0.21947199 -0.31995633 -0.5667781 -0.61326855 -0.56427073 -0.54302865
-0.21563007 -0.13911773 -0.49961472 -0.27159533 0.029105822 -0.21136232 -0.31910864 0.2407229
-0.71876127 -0.5050439 -0.57043034 -0.6677726 -0.2766854 -0.32148767 -0.3813406 -0.7721196
-0.2394126 -0.200375 -0.2866869 -0.06869244 -0.7793976 -0.42823693 -0.69555205 -0.58366036
-0.030627768 -0.22678344 -0.5191403 -0.38498563 -0.22292858 -0.25616592 -0.40758848 -0.45979738
-0.56616473 -0.33134934 -0.17923805 -0.6328329 -0.5442831 -0.68725884 -0.85254604 -0.2884891
-0.4729189 0.14222719 -0.28831416 -0.46791312 -0.22287486 -0.18817356 -0.92664003 -0.50266266
-0.230086 -0.38044965 -0.422049 0.0076691695 -0.43717903 0.42670435 -0.004791838 -0.40457198
-0.32839495 -0.6421927 -0.4135911 -0.1655648 -0.51863796 -0.16781202 -0.51475775 -0.43709937
-0.65146935 -0.060271688 -0.3022636 -0.81584305 -0.73321074 -0.38104355 -0.23991439 -0.34015432
0.10707459 -0.40752044 -0.55368936 -0.3904347 -0.7586036 -0.029077156 -0.092004396 -0.42588156
0.110865496 -0.34976307 -0.18474856 -0.5363434 -0.24090014 -0.61210454 -0.17068869 -0.5270661
-0.0061583444 -0.34287065 -0.2758569 -0.37649465 -0.09128312 -0.64810234 -0.52244633 -0.23849213
-0.06232961 -0.044032477 -0.32501325 0.23845366 -0.44048566 -0.594703 -0.1353221 -0.58014965
-0.28355289 -0.14354672 -0.36762047 -0.47279912 -0.28370202 -0.1032981 -0.2884033 -0.7558958
-0.2645948 0.22075032 -0.6701138 -0.39884558 -0.5399482 -0.5363733 -0.33835995 -0.35124567
-0.49383256 -0.7109227 -0.56995374 -0.1855693 -0.5938586 -0.14602533 -0.10436119 -0.46635512
-0.5280247 -0.3120945 -0.40899608 -0.5328592 -0.34670752 -0.29672292 -0.5956912 -0.5432113
-0.12113856 0.4575536 -0.41198614 -0.18754421 -0.5145258 -0.9362847 -0.66635174 -0.2870595
0.534124 0.110322975 -0.6120303 -0.510514 -0.2638415 0.27737138 -0.858898 -0.32647827
-0.66035324 -0.3493156 -0.16093633 -0.6404238 -0.9401469 -0.37491462 -0.41466808 -0.46722654
-0.37288663 -0.54990065 -0.45945856 -0.3322646 -0.15239178 -0.71631014 -0.41360575 -0.05953082

network_body._body_endoder.seq_layers.2.weight f4 [256, 256]
00000000: cd9e 843e 648a 2b3e f692 5ebd bb97 633e
00000010: dc1b e83d dd44 543e 1b8c 3cbd 4604 e53e
00000020: 38d0 363c da89 7abd daba 713e eb35 38bf
00000030: 32f0 85bd 0a17 ab3e 2d89 ca3e 7a24 d13e
00000040: 91d4 6c3d 8420 e23e f63a a23e 8d18 aebd
00000050: d2e4 b63e 0d43 993e 1915 3bbe b221 a5be
00000060: b6df 92bb eb48 383e b31c 80be 5b4a 743e
00000070: 0887 ff3d 5ce8 363e a26c 023e d89d 993d
00000080: ad43 803b 3279 19be 1144 403e deb6 97be
00000090: daca 103e 2a43 f83d f93f 163e e8fd 8b3e
000000a0: 6ea0 243f 3f91 3a3e 4691 df3e 03e0 493e
000000b0: bcd5 0d3f f9eb 8b3e ac04 133f 9eca c63e
000000c0: 50c3 0a3e 8879 053d a7d0 e9bd b1d5 213d
000000d0: ef99 8abc 5cf8 7f3e 9a16 943e 1a2f 383e
000000e0: 17e6 ca3e 576c b1bd c6f7 fd3c bae0 8b3d
000000f0: 20fa 0d3f 9765 c63e 9391 83bd 208b 8d3e
00000100: 9655 be3e f2f3 cc3e d7de 1b3f 378e 013e
00000110: dfba f63e d303 1dbd 948f c83e e1be 283e
00000120: c5dc ec3d 6149 1d3f 1513 903e 766a b43e
00000130: 680b 273e 3a80 023e bed5 f83e 137e b93e
00000140: 5e99 0e3f 82d1 943e 4bc4 6a3d 16bb 88bd
00000150: fefd 0a3e 99bd 2a3c 6dde fcbb 8c12 3dbe
00000160: dffa 863d 160e 573e c88c 9b3e 1402 9e3e
00000170: c2a8 23bc b6e8 a13e 6fca 843e 71af 083e
00000180: 4abb 233e ee32 903e b4c8 c2be 7f9b 17be
00000190: 7b18 7fbd 60cd f43e 1651 b33e 471d 9c3e
000001a0: 9ae2 3f3e 7d53 233e 084b f13c ca60 063e
000001b0: a632 31bd c085 293f 335d 323e 97a1 ec3e
000001c0: 8b7f 053e 521e bf3e 7c1f 20be 0996 84be
000001d0: 9b28 d53c 061c ba3e d019 08be 8a93 9b3e
000001e0: 3e99 1a3f 972d b63e 93ad c03e 7c5f 1bbf
000001f0: eba0 b83d 0c16 783e 9362 3b3e b6bd 15be
00000200: edf0 f63d 22ef 23be fb79 85bc 9dc5 b0bd
00000210: c685 fc3e 8c0c 973e 29ba 2e3e 54cc fe3e
00000220: 8822 d23e fadc 24be db5f d8be 13ca e7bc
00000230: 08fe 92be 1594 313e cfb9 e53e 7325 c33e
00000240: f512 d53d e4fb 843e 0d7c 023e 8d31 4ebe
00000250: 56ea 4c3e d939 3cbe f2ad 993e 5ffe 8cbf
00000260: 788b 09bf 7484 b33e 14cc 723e a0fe 753e
00000270: 60cf 11bd 7afe 5f3d 06ca 153d 1032 73bc
00000280: c6b6 2c3e ea7c 8f3e 2e41 1e3f f124 fd38
00000290: 1a7a 833e 8d9c c9be b9f6 673d 2d4f 5fbd
000002a0: 2076 093f 691d 393e c368 cc3c e657 6e3e
000002b0: 89cd bf3e 9857 b93d c936 c83e e2dc 943e
000002c0: 0964 bdba 0d89 c63e fb84 f43e 6277 883e
000002d0: 1169 873e 896a 3e3e 7d58 023e 3d36 433b
000002e0: 715a 243e 2a8d 67be d47f 193d 448e b63d
000002f0: 6fd5 9a3c c3d2 ddbd df84 8a3c eea2 00bc
00000300: c263 723e 5fca 37bf f005 413e 031c fd3d
00000310: 629d d03e 8865 363e cc78 af3d e945 363d
00000320: 7317 f2be d3c3 b93e 1415 b5bd 579f e03e
00000330: e7f0 dcbe 3b46 1f3f d07a 753e bf8a a3bd
00000340: ac23 08bf b542 083e fe73 ef3d 50fe 3a3f
00000350: 7093 ab3d 6e0e abbd 03ff 83bd 031d 11bd
00000360: 96ac c8bd 3b43 efba 6ebe 0cbf 0f3d 38be
00000370: 3927 a33e c9c0 d23d 67b9 983e a999 c93e
00000380: de35 e53e d435 f4be a530 d53c 58f3 d03e
00000390: 454e bd3c 6240 b13c adc2 813e 17a9 803e
000003a0: 51b6 883d 601c 283e 12f9 aa3e 5ef0 a93d
000003b0: 73a8 a73d 2830 4f3e f18b 403f 5e77 4a3e
000003c0: ab9f 803d 9c3d 623e 110c 653d 0b02 a4bd
000003d0: 3c65 943e c970 a73d b712 663e 9265 973e
000003e0: 2e97 1e3e 3256 03bf 6114 0e3d a9db ee3d
000003f0: 3302 cd3c e954 803e 881d 813e 7de4 533e
0.25902405 0.1675201 -0.05433937 0.2222585 0.11333439 0.20729394 -0.046032052 0.44729823
0.011158042 -0.06116662 0.23606434 -0.7195727 -0.06539954 0.33416015 0.39557782 0.40848142
0.057819907 0.44165432 0.3168561 -0.085007764 0.3572145 0.29933968 -0.18269767 -0.3225227
-0.004482235 0.17996566 -0.25021896 0.2385649 0.12476927 0.17862076 0.12736753 0.075008094
0.0039143176 -0.14987639 0.18775965 -0.29631704 0.14139882 0.121221855 0.14672841 0.27342153
0.64307296 0.1821947 0.43665522 0.1971436 0.5540426 0.2732847 0.57429004 0.3882646
0.13551068 0.032586604 -0.114167504 0.039510433 -0.016919104 0.24997085 0.28923494 0.17986718
0.3962867 -0.08663242 0.031001937 0.068299726 0.55459785 0.38749382 -0.064242505 0.27645206
0.37174672 0.40029866 0.608869 0.12651907 0.48189446 -0.038333725 0.3917204 0.16479065
0.11565546 0.6144009 0.28139558 0.35237473 0.16312945 0.12744227 0.48600572 0.36229
0.5570277 0.29066092 0.057316106 -0.06676309 0.13573453 0.01042118 -0.007716945 -0.18464106
0.065908186 0.21001467 0.30380845 0.3086096 -0.0099889655 0.31622857 0.25935695 0.13348176
0.15989414 0.28163856 -0.3804375 -0.14805411 -0.062279206 0.4781294 0.350228 0.30491087
0.18738785 0.15949817 0.029454723 0.1312286 -0.043261193 0.6621971 0.17418365 0.46217033
0.13036935 0.3732782 -0.1563701 -0.25895718 0.026020339 0.36349505 -0.13291097 0.30386
0.6039008 0.35581657 0.37632427 -0.6069257 0.09015068 0.2422716 0.18299322 -0.1462315
0.12057672 -0.1600919 -0.016293516 -0.08631442 0.4932081 0.2950176 0.17063202 0.49765265
0.4104197 -0.16099921 -0.42260632 -0.028294599 -0.28709435 0.17341645 0.44868323 0.3811451
0.104040064 0.25973427 0.12742634 -0.2013609 0.20011267 -0.18381442 0.30015522 -1.1015128
-0.5372844 0.3506199 0.23710662 0.24022913 -0.03559816 0.054686047 0.036569618 -0.014843479
0.16866598 0.2802499 0.61818206 0.00012070861 0.25679094 -0.3937725 0.056631777 -0.054518867
0.5369587 0.18077625 0.024952298 0.23275718 0.37461498 0.0904991 0.39104298 0.2907477
-0.0014449368 0.38776436 0.47757706 0.26653582 0.26447347 0.18595327 0.12729068 0.0029786967
0.16050126 -0.22612444 0.037475422 0.08913854 0.018900601 -0.10831215 0.016909061 -0.007851345
0.23670867 -0.7179317 0.18849921 0.123588584 0.40745074 0.17812169 0.08567962 0.044500265
-0.47283515 0.36282215 -0.08841911 0.43871567 -0.43152544 0.6221654 0.2397263 -0.07985448
-0.5317943 0.13306697 0.11692046 0.730443 0.08377731 -0.083523616 -0.06445124 -0.03542806
-0.09798543 -0.0018254289 -0.5497807 -0.17992042 0.31865862 0.10290677 0.2982895 0.39375046
0.4476766 -0.47697318 0.026024172 0.40810657 0.02310861 0.021637145 0.25343838 0.25129005
0.06675399 0.16417074 0.3339315 0.082977995 0.08186426 0.20233214 0.75213534 0.19772097
0.06280454 0.22093815 0.05591971 -0.08008202 0.28983486 0.08175809 0.22468077 0.2956968
0.15487358 -0.513034 0.034687404 0.116629906 0.025025463 0.2506478 0.25217843 0.2069263

network_body._body_endoder.seq_layers.4.bias f4 [256]
00000000: 21ec 2e3e 59de 04bf e38e 84be be67 c1be
00000010: 5ad1 a8be 232b 7ebe b120 c4be e9d5 94be
00000020: f289 81bf be13 b6be 5009 c7be 6e1d 08bf
00000030: db6a 28be 883d 0cbf a4b2 aabe 83c5 dfbe
00000040: f946 83be 5b9f 8cbe e572 e8bd 7097 14bf
00000050: e529 d9be d78e 57be 5701 48be 2f8f ecbe
00000060: dfe3 a9be 90db 053e f969 5ebe e6aa 2cbc
00000070: 59d2 90be 3938 a3be 5662 c4be d696 c4be
00000080: 47a3 3abe c020 c8bd 55e9 c1bc 3a6e bfbe
00000090: 6760 07be 511b 12bf c98c 163e d208 4cbf
000000a0: 2d9f 05bd 5fe8 c3be 8b3c 1ebe 4fd2 1cbf
000000b0: e51a 01bf d10a 0abe 22c0 dfbe b8f9 d8bd
000000c0: a397 22bf d2b6 86be 100b 81bf 846d 4ebe
000000d0: f4e0 2fbf 8241 8abe 5e9b 16be b245 afbe
000000e0: d5ee 8ebe b7ba 4ebf 301b 0abf 1828 e5be
000000f0: bbaa c73d 5e76 9fbe 564e d5be 09e9 7ebe
00000100: 975e 77be 1621 35bf d74a 31bf fa0b 89be
00000110: b9e1 1bbd 0b77 24bf cac3 05bf a054 61bf
00000120: 4aea 24be 9cf8 75bf 5392 52bf 592c 82be
00000130: c722 49be cce2 f5be 0143 87be c175 81be
00000140: 35b3 6cbe 19b7 69be b27a f6be a869 cebe
00000150: c4af 2abe a6c9 c0be 5ff3 eabe 53df 54be
00000160: 4ec7 00bf 2ad7 44bf 9e87 09bd ff16 c1be
00000170: fb30 8d3d f603 cdbe e805 32bf 2989 dfbd
00000180: f8f8 0bbf f228 e4be 5154 0cbe c1de 3f3c
00000190: 9268 45bf 2c95 24bf b3fe 7abe fbdc ccbe
000001a0: b2d8 f8be 0e24 a2bd fe07 08bf 04c1 14bd
000001b0: 2630 05bf 9e4b 0cbf 6396 debd 44c4 2bbf
000001c0: 7d0a 42bf b89b 3abe 82b4 1fbf 2b70 b3be
000001d0: b272 03bf b9dc c2be 4b10 40be 7cc4 e8be
000001e0: 52bf 71bd 3a98 9cbe 5975 02be bd25 9dbe
000001f0: 0a65 3bbf c2a9 bebe c2af 3cbf fb03 75bf
00000200: 10bf 25bf f1f6 a8be 81e8 8ebd 15f0 17bf
00000210: af93 14bf 7a5f 96be 4975 b5be e958 8cbe
00000220: bf31 0dbf 2cb6 0bbf 920a 5cbd f0c1 43be
00000230: 1c87 09bf 29d2 48be 507d a1be 66ce a7be
00000240: bba6 2ebe 9a90 15be 0188 10bf d018 15be
00000250: 3250 61be 5e97 8b3d 517e 06bf f4f8 b4bd
00000260: 59c0 09bf 44bc 2dbf 9f88 26be 24b9 3bbd
00000270: be08 79be 3569 0bbf 5250 a5bc 4a37 08be
00000280: 8aa6 e3bd 69d2 04bf b5da 26bf 586c 11bf
00000290: 15e2 37be df9b bebe 407b e9be 95dd 613e
000002a0: 8cc1 a9be d87f a0be 88a2 42be 1938 40be
000002b0: 498d 78be fcaf 84be a78e 17be 3045 a2be
000002c0: 38c3 03bf c4a6 0dbf 43f1 97bf f999 9fbe
000002d0: 8593 413d 2f33 babe 754c 22bf 629d efbd
000002e0: 77a2 06bf ab95 c53c b85c 60be 71c7 86be
000002f0: 4926 03bd 4991 fabe 6e5d 62be 7340 e9be
00000300: d84b 9ebe fca2 0dbf 8322 95be 13a1 f0be
00000310: 06f4 30be f3d2 b9be f20b efbe 5de0 0dbf
00000320: f507 9ebe 0e11 26bf 7d0d 98be d0b5 dabe
00000330: 6890 90be 00c8 2ebf ba35 30be 6d29 9ebe
00000340: a4b8 1ebf 033f b8bd 1480 46bf ba99 6cbd
00000350: dbd9 16bf 6073 50be 664f e6be b0c5 b9be
00000360: 403e b0be 5230 97be 2207 aabe 781d aebe
00000370: 208d db3a 3e47 f8be 4036 38bf a74d 20bf
00000380: 5ec6 803d 98a0 51be 7f40 65be 1329 83be
00000390: ca18 d2be 6a90 20be 7ff9 92be ea3d f3be
000003a0: 1843 74bf 34c5 17bf 5a91 b2bd 3857 9dbe
000003b0: b95f 63bf baf6 89bd e3d4 4bbe d54d ccbe
000003c0: 19a1 45be 7747 07bf f92b 18be 9726 2bbd
000003d0: b20e 16bf 53be c3be 30cc 24be d6cf d4be
000003e0: 07d5 cfbe b278 23be 7a69 acbe 1657 73be
000003f0: 61cc 16bf 69ed 28bf f925 4d3c 4e62 97be
0.17082264 -0.51901776 -0.25890264 -0.37774462 -0.32972223 -0.24821143 -0.38306192 -0.2906945
-1.0120223 -0.35561937 -0.38874292 -0.53169906 -0.16447012 -0.5478139 -0.33339417 -0.43705377
-0.25640085 -0.2746533 -0.113500394 -0.58043575 -0.42414775 -0.21050583 -0.19531761 -0.4620299
-0.33181664 0.13072038 -0.21720113 -0.010538792 -0.28285483 -0.31878832 -0.38356274 -0.3839633
-0.18226348 -0.097718716 -0.023670832 -0.37388784 -0.13220368 -0.5707293 0.14702143 -0.7970096
-0.032622505 -0.38263223 -0.15452783 -0.61258405 -0.5043166 -0.13480689 -0.43701273 -0.10594505
-0.6351263 -0.26311356 -1.0081501 -0.20158964 -0.68702626 -0.27003103 -0.14707705 -0.3423286
-0.2791659 -0.80753654 -0.53947735 -0.44757152 0.09749361 -0.31144994 -0.41661328 -0.24893583
-0.24157177 -0.7075361 -0.6925482 -0.2676695 -0.038057063 -0.64244145 -0.52251875 -0.8801975
-0.16104999 -0.9608247 -0.82254523 -0.2542446 -0.19642173 -0.48024595 -0.26418307 -0.25285152
-0.23115237 -0.22823752 -0.48140484 -0.40314984 -0.16668612 -0.37653846 -0.45888802 -0.20788316
-0.50304115 -0.76890814 -0.0335766 -0.37712857 0.06894108 -0.40042084 -0.6954026 -0.10914833
-0.5467677 -0.4456249 -0.13704039 0.0117108235 -0.77112687 -0.6429012 -0.24511223 -0.40012345
-0.48602825 -0.07917033 -0.53137195 -0.036316887 -0.52026594 -0.5480288 -0.10868528 -0.6709635
-0.75797254 -0.18223464 -0.6238481 -0.35046515 -0.51346886 -0.38059023 -0.18756215 -0.45462406
-0.059020348 -0.3058489 -0.12740077 -0.30692855 -0.7320105 -0.3723889 -0.73705685 -0.957092
-0.64744663 -0.330009 -0.0697794 -0.5935071 -0.5803785 -0.29369718 -0.35441044 -0.27411583
-0.5515403 -0.5457485 -0.053721018 -0.1911695 -0.53721786 -0.1961142 -0.31540918 -0.32774657
-0.1705579 -0.14605942 -0.56457525 -0.14560246 -0.22003248 0.068159804 -0.52536494 -0.088365465
-0.53809124 -0.67865396 -0.16263054 -0.04583086 -0.24319741 -0.5445741 -0.020179901 -0.13302341
-0.11115749 -0.5188356 -0.6517747 -0.56805944 -0.17957337 -0.37228295 -0.45601845 0.22057183
-0.33155477 -0.31347537 -0.19007313 -0.187714 -0.24272646 -0.25915515 -0.14800511 -0.3169341
-0.51469755 -0.5533259 -1.1870502 -0.3117216 0.047259826 -0.36367175 -0.63397914 -0.1169994
-0.5259165 0.024119219 -0.2191037 -0.26324037 -0.032018933 -0.4893897 -0.22105953 -0.45556983
-0.3091724 -0.5532682 -0.29127893 -0.4699789 -0.17280588 -0.36293754 -0.466888 -0.55420476
-0.30865446 -0.64869773 -0.2969779 -0.42716837 -0.28235173 -0.68273926 -0.17207995 -0.3089098
-0.6200049 -0.089963935 -0.7753918 -0.057763793 -0.5892617 -0.20356512 -0.4498245 -0.36283636
-0.34422493 -0.29529053 -0.33208567 -0.34006858 0.0016750433 -0.48491853 -0.7195778 -0.6261849
0.062878355 -0.20471418 -0.22387885 -0.25617275 -0.41034538 -0.1568009 -0.28705975 -0.47508174
-0.95414877 -0.59285283 -0.0871913 -0.30730605 -0.88817936 -0.067365125 -0.19905429 -0.3990313
-0.19299735 -0.5284342 -0.14860524 -0.04178485 -0.58616173 -0.38231143 -0.16093516 -0.41564816
-0.40592214 -0.1596401 -0.33674222 -0.2376369 -0.5890561 -0.6598726 0.01252126 -0.29567188

network_body._body_endoder.seq_layers.4.weight f4 [256, 256]
00000000: c768 e4be 4443 b63e f7b8 32bf a462 2cbf
00000010: 0274 1fbf 69be d7be eff3 bfbd 67d5 edbe
00000020: 8346 04bf 103f 89bf 12d3 9cbe 84e8 c63c
00000030: 7e17 0a3f 922b 1b3f 31d9 cabe a7f1 56be
00000040: 9f99 0bbc 96d1 aebe ad00 e7bd 60fb f0be
00000050: f82c d7be 3f39 08bf 7c0c ec3e be00 fe3d
00000060: b115 90be efa5 3a3e 1de1 58bd d98d d63d
00000070: 83ce 3dbf 2ab6 043f e672 38be 3bc1 843e
00000080: 70b0 a23e f0e1 56be 109c 133d 42d5 aebe
00000090: efdc 6fbf 188d 27bf 9aed 41be 56b8 4cbf
000000a0: 895f 46bd 69eb bebe 2e17 34bf 9faa 283d
000000b0: 1e21 c6be 575e 02be 18a2 58be aa4e 82be
000000c0: 80ed 13bf 6954 16bf c6d2 4abf 3584 0d3e
000000d0: e504 b9bd fcb4 cc3e aa52 37bf d6f7 483e
000000e0: 52ab 53bd 2f34 153f 129e a23e 0605 93be
000000f0: d83e a33e b8ff 133e 427e 903e 1791 5b3e
00000100: a2d3 813e ff8a c4be 8cb3 c9bd c308 b93d
00000110: 382e ba3e af33 c5be 52cf 5d3d 7a80 bfbe
00000120: db28 9fbe 2b7b 85be ee69 d5be b540 c6be
00000130: 0c33 babe 5582 5dbf f9c3 1a3e 9148 fcbe
00000140: 0c23 90bf bffb c9be 7fc0 a03c 3938 98bf
00000150: 6720 b4bc 7469 bf3e a39c b33e 59f0 233e
00000160: 5809 0e3d cfb5 cdbe f991 80be 0b56 8ebe
00000170: c738 023d d110 9abd ad88 5abe a3b9 133f
00000180: 8998 c03e 33c8 39bf 49f5 14bf d748 c4be
00000190: bcae 033f c08f dcbe 4d7b a2be fe04 fc3e
000001a0: 1475 0cbe 680a aebe f0c0 cfbe 4859 3cbf
000001b0: 789c c9be 87bb b33e 42b9 00bf c1c0 143e
000001c0: 3c64 2d3e 63f7 32bf 1dbe dabc a249 a43e
000001d0: 448a 60bf 3c33 133f ac64 9ebe bf21 9abd
000001e0: aab9 96bd a1ef 2abf b309 263f 4b1c babe
000001f0: f228 7c3d 2469 32bf 8d88 5ebf df56 f5be
00000200: 1433 c0bd 789c c4bd be41 5cbe 9327 16bf
00000210: 1299 34bf 9e1f 573e a61e b6bd 208c abbe
00000220: 7f59 163f e971 17bd dffc 76be 6385 e0be
00000230: bd90 aabe 1d71 2e3e 6843 bd3d 4d49 c1be
00000240: 287d dcbe 1362 01bf 1ce0 4abf 65a8 53be
00000250: a739 263e d0fb 67be 6a30 34bf 8321 7c3d
00000260: 042f c4be 1446 eabe 0e28 49bd f4b9 54bf
00000270: 003e c73e 561a 44be cb7f de3d 522a 1abe
00000280: e4b8 6cbd 971e 5fbe 6ca3 533e 6d85 14bf
00000290: 6a1a 9ebe 8b61 b1be d6e3 853e 010d 9d3d
000002a0: e88c 69be 4533 44bf 1a62 ffbd d468 27bf
000002b0: efe6 cebd 4976 d53e 131c 2cbf 4aca 0ebf
000002c0: 1eb7 fc3e b63e 9e3e 1143 5bbf a0c5 1abf
000002d0: e637 92be ed01 09bf 76ad 38bc cbcb b6be
000002e0: 4982 18bf 22a1 d03c eca4 03bf d8c8 18bd
000002f0: 8b77 63be f695 ffbe 78b9 06be 4b11 ca3d
00000300: 7456 d53d 1918 923e 53dc 22bf 6727 9f3d
00000310: 3e15 51bf e883 bdbe 6475 01be 4292 e9be
00000320: 2750 4bbe 288e d93c 09c1 113e 7853 acbd
00000330: cfab b0bd b946 0dbf 41e6 0f3e 82ee 1dbf
00000340: 8a61 7abe 154c cebe 8697 4a3c 9859 bc3e
00000350: 4ef2 f13d 8946 45be 7262 b1be 5ba6 c7be
00000360: 193e 07bf 59b9 e4be 350d 273e 3c71 81be
00000370: 6778 30bf ebe7 70be 468b 14bf 2b8b 08bf
00000380: 36a4 f6be 7222 763e 2936 77be fd6b 1cbf
00000390: 0ffb 61be 14b0 5fbe 990b ed3c 1209 25bf
000003a0: 6810 613c f547 333e 3fd2 ecbe b565 7bbe
000003b0: 30cf 26be aa07 81be f9e6 f6bd 265d bebe
000003c0: 8738 b73d e44b aebe 4dc0 7ebe 68f6 6bbe
000003d0: aedc 27bf a6c1 e9be 73c6 7b3f 0363 abbd
000003e0: 9f32 c1be b8ce 21bf fa7b 013f ee79 dbbe
000003f0: 0753 09bf 6559 a23e 97b1 00be eeb8 16be
-0.4461119 0.35598195 -0.69813484 -0.67338014 -0.6228639 -0.4213746 -0.093726985 -0.46451876
-0.5167009 -1.072237 -0.30629784 0.024280794 0.53942096 0.6061336 -0.3961883 -0.2099062
-0.008520513 -0.34144276 -0.11279426 -0.47066784 -0.42026496 -0.5321235 0.46103275 0.12402485
-0.2814155 0.18227361 -0.05294906 0.10476274 -0.74143237 0.5184046 -0.1801258 0.25928673
0.31775236 -0.20984626 0.036037505 -0.34147078 -0.9369649 -0.65449667 -0.18938294 -0.79968774
-0.048430953 -0.3728898 -0.7034787 0.041178342 -0.3869714 -0.127313 -0.21155584 -0.2545064
-0.5778427 -0.5872255 -0.79227865 0.13819964 -0.09034137 0.3998183 -0.7161051 0.19625792
-0.051677056 0.5828275 0.31761223 -0.2871477 0.31883883 0.14453018 0.28221327 0.21442066
0.25356776 -0.38387296 -0.09848699 0.09034874 0.36363387 -0.38515994 0.054152794 -0.37402707
-0.31085858 -0.26070532 -0.4168238 -0.38721243 -0.3636707 -0.86526996 0.1511382 -0.49274114
-1.1260695 -0.3944988 0.01962304 -1.1892158 -0.021988107 0.37385142 0.35080442 0.16009654
0.03467688 -0.4017777 -0.25111368 -0.2780002 0.03179243 -0.07522739 -0.213412 0.57705134
0.37616375 -0.72571105 -0.58186775 -0.38336822 0.514385 -0.43078423 -0.31734696 0.4922256
-0.13716537 -0.33992314 -0.40576887 -0.7357373 -0.3937719 0.3510401 -0.5028268 0.14526655
0.16932768 -0.6990873 -0.026701981 0.32087427 -0.87710977 0.5750005 -0.30936182 -0.07525968
-0.07359631 -0.66771895 0.6485855 -0.3634971 0.061562486 -0.6969168 -0.8692711 -0.4791784
-0.093847424 -0.096001565 -0.21509454 -0.58654135 -0.70546067 0.21008155 -0.088925645 -0.33505344
0.5873031 -0.036973868 -0.241199 -0.43851766 -0.33313552 0.17035337 0.09241372 -0.37751237
-0.43064237 -0.50540274 -0.79248214 -0.20669706 0.1623293 -0.22654653 -0.70386374 0.061555397
-0.3831712 -0.4575659 -0.049110465 -0.8309624 0.3891449 -0.19150671 0.10864218 -0.15055206
-0.057793513 -0.21789013 0.20667809 -0.5801609 -0.30879527 -0.34644732 0.26150388 0.07668496
-0.22807658 -0.7664073 -0.12469883 -0.6539433 -0.10102641 0.41691807 -0.6723034 -0.5577742
0.49358457 0.3090722 -0.8564921 -0.604578 -0.28558272 -0.53518564 -0.011271825 -0.35702357
-0.595738 0.02546746 -0.51423526 -0.037300915 -0.22213571 -0.499191 -0.13156688 0.098665796
0.1041688 0.2853401 -0.6361744 0.07771187 -0.8167304 -0.370147 -0.12642437 -0.45619398
-0.19854794 0.026557043 0.14233793 -0.08414358 -0.0862652 -0.5518604 0.14052679 -0.6169206
-0.2445127 -0.4029242 0.012365228 0.36787105 0.11813794 -0.19265188 -0.3464542 -0.38994107
-0.5282913 -0.4467266 0.16313632 -0.25281703 -0.6893372 -0.2352597 -0.58025014 -0.53337353
-0.48172158 0.24036577 -0.24141754 -0.6110228 -0.22068428 -0.21844512 0.028936194 -0.64466965
0.013736822 0.17507918 -0.46254155 -0.24550517 -0.16289973 -0.2520116 -0.12055773 -0.37180442
0.089463286 -0.34042275 -0.24878044 -0.23043215 -0.65571105 -0.45655555 0.98349684 -0.08368494
-0.37733933 -0.6320605 0.505798 -0.42866462 -0.53642315 0.31708828 -0.12567745 -0.14718983
