results/AWSTrackRayPerceptionOnlyApr14/MoveSomewhere/MoveSomewhere-24499989.onnx (onnx, 638066 bytes, 11 tensors)

action_model._discrete_distribution.branches.0.bias f4 [3]
0.065583415 -0.5277489 0.4979625
00000000: 9950 863d 8d1a 07bf f1f4 fe3e

action_model._discrete_distribution.branches.0.weight f4 [3, 256]
0.0064944043 -0.022937767 -0.006124723 0.20599543 0.12715644 -0.40909144 -0.49480084 -0.19473071
-0.07053786 0.016051605 -0.038719952 -0.18433766 -0.40579766 0.19441172 0.047305666 -0.19595036
-0.016454246 -0.17971645 -0.024796668 0.1596198 0.545099 0.18292847 -0.13121898 -0.09683647
-0.22320455 -0.20002091 0.17750874 0.33693534 -0.25783098 -0.13829002 0.20626116 0.13545662
0.32583815 -0.16796255 0.31949666 0.20951901 0.28365326 0.16005042 0.015898334 -0.29102474
0.2241252 0.3034996 -0.04317641 -0.25031385 -0.17708169 -0.061828304 0.22240137 0.267957
-0.15816914 -0.015985267 -0.02837091 0.2026385 -0.0946161 0.20082325 -0.2213033 0.17422643
-0.3491046 0.23231001 -0.07715861 -0.17662656 0.013937396 0.07661458 -0.18446988 0.23744237
-0.006794282 -0.11990886 0.035341006 0.53199553 0.13120045 -0.09857796 -0.43396962 -0.2328207
-0.042726886 -0.21400312 -0.04752119 0.39627987 0.24265026 0.02494023 -0.3963428 0.026891466
-0.24749504 0.14624879 -0.05933481 -0.066326104 -0.06637249 -0.12493352 -0.07287499 -0.06725311
0.005293607 0.08822749 -0.42397067 -0.02901232 -0.5377688 0.14083558 -0.17411853 0.14534628
0.02052268 -0.044697072 0.09289633 -0.31953245 -0.54854923 -0.092916556 0.19431436 0.24180539
-0.024186155 -0.01536884 -0.15239796 0.3474029 -0.1471341 -0.2824235 0.14310166 -0.15747094
0.037612457 0.21959145 0.004466336 0.49904233 0.34264302 0.0987074 0.2479872 0.28119552
0.07976761 0.21242057 -0.22877486 -0.09306939 0.26235753 0.32024264 -0.16458827 -0.08724166
-0.05851926 0.07089094 -0.5458358 -0.05263575 -0.09713334 0.031546965 -0.23639107 0.2596923
-0.045185316 -0.12673819 -0.19027236 0.14421837 0.07571274 0.21065468 0.42018503 0.026343854
0.11202382 0.25046632 0.022332609 0.20756876 -0.034421448 -0.24151994 -0.2978606 0.13614361
-0.30101773 -0.02705024 0.4012738 -0.20142359 0.2326219 0.33164522 -0.004513957 -0.18691641
0.33407608 -0.16588235 0.0019539655 -0.0924369 0.38151425 0.41135237 0.02034742 -0.41874248
0.12542571 0.019326892 0.10858488 0.09492441 -0.33834863 0.40063888 -0.13681749 0.2295299
0.25525132 0.08628222 -0.00018106897 0.015538952 -0.030565156 -0.17750934 -0.14090443 -0.60146236
0.12969416 -0.2785225 0.28288922 0.35977066 -0.09636404 -0.29698896 0.34775105 0.21408677
0.050702754 0.20134296 0.28278577 -0.16811626 -0.07889316 -0.2666533 -0.2300967 -0.22173998
0.023035103 -0.09173043 0.33257496 -0.17523438 0.23529416 0.15709068 -0.51969343 0.21923085
-0.13130635 0.18200472 -0.033057243 0.048738256 -0.12730867 -0.7677808 -0.09933048 0.09123316
-0.10169924 0.31036273 -0.39651972 0.4866997 -0.31004253 -0.034439977 0.25037992 -0.16439447
-0.08175753 0.2916578 -0.18772763 0.0005779378 -0.5055095 0.7188324 -0.21235804 0.3828191
-0.043702543 0.09300931 -0.009694178 0.077175476 -0.118535146 -0.06203511 0.1593085 -0.1184696
0.49083167 -0.10722302 -0.019351548 -0.4490809 0.0060395417 0.046025593 0.10515108 -0.09626461
-0.027210377 0.27175406 -0.7603336 0.17565754 -0.051988132 -0.115124054 0.018753044 0.1468592
00000000: 03cf d43b fce7 bbbc e6b1 c8bb 77f0 523e
00000010: 4c35 023e 6f74 d1be 8956 fdbe 7d67 47be
00000020: 2776 90bd a87e 833c d098 1ebd 03c3 3cbe
00000030: b6c4 cfbe de13 473e 96c3 413d 36a7 48be
00000040: 0ecb 86bc 9707 38be 6222 cbbc 5f73 233e
00000050: 9c8b 0b3f 9a51 3b3e 455e 06be 3352 c6bd
00000060: bc8f 64be 48d2 4cbe dac4 353e ca82 ac3e
00000070: 6c02 84be e69b 0dbe 2036 533e 24b5 0a3e
00000080: 42d4 a63e 60fe 2bbe 1195 a33e 278c 563e
00000090: 003b 913e 42e4 233e 393d 823c 3201 95be
000000a0: 1481 653e 4d64 9b3e bfd9 30bd 2329 80be
000000b0: e754 35be ad3f 7dbd 2fbd 633e a931 893e
000000c0: 17f7 21be 89f3 82bc 1c6a e8bc 7880 4f3e
000000d0: 16c6 c1bd 9ca4 4d3e 559d 62be 6a68 323e
000000e0: d7bd b2be ade2 6d3e 5505 9ebd 98dd 34be
000000f0: ad59 643c 1be8 9c3d ace5 3cbe 1824 733e
00000100: 91a2 debb c792 f5bd bbc1 103d dc30 083f
00000110: 6959 063e 3ee3 c9bd 4431 debe 8d68 6ebe
00000120: 6302 2fbd a223 5bbe 94a5 42bd 32e5 ca3e
00000130: 4f79 783e 744f cc3c 72ed cabe 7e4b dc3c
00000140: 576f 7dbe 3ec2 153e 0f09 73bd fbd5 87bd
00000150: 4dee 87bd 25dd ffbd 7c3f 95bd 00bc 89bd
00000160: fe75 ad3b 9db0 b43d af12 d9be 3fab edbc
00000170: 37ab 09bf 3437 103e 214c 32be a8d5 143e
00000180: 2e1f a83c 4714 37bd 6e40 be3d c299 a3be
00000190: b96d 0cbf 094b bebd 58fa 463e d59b 773e
000001a0: 0b22 c6bc 96cd 7bbc 360e 1cbe cbde b13e
000001b0: 52aa 16be d099 90be 3e89 123e 1040 21be
000001c0: 850f 1a3d 95dc 603e 585a 923b 7a82 ff3e
000001d0: e86e af3e 1b27 ca3d 5bf0 7d3e dcf8 8f3e
000001e0: 335d a33d c784 593e f543 6abe 2a9b bebd
000001f0: ba53 863e d8f6 a33e d489 28be c1ab b2bd
00000200: e4b1 6fbd 452f 913d e5bb 0bbf 9698 57bd
00000210: d8ed c6bd 6437 013d 8010 72be 64f6 843e
00000220: 3d14 39bd a8c7 01be c2d6 42be fbad 133e
00000230: 480f 9b3d dcb5 573e 7e22 d73e 11cf d73c
00000240: bf6c e53d 1f3d 803e e0f2 b63c e88c 543e
00000250: 81fd 0cbd 0151 77be 2f81 98be 3b69 0b3e
00000260: ff1e 9abe 7798 ddbc c273 cd3e fc41 4ebe
00000270: 6f34 6e3e 67cd a93e d1e9 93bb 0467 3fbe
00000280: 050c ab3e 10dd 29be 1a0e 003b 8f4f bdbd
00000290: d655 c33e c79c d23e a2af a63c 6a65 d6be
000002a0: 996f 003e 6e53 9e3c c061 de3d bb67 c23d
000002b0: 083c adbe 8a20 cd3e e219 0cbe e309 6b3e
000002c0: 4db0 823e bcb4 b03d 55dd 3db9 1797 7e3c
000002d0: c763 fabc 02c5 35be 4049 10be 70f9 19bf
000002e0: 8cce 043e 809a 8ebe dbd6 903e dc33 b83e
000002f0: 835a c5bd f00e 98be 6d0c b23e 9039 5b3e
00000300: b1ad 4f3d d92c 4e3e 4cc9 903e ab26 2cbe
00000310: bd92 a1bd c886 88be 789e 6bbe ce0f 63be
00000320: 1db4 bc3c 2add bbbd 4447 aa3e a470 33be
00000330: f4f0 703e 61dc 203e a10a 05bf 0d7e 603e
00000340: 2c75 06be 725f 3a3e 0867 07bd c4a1 473d
00000350: 345d 02be 488d 44bf c76d cbbd 73d8 ba3d
00000360: b147 d0bd dde7 9e3e a204 cbbe b430 f93e
00000370: e5bd 9ebe ef10 0dbd cc31 803e 0657 28be
00000380: 7e70 a7bd 2c54 953e ac3b 40be c080 173a
00000390: 1269 01bf 6605 383f 6374 59be dd00 c43e
000003a0: 7001 33bd aa7b be3d 54d4 1ebc 2d0e 9e3d
000003b0: 8ec2 f2bd 8718 7ebd c421 233e 31a0 f2bd
000003c0: 4a4e fb3e be97 dbbd 2387 9ebc efed e5be
000003d0: 59e7 c53b 5585 3c3d 7359 d73d 6126 c5bd
000003e0: 4ce8 debc 5923 8b3e 39a5 42bf 92df 333e
000003f0: 82f1 54bd 29c6 ebbd fc9f 993c 4262 163e

action_model._discrete_distribution.branches.1.bias f4 [3]
-0.047222905 0.12823461 -0.062288594
00000000: ce6c 41bd ef4f 033e 5322 7fbd

action_model._discrete_distribution.branches.1.weight f4 [3, 256]
0.029959919 -0.02615901 0.21758287 -0.36355492 0.06846211 -0.32821187 0.05253998 0.16459513
0.09356233 0.01430569 0.41533586 -0.0068971436 -0.043698594 0.010580465 0.0032413208 -0.014805409
-0.10589605 -0.27514192 0.2005137 0.15798254 0.11830307 0.039953157 0.07004232 -0.1476176
-0.28046843 0.12010545 0.40491545 0.10107403 -0.09677946 0.0039982023 0.016670503 0.11222676
-0.19504565 -0.20415999 -0.13495786 0.46852988 0.18080531 -0.043629844 -0.025946938 0.06419525
-0.10144279 -0.06739762 0.2581557 -0.057247967 -0.01542583 0.13705531 -0.081705034 0.37422937
0.035638347 0.068714544 -0.009665709 -0.23445316 -0.021072516 -0.17061311 0.08951824 0.07198778
0.18272717 0.40124518 0.24398486 0.13039993 0.018080242 0.17354842 0.07556215 0.28058997
-0.10269354 -0.05042959 -0.09856635 -0.21549536 0.06441648 -0.06218252 -0.011949489 0.08011212
-0.16607183 0.055588175 -0.13778733 -0.031949237 0.5021372 0.02628155 -0.4242677 -0.33989012
0.39753368 0.092257604 -0.19063073 0.019807536 0.21167186 0.2855875 -0.10784048 -0.061040662
-0.009347512 0.1606854 0.2691252 -0.26614344 0.15570365 0.31133616 0.36014438 -0.034974877
0.16633983 -0.062427975 0.26005515 -0.20562617 -0.17034157 -0.039107215 -0.0515812 -0.18279646
0.08511882 0.23264858 0.11791249 0.05276456 -0.06576228 0.13064456 -0.24371475 0.12626202
-0.24720189 0.026630454 0.04134473 0.22679506 0.039048854 -0.34506324 0.41329414 0.08319364
0.16288327 0.20503633 -0.00066788343 0.067238174 -0.12743199 -0.021881022 0.13141985 -0.28825262
-0.02034295 -0.012900149 0.19302468 -0.03994535 0.11000535 0.0833394 0.19364734 -0.42907396
0.07650909 -0.027960863 0.44938484 -0.38794976 0.20455399 0.31272268 -0.14132515 -0.074254416
0.26926076 -0.3854745 0.01685105 -0.19694148 0.2284076 0.051532082 -0.101865575 -0.13277385
0.21085937 0.051850718 0.2708511 0.23456202 0.3936462 0.2535713 0.2982472 -0.38270688
-0.13851433 -0.08230179 -0.008629282 0.1535948 0.03185456 0.27174732 0.044256784 0.71781003
0.035573658 0.16228028 0.46087897 0.3368475 -0.23445123 -0.14693488 0.3052956 -0.042365514
-0.09333664 -0.0058124037 -0.12661166 -0.17776996 0.7589346 -0.13703634 -0.08149521 0.39329904
-0.302606 0.28114206 -0.2250705 -0.2652098 -0.041821726 0.02431574 0.009036767 -0.20656227
-0.4330515 -0.10220138 -0.16130453 -0.19718017 0.007825261 -0.033892114 -0.04159523 0.13850586
-0.0018714935 0.0662236 0.046189796 0.23981214 -0.0041379067 0.2732874 0.19000417 0.23972382
0.07381094 -0.40823403 -0.06668019 -0.003783283 0.027602786 0.075038865 0.13120413 -0.06109258
0.31816256 0.47451866 0.05316226 -0.103682145 0.04760333 -0.025161106 -0.008057474 0.06799405
-0.7024677 -0.016605154 0.5078221 -0.16688162 0.025580464 0.4454844 0.21203168 -0.41218382
0.024474075 -0.13971803 0.013708921 -0.22843468 0.06858866 0.3873334 0.57670444 0.00010522577
0.047708504 -0.23741025 0.53884923 0.04364691 0.07099461 0.08630864 -0.14280725 0.13488016
-0.17530625 -0.24649985 -0.23670588 0.075542286 0.18286015 -0.10762971 0.026994526 0.42163706
00000000: 816e f53c 6c4b d6bc 0bce 5e3e df23 babe
00000010: dd35 8c3d 630b a8be 2934 573d a08b 283e
00000020: 9b9d bf3d 6a62 6a3c e7a6 d43e 6f01 e2bb
00000030: 4cfd 32bd b059 2d3c 576c 543b 6392 72bc
00000040: 07e0 d8bd 67df 8cbe 7753 4d3e 2dc6 213e
00000050: e148 f23d eca5 233d 5972 8f3d 1129 17be
00000060: 8f99 8fbe d9f9 f53d 1451 cf3e e7ff ce3d
00000070: 4f34 c6bd 5a03 833b 9490 883c 25d7 e53d
00000080: 0cba 47be 510f 51be 6532 0abe 26e3 ef3e
00000090: 0725 393e 35b5 32bd ac8e d4bc cd78 833d
000000a0: 3dc1 cfbd c307 8abd fc2c 843e d87c 6abd
000000b0: 9fbc 7cbc 3a58 0c3e f854 a7bd fe9a bf3e
000000c0: 84f9 113d 36ba 8c3d ec5c 1ebc 7d14 70be
000000d0: 45a0 acbc 34b5 2ebe 5755 b73d 546e 933d
000000e0: d51c 3b3e 0270 cd3e 2bd7 793e 8f87 053e
000000f0: 041d 943c adb6 313e 54c0 9a3d 7da9 8f3e
00000100: fe50 d2bd 428f 4ebd 28dd c9bd d1aa 5cbe
00000110: caec 833d 19b3 7ebd cac7 43bc d311 a43d
00000120: bc0e 2abe 6db0 633d 1f18 0dbe 34dd 02bd
00000130: 108c 003f 684c d73c 9e39 d9be 1406 aebe
00000140: 8989 cb3e 8ef1 bc3d b434 43be 6a43 a23c
00000150: 82c0 583e 8638 923e 78db dcbd c605 7abd
00000160: 4f26 19bc b78a 243e c7ca 893e f443 88be
00000170: c770 1f3e 7467 9f3e d864 b83e d141 0fbd
00000180: fd54 2a3e 7ab4 7fbd f325 853e ab8f 52be
00000190: 056e 2ebe e32e 20bd cf46 53bd ff2e 3bbe
000001a0: c752 ae3d 6e3b 6e3e 1b7c f13d a71f 583d
000001b0: 60ae 86bd b0c7 053e 5c90 79be d54a 013e
000001c0: 7e22 7dbe 1c28 da3c 1759 293d f73c 683e
000001d0: b1f1 1f3d 21ac b0be 4a9b d33e 6d61 aa3d
000001e0: dfca 263e 0bf5 513e e614 2fba 2bb4 893d
000001f0: 887d 02be d43f b3bc ed92 063e d995 93be
00000200: 42a6 a6bc 265b 53bc 43a8 453e bc9d 23bd
00000210: 7c4a e13d d9ad aa3d 7d4b 463e 95af dbbe
00000220: ccb0 9c3d 2e0e e5bc c515 e63e 5aa1 c6be
00000230: 9a76 513e 301d a03e 8ab7 10be b312 98bd
00000240: 8cdc 893e ea5c c5be 370b 8a3c 07ab 49be
00000250: afe3 693e 4e13 533d e69e d0bd def5 07be
00000260: 85eb 573e 6b61 543d ffac 8a3e 0731 703e
00000270: ff8b c93e 19d4 813e dbb3 983e 28f2 c3be
00000280: b3d6 0dbe d78d a8bd d561 0dbc f547 1d3e
00000290: ed79 023d 7722 8b3e 9a46 353d 66c2 373f
000002a0: afb5 113d cd2c 263e 54f8 eb3e 4777 ac3e
000002b0: fc13 70be 1976 16be b44f 9c3e 7687 2dbd
000002c0: 4827 bfbd fa75 bebb 7da6 01be 5409 36be
000002d0: 8a49 423f 4153 0cbe f6e6 a6bd 7e5e c93e
000002e0: 2cef 9abe daf1 8f3e e278 66be 94c9 87be
000002f0: 424d 2bbd ce31 c73c f30e 143c 0f85 53be
00000300: edb8 ddbe f54e d1bd 042d 25be 99e9 49be
00000310: 8635 003c 75d2 0abd c35f 2abd 7bd4 0d3e
00000320: e74c f5ba 3da0 873d 8331 3d3d 5091 753e
00000330: 4797 87bb 53ec 8b3e 7490 423e 297a 753e
00000340: 312a 973d 0d04 d1be a08f 88bd f5f0 77bb
00000350: 3d1f e23c faad 993d 605a 063e 373c 7abd
00000360: 34e6 a23e 1cf4 f23e acc0 593d 4e57 d4bd
00000370: b6fb 423d aa1e cebc 7f03 04bc 7740 8b3d
00000380: ecd4 33bf 8807 88bc a100 023f 04e3 2abe
00000390: 1f8e d13c 8816 e43e d51e 593e c209 d3be
000003a0: db7d c83c 3e12 0fbe 629b 603c c8ea 69be
000003b0: 3678 8c3d 9050 c63e e7a2 133f a8ac dc38
000003c0: fe69 433d ac1b 73be 06f2 093f 1ac7 323d
000003d0: 9f65 913d 96c2 b03d 103c 12be 061e 0a3e
000003e0: 7b83 33be 756a 7cbe 0763 72be eab5 9a3d
000003f0: b13f 3b3e f76c dcbd a023 dd3c d0e0 d73e

discrete_action_output_shape f4 [1, 2]
3.0 3.0
00000000: 0000 4040 0000 4040

network_body._body_endoder.seq_layers.0.bias f4 [256]
-0.21228528 -0.54901814 -0.5792339 -0.3466165 -0.5016625 -0.27177507 -0.259247 -0.44600937
-0.3007169 -0.040503733 -0.4360631 0.3091537 -0.36969745 -0.39554116 -0.09487647 -0.16647537
-0.24952133 -0.20918486 -0.1393686 -0.35712826 -0.15743564 -0.17172806 -0.009739109 -0.42242604
0.03565273 -0.39477643 -0.14590748 -0.31883904 -0.40093836 -0.721285 -0.3339954 -0.5636785
-0.7938592 -0.35145965 -0.17877957 -0.26722798 -0.23972566 -0.39460453 -0.46331573 -0.13620421
-0.19031154 -0.31358042 -0.1467649 -0.1354641 -0.085311905 -0.42658117 -0.15701559 -0.4101426
-0.7162165 -0.0023849902 -0.3351522 -0.25324154 -0.32965812 -0.16576427 -0.37516326 -0.34020108
-0.49984276 -0.18409158 -0.78664404 -0.18023472 -0.26601383 -0.07928195 -0.31719077 -0.3547906
-0.23975582 -0.23273891 -0.38788304 -0.2652693 -0.22917275 -0.08232881 -0.17787926 -0.19389635
-0.22469619 -0.19673523 -0.21765617 -0.5125982 -0.17140295 -0.2542035 -0.65688026 -0.24127474
-0.27618667 -0.17783052 0.2673228 -0.24033199 -0.35793445 -0.11880118 -0.593446 -0.5694382
-0.15620588 -0.0119183045 -0.042282518 -0.06148336 -0.09423955 -0.20360114 -0.5937839 -0.26290447
-0.11837504 -0.34588322 -0.17725223 0.034840282 -0.14245583 -0.41354245 0.042476565 -0.13613199
-0.29054448 0.22722371 -0.35772327 -0.24610247 -0.3469838 -0.253133 -0.31735772 -0.05793113
-0.5156402 -0.34081548 -0.47739378 -0.17973445 -0.25738108 -0.43211666 -0.20564945 -0.53115916
-0.2310694 -0.42209172 -0.18498138 0.19654419 -0.17345686 -0.49564326 -0.18536794 -0.9940906
-0.08470674 -0.07585802 -0.20733549 -0.2749358 -0.30389303 -0.22121814 -0.1979805 -0.27629936
-0.20798895 -0.19936493 -0.17341904 0.02001815 0.061459042 -0.7169162 -0.24227504 -0.19702259
-0.18851474 -0.28160453 -0.20052385 -0.3114135 -0.018826036 -0.10111647 -0.15823363 0.29672533
-0.065548144 -0.16084054 -0.164919 -0.44229558 -0.115693524 -0.019216806 -0.322004 -0.23486073
-0.13169532 -0.29013717 -0.36762264 -0.4349976 -0.162248 0.3661162 -0.066692166 0.02185376
-0.33132508 -0.11157371 -0.14439322 -0.30625927 -0.2619728 -0.45232856 -0.22246662 -0.32050502
-0.2590298 -0.3794559 -0.32061315 -0.44346774 -0.25556043 -0.25658283 -0.35899416 -0.10060898
-0.47598168 -0.20890898 -0.03111891 -0.22472268 -0.13723609 -0.06301256 -0.14492652 -0.50142044
-0.25939205 -0.0123632755 -0.26282063 -0.117121145 -0.30959156 -0.28990966 -0.23348938 -0.60380393
-0.39433548 -0.2411535 0.18743409 -0.21210398 -0.14684255 -0.30640462 -0.18009934 -0.20079562
-0.099268995 -0.031856194 -0.22539167 -0.079627216 -0.3991051 -0.53428626 -0.18378858 -0.2837367
-0.13391872 -0.26115212 -0.015937524 -0.15875332 -0.14402479 -0.062780134 -0.24335362 -0.35396808
-0.45158976 -0.15445648 -0.59713966 -0.19287887 -0.18144064 -0.18484695 -0.35054094 -0.16709077
-0.27569368 -0.6915281 -0.15245627 -0.15035771 -0.21236524 -0.35102072 -0.28814122 -0.30643934
-0.4141974 -0.037734415 -0.35672125 -0.40377167 -0.2554631 -0.29462942 -0.17595543 -0.7304845
-0.32934716 0.123251595 -0.28180012 -0.54326767 -0.07862609 -0.21670286 -0.14592874 -0.22954777
00000000: 5061 59be 748c 0cbf ac48 14bf b877 b1be
00000010: f46c 00bf 1a26 8bbe 06bc 84be 575b e4be
00000020: 91f7 99be 3ee7 25bd aa43 dfbe 6549 9e3e
00000030: fc48 bdbe 5f84 cabe 984e c2bd 8578 2abe
00000040: 8582 7fbe 8e34 56be a4b6 0ebe 84d9 b6be
00000050: cf36 21be 7bd9 2fbe c990 1fbc 3a48 d8be
00000060: 9908 123d 2320 cabe c568 15be df3e a3be
00000070: cb47 cdbe 22a6 38bf 7201 abbe 3c4d 10bf
00000080: 5b3a 4bbf 85f2 b3be fe11 37be 1bd2 88be
00000090: a57a 75be 9b09 cabe b837 edbe 1e79 0bbe
000000a0: 07e1 42be 9d8d a0be 8a49 16be 1ab7 0abe
000000b0: 02b8 aebd d968 dabe b2c8 20be 36fe d1be
000000c0: f759 37bf 7f4d 1cbb 1299 abbe e0a8 81be
000000d0: f3c8 a8be 1cbe 29be 6615 c0be d62e aebe
000000e0: 64eb ffbe 8182 3cbe 8161 49bf 738f 38be
000000f0: f732 88be 935e a2bd d466 a2be 1da7 b5be
00000100: 8d82 75be 1c53 6ebe 9b98 c6be 61d1 87be
00000110: 43ac 6abe 029c a8bd fb25 36be c48c 46be
00000120: c216 66be f674 49be 42e1 5ebe a339 03bf
00000130: 4184 2fbe f626 82be 4e29 28bf ba10 77be
00000140: 5768 8dbe 3419 36be 89de 883e 9719 76be
00000150: 2f43 b7be 084e f3bd 14ec 17bf b4c6 11bf
00000160: 6ff4 1fbe fe44 43bc 6f30 2dbd fad5 7bbd
00000170: aa00 c1bd d17c 50be 3902 18bf 6a9b 86be
00000180: 9d6e f2bd 9b17 b1be 9c81 35be afb4 0e3d
00000190: f1df 11be d6bb d3be e8fb 2d3d 2f66 0bbe
000001a0: 3fc2 94be 55ad 683e 8127 b7be 4902 7cbe
000001b0: dca7 b1be a69a 81be b67c a2be 3149 6dbd
000001c0: ff00 04bf 5e7f aebe f56c f4be 4f0c 38be
000001d0: 74c7 83be 653e ddbe c595 52be 0cfa 07bf
000001e0: 759d 6cbe 681c d8be c26b 3dbe e142 493e
000001f0: ad9e 31be f4c4 fdbe 18d1 3dbe b97c 7ebf
00000200: ba7a adbd 735b 9bbd c14f 54be 63c4 8cbe
00000210: de97 9bbe 0287 62be 66bb 4abe 1c77 8dbe
00000220: 0efb 54be 5226 4cbe c394 31be 1afd a33c
00000230: 7abc 7b3d d287 37bf f316 78be 4ac0 49be
00000240: 020a 41be 782e 90be 2056 4dbe 9771 9fbe
00000250: 0f39 9abc 2716 cfbd ff07 22be 62ec 973e
00000260: 1b3e 86bd 62b3 24be 87e0 28be 9174 e2be
00000270: baf0 ecbd 906c 9dbc b5dd a4be 557f 70be
00000280: 23db 06be dc8c 94be 0939 bcbe 01b8 debe
00000290: 5724 26be 9573 bb3e e795 88bd a806 b33c
000002a0: 71a3 a9be c280 e4bd d1db 13be 04ce 9cbe
000002b0: 4d21 86be 9c97 e7be 4ace 63be 3c19 a4be
000002c0: 8e9f 84be 0b48 c2be 6827 a4be 340e e3be
000002d0: d1d8 82be d35e 83be 15ce b7be 150c cebd
000002e0: dfb3 f3be 3cec 55be 16ed febc b41d 66be
000002f0: 9e87 0cbe bb0c 81bd 9e67 14be 175d 00bf
00000300: 09cf 84be 568f 4abc 6d90 86be 36dd efbd
00000310: c982 9ebe 0a6f 94be d717 6fbe e592 1abf
00000320: 57e6 c9be f1f0 76be b9ee 3f3e c931 59be
00000330: e55d 16be 11e1 9cbe f66b 38be 5e9d 4dbe
00000340: 8b4d cbbd a47b 02bd 13cd 66be 9813 a3bd
00000350: 8157 ccbe fcc6 08bf 1333 3cbe f045 91be
00000360: fd21 09be bbb5 85be 698f 82bc 3b90 22be
00000370: 3c7b 13be df92 80bd b131 79be 4e3b b5be
00000380: c636 e7be d729 1ebe 25de 18bf 0a82 45be
00000390: 93cb 39be 8548 3dbe 1a7a b3be d819 2bbe
000003a0: b927 8dbe fc07 31bf 7f1d 1cbe 5ff7 19be
000003b0: 4676 59be fdb8 b3be 3f87 93be 9ee5 9cbe
000003c0: ae11 d4be 678f 1abd 2ba4 b6be 29bb cebe
000003d0: 0fcc 82be abd9 96be a92d 34be 0801 3bbf
000003e0: 31a0 a8be 556b fc3d 1b48 90be 9713 0bbf
000003f0: b706 a1bd 5be7 5dbe 586e 15be 920e 6bbe

network_body._body_endoder.seq_layers.0.weight f4 [256, 99]
-0.08146762 0.1342534 0.014180685 -0.028181985 -0.92168564 -0.2026153 -0.30723247 0.19424893
-0.08313506 -1.0440108 -0.3132749 -0.02989791 -0.08573595 0.028467951 -0.49673945 0.015383081
-0.5426933 0.20520782 0.06160951 -0.703209 0.15517397 -0.19335757 -0.3787578 0.21534619
-0.46023163 -0.23302554 0.18364489 -0.0439878 0.19360352 -0.5582989 -0.37773088 0.44856444
-0.23760436 0.029708276 -0.58450466 0.13260102 -0.02802921 -0.41919544 0.091436185 -0.6034783
-0.32400483 0.039935958 0.028546842 0.13171539 -0.44915244 0.42743087 -0.3588528 -0.55833244
0.033658694 -0.6660078 0.20901722 -0.3263557 -0.29129234 0.016059766 -0.40477067 -0.10347238
0.041150678 -0.22307116 -0.0796913 -0.42852056 -0.6346157 0.08611557 -0.09152964 -0.10436056
0.05094693 -0.16732273 0.13972417 -0.112270884 0.031120427 -0.2287667 -0.410424 -0.31474426
-0.102870725 0.061631735 -0.008706448 -0.30002415 0.069443084 -0.054875027 0.07126459 0.023179961
-0.21858746 0.015749801 0.17076439 0.106438465 0.18865392 -0.3109279 0.53651345 -0.16931632
-0.118803814 0.08939714 0.10790551 -0.5780908 -0.5264198 0.14582543 0.1382864 -0.7072833
-0.3548705 -1.4239737 -1.1065719 -0.55228627 -0.7027887 -0.43558306 0.08402349 -0.7968403
-0.25791332 -0.55732614 -0.52660567 -0.13112885 -0.9966898 -0.08705767 -0.6528283 -0.3105741
-0.06458187 -0.7490659 0.05178726 -0.25090083 -0.9275485 -0.08356516 -0.8721981 -0.058235854
-0.32768604 -0.40460044 0.18310146 -0.81295484 -0.32499447 -0.27603188 -0.8503912 0.0049608657
-0.8846736 -0.33003432 -0.26233697 0.09789715 -0.118003085 -0.6880292 -0.39292142 -0.15471046
-0.7965032 0.07429913 -0.6087735 -0.24378623 -0.51911527 -0.27796942 0.0054149623 -0.7927755
-0.4447964 0.22384024 -0.9080139 0.085213915 -0.7374025 -0.33037695 -0.61801654 0.27141812
0.19733855 -0.50602955 -0.9696544 0.4086788 -0.43111292 0.09704892 -0.30082053 -0.5286129
0.26267454 0.32777882 0.070519224 -0.66820794 -0.88498443 0.26637685 0.14736632 -0.019887412
-0.4635887 -1.0016358 0.0628115 0.40844196 -0.010726168 -0.54374754 -0.5464497 0.459995
0.16352464 -0.05822762 -0.50577736 -0.46860147 0.22658324 0.0757885 0.07026472 -0.46928832
-0.6306538 0.3749305 -0.17273405 0.09746132 -0.59434503 -0.7723323 0.39870209 -0.09336533
-0.04687972 -0.5099799 -0.030839806 -0.16863866 -0.033524647 -0.02511748 -0.65844446 -0.15042572
-0.20193279 0.07406444 -1.2350436 -0.37472934 -0.021354444 -0.39821488 -0.03533636 -1.3514315
-0.94275075 -0.1909144 -0.27185026 -0.14183097 -0.72370136 -0.3622033 -0.12154301 -0.40354687
-0.034685563 -1.6775181 -0.020363687 -0.38957742 -0.31344512 -0.0059496188 -0.85177827 -0.47729018
-0.18084356 -0.09128833 0.025217386 -1.4888469 -0.77066875 -0.26862928 -0.43881905 -0.12656301
-0.46665052 -0.66877246 -0.9439315 -0.105943225 0.022656638 -1.4829327 -0.24419056 -0.55583835
-0.11563926 -0.03652822 -0.18885368 -0.71572715 0.15297252 0.4023268 -0.11222802 -1.1728861
-0.09942355 -0.26091474 -0.6784995 0.071111746 0.12033945 -0.49802494 -0.17277597 -0.25979298
00000000: 7fd8 a6bd b979 093e 1b56 683c e8dd e6bc
00000010: 97f3 6bbf 637a 4fbe 934d 9dbe 31e9 463e
00000020: b742 aabd 25a2 85bf 9165 a0be 76ec f4bc
00000030: 5496 afbd 9f35 e93c a254 febe 5109 7c3c
00000040: f3ed 0abf 0022 523e 415a 7c3d 8105 34bf
00000050: ede5 1e3e 87ff 45be 8bec c1be b683 5c3e
00000060: 7ba3 ebbe 3f9e 6ebe 680d 3c3e 8d2c 34bd
00000070: 0040 463e adec 0ebf f165 c1be 3daa e53e
00000080: 8f4e 73be c55e f33c 19a2 15bf 90c8 073e
00000090: 849d e5bc c9a0 d6be e542 bb3d 8e7d 1abf
000000a0: f6e3 a5be e393 233d 11db e93c 66e0 063e
000000b0: 4ff7 e5be 38d8 da3e 8ebb b7be e0ee 0ebf
000000c0: b3dd 093d 7d7f 2abf 9c08 563e 1818 a7be
000000d0: 4524 95be c58f 833c 1a3e cfbe 54e9 d3bd
000000e0: 9d8d 283d c46c 64be 3135 a3bd 0c67 dbbe
000000f0: 2d76 22bf 5c5d b03d e473 bbbd fdba d5bd
00000100: baad 503d a656 2bbe da13 0f3e 47ee e5bd
00000110: 44f0 fe3c d141 6abe 1823 d2be 2926 a1be
00000120: e3ad d2bd 8f71 7c3d 7da5 0ebc c49c 99be
00000130: 2d38 8e3d a3c4 60bd 2bf3 913d e7e3 bd3c
00000140: 64d5 5fbe ba05 813c dcdc 2e3e 69fc d93d
00000150: 7e2e 413e f131 9fbe f258 093f 4261 2dbe
00000160: 6a4f f3bd d915 b73d 90fd dc3d c2fd 13bf
00000170: 73c3 06bf 4353 153e f39a 0d3e 8510 35bf
00000180: 96b1 b5be c544 b6bf 26a4 8dbf a262 0dbf
00000190: f6e9 33bf be04 dfbe 8214 ac3d bafd 4bbf
000001a0: 370d 84be edac 0ebf a1cf 06bf a446 06be
000001b0: 1027 7fbf 4b4b b2bd c11f 27bf 9203 9fbe
000001c0: 8043 84bd c8c2 3fbf e11e 543d 1376 80be
000001d0: d273 6dbf 3624 abbd 6048 5fbf b888 6ebd
000001e0: 77c6 a7be ca27 cfbe f37e 3b3e cf1d 50bf
000001f0: ad65 a6be 0d54 8dbe 3db3 59bf c28e a23b
00000200: f879 62bf 42fa a8be 0851 86be 4d7e c83d
00000210: 9aab f1bd af22 30bf ff2c c9be 6b6c 1ebe
00000220: a2e7 4bbf 242a 983d 95d8 1bbf 19a3 79be
00000230: bde4 04bf 0252 8ebe ff6f b13b 56f3 4abf
00000240: 5bbc e3be 6036 653e 9973 68bf a284 ae3d
00000250: 69c6 3cbf 2b27 a9be 5536 1ebf 51f7 8a3e
00000260: 1e13 4a3e 278b 01bf 453b 78bf 593e d13e
00000270: d5ba dcbe 96c1 c63d 2605 9abe 2d53 07bf
00000280: 477d 863e a0d2 a73e 626c 903d ad0f 2bbf
00000290: 578e 62bf 8c62 883e 32e7 163e edea a2bc
000002a0: 805b edbe 9a35 80bf 51a3 803d 4e1f d13e
000002b0: cfbc 2fbc 0a33 0bbf 21e4 0bbf 7784 eb3e
000002c0: 0173 273e 1680 6ebd a07a 01bf 88ec efbe
000002d0: 7005 683e 0037 9b3d f3e6 8f3d 8f46 f0be
000002e0: 8772 21bf e4f6 bf3e 32e1 30be cd99 c73d
000002f0: ff26 18bf 92b7 45bf ae22 cc3e 5236 bfbd
00000300: f304 40bd 0b8e 02bf c3a3 fcbc 9daf 2cbe
00000310: 2451 09bd 2cc3 cdbc d18f 28bf 3309 1abe
00000320: 78c7 4ebe 19af 973d e915 9ebf 86dc bfbe
00000330: 84ef aebc d2e2 cbbe dcbc 10bd b5fb acbf
00000340: 1d58 71bf 117f 43be f52f 8bbe 233c 11be
00000350: 7e44 39bf b672 b9be 8beb f8bd b29d cebe
00000360: 7312 0ebd eab8 d6bf bfd1 a6bc b176 c7be
00000370: e17b a0be 05f5 c2bb 240e 5abf 615f f4be
00000380: 0e2f 39be 60f5 babd b194 ce3c 8992 bebf
00000390: 8c4a 45bf c789 89be e4ac e0be bc99 01be
000003a0: d1ec eebe ac34 2bbf 7fa5 71bf c3f8 d8bd
000003b0: 6a9a b93c bdd0 bdbf 170d 7abe 6c4b 0ebf
000003c0: 47d4 ecbd 9d9e 15bd dc62 41be e539 37bf
000003d0: d4a4 1c3e c7fd cd3e ced7 e5bd 2221 96bf
000003e0: 939e cbbd 9e96 85be 25b2 2dbf 09a3 913d
000003f0: 8874 f63d 20fd febe 2fec 30be 9603 85be

network_body._body_endoder.seq_layers.2.bias f4 [256]
-0.44827682 -0.8569152 -0.32171264 -0.67245626 -0.29122454 -0.53255665 -0.36114573 -1.089049
-0.2069771 0.005363153 -0.58761984 0.63304305 -0.4904047 0.01652079 -0.44403952 -0.6294778
-0.17660896 -0.22421809 -0.30100736 -0.0739501 -0.39974704 -0.4173076 -0.15479818 -0.21375604
-0.19045424 -0.24842726 -0.3200975 0.4071326 -0.3635868 -0.4033626 0.23225103 -0.453196
-0.6841454 -0.49621034 -0.59781194 -0.19031645 -0.097478375 -0.21153086 -0.33537647 -0.17482512
-0.4999576 -0.46979892 -0.15402302 -0.23299499 0.124411516 -0.12716424 -0.06086882 -0.43390396
-0.6096466 -0.5646408 -0.62197804 -0.24349476 -0.85527474 -0.324976 -0.13208511 0.102888174
-0.7604977 -0.40598527 -0.2895493 -0.313281 -0.34388074 -0.10884719 -0.33724442 -0.5431162
-0.49045798 -0.6950164 -0.46951312 -0.39790136 -0.6057046 -0.02665 -0.824176 -0.8776538
-0.06825136 -0.37302542 -0.6583624 -0.1919092 -0.31812498 -0.37509555 0.40382352 -0.30383956
-0.15122831 -0.32355124 -0.2192054 -0.31418893 -0.5663377 -0.6092485 -0.5627948 -0.53571117
-0.22549725 -0.14675802 -0.49892572 -0.26734123 0.032835655 -0.2092096 -0.3209848 0.23815061
-0.7202166 -0.50607336 -0.5711279 -0.6701371 -0.28438133 -0.32599488 -0.38298792 -0.7715643
-0.24492073 -0.20281103 -0.28560936 -0.06447053 -0.7797431 -0.42992717 -0.6945424 -0.5825744
-0.022978498 -0.22813256 -0.524974 -0.38048986 -0.22335605 -0.25007433 -0.4125605 -0.46330702
-0.56567866 -0.33846286 -0.1677009 -0.6286183 -0.5408017 -0.6868941 -0.84896797 -0.2903716
-0.46714407 0.14223085 -0.28638098 -0.46600634 -0.21812491 -0.19219257 -0.93781394 -0.5033841
-0.23199353 -0.37641278 -0.41966906 0.005001992 -0.43775263 0.42069086 0.0034851301 -0.40141845
-0.3250503 -0.64437073 -0.41832003 -0.16738 -0.521535 -0.16775621 -0.51479113 -0.43397874
-0.6524067 -0.062814675 -0.30303422 -0.8173897 -0.7275495 -0.38060084 -0.24298492 -0.33908227
0.1083567 -0.4143776 -0.5485682 -0.3955651 -0.7592731 -0.03409443 -0.09230919 -0.42428535
0.11305177 -0.34843072 -0.18559393 -0.53674126 -0.24092697 -0.60965943 -0.17339563 -0.5235437
-0.0065069427 -0.34274203 -0.27097493 -0.37557447 -0.096808486 -0.64730376 -0.52663463 -0.23782924
-0.06378143 -0.039719198 -0.3237856 0.23872085 -0.4401427 -0.5956531 -0.13440558 -0.58219105
-0.29129168 -0.14391185 -0.37250465 -0.46467873 -0.29171395 -0.09992239 -0.28237483 -0.7547343
-0.26817542 0.22293685 -0.67353696 -0.39511847 -0.5381782 -0.540701 -0.33597764 -0.3563433
-0.49441177 -0.7059166 -0.5680493 -0.1880637 -0.5958308 -0.1413477 -0.10926755 -0.45814663
-0.53101367 -0.30820823 -0.40527767 -0.53686225 -0.34214908 -0.2995652 -0.59874916 -0.54629016
-0.12272014 0.45507243 -0.4076847 -0.18222055 -0.5121192 -0.93516576 -0.66794264 -0.28888196
0.53400666 0.10745308 -0.60977006 -0.509962 -0.26075134 0.27900794 -0.86355567 -0.31810525
-0.6607724 -0.3540159 -0.16191733 -0.6348063 -0.94132036 -0.37792537 -0.41745812 -0.47620624
-0.36898547 -0.5503672 -0.45577788 -0.3304394 -0.15031098 -0.7124781 -0.41054136 -0.059499435
00000000: 8a84 e5be cb5e 5bbf 85b7 a4be 1826 2cbf
00000010: 621b 95be a255 08bf 18e8 b8be f565 8bbf
00000020: cef1 53be 63bd af3b 416e 16bf 1c0f 223f
00000030: 5316 fbbe 9c56 873c 2659 e3be 7525 21bf
00000040: fbd8 34be 6d99 65be a31d 9abe 2673 97bd
00000050: a5ab ccbe 57a9 d5be 6a83 1ebe dde2 5abe
00000060: 7006 43be b763 7ebe d2e3 a3be af73 d03e
00000070: 0d28 babe 8b85 cebe 37d3 6d3e 4e09 e8be
00000080: 2724 2fbf 480f febe 340a 19bf 51e2 42be
00000090: bea2 c7bd 8c9b 58be 77b6 abbe 5b05 33be
000000a0: 71fa ffbe 7c89 f0be 36b8 1dbe 3d96 6ebe
000000b0: 77cb fe3d 5837 02be 9551 79bd a928 debe
000000c0: cd11 1cbf 4d8c 10bf f439 1fbf b156 79be
000000d0: 49f3 5abf 4163 a6be 5241 07be 09b7 d23d
000000e0: faaf 42bf 4ddd cfbe ce3f 94be 5e66 a0be
000000f0: 2311 b0be 47eb debd 4dab acbe aa09 0bbf
00000100: 4f1d fbbe 98ec 31bf 0664 f0be bab9 cbbe
00000110: 750f 1bbf 1a51 dabc 33fd 52bf ebad 60bf
00000120: 5ec7 8bbd 30fd bebe 708a 28bf d883 44be
00000130: 47e1 a2be 860c c0be f5c1 ce3e dc90 9bbe
00000140: 98db 1abe 82a8 a5be 6177 60be 5fdd a0be
00000150: 82fb 10bf b6f7 1bbf 5213 10bf 5e24 09bf
00000160: c0e8 66be bc47 16be 3173 ffbe f3e0 88be
00000170: ae7e 063d 0b3b 56be 1f58 a4be c1dd 733e
00000180: 1d60 38bf 068e 01bf 7035 12bf 1b8e 2bbf
00000190: 6e9a 91be cde8 a6be fe16 c4be 3d85 45bf
000001a0: 80cc 7abe b2ad 4fbe 643b 92be 2009 84bd
000001b0: 3e9d 47bf 6a1f dcbe 88cd 31bf 9923 15bf
000001c0: 673d bcbc 959b 69be b264 06bf 91cf c2be
000001d0: 73b7 64be be09 80be 213b d3be 9436 edbe
000001e0: 51d0 10bf 014b adbe c9b9 2bbe 21ed 20bf
000001f0: fb71 0abf 4bd8 2fbf f755 59bf 96ab 94be
00000200: 822d efbe f7a4 113e 87a0 92be 6298 eebe
00000210: 235c 5fbe 21ce 44be 9314 70bf c8dd 00bf
00000220: b68f 6dbe 2db9 c0be ddde d6be c0e7 a33b
00000230: 1d21 e0be cb64 d73e c866 643b b886 cdbe
00000240: fe6c a6be 7bf5 24bf 0b2e d6be aa65 2bbe
00000250: 5183 05bf 49c8 2bbe 5ac9 03bf 7632 debe
00000260: 2004 27bf fba4 80bd 4d27 9bbe 7440 51bf
00000270: af40 3abf 1dde c2be 0ad1 78be 319c adbe
00000280: 1eea dd3d 4d29 d4be f76e 0cbf 8287 cabe
00000290: b95f 42bf 9aa6 0bbd 9a0c bdbd ee3b d9be
000002a0: b087 e73d 8365 b2be 560c 3ebe e067 09bf
000002b0: 8fb5 76be a412 1cbf a08e 31be f606 06bf
000002c0: 3138 d5bb e27b afbe 3abd 8abe 4c4b c0be
000002d0: 8743 c6bd b3b5 25bf 87d1 06bf 8289 73be
000002e0: d79f 82bd 99b0 22bd 3ac7 a5be 3d73 743e
000002f0: 625a e1be b97c 18bf 9ea1 09be 790a 15bf
00000300: 2f24 95be a15d 13be eeb8 bebe 5fea edbe
00000310: 885b 95be 1ca4 ccbd 6f93 90be 4436 41bf
00000320: 4a4e 89be 8f49 643e eb6c 2cbf f84c cabe
00000330: 0cc6 09bf 616b 0abf 4305 acbe a172 b6be
00000340: 8a23 fdbe f3b6 34bf ae6b 11bf c593 40be
00000350: 5e88 18bf 74bd 10be aac7 dfbd 3292 eabe
00000360: 83f0 07bf 78cd 9dbe 8e80 cfbe ce6f 09bf
00000370: 2a2e afbe 9c60 99be a047 19bf acd9 0bbf
00000380: b254 fbbd 41ff e83e 0dbc d0be 0698 3abe
00000390: 3e1a 03bf 0667 6fbf 4afe 2abf 56e8 93be
000003a0: a9b4 083f 5c10 dc3d e419 1cbf df8c 02bf
000003b0: 3381 85be 21da 8e3e fc11 5dbf b1de a2be
000003c0: 6128 29bf 9241 b5be a8cd 25be aa82 22bf
000003d0: 5ffa 70bf 6f7f c1be 12bd d5be 4ed1 f3be
000003e0: aaeb bcbe dde4 0cbf b85b e9be 5a2f a9be
000003f0: 1feb 19be f764 36bf 7a32 d2be aeb5 73bd

network_body._body_endoder.seq_layers.2.weight f4 [256, 256]
0.25991675 0.16678907 -0.054336816 0.22115143 0.11281776 0.20418309 -0.04480068 0.44697562
0.011654227 -0.06113462 0.23072225 -0.7233628 -0.065954834 0.33309704 0.39350808 0.40954995
0.05460017 0.44197652 0.32113644 -0.0820055 0.36109507 0.30417594 -0.1854883 -0.32722127
-0.0079399245 0.18017332 -0.25025985 0.23863961 0.1252158 0.17862175 0.12787226 0.0750119
0.0039226674 -0.15393123 0.18752536 -0.29619044 0.1414702 0.1230129 0.14691344 0.2691655
0.63966453 0.1824712 0.4373989 0.19616455 0.5544946 0.2733373 0.5707669 0.38837418
0.13550861 0.029929671 -0.113923416 0.040431395 -0.017632257 0.2500858 0.28903216 0.1746959
0.3965895 -0.0861988 0.031002505 0.06766089 0.5532765 0.39114565 -0.06421678 0.27616107
0.37281886 0.40034774 0.6086889 0.12709127 0.48619944 -0.037910677 0.4000486 0.16518232
0.11403491 0.6188253 0.28905016 0.35328868 0.16305162 0.12582551 0.48600593 0.36241722
0.5546334 0.29175082 0.059526008 -0.06957067 0.13762788 0.011132414 -0.0075388458 -0.1846702
0.06689178 0.20967092 0.30480343 0.3091703 -0.015789963 0.31120896 0.26072842 0.1285557
0.16089128 0.2841668 -0.3772583 -0.14605266 -0.066960976 0.47812247 0.35009864 0.3025906
0.19163129 0.15769975 0.029501311 0.1315472 -0.044976145 0.6600461 0.17301005 0.45769802
0.13034578 0.37459195 -0.15560372 -0.26679662 0.027086701 0.3627717 -0.13654736 0.30398992
0.60038185 0.35691917 0.3791528 -0.6061278 0.09085922 0.24226525 0.18287921 -0.14623155
0.124990076 -0.16373248 -0.017079819 -0.088182755 0.48915315 0.29447758 0.17960759 0.50272024
0.41061112 -0.16119175 -0.42334393 -0.029466467 -0.28624162 0.17341901 0.4564409 0.37705407
0.10455008 0.2575173 0.12796378 -0.20073359 0.19847181 -0.18462734 0.29954034 -1.1011686
-0.53761405 0.34940848 0.23579873 0.24020788 -0.034921627 0.055653587 0.033545423 -0.017411731
0.16941856 0.279391 0.61443627 0.0004358713 0.25742874 -0.39224848 0.056175638 -0.05230752
0.53631216 0.17704022 0.01921944 0.23323093 0.37339842 0.090441965 0.388166 0.29669288
-0.0052419966 0.38965312 0.47230062 0.2664009 0.26441824 0.18622066 0.12655015 0.0064705913
0.16352834 -0.22933294 0.04511037 0.08961357 0.015129819 -0.11067675 0.015241785 -0.007862304
0.23700966 -0.72216284 0.19250016 0.12220338 0.40761817 0.17741713 0.084268086 0.044563513
-0.47094584 0.3633635 -0.08828125 0.4389935 -0.43230477 0.6223531 0.24265267 -0.07968675
-0.5323206 0.12924655 0.11696691 0.73068047 0.083800316 -0.08357701 -0.06330712 -0.03937628
-0.1022626 -0.0039357194 -0.54840255 -0.17994334 0.31854725 0.10400015 0.29843575 0.3921234
0.4476761 -0.47106767 0.026042946 0.40322596 0.01652566 0.021977872 0.25359496 0.25172606
0.068822235 0.16417205 0.33445668 0.09265288 0.078410774 0.20277098 0.7549111 0.19490828
0.062832 0.21596825 0.056681 -0.08007475 0.28946283 0.08237105 0.2215277 0.2956982
0.15623683 -0.50945836 0.030523986 0.11669937 0.03148116 0.25074002 0.25084797 0.2045606
00000000: cf13 853e c1ca 2a3e 4890 5ebd 8575 623e
00000010: ff0c e73d 5f15 513e eb80 37bd fdd9 e43e
00000020: 5ff1 3e3c 4c68 7abd 7442 6c3e 4e2e 39bf
00000030: 5413 87bd b28b aa3e e479 c93e 88b0 d13e
00000040: 6ea4 5f3d bf4a e23e ff6b a43e 80f2 a7bd
00000050: 74e1 b83e f3bc 9b3e a5f0 3dbe 8c89 a7be
00000060: 7516 02bc 5b7f 383e 0f22 80be f15d 743e
00000070: 9238 003e 9fe8 363e f2f0 023e d79f 993d
00000080: b889 803b 26a0 1dbe a606 403e 46a6 97be
00000090: 90dd 103e 30ee fb3d 7a70 163e 0fd0 893e
000000a0: 0ec1 233f bbd9 3a3e c0f2 df3e 5cdf 483e
000000b0: 5cf3 0d3f def2 8b3e c81d 123f fbd8 c63e
000000c0: c5c2 0a3e 122f f53c ae50 e9bd 649b 253d
000000d0: 8671 90bc 3f0b 803e 06fc 933e 7be3 323e
000000e0: c70d cb3e ff88 b0bd f7f8 fd3c cb91 8a3d
000000f0: 87a3 0d3f 3e44 c83e 1684 83bd fc64 8d3e
00000100: 1de2 be3e 61fa cc3e 09d3 1b3f 3724 023e
00000110: 22ef f83e 3a48 1bbd 2cd3 cc3e 8e25 293e
00000120: 238b e93d 566b 1e3f 62fe 933e 41e2 b43e
00000130: 01f7 263e 67d8 003e c5d5 f83e c08e b93e
00000140: 74fc 0d3f 5d60 953e 8bd1 733d 117b 8ebd
00000150: 53ee 0c3e bb64 363c 6c08 f7bb 2f1a 3dbe
00000160: 8ffe 883d f9b3 563e 320f 9c3e 924b 9e3e
00000170: f459 81bc c856 9f3e 327e 853e 1ba4 033e
00000180: afc0 243e 507e 913e 0028 c1be d48e 15be
00000190: d622 89bd 78cc f43e 2140 b33e 28ed 9a3e
000001a0: fe3a 443e 0b7c 213e bcac f13c 4fb4 063e
000001b0: e838 38bd c8f8 283f 8c29 313e 6557 ea3e
000001c0: 5d79 053e 84ca bf3e 9556 1fbe 9199 88be
000001d0: eee4 dd3c 36bd b93e 12d3 0bbe 91a4 9b3e
000001e0: a0b2 193f 1cbe b63e 5120 c23e 312b 1bbf
000001f0: 6614 ba3d 6214 783e b044 3b3e b9bd 15be
00000200: ccfa ff3d 7da9 27be faea 8bbc 2999 b4bd
00000210: 4872 fa3e c4c5 963e 0deb 373e 46b2 003f
00000220: 9f3b d23e 730f 25be 89c0 d8be a963 f1bc
00000230: 438e 92be c194 313e 9fb2 e93e 3b0d c13e
00000240: 5a1e d63d 4fd9 833e f008 033e 1b8d 4dbe
00000250: 323c 4b3e f30e 3dbe 5a5d 993e 18f3 8cbf
00000260: 13a1 09bf abe5 b23e 3975 713e 0ef9 753e
00000270: fb09 0fbd 04f5 633d ed66 093d 0ca3 8ebc
00000280: 0f7c 2d3e 560c 8f3e b24b 1d3f a885 e439
00000290: b3cd 833e cbd4 c8be 6d18 663d 6940 56bd
000002a0: c14b 093f 084a 353e 1672 9d3c 17d4 6e3e
000002b0: 142e bf3e a339 b93d b2bd c63e 21e8 973e
000002c0: 0ec5 abbb 9d80 c73e 63d1 f13e b365 883e
000002d0: d461 873e a1b0 3e3e 5d96 013e 4107 d43b
000002e0: f973 273e 41d6 6abe a7c5 383d 5287 b73d
000002f0: 0fe3 773c 7eaa e2bd aeb8 793c e5d0 00bc
00000300: a9b2 723e aadf 38bf c31e 453e c445 fa3d
00000310: 54b3 d03e d6ac 353e bf94 ac3d 3b88 363d
00000320: d01f f1be c80a ba3e cdcc b4bd c2c3 e03e
00000330: 0d57 ddbe 8852 1f3f f179 783e cf32 a3bd
00000340: 2a46 08bf 3559 043e 598c ef3d e00d 3b3f
00000350: 809f ab3d 6c2a abbd 2aa7 81bd 0649 21bd
00000360: 0e6f d1bd 35f7 80bb 1c64 0cbf 1143 38be
00000370: a018 a33e 08fe d43d 92cc 983e 66c4 c83e
00000380: cd35 e53e c82f f1be 0458 d53c a273 ce3e
00000390: d260 873c f00a b43c 33d7 813e 3de2 803e
000003a0: acf2 8c3d b81c 283e e83d ab3e cbc0 bd3d
000003b0: d495 a03d 32a3 4f3e db41 413f 0996 473e
000003c0: 10ae 803d c826 5d3e 562a 683d 3bfe a3bd
000003d0: 7934 943e 27b2 a83d 28d8 623e c165 973e
000003e0: 8cfc 1f3e dd6b 02bf 700d fa3c 1400 ef3d
000003f0: 64f2 003d ff60 803e 256f 803e 5578 513e

network_body._body_endoder.seq_layers.4.bias f4 [256]
0.16916312 -0.5191009 -0.2533228 -0.3887288 -0.32520384 -0.24668391 -0.37435904 -0.28560385
-1.0117829 -0.34735486 -0.38095567 -0.53080595 -0.16026607 -0.54737526 -0.33021078 -0.43709973
-0.2559334 -0.28246048 -0.11162525 -0.5777457 -0.42560142 -0.21353826 -0.19261962 -0.46266165
-0.3376221 0.12897746 -0.20843405 -0.009750016 -0.28580368 -0.32256925 -0.38087568 -0.3892714
-0.18136525 -0.0946904 -0.022222016 -0.37080058 -0.12529016 -0.5708954 0.15197091 -0.79521483
-0.03519853 -0.377117 -0.14204413 -0.6147901 -0.5036764 -0.1280214 -0.43404356 -0.1093872
-0.63181084 -0.254269 -1.0082494 -0.20657273 -0.68770224 -0.2724982 -0.14914586 -0.34089813
-0.27371728 -0.8095808 -0.5392174 -0.4454878 0.09959105 -0.3084148 -0.41598466 -0.24212578
-0.24914305 -0.7065712 -0.6913914 -0.26775882 -0.037609838 -0.6425288 -0.52300316 -0.8801544
-0.16682364 -0.95967853 -0.8158688 -0.24996077 -0.1960763 -0.47987068 -0.26551855 -0.26122382
-0.22260143 -0.23053995 -0.4831802 -0.39757276 -0.15880537 -0.37964973 -0.44888404 -0.20703346
-0.5076277 -0.7653915 -0.040464785 -0.3775632 0.068238795 -0.39481437 -0.693354 -0.099315405
-0.54471123 -0.44612765 -0.13186923 0.0139150135 -0.7682116 -0.6429322 -0.24310507 -0.39814743
-0.4851372 -0.07503918 -0.5307085 -0.036499187 -0.5169329 -0.54804796 -0.1116407 -0.6703335
-0.7531953 -0.18507296 -0.62380826 -0.3479453 -0.51495343 -0.38453326 -0.18347593 -0.4576185
-0.051348202 -0.30154443 -0.12193483 -0.30791348 -0.7402397 -0.36875558 -0.73657715 -0.95825857
-0.64650965 -0.33192405 -0.07119446 -0.59375864 -0.57989085 -0.29387677 -0.35486865 -0.27325848
-0.55121183 -0.54561234 -0.05296736 -0.19496883 -0.5337274 -0.19407831 -0.30757046 -0.33043087
-0.17467725 -0.1476964 -0.56099695 -0.13921024 -0.21705097 0.06574984 -0.52979714 -0.080806315
-0.5363567 -0.6785698 -0.15881737 -0.034251746 -0.24322939 -0.54566664 -0.011534695 -0.14171302
-0.11767804 -0.5134134 -0.65177625 -0.5680425 -0.18380044 -0.36494553 -0.45826423 0.21398658
-0.32280952 -0.3102196 -0.18605645 -0.18566322 -0.25267723 -0.25327784 -0.14814277 -0.3173187
-0.50919175 -0.55498016 -1.1874156 -0.31368336 0.039077625 -0.3660215 -0.63555133 -0.10799892
-0.5212991 0.018017713 -0.21321724 -0.2647347 -0.02779483 -0.4871853 -0.21878117 -0.45366657
-0.30984464 -0.5518576 -0.2944832 -0.47190595 -0.17891803 -0.3627639 -0.46895072 -0.54649246
-0.30583748 -0.6457387 -0.28916496 -0.42176002 -0.2838689 -0.68031365 -0.17729218 -0.3040275
-0.6196987 -0.08214152 -0.7752854 -0.05923994 -0.5882431 -0.19975212 -0.43998834 -0.3657448
-0.34324163 -0.29232374 -0.3311433 -0.33825114 0.0014552948 -0.48443243 -0.7200558 -0.62612087
0.06304288 -0.20871733 -0.2084555 -0.25956988 -0.41005522 -0.1607126 -0.27258843 -0.4772358
-0.9538873 -0.59471107 -0.082474425 -0.30467135 -0.88797307 -0.055678938 -0.20371546 -0.39244393
-0.1893759 -0.5311636 -0.14686371 -0.047528166 -0.5860973 -0.37784278 -0.16487844 -0.41069993
-0.40838787 -0.16232768 -0.33505702 -0.2399779 -0.58846486 -0.66213065 0.01845398 -0.29412678
00000000: 1939 2d3e cce3 04bf 87b3 81be 7607 c7be
00000010: 1e81 a6be b59a 7cbe fdab bfbe ab3a 92be
00000020: 1a82 81bf 7fd8 b1be 9f0c c3be e6e2 07bf
00000030: ca1c 24be c920 0cbf 6311 a9be 89cb dfbe
00000040: b409 83be a99e 90be c79b e4bd 24e7 13bf
00000050: 6ee8 d9be c6a9 5abe 143e 45be fde1 ecbe
00000060: cedc acbe ab12 043e bc6f 55be 88be 1fbc
00000070: dc54 92be cc27 a5be 2302 c3be 954e c7be
00000080: d0b7 39be 0aed c1bd f20a b6bc 93d9 bdbe
00000090: 104c 00be 3326 12bf 439e 1b3e 3393 4bbf
000000a0: 552c 10bd 7b15 c1be 0474 11be e262 1dbf
000000b0: f0f0 00bf 0b18 03be f53a debe 6506 e0bd
000000c0: 5bbe 21bf 8c2f 82be 510e 81bf cd87 53be
000000d0: 410d 30bf e284 8bbe b1b9 18be 338a aebe
000000e0: ac24 8cbe b040 4fbf 270a 0abf fa16 e4be
000000f0: 64f6 cb3d 8be8 9dbe f1fb d4be d2ef 77be
00000100: 5b1f 7fbe dae1 34bf 07ff 30bf af17 89be
00000110: c60c 1abd c47c 24bf 89e3 05bf cc51 61bf
00000120: d1d3 2abe 7ead 75bf c7dc 50bf b7f5 7fbe
00000130: 3ac8 48be 9cb1 f5be 0cf2 87be 21bf 85be
00000140: a1f1 63be aa12 6cbe 6563 f7be a88e cbbe
00000150: e09d 22be 7361 c2be 21d4 e5be 9400 54be
00000160: e4f3 01bf b3f0 43bf 67be 25bd f74f c1be
00000170: c8c0 8b3d 1c25 cabe a67f 31bf e065 cbbd
00000180: 3272 0bbf d86a e4be ba08 07be ccfb 633c
00000190: 84a9 44bf 3497 24bf 89f0 78be fbd9 cbbe
000001a0: e763 f8be 24ae 99bd 83dc 07bf 2c80 15bd
000001b0: b755 04bf df4c 0cbf e1a3 e4bd fa9a 2bbf
000001c0: 68d1 40bf c483 3dbe e6b1 1fbf e325 b2be
000001d0: fdd3 03bf 8be1 c4be 1de1 3bbe f94c eabe
000001e0: 7e52 52bd 0864 9abe f8b8 f9bd d6a6 9dbe
000001f0: 5980 3dbf 88cd bcbe 5290 3cbf 6f50 75bf
00000200: a881 25bf f3f1 a9be 67ce 91bd 9100 18bf
00000210: ba73 14bf 0477 96be 58b1 b5be 89e8 8bbe
00000220: 381c 0dbf 40ad 0bbf 4df4 58bd e9a5 47be
00000230: 5ca2 08bf 77bc 46be e079 9dbe 3c2e a9be
00000240: 98de 32be ba3d 17be 7f9d 0fbf 218d 0ebe
00000250: 9c42 5ebe daa7 863d c9a0 07bf c87d a5bd
00000260: ac4e 09bf c0b6 2dbf 05a1 22be 8f4b 0cbd
00000270: 2011 79be cfb0 0bbf 04fc 3cbc 381d 11be
00000280: 2f01 f1bd 106f 03bf cfda 26bf 3c6b 11bf
00000290: 2f36 3cbe 24da babe 9ca1 eabe 4c1f 5b3e
000002a0: 4a47 a5be 1ad5 9ebe 9585 3ebe 801e 3ebe
000002b0: e95e 81be a2ad 81be bdb2 17be 9977 a2be
000002c0: 645a 02bf 2e13 0ebf 3cfd 97bf 1b9b a0be
000002d0: dc0f 203d 2c67 bbbe 7eb3 22bf 8a2e ddbd
000002e0: dc73 05bf e299 933c 9f55 5abe 4e8b 87be
000002f0: fcb1 e3bc 5a70 f9be 2c08 60be fc46 e8be
00000300: f5a3 9ebe 8a46 0dbf 81c6 96be a89d f1be
00000310: 4a36 37be 31bc b9be 4f1a f0be eee6 0bbf
00000320: bb96 9cbe 224f 25bf 6e0d 94be eef0 d7be
00000330: 4457 91be 0929 2ebf 158c 35be 7ea9 9bbe
00000340: 93a4 1ebf d039 a8bd 1b79 46bf 94a5 72bd
00000350: 1a97 16bf d28b 4cbe 2746 e1be e742 bbbe
00000360: 5ebd afbe 75ab 95be 9d8b a9be 412f adbe
00000370: 97bf be3a 8707 f8be 9455 38bf 7549 20bf
00000380: a01c 813d ffb9 55be 5c75 55be 58e6 84be
00000390: c2f2 d1be d891 24be b690 8bbe 4058 f4be
000003a0: f531 74bf fc3e 18bf 5ae8 a8bd e2fd 9bbe
000003b0: 3452 63bf 990f 64bd c99a 50be 69ee c8be
000003c0: c2eb 41be 56fa 07bf 7163 16be e5ac 42bd
000003d0: 790a 16bf 9c74 c1be e5d5 28be 4347 d2be
000003e0: 3718 d1be 3a39 26be 988c abbe c4bc 75be
000003f0: a2a5 16bf 6581 29bf cd2c 973c c997 96be

network_body._body_endoder.seq_layers.4.weight f4 [256, 256]
-0.44912925 0.35973617 -0.7021401 -0.67101586 -0.6187798 -0.41822526 -0.09013952 -0.46291044
-0.5149118 -1.0787239 -0.3052249 0.022145454 0.5430917 0.60797226 -0.39374042 -0.21111438
-0.004794645 -0.3410953 -0.11335798 -0.4718741 -0.41874617 -0.53757495 0.46647462 0.124765426
-0.27963552 0.18020879 -0.05439828 0.10227473 -0.741381 0.51837844 -0.18033236 0.26374394
0.328605 -0.2142745 0.040533677 -0.34250084 -0.9412086 -0.6561537 -0.18634203 -0.8020651
-0.046646036 -0.3761475 -0.70322126 0.039674755 -0.38534424 -0.12643623 -0.21254474 -0.25020552
-0.5715464 -0.58736813 -0.7913471 0.14177026 -0.08481919 0.41056398 -0.7188421 0.19857101
-0.04742168 0.58950216 0.3253417 -0.2857337 0.32641283 0.14648843 0.2851584 0.21731347
0.25978777 -0.3804534 -0.102614306 0.09065672 0.37265533 -0.3836781 0.058884338 -0.37311247
-0.3105746 -0.25891888 -0.41626018 -0.38079754 -0.3640137 -0.86292 0.14585625 -0.49749702
-1.1319119 -0.39121953 0.02079758 -1.1947672 -0.016773896 0.38079703 0.35524604 0.16853002
0.037957862 -0.39728633 -0.24935813 -0.27458358 0.030991405 -0.076790765 -0.21440306 0.5738718
0.37945962 -0.7230371 -0.58039695 -0.38163087 0.51096344 -0.43150985 -0.3167792 0.49370247
-0.13407841 -0.3383564 -0.40396082 -0.7428616 -0.39234498 0.3536994 -0.5049657 0.15005024
0.16490272 -0.6942677 -0.02667975 0.32133543 -0.87858266 0.57897586 -0.3055275 -0.079419084
-0.07249605 -0.66475993 0.65558714 -0.35739097 0.06669458 -0.6990802 -0.8708916 -0.47751334
-0.087533586 -0.10626656 -0.22708677 -0.5865317 -0.69962335 0.20859593 -0.09030797 -0.33413404
0.59082776 -0.029508058 -0.23977427 -0.4411688 -0.3303448 0.16855952 0.095157586 -0.37823054
-0.43670973 -0.5012227 -0.78541005 -0.21054126 0.16717763 -0.23071925 -0.7012476 0.0620211
-0.37966564 -0.4580856 -0.04891212 -0.8292983 0.39824158 -0.19246197 0.104533166 -0.14842889
-0.05268795 -0.21630402 0.2061022 -0.5723098 -0.3006136 -0.34989902 0.2555295 0.07733242
-0.23138271 -0.7701649 -0.122661896 -0.65702176 -0.0924362 0.42182308 -0.6798346 -0.5640946
0.4978616 0.3094794 -0.8624481 -0.60524 -0.28161559 -0.54130745 -0.005215186 -0.35603908
-0.59489936 0.022683129 -0.50820315 -0.0324252 -0.22828543 -0.49897784 -0.12342061 0.09725218
0.10320775 0.28496313 -0.6291731 0.08681036 -0.81722796 -0.37588108 -0.12179682 -0.45308882
-0.20030418 0.021726454 0.15050332 -0.084813416 -0.083164684 -0.5503717 0.13796695 -0.61465156
-0.24426335 -0.40047267 0.012701412 0.37135747 0.118437715 -0.19263063 -0.35366306 -0.38851985
-0.5297567 -0.44892576 0.16616447 -0.25101084 -0.6910807 -0.23351622 -0.5810926 -0.53066003
-0.48555833 0.23775424 -0.23835522 -0.6156536 -0.21739462 -0.22088009 0.028403342 -0.6390269
0.013365456 0.17686018 -0.46173882 -0.2429799 -0.16104832 -0.25378072 -0.11590699 -0.36865947
0.096525356 -0.33624628 -0.24080227 -0.23154989 -0.6573356 -0.45500764 0.98328495 -0.078567885
-0.37465522 -0.6325118 0.51061904 -0.42349684 -0.5426552 0.32439667 -0.12703735 -0.14609773
00000000: 45f4 e5be 572f b83e 74bf 33bf b2c7 2bbf
00000010: 5a68 1ebf 9f21 d6be 129b b8bd 9902 edbe
00000020: 42d1 03bf a013 8abf 7046 9cbe 626a b53c
00000030: 0f08 0b3f 12a4 1b3f 5898 c9be 5e2e 58be
00000040: 661c 9dbb 0ba4 aebe 3b28 e8bd 7b99 f1be
00000050: e665 d6be 839e 09bf c3d5 ee3e 0485 ff3d
00000060: 632c 8fbe a788 383e bbd0 5ebd 6a75 d13d
00000070: 25cb 3dbf 73b4 043f 0ca9 38be 7209 873e
00000080: ea3e a83e c66a 5bbe a406 263d 455c afbe
00000090: 0cf3 70bf b0f9 27bf 72d0 3ebe 2354 4dbf
000000a0: ea0f 3fbd 6896 c0be 4f06 34bf ff81 223d
000000b0: d74b c5be 8078 01be 54a5 59be f01a 80be
000000c0: dd50 12bf c25d 16bf b995 4abf 392c 113e
000000d0: afb5 adbd 7135 d23e 0906 38bf 3356 4b3e
000000e0: 3c3d 42bd 9de9 163f 3093 a63e b04b 92be
000000f0: 951f a73e 1001 163e 4800 923e 6c87 5e3e
00000100: e702 853e caca c2be 7327 d2bd 3baa b93d
00000110: aecc be3e 7571 c4be b430 713d 9908 bfbe
00000120: a203 9fbe 0491 84be 0e20 d5be e5f7 c2be
00000130: 0160 babe 53e8 5cbf 575b 153e eeb7 febe
00000140: 7de2 90bf ed4d c8be b05f aa3c 22ee 98bf
00000150: 6969 89bc d4f7 c23e cfe2 b53e 2293 2c3e
00000160: b479 1b3d 1d69 cbbe bd57 7fbe 3896 8cbe
00000170: b0e1 fd3c 7a44 9dbd 7a8c 5bbe 43e9 123f
00000180: 8848 c23e f618 39bf e594 14bf 1f65 c3be
00000190: 80ce 023f dcee dcbe e230 a2be 92c6 fc3e
000001a0: da4b 09be 0d3d adbe f4d3 cebe 2e2c 3ebf
000001b0: 71e1 c8be 1618 b53e 6f45 01bf c5a6 193e
000001c0: 42dc 283e 87bb 31bf 7e8f dabc 1486 a43e
000001d0: cbea 60bf c337 143f 1a6e 9cbe 79a6 a2bd
000001e0: cf78 94bd b52d 2abf 8fd4 273f f3fb b6be
000001f0: 2b97 883d ecf6 32bf c0f2 5ebf a17c f4be
00000200: cf44 b3bd 48a2 d9bd 6f89 68be f126 16bf
00000210: 841a 33bf 2c9a 553e 63f3 b8bd 9e13 abbe
00000220: 7d40 173f e2ba f1bc 6387 75be e1e0 e1be
00000230: f422 a9be de9a 2c3e fbe1 c23d 6fa7 c1be
00000240: 6b98 dfbe 2250 00bf a210 49bf 2198 57be
00000250: 9d30 2b3e ab41 6cbe f684 33bf d609 7e3d
00000260: 8963 c2be 328a eabe 1358 48bd e54c 54bf
00000270: 52e6 cb3e c014 45be 7c15 d63d befd 17be
00000280: 52cf 57bd cd7e 5dbe 750c 533e e582 12bf
00000290: 07ea 99be f725 b3be c3d4 823e 7660 9e3d
000002a0: 97ef 6cbe 8729 45bf 2936 fbbd 9432 28bf
000002b0: 314f bdbd 32f9 d73e a409 2ebf 8168 10bf
000002c0: b7e7 fe3e 1574 9e3e 66c9 5cbf 02f1 1abf
000002d0: eb2f 90be 2093 0abf 27e4 aabb c14a b6be
000002e0: 534b 18bf f8d1 b93c 9a19 02bf 49d0 04bd
000002f0: a8c3 69be 067a ffbe f2c3 fcbd 272c c73d
00000300: 965e d33d b0e6 913e 7d11 21bf a1c9 b13d
00000310: da35 51bf 7c73 c0be 9c70 f9bd 42fb e7be
00000320: 8a1c 4dbe adfb b13c 8b1d 1a3e a8b2 adbd
00000330: 3f52 aabd 29e5 0cbf 3547 0d3e ce59 1dbf
00000340: 2c20 7abe c10a cdbe 9519 503c 9122 be3e
00000350: 798f f23d f740 45be 5313 b5be 13ec c6be
00000360: 239e 07bf 99d9 e5be 0527 2a3e 7e84 80be
00000370: aaea 30bf e01e 6fbe 7cc2 14bf 56d9 07bf
00000380: 1a9b f8be d975 733e 6413 74be 799b 1dbf
00000390: b29c 5ebe 642e 62be 20ae e83c 4497 23bf
000003a0: c9fa 5a3c d61a 353e 0869 ecbe b9cf 78be
000003b0: dae9 24be 8cef 81be a560 edbd efc0 bcbe
000003c0: 16af c53d 7928 acbe df94 76be 6a1b 6dbe
000003d0: 2547 28bf c3f6 e8be 90b8 7b3f 33e8 a0bd
000003e0: cfd2 bfbe 4bec 21bf eeb7 023f 94d4 d8be
000003f0: 74eb 0abf 5217 a63e 1416 02be a59a 15be
