results/OvalTrack-Apr-21-9-40am/OvalTrack-Apr-21-9-40am.onnx (onnx, 638066 bytes, 11 tensors)

action_model._discrete_distribution.branches.0.bias f4 [3]
00000000: d52f 023d 8229 89bb 395c 5ebd
0.031783897 -0.0041858563 -0.05428717

action_model._discrete_distribution.branches.0.weight f4 [3, 256]
00000000: 3862 55bb 052a 93bd b9bf 48bd 8827 35bd
00000010: b11e a7bc 922b 883c 51b6 a4bd d545 8dbd
00000020: 5e39 44be c04c 75bd 3e1e a7bd 9a65 b4bd
00000030: 42f4 08b9 14ee 6dbd a4fb 923d cbe9 d4bb
00000040: c8ae 5abc 0732 f5bd 7051 ca3c 678a 95bd
00000050: 4222 9fbd f6af 98bd e439 dbbc 2378 2cbd
00000060: bac9 863c 736a b4bd 6c2e 80bd 1910 c4bd
00000070: 9352 9a3c d6a8 f63d 4b54 29be d759 dbbd
00000080: 11d0 91bd d9e4 b83c f467 acbd 321c 223b
00000090: 25de f6bd 0923 19be c9f3 14bc b920 12be
000000a0: e77d 0d3e 535f 31bd d694 f43c 1212 85bd
000000b0: 306d fc3c 7668 f7bd 44a8 bb3d 0e49 7cbb
000000c0: f30f dabd 7aeb e1ba 9105 23be 1225 50bd
000000d0: 8c69 94bd a3f7 9b3c 4214 133e 46c5 133c
000000e0: a56d fdbc 2dc4 33bd f1f4 73be 5cde 03bd
000000f0: ec65 5cbd 3147 11bc 4a2c cf3d 220b acbc
00000100: 166b 50bc 8f8c cf3c 3b5f e0bd e826 a0bc
00000110: 09d0 fabd 141a d73c d5ec 58bd 68dd 87bd
00000120: a6a8 b33c 9fe9 1a3d 42bf 00be e5b6 ae3d
00000130: 5a1a 22bd decc 32be bb86 1f3d 0d5c ee3c
00000140: 0863 a5bc 1e31 adbd abd4 6e3d 2363 1d3c
00000150: e9a2 54bd 520a 30bd 951c 3ebd f65c 61bd
00000160: 48ff d53c aaed f5bc a6e7 9d3d fb0a 14bd
00000170: 02ac 273d 9462 08be 9fb4 10bd 4d13 bdbd
00000180: 7db0 fe3c fb3f 0dbe 25a9 453c f85d 2bbe
00000190: cef8 52be cd6e 98bc 48f3 e0bd 6ff4 dbbd
000001a0: 4ff0 a5bc cc4d 173b 4530 703c 78ce 0cbc
000001b0: 81ef a7bd 8f04 d83c f480 b13c bcbf e4bb
000001c0: f695 65bd 2fd1 0bbe 5124 57bd eae6 293b
000001d0: cf1a d0bc 0186 ff3d 3077 e83c 06a2 63bc
000001e0: 325c 87bd bd70 7a3b 36a1 11be 6726 773c
000001f0: 4680 cdbb 665f 1bbd fb90 553e 7474 7abd
00000200: 73a0 f3bc b7ff 5ebc 71de 063e b1f8 5d3c
00000210: 80a4 10bd 92ee 25bd b8ea cabd 0d75 5bbe
00000220: 55f0 87bc c5d8 5fbe 8b36 42bd 1e94 f3bd
00000230: cfa3 f13d b3f3 19be 334d 15be c5a3 bd3b
00000240: 0ab5 883d 9d32 103d 0d4c e5bd f93c 0abd
00000250: 9243 c03c 84f3 00be d53f 003c b62d 05bd
00000260: aff2 8fbd ab79 6bbe da38 7fbc 1098 57bd
00000270: 9eff 903d 52d2 f5bd 7f6f 793d efad 123d
00000280: df88 45be f8c4 f93c 7ac0 53bc d087 b5bd
00000290: a11a 2cbe 1a61 1cbc 6028 5ebd 89b2 37bd
000002a0: 6ae6 88bb 4548 3d3c 433b 94bc 0e8c 103e
000002b0: d8c7 c43c 8f60 463d 2a36 8b3d ccd3 983b
000002c0: 3e4f 92bd daa8 32be da80 6bbd 72e2 90bd
000002d0: 345b 873c 1b20 ac3c dacb 753c a132 ed3d
000002e0: 5c15 b3bd 35b5 743d dc38 be3c a4cc e1bd
000002f0: 1edf f4bd 430b 24bd 45a0 a8bd 7290 d93d
00000300: dc07 6abe 1900 c6bd 5ec7 d63b b7b4 933c
00000310: 67af f8bd 6373 233d e01c aabd c801 523d
00000320: 5f09 5bbe 7bdc 8ebc e889 2fbd 0c0f 653e
00000330: dce5 d6bc 047c ac3c e0f7 633d d8bb e63c
00000340: b9d4 54be 49fc b3bc 0920 babb 0101 293d
00000350: bba8 80bb c8b5 cbbc a899 b03d 287a 323d
00000360: 1f83 c1bd 063a a1bc b033 5c3d c99b a63c
00000370: 15f0 3fbd 09da cfbd c113 52bd 0830 9abd
00000380: 9a98 043b 8921 f43d 2469 c7bb 3d1b 47bd
00000390: 8263 07be 36f7 0fbe 00f3 24be 9c69 bebd
000003a0: bc36 55bd f6e3 cebc 1f03 8fbd 60c3 52bc
000003b0: f7b7 623d 7c10 d3bc 61b1 0ebe 5b48 b43b
000003c0: 4e46 98bd 7c9c 76ba cf77 4f3d b753 223d
000003d0: d685 a5bd f738 97bd 4d3c 00be 2361 a23d
000003e0: 9fec b9bb a62f 5b3d 88d8 fabc 72e1 69bd
000003f0: 8306 52be 851d 0bbe 1532 313c cdf5 6fbd
-0.0032559764 -0.07185749 -0.049010966 -0.044227153 -0.020400377 0.016622338 -0.080425866 -0.06898085
-0.19162509 -0.059887648 -0.08160065 -0.088084415 -0.00013060964 -0.058088377 0.07176903 -0.006497597
-0.013347335 -0.119724326 0.024697036 -0.07301789 -0.07770206 -0.07455437 -0.026761003 -0.04210676
0.016453613 -0.08809366 -0.06258854 -0.09573383 0.018838203 0.12043922 -0.16536061 -0.10710495
-0.07119764 0.02257006 -0.08418265 0.0024736044 -0.120540895 -0.14954771 -0.009091326 -0.14270295
0.13817559 -0.0433038 0.029856127 -0.06497587 0.030813783 -0.12080471 0.091629535 -0.0038495692
-0.10647573 -0.0017236315 -0.15920092 -0.050816603 -0.07246694 0.01903898 0.14363196 0.009019202
-0.030936072 -0.04388826 -0.23823906 -0.03219448 -0.053808138 -0.008867071 0.10115869 -0.021001402
-0.012720844 0.025335578 -0.10955664 -0.019549802 -0.12246711 0.026257552 -0.052960236 -0.06634027
0.021931004 0.037820455 -0.12572959 0.08530978 -0.039575912 -0.17460963 0.03894685 0.029096628
-0.020188823 -0.08456634 0.058308285 0.009606156 -0.051913176 -0.042978592 -0.046413977 -0.055020295
0.026122704 -0.030020554 0.07710199 -0.036143284 0.040935524 -0.13318855 -0.035328504 -0.09232197
0.031090016 -0.13793938 0.012064253 -0.16735065 -0.20602724 -0.018607521 -0.10983902 -0.107399814
-0.02025619 0.0023087142 0.014659946 -0.008594148 -0.081999786 0.026369361 0.021667935 -0.0069808643
-0.056051217 -0.13654016 -0.05252487 0.002592499 -0.025403408 0.12476731 0.028377146 -0.01389361
-0.06609382 0.003821417 -0.14221653 0.015084839 -0.006271395 -0.037932776 0.20856087 -0.061146215
-0.029739594 -0.013610772 0.13170792 0.013548062 -0.03531313 -0.04051072 -0.0990805 -0.2143137
-0.016594091 -0.21860035 -0.047415297 -0.118934855 0.11798822 -0.1503437 -0.1458023 0.005787345
0.066751555 0.03520452 -0.11196146 -0.033749554 0.02346972 -0.12592894 0.007827719 -0.032514296
-0.0702871 -0.22995631 -0.015577519 -0.052635252 0.07080005 -0.12003006 0.060897347 0.035810407
-0.19290493 0.03048943 -0.012924308 -0.08863795 -0.16807033 -0.009544635 -0.054237723 -0.044848
-0.004177858 0.011552875 -0.018094664 0.14115927 0.024021074 0.04843193 0.0679744 0.00466392
-0.071440205 -0.17447224 -0.05749593 -0.07074441 0.016522981 0.021011403 0.015002215 0.11581922
-0.08744308 0.059743125 0.023220472 -0.1102536 -0.11956619 -0.040049803 -0.08233694 0.10623254
-0.2285456 -0.096679874 0.006554528 0.018030507 -0.1214283 0.039904963 -0.08306289 0.05127123
-0.21390294 -0.017439118 -0.042856127 0.22369021 -0.026232652 0.021055229 0.055656314 0.028165743
-0.20784272 -0.021970885 -0.0056800884 0.041260723 -0.0039263642 -0.024866953 0.086230576 0.04357353
-0.094488375 -0.019680988 0.05376023 0.020337956 -0.04685982 -0.10149009 -0.05128837 -0.075286925
0.002023256 0.11920459 -0.006085532 -0.04860996 -0.13221553 -0.14059147 -0.16108322 -0.09297487
-0.052054152 -0.025255185 -0.06983017 -0.012863964 0.055351224 -0.025764696 -0.13934852 0.0055017895
-0.074352846 -0.0009407473 0.050651368 0.039630618 -0.08082168 -0.07383912 -0.12523003 0.079286836
-0.0056739594 0.053512238 -0.030620828 -0.057099767 -0.20510297 -0.1358548 0.010815163 -0.058584023

action_model._discrete_distribution.branches.1.bias f4 [3]
00000000: 2fcc f4bd a63a 98bc 1d99 fc3d
-0.119530074 -0.018582653 0.123338915

action_model._discrete_distribution.branches.1.weight f4 [3, 256]
00000000: 6fe1 fd3b ad04 c33c a4c3 c43d c8c6 913b
00000010: 4e26 333d 69ad b23c 49c1 70bd 5e42 343d
00000020: f733 69bd a419 89bd 25d9 ef3c f04f f5bd
00000030: 416a 1f3d 0f48 62be 082b 323d 5792 ac3d
00000040: 0b02 463d 1c0c 1fbe 41da 343d c768 6c3b
00000050: 35c7 91bd aad8 4bbd 3bcf ae3d cf09 823d
00000060: b24d b0bc a733 eabb d448 a1bd 17e6 b6bd
00000070: 7013 203c f26e 653c a848 be3d ab50 c13d
00000080: b549 4bba 311c 74bb 961b afbc f527 81bb
00000090: 6cf7 aa3d 1768 883d 2d25 02ba 10d0 babd
000000a0: a758 9ebc 18c0 61bd 0a3d 7c3d 6316 473e
000000b0: ed6c 213d 64d9 1f3c 5d2f ac3d 8178 343d
000000c0: 66c8 c5bd dcf3 ed3c fe62 db3c 4d2f 1b3d
000000d0: 7578 97bd f9fa 89bd 691f 033d 75b2 753d
000000e0: 43c0 c33b 9aa5 0a3e 3475 3bbd 5602 8b3d
000000f0: 5a74 eebd d558 0a3d 6a8f 7dbd 1fdd 703d
00000100: 649b 1abe 7526 163c 31eb 0c39 6d16 f5bc
00000110: 7081 d8bd 0080 65bd 3e0c 4c3c e117 873d
00000120: ce87 903c 7e32 23bd 1bb4 37bc 2b7d 67bd
00000130: b1a9 873c d306 d2bd 4cbc 383d ef5c 673c
00000140: c082 34bd bae0 873d ef5f a73d f53a 00bd
00000150: d406 8d3d 0a55 013c 09e6 03bd 0b5e a9bd
00000160: c553 54bd e01c 8f3d 9ce1 623d b298 833d
00000170: e6bb dd3b 112e 4c3d e0f0 073d 84b4 51bd
00000180: a168 6b3d 27de f3bd f972 793c dd10 e3bd
00000190: af84 55bb e597 9bbd a713 2fbd 577b 2bbc
000001a0: 8526 29bd 26b0 13bc f073 0fbe ceff b23c
000001b0: eb1b 133d 857e c93b 68f1 b73d 1c65 eb3c
000001c0: b0ed 9b3d 41eb 03be 7064 833d 866b 963d
000001d0: d911 49b7 2719 403d 6967 aeba 8f86 21bd
000001e0: ce5e e73b 75d9 de3d 6886 61bd 1b4a d6bd
000001f0: d1e6 63bd 66ac 723d d78f b03c 985c 143b
00000200: 3b09 e53c f226 b33d 18db 863d 2b92 7d3d
00000210: e31a 40bd 8134 a33d 5d79 c4bd 7ca0 bfbd
00000220: 2c62 c9bc 9c6a 4ebd 37f2 c3bc befa 073e
00000230: 3b0d 24bd 0f0b 85bc 1aa9 653d 96d6 11be
00000240: 0381 273d 4a24 92bb 68f1 96bd 7a8a 343c
00000250: 72d2 433d 0c09 853d 7df3 da3c 2752 d53b
00000260: c8f3 97bc 1083 9cba 195b bebd 13fd 1fbe
00000270: 143e f13c 33f2 e33d 0828 d2bc c97e e7bd
00000280: 6a19 a8bc d814 56bd 9a21 2abe a05f 623e
00000290: 7385 c43d 30ab d3bc 749c 03bd 6013 ae3d
000002a0: 4023 923d 2476 353b 2563 80bd 49d9 c23d
000002b0: 4db3 923d b244 653e 4f8e 13be 59d4 213d
000002c0: d77e 7a3d a36a 70bd 1d8e 583d 6859 b83c
000002d0: 19dc 833c 6467 063d a44b 2b3e 9006 bdbc
000002e0: 3290 0c3c b8d4 3dbc 570a 54bd 8caf 163d
000002f0: 6685 ebbc b629 513d 9638 bbbd 4781 b2bc
00000300: 2341 20be 5071 31be e909 cfbc c082 b33c
00000310: c5c1 b53c d615 73bd 9745 e63d 653a 533e
00000320: 40fe 15bd 5c5b 1dbd 7f1c febb bbd3 553d
00000330: cf95 d43b 4fc7 09bc 0c22 8d3d 7127 09bc
00000340: 6f2a 0ebe 88f2 02bd f592 603d 999f 0e3d
00000350: 4b68 14bd be9a 0b3c 5ba6 b03d 9b0e 093d
00000360: 7dfa b4bc 5f0a f53c 2494 243d 8084 013d
00000370: 74a8 123d e83b edbd 4ced eb3d 7662 263e
00000380: 5d86 1b3d 8c1e af3d 6d5c 9a3d 5c5a 4abd
00000390: 27d4 a4bd 5b11 bfbd cf46 0bbd e0e4 2a3d
000003a0: 63a8 153e 486b a7bd 0b2b 4e3d 3047 52b9
000003b0: d85b 2ebc 92a1 2b3d 8826 a3bd 55e1 c33d
000003c0: cd7f dabd e5b0 aa3d f308 b7bc 8291 253d
000003d0: 20f2 7f3d a001 fb3d baca 0cbb f955 9f3d
000003e0: 8532 483d 0cd1 07bd 3c5d d43d adf7 d3bb
000003f0: a105 b4bd 2666 7f3c 8dbd 8d3d 463a 01bd
0.007747821 0.02380594 0.09607628 0.0044487454 0.043737702 0.021811204 -0.05877808 0.044008605
-0.056934323 -0.06694344 0.029278347 -0.119781375 0.03891969 -0.220978 0.04349807 0.084263496
0.048341792 -0.15531963 0.044153456 0.0036073194 -0.07118074 -0.049767174 0.0853562 0.06349527
-0.021521423 -0.0071472707 -0.07875219 -0.08930605 0.009770259 0.014003502 0.09291202 0.09439214
-0.00077548187 -0.0037248249 -0.021375459 -0.003941531 0.08347973 0.066604786 -0.0004964646 -0.09121716
-0.019329382 -0.055114836 0.06158165 0.19442134 0.03941052 0.00975642 0.08407471 0.044060234
-0.096573636 0.029046945 0.026780602 0.037886906 -0.07396022 -0.06737322 0.032012377 0.059984643
0.005973847 0.13539734 -0.04576607 0.06787555 -0.11643286 0.033776123 -0.06190435 0.058804628
-0.1509834 0.009164442 0.00013439056 -0.02991792 -0.10571563 -0.056030273 0.012454091 0.065963514
0.017642882 -0.039843075 -0.011212374 -0.056515854 0.016560407 -0.10255208 0.04510145 0.014121278
-0.044070005 0.0663466 0.08172595 -0.031306226 0.06886068 0.00789381 -0.0322018 -0.082698904
-0.0518377 0.06987929 0.05539094 0.06425609 0.006766784 0.04984862 0.0331887 -0.051197544
0.05747283 -0.119076066 0.0152251655 -0.11087201 -0.0032580306 -0.07597331 -0.04274335 -0.010466418
-0.0412965 -0.009014165 -0.1400907 0.021850493 0.035915297 0.0061491155 0.089815915 0.028734736
0.07613695 -0.12882711 0.06415641 0.07344727 -1.1984689e-05 0.046898987 -0.0013305965 -0.039434966
0.007060862 0.108813204 -0.05505982 -0.10463353 -0.055640046 0.059246443 0.021552963 0.0022638198
0.027958503 0.087476626 0.065847576 0.061906975 -0.04690064 0.07968999 -0.09593461 -0.09356782
-0.024582945 -0.05039464 -0.023919208 0.13279244 -0.04005168 -0.016240625 0.05606947 -0.14242014
0.04089452 -0.0044598924 -0.07370263 0.0110193435 0.04780812 0.06495866 0.026727432 0.0065100375
-0.018548861 -0.0011940915 -0.09294719 -0.15623884 0.029448546 0.1113018 -0.025653854 -0.11303479
-0.02051993 -0.052265972 -0.1661438 0.2210679 0.09595766 -0.025838464 -0.032131627 0.08499789
0.0713563 0.0027688826 -0.0626891 0.095141 0.07163105 0.22389486 -0.14409755 0.03950915
0.06115612 -0.058695447 0.052869905 0.02250357 0.016096162 0.032813445 0.16728073 -0.023074418
0.008579301 -0.011586361 -0.051767673 0.03678851 -0.028750133 0.05106517 -0.09141652 -0.02179016
-0.15649848 -0.17328382 -0.02527328 0.021912932 0.022187123 -0.059346996 0.11243742 0.20627744
-0.036619425 -0.038417205 -0.007754862 0.052203875 0.006487585 -0.008409335 0.068912596 -0.00837122
-0.13883375 -0.031969577 0.05482765 0.034820173 -0.036232274 0.00852078 0.0862548 0.033461194
-0.022092098 0.029912172 0.04018034 0.031620502 0.03580518 -0.11583692 0.1151987 0.16248497
0.037969936 0.08550748 0.0753716 -0.04940258 -0.08048277 -0.09329482 -0.034003075 0.04172218
0.14615016 -0.08174759 0.050334018 -0.0002005368 -0.010642014 0.041902132 -0.07966334 0.09564463
-0.10668907 0.08334521 -0.022343135 0.04042197 0.062486768 0.12256169 -0.002148314 0.0778007
0.048876304 -0.033158347 0.103693455 -0.0064687342 -0.08790136 0.015588319 0.069209196 -0.031549715

discrete_action_output_shape f4 [1, 2]
00000000: 0000 4040 0000 4040
3.0 3.0

network_body._body_endoder.seq_layers.0.bias f4 [256]
00000000: 7fc9 be3c 0c1e 833d 746c b93d 4232 d4bd
00000010: 3290 c3bd 54e4 e2bd 91f3 283d dbb5 75bd
00000020: 71a0 e2bd 22a6 8ebd 56b0 24be db5c 48be
00000030: 32c9 77bc f7bc 573d af23 b1bd 7034 c2be
00000040: 26eb 89bd fa3b 643e 9f48 96bd 4b6e bfbd
00000050: 236e 113a 8eee 95bd e474 d4bd e61a f2bc
00000060: 3251 cabd 4c03 7bbd 2984 8abd c438 0fbe
00000070: a6eb 423d 5a32 10bd f4f8 523e 8621 f03c
00000080: e507 5dbd a342 253d 677d eebc ae6b 823c
00000090: 193f c0bc ba9c a3bd 0a08 babd 26d6 4cbc
000000a0: 4d29 2abd 8eaa a1bd f629 ab3c 3a79 b4bd
000000b0: 7092 07bc 81f9 1bbe 119b 51bd 2439 eebd
000000c0: 4ae7 61bd 0f5e bbbd ea32 02be 1c96 24bd
000000d0: 83b1 4f3d 4ed4 16bd b74b eabd be8b 67bd
000000e0: f3ef b93b 4627 0abd a40a ebbd ad19 3ebd
000000f0: 1107 c1bd e769 68bd a81f b8bc 1f7c babd
00000100: a037 a03d d394 3b3d 63d6 f93b 92a0 59be
00000110: a6be d1bd 81bd 5ebe ec68 e3bd a987 053c
00000120: f5e8 91bc a6c8 b5bc e340 b7bd 54a8 6d3b
00000130: 8df0 43bd 0c1f 0cbe 4648 0ebe b476 8abd
00000140: 0212 653d eacb 49ba 8694 083d 3fdc 42be
00000150: 05f3 a3bd 174a d2bd 2140 5bbd 48d4 12bd
00000160: 3df5 a4bd a8c8 c03d 2f96 a2bd e9b7 143e
00000170: 9aeb ec3c b051 73bd c584 8ebd b6ae 11be
00000180: 0fe2 0bbe 20db efbd c95f a03d b6ed 45be
00000190: a1d4 f8bd a81a 1cbd 4ee1 db3b 19f1 85bd
000001a0: e948 acbd 2a7d 55bd e197 7bbd 04dc c53c
000001b0: faab bf3c 0773 23bd a08a b9bd 756a 45be
000001c0: 2abf 853e 59ba ab3c 1586 b8bc ad6d adbd
000001d0: db2b e8bb 0a13 8bbe cd94 2cbd 1f10 edbc
000001e0: 9702 bbbd f040 9abc 85cf 1bbd 9786 a1bd
000001f0: e6d6 97bd ef50 efbd 524f 53bc d58a 563d
00000200: a357 e0bd ef3b 56bd dabe 9bbd 1c17 29bd
00000210: 3ae4 04bd 94f2 70bd 9f9e 04be e097 943c
00000220: ff15 a1bd 17db b8bd 46aa 17be 0654 d1bd
00000230: d7ad 1dbe de05 86be fdea cbbd 02ce d6bd
00000240: 0bf5 babd 67a6 adbd 3d92 dbbd 1109 36be
00000250: bb51 333c f386 fbbd a7cc bd3c d245 a9bd
00000260: f647 d8bd 2cde ac3d a452 10be b713 81bd
00000270: 18a5 233c 480d b7bc 4c83 0abc 3b3b 41bd
00000280: 585d 34bd 8265 fdbc ac2b d33d 1040 c3bc
00000290: 8072 d4bd 43b0 d7bd 9197 97bc 65fd b8bb
000002a0: c719 2b3d c63c 01bd 6f42 4bbd 5436 89bd
000002b0: 9a21 adbd 0104 76bd dd10 d5bd 71f5 07be
000002c0: 84d2 abbd 397c ffbd d5f0 91bd fe76 d2bd
000002d0: a7dc 033d ad2f 93bd 74b9 c4bd 70a4 47bd
000002e0: 79dd 86bd 9e9d a43d 362d 9fbc 081c 5bbe
000002f0: 2788 053d 982b e0bd e649 d7bc c1d4 8dbb
00000300: ef33 14bd 2681 223e 6538 f3bd 5dd6 263d
00000310: 139f 77bd 2e8c 81be cd29 883b 625b 2cbd
00000320: 2742 64bb facd 9dbc 95b7 f23d 9faa 36be
00000330: 4789 24bd 1cbc 653d b5ee f0bd 9640 8cbd
00000340: dfb4 57bc f940 ca3c 3b69 2cbd bc5f a7bd
00000350: 1ed4 61bd 5073 603c 5592 16be 9719 51be
00000360: a677 143d bb9d 24be dc68 04bd f024 63bd
00000370: 85bb fdbd 421f d4bc b1c2 f63d 4cd9 213d
00000380: adbc 4abd d3c2 c4bd 602a a43d 7359 28bd
00000390: d5b2 d5bb 91d4 d4bc 29a5 89bd 8e1a aabd
000003a0: 3657 8fbd 63b8 d6bd 5bbd 0abe 19da c3bb
000003b0: 0981 f3bc da23 2e3d ff6a d1bd 7e43 8f3b
000003c0: ecd9 923c 4080 0abe 7457 4ebd b529 91bd
000003d0: ed31 c8bd a90c 85bd 8f46 a63b 3f1f c43d
000003e0: 3153 6dbe 2425 e9bd 15a0 e1bd 4060 773d
000003f0: cabc 123d 38b6 91bc 4c61 813a bfef 2cbd
0.02328944 0.06402215 0.09053889 -0.103611484 -0.095489874 -0.110787064 0.041247908 -0.059987884
-0.11065758 -0.06965281 -0.16082892 -0.19566672 -0.015123652 0.052670445 -0.08649384 -0.37930632
-0.06734304 0.22288504 -0.0733807 -0.093472086 0.00055477227 -0.07320891 -0.103738576 -0.029553842
-0.09878768 -0.06128244 -0.06763489 -0.13986498 0.047588013 -0.03520427 0.2060278 0.02931286
-0.053962607 0.040346753 -0.02911253 0.015920486 -0.023467587 -0.079888776 -0.090835646 -0.012502229
-0.041543294 -0.07893859 0.020894032 -0.08812185 -0.0082746595 -0.15231897 -0.051173273 -0.116319925
-0.055152215 -0.091488 -0.12714735 -0.040182218 0.050706398 -0.036823563 -0.11440223 -0.056529753
0.005674356 -0.03372886 -0.11476639 -0.046411205 -0.09425176 -0.05674162 -0.022476032 -0.091057055
0.078231096 0.045796227 0.007624434 -0.21252659 -0.102414414 -0.21751978 -0.11103997 0.00815002
-0.017811278 -0.022190403 -0.08947923 0.0036263661 -0.04783683 -0.13683718 -0.13894758 -0.06760922
0.055925377 -0.0007697927 0.033344768 -0.1902933 -0.08005337 -0.10268038 -0.053527955 -0.03584698
-0.08054588 0.09413272 -0.079388015 0.14523281 0.028920937 -0.059404075 -0.069589175 -0.14226803
-0.13660453 -0.11711717 0.078307696 -0.19328961 -0.12149931 -0.03811136 0.006710208 -0.06540126
-0.08412344 -0.05212132 -0.06142414 0.024152763 0.023397435 -0.03990462 -0.09059644 -0.19278891
0.2612241 0.02096288 -0.022524873 -0.084681846 -0.007085306 -0.27162963 -0.042134095 -0.028938351
-0.09131353 -0.018829793 -0.038039703 -0.07886999 -0.074140355 -0.11685359 -0.012897329 0.052378494
-0.109542154 -0.05230325 -0.076047614 -0.041281804 -0.032444216 -0.05882509 -0.12951134 0.018138826
-0.078655235 -0.09026163 -0.14811048 -0.10221104 -0.15398346 -0.2617635 -0.0995693 -0.104885116
-0.091287695 -0.08479004 -0.10721252 -0.17776896 0.010944779 -0.12281599 0.023168875 -0.0826527
-0.105606005 0.084408134 -0.14094025 -0.063025884 0.009988092 -0.0223452 -0.008454155 -0.047175627
-0.044034332 -0.030932192 0.10311064 -0.023834258 -0.10373402 -0.10531666 -0.01850489 -0.0056454414
0.04177263 -0.0315521 -0.049623903 -0.066998154 -0.084536746 -0.060062412 -0.10403607 -0.13277222
-0.08389762 -0.124748655 -0.07126013 -0.10276602 0.032192852 -0.07186828 -0.09605685 -0.048740804
-0.06585211 0.080378756 -0.019430738 -0.21397412 0.032600548 -0.10945815 -0.026280355 -0.0043283408
-0.03618234 0.15869579 -0.11875991 0.040731777 -0.06045444 -0.2530226 0.0041553737 -0.042079337
-0.003482947 -0.019263256 0.11851422 -0.17838524 -0.04016998 0.0560876 -0.1176428 -0.06848256
-0.013165682 0.024689185 -0.042092543 -0.08172557 -0.05513393 0.013699368 -0.14704259 -0.20419918
0.03624692 -0.16075794 -0.032326564 -0.05545515 -0.12389282 -0.025893811 0.12048853 0.03951387
-0.04949634 -0.09607472 0.08015895 -0.04110093 -0.0065215626 -0.025980266 -0.06720955 -0.08305846
-0.06999056 -0.10484388 -0.13548796 -0.005976927 -0.029724615 0.04251466 -0.10225486 0.0043720594
0.017926179 -0.13525486 -0.05037637 -0.07088033 -0.097751476 -0.06496555 0.005074329 0.09576272
-0.23176266 -0.11384037 -0.11016861 0.060394526 0.035824575 -0.017787084 0.0009870916 -0.042220827

network_body._body_endoder.seq_layers.0.weight f4 [256, 99]
00000000: e39d b9bf 7096 7a3d 2879 313f c7cf ef3d
00000010: fd85 753f 8d00 64bf 37f4 a03d 1f0e 233f
00000020: 274e 21be 66fe b83f 105a 16bf 9a30 a23e
00000030: 268f de3e 774b ed3e 7ff3 303f 0cae 9fbe
00000040: de39 5ebd de71 a53e 75a9 f0bd 5d2b 613f
00000050: 618a 343d fc38 913e c102 ddbd d1c4 1f3e
00000060: 339b 123f a1b7 27bd 8a5a 0abe 04bd b43e
00000070: 13d4 7d3d 7e9f f33e 58fb 1a3f 3f23 4cbe
00000080: e08e c4bd 6710 70bc 7e3b 113f d061 34be
00000090: 681a 1abe f3a0 6c3e 27fe 173e 8ff8 b03e
000000a0: 070d 9e3e b1c7 9dbe 685e afbe f566 36be
000000b0: 5c47 e23e 94f1 1ebe 32f9 9a3e 156b 3e3f
000000c0: 1f51 93be d9e8 8f3e 9766 ef3e 10d7 0fbf
000000d0: 6b29 8fbe 7832 43bc c23d 503f ad00 03bd
000000e0: 3912 55bd fa19 123f 547b edbd 57dc 0b3e
000000f0: 82f7 363e da3d c23d 3bdf 32bf 3d09 653b
00000100: 4d9f 4a3f 7de6 40bb 84ff 87be 7838 113f
00000110: 3c02 c73d 2e9f 353e 4aef 453e 8a62 843e
00000120: 623e 14bf e0c7 67be b33e 793e a84e 843e
00000130: 3541 c9be 30a6 113e 5095 763d d84b ce3e
00000140: 32a2 2e3e ad38 973e 7b2c f4be b9ba 01bd
00000150: ad80 3d3d a7e0 383e 06f6 36be d40a bf3e
00000160: 1746 8cbd f145 983e ddd2 cd3c 5a23 b7bd
00000170: cef6 febd 2539 59bd 5632 333e b57a fabd
00000180: b147 593d 78d9 0dbe 96d4 3f3e ad56 8a3e
00000190: 2cc1 c2be 8652 263e 3ece a23e 5b07 b43d
000001a0: 60e5 8a3e 2fb8 1bbf eb99 eabc 4c81 80be
000001b0: 182b 8ebe 3d92 72be 4781 cfbe 82d8 cf3e
000001c0: a809 4c3e 8a29 503e de76 c13d 7221 8bbe
000001d0: db58 20bb b116 00bd a734 b3bc 5199 30bf
000001e0: ac0b cebe 4e76 273f 5c1a efbd bbf6 6e3e
000001f0: 6182 923d 2790 d13d 02af 55be 5e02 053e
00000200: 0a53 39be e9e3 ebbe 4dc9 cfbd ffa8 a33e
00000210: a392 a5bd 42e5 ec3d f302 133e 41f4 90be
00000220: adc4 a2bc feeb 06be 88dd 0bbe f217 55bc
00000230: e4d2 b13c 2f1d d1bb 0038 493d e686 e9bd
00000240: 8e7b 063e 7dd7 e3bd aa26 1f3d 74f2 a8bd
00000250: 6485 a6bc 4b71 70ba ead3 c6bc 6d93 1d3d
00000260: 9c81 1a3d 350f da3c 286d 573d 951e f9bc
00000270: c8b8 c43d 7d3b 763e 567b cebc 7c21 85be
00000280: e28a 24be 8306 8b3e 57a5 8cbd 424d a1bd
00000290: 8c48 453e 8421 6bbe 00f1 eabd 84bf 91bc
000002a0: e23e 033e 1a25 e23e 7e2c 7ebe 01c2 cb3c
000002b0: 739b 943d b27f 06be 4d1d c83d 8415 e3be
000002c0: f0e4 99bd 7bba 833c 1443 73bd 59ee 96bc
000002d0: 42e3 6e3e d943 2f3e dfc8 263d 8c83 eb3d
000002e0: f1e4 713d 27df 20be 8e04 713d 23a1 9f3b
000002f0: 6adb e8bb 6a82 a53e 840f f1bd bec3 273e
00000300: c572 a53c f0ca f2bd 943d 5c3d 57c8 61be
00000310: d65a 4cbd a259 12bc 6c48 553e 32cb ef3c
00000320: a8bc e4bc a677 f33e cb4a 3d3e f81b dd3d
00000330: f966 f3bd 7fa5 5c3e 1a45 753e acea 003d
00000340: 6c65 03bd 665b 46be eee7 403c 424b 033f
00000350: d4b6 4c3e 81a5 443e 71e9 dcbe 37cc 3b3d
00000360: 82e7 bfbd de2b 7cbc f1db c4bd 4e20 27bd
00000370: 41a5 853e e7fd 833d b0ac fd3d 015d 353d
00000380: 7ac4 01be 65fd c73d 590e b0be 7286 103e
00000390: 6255 90bc 0a4c 14bd e182 20be 5c59 6e3d
000003a0: 1a62 613c 19b6 6cbc c8aa 193e b813 4d3e
000003b0: c075 bcbd 866d ab3d c2b1 293e f97a 1cbd
000003c0: 4019 cb3d 8e1e 86bd ef0c 523e 0c44 81bc
000003d0: cee2 413e 40f1 133e ef76 913d bf6d 953d
000003e0: d325 663e b740 41bc b02f 05be 668c 83bd
000003f0: 8888 053e 6ab6 0e3c a893 d63d b4be d5bc
-1.4501308 0.061178625 0.69325495 0.11709552 0.95907575 -0.8906334 0.0785908 0.6369342
-0.15752469 1.4452636 -0.58731174 0.31677705 0.4346859 0.46346638 0.69121546 -0.31187475
-0.054254405 0.32313436 -0.11751071 0.8795679 0.04407728 0.28363788 -0.10791541 0.15602423
0.57268065 -0.040946607 -0.135111 0.35300457 0.061969828 0.4758262 0.6053977 -0.1993532
-0.09597564 -0.014652348 0.567314 -0.17615438 -0.15049136 0.23108272 0.14843045 0.34564635
0.30869314 -0.30816415 -0.34251714 -0.17812712 0.44195068 -0.15521842 0.30268246 0.74382144
-0.28772828 0.28107336 0.46757957 -0.56187534 -0.27961287 -0.011913888 0.81344235 -0.031983066
-0.05201933 0.5707089 -0.115957886 0.13658272 0.17867854 0.094844535 -0.6987187 0.0034948133
0.79149324 -0.0029434257 -0.2656213 0.5672679 0.09717223 0.17736503 0.19329563 0.2585643
-0.5790769 -0.2263484 0.24340324 0.2584126 -0.39307562 0.14223552 0.06020099 0.4029224
0.1705406 0.29535428 -0.47690186 -0.031672213 0.046265293 0.18054448 -0.17867288 0.3731295
-0.06849306 0.2974086 0.025124962 -0.0894229 -0.12449418 -0.053033013 0.1749967 -0.12230436
0.053046886 -0.13852489 0.18733439 0.27019253 -0.38038003 0.16242418 0.31797975 0.087904654
0.27128124 -0.60827917 -0.028637847 -0.25098646 -0.27767253 -0.23688598 -0.40528318 0.4059487
0.19925559 0.20328346 0.094465 -0.27173954 -0.0024467024 -0.03127164 -0.021875693 -0.6898394
-0.4024328 0.65414894 -0.116749495 0.23336308 0.07153774 0.10232573 -0.20867541 0.12989184
-0.18098083 -0.4607232 -0.10145817 0.3196487 -0.08084609 0.11567165 0.14356594 -0.2831135
-0.019869173 -0.13175961 -0.13658726 -0.013006197 0.021707006 -0.006381653 0.04912567 -0.11402683
0.1313307 -0.111250855 0.038855232 -0.08249369 -0.020327277 -0.00091721554 -0.02427097 0.038470674
0.03772126 0.02661858 0.052594334 -0.03041009 0.09605557 0.2404613 -0.025205296 -0.2600211
-0.16068605 0.27153406 -0.068674736 -0.07876064 0.19265956 -0.22962004 -0.11471748 -0.017791517
0.12816957 0.4416893 -0.2482166 0.024872782 0.07256212 -0.1313465 0.09771214 -0.44352353
-0.075143695 0.016080132 -0.059390143 -0.0184242 0.2332888 0.17115726 0.04071891 0.114997
0.059056226 -0.15710126 0.058842234 0.004871504 -0.0071062343 0.3232606 -0.117705375 0.16383263
0.020196328 -0.118551135 0.053769663 -0.2204908 -0.049891315 -0.008932503 0.20828408 0.029271696
-0.02792199 0.47552222 0.18485563 0.1079635 -0.11884875 0.21547507 0.23952141 0.0314738
-0.032079145 -0.19370803 0.011774046 0.5128671 0.19991618 0.1920376 -0.43146852 0.04584905
-0.093703285 -0.015391318 -0.09612263 -0.040802293 0.2610264 0.064449124 0.12386453 0.04427815
-0.12672606 0.09765128 -0.34385946 0.14113787 -0.017618839 -0.03620533 -0.15674926 0.05819069
0.013756299 -0.014447712 0.15006554 0.20027053 -0.092021465 0.08370499 0.16571715 -0.038203213
0.099169254 -0.065487966 0.20512746 -0.015779518 0.18934175 0.14447498 0.07102763 0.07296323
0.22475366 -0.011795214 -0.13006473 -0.06423263 0.13040364 0.008710483 0.10477382 -0.02609191

network_body._body_endoder.seq_layers.2.bias f4 [256]
00000000: e5c9 8ebe 94e7 65be 1352 4bbe 74b4 7fbe
00000010: fbe4 abbe c242 28be 5dc8 833e 37a0 86be
00000020: ea19 79be cb31 9ebe a0b1 79be bcc0 9bbe
00000030: c43c 28bc 6003 6fbe 3b50 74be c619 adbe
00000040: f91f 94bd f04b 86be 4a19 45bd 9c6e 44bd
00000050: ba74 51bd 7c06 a53d afc8 68be a45e 8abe
00000060: 1c56 39be 4a39 25be 7127 cabd c68f 113d
00000070: e59b 2dbe 35fe 4fbe 07b1 8bbe 7087 313d
00000080: 4aef d1be 200c 4fbe 1165 e1bd 2106 a63b
00000090: 740d 3fbe 3d1a 2ebe 07c5 b1be 1970 98be
000000a0: 3e8b 55be c2f7 133d 6e8e 8ebd 71ce 66be
000000b0: a611 6bbe 86a6 62be 78f5 c8bd abb5 2abe
000000c0: 751c 5ebe b58c 8dbe 1a1e b73c 59b1 92be
000000d0: 4373 e8bd 8f30 61be 1752 2abe 142a 29be
000000e0: a1d8 3cbd 9324 8b3d 2947 59be 54a4 c8bd
000000f0: 3ced 103e 1f67 e4bd d041 d6bc a620 92be
00000100: 94f6 63be 2b7d 74bd 418d 24be 5ff8 11be
00000110: eba5 c1be 3a4b 8cbc 9900 80be 804d 95be
00000120: 5fc7 23be 69f7 a0bc d1b4 2abe c8c5 aabc
00000130: 225d 24bd 45ec 2ebe 0602 3cbe 445d 413c
00000140: 05a0 92bd 9fc8 84be ad32 b83d 11bf 7abe
00000150: 0809 2abe 643d 50be c2c7 26be e4ee 7bbe
00000160: 90cf abbe a660 9e3d f6b0 14be 53a6 91be
00000170: 23bc cbbd 91fd 38be 2b8b 9abd 3410 12be
00000180: 8635 29be d2b3 82be fb23 d4bd 7d39 ebbd
00000190: 6e32 a4be c174 9cbe 6d6a 45be 802f 82bd
000001a0: 5b83 98be 2225 a1be 72af 46be 0a6f d53c
000001b0: c247 383d fa82 e7bb 5398 3fbe 87e9 87be
000001c0: d83f abbe ea3d 0cbe 28aa d3bd 85a7 6e39
000001d0: 3942 ccbd 10fe 58be f21a 47be 1ce0 7cbe
000001e0: e202 993d 54c3 28be 6b51 afbe 8b66 e1bd
000001f0: 6609 acbe 9ba0 993e 905c a8bd e36b 35be
00000200: b5bd 41be d720 0cbe 283d 74be c8ed 40be
00000210: 9c6c 6fbe 2a5e b4bd 5d1f 903d c415 30be
00000220: 6054 26be d41a 22be 39c1 88be 27a1 c1bb
00000230: 048e 06be 022a abbe 7dd9 9ebe 6615 4abe
00000240: d72f 18bd b61f 36be 626f a9be fdbb 153e
00000250: a57b a0be 891c e4bc e476 f2bc 8081 263e
00000260: b220 cabd 8425 b9be 4e88 263d 0e00 a0be
00000270: 0fbe 55be c58a 3abe fb3b 5fbe 8bdb 68be
00000280: caf7 6ebe 69e2 07be 5ffb 21be 7736 e7bd
00000290: 9746 82be d2cb 86bd 592c 5bbd 1a41 21be
000002a0: 9f89 12be 3dc3 9fbe ee07 7ebe 132c d6bb
000002b0: 1e97 453b 7944 25bc beab 5dbc d2c1 aabd
000002c0: c48d 7fbe 582f d1be 3489 d23d 0b05 97be
000002d0: 0366 90be 756d 52be e9d3 dfbd 11d7 cc3d
000002e0: 1846 8cbe b7f6 75be a3b3 20be 04bf 3ebe
000002f0: 8d07 0bbe d1b0 e0bd 1bc2 34bc e09f 9ebe
00000300: 462c 84be a4f5 b4be 45e6 56be 2760 93be
00000310: 357f e7bd 82d9 52be 9943 c0bd d461 85be
00000320: 8cd8 64be ce72 29be f7b1 b9bd 0fcd a1be
00000330: d811 b83b a5c8 92bd fa13 3cbe 66ce 33be
00000340: 807f f9bd 9ff7 18be 1180 8ebe 75ed 7ebd
00000350: 08ac 8abe 5614 93be 05d0 87be 8dc9 0ebe
00000360: 8d47 10be c339 7bbe 4f21 d1be 158e a03a
00000370: a22b 4fbe 5fb5 a3be 4ebc 0dbe 77c9 e1bd
00000380: 4fcc ebbd aeff 9fbe 3429 05be 5d25 b3bc
00000390: 5504 65be c993 3cbe 0d24 50be fbca 3bbe
000003a0: c5fe 38be 115e 9bbe 6ad1 cfbd 104f 08be
000003b0: 5ad9 83be 70a5 86be 74ff 95be 20f1 1fbe
000003c0: de40 71be 9e91 8c3d cea4 4abe a5ba 8f3d
000003d0: 8532 82bd 4b7d 3ebe 0771 c5bd 210b 92be
000003e0: 159d 96be 3e48 a3bd eda7 d2bd f532 ac3c
000003f0: a028 3cbd b3c5 0cbd 9aa0 48be 94bf 06be
-0.27888408 -0.22451621 -0.19855528 -0.24971181 -0.33573136 -0.16431716 0.25738803 -0.2629411
-0.24326292 -0.30897364 -0.24384165 -0.30420482 -0.010268394 -0.23341131 -0.2385873 -0.33808726
-0.07232661 -0.2622981 -0.04811982 -0.047957048 -0.05113671 0.080578774 -0.22732805 -0.2702533
-0.18099254 -0.16135135 -0.09870804 0.035537504 -0.16954 -0.20311816 -0.272835 0.043342054
-0.41002876 -0.20219469 -0.11005605 0.0050666486 -0.18657476 -0.17002197 -0.34720632 -0.29773024
-0.20853898 0.036124952 -0.0696076 -0.22539689 -0.22955951 -0.22133836 -0.098124444 -0.16670863
-0.21690543 -0.27646413 0.02235322 -0.2865093 -0.113501094 -0.2199118 -0.16632877 -0.16519958
-0.04610503 0.06794085 -0.21218552 -0.09796968 0.14152998 -0.11152481 -0.026154429 -0.28540534
-0.22262031 -0.059689682 -0.16069509 -0.14254902 -0.37821898 -0.017125715 -0.25000456 -0.2916069
-0.15994023 -0.019649224 -0.16670538 -0.020846263 -0.04012788 -0.17082317 -0.18360147 0.011802021
-0.071594276 -0.25934312 0.08994041 -0.24486949 -0.16605008 -0.20335919 -0.16287139 -0.24602848
-0.33556795 0.07733278 -0.1452063 -0.28447208 -0.099479936 -0.18065478 -0.075460754 -0.14263994
-0.16524324 -0.25527817 -0.10358425 -0.114855744 -0.32069725 -0.30557826 -0.1927888 -0.06356716
-0.29787716 -0.31473643 -0.19402865 0.026053924 0.04499031 -0.007065174 -0.18710451 -0.26545355
-0.33447146 -0.13695493 -0.10335189 0.00022759855 -0.099735685 -0.21190667 -0.19443873 -0.24694866
0.07471253 -0.16480762 -0.34241804 -0.11005887 -0.3360092 0.30005345 -0.0822078 -0.17716937
-0.18920024 -0.13684402 -0.23851454 -0.18840706 -0.23381275 -0.08807023 0.07037232 -0.17195803
-0.16243124 -0.15830547 -0.26709917 -0.0059091034 -0.13140112 -0.33430487 -0.31025305 -0.19734725
-0.037155 -0.17785534 -0.3309279 0.14622493 -0.31344333 -0.027845638 -0.029597707 0.16260338
-0.098695174 -0.36161435 0.040657334 -0.31250042 -0.20873283 -0.18216999 -0.21800224 -0.22739999
-0.23336712 -0.13269962 -0.15818547 -0.11289685 -0.2544448 -0.065818444 -0.05350909 -0.1574749
-0.14310311 -0.31203642 -0.24807712 -0.006536016 0.0030149887 -0.010087126 -0.013529716 -0.083377495
-0.24956423 -0.40856433 0.10280076 -0.29496035 -0.2820283 -0.20549567 -0.109290905 0.10001958
-0.27397227 -0.24019895 -0.15693526 -0.18627554 -0.13577099 -0.10971225 -0.0110326065 -0.3098135
-0.25815028 -0.3534366 -0.20986278 -0.28784296 -0.1130356 -0.20590785 -0.09387893 -0.260512
-0.22348231 -0.16547701 -0.09067147 -0.3160176 0.0056173615 -0.07167176 -0.18366995 -0.17559204
-0.12182522 -0.1493821 -0.27832082 -0.062238175 -0.27084374 -0.28726453 -0.26525894 -0.13944073
-0.14089794 -0.24533753 -0.40845725 0.0012249375 -0.20231488 -0.31974313 -0.13841364 -0.110247545
-0.11513578 -0.31249756 -0.13003999 -0.021868402 -0.22364934 -0.1841575 -0.20326252 -0.1833915
-0.18065937 -0.30345204 -0.101473644 -0.1331141 -0.25751764 -0.26298094 -0.29296458 -0.15619326
-0.23559901 0.06863712 -0.1978943 0.070180215 -0.06357292 -0.18602483 -0.09640699 -0.28524116
-0.2941672 -0.079727635 -0.102859356 0.021020392 -0.04593718 -0.03436823 -0.19592515 -0.13159019

network_body._body_endoder.seq_layers.2.weight f4 [256, 256]
00000000: 8090 00bf 326c 7a3e 551f dabd e358 2d3d
00000010: 3ba6 a13d 8762 7ebd a035 3fbe 8710 943e
00000020: 0585 353d b3b4 653e 46a4 263e edf4 67bd
00000030: d274 643e 8824 7d3e 9b7e 3d3d dd08 08be
00000040: 6467 633d f962 7e3e c737 73bd 947d 443e
00000050: 92c7 993e 47ea 033e 256b 9b3d a2a1 f43d
00000060: 4a0c 673e 6449 583e a6aa e53c 50de e23d
00000070: 8cb6 913e f0bc da3e ad3e 39bd 2c2e 8c3e
00000080: 827d f03e 7c00 963d efab 703c 3e1d 783e
00000090: bcf4 8d3e c52f cb3e c2d2 a33e ec25 923e
000000a0: a331 8d3e c0b9 cf3d 1c96 c13e 4539 713e
000000b0: e7d0 af3e 59f5 f8bc c1ac 7e3e ae16 6b3e
000000c0: 7f95 c93d 12f7 933d 0f84 603e 5d45 7c3d
000000d0: e967 8e3e f41b 2a3e 6689 883e 5e54 8d3e
000000e0: 1fce 0e3e 7a3a 8a3c f3d4 d13c b554 ae3d
000000f0: 18eb 353c f788 413e 856e 743e 77f5 f23d
00000100: ca5c c33e 64f1 a13e ff36 d23d 23e8 24be
00000110: 2b79 3f3e c16d a43d e1dd 073e 8511 253e
00000120: 6d91 2f3e 9be2 6dbc a663 5b3b 5dba b63e
00000130: 6dfc 9a3e f13a 433e 3275 123e 97c0 cd3e
00000140: 9c36 883e 0c6f adbd bcaf 0fbf ea27 87bd
00000150: 5374 9f3e badd 653d 1c35 d33d 38ab a2bc
00000160: c4cf 123e 6c64 9bbe 4996 aa3e 8d90 40be
00000170: 5d3e 9c3e f916 853c 97d4 94bd b03b 4d3e
00000180: f04e 803e be40 283e 0b01 32bd 4bd2 fa3c
00000190: bb58 763e 653f a23e 6fbb 40be a7f0 373e
000001a0: 0724 e3bc 3893 34bd 76b0 b23e 7dbe 9f3d
000001b0: 9b58 8b3e cbf4 6d3e a141 d73d 6f7e ad3d
000001c0: e36f ccbe 42c8 abbe f0cc b23e 8832 90bc
000001d0: 83ed 0a3e 0e23 8bbe 0931 a03d 079b cebe
000001e0: 8035 4f3e 66b1 9d3e 8f86 cd3d cddb d5bd
000001f0: ecb5 f53c b793 c23d 6c48 93bd 1ed0 093d
00000200: 1579 843e c508 923e 88f6 813e 01f4 203e
00000210: 7f28 55be 81f1 563e 03c8 bd3d 70d5 0b3e
00000220: 8ab3 953e 2425 7e3e c9cc 283e 806b cbbd
00000230: a1d2 ab3d 23e0 3ebd e797 7a3e 3ef1 a23d
00000240: 131a 813d 4393 473e b07d d53c 5644 d6bc
00000250: 7153 b9bc a3b2 423d 0941 9f3e c465 563e
00000260: 4bf1 273e b2db b2be 2056 503e 615e 703e
00000270: 7b31 8dbd 8323 d63e b24f 713e 2d22 643e
00000280: cfba 0a3e 0494 073e 91f8 60be 600b c83d
00000290: 84e4 b13e 2cfc 2c3e 268e 6b3e 6f22 103e
000002a0: ce1b a9bd 9421 103e 4d2e 8a3e 75b1 033e
000002b0: c3db 763e 6ffa 853e 97c5 8e3e 6ff5 a33e
000002c0: b840 553e c627 693e 5966 533e 1718 0b3e
000002d0: d8ac 7a3e 3d04 9f3e 55e1 b13e 9012 5e3e
000002e0: 1fc0 5c3e c702 b0bd 1f67 17be cf48 93be
000002f0: f543 663e 67a4 d43d d941 4f3e 8a2a 28be
00000300: 8f40 c53e ee20 c3be 132c 513e 4134 7d3e
00000310: 6576 883e b71f 9e3c 4d25 bd3e c2cb 863e
00000320: c45a 9c3e f069 803e a0a3 e83d 8f3e 0a3e
00000330: c00a 243e 632e 473d f112 ca3c 1e31 a83e
00000340: 0abc fcbe 31bd 043d 5c71 cb3e ba66 713e
00000350: 801c 1e3e ed81 683e 9039 0b3d a2da 033e
00000360: 481c 3c3e b7fd e23d f34c 0dbe 74d5 433e
00000370: 38be 263e ce1c 4e3e 4886 953e 0611 ffbd
00000380: 02ae cabd 704d 93be 2862 3a3e 4753 bc3e
00000390: cbde 673e bcb6 55be 00c1 8dbd 8747 1d3e
000003a0: 67b0 053d 8a7f 343d aa7d 943e 1dd4 993e
000003b0: e54f 0c3e c9f9 2e3e fcd0 833e d6ef a63e
000003c0: 504e b43c aa44 153d 7245 223e bd72 173e
000003d0: 4333 853e c8e1 c93d 6617 423e c7ce 213e
000003e0: 017d 59bd 3b12 323d d7cc 813e 51b5 3e3c
000003f0: 9728 5c3e 81e0 353e dcf3 e43c bb62 a33e
-0.5022049 0.24455336 -0.10650507 0.042321097 0.07893034 -0.06210568 -0.186728 0.2891886
0.04431631 0.22432213 0.16273603 -0.056630064 0.22310188 0.24720967 0.04626332 -0.13284631
0.055518523 0.24842443 -0.059379365 0.19188529 0.30035073 0.12882338 0.075887956 0.119448915
0.22563282 0.21121746 0.028035473 0.11077559 0.28459585 0.42722273 -0.045225788 0.27378976
0.46970755 0.07324311 0.01468943 0.24229905 0.2772578 0.39684883 0.31996733 0.28544557
0.27576932 0.10142851 0.37809837 0.23557003 0.34339067 -0.030390428 0.24870588 0.2295787
0.09842967 0.07224859 0.21925376 0.061589587 0.27813652 0.16612226 0.26667327 0.2760343
0.13945816 0.016873587 0.025614237 0.0851225 0.011103414 0.18899904 0.23870285 0.11863225
0.3815673 0.3162948 0.10264396 -0.16104178 0.18698566 0.080287464 0.13268234 0.16119964
0.1714532 -0.014519359 0.0033476143 0.3568906 0.3027071 0.19065453 0.14302519 0.40185997
0.26604164 -0.08468446 -0.56127524 -0.0659941 0.31143436 0.056119658 0.10312864 -0.019857034
0.14337069 -0.30350053 0.33317783 -0.18805142 0.3051633 0.016246306 -0.07267111 0.200423
0.25060225 0.16430947 -0.043458026 0.030617854 0.24057285 0.3168899 -0.188215 0.17962895
-0.02772714 -0.04408571 0.34900254 0.07800005 0.27216038 0.23237912 0.105105646 0.08471381
-0.39929113 -0.33551222 0.3492198 -0.01760222 0.13567166 -0.27175182 0.07821853 -0.4035265
0.20235252 0.30799407 0.10035431 -0.10442314 0.029993974 0.095008306 -0.07191548 0.03364574
0.25873628 0.28522316 0.253834 0.1571808 -0.2081623 0.20990564 0.09266665 0.13655639
0.2923854 0.24818856 0.1648437 -0.099326134 0.08389784 -0.046600472 0.24472009 0.079561695
0.063038014 0.1948977 0.026060909 -0.026155632 -0.022622796 0.047533643 0.31104305 0.20937258
0.1640064 -0.3493324 0.20345354 0.23473503 -0.06894203 0.41823968 0.23565558 0.22278662
0.13547824 0.13240057 -0.2196982 0.097677946 0.34744656 0.16893071 0.23003444 0.14075635
-0.082572564 0.14075309 0.2698845 0.12860663 0.2410727 0.26167628 0.27885124 0.32023188
0.2082547 0.22769079 0.20644511 0.13583408 0.24479997 0.3105792 0.34742227 0.21686769
0.21557663 -0.0859428 -0.14785431 -0.28766486 0.22486861 0.1038292 0.20239963 -0.16422477
0.38525817 -0.3811106 0.20426969 0.24726965 0.26652828 0.019302232 0.3694252 0.2632733
0.30538 0.25080824 0.11359334 0.13500427 0.16019726 0.048628222 0.024667235 0.32849973
-0.49362212 0.03240699 0.39734924 0.23574343 0.1544056 0.22705813 0.033990443 0.1287637
0.18370163 0.110835485 -0.13798885 0.19124395 0.162835 0.20128176 0.2920401 -0.12454419
-0.098964706 -0.28770018 0.18201506 0.36782286 0.22643583 -0.20870489 -0.069215775 0.15359317
0.032638934 0.044066943 0.29002124 0.30044642 0.13702352 0.17087473 0.2574538 0.32604855
0.022009999 0.036442436 0.15846804 0.14789863 0.26015672 0.098575175 0.18954238 0.15801536
-0.05309773 0.043474417 0.25351593 0.011639909 0.21499859 0.17761423 0.027948312 0.31911263

network_body._body_endoder.seq_layers.4.bias f4 [256]
00000000: 3e68 7dbe 5a79 a3bd e9eb 61be 72dd a0be
00000010: d8eb d2be aebe ec3d 9b24 03be 38c6 99be
00000020: caa3 c6be fa7d cebe 6b0c 94be c4e6 a5be
00000030: 7524 3bbe bdd7 40be 436a c3bd b34f 85be
00000040: 8111 86be eee3 59be ca45 b7be b458 02bf
00000050: f482 97be 0bde 37be c679 f1be 3499 4abe
00000060: 03a4 5ebe 9420 1fbe d238 a1be 36ab 50be
00000070: dd80 a1be 3911 1bbe 6251 80be 6e46 79be
00000080: c179 bfbe de61 bcbe cf82 aebe 4040 8ebe
00000090: db48 9abd 53d3 b8be 7fe8 a7be 0ae3 63be
000000a0: eeeb b3be 8489 90be 88c5 a1be 83e3 87be
000000b0: 0955 96be f9c2 81be 126e 99bd cb43 9ebe
000000c0: 441c 11be b995 0bbf 1af4 88be d8bd febc
000000d0: 4c92 c7be baca 7dbe fd5b b9bc f5e1 cebe
000000e0: 9c80 60be c4c1 8cbe 5632 98be b169 a3be
000000f0: 42c5 76be 5a09 86be 2b20 31be 2fc3 bdbe
00000100: a73b 3dbe 8fa6 84be e233 92be 1973 a4be
00000110: 2f44 74be 02ed cfbe 8370 99be 7491 35be
00000120: 4bd4 82be 5102 61be c3f1 96be 5740 2bbe
00000130: 6ff9 b0be 7809 41be 59f8 13be ffa1 9bbe
00000140: ceeb 03bf 668c b7be 335e 8dbe 1f5d 48be
00000150: 68e0 35be fbd5 88be 0c92 ebbe 02de 0bbe
00000160: 3288 66be 987a a6be 2c8e 3abe 4bf8 1bbe
00000170: 4d4e 9dbe f560 f5be da1c 2fbe b85d 86be
00000180: 7c17 5fbe be8d b0be 2186 76be d2c9 e7bd
00000190: f56f 3abe 34c0 59be f2cf 1cbc 1606 3abe
000001a0: e415 d1be 57cd 4d3d 4ee4 38be 0968 41be
000001b0: 3b95 b2be 23eb c6be aad2 1abe c76e 9fbe
000001c0: 99f9 2cbe 3e47 58be bebc e5bd fa0f 0cbf
000001d0: 74ed 75be 0fb7 eabc 10ad 7dbe ed99 8ebe
000001e0: 8c43 c0be adab ffbd 6cff 59be 0251 7dbd
000001f0: 1245 a5be b3c2 9dbe b981 2dbe d469 5cbe
00000200: e41b 9fbe f592 b1be d619 38be 0fc4 86be
00000210: 44a6 383c f167 a2be 2b2f 85be 9616 9abe
00000220: e7f4 a2be d11d e0be 7fe6 47be 1fd2 06be
00000230: 2416 40be 137c d6bd ed17 4bbe 1ea7 39be
00000240: f980 70be b873 e1be cfe6 50be d35f a2be
00000250: ca1e afbe c066 a1be d1c6 49be ba65 65be
00000260: e197 88be 112e 61be d733 78be ab9f 23be
00000270: b2ff 49be d5f5 88bd c900 a9be f981 3ebe
00000280: fbb7 38be 901b 02be f81f f0bd bfc4 38be
00000290: 30dd 84be b0e6 63be a0f6 c6be c398 08be
000002a0: e6e3 b7be cb53 bbbe 2341 82be 5b02 b8bd
000002b0: 44ea b5be f109 59be 62f3 98bd f234 98be
000002c0: cc4e f4bd 012d 87be 0e07 66be 8af3 b2be
000002d0: 62b7 87be 4fcc 80be 01a7 83be 5049 07be
000002e0: 4e0b 1fbf 989d 8ebe 2ea5 7ebe 65c9 03be
000002f0: b0d3 4fbe a238 06be fb15 87be 5d16 bebd
00000300: 6497 27be 2aa5 a7bd 6b44 76be 6820 3cbe
00000310: b486 bebe 0ee5 99be 862a 0ebf aa0c 24be
00000320: 91fa 57be 4880 6fbe 447b 7dbe 2484 47be
00000330: b0d4 1abe 1eee 6abe 5ae6 dabe f93a e0be
00000340: bc9b afbe 4519 8abd 33e2 c3be 76ba 47be
00000350: fac6 a1be 186a 8bbe 7cc4 36be 4b7e 29be
00000360: 7ab3 babe f191 33be 01ee 1abe f8ef 84be
00000370: ebe4 a5be 36b1 f2bd 4a38 49be 44bd 30bd
00000380: 6581 b3be 788c 58bd 99a3 32be 2b80 e0be
00000390: df56 88be 435f b0be 3480 59be dfe5 3dbe
000003a0: 67ef a8bd e152 35be 47fc 6dbe 4766 63be
000003b0: 82eb 3bbe 0927 8bbe 5c0e 8ebe 942b 9fbe
000003c0: d4aa b6bd f43f 8bbe 3d91 9ebe 6db4 40be
000003d0: 4de1 c3be 366d 15be ae38 aabe a5dd 3fbe
000003e0: d57a f0ba 7f80 91bc 15b3 18be 5a0b ddbe
000003f0: c4f4 dabe 3bf8 36be 6771 9cbe 3ce3 24be
-0.24746796 -0.0798213 -0.22062649 -0.3141895 -0.4119556 0.11559807 -0.12806933 -0.3003404
-0.38796836 -0.40330487 -0.28915724 -0.32402623 -0.18275626 -0.18832298 -0.09541752 -0.26037368
-0.2618523 -0.21278355 -0.35795432 -0.509166 -0.29592097 -0.17955796 -0.47163218 -0.19785005
-0.21742253 -0.15539771 -0.31488663 -0.20377812 -0.31543627 -0.15143289 -0.2506209 -0.24343273
-0.37397578 -0.36793417 -0.34084174 -0.27783394 -0.07533427 -0.36098728 -0.32794568 -0.22254577
-0.35140938 -0.28229916 -0.31596017 -0.26540765 -0.29361752 -0.25344065 -0.07491697 -0.30911097
-0.14170939 -0.54525334 -0.26748735 -0.031096384 -0.38978803 -0.24784365 -0.022626871 -0.40406767
-0.2192406 -0.2749158 -0.29725903 -0.31916574 -0.24098685 -0.2617901 -0.17297427 -0.37062976
-0.18479787 -0.25908324 -0.28555208 -0.32119063 -0.23854135 -0.4061051 -0.29968652 -0.17731267
-0.25552592 -0.2197354 -0.29481325 -0.16723762 -0.34565303 -0.18851268 -0.14450206 -0.3039703
-0.51531684 -0.35849303 -0.2761093 -0.19566773 -0.17761385 -0.26725754 -0.46009862 -0.13658908
-0.22512892 -0.32515407 -0.18218297 -0.15231435 -0.307238 -0.47925535 -0.1710085 -0.26243377
-0.21786302 -0.3448314 -0.24074604 -0.11317791 -0.1820677 -0.21264726 -0.009571062 -0.18166384
-0.40837014 0.050244655 -0.18055841 -0.18887343 -0.3487948 -0.3885127 -0.15119424 -0.31139204
-0.16892089 -0.21120927 -0.1121764 -0.5471188 -0.24016362 -0.028651742 -0.2477305 -0.2785181
-0.37551534 -0.124839164 -0.21288842 -0.061844833 -0.3227926 -0.30812606 -0.16944017 -0.21524745
-0.31075966 -0.34682432 -0.17978606 -0.26321456 0.01127011 -0.31719926 -0.2601255 -0.30095357
-0.3182747 -0.43772748 -0.19521521 -0.13166092 -0.18758446 -0.10472884 -0.19833346 -0.18130156
-0.23486699 -0.440336 -0.20400546 -0.31713733 -0.34203178 -0.31523705 -0.19704749 -0.22402087
-0.26678374 -0.21990229 -0.24238525 -0.15978877 -0.19726446 -0.06687514 -0.33008412 -0.18604268
-0.18038933 -0.12705827 -0.117248476 -0.18043803 -0.25950003 -0.22255969 -0.38860035 -0.13339524
-0.3591606 -0.36587366 -0.2544032 -0.08984824 -0.35530293 -0.21195199 -0.074682966 -0.29727894
-0.11929092 -0.26401523 -0.22463629 -0.3495143 -0.26507097 -0.25155875 -0.2571335 -0.1321156
-0.62126625 -0.2785461 -0.24867699 -0.12869795 -0.20295596 -0.13107541 -0.26383957 -0.09281609
-0.16366345 -0.081857994 -0.24049537 -0.18371737 -0.37212145 -0.30057567 -0.55533636 -0.16020456
-0.21091677 -0.23388779 -0.24754053 -0.19484001 -0.15120196 -0.22942397 -0.4275387 -0.43794993
-0.34298503 -0.06743101 -0.38258514 -0.19504723 -0.3159712 -0.2722938 -0.1784839 -0.16552083
-0.36465055 -0.17536141 -0.15129854 -0.25964332 -0.32401213 -0.118502066 -0.19650379 -0.043149248
-0.35059658 -0.052868336 -0.1744522 -0.43847784 -0.26628777 -0.3444768 -0.21240312 -0.1854472
-0.082487874 -0.17707397 -0.23240767 -0.22206984 -0.18351558 -0.2717822 -0.2774533 -0.31087935
-0.08919302 -0.2719723 -0.30970183 -0.18818827 -0.38257828 -0.14592442 -0.33246368 -0.18736894
-0.0018347154 -0.017761467 -0.14912064 -0.43172723 -0.42764866 -0.1786813 -0.3055527 -0.16102308

network_body._body_endoder.seq_layers.4.weight f4 [256, 256]
00000000: d476 033e aaa2 c43c 413f 013e 9c08 253e
00000010: 948b 793c a796 01be 6439 9ebe 6bed e13d
00000020: 9c5c 8abb dd90 9ebd 0c07 363e 70fa 0c3e
00000030: b123 e73c 89ad e13d 8b21 183e 2085 883e
00000040: c524 07be 3e6f f93d 4b05 013f 091e c83d
00000050: b72a 54bd 3552 7cbd 8f1c f73d 7ea9 b43e
00000060: 6452 d6be ebff 42bc f584 4e3d 69f6 a13d
00000070: dced 47bc 4cc1 433e cb5d af3e e0ea a1bc
00000080: 7fa5 8c3d c2e0 243e e49c 5fbe 0255 803e
00000090: e88d 9d3d ddf4 be3d 4ffa 563e f1a5 283e
000000a0: df48 b63e 6a98 89be ddf2 6a3e 74fd 813e
000000b0: 3939 9e3e e52c 903d 6e88 ce3d 14f8 113e
000000c0: 77a4 1f3d 4c81 753e e9c2 2fbe 6d70 90ba
000000d0: e712 ff3d b034 c33d d087 2cbd 4d06 8f3e
000000e0: 8a53 313e 6956 a43c 1ae1 e83d a2f9 053e
000000f0: aacc 243e 878d 00ba d045 433e 74b4 413e
00000100: cbef 603e 3e47 7b3d fca0 733e a43d 383e
00000110: 208c 493e f785 9abd 5ee7 273e 124f 873d
00000120: 9fd0 b33e 5b9b 25bc 3813 5e3e a3ca a03e
00000130: 800d c9bd e1e4 ff3c 2e18 21be 7880 2f3c
00000140: 0aac 3fbd 8a4a 243e 0025 89be 34ea 8c3d
00000150: 0cdb 553e e507 403e 49ef cb3d d437 0d3e
00000160: c90e 6ebd cd4c d4bd e1d0 9b3d dc4d 083e
00000170: b3ff 8b3e 537a 253e c507 0fbf 9965 353e
00000180: d529 453e 1982 9e3d 8b8e 093e 760e 6f3e
00000190: 5826 e03d 635a 17bd a8c6 03be d292 8b3e
000001a0: 7d12 4bbd 8a77 b23e a89f e33d 4cee 03be
000001b0: 6383 27be 5da7 a83d 26d9 783e 73ba 4c3e
000001c0: 6b85 e7bd 79a6 c93e 22c2 82bd 85f9 8a3e
000001d0: 2fbe 8f3c b96b ed3b c15f 683e 07b3 a33d
000001e0: 4a8c 93bd d71e bf3e 66ec 923e afb5 19be
000001f0: 0a04 fe3d 12db cbbe b43f a83d efcb 8f3d
00000200: afbb 123e d6ee 113f b587 e3bb 2c49 033e
00000210: ab76 6f3e 9d29 253e 5b2d e6be a5f3 a73d
00000220: 1fa4 543d 5131 2c3e c4b9 6d3e 8a7a 86bd
00000230: 32e4 993e 753a 8e3c 8357 1f3e 3fcd 133e
00000240: 4909 1e3e 267f dd3d b26b 5c3d 3856 38be
00000250: 2240 6a3e 1e2f 183d df69 703e 97d2 96bd
00000260: 78b9 cc3e d054 31bc 95f1 9dbe 6122 ec3d
00000270: 6cd7 873d 66dc 863e 9f88 813e 5900 143e
00000280: f8a2 b13e 4881 3d3e 521e 4d3e 7b87 df3d
00000290: f41c 933e 8a81 943e 5ddc ea3c d78a 233e
000002a0: 1e6a 90bd 2976 623e 5673 ff3c e815 a5be
000002b0: 053d 3fbe 5032 9d3d e5eb 753e 1653 0d3e
000002c0: db70 b73b a75c 023e 9540 b13d 63bf ed3c
000002d0: f4bf ec3d 2988 8a3e fe9c 173d c3bd 463e
000002e0: b8e8 40bd acf4 a4bd 3eb0 b33e bec9 b43d
000002f0: b9f1 913e c5b0 553d 9996 d4bd ba15 85bc
00000300: 06f1 873d db0e 6b3d 376f 99bd c249 473e
00000310: 7be7 833c a559 f13c cb83 eb3d 989b 1a3e
00000320: 915d 243e bddd dbbd 070a 0d3d e574 ed3d
00000330: 97cc 7a3e 9656 c43d 9035 e93d 3fd4 393e
00000340: 39b4 c03e f283 193e 38d5 d03d 0f6f dfbd
00000350: 6259 d9bd 56b5 de3c 7513 373e a5b4 823e
00000360: 837d 433e 5ec2 ac3d 2d5f 913e b7d9 023d
00000370: 926d 3f3e 5c93 2f3d 0ee0 7c3e 84f6 403e
00000380: 1df6 9e3d 9c8b 7f3b 81ca 5a3e 2639 bdbd
00000390: 548e b03e 3e00 713d cc42 583d 2e87 9e3e
000003a0: c87d 5b3d 1209 113e 9601 bd3c e9c2 113e
000003b0: 3538 743d e40f ed3d 089c 2d3e 1307 1a3e
000003c0: 8507 dd3d 9df8 74be 37fe 683e 8100 c9bc
000003d0: 1dc0 d63d f9fb 9c3d da84 b63e be58 fc3b
000003e0: 8a30 403e b404 c639 96dd c53d 6e8f abbd
000003f0: 67f5 1c3e eecf 1fbe b21e 913e 58ac 6a3e
0.12838298 0.024003346 0.12621786 0.16116565 0.015231032 -0.12655126 -0.3090316 0.11031612
-0.0042224657 -0.07742474 0.17776126 0.1376741 0.028215261 0.11019427 0.14856546 0.26664066
-0.1319762 0.12179421 0.503987 0.09771354 -0.05179855 -0.061601836 0.12065994 0.35285562
-0.41859734 -0.011901836 0.050419766 0.07908327 -0.012202706 0.19116706 0.34251246 -0.019765317
0.068675034 0.16101363 -0.21837193 0.25064856 0.07693082 0.09324048 0.20993923 0.16469552
0.3560247 -0.26874095 0.22944207 0.25388682 0.30903032 0.07039813 0.10084616 0.1425479
0.038975205 0.23975104 -0.17164196 -0.0011019834 0.12454777 0.09531534 -0.04212171 0.27934495
0.17317024 0.020060735 0.1137106 0.13083509 0.16093698 -0.0004903902 0.190696 0.18916494
0.21966474 0.06134724 0.2379188 0.17992264 0.1968236 -0.07545083 0.16396853 0.06606878
0.35120103 -0.01010784 0.21687019 0.314046 -0.09817028 0.031237068 -0.1573188 0.010711782
-0.04679493 0.1604406 -0.2678604 0.06880608 0.20884341 0.18753012 0.099577494 0.13790828
-0.05811957 -0.10366211 0.076082 0.13310951 0.2734352 0.16159944 -0.5587123 0.17714538
0.19254239 0.07739658 0.13433282 0.2334536 0.109448135 -0.036951434 -0.1286875 0.27260453
-0.04957818 0.34856826 0.111144364 -0.12883872 -0.16358714 0.08235047 0.24301586 0.19993
-0.11304744 0.3938482 -0.06384684 0.27143493 0.017546741 0.0072455076 0.22692777 0.07993131
-0.072044924 0.37328216 0.28695983 -0.15010713 0.12403114 -0.39815575 0.082152754 0.07021319
0.14329408 0.5700506 -0.006943668 0.12820882 0.23385112 0.16129155 -0.44956478 0.082007684
0.05191433 0.16815688 0.23215395 -0.06566341 0.30056912 0.017361859 0.15560727 0.14433764
0.1543323 0.10815267 0.053813644 -0.1800164 0.22876027 0.03715431 0.23477887 -0.073643856
0.3998525 -0.0108234435 -0.30848375 0.11529995 0.06632885 0.26340026 0.25299546 0.14453258
0.34694648 0.18506348 0.20031098 0.10914513 0.28733027 0.2900508 0.02866953 0.15970932
-0.0705149 0.22115387 0.031182926 -0.32243276 -0.18675621 0.07675612 0.24015768 0.13801226
0.00559817 0.12730657 0.08654896 0.029021924 0.1156005 0.27057007 0.037014954 0.19408326
-0.047096938 -0.0805448 0.350954 0.08827542 0.28504732 0.052170534 -0.10380287 -0.016245712
0.066377684 0.057387214 -0.07491916 0.1946173 0.01610159 0.029461691 0.11499747 0.15098417
0.16051318 -0.107356526 0.03443339 0.115945615 0.24492107 0.095868275 0.11387169 0.18147372
0.376375 0.1499174 0.10196918 -0.109098546 -0.106127515 0.027186077 0.17878516 0.25528446
0.19090848 0.0843551 0.28392926 0.03194591 0.18694142 0.042865142 0.24694845 0.18844038
0.07761786 0.0038993126 0.21366312 -0.09239416 0.34483588 0.05883812 0.052798077 0.3096251
0.05358675 0.14163616 0.023072045 0.14234509 0.059623916 0.115752965 0.16954052 0.15041761
0.1079245 -0.23922963 0.22753225 -0.024536373 0.104858615 0.076652475 0.35648233 0.0077010086
0.18768516 0.00037769007 0.09661405 -0.083769664 0.15327989 -0.15606663 0.2834373 0.22917306
