results/SimpleTrackPrithamPPO/MoveSomewhere/MoveSomewhere-175188.onnx (onnx, 171634 bytes, 11 tensors)

action_model._discrete_distribution.branches.0.bias f4 [3]
0	0xbbd0f47b	-0.0063768006
1	0xbc921a29	-0.01783474
2	0x3cb51982	0.02210689

action_model._discrete_distribution.branches.0.weight f4 [3, 128]
0	0xbc1917ae	-0.009344025
1	0xbc90cfa2	-0.017677132
2	0xbc00f6d2	-0.007871347
3	0xbc0d852d	-0.008637709
4	0xb9153c25	-0.00014232153
5	0xba15d4e0	-0.000571562
6	0xbc999d2a	-0.0187517
7	0x3c5b7965	0.013395642
8	0x3ad1c9a6	0.001600553
9	0xbb866ddb	-0.0041024513
10	0xbccd0b77	-0.02502988
11	0xbc3e1380	-0.011601329
12	0xbc81c856	-0.015842598
13	0x3d15674f	0.036475476
14	0xbd0c67c2	-0.03427864
15	0x39085c4e	0.00013004357
16	0xbc951f39	-0.018203365
17	0xbc37e244	-0.0112233795
18	0xbc559106	-0.013035065
19	0x3c9ce44c	0.01915183
20	0xbce262ec	-0.02763506
21	0x3c64b112	0.0139582325
22	0xbc60ac98	-0.013713025
23	0xbcde3b76	-0.027127963
24	0xbb035b2e	-0.002004336
25	0x3c80e459	0.015733885
26	0xbca1c3e6	-0.019746732
27	0x3b8bb867	0.004263926
28	0xbc048e38	-0.008090548
29	0xbb719492	-0.0036862236
30	0xbb9cc3c4	-0.0047840793
31	0x3c7ec16d	0.015549046
32	0xbbc175e6	-0.005903947
33	0xbaee1dac	-0.0018166802
34	0xbc048287	-0.008087761
35	0xbbccb9cd	-0.006247735
36	0xbc13fd97	-0.0090326285
37	0x3be6cbc5	0.007043334
38	0x3c17a312	0.009255188
39	0xbca94ff6	-0.020668011
40	0xba16f819	-0.00057590153
41	0x3c48cbbf	0.012255608
42	0x3bc4b9a6	0.0060035763
43	0x3ccbc3cc	0.024873637
44	0xbbe26540	-0.0069090426
45	0xbca0135a	-0.019540478
46	0xbbc1bd2f	-0.005912445
47	0x3b0d435a	0.0021555037
48	0xbcc33f82	-0.023833994
49	0x3c5f7cd9	0.013640606
50	0x3a3ee498	0.0007281988
51	0xbcb164d0	-0.021654516
52	0xbba38ef4	-0.0049914066
53	0xbb0a9330	-0.002114486
54	0xbc5a657c	-0.01332986
55	0xbb56a4c5	-0.003275202
56	0x3b0530cd	0.0020323277
57	0x3cca7c58	0.024717495
58	0xbcd7084c	-0.026249073
59	0xbc95bbd1	-0.018278034
60	0xbc0f055b	-0.008729304
61	0x3bf35999	0.0074264524
62	0x3a951263	0.0011373278
63	0x38953349	7.114426e-05
64	0x3ce3285c	0.027729206
65	0xbbdcd40f	-0.0067391465
66	0xbb9fd7cc	-0.00487802
67	0xbbd7b9ab	-0.0065834126
68	0x3bf56829	0.0074892235
69	0xbb918139	-0.0044404534
70	0x3d0ba8d6	0.03409656
71	0xbb635697	-0.0034689063
72	0xba8e2127	-0.001084362
73	0x3bee387a	0.007269916
74	0xbc8efbc0	-0.017454028
75	0x3a802f0f	0.000977965
76	0x3c57a6e9	0.013162353
77	0x3d1515e3	0.036397826
78	0xbc97f609	-0.018549936
79	0x3c80bd48	0.015715256
80	0xbc8e7bf9	-0.0173931
81	0x3bd6938a	0.0065483497
82	0x3c6931cf	0.014233067
83	0xbc41564c	-0.01180036
84	0xbc1f3510	-0.009717241
85	0x3cafe390	0.021470815
86	0xbc8d9678	-0.017283663
87	0x3c6b3013	0.0143547235
88	0xbc007931	-0.007841394
89	0xbce88776	-0.028384905
90	0x3c4048e5	0.011736129
91	0xb77b8e89	-1.4993952e-05
92	0x3c4ef262	0.012631031
93	0xbbcb1578	-0.0061976276
94	0xbcb41a94	-0.02198533
95	0xbc5fbf38	-0.01365643
96	0xbafaa868	-0.0019123675
97	0xba5a838c	-0.0008335642
98	0xbc5c68c3	-0.0134527115
99	0x3ca4a7b8	0.020099506
100	0xbcd9ad95	-0.026572028
101	0xbbdc8e19	-0.0067308065
102	0xbb9983a2	-0.0046848813
103	0xbc4d8d15	-0.012545844
104	0xbb556146	-0.00325592
105	0xbb9e3954	-0.0048286114
106	0xbcea5775	-0.028606156
107	0x3c0e54a3	0.008687171
108	0xbc967d18	-0.018370196
109	0x3ae538e8	0.0017488273
110	0x3bc1a521	0.0059095775
111	0x3b27e4d5	0.0025618572
112	0x3c113258	0.008862101
113	0x3c17a53e	0.009255705
114	0x3d3cde80	0.04611063
115	0x3c42c0fe	0.011886833
116	0xbc4da3cd	-0.01255126
117	0xbc8c43f6	-0.01712225
118	0xbc897c98	-0.016783044
119	0xbbb9bc01	-0.0056681638
120	0xbc13c0a3	-0.009018096
121	0xbd11a31d	-0.035555948
122	0xbb42cead	-0.002972524
123	0x3bfa775d	0.0076436237
124	0x3b46d539	0.0030339493
125	0xbc53bff5	-0.012924184
126	0xbcedc67b	-0.029025307
127	0xbc86cde1	-0.016455593
128	0xbc034561	-0.008012147
129	0xbd089d99	-0.03335342
130	0xbbad92f9	-0.0052970615
131	0xbc566237	-0.01308494
132	0xbc6da739	-0.014505201
133	0xbb777c7c	-0.0037763407
134	0x3a1a4184	0.00058843964
135	0xbc01c7e4	-0.007921193
136	0x3c9721b2	0.018448684
137	0xbcc12064	-0.023575015
138	0x3d211742	0.03932882
139	0xbceb214b	-0.028702399
140	0x3b11a20d	0.0022221834
141	0x3cd99c83	0.026563888
142	0x3d068693	0.032843184
143	0xbb7d41ed	-0.003864403
144	0xbc93b8d8	-0.018032476
145	0xbc95c6e7	-0.01828332
146	0xbc2226dd	-0.009896961
147	0xbb137dba	-0.0022505359
148	0xbc6c0cdc	-0.014407363
149	0xbd113e23	-0.03545965
150	0xbbe920eb	-0.00711452
151	0xbcc7cd1a	-0.024389792
152	0xbbf47d42	-0.007461221
153	0xbca3fe52	-0.02001873
154	0xbca712b3	-0.020394659
155	0xbc9e1adf	-0.019299923
156	0x3adbb0cc	0.0016761064
157	0xbcb9a8dc	-0.022663526
158	0x3b6ff78e	0.003661606
159	0xbbcb6c39	-0.0062079695
160	0xbcdaa803	-0.026691442
161	0x3ca383e2	0.019960348
162	0xba9bbb9f	-0.0011881477
163	0xbce49cc3	-0.027906781
164	0x3b021db7	0.0019854137
165	0xbcab62a1	-0.020921053
166	0x3c778919	0.01510837
167	0x3cdc686f	0.026905267
168	0xbbf1d440	-0.0073800385
169	0xbcab1636	-0.020884614
170	0xbc4fd39e	-0.012684731
171	0xbb771f05	-0.0037707698
172	0xbc30d97d	-0.010794041
173	0x3c2ba3c7	0.010476059
174	0xbca6d433	-0.020364856
175	0xba6ddfb3	-0.00090741663
176	0x3c14d6c0	0.0090844035
177	0xbcc88090	-0.024475366
178	0x3c6b7d05	0.014373069
179	0xbcb26eae	-0.021781292
180	0xbb621e12	-0.0034502787
181	0xbccab140	-0.024742723
182	0x3ca07464	0.01958675
183	0xbcaeead0	-0.021352202
184	0xbc6002f1	-0.013672576
185	0x3b8f7971	0.0043784906
186	0x3c7a2116	0.015266677
187	0xbc9df2d6	-0.019280832
188	0xbca7a9ee	-0.020466771
189	0xbcc85d7a	-0.024458636
190	0x3c232d9a	0.009959603
191	0x3c179575	0.009251942
192	0xbc4d6ed0	-0.012538627
193	0x3d03a7b2	0.03214235
194	0xbc90b3ed	-0.01766392
195	0xbc9c84ef	-0.019106356
196	0xbbd7cc3b	-0.0065856255
197	0xbbd5ae00	-0.0065209866
198	0x3ce76b19	0.02824931
199	0xbc97ae69	-0.018515782
200	0xbb5c0fb1	-0.0033578689
201	0xbb426301	-0.0029661062
202	0xbb1b4ba3	-0.0023696206
203	0x3b42df54	0.0029735165
204	0xbcc40078	-0.023926005
205	0xbc772fdc	-0.015087094
206	0xbc917460	-0.017755687
207	0xbb179cfc	-0.0023134341
208	0xbcd534f1	-0.026026221
209	0x3c3461ac	0.011009615
210	0x3bba4900	0.005684972
211	0x3b846814	0.0040407274
212	0x3cc0ffba	0.02355944
213	0xbc546cdd	-0.012965408
214	0x3c004d0a	0.007830868
215	0x39f1f5d7	0.00046150267
216	0xbce4a4d0	-0.02791062
217	0xbca0b2aa	-0.019616444
218	0xbcb999e9	-0.022656398
219	0xbb931f71	-0.004489832
220	0xbc25460f	-0.010087504
221	0xbca07dd3	-0.019591248
222	0xbc368036	-0.011138966
223	0xbc0fd9de	-0.008779971
224	0xbbdbeb2a	-0.0067113834
225	0x3c0ac2f8	0.008469336
226	0xbcaa1689	-0.020762699
227	0xbc5b0528	-0.013367929
228	0xbc92a03c	-0.017898671
229	0xbbec1a67	-0.007205296
230	0x3c838e9a	0.016059209
231	0xbbead110	-0.0071660355
232	0xbc2bda2d	-0.010489029
233	0x3ae6fab8	0.0017622327
234	0xbc6c2d96	-0.014415165
235	0xbd1ca8af	-0.038246807
236	0xbce1d477	-0.027567131
237	0xbd031d07	-0.032010105
238	0x3b5b6f9f	0.003348328
239	0xbbac4fc2	-0.0052585313
240	0xbbcba767	-0.0062150243
241	0xbc43a3f8	-0.011940949
242	0xbcb541d6	-0.02212612
243	0xbc96ca55	-0.018407026
244	0xbce2a3bb	-0.027665963
245	0xbc98fdbe	-0.018675681
246	0x3d367fdb	0.044555526
247	0xbc4bb7cb	-0.012433956
248	0x3c1402dc	0.009033885
249	0xbb514cfe	-0.003193676
250	0xbd142da0	-0.036176324
251	0xbd0a4ed2	-0.033766575
252	0xbcae18c3	-0.021252042
253	0xbc32b8b9	-0.010908299
254	0x3c92cd50	0.017920166
255	0x396ee442	0.00022782481

action_model._discrete_distribution.branches.1.bias f4 [3]
0	0x3c935922	0.017986838
1	0xbc935739	-0.017985927
2	0xbc935984	-0.01798702

action_model._discrete_distribution.branches.1.weight f4 [3, 128]
0	0x39ab73c1	0.00032701905
1	0x3cb11f4f	0.021621374
2	0x3c07ebbb	0.008295949
3	0x3cc5ce87	0.024146331
4	0x3bfb145c	0.007662339
5	0xbbd4606c	-0.006481221
6	0xbb53ee0e	-0.0032337937
7	0xbc43e321	-0.011956007
8	0xbd04ae01	-0.032392506
9	0x3c78531b	0.015156533
10	0xbc6714db	-0.014104093
11	0x3d1c5943	0.038171064
12	0xbc9b8712	-0.018985305
13	0xbb9aa687	-0.0047195586
14	0xbcfb5439	-0.030679809
15	0x3be92feb	0.007116308
16	0x3c227334	0.009915162
17	0x3c0daa28	0.008646525
18	0x3d1226b0	0.035681427
19	0x3cb16584	0.021654852
20	0x3c842b06	0.016133796
21	0x3c6bf872	0.014402496
22	0x3c93f887	0.018062843
23	0x3ce2146d	0.02759763
24	0x3b58fd05	0.0033109796
25	0x3cfb3bcb	0.03066816
26	0x3c80ed15	0.01573805
27	0x3c461059	0.0120888585
28	0x3c919042	0.017768983
29	0x3cb50c5f	0.022100626
30	0x3b7489eb	0.003731365
31	0x3c1e899c	0.009676363
32	0x3c77f1c1	0.015133322
33	0x3b0b6efc	0.0021275869
34	0xbc0f4ea8	-0.00874678
35	0xbc83738d	-0.01604631
36	0x3bc9f86f	0.006163649
37	0x3c683581	0.014172913
38	0xbc5df9e8	-0.013548352
39	0xbd17d582	-0.03706885
40	0x3b984e05	0.0046479725
41	0x3c6c1cd3	0.014411169
42	0xbadb71e0	-0.0016742311
43	0x3b8edfcd	0.004360175
44	0x3cc58d5e	0.02411526
45	0xbc95fb34	-0.01830826
46	0x3d10c99a	0.035348512
47	0x3bebb48d	0.007193154
48	0xbc6fbf4f	-0.014633014
49	0x3ca736d3	0.020411884
50	0x3a125ae6	0.0005583003
51	0x3cd09ce4	0.025465436
52	0x3c6414cb	0.013920973
53	0x3bb1eaa9	0.005429585
54	0xbc92d50e	-0.017923858
55	0x3cd7ce62	0.026343528
56	0x3bed5a45	0.007243427
57	0x3a064617	0.00051221385
58	0x3aee60a1	0.0018186757
59	0x3be37b41	0.0069421832
60	0x3c961e1c	0.018324904
61	0x3c8f4c6d	0.017492497
62	0xbb43b53d	-0.0029862665
63	0x3b300936	0.002686096
64	0x3c9500ca	0.018188853
65	0xbceb4d9d	-0.028723532
66	0x3bd3792c	0.006453654
67	0x3c963b29	0.018338757
68	0xbc2ddae8	-0.010611273
69	0xbc0ad5a8	-0.008473791
70	0xbc9a4fa6	-0.018836807
71	0x3bb218ea	0.005435099
72	0x3bc552ac	0.006021818
73	0xbcb01ba5	-0.021497557
74	0x3cc2df95	0.023788253
75	0xbc278d7c	-0.010226604
76	0x3cd40e4b	0.025885722
77	0x3bd75cc0	0.006572336
78	0x3d03a11e	0.032136075
79	0x3be2e95f	0.0069247927
80	0x3cf722ae	0.030167904
81	0x3c88bcd9	0.016691612
82	0x3bda62cb	0.006664609
83	0xbbde8845	-0.006791147
84	0xbc15c079	-0.009140127
85	0x3c9f61f3	0.019455886
86	0xbc81bed5	-0.015838066
87	0xbc4406d3	-0.011964518
88	0x3d084de1	0.033277396
89	0x3c72d5cf	0.014821484
90	0x3c6f931c	0.014622476
91	0xbb35d84c	-0.0027747331
92	0x3ba22cce	0.004949189
93	0x3c496d13	0.012294072
94	0x3c43d0a7	0.011951602
95	0x3cf26473	0.029588914
96	0x3c813b98	0.015775487
97	0xbb291e23	-0.0025805316
98	0x3cd728be	0.026264545
99	0x3c4955eb	0.012288551
100	0x3c946887	0.018116249
101	0x3c58c24e	0.01322992
102	0xbc673da5	-0.014113818
103	0x3cec843b	0.028871646
104	0x3d07c894	0.03315027
105	0xbc011040	-0.007877409
106	0x3cc1d08b	0.023659011
107	0x3c40a19c	0.011757281
108	0x3ce8ee89	0.028434055
109	0x3c2ce3cc	0.010552358
110	0xbc94acf7	-0.018148882
111	0x3b1d20c7	0.0023975836
112	0xba8c9e13	-0.0010728262
113	0xbcb67b9d	-0.02227574
114	0x3cbdb73b	0.02315866
115	0xba4dca3f	-0.00078502664
116	0x3cda0838	0.026615247
117	0x3cb5f321	0.02221066
118	0xbca16a8f	-0.019704131
119	0x3d054e55	0.032545406
120	0x3c07a649	0.008279392
121	0x3c0b4b3d	0.008501825
122	0x3c2889c3	0.010286751
123	0xbbb912b1	-0.00564798
124	0x3c56ccdc	0.013110366
125	0x3b966d11	0.0045906384
126	0xbc87a96e	-0.016560283
127	0xbccb2a3c	-0.024800412
128	0xbb375d09	-0.0027979037
129	0xbc41de61	-0.011832804
130	0xbaed711e	-0.0018115377
131	0xbc83a60c	-0.016070388
132	0xbc87f804	-0.016597755
133	0xbb92a013	-0.0044746487
134	0xba3a97f2	-0.00071179785
135	0x3b651665	0.0034955975
136	0x3c915791	0.01774195
137	0xbce9eb41	-0.02855456
138	0x3c8d8462	0.01727504
139	0xbc88ff2e	-0.016723242
140	0xbb66aded	-0.0035198883
141	0x3cdab544	0.026697762
142	0x3cc22887	0.023700966
143	0xbc51cc59	-0.012805068
144	0xbd1a6ac2	-0.03769947
145	0xbbece8ef	-0.0072299163
146	0xbc8dbf1a	-0.017303038
147	0xbcadf3ee	-0.021234479
148	0xbb3d7230	-0.0028907172
149	0xbc478776	-0.0121782925
150	0xbcd45e50	-0.025923878
151	0xbca3d995	-0.020001212
152	0x3c11baf5	0.008894672
153	0xbc1b061e	-0.009461908
154	0xbcf5d2f0	-0.03000781
155	0xbcbd4083	-0.02310205
156	0xbc7b8172	-0.015350686
157	0xbc49bfd1	-0.012313799
158	0x3c4da7bb	0.012552197
159	0xbc671f69	-0.01410661
160	0xbcb3bab3	-0.021939611
161	0x3b6a8d99	0.0035789965
162	0xbb601d77	-0.003419725
163	0x3c6bfea9	0.014403977
164	0x3c8183d3	0.015809929
165	0xbc889437	-0.016672237
166	0x3c66ebbe	0.014094291
167	0x3baeda13	0.005336055
168	0xbbf8f261	-0.007597253
169	0xbcb4b03f	-0.022056697
170	0xbc84a114	-0.01619009
171	0xbc737496	-0.014859339
172	0xbbf1e540	-0.007382065
173	0x3caedeea	0.021346528
174	0xbca2cbbd	-0.01987254
175	0xbc4c9595	-0.012486835
176	0x3c99ce81	0.018775227
177	0xbcc634e2	-0.024195138
178	0xbae628a7	-0.0017559723
179	0xbca84bd9	-0.02054398
180	0x3a96d939	0.0011508829
181	0xbcd7d8c1	-0.026348474
182	0x3ca4f546	0.020136487
183	0xbc03f7f4	-0.008054722
184	0xbcaa5fde	-0.020797666
185	0x3cd2ab18	0.02571635
186	0x3c78e97e	0.015192388
187	0xbbbe3a5e	-0.0058052978
188	0xbc9d5503	-0.019205576
189	0xbcab61f4	-0.020920731
190	0xb9f7c600	-0.00047259033
191	0x3bba6d73	0.005689317
192	0xbc43a24d	-0.011940551
193	0x3d013136	0.03154107
194	0xbd037542	-0.032094248
195	0xbcc724cf	-0.024309544
196	0xbbab05ef	-0.005219213
197	0x3ab62ea7	0.0013899402
198	0x3c4ed34a	0.012623617
199	0xbc10cfed	-0.008838636
200	0xbc436357	-0.01192554
201	0x3b0da058	0.0021610465
202	0xbcb5c670	-0.022189349
203	0xbb702597	-0.00366435
204	0xbbd3dc92	-0.006465503
205	0xbd262515	-0.040562708
206	0xbc91149b	-0.01771002
207	0xba25b574	-0.0006321289
208	0xbc871267	-0.016488267
209	0x3c0071be	0.007839618
210	0x3c01f282	0.0079313535
211	0xbba1a621	-0.004933134
212	0x3c83935b	0.016061476
213	0xbc830c25	-0.015997002
214	0x3bd3d20a	0.0064642476
215	0x3cb6be40	0.022307515
216	0xbcb2d636	-0.02183066
217	0xbcfab4d7	-0.03060381
218	0xbcc647dd	-0.024204189
219	0x3c31b5b5	0.010846545
220	0xbc0897b5	-0.008336951
221	0xbcb1d5ba	-0.021708358
222	0x3bd5a653	0.0065200715
223	0xba91e604	-0.0011131172
224	0xbc0722e7	-0.008248067
225	0x3c1022df	0.008797376
226	0xbcb70e77	-0.022345765
227	0xbc1cd0f2	-0.009571301
228	0xbcabebd3	-0.020986473
229	0xbd01f198	-0.031724542
230	0xbbb78a07	-0.005601171
231	0xbcb3c8e3	-0.021946376
232	0xbc811b16	-0.015759986
233	0x3c82235b	0.015886
234	0xbd24695a	-0.040139534
235	0xbd0ad37e	-0.0338931
236	0xbc942f51	-0.018088968
237	0xbc481bad	-0.01221363
238	0xbaf4ca1d	-0.0018675957
239	0x3ac4a765	0.0015003501
240	0xbc155bac	-0.009116095
241	0x3c998b6d	0.018743241
242	0xbcbaf802	-0.022823337
243	0x3b6b6e81	0.003592402
244	0xbc85b48f	-0.016321449
245	0xbc749ca2	-0.014929922
246	0x3c9f338d	0.019433761
247	0xbcda46db	-0.026645115
248	0x3a6472f8	0.00087146414
249	0xbcb9551c	-0.022623591
250	0xbada4b2d	-0.0016654484
251	0x3b07d118	0.0020723995
252	0xbc9cb181	-0.01912761
253	0xbc8d5999	-0.017254638
254	0x3cc9b836	0.024623971
255	0x3c84764d	0.016169691

discrete_action_output_shape f4 [1, 2]
0	0x40400000	3.0
1	0x40400000	3.0

network_body._body_endoder.seq_layers.0.bias f4 [128]
0	0x3c904c15	0.017614404
1	0xbc9fd8a2	-0.019512478
2	0x3cc4f88e	0.024044301
3	0x3ca8c645	0.020602355
4	0xbc973c39	-0.018461334
5	0x00000000	0.0
6	0x3cb0e059	0.021591352
7	0x92f324fe	-1.5344575e-27
8	0x3c86c7e1	0.016452732
9	0xbc85b418	-0.016321227
10	0x3cbbc3d6	0.02292053
11	0x3ca1ee82	0.01976705
12	0x3c91666d	0.017749036
13	0xac7b9cc2	-3.5756263e-12
14	0xbcb4bb76	-0.022062045
15	0xa301ef33	-7.0437564e-18
16	0xb4b6928f	-3.4006777e-07
17	0x1b3c89cd	1.5595521e-22
18	0x00000000	0.0
19	0x3c8289d2	0.015934858
20	0x94aaa8fe	-1.7232269e-26
21	0xbc87f1fb	-0.016594877
22	0x8840f173	-5.806172e-34
23	0xab90dd70	-1.0293277e-12
24	0x3b1b025b	0.0023652527
25	0x00000000	0.0
26	0xa52b998b	-1.4883908e-16
27	0xbc1afd0c	-0.009459745
28	0xbcbeee33	-0.023306942
29	0x3c649213	0.013950842
30	0x1849f340	2.610145e-24
31	0xbccc4587	-0.024935497
32	0x3234ec66	1.053113e-08
33	0xacc69e26	-5.6450565e-12
34	0x2030db3a	1.4980316e-19
35	0xad86332f	-1.5256766e-11
36	0x3a0397a8	0.0005019852
37	0x3c9c0312	0.019044433
38	0x0bc81505	7.7068824e-32
39	0x3c545e5f	0.012961953
40	0xbc7ef230	-0.015560672
41	0x3c8533e4	0.016260095
42	0x3c8fa3a8	0.017534092
43	0xaa9da8ef	-2.8006024e-13
44	0xbcc11583	-0.023569828
45	0xbc548774	-0.012971748
46	0x3ca00d9e	0.019537743
47	0xbc8aa470	-0.016924113
48	0xbbb433ab	-0.0054993234
49	0x8c0f4e6e	-1.1039921e-31
50	0xb566e8cd	-8.6020447e-07
51	0x3cb51d9c	0.022108845
52	0xbc8c6149	-0.017136233
53	0xa39b03da	-1.6806765e-17
54	0xbc7a2e90	-0.01526989
55	0xbca0280e	-0.01955035
56	0x040ec012	1.6780214e-36
57	0xbb3947e6	-0.0028271615
58	0x8799569c	-2.3071786e-34
59	0x25be4a8a	3.3010256e-16
60	0xbc59863b	-0.013276632
61	0xbca43167	-0.020043088
62	0x3caf7436	0.021417718
63	0x3be345df	0.0069358195
64	0xbbab7a6f	-0.005233101
65	0x00000000	0.0
66	0x31a16d0b	4.6981135e-09
67	0x0cded2d1	3.4331396e-31
68	0x35ae8725	1.3003342e-06
69	0x992dd38d	-8.986613e-24
70	0x00000000	0.0
71	0xbc3e7b31	-0.011626051
72	0x89cb8031	-4.8991023e-33
73	0x3c50605e	0.012718288
74	0x3c6fdb64	0.014639709
75	0x1b471c75	1.6470089e-22
76	0xaf2b5010	-1.5580803e-10
77	0x8819c008	-4.6267494e-34
78	0x00000000	0.0
79	0xbc32adc0	-0.010905683
80	0x3cccc29f	0.024995146
81	0xbb7b010d	-0.0038300187
82	0x00000000	0.0
83	0xbc96b98e	-0.018399026
84	0xbc81326f	-0.015771119
85	0xa5c008d8	-3.3312683e-16
86	0xbcab2972	-0.020893786
87	0x00000000	0.0
88	0xbcc58cd0	-0.024114996
89	0x9d5e38f3	-2.9410897e-21
90	0xbc964bce	-0.018346693
91	0x2e1ee3bb	3.6127306e-11
92	0x231a4114	8.3621376e-18
93	0x3c9581ef	0.018250434
94	0xbcc9085e	-0.024540123
95	0x10a16ee7	6.3674175e-29
96	0x3cb251d9	0.021767544
97	0xbc9a5937	-0.01884137
98	0xbc931be2	-0.017957631
99	0x04386407	2.1675026e-36
100	0xb631d49d	-2.6498813e-06
101	0x3ca9607b	0.020675888
102	0xbc95b84e	-0.01827636
103	0xbcb4f7d2	-0.022090826
104	0x381a9e01	3.6863614e-05
105	0xbc78ea28	-0.015192546
106	0x3adc9895	0.0016830141
107	0x94ab6dfe	-1.7309972e-26
108	0xbc96815f	-0.018372236
109	0xbc40f270	-0.011776552
110	0x3c8fc018	0.017547652
111	0x3c8fb313	0.017541444
112	0x3bd78543	0.0065771653
113	0x3ccf0311	0.025270017
114	0xbb8da304	-0.0043224115
115	0xbc1f2f52	-0.009715872
116	0x3c9c01d5	0.019043842
117	0xba051bd0	-0.0005077692
118	0x2e8914ec	6.233755e-11
119	0x3c9e5f82	0.019332651
120	0xbca64419	-0.020296143
121	0xb7b215e6	-2.122945e-05
122	0xbc424259	-0.011856639
123	0xb5011e70	-4.810054e-07
124	0x965c474a	-1.7793953e-25
125	0x3cc6ef9f	0.024284182
126	0xa8c89f46	-2.2273534e-14
127	0x8eb252f3	-4.3960265e-30

network_body._body_endoder.seq_layers.0.weight f4 [128, 64]
0	0x3d9557e5	0.07292155
1	0xbe82868b	-0.25493273
2	0xbe714f26	-0.23565349
3	0xbddd895e	-0.10817216
4	0x3cd8724a	0.026421685
5	0x3dfd917a	0.12381263
6	0xbc0bb606	-0.0085272845
7	0x3e68aab9	0.22721376
8	0x3e6b7fcf	0.22997974
9	0x3d233919	0.039849374
10	0xbdf4b543	-0.119486354
11	0xbd7699e4	-0.060205355
12	0x3de4a011	0.11163343
13	0x3e03e231	0.12879254
14	0x3e1f5d7d	0.15563007
15	0x3d670090	0.05639702
16	0xbcccf235	-0.025017837
17	0xbd14aa8f	-0.03629547
18	0xbd745e14	-0.059660032
19	0x3d0a6c07	0.03379443
20	0xbe816a72	-0.25276524
21	0x3caf0001	0.021362307
22	0xbe2ab305	-0.16669853
23	0xbc1a6429	-0.009423294
24	0xbd0e1e75	-0.034697015
25	0x3d2332c1	0.039843325
26	0xbd07798a	-0.033074893
27	0x3d97989b	0.07402154
28	0xbcd55f72	-0.026046488
29	0xbd0b69d7	-0.034036484
30	0xbd9a9ea5	-0.0754979
31	0xbcc595b2	-0.024119232
32	0x3d96f9bd	0.073718525
33	0x3d2a4f9b	0.041579824
34	0xbe0ae4f3	-0.135639
35	0x3e2dc5bf	0.16969965
36	0x3e0d06a5	0.13772066
37	0x3d996d0d	0.07491503
38	0xbe91ca73	-0.2847477
39	0x3dbb1be7	0.09136181
40	0xbe331b22	-0.17490819
41	0xbe04a226	-0.1295248
42	0xbda203ed	-0.07910905
43	0xbe656500	-0.2240181
44	0xbda53636	-0.080669805
45	0x3df45eba	0.1193213
46	0x3d970f4c	0.073759645
47	0x3df3c682	0.11903097
48	0x3e144e2a	0.14482942
49	0x3dd0c4f7	0.10193818
50	0x3e420be2	0.18949845
51	0x3d458b59	0.048228595
52	0xbe51920b	-0.20465867
53	0xbda62dc7	-0.081142
54	0xbe2240fb	-0.158451
55	0x3d81272f	0.06306302
56	0x3da4d03a	0.080475286
57	0xbe359a4e	-0.17734644
58	0xbd51e8aa	-0.051247276
59	0x3b9f4594	0.0048605893
60	0x3dd4cf90	0.10391152
61	0x3bb36371	0.005474501
62	0xbe07405a	-0.13208142
63	0xbcf91d29	-0.030409412
64	0x3dc9b3a0	0.09848714
65	0x3e143aa1	0.1447549
66	0x3d8ca5d0	0.06867564
67	0xbe287b7b	-0.16453354
68	0xbe371974	-0.17880803
69	0xbe6d6215	-0.23181947
70	0xbdcbaec2	-0.09945442
71	0x3e07d276	0.13263878
72	0x3da4653a	0.0802712
73	0x3dc97b5a	0.098379806
74	0xbdb5e94d	-0.08882389
75	0x3e5cd8a0	0.21567011
76	0xbda71bde	-0.08159612
77	0x3d2e97e1	0.04262531
78	0x3bef65a8	0.0073058195
79	0xbdf370cd	-0.118867494
80	0x3d755131	0.059891883
81	0x3d1e0ece	0.038588338
82	0xbe2d0886	-0.16897783
83	0xbc893bac	-0.016752087
84	0x3e8606a1	0.26176932
85	0x3d76f063	0.060287844
86	0xbca8265d	-0.020526106
87	0xbe41759f	-0.18892525
88	0xbdab03ad	-0.083503105
89	0xbd414de7	-0.047193434
90	0x3ca4f89f	0.020138083
91	0x3dbc64ab	0.091988884
92	0x3e3af3b3	0.18257026
93	0xbe4fc83b	-0.20291226
94	0x3e312aa9	0.1730143
95	0x3e633740	0.22189045
96	0x3dc612cd	0.09671555
97	0xbd97df7d	-0.07415674
98	0x3de5eb31	0.112265
99	0xbdae3154	-0.08505502
100	0xbea0453d	-0.31302825
101	0xbdecd636	-0.11564295
102	0xbe3c95f1	-0.18416573
103	0xbcc98dff	-0.024603842
104	0xbc21d1b9	-0.009876662
105	0x3e388949	0.1802112
106	0x3c8e7cf4	0.017393567
107	0x3dafdc30	0.08586919
108	0xbe63ec7b	-0.22258179
109	0xbd453c03	-0.048152935
110	0xbe27ca1f	-0.16385697
111	0x3e255168	0.16144335
112	0xbb0e8e96	-0.0021752468
113	0xbe7e03f7	-0.248062
114	0x3ea0c401	0.3139954
115	0xbdcd5ad9	-0.100270934
116	0x3d31f86d	0.043449808
117	0x3e0abd2f	0.1354873
118	0x3e22e72c	0.15908498
119	0xbd7530a3	-0.059860837
120	0xbe71873a	-0.23586741
121	0x3cfa45d9	0.030550884
122	0x3c801a71	0.015637608
123	0xbc8e02dd	-0.01733535
124	0x3e900b5c	0.28133667
125	0x3e37f9cc	0.17966384
126	0x3e091a28	0.13388884
127	0xbe460a4e	-0.19339868
128	0xbe369c86	-0.17833146
129	0xbda5403a	-0.08068891
130	0xbe7b623b	-0.2454919
131	0x3e014dea	0.12627378
132	0x3c9a5ccb	0.018843075
133	0xbdb019f3	-0.085986994
134	0xbd825376	-0.06363575
135	0xbdee1183	-0.11624434
136	0xbdd4420e	-0.103641614
137	0x3d91ebf5	0.07125083
138	0xbd91fb80	-0.07128048
139	0xbb9fab9d	-0.004872753
140	0x3d76e674	0.06027837
141	0x3da5c67f	0.08094501
142	0xbd4205a0	-0.047368646
143	0xbe9f7033	-0.3114029
144	0xbd50a48c	-0.050938174
145	0xbd8dc7b7	-0.06922858
146	0x3cd15388	0.025552526
147	0x3e1cc61b	0.15309946
148	0xbd99068a	-0.0747195
149	0xbe23a829	-0.15982117
150	0x3e48f6dd	0.19625421
151	0xbc0dc07f	-0.008651852
152	0xbe06f1d4	-0.13178188
153	0x3d3513cc	0.044208333
154	0xbca13415	-0.019678155
155	0x3da9a934	0.08284226
156	0xbd6f1aac	-0.058375046
157	0x3e01f197	0.12689815
158	0xbd877ff5	-0.06616203
159	0x3d859991	0.06523431
160	0x3e273e58	0.16332376
161	0xbe6b3e91	-0.22973086
162	0xbde49adc	-0.111623496
163	0xbe94c267	-0.29054567
164	0xbcf09856	-0.029369514
165	0xbca23aa5	-0.019803355
166	0xbdfdc230	-0.12390554
167	0xbd7d524d	-0.061846066
168	0x3d143f2d	0.03619306
169	0xbe1ce9ff	-0.15323637
170	0xbaad3f50	-0.0013217721
171	0xbe13fd31	-0.14452054
172	0xbde2d4dd	-0.11075757
173	0x3daaf814	0.083480984
174	0x3ddcb9a3	0.10777595
175	0x3d773e30	0.06036204
176	0xbd28a7af	-0.04117554
177	0x3d849cb3	0.064752005
178	0xbdac26e0	-0.08405852
179	0x3dec13bf	0.11527204
180	0xbe1edd9c	-0.15514225
181	0x3989c577	0.000262778
182	0x3e030fc4	0.12798983
183	0xbe389b82	-0.18028072
184	0x3bbeae10	0.0058190897
185	0x3ddc28ab	0.10749944
186	0x3d92f4aa	0.07175572
187	0x3dee759f	0.11643528
188	0xbe2d45ff	-0.16921233
189	0x3e277a34	0.1635521
190	0x3e0eb900	0.1393776
191	0xbe2b5a62	-0.16733697
192	0x3cbab965	0.022793481
193	0xbdbf247e	-0.09333132
194	0xbe1800eb	-0.148441
195	0x3d941bb3	0.07231846
196	0xbbd1d50c	-0.006403571
197	0xbd17e556	-0.037083946
198	0xbb8408ef	-0.0040293853
199	0x3d8051f2	0.0626563
200	0x3d9360a2	0.071961656
201	0x3cce3d1b	0.025175622
202	0xbd539fa6	-0.051665924
203	0x3e8eaa7f	0.27864453
204	0x3d05ef7e	0.0326991
205	0x3d4599e7	0.048242476
206	0xbbefc254	-0.007316867
207	0xbdde0382	-0.10840513
208	0x3ec343ef	0.38137767
209	0xbd243c6e	-0.040096693
210	0x3c74e2de	0.0149466675
211	0x3e326ca8	0.17424262
212	0x3d81b02b	0.063324295
213	0xbe6ad958	-0.22934473
214	0x3db962f9	0.09052081
215	0x3b745902	0.0037284498
216	0xbca4031b	-0.020021012
217	0x3e3d2c91	0.18474032
218	0xbd341746	-0.043967508
219	0xbd8a11bc	-0.06741664
220	0xbd12b00e	-0.03581243
221	0xbc8dc35b	-0.017305067
222	0xbceb89dc	-0.02875226
223	0x3d31fb56	0.043452583
224	0x3d331de2	0.04372967
225	0xbc94d3df	-0.018167434
226	0x3e5e5f96	0.2171615
227	0xbe77fe04	-0.24217993
228	0x3d4ab2c5	0.049486894
229	0x3e3851e9	0.17999996
230	0x3d13b073	0.036056947
231	0x3d1059bb	0.035241824
232	0xbdda9cbc	-0.10674426
233	0x3d78cc9c	0.060742006
234	0xbcd2ffe4	-0.025756784
235	0x3d316faf	0.0433194
236	0x3d8ba746	0.06819014
237	0x3e204681	0.15651895
238	0xbd33804b	-0.04382352
239	0xbd87b4ad	-0.06626258
240	0x3e612328	0.21986067
241	0x3e04d051	0.12970091
242	0x3da99be1	0.08281685
243	0xbe0b5300	-0.1360588
244	0xbe31ed0e	-0.17375585
245	0x3dded436	0.1088032
246	0xbd94a259	-0.07257528
247	0x3d928bd2	0.07155575
248	0x3c783775	0.015149941
249	0xbdb3f32c	-0.08786616
250	0x3dc5dc0d	0.09661112
251	0xbd70f9a5	-0.05883183
252	0xbe204825	-0.15652521
253	0x3d8ac15e	0.06775163
254	0x3ddf96cd	0.10917435
255	0x3d5e0db2	0.05421228

network_body._body_endoder.seq_layers.2.bias f4 [128]
0	0xbc99ce99	-0.018775271
1	0x8e5921bb	-2.6763556e-30
2	0xbc3aa806	-0.011392599
3	0xbc949091	-0.01813534
4	0x9db3451f	-4.7452375e-21
5	0x3c8fa2ab	0.01753362
6	0x3c75c2df	0.015000074
7	0xbc6095d4	-0.013707597
8	0x3ca542b8	0.020173416
9	0x3c6a1bb3	0.014288831
10	0xab977f8d	-1.0764598e-12
11	0x3cb3b666	0.02193756
12	0x31e7de9b	6.748292e-09
13	0xb0a3dfd9	-1.1923432e-09
14	0xbc9a6778	-0.018848166
15	0xb20c464b	-8.165055e-09
16	0xbc8cde67	-0.017195893
17	0xbc87d9b1	-0.016583296
18	0xbc773eda	-0.015090669
19	0x316d3a02	3.4521013e-09
20	0x2f84bc4a	2.4144448e-10
21	0xba639e53	-0.0008682955
22	0x3ca0a2d7	0.019608898
23	0xbc8015ef	-0.015635459
24	0x3cbceff5	0.02306364
25	0xbc955b20	-0.018231928
26	0xb7084d2a	-8.124198e-06
27	0x3c9c7ccd	0.019102478
28	0xbc74c84b	-0.014940332
29	0x3c93d641	0.0180465
30	0xbbd7ad7b	-0.00658196
31	0x3c01971c	0.007909562
32	0x1bd512c3	3.5250019e-22
33	0x3c94c38b	0.018159648
34	0x3c87cc83	0.016577011
35	0x3cc35549	0.023844378
36	0x3cafb49a	0.021448422
37	0xb8a9fc14	-8.105501e-05
38	0xba09aff1	-0.00052523526
39	0xbc6ed07a	-0.014576072
40	0xbcac7e28	-0.02105625
41	0x2539edd7	1.6126775e-16
42	0xbc4f8e71	-0.012668238
43	0x3ca87d74	0.020567633
44	0xbc58e0d9	-0.013237202
45	0xaa160d08	-1.3327197e-13
46	0x3c8f9b17	0.017530007
47	0xbc8710db	-0.01648753
48	0xaabd9fb5	-3.3683963e-13
49	0x3c401108	0.011722811
50	0xbca99947	-0.020702971
51	0xaaafb20c	-3.120979e-13
52	0xbc0f127c	-0.008732434
53	0xbc985b4f	-0.018598227
54	0xbc8efeac	-0.017455421
55	0xbc5ea8bd	-0.013590035
56	0x3425e592	1.545034e-07
57	0x085bc85d	6.613844e-34
58	0x2200f1a4	1.7475158e-18
59	0x3ca8ed81	0.020621063
60	0xbc97262e	-0.018450823
61	0x9eb53f8c	-1.9190403e-20
62	0x3beca172	0.007221394
63	0xb855f280	-5.1009003e-05
64	0x3ca1dec0	0.019759536
65	0x3cc506b2	0.024051044
66	0xaedc9826	-1.0031469e-10
67	0x3b9407dc	0.0045175385
68	0x3c9ba77f	0.019000767
69	0x3c93c6d6	0.018039148
70	0x3ca39e19	0.019972848
71	0x3c926e11	0.01787475
72	0xbc935db7	-0.017989023
73	0x3c876789	0.016528862
74	0xbca6ad4e	-0.02034631
75	0xbca66c4e	-0.020315316
76	0x3c963ed0	0.018340498
77	0x3c7b4366	0.015335893
78	0x3c95df3d	0.018294925
79	0xbc501a3f	-0.01270157
80	0x3c8e7406	0.017389309
81	0x3c8cdc47	0.01719488
82	0x9ba7b44b	-2.7744344e-22
83	0x34cd9a08	3.8296298e-07
84	0x3c337300	0.010952711
85	0x32574a79	1.253158e-08
86	0xbc98ea9e	-0.018666562
87	0xb96d7293	-0.00022644764
88	0xbc848156	-0.016174953
89	0xbbfc9779	-0.0077084866
90	0xbcaeca98	-0.021336839
91	0x1b06d8fb	1.115433e-22
92	0xbca5dadc	-0.020245962
93	0xbca95d61	-0.02067441
94	0x2b731134	8.6354817e-13
95	0xbc915e6d	-0.017745221
96	0xbc904abc	-0.017613761
97	0x2def65dc	2.7216389e-11
98	0xbc9e19e6	-0.019299459
99	0x225fcb50	3.0329768e-18
100	0x3ccee3f9	0.02525519
101	0xbc919926	-0.017773222
102	0x3ca1cbb5	0.019750455
103	0xac9c8ed9	-4.449646e-12
104	0x23465f3d	1.0753769e-17
105	0x3c9d278c	0.019183896
106	0x921280ca	-4.622822e-28
107	0x18a616e0	4.2933092e-24
108	0x3ca9d7e0	0.02073282
109	0x3c97d9c7	0.018536462
110	0x3c767319	0.01504209
111	0x3c64204c	0.013923716
112	0xbc9bd772	-0.01902363
113	0xbcb270eb	-0.02178236
114	0x3c8d8eb2	0.017279956
115	0x114d430a	1.6192307e-28
116	0x3cc10107	0.02356006
117	0x3c7d20d1	0.015449719
118	0xbc911061	-0.017708005
119	0x3caddb7c	0.021222822
120	0x9f83e288	-5.585542e-20
121	0x3c4e5698	0.012593888
122	0xb83ce424	-4.5035165e-05
123	0xbca23517	-0.019800706
124	0x2a01d6a7	1.1531974e-13
125	0x3ca896ca	0.020579714
126	0xbc4ee6f7	-0.0126283085
127	0x3cb9c45e	0.022676643

network_body._body_endoder.seq_layers.2.weight f4 [128, 128]
0	0x3e4a088d	0.19729824
1	0x3dbce616	0.09223573
2	0x3d9fc324	0.07800892
3	0xbdf9a111	-0.12188924
4	0xbd912f30	-0.070890784
5	0xbd5e98c2	-0.0543449
6	0x3d9a48ac	0.07533392
7	0xbd78716c	-0.060655043
8	0x3cb7629f	0.022385893
9	0xbe28c637	-0.16481863
10	0x3d1ed114	0.03877361
11	0xbd22959e	-0.039693467
12	0xbddecf53	-0.10879388
13	0xbdb1e96c	-0.086871
14	0xbe1905e7	-0.14943658
15	0x3c262221	0.010139973
16	0xbe0224f2	-0.12709406
17	0xbd0e96bc	-0.03481172
18	0xbe1f1712	-0.15536144
19	0x3e0a02a0	0.13477564
20	0x3d123ecb	0.035704415
21	0xbcb2e31e	-0.021836814
22	0xbd9f2677	-0.077710085
23	0xbe1cd583	-0.15315823
24	0x3d0a700f	0.033798274
25	0x3d8eadd2	0.06966747
26	0x3da38e8f	0.07986175
27	0xbdcd34c7	-0.10019832
28	0xbce748f7	-0.028233035
29	0x3e108299	0.14112319
30	0xbd910367	-0.07080727
31	0x3c97ca6d	0.018529141
32	0x3da0132d	0.078161575
33	0x3dfef46e	0.12448965
34	0x39ad85f1	0.00033096925
35	0xbd75e8cb	-0.06003646
36	0xbc9fbd89	-0.019499557
37	0xbb6ac977	-0.0035825649
38	0xbdb7a5a9	-0.08967144
39	0x3e09166c	0.1338746
40	0x3de54455	0.11194674
41	0xbce7c396	-0.028291505
42	0x3c6073c0	0.013699472
43	0xbd7e781f	-0.062126275
44	0x3d675959	0.056481693
45	0xbdb12a63	-0.08650663
46	0x3d9e3cee	0.07726465
47	0x3e288d56	0.16460165
48	0x3dca022e	0.09863697
49	0x3e240525	0.16017587
50	0xbd4c00a6	-0.049805306
51	0xbdf9f76a	-0.122053936
52	0x3de44260	0.111454725
53	0x3d155339	0.03645632
54	0x3e1418d7	0.144626
55	0x3d8bd6e8	0.068280995
56	0x3d9e25c9	0.07722051
57	0xbca46f68	-0.020072654
58	0xbe2364b4	-0.15956384
59	0xbd63c9cd	-0.055612374
60	0x3ddf3cb7	0.10900252
61	0x3dddec96	0.10836141
62	0x3ca03443	0.01955617
63	0x3d602c07	0.054729488
64	0x3d963fc8	0.07336384
65	0x3c401dcd	0.011725855
66	0xbdafb93c	-0.085802525
67	0x3d25c2ba	0.04046891
68	0xbe212320	-0.15736055
69	0x3de52dcc	0.11190376
70	0x3bb867c5	0.0056276047
71	0xbd569311	-0.052386347
72	0xbd7673ca	-0.06016902
73	0xbdd345c9	-0.10316045
74	0x3add2423	0.0016871731
75	0x3cc0698a	0.023487825
76	0xbc119379	-0.008885258
77	0xbc14a9f3	-0.009073722
78	0x3d689f53	0.05679257
79	0xbd582777	-0.05277201
80	0xbe67e2eb	-0.22645156
81	0x3d369b5f	0.044581767
82	0x3e017c2c	0.12645024
83	0x3dcfb624	0.101421624
84	0x3c8c3708	0.017116085
85	0x3dbe80aa	0.093018845
86	0xbc8d2710	-0.01723054
87	0x3d75d0d4	0.060013607
88	0xbdae143a	-0.08499952
89	0x3db42659	0.08796377
90	0xbd751568	-0.059834868
91	0xbd369af0	-0.044581354
92	0x3deb98c4	0.11503747
93	0xbb358ea8	-0.0027703438
94	0x3dbc57df	0.091964476
95	0xbcdcfe37	-0.026976688
96	0x3db1d8ed	0.086839534
97	0xbc8953e9	-0.016763644
98	0xbdc9a46f	-0.09845816
99	0x3d72984f	0.059227284
100	0xbe60e792	-0.21963337
101	0x3d97f2b6	0.0741934
102	0xbd0ea938	-0.03482935
103	0x3da81583	0.08207228
104	0x3e0e0aef	0.13871358
105	0x3e0eb094	0.13934547
106	0x3d994c03	0.07485201
107	0x3dc1c2d1	0.094609864
108	0x3d84078a	0.064467505
109	0xbdefb583	-0.117045425
110	0xbdbb6865	-0.09150771
111	0xbcc695d3	-0.024241364
112	0xbc617edc	-0.013763156
113	0xbe86b611	-0.2631078
114	0xba3b9e28	-0.0007157051
115	0x3dcdd02c	0.10049471
116	0x3dbb8ab0	0.09157312
117	0xbd81e96e	-0.06343351
118	0x3b123494	0.002230917
119	0xbde0fb45	-0.10985426
120	0xbd8679e2	-0.06566216
121	0x3d96f8f1	0.073717006
122	0xbd5be071	-0.05368084
123	0xbd67d439	-0.056598876
124	0xbe1b1017	-0.15142857
125	0xbe22b1b7	-0.15888105
126	0xbdef01f6	-0.11670296
127	0x3ccfa82c	0.025348745
128	0xbe098676	-0.13430199
129	0xbcc729af	-0.024311868
130	0xbde665eb	-0.11249908
131	0x3dd5c54c	0.10438022
132	0x3dadcbdb	0.08486148
133	0xbd72015a	-0.05908332
134	0xbd59a2ac	-0.05313365
135	0x3dbd2b28	0.09236747
136	0x3d9f7b44	0.07787183
137	0xbcf869d7	-0.030323906
138	0xbd928f69	-0.071562596
139	0xbdfe2b16	-0.12410562
140	0xbe1b5c60	-0.15171957
141	0xbddbb41a	-0.10727711
142	0x3ce1b027	0.027549816
143	0xbd863182	-0.065524116
144	0x3de83561	0.11338306
145	0x3cd118f7	0.0255246
146	0xbd748fdd	-0.05970751
147	0xbd65978b	-0.056052726
148	0xbda31e87	-0.07964807
149	0x3ca001e0	0.019532144
150	0x3cc4393e	0.023953076
151	0xbde89028	-0.113556206
152	0x3dab82df	0.08374571
153	0xbdc98770	-0.09840286
154	0xbd01960d	-0.03163724
155	0xbd2d3be0	-0.04229343
156	0x3d49eff6	0.04930111
157	0x3cc6a282	0.024247412
158	0x3df74922	0.12074496
159	0xbd991d13	-0.074762486
160	0xbe03f422	-0.12886098
161	0xbd896e93	-0.067105435
162	0x3cfe18df	0.031017719
163	0xbd5a54c8	-0.05330351
164	0x3d61d2f0	0.055132806
165	0x3dbb5065	0.091461934
166	0x3db3a85b	0.08772346
167	0xbd0607a8	-0.032722145
168	0x3be735d7	0.0070559788
169	0xbc1e0d6b	-0.009646754
170	0x3d640a17	0.055673685
171	0x3c2305fe	0.009950159
172	0xbdedafc5	-0.11605791
173	0x3da1b240	0.078953266
174	0x3de1b0d1	0.11020053
175	0xbd800b71	-0.06252182
176	0xbe0e597b	-0.13901322
177	0xbdaabfdb	-0.08337375
178	0x3e0d65b0	0.13808322
179	0x3e0b2551	0.13588454
180	0xbe4c827d	-0.19971652
181	0xbc81ea9b	-0.015858939
182	0xbd90d2e8	-0.07071477
183	0x3cb793ec	0.022409402
184	0xbcfe6b40	-0.031057
185	0x3d6a425f	0.057192203
186	0xbd46d91a	-0.048546888
187	0x3de5f5ca	0.11228521
188	0xbd86d1f6	-0.065830156
189	0xbbb0c01f	-0.0053939964
190	0xbe04c93f	-0.12967394
191	0xbdc70897	-0.09718435
192	0x3d06640b	0.032810252
193	0xbd228841	-0.039680723
194	0x3dfc4355	0.1231753
195	0xbdbe6e8b	-0.09298428
196	0xbe1c3e46	-0.1525813
197	0xbd1d0f33	-0.038344573
198	0x3e0fa60a	0.14028183
199	0xbdc64a5e	-0.09682153
200	0xbd99cf43	-0.07510235
201	0xbdb58a8a	-0.08864315
202	0xbddc4703	-0.10755732
203	0x3e27f057	0.16400276
204	0x3dde4148	0.10852295
205	0x3d7df0f9	0.061997388
206	0x3e3c71b5	0.18402751
207	0xbd9da2e6	-0.07697086
208	0x3c28eba0	0.010310084
209	0xbd6f7e95	-0.058470327
210	0xbe154689	-0.14577688
211	0x3e0bba99	0.136454
212	0x3e0eb7bd	0.13937278
213	0x3e18da85	0.14927109
214	0x3b82f0ed	0.0039960057
215	0x3d450278	0.048098058
216	0x3dc30e0a	0.09524162
217	0xbcabcb23	-0.020970887
218	0xbde0b506	-0.109720275
219	0x3d4e08bd	0.050301302
220	0x3d3d8c24	0.046276227
221	0x3d95e181	0.07318402
222	0x3e088d5f	0.13335179
223	0x3dc8bdc5	0.09801821
224	0xbca67932	-0.020321462
225	0xbe10cd1e	-0.14140746
226	0x3e178877	0.14798151
227	0x3d036f79	0.03208873
228	0x3dd69c01	0.10478974
229	0xbcde7160	-0.02715367
230	0xbd93502b	-0.07193025
231	0xbe2d4e43	-0.16924386
232	0x3d85231a	0.06500836
233	0x3e7122b0	0.23548388
234	0xbd2b941a	-0.041889288
235	0x3d83db33	0.06438293
236	0xbddd74f4	-0.10813323
237	0xbdaa7cda	-0.08324595
238	0x3d362124	0.0444652
239	0x3e4318b7	0.19052397
240	0x3d1bf9bf	0.038079973
241	0x3d086cb0	0.033306777
242	0xbdba70ab	-0.09103521
243	0xbdf19afa	-0.117971376
244	0xbd4dc8bf	-0.050240275
245	0x3deac386	0.114630744
246	0x3d88d875	0.06681911
247	0xbdf1a861	-0.11799694
248	0x3d0ff538	0.03514597
249	0xb91d7e05	-0.00015019633
250	0xbc67417e	-0.014114736
251	0xbe29eccd	-0.16594239
252	0x3d89a74d	0.06721363
253	0x3ca4e639	0.02012931
254	0x3dffcca2	0.124902025
255	0xbd6a3d5e	-0.05718743

network_body._body_endoder.seq_layers.4.bias f4 [128]
0	0xbb0639b7	-0.0020481178
1	0x3ca279db	0.019833496
2	0xb5af362d	-1.3054283e-06
3	0x3c886348	0.016648903
4	0xbc9f9c6e	-0.019483771
5	0xaeaf9f32	-7.9863574e-11
6	0xafe679bc	-4.1923254e-10
7	0x2de60510	2.6150221e-11
8	0xbc6aef30	-0.014339253
9	0x3c9b6a0c	0.018971466
10	0x3ca6d3f9	0.020364748
11	0x3c96cb32	0.018407438
12	0x2a173504	1.3429888e-13
13	0xbc9032eb	-0.017602405
14	0x3cc9ed0f	0.024649171
15	0xbc8cf7d6	-0.017208021
16	0xbc4dfade	-0.012572018
17	0xbc81af3e	-0.015830632
18	0x3ca14370	0.019685477
19	0xbc93b92e	-0.018032636
20	0xbc9371d2	-0.01799861
21	0xbc92d6ef	-0.017924754
22	0xbc827f18	-0.015929744
23	0x3ca3d26c	0.019997798
24	0x34178fdd	1.4115308e-07
25	0x3c937f5c	0.018005066
26	0x3ca58f24	0.020209856
27	0xbca3c98a	-0.019993562
28	0xbc892515	-0.016741315
29	0xbc7c405b	-0.015396203
30	0x2f67ffe9	2.1100245e-10
31	0xbcb3110d	-0.021858716
32	0x3c95a649	0.018267768
33	0x37f8a599	2.9641016e-05
34	0xa6561ac0	-7.428242e-16
35	0xbc856ddd	-0.016287738
36	0xa9571343	-4.7756297e-14
37	0x3c4da073	0.012550461
38	0xbb46523b	-0.0030261416
39	0xbc935371	-0.017984124
40	0xb5e5b4ae	-1.7114414e-06
41	0xbc773082	-0.015087249
42	0xb8e37a8e	-0.00010847031
43	0xbc92ab35	-0.017903903
44	0xbc968bab	-0.018377146
45	0xbc921895	-0.017833987
46	0x3c9052a7	0.017617537
47	0xab1f4c19	-5.6593754e-13
48	0x3cceb57b	0.025233021
49	0xbc944b82	-0.018102411
50	0x3236012f	1.0594063e-08
51	0x3cb219da	0.021740843
52	0xa8812678	-1.433856e-14
53	0xbc9b47d0	-0.018955141
54	0xbc823c68	-0.015897945
55	0x3c9b6441	0.018968703
56	0xbc9dded2	-0.019271288
57	0xbb4bd289	-0.003110083
58	0xbc932043	-0.01795972
59	0xbc8abcc8	-0.016935721
60	0x3c9a5a0c	0.018841766
61	0xbcac1d0b	-0.021009943
62	0x1aa79252	6.9305974e-23
63	0xb1c726b6	-5.796063e-09
64	0xbcbc3754	-0.022975601
65	0x3c0c4aaa	0.008562723
66	0xbca06a38	-0.019581899
67	0x3ca23f68	0.019805625
68	0x366d9747	3.5403807e-06
69	0x2c67d760	3.2946632e-12
70	0x3c173c20	0.0092306435
71	0xbc9308a6	-0.01794846
72	0xb50e9f1d	-5.313066e-07
73	0x36697f04	3.4793638e-06
74	0xbc8f2103	-0.017471796
75	0x1a9ddff8	6.529552e-23
76	0xbcad41ac	-0.021149479
77	0x3ccea791	0.025226386
78	0x3ca84bc3	0.020543939
79	0x38fee91c	0.00012155084
80	0x3ca38b70	0.01996395
81	0xb15d65de	-3.2217637e-09
82	0xb8951497	-7.108709e-05
83	0xb8a3016f	-7.772713e-05
84	0xbc89337e	-0.016748186
85	0xbc913d67	-0.017729474
86	0xbca66021	-0.02030951
87	0xaf878df5	-2.4657223e-10
88	0x3c964324	0.018342562
89	0x3cad8962	0.021183673
90	0xbc88d08d	-0.016701007
91	0x318e6127	4.143789e-09
92	0xbc97029e	-0.018433865
93	0xbca77f65	-0.020446489
94	0xbc93b4e1	-0.018030586
95	0x3ca5111d	0.020149762
96	0xaa38e74e	-1.6422733e-13
97	0x30f26c14	1.7638535e-09
98	0x3c817d5b	0.015806844
99	0xbc923b7c	-0.01785063
100	0xbb2f1761	-0.0026716816
101	0xbc954696	-0.018222135
102	0x3916f9fa	0.00014398238
103	0x3c9c8984	0.019108541
104	0x3c91a772	0.01778004
105	0xa0823543	-2.2058102e-19
106	0x3cb55b40	0.022138238
107	0xbcaa5485	-0.020792255
108	0x3c5c751f	0.013455658
109	0xbc96d6ba	-0.018412936
110	0x318f964f	4.178936e-09
111	0xb03cc111	-6.8668365e-10
112	0xb23a6f2e	-1.0851904e-08
113	0x3ca04403	0.01956368
114	0xbc2e9a2b	-0.010656874
115	0xb66b8b04	-3.5098647e-06
116	0x3c98f36c	0.01867076
117	0x3c89dd7a	0.016829241
118	0x3c919c60	0.01777476
119	0x3c6059c7	0.01369328
120	0x9b6130a1	-1.8627277e-22
121	0xbc935860	-0.017986476
122	0x3c94e6bb	0.018176427
123	0xbc80d0aa	-0.015724499
124	0xbccb36ae	-0.024806347
125	0xbc85820c	-0.016297363
126	0x3ccd5b97	0.025068088
127	0xbc7a64e3	-0.015282842

network_body._body_endoder.seq_layers.4.weight f4 [128, 128]
0	0xbce6fb86	-0.028196108
1	0xbc14f443	-0.00909144
2	0xbd6fbd54	-0.058530167
3	0xbdf405a0	-0.119151354
4	0x3c8118be	0.015758868
5	0xbdc09f91	-0.09405435
6	0x3dcbb241	0.099461086
7	0xbd70f065	-0.058823008
8	0x3c4ec22a	0.0126195345
9	0xbde01bfb	-0.10942837
10	0x3e05d9a7	0.13071309
11	0xbdabb1e8	-0.08383542
12	0xbd7b2690	-0.061316073
13	0x3c9c369a	0.019069005
14	0xbd95f7db	-0.07322665
15	0xbd9190a8	-0.07107669
16	0xbc9c30b4	-0.019066192
17	0x3d9b48fc	0.0758228
18	0x3d2b8e17	0.041883554
19	0xbd14cdcb	-0.036329072
20	0xbe1fac21	-0.15593006
21	0x3c8f0268	0.017457202
22	0x389ebacd	7.5688215e-05
23	0xbbda3f0f	-0.006660349
24	0x3e0fc8b5	0.14041407
25	0x3cfdeb41	0.030995967
26	0x3cafcf71	0.02146122
27	0x3db6c0be	0.089234814
28	0x3dfc7d44	0.1232858
29	0xbdb8c419	-0.09021778
30	0xbe30284f	-0.17202877
31	0x3d760042	0.06005884
32	0x3dda256b	0.10651668
33	0x3ce419de	0.027844366
34	0x3a9fb852	0.0012185669
35	0x3d4c8288	0.04992917
36	0xbc91e399	-0.017808722
37	0x3dab20e6	0.08355884
38	0xbdaa453d	-0.083139874
39	0xbe8a650a	-0.27030212
40	0x3cb30496	0.021852773
41	0xbd167ae2	-0.036738284
42	0x3dc2126f	0.09476172
43	0x3e1f6a98	0.15568006
44	0xbdef53f6	-0.11685936
45	0xbdcca142	-0.09991695
46	0xbdc6e0e8	-0.09710866
47	0xbdb5f518	-0.088846385
48	0x3d870230	0.06592214
49	0xbe4a0fdf	-0.19732617
50	0x3c1efdc9	0.009704062
51	0x3da8fed0	0.082517266
52	0x3e33a0d5	0.17541821
53	0xbd8d2488	-0.068917334
54	0xbcd10a94	-0.02551774
55	0xbdb0ec88	-0.08638865
56	0xbba1344d	-0.004919565
57	0x3e0428b7	0.12906156
58	0xbd037b6e	-0.032100134
59	0xbe152c8e	-0.14567778
60	0xbdbe287a	-0.09285064
61	0x3d155e23	0.03646673
62	0xbd0c53df	-0.034259673
63	0xbd370252	-0.044679947
64	0xbdea9a49	-0.11455209
65	0xbdf5f0aa	-0.12008794
66	0xbd1a76c1	-0.03771091
67	0x3bb67d50	0.0055691376
68	0xbd0290da	-0.031876422
69	0xbe229ca3	-0.15880065
70	0x3c13fe23	0.009032759
71	0x3cedb3f3	0.02901647
72	0x3da48967	0.0803402
73	0xbd8ed62c	-0.06974444
74	0xbdbd01cb	-0.092288576
75	0x3d89cd41	0.06728602
76	0xbd78aea1	-0.060713414
77	0x3a0e2967	0.00054230395
78	0xbe584fd0	-0.21124196
79	0xbd0c587c	-0.034264073
80	0xbbb53de7	-0.005531061
81	0xbcc97562	-0.024592105
82	0x3de3fb11	0.111318715
83	0xbe0b8b8b	-0.1362745
84	0x3df147a0	0.117812395
85	0x3e01cd92	0.12676075
86	0xbde72327	-0.11286002
87	0x3d8247ee	0.06361376
88	0xbe52e232	-0.20594099
89	0x3e0a0969	0.13480152
90	0xbd8a46f1	-0.06751812
91	0xbd26d032	-0.040725894
92	0x3ccaa697	0.02473764
93	0xbc4f08bf	-0.012636363
94	0x3cd1952c	0.025583826
95	0x3b8df65a	0.004332346
96	0x3d96987a	0.07353301
97	0x3db06abc	0.08614108
98	0xbd9dff1a	-0.077146724
99	0x3c11cad9	0.00889846
100	0xbd8fb210	-0.070163846
101	0xbc8e52ad	-0.017373407
102	0xbba257d2	-0.0049543167
103	0x39f235aa	0.0004619782
104	0xbe13d985	-0.14438446
105	0xbd7430d4	-0.05961688
106	0xbd7f4840	-0.062324762
107	0xbd4cf9d7	-0.050042953
108	0xbbfeaf7c	-0.007772384
109	0x3dd71d2f	0.10503613
110	0x3bce496c	0.0062953737
111	0xbc551408	-0.013005264
112	0xbd2d49c7	-0.042306688
113	0x3dcce3cf	0.100043885
114	0x3d879972	0.06621064
115	0xbc43b1ae	-0.011944218
116	0x3bc1a8ec	0.0059100296
117	0x3dca682e	0.09883152
118	0xbd2a8676	-0.04163214
119	0xbd14a1c7	-0.036287095
120	0x3dcca6db	0.09992763
121	0xbbe95adc	-0.007121427
122	0x3c68afc2	0.01420206
123	0xbd0f528d	-0.034990836
124	0x3ca6a88e	0.020344045
125	0x3d7a46aa	0.061102547
126	0xbdc6c9b2	-0.09706439
127	0x3e0b7866	0.13620147
128	0x3d070f47	0.032973554
129	0x3dc723fc	0.0972366
130	0x3dc118d9	0.094285674
131	0x3df24888	0.118302405
132	0xbcfd918d	-0.030953193
133	0x3d5b4660	0.05353391
134	0x3d46e845	0.048561353
135	0xbc9db4c1	-0.01925123
136	0xbb573344	-0.0032836953
137	0x3d885275	0.066563524
138	0x3c90c8e1	0.017673912
139	0xba87efc2	-0.0010371136
140	0x3d42094d	0.04737215
141	0x3da89510	0.082315564
142	0x3e1f652b	0.15565936
143	0xbdf0c330	-0.11755979
144	0xbdfd839e	-0.123786196
145	0x3d5fbee7	0.054625418
146	0x3d1ba27c	0.037996754
147	0xbd8f4ed9	-0.06997461
148	0xbdb4da5d	-0.08830712
149	0xbd59ee2b	-0.05320565
150	0x3dce6500	0.10077858
151	0xbdcf5e41	-0.101253994
152	0xbda5c882	-0.080948845
153	0x3d1a960f	0.037740763
154	0xbc53bb81	-0.012923122
155	0x3e046555	0.1292928
156	0xbcf33d20	-0.029692233
157	0x3dbf8bbe	0.093528256
158	0xbd693ea5	-0.056944508
159	0x3df00aa7	0.11720782
160	0xbe8e8aa0	-0.27840137
161	0xbb359ba3	-0.0027711175
162	0x3d924e70	0.07143867
163	0x3d323d2c	0.04351537
164	0x3dc8938c	0.09793767
165	0x3c796a00	0.015223026
166	0xbd054cdd	-0.032544006
167	0xbd4937be	-0.049125426
168	0xbd3a004a	-0.045410432
169	0x3e0bce4c	0.13652915
170	0x3d03c7ca	0.032172956
171	0xbd9f6fde	-0.07785009
172	0xbd58ff11	-0.052977625
173	0xbd8593ae	-0.06522308
174	0x3d1addd2	0.0378092
175	0xbde5479a	-0.111952975
176	0xbe288a06	-0.16458902
177	0x3dc224c6	0.0947967
178	0xbdcd5741	-0.10026408
179	0xbcaa58de	-0.020794328
180	0x3e2f9661	0.17147209
181	0xbd4db37d	-0.05022
182	0xbd03ad1a	-0.032147504
183	0x3d6b51d0	0.05745107
184	0x397050aa	0.00022918233
185	0xbd81afc7	-0.06332355
186	0x3df25162	0.11831929
187	0x3d4e1b6c	0.05031912
188	0x3e1aa804	0.15103155
189	0x3d492981	0.049111847
190	0xbca59782	-0.020213846
191	0x3d8356f3	0.064130686
192	0xbdfc5f99	-0.12322921
193	0x3da9e76a	0.08296092
194	0xbc94b1fc	-0.018151276
195	0xbd9e766c	-0.07737431
196	0x3b96358d	0.0045840205
197	0x3e23ce66	0.15996704
198	0xbcfde73a	-0.030994046
199	0x3d33ac96	0.043865763
200	0xbd3ca3da	-0.0460547
201	0x3d5e5242	0.054277666
202	0x3db835bb	0.08994623
203	0x3d9a9076	0.07547085
204	0x3daf5bcc	0.08562431
205	0xbd9f5ed0	-0.07781756
206	0xbd766ca2	-0.060162194
207	0x3d90993f	0.070604794
208	0x3d1b9b24	0.03798975
209	0xbdb382bb	-0.08765169
210	0xbd357472	-0.044300504
211	0xbd46e8d8	-0.0485619
212	0x3d8cbddc	0.0687215
213	0xbd92fd81	-0.07177258
214	0xbd6a70d8	-0.057236522
215	0xbd89b0eb	-0.067231975
216	0xbe580a89	-0.21097769
217	0xbd3289eb	-0.04358856
218	0x3d5fd227	0.054643776
219	0xbd7e0821	-0.06201947
220	0xbda7bfa1	-0.08190847
221	0x3dc1a40d	0.09455118
222	0xbd716334	-0.058932498
223	0xbd006631	-0.031347457
224	0xbe1201d2	-0.14258507
225	0xbe28cf22	-0.16485265
226	0x3c2f57d9	0.010702097
227	0xbdeafa27	-0.11473494
228	0xbd2a8675	-0.041632134
229	0x3de69b61	0.11260105
230	0x3d100fd8	0.03517136
231	0xbca87ece	-0.020568278
232	0x3d52e35f	0.05148637
233	0x3e0f8272	0.14014605
234	0xbca33853	-0.019924318
235	0xbdf98b34	-0.12184754
236	0xbdbf3a2f	-0.093372695
237	0x3b59901c	0.0033197468
238	0xbc455067	-0.012043095
239	0x3e55e169	0.20886768
240	0xbccb8957	-0.024845762
241	0xbd4eb178	-0.050462216
242	0x3e4da199	0.20081176
243	0xbd907819	-0.07054157
244	0xbcc60824	-0.024173804
245	0x3caf3ee0	0.021392286
246	0xbbfca69a	-0.00771029
247	0x3e29fd6f	0.16600583
248	0x3db6ba6d	0.08922277
249	0x3d48dd0d	0.049038935
250	0x3d54bca7	0.051937725
251	0xbd163345	-0.03666999
252	0x3dc368a6	0.095414445
253	0x3da5a4ec	0.08088097
254	0xbe1ded9b	-0.1542267
255	0x3c0a0260	0.008423418
