results/Barcelona/MoveSomewhere/MoveSomewhere-2999969.onnx (onnx, 173682 bytes, 11 tensors)

action_model._discrete_distribution.branches.0.bias f4 [3]
0.05409251 -0.04157254 -0.012786138
00000000: 1c90 5d3d f847 2abd f37c 51bc

action_model._discrete_distribution.branches.0.weight f4 [3, 128]
0.02072937 0.13503817 -0.105842724 -0.038881745 0.04056999 0.016528219 0.05036405 0.13889787
0.010355094 0.1244336 0.11146587 -0.0065029636 -0.024976602 0.17718463 0.020256009 0.06860924
-0.042348407 -0.07341445 -0.04357008 -0.1736879 0.03995046 0.009488089 -0.025414757 -0.098335996
-0.014956586 0.0069902395 0.059743796 -0.01175928 -0.011361514 0.05464502 0.059077345 0.08762352
0.068492346 -0.12137388 0.10438594 0.024630757 0.060954604 0.06393368 0.11861829 0.11029467
-0.095057964 0.06089657 -0.004389791 0.14016813 0.020451812 -0.034396287 -0.02831375 -0.030152421
-0.029187944 0.021210007 -0.04737284 0.020805221 -0.05769393 -0.0661504 -0.021121353 -0.017715598
-0.012515565 0.043361854 0.015477743 -0.007286651 -0.012879527 0.035526402 -0.037545968 0.042281654
-0.1221945 0.079713844 -0.012663444 -0.018368166 0.045616966 -0.055432077 0.07588988 0.0033732082
0.029600937 0.03067366 -0.04146012 -0.079387724 0.09443381 -0.021384878 -0.043959223 0.038524408
0.0021722796 0.23355514 0.05534922 0.058577977 0.12830812 -0.02646145 0.008855017 0.0012006158
0.010304566 0.11394006 -0.013379369 0.011950623 -0.0778052 0.024884308 -0.02684263 -0.092886396
-0.012374143 -0.065026954 -0.093015864 0.1632999 -0.1716947 0.13704628 0.039406147 0.0023133396
0.16822161 -0.011554395 0.069057375 -0.03028702 -0.03505552 0.04509946 0.13226496 -0.007846966
0.12556025 0.025291925 0.04211602 -0.04192807 0.21509445 -0.10551028 -0.008564856 0.14692803
0.0635417 0.022764735 -0.11790198 0.008933017 0.0039102943 -0.004443255 0.02048587 -0.05009114
-0.026776059 0.036206316 -0.039556928 -0.019248176 0.021325214 0.0022302396 -0.12138687 -0.10547063
0.04881129 -0.030594986 -0.053642303 -0.05273205 9.346014e-05 -0.106451206 -0.1177209 -0.054003865
-0.027164718 -0.11302141 0.011512511 0.011355452 -0.051096074 0.16715713 -0.08360373 0.017449362
0.041060526 0.13492207 -0.0632975 -0.021401567 0.01914778 0.07253719 0.006302657 -0.008159698
0.06679424 0.11065003 -0.112836346 -0.1687162 0.034232922 -0.1386249 -0.08373022 -0.10950633
0.07689984 -0.17627448 -0.025248505 -0.08501898 0.052641373 0.05747965 0.104532406 0.15644191
-0.1239374 0.0025837314 -0.12539175 -0.08469974 -0.071957126 0.109495014 -0.023471855 -0.08989322
0.018296119 -0.010949853 -0.11642341 0.063503325 0.07670366 -0.102872506 -0.10517874 -0.09918726
-0.089790694 -0.17236024 0.02542084 -0.02291943 0.0451903 0.038896024 0.079525635 -0.09161445
-0.16019154 -0.13124526 0.103778385 -0.112876974 -0.17891495 0.1075254 0.033191517 0.061114695
-0.107124895 -0.108094506 0.04375407 -0.05173269 -0.12175778 0.025295904 -0.09439871 0.16333607
-0.020538345 0.07365017 0.015739452 -0.06214968 0.0541332 -0.109854154 0.10900586 0.10967112
0.01096555 0.11530861 0.0964213 -0.25910524 0.19126298 -0.016706713 0.10356027 0.18305361
-0.1560889 0.005921641 -0.03795467 0.019879311 0.1356949 0.092662826 0.010928672 0.012599655
-0.11182435 -0.11388666 0.07466534 0.062516816 -0.21610256 0.066031076 -0.10777292 -0.03692033
0.04847192 0.017553225 -0.08686925 0.12349555 -0.07689927 0.07987113 -0.101164296 0.06395832
00000000: a4d0 a93c 7247 0a3e 12c4 d8bd 7742 1fbd
00000010: b82c 263d 3066 873c 894a 4e3d 3e3b 0e3e
00000020: 6aa8 293c 0bd7 fe3d 3848 e43d d016 d5bb
00000030: bb9b ccbc e36f 353e eeef a53c 0083 8c3d
00000040: 8675 2dbd 515a 96bd 8a76 32bd 3edb 31be
00000050: 18a3 233d ee73 1b3c 9c32 d0bc 6264 c9bd
00000060: 780c 75bc 610e e53b e9b5 743d ffa9 40bc
00000070: a525 3abc 75d3 5f3d 16fb 713d f673 b33d
00000080: b745 8c3d de92 f8bd 4cc8 d53d 71c6 c93c
00000090: 89ab 793d a9ef 823d 25ee f23d 2ce2 e13d
000000a0: c0ad c2bd af6e 793d 3cd8 8fbb 3c88 0f3e
000000b0: 8f8a a73c 1fe3 0cbd 3df2 e7bc 3602 f7bc
000000c0: 8e1b efbc 9cc0 ad3c 060a 42bd b66f aa3c
000000d0: 7850 6cbd dc79 87bd b006 adbc 4d20 91bc
000000e0: 160e 4dbc 339c 313d 5c96 7d3c dcc4 eebb
000000f0: a704 53bc 2284 113d cdc9 19bd 872f 2d3d
00000100: 1c41 fabd 0341 a33d 557a 4fbc d678 96bc
00000110: dbd8 3a3d bf0c 63bd 276c 9b3d 0b11 5d3b
00000120: aa7d f23c 5447 fb3c 16d2 29bd 0896 a2bd
00000130: 8366 c13d 572f afbc 960e 34bd c5cb 1d3d
00000140: ce5c 0e3b 1429 6f3e ddb5 623d 76ef 6f3d
00000150: 3463 033e afc5 d8bc a214 113c fb5d 9d3a
00000160: 7bd4 283c 6859 e93d 2435 5bbc 8ccc 433c
00000170: 5558 9fbd 2dda cb3c 13e5 dbbc 393b bebd
00000180: ebbc 4abc da2c 85bd 1a7f bebd 1738 273e
00000190: bcd0 2fbe dc55 0c3e 5768 213d 669b 173b
000001a0: 4942 2c3e a54e 3dbc f46d 8d3d 7c1c f8bc
000001b0: 6096 0fbd 36ba 383d 7770 073e 9090 00bc
000001c0: de92 003e 0331 cf3c d981 2c3d c5bc 2bbd
000001d0: b841 5c3e c615 d8bd 9c53 0cbc 4d74 163e
000001e0: 2722 823d 1c7d ba3c 9876 f1bd ca5b 123c
000001f0: ed21 803b b998 91bb fcd1 a73c 5e2c 4dbd
00000200: 7759 dbbc 134d 143d 7206 22bd 5aae 9dbc
00000210: 37b2 ae3c 3629 123b ae99 f8bd fc00 d8bd
00000220: 59ee 473d 56a2 fabc 08b8 5bbd 90fd 57bd
00000230: 0800 c438 1703 dabd a817 f1bd 2833 5dbd
00000240: 8b88 debc c577 e7bd f99e 3c3c 380c 3a3c
00000250: 1e4a 51bd 3d2b 2b3e 6f38 abbd f7f1 8e3c
00000260: 152f 283d 0329 0a3e 1fa2 81bd 5752 afbc
00000270: cedb 9c3c 618e 943d 8586 ce3b 41b0 05bc
00000280: 6bcb 883d 7c9c e23d be16 e7bd f1c3 2cbe
00000290: d237 0c3d b0f3 0dbe c07a abbd db44 e0bd
000002a0: aa7d 9d3d 4c81 34be f4d5 cebc 6e1e aebd
000002b0: 7b9e 573d c86f 6b3d 1615 d63d 4f32 203e
000002c0: e4d2 fdbd d253 293b b266 00be 0f77 adbd
000002d0: 425e 93bd ec3e e03d 0c48 c0bc f019 b8bd
000002e0: bee1 953c 0367 33bc 666f eebd 080e 823d
000002f0: cf16 9d3d d2ae d2bd f467 d7bd b122 cbbd
00000300: 2fe4 b7bd 347f 30be 5e3f d03c 87c1 bbbc
00000310: 7719 393d 7051 1f3d 56de a23d 5ba0 bbbd
00000320: 4009 24be 2865 06be c389 d43d 0b2c e7bd
00000330: 7b35 37be 4736 dc3d d4f3 073d 6753 7a3d
00000340: 4c64 dbbd a760 ddbd 7837 333d a8e5 53bd
00000350: 255c f9bd 5b39 cf3c 1c54 c1bd 9241 273e
00000360: 0840 a8bc e6d5 963d 06f0 803c aa90 7ebd
00000370: c6ba 5d3d 37fb e0bd 773e df3d 419b e03d
00000380: daa8 333c ec26 ec3d 8878 c53d 71a9 84be
00000390: 71da 433e 84dc 88bc 6817 d43d 6872 3b3e
000003a0: c5d5 1fbe 530a c23b 5b76 1bbd f0d9 a23c
000003b0: 9bf3 0a3e 02c6 bd3d 2c0e 333c c96e 4e3c
000003c0: 2a04 e5bd 693d e9bd 24ea 983d d108 803d
000003d0: fd49 5dbe 4d3b 873d 0cb8 dcbd c639 17bd
000003e0: 7e8a 463d c8cb 8f3c 81e8 b1bd 3ceb fc3d
000003f0: 5d7d 9dbd 7a93 a33d 3a2f cfbd 94fc 823d

action_model._discrete_distribution.branches.1.bias f4 [3]
0.13198103 0.10850144 -0.21457346
00000000: 0926 073e 0136 de3d 25b9 5bbe

action_model._discrete_distribution.branches.1.weight f4 [3, 128]
0.030599557 0.0013286376 0.0009574688 0.07967016 -0.01379422 -0.10350747 -0.013456248 0.07131511
0.06641726 0.053248063 0.0069882395 -0.0068710092 0.111127086 -0.02471841 0.021895064 -0.0880729
0.012993393 0.004758081 0.057481118 0.09939647 0.052026242 0.09746381 0.0057979356 0.03626582
-0.045873825 0.096355245 -0.024269495 -0.009496683 -0.05583373 -0.06397644 9.2794086e-05 -0.05038182
-0.051190447 0.007979222 -0.13432576 0.0036431472 0.063730545 0.11458444 -0.05221413 -0.034832817
-0.026904725 0.00016698083 -0.0012147037 0.0118674105 -0.09767022 -0.05906791 -0.115438126 0.0094751995
-0.084768444 -0.15958236 0.08262438 -0.090166874 0.031865027 0.03189742 -0.012477022 -0.12492341
0.11511054 0.042440027 -0.07819812 0.12744446 0.022363765 0.03437353 -0.08329214 -0.005792291
-0.017972365 -0.018082015 0.05416348 -0.0010535074 0.015791673 -0.035798103 0.041204594 -0.11372569
0.022981564 -0.04271601 -0.042793054 -0.077219315 0.049748126 -0.056145515 0.038911927 -0.022626601
-0.060286045 -0.0713892 -0.036377784 -0.03297451 -0.07199984 -0.1520935 -0.12928075 -0.03018993
0.044763383 -0.045357388 0.0899514 0.07161291 -0.02026738 -0.019782461 0.021817198 0.060912285
-0.027885366 0.0030419007 0.011087553 -0.08242385 0.08303114 0.082350045 0.03463396 0.0072124004
-0.05791829 0.06433894 0.07758545 0.04501134 -0.0374969 -0.00022612199 0.16782586 0.10279835
0.026190236 -0.037611343 0.03361656 0.080026366 0.03888601 0.12414702 0.092835456 0.028263675
0.019409664 0.021042673 0.10643705 -0.02023413 0.036863383 -0.010135973 -0.20805293 0.048680726
-0.16758767 -0.0032309266 -0.020524653 -0.099415764 0.026685093 0.05278011 -0.08446908 -0.02731021
-0.10199599 0.100101165 -0.060951203 0.17290872 -0.31938645 0.028821457 0.047419623 -0.008748047
-0.063772626 -0.08873788 -0.09805856 0.006781612 -0.04603845 -0.11917921 -0.038496297 0.061797705
0.035008725 -0.04278592 0.04529126 -0.016156893 0.039632287 0.16456239 0.039354067 0.05543548
0.046760693 -0.028792486 0.060865775 0.0889645 0.04405833 -0.032338902 0.054931734 0.037950978
-0.021051649 0.170467 -0.03722108 -0.00033180232 0.10456784 0.024204498 0.07995689 0.05584244
-0.02970842 0.29766357 -0.0816735 0.021673622 -0.08391092 -0.04289397 -0.017119087 -0.09454642
-0.14364895 -0.0375558 -0.2414882 -0.07048411 -0.057459548 -0.062816896 0.05943292 -0.042090118
0.04441619 0.01215811 -0.0040690876 0.022112295 0.006769838 0.02760247 0.053800046 -0.06801731
0.022759652 -0.110899165 -0.044587303 0.08380155 -0.009131501 -0.0015806629 -0.0361471 0.008002574
-0.06963648 0.067351334 0.046639085 -0.02086738 -0.00064517354 0.034627747 -0.23035866 -0.068128064
-0.11692326 0.14138083 -0.10651905 -0.23229173 -0.0023878282 -0.056231126 -0.0017194229 -0.12140673
0.022723703 -0.04846567 -0.27416676 0.05912278 -0.1873495 0.011939867 0.082795374 0.010190481
0.05326589 -0.13742222 -0.05819021 -0.17561908 -0.005438775 0.020574344 -0.097219825 -0.16666442
-0.030961988 -0.0041270503 0.004594231 -0.037014876 -0.052390385 -0.041607045 -0.12565903 -0.01625225
-0.022843275 -0.035271533 -0.11363207 0.020849057 -0.04271743 -0.14109078 0.21699108 -0.06390718
00000000: ecab fa3c ae25 ae3a a5fe 7a3a 1c2a a33d
00000010: 2701 62bc b9fb d3bd 9877 5cbc a80d 923d
00000020: c605 883d a41a 5a3d 9afd e43b 3426 e1bb
00000030: 9996 e33d 437e cabc 475d b33c 915f b4bd
00000040: 3de2 543c ade9 9b3b 5271 6b3d 6090 cb3d
00000050: 7819 553d 1b9b c73d 9cfc bd3b 788b 143d
00000060: 31e6 3bbd e655 c53d d2d0 c6bc fa97 1bbc
00000070: e9b1 64bd 1406 83bd 729a c238 2b5d 4ebd
00000080: 13ad 51bd 48bb 023c b18c 09be dec1 6e3b
00000090: 2985 823d 3fab ea3d 7cde 55bd dbac 0ebd
000000a0: 4c67 dcbc 9317 2f39 b136 9fba 876f 423c
000000b0: 5307 c8bd 31f1 71bd d36a ecbd de3d 1b3c
000000c0: 149b adbd 8f69 23be f936 a93d 69a9 b8bd
000000d0: e784 023d dea6 023d 6c6c 4cbc d8d7 ffbd
000000e0: 13bf eb3d 98d5 2d3d 5626 a0bd cd80 023e
000000f0: 3734 b73c 42cb 0c3d 1295 aabd 42cd bdbb
00000100: c83a 93bc bc20 94bc 86da 5d3d d815 8aba
00000110: 8a5d 813c 08a1 12bd 26c6 283d 04e9 e8bd
00000120: d543 bc3c fcf6 2ebd c547 2fbd 2925 9ebd
00000130: b1c4 4b3d d7f8 65bd 1d62 1f3d 6c5b b9bc
00000140: 80ee 76bd 8034 92bd df00 15bd 4810 07bd
00000150: a774 93bd 66be 1bbe 2c62 04be df50 f7bc
00000160: cf59 373d abc8 39bd 7138 b83d caa9 923d
00000170: c707 a6bc d40e a2bc fbb9 b23c 297f 793d
00000180: da6f e4bc a05a 473b 91a8 353c d6cd a8bd
00000190: 3b0c aa3d 24a7 a83d 57dc 0d3d 0056 ec3b
000001a0: bb3b 6dbd 22c4 833d 1fe5 9e3d d05d 383d
000001b0: 5996 19bd 291b 6db9 8bda 2b3e f187 d23d
000001c0: e88c d63c 5a0e 1abd 85b1 093d dde4 a33d
000001d0: f046 1f3d cb40 fe3d 8420 be3d 3989 e73c
000001e0: 0401 9f3c af61 ac3c abfb d93d 0cc2 a5bc
000001f0: 0ffe 163d 5a11 26bc d40b 55be 7165 473d
00000200: 1a9c 2bbe f4bd 53bb 5123 a8bc 7e9a cbbd
00000210: b29a da3c f52f 583d 20fe acbd a9b9 dfbc
00000220: 46e3 d0bd d701 cd3d f8a7 79bd fc0e 313e
00000230: 9f86 a3be fa1a ec3c 143b 423d f853 0fbc
00000240: 399b 82bd 35bc b5bd edd2 c8bd 4938 de3b
00000250: d092 3cbd 3b14 f4bd 4bae 1dbd 971f 7d3d
00000260: 4f65 0f3d 4a40 2fbd 5483 393d 765b 84bc
00000270: 7755 223d 0b83 283e bb31 213d 5010 633d
00000280: 2488 3f3d 38de ebbc 644e 793d 0533 b63d
00000290: 8276 343d cc75 04bd 1900 613d 7c72 1b3d
000002a0: 8274 acbc e78e 2e3e 2275 18bd c1f5 adb9
000002b0: aa27 d63d 8348 c63c 70c0 a33d 0bbb 643d
000002c0: 135f f3bc 5c67 983e 7044 a7bd e18c b13c
000002d0: 7dd9 abbd 96b1 2fbd 543d 8cbc 8ea1 c1bd
000002e0: b618 13be 1cd4 19bd af48 77be f959 90bd
000002f0: b45a 6bbd 25a6 80bd ef6f 733d b066 2cbd
00000300: c0ed 353d cf32 473c fb55 85bb d824 b53c
00000310: 84d5 dd3b 931e e23c 705d 5c3d a94c 8bbd
00000320: 7372 ba3c 1a1f e3bd 2da1 36bd 26a0 ab3d
00000330: 4b9c 15bc 3f2e cfba fb0e 14bd 3a1d 033c
00000340: 929d 8ebd 7fef 893d a008 3f3d 11f2 aabc
00000350: dd20 29ba d3d5 0d3d 24e3 6bbe ba86 8bbd
00000360: 7675 efbd 23c6 103e a926 dabd e2dd 6dbe
00000370: 1c7d 1cbb 9c52 66bd 425e e1ba 17a4 f8bd
00000380: 0f27 ba3c f083 46bd 965f 8cbe ba2a 723d
00000390: 8cd8 3fbe 6f9f 433c 9f90 a93d faf5 263c
000003a0: 552d 5a3d 69b8 0cbe dc58 6ebd 7dd5 33be
000003b0: c037 b2bb 878b a83c 301b c7bd 14aa 2abe
000003c0: ffa3 fdbc 353c 87bb 348b 963b e99c 17bd
000003d0: 4d97 56bd 266c 2abd c3ac 00be 7023 85bc
000003e0: d221 bbbc e278 10bd eeb7 e8bd a4cb aa3c
000003f0: 79f8 2ebd 1a7a 10be e932 5e3e c5e1 82bd

discrete_action_output_shape f4 [1, 2]
3.0 3.0
00000000: 0000 4040 0000 4040

network_body._body_endoder.seq_layers.0.bias f4 [128]
-0.2886775 -0.20984644 -0.10938683 -0.04610542 -0.21081688 -0.06652813 -0.14152971 -0.14361042
-0.18888405 -0.16998474 -0.18491323 -0.030762518 -0.1601327 -0.09958126 -0.11510213 -0.2584056
-0.0506983 -0.10935229 0.020272432 -0.06780904 -0.12360801 -0.06833804 0.10943236 -0.1885952
-0.21298307 -0.07619248 -0.09699013 -0.16099584 -0.20548987 -0.21205713 -0.055404644 -0.15231279
-0.082939476 -0.2137761 0.007308915 -0.2089707 -0.16618215 -0.114963815 -0.085118644 -0.21928966
-0.056962788 -0.16193607 -0.03842261 -0.13907807 -0.21764332 -0.013660612 -0.014687277 -0.16986342
-0.16012204 -0.15622096 -0.06057631 -0.16613 -0.1301334 0.0111260805 0.03783716 -0.06493864
-0.12544903 -0.11978639 -0.15847094 -0.20577066 -0.17548552 -0.1516224 -0.10736804 -0.15436608
-0.09944684 -0.07990033 -0.17485063 -0.06805165 -0.17058322 -0.2629151 -0.14198647 -0.19404998
-0.11646898 -0.1987724 -0.16039218 0.024744364 -0.12426835 -0.15514015 -0.11544555 -0.16990493
-0.02809552 -0.03831307 -0.09193962 -0.17624387 -0.018282829 0.018581368 -0.2055089 -0.15791577
-0.16167834 -0.04966202 -0.13428064 -0.1464268 -0.19471076 -0.13478442 -0.107086435 -0.01988658
-0.105723724 -0.1752526 -0.15779097 -0.14779899 -0.16059776 -0.1508205 -0.20244741 -0.1565253
-0.10314646 -0.16974278 -0.113067865 -0.16476785 -0.08949844 -0.14768943 -0.1519112 -0.09854865
-0.024677932 -0.14204153 -0.07537165 -0.13813631 -0.22149704 -0.16131292 -0.15084209 0.05409873
-0.061624523 -0.1630392 -0.17960736 -0.1525143 -0.16191208 -0.20133753 -0.12088282 0.101175666
00000000: 8acd 93be fce1 56be 3406 e0bd 09d9 3cbd
00000010: 61e0 57be e63f 88bd 2aed 10be 9c0e 13be
00000020: d26a 41be 7b10 2ebe e559 3dbe ad01 fcbc
00000030: d4f9 23be 42f1 cbbd aaba ebbd bd4d 84be
00000040: 05a9 4fbd 18f4 dfbd 5f12 a63c 77df 8abd
00000050: 3226 fdbd d0f4 8bbd 131e e03d 1a1f 41be
00000060: 3c18 5abe ce0a 9cbd c3a2 c6bd 18dc 24be
00000070: f06b 52be 8125 59be fbef 62bd e2f7 1bbe
00000080: 2cdc a9bd 1fe8 5abe 9f7f ef3b 6afc 55be
00000090: a72b 2abe 2672 ebbd af52 aebd 788d 60be
000000a0: d051 69bd 92d2 25be 0761 1dbd 7b6a 0ebe
000000b0: e4dd 5ebe c2d0 5fbc e8a2 70bc adf0 2dbe
000000c0: 08f7 23be 63f8 1fbe dd1e 78bd fc1d 2abe
000000d0: b141 05be 2a4a 363c 23fb 1a3d 8dfe 84bd
000000e0: b675 00be 9152 f5bd 3546 22be 8bb5 52be
000000f0: 7ab2 33be e742 1bbe c6e3 dbbd 2412 1ebe
00000100: c9aa cbbd c9a2 a3bd 0b0c 33be aa5e 8bbd
00000110: 5ead 2ebe cf9c 86be e764 11be 0ab5 46be
00000120: 4a87 eebd fe8a 4bbe d93d 24be b1b4 ca3c
00000130: 6880 febd 0fdd 1ebe b76e ecbd 8ffb 2dbe
00000140: 9328 e6bc 2aee 1cbd d74a bcbd 4679 34be
00000150: dfc5 95bc f437 983c ed70 52be acb4 21be
00000160: 028f 25be 676a 4bbd dd80 09be e8f0 15be
00000170: 4262 47be ed04 0abe 2250 dbbd 2ee9 a2bc
00000180: ae85 d8bd 6b75 33be f593 21be 9e58 17be
00000190: bd73 24be b070 1abe 604e 4fbe 2b48 20be
000001a0: 743e d3bd 0dd1 2dbe 2090 e7bd e7b8 28be
000001b0: f54a b7bd e63b 17be 9c8e 1bbe e0d3 c9bd
000001c0: 6029 cabc 5673 11be 745c 9abd 9b73 0dbe
000001d0: 1fd0 62be 372f 25be 5976 1abe a196 5d3d
000001e0: ff69 7cbd bff3 26be feea 37be b52c 1cbe
000001f0: 48cc 25be 6d2b 4ebe 6991 f7bd 3035 cf3d

network_body._body_endoder.seq_layers.0.weight f4 [128, 68]
0.14689504 -0.58174807 0.057448406 -0.0036632395 0.47425407 -1.2593211 -0.106820084 -0.27131462
-0.449158 0.104243554 0.044935685 -0.20778497 0.2016167 -0.5812402 0.04725288 -0.4474672
-0.4911681 0.009786382 -0.055978622 -0.44649312 -0.094839394 -0.41367105 0.025379524 -0.5477159
-0.59551543 0.110595 -0.26470014 -0.73024243 -0.30619216 0.05742004 0.057934627 -0.035859134
-0.205456 -0.181189 -0.06737427 -0.6614081 -0.27128333 -0.02975032 -0.04029794 0.096565
-0.3415928 0.16444573 -0.013224129 -0.4303792 -0.1764333 -0.32801032 -0.034649648 0.16013294
-0.800842 0.046188693 -0.10729417 -0.14684756 0.12024571 0.31537858 0.12149448 0.20694633
-0.20391962 0.023824878 0.08482895 0.024295073 -0.21948333 0.4343303 -0.10462694 -0.03020796
-0.19199994 0.30033988 0.13292244 0.042614285 -0.45358688 0.064333364 -0.07670182 -0.040767193
-0.15080969 -0.18177968 -0.09993515 0.044239137 -0.66846496 0.050326195 0.16296834 -0.34000906
-0.12818465 -0.44335437 -0.053266477 -0.14934134 -0.47497544 -0.04047441 0.12230844 -0.5162354
-0.09232319 -0.44158494 0.031517982 -0.06975062 -0.2101793 -0.00849127 -0.065175146 -0.16614307
-0.016294193 -0.070941605 0.008625542 -0.07440082 0.34617975 -0.56712407 -0.032610163 -0.32159603
-0.16468368 -0.16339466 -0.014963089 -0.24956253 0.099865444 -0.5578223 -0.046637073 -0.47508186
-0.28550723 0.0566974 0.008420051 -0.031650007 -0.33100614 -0.20897953 0.16380766 -0.44767123
0.08354668 0.14282627 0.19133306 0.1476124 0.10978267 0.20718908 0.08067762 0.02148523
0.19424511 0.21882798 0.062952004 0.121045545 -0.18974529 0.39316902 0.1978786 -0.3533098
0.09528449 -0.5186169 -0.18950687 0.30340302 0.35019696 -0.6761356 -0.24887754 0.19999392
-0.16929772 0.033166155 -0.27195555 0.395893 0.38423225 -0.18917234 0.23378947 0.42882589
-0.43664643 0.3659963 0.19480917 0.1130462 -0.42814913 0.22162123 0.24742046 0.596063
-0.550741 0.5387431 -0.011229633 -0.14712067 -0.4304645 0.51239854 -0.0055569797 0.062146284
-0.4394012 0.3257721 0.086498775 -0.33072978 -0.018146439 0.13863927 -0.2566552 -0.004809818
-0.13928184 0.27280456 -0.023624467 -0.24008535 0.040931534 -0.2227851 0.1047835 -0.0715573
0.032176726 -0.026973106 0.12814432 -0.37986407 -0.045317676 -0.18955 0.021217061 -0.40915188
-0.08826942 0.018489402 -0.1706451 -0.19452037 -0.16858602 0.07828598 0.05863852 -0.38405037
-0.116293356 0.095575616 -0.18969394 -0.22441033 -0.42251912 0.44079554 0.018154789 -0.0885446
-1.0354793 1.5127847 -0.10167377 -0.48406148 0.21327712 -0.33880362 0.13661258 -0.3490002
-1.2250335 0.9440809 0.13870867 -0.17940186 0.53604734 -0.9872909 0.10933856 -0.16448967
-0.49271226 0.21189743 -0.19229223 -0.2870176 1.0086951 -0.919594 0.047180265 -0.06802856
0.35282797 -0.19318059 -0.032727573 -0.21728998 0.32245722 -0.24658868 0.15550932 0.025762718
0.3285556 -0.19217563 0.16078979 -0.18441021 -0.24420118 0.13365999 0.22883572 0.38566703
-0.21131858 0.32683226 0.046354055 0.3108185 -0.6017799 0.58206767 0.1435496 0.28201357
00000000: a76b 163e 71ed 14bf 054f 6b3d f612 70bb
00000010: 6ed1 f23e 6f31 a1bf 7dc4 dabd c0e9 8abe
00000020: 0af8 e5be a57d d53d 7b0e 383d 95c5 54be
00000030: 9c74 4e3e 28cc 14bf 3c8c 413d 6c1a e5be
00000040: 637a fbbe 1057 203c d749 65bd bf9a e4be
00000050: 283b c2bd b1cc d3be b8e8 cf3c 1c37 0cbf
00000060: b373 18bf a27f e23d c786 87be 2bf1 3abf
00000070: 38c5 9cbe 4731 6b3d dc4c 6d3d 07e1 12bd
00000080: 0f63 52be 9c89 39be 85fb 89bd 0b52 29bf
00000090: a6e5 8abe f1b6 f3bc 740f 25bd dfc3 c53d
000000a0: 40e5 aebe 7664 283e 04aa 58bc aa5a dcbe
000000b0: eeaa 34be f8f0 a7be caec 0dbd e4f9 233e
000000c0: fb03 4dbf 5b30 3d3d 0cbd dbbd 355f 16be
000000d0: 6243 f63d 4d79 a13e 19d2 f83d bde9 533e
000000e0: 4ed0 50be 642c c33c cdba ad3d 7606 c73c
000000f0: 3dc0 60be 8b60 de3e a646 d6bd af76 f7bc
00000100: a29b 44be 26c6 993e d21c 083e 518c 2e3d
00000110: 8a3c e8be 36c1 833d d815 9dbd 80fb 26bd
00000120: db6d 1abe 7424 3abe cdaa ccbd 1934 353d
00000130: 8520 2bbf d722 4e3d 2ce1 263e ab15 aebe
00000140: d642 03be 58ff e2be f32d 5abd f0ec 18be
00000150: fb2f f3be 7fc8 25bd d97c fa3d 0128 04bf
00000160: f113 bdbd 6c17 e2be 0019 013d 6ad9 8ebd
00000170: 3e39 57be f81e 0bbc 8c7a 85bd 6921 2abe
00000180: 667b 85bc d549 91bd 2552 0d3c 755f 98bd
00000190: 793e b13e 0b2f 11bf 3c92 05bd 3ca8 a4be
000001a0: d7a2 28be ee50 27be be27 75bc 528d 7fbe
000001b0: 4186 cc3d 71cd 0ebf 8406 3fbd ee3d f3be
000001c0: 012e 92be 883b 683d 41f4 093c 70a3 01bd
000001d0: a379 a9be bbfe 55be 32bd 273e 2a35 e5be
000001e0: 861a ab3d 0d41 123e d0ec 433e b427 173e
000001f0: bdd5 e03d 6029 543e 4f3a a53d cb01 b03c
00000200: 31e8 463e 7114 603e fbec 803d bae6 f73d
00000210: 974c 42be 734d c93e b0a0 4a3e 06e5 b4be
00000220: 8424 c33d 14c4 04bf 170e 42be a457 9b3e
00000230: 044d b33e 3917 2dbf c1d9 7ebe 35cb 4c3e
00000240: 625c 2dbe 3cd9 073d c23d 8bbe 7db2 ca3e
00000250: 17ba c43e 65b6 41be 8266 6f3e 118f db3e
00000260: 1f90 dfbe de63 bb3e 0e7c 473e c484 e73d
00000270: 5d36 dbbe adf0 623e ca5b 7d3e 9697 183f
00000280: 5dfd 0cbf 11eb 093f 7ffc 37bc cda6 16be
00000290: d865 dcbe 8d2c 033f 5317 b6bb 1a8d 7e3d
000002a0: 32f9 e0be 9acb a63e 4526 b13d 6a55 a9be
000002b0: d7a7 94bc 74f7 0d3e 4f68 83be ae9b 9dbb
000002c0: e69f 0ebe 0aad 8b3e 1988 c1bc efd8 75be
000002d0: d3a7 273d c721 64be bb98 d63d a28c 92bd
000002e0: becb 033d b4f6 dcbc 4438 033e 8b7d c2be
000002f0: 079f 39bd 6519 42be 67cf ad3c 5b7c d1be
00000300: 99c6 b4bd 1677 973c 97bd 2ebe 5930 47be
00000310: d0a1 2cbe 6654 a03d f22e 703d 40a2 c4be
00000320: 362b eebd 26bd c33d 213f 42be d2cb 65be
00000330: 6d54 d8be f4af e13e 5ab9 943c df56 b5bd
00000340: 968a 84bf eea2 c13f 563a d0bd e8d6 f7be
00000350: 5165 5a3e ab77 adbe 2be4 0b3e 27b0 b2be
00000360: e6cd 9cbf 49af 713f a509 0e3e 1fb5 37be
00000370: 663a 093f 19bf 7cbf e5ec df3d fb6f 28be
00000380: c844 fcbe a4fb 583e 41e8 44be f9f3 92be
00000390: ec1c 813f 836a 6bbf 1840 413d 8f52 8bbd
000003a0: dea5 b43e 22d1 45be 590d 06bd 4481 5ebe
000003b0: 1d19 a53e be81 7cbe d63d 1f3e 560c d33c
000003c0: 7138 a83e b0c9 44be 14a6 243e 08d6 3cbe
000003d0: e00f 7abe 2ade 083e e953 6a3e 2676 c53e
000003e0: e663 58be 8f56 a73e c0dd 3d3d 9a23 9f3e
000003f0: 3f0e 1abf 6302 153f abfe 123e 1564 903e

network_body._body_endoder.seq_layers.2.bias f4 [128]
0.03247038 -0.061398778 -0.023351157 -0.003225815 -0.019376554 0.023211801 -0.18815014 -0.071553044
-0.24232736 -0.058667514 -0.079490274 -0.16073352 -0.15284058 0.08878187 -0.21863616 0.011819237
-0.2540116 -0.055734497 -0.10348139 0.05436609 -0.39947298 -0.06940017 -0.1297158 -0.33513907
-0.16565222 -0.1028186 -0.36124164 -0.14469625 -0.023228481 0.0010949322 0.085092574 -0.06589358
-0.34717706 -0.15404667 -0.19692184 -0.21927659 -0.05397166 -0.019935632 -0.13408336 -0.19602531
-0.07776613 0.0033743368 -0.2651307 -0.13577765 -0.1277308 -0.026512453 -0.06611063 -0.13793924
-0.09704254 -0.03863782 -0.18758579 -0.0010904637 -0.056817483 -0.19742233 0.12699828 -0.0067352736
0.09627445 0.035457637 0.014505972 -0.16391423 0.10489683 -0.23756376 0.047615606 -0.094238006
0.10829196 -0.059926137 -0.07773994 -0.049217425 -0.044066723 -0.036372617 -0.11383748 -0.13355158
-0.26872608 -0.20362549 -0.21851139 -0.14003305 -0.24511692 -0.18157257 -0.12150684 -0.14696828
-0.17166871 -0.0920128 -0.14869453 -0.2256252 -0.2093671 -0.0686885 0.05745348 -0.25966945
0.076208964 -0.0675911 -0.078848414 0.09891767 -0.1081334 -0.18676087 -0.27921033 0.09466075
-0.14479095 -0.06690035 -0.26373413 -0.0700086 -0.09901739 -0.23317903 -0.042062804 -0.0655447
0.01557609 -0.08203955 -0.19660664 -0.09911338 -0.23867634 0.0016583251 -0.07736598 -0.15385045
-0.111195505 -0.20419246 -0.14176969 0.012541165 -0.21349844 -0.06291698 -0.031968195 0.03319986
-0.062435877 -0.12151649 0.03959689 -0.07928438 -0.29164112 -0.13940951 -0.06906048 -0.14329675
00000000: a9ff 043d 497d 7bbd ed4a bfbc 3268 53bb
00000010: 94bb 9ebc ad26 be3c 6eaa 40be 678a 92bd
00000020: aa24 78be 594d 70bd cccb a2bd 5497 24be
00000030: 3e82 1cbe 45d3 b53d 28e2 5fbe 79a5 413c
00000040: cf0d 82be db49 64bd 0dee d3bd faae 5e3d
00000050: b987 ccbe ad21 8ebd 38d4 04be 5997 abbe
00000060: bca0 29be 8f92 d2bd aaf4 b8be 412b 14be
00000070: a849 bebc d483 8f3a 0445 ae3d 37f3 86bd
00000080: 31c1 b1be 69be 1dbe e1a5 49be 0b8a 60be
00000090: 6311 5dbd 0d50 a3bc 264d 09be dcba 48be
000000a0: d943 9fbd fa23 5d3b 36bf 87be 4c09 0bbe
000000b0: ddcb 02be a530 d9bc 0365 87bd f23f 0dbe
000000c0: 3dbe c6bd b142 1ebd 7d16 40be e4ed 8eba
000000d0: 73b9 68bd 1429 4abe d60b 023e 92b3 dcbb
000000e0: 8a2b c53d 073c 113d 75aa 6d3c 22d9 27be
000000f0: 26d4 d63d ea43 73be 9508 433d dbff c0bd
00000100: 2dc8 dd3d 1c75 75bd 1e36 9fbd 3698 49bd
00000110: 4f7f 34bd 74fb 14bd a023 e9bd bfc1 08be
00000120: 7796 89be 3383 50be 73c1 5fbe d364 0fbe
00000130: eeff 7abe 29ee 39be 94d8 f8bd da7e 16be
00000140: ecc9 2fbe 3571 bcbd 6143 18be 4b0a 67be
00000150: 5464 56be 8eac 8cbd 5754 6b3d 65f3 84be
00000160: 7213 9c3d 346d 8abd 477b a1bd 5995 ca3d
00000170: 0b75 ddbd 3e3e 3fbe a8f4 8ebe 7fdd c13d
00000180: 1444 14be 0d03 89bd 2908 87be ab60 8fbd
00000190: a1c9 cabd 7cc6 6ebe 0c4a 2cbd 4d3c 86bd
000001a0: db32 7f3c 5a04 a8bd 4053 49be f5fb cabd
000001b0: 9267 74be 285c d93a 0e72 9ebd f98a 1dbe
000001c0: 78ba e3bd d417 51be 132c 11be 7579 4d3c
000001d0: 569f 5abe 9eda 80bd 15f1 02bd 94fc 073d
000001e0: c3bc 7fbd a3dd f8bd 5930 223d d95f a2bd
000001f0: fc51 95be 5ec1 0ebe 956f 8dbd 62bc 12be

network_body._body_endoder.seq_layers.2.weight f4 [128, 128]
0.12226464 0.11119085 -0.26373324 -0.17207363 -0.18498005 -0.25013366 -0.22970408 -0.044805028
-0.12016925 0.004695168 0.24420819 -0.0681052 0.08445296 -0.012049473 0.074502245 -0.04292468
0.01302704 0.025347011 -0.26153478 0.015295455 0.091499336 -0.15601498 -0.20323806 -0.19637316
-0.088873975 0.18874612 -0.036952324 0.040815186 -0.03659132 -0.102463566 0.06447848 0.28959137
-0.010950583 0.0724754 -0.15707435 0.08201634 -0.1454803 -0.026088761 -0.08886376 0.072438285
-0.02732059 -0.17119229 -0.3056208 -0.14882821 0.029134335 0.17573105 -0.116535276 -0.1103526
-0.088099666 -0.08257832 -0.19339578 0.08656925 0.17561942 -0.07790951 -0.4334832 -0.107714206
-0.07489529 -0.15099205 0.027802875 -0.05346975 0.045631204 -0.034743104 -0.099530295 -0.064102225
-0.06283873 -0.09275871 0.0075585293 -0.18566667 0.2537703 -0.23658343 0.045198865 0.14309654
0.08999573 0.015965335 0.08413387 0.03253827 0.08609857 0.043976042 -0.027391175 0.04722182
-0.35792238 0.09004318 -0.0023438425 -0.068565585 -0.084603965 -0.09078326 -0.1278145 -0.116083585
-0.11287278 -0.15127453 0.051675733 -0.007155655 -0.10102632 0.04380048 0.012366051 -0.16831051
0.058798082 -0.012202029 -0.09485265 0.14279552 0.15918928 -0.022095254 -0.20978041 -0.029343097
0.03752007 -0.16274303 0.094070554 -0.31162634 -0.09090611 -0.02789521 0.18288307 -0.04165519
0.07502519 0.0027505308 -0.053048532 0.08717183 -0.13873927 0.03258326 -0.024335276 -0.20800969
-0.72665304 -0.09832459 0.0075378777 0.38903415 0.19566204 0.13311164 0.014829799 -0.24525535
0.04222356 -0.05209543 0.08451503 0.12492341 -0.013599637 -0.18265997 -0.098008364 0.04813028
0.020893503 -0.016870372 -0.10812436 0.20802633 -0.052374627 0.0112962425 -0.08137758 -0.045983225
0.11252501 0.0033002242 0.14108554 -0.017237866 0.041621402 0.0027636143 0.18530941 0.10526244
0.019103266 0.17558022 0.33304745 0.12574463 -0.10068502 -0.1991241 0.11117483 0.24327135
0.04477058 0.19126673 -0.036301304 0.042532444 0.15284018 -0.009012407 0.024360657 -0.051758166
0.09143288 0.10350044 -0.035931747 -0.012243683 -0.017497506 -0.26219493 -0.07481527 -0.22637464
0.012971147 -0.16585486 -0.47180247 0.07740846 -0.059846506 0.037511595 0.04133112 -0.24702491
-0.15990202 0.0052080606 0.120867155 -0.018346116 0.054738373 0.0033689665 0.13988318 -0.29156473
0.12686706 -0.12973453 -0.05292154 -0.18661797 -0.0037557045 -0.019701445 -0.17261519 -0.12854613
-0.15383668 -0.028966632 -0.161615 -0.07337416 0.1286726 -0.009318515 0.069126576 -0.29272968
-0.034579635 0.1145548 0.2518496 -0.023213211 -0.021193065 0.043426234 0.050516378 -0.23987411
-0.31571534 -0.49373713 0.10153167 -0.08967277 -0.03762516 -0.010596048 -0.14161271 0.06324143
0.24308075 0.04062068 -0.06923584 0.05344726 0.12922518 0.24156953 -0.1430176 -0.11666592
-0.027664792 -0.18464209 0.23661233 -0.23163895 -0.040093455 -0.04442774 0.14738132 0.10005973
0.018989434 0.16464676 -0.050919767 -0.15789677 -0.06574016 -0.1105671 -0.12495359 -0.30755666
0.12700467 -0.19547628 -0.11980238 -0.20913057 -0.070968054 0.2142551 0.16035223 -0.0417802
00000000: e265 fa3d 07b8 e33d 0b08 87be 1234 30be
00000010: 696b 3dbe 8511 80be 8c37 6bbe 7a85 37bd
00000020: 4c1b f6bd edd9 993b b611 7a3e bd7a 8bbd
00000030: acf5 ac3d 276b 45bc a294 983d cad1 2fbd
00000040: 5e6f 553c 89a4 cf3c e3e7 85be ca99 7a3c
00000050: 0164 bb3d 64c2 1fbe a31d 50be 0c16 49be
00000060: 8f03 b6bd aa46 413e 525b 17bd d32d 273d
00000070: c8e0 15bd 6bd8 d1bd 4b0d 843d 5245 943e
00000080: 136a 33bc fc6d 943d 19d8 20be 2ff8 a73d
00000090: caf8 14be 19b8 d5bc 34fe b5bd 865a 943d
000000a0: 6ecf dfbc 084d 2fbe 547a 9cbe 6c66 18be
000000b0: 21ab ee3c d7f2 333e 0caa eebd 8b00 e2bd
000000c0: 996d b4bd d21e a9bd 8b09 46be 384b b13d
000000d0: 94d5 333e 058f 9fbd 83f1 ddbe 4499 dcbd
000000e0: b462 99bd a99d 1abe dbc2 e33c 1903 5bbd
000000f0: c9e7 3a3d c94e 0ebd 8ad6 cbbd 0748 83bd
00000100: 98b1 80bd 47f8 bdbd 8aad f73b 671f 3ebe
00000110: 2eee 813e ed42 72be 7222 393d e687 123e
00000120: ae4f b83d bcc9 823c 614e ac3d d946 053d
00000130: 7254 b03d 3920 343d 7563 e0bc ab6b 413d
00000140: 9a41 b7be 8f68 b83d 279b 19bb 1d6c 8cbd
00000150: d844 adbd 93ec b9bd cee1 02be 3bbd edbd
00000160: d829 e7bd b6e7 1abe efa9 533d fc79 eabb
00000170: e3e6 cebd 2268 333d fa9a 4a3c 9759 2cbe
00000180: 42d6 703d 05eb 47bc 1b42 c2bd fd38 123e
00000190: 8402 233e 1b01 b5bc add0 56be ef60 f0bc
000001a0: a5ae 193d 1ca6 26be 10a8 c03d 7d8d 9fbe
000001b0: fc2c babd 7f84 e4bc b345 3b3e a29e 2abd
000001c0: cfa6 993d 4042 343b 6b49 59bd 2587 b23d
000001d0: ab11 0ebe 0676 053d c65a c7bc 7e00 55be
000001e0: ef05 3abf 675e c9bd 4d00 f73b 7c2f c73e
000001f0: a15b 483e 6b4e 083e aff8 723c 3824 7bbe
00000200: 9df2 2c3d 0562 55bd 3716 ad3d d8d7 ff3d
00000210: 03d1 5ebc 370b 3bbe 9cb8 c8bd 4224 453d
00000220: da28 ab3c bc33 8abc 4e70 ddbd db04 553e
00000230: c786 56bd e013 393c 4aa9 a6bd e858 3cbd
00000240: 8373 e63d 9348 583b ba78 103e 6d36 8dbc
00000250: 347b 2a3d c11d 353b c0c1 3d3e d693 d73d
00000260: 747e 9c3c 4dcb 333e 3285 aa3e 33c3 003e
00000270: f333 cebd 30e7 4bbe a1af e33d 201c 793e
00000280: 5b61 373d 6ddb 433e adb0 14bd 8036 2e3d
00000290: 2382 1c3e c6a8 13bc 0090 c73c 5f00 54bd
000002a0: 2941 bb3d 0af8 d33d 2b2d 13bd bb99 48bc
000002b0: ee56 8fbc 6a3e 86be c038 99bd c1ce 67be
000002c0: ef84 543c dbd5 29be 1890 f1be 5488 9e3d
000002d0: 9c21 75bd c2a5 193d d24a 293d 19f4 7cbe
000002e0: 5bbd 23be 61a8 aa3b 3389 f73d 984a 96bc
000002f0: 5835 603d e1c9 5c3b 893d 0f3e f947 95be
00000300: 70e9 013e 21d9 04be 42c4 58bd c818 3fbe
00000310: 4422 76bb ed64 a1bc 09c2 30be 99a1 03be
00000320: 5d87 1dbe 6e4b edbc 677e 25be 3145 96bd
00000330: c0c2 033e afac 18bc 3c92 8d3d aae0 95be
00000340: 60a3 0dbd b59b ea3d 6ef2 803e a229 bebc
00000350: 149d adbc b5df 313d 43ea 4e3d 8fa1 75be
00000360: 71a5 a1be 1dcb fcbe d6ef cf3d 5ba6 b7bd
00000370: d71c 1abd 0c9b 2dbc ec02 11be b984 813d
00000380: 29ea 783e df61 263d 85cb 8dbd 84eb 5a3d
00000390: 9b53 043e 015e 773e 3573 12be 8bee eebd
000003a0: 46a1 e2bc d112 3dbe 814a 723e c332 6dbe
000003b0: 0939 24bd ddf9 35bd 21eb 163e 1eec cc3d
000003c0: bb8f 9b3c 2999 283e 3f91 50bd b1af 21be
000003d0: c7a2 86bd 0171 e2bd abe7 ffbd 1178 9dbe
000003e0: 830d 023e ef2a 48be f35a f5bd 5326 56be
000003f0: b357 91bd b065 5b3e 6033 243e b721 2bbd

network_body._body_endoder.seq_layers.4.bias f4 [128]
-0.017575782 -0.00048060642 0.04712802 -0.06021772 -0.06983544 -0.047308378 -0.15629502 -0.006601432
-0.18979494 0.036222804 -0.16504955 0.209644 -0.39105815 -0.18166596 -0.16093138 -0.15410042
-0.05692704 0.006696033 -0.015300891 -0.052349173 -0.13861947 0.10476453 -0.18263172 -0.17609836
-0.1564886 -0.25751588 -0.18644032 -0.18178375 -0.07735979 0.037244678 -0.4255284 0.0031899463
-0.08368769 -0.3514969 -0.09499162 0.044782445 -0.20331673 -0.20679091 -0.23912717 -0.1284282
-0.27677715 0.026787652 -0.2707541 0.0036310363 -0.13189316 -0.16794813 -0.25662127 0.13434406
0.014025347 0.05892988 -0.08211504 -0.1365238 -0.18884231 -0.3857914 -0.18972546 -0.2118615
-0.16096927 -0.1263149 0.04209297 -0.16984434 -0.1384603 -0.08319067 -0.14262591 -0.08360108
0.07495541 -0.0901411 -0.11154833 -0.11925973 -0.43594417 -0.25485137 -0.2275643 -0.005052062
-0.118378766 -0.086044975 -0.4451299 -0.045382775 -0.032698095 -0.37105784 -0.19474314 -0.4028601
-0.20133486 -0.056352403 -0.117149256 -0.29939073 -0.054810107 -0.07616444 0.09212028 -0.408751
-0.0717076 0.019106725 -0.27822268 -0.3287506 -0.049853098 -0.053405553 -0.3379251 -0.40349495
-0.1745565 -0.033566907 -0.2996463 -0.16958815 -0.35154927 -0.0042900597 -0.28212455 0.06929294
-0.037345555 -0.169191 -0.11837685 -0.096530415 -0.14841199 -0.3656757 -0.030674504 -0.110320695
-0.12504311 0.04938879 -0.2756322 -0.014118658 -0.15675212 -0.28869632 -0.16019425 -0.12642474
-0.21602094 -0.12660103 -0.045348745 -0.075838566 0.0035550469 0.03138481 -0.27034292 -0.18027195
00000000: 16fb 8fbc e7f9 fbb9 5009 413d dba6 76bd
00000010: e205 8fbd 6ec6 41bd cd0b 20be d350 d8bb
00000020: 9b59 42be 5d5e 143d c002 29be ebac 563e
00000030: c638 c8be a406 3abe 32cb 24be 80cc 1dbe
00000040: 542c 69bd 656a db3b 97b0 7abc 166c 56bd
00000050: 43f2 0dbe c98e d63d cf03 3bbe 2153 34be
00000060: 8c3e 20be 1fd9 83be 36ea 3ebe 8525 3abe
00000070: cf6e 9ebd e08d 183d dcde d9be 6b0e 513b
00000080: 7464 abbd 67f7 b3be f78a c2bd cc6d 373d
00000090: 4332 50be ffc0 53be c1dd 74be af82 03be
000000a0: bcb5 8dbe c771 db3c 48a0 8abe aef6 6d3b
000000b0: 000f 07be 98fa 2bbe dd63 83be 7d91 093e
000000c0: 92ca 653c 7560 713d ee2b a8bd e5cc 0bbe
000000d0: e15f 41be 7386 c5be 6447 42be 39f2 58be
000000e0: 21d5 24be b158 01be ae69 2c3d adeb 2dbe
000000f0: 89c8 0dbe df5f aabd 870c 12be 0b37 abbd
00000100: 3982 993d e69b b8bd 7373 e4bd 723e f4bd
00000110: 1334 dfbe e17b 82be 9e06 69be c58b a5bb
00000120: 9170 f2bd 5938 b0bd 11e8 e3be 4ae3 39bd
00000130: 70ee 05bd 4bfb bdbe bf6a 47be ae43 cebe
00000140: ba2a 4ebe c7d1 66bd f3eb efbd be49 99be
00000150: 9080 60bd 1afc 9bbd 8fa9 bc3d d047 d1be
00000160: 6fdb 92bd b585 9c3c 3473 8ebe 0052 a8be
00000170: c332 4cbd c8bf 5abd 8504 adbe e496 cebe
00000180: f0be 32be 747d 09bd 3d6b 99be 84a8 2dbe
00000190: 44fe b3be a193 8cbb a172 90be 75e9 8d3d
000001a0: a7f7 18bd 6840 2dbe 906f f2bd bdb1 c5bd
000001b0: 50f9 17be d839 bbbe 1949 fbbc d1ef e1bd
000001c0: 4d0b 00be e64b 4a3d aa1f 8dbe f251 67bc
000001d0: a183 20be 01d0 93be f609 24be 7d75 01be
000001e0: 9834 5dbe b3a3 01be 9bbf 39bd 4051 9bbd
000001f0: cafb 683b 5c8d 003d 636a 8abe 3699 38be

network_body._body_endoder.seq_layers.4.weight f4 [128, 128]
-0.13788183 0.008128463 -0.17703749 -0.067839585 -0.16205287 -0.17895928 -0.034539748 -0.004769038
0.047183767 -0.12462978 0.09131264 0.13628054 0.11263322 -0.23630461 -0.18751799 0.2242685
-0.41896737 -0.10738003 0.040934566 -0.046266653 -0.08550605 -0.329802 0.05911786 -0.020165956
-0.05409021 -0.0014712117 -0.18760163 0.08288858 -0.52842927 0.1148288 -0.054957755 0.15926436
-0.0652046 -0.6229233 -0.005094872 0.040266316 -0.09109378 -0.19933252 -0.2573698 -0.20200038
-0.19008765 -0.07868448 0.02738627 -0.32770428 0.06430224 0.023146322 0.20723173 -0.101020984
-0.124782905 -0.024700752 -0.09359812 0.14989746 0.17554347 0.1394256 -0.07864831 -0.19726224
0.14530365 0.31013763 0.02699686 0.046301212 0.1468448 -0.05623913 0.14503865 -0.14426288
-0.14811648 0.00051707745 0.011556619 -0.2540447 -0.046364542 -0.23512259 0.08602208 -0.24882631
-0.034509093 0.122440755 -0.18343636 -0.19293877 0.23192322 0.05425266 -0.18275963 -0.04713679
0.21953303 -0.037520457 0.05854671 -0.21249552 0.041267432 -0.17089726 0.062341608 -0.17671843
0.18169765 -0.26199576 0.08137272 -0.10736764 0.2404286 -0.23973963 0.123188056 -0.21891548
0.10070805 -0.12619473 -0.2560995 0.1568989 -0.091487736 -0.07864049 -0.331413 -0.16893665
-0.5441973 0.0852034 0.053015046 -0.038184196 0.114589654 -0.090363525 0.0024545188 -0.4678041
-0.30223086 -0.09401902 0.07597192 0.24437942 0.1402909 0.031525243 0.21292469 0.0673306
-0.13506804 0.088458754 -0.4882862 -0.044477403 0.11080248 0.09341736 -0.11312607 0.1543873
-0.22043967 -0.18979 -0.0074551655 -0.14131024 -0.41033536 0.24475002 -0.09695244 0.038317762
-0.05607437 -0.08923773 0.20428473 -0.01623933 0.26304996 -0.32463714 -0.13240379 -0.33390906
-0.06490106 -0.038568158 0.09059607 -0.009274773 0.044493042 0.25415516 0.124260336 -0.16199094
0.21841331 -0.022947107 -0.059466578 0.14531162 0.1596765 0.16421662 -0.24306053 -0.015320888
0.031882174 -0.07011424 -0.1270206 0.036071356 -0.45749006 0.28818893 0.098654225 -0.018505078
-0.11549974 0.1029853 0.17685914 -0.09263394 0.20065674 0.07172789 0.05659178 0.29896775
0.068101816 0.23548168 -0.12780121 0.14924708 -0.111974895 -0.011389111 0.065199554 0.13383879
0.14188124 -0.08558127 0.14035252 0.25274858 -0.1656891 0.07775283 0.20715813 -0.03421666
-0.095118225 -0.0715226 0.08571475 -0.027415289 0.13127181 0.076362014 -0.16244587 0.114737116
0.16212994 0.29340577 0.37116113 -0.11453279 0.012599126 0.024830827 0.025408553 0.013017158
-0.052706286 0.21153253 0.11096732 0.07826459 0.014602241 0.07726459 -0.24870192 -0.00591111
0.067344405 -0.03473141 -0.12767273 -0.074714296 0.3130745 0.07949665 0.07321268 0.26167178
0.2317305 0.080958925 -0.025154736 0.14311528 -0.1394641 -0.06813047 0.25038505 -0.037675522
-0.19763598 0.012042534 0.12974298 0.0075088553 0.16725552 0.30031392 0.22692493 -0.38235372
-0.078351654 0.0034172528 -0.14151485 0.23117103 0.07283337 -0.011402262 0.1567109 -0.22107089
-0.21459694 0.26502678 -0.11171875 0.17868496 0.07259134 0.086326994 -0.14236182 0.065270565
00000000: e530 0dbe 3f2d 053c 5149 35be 7bef 8abd
00000010: 30f1 25be 1a41 37be 8d79 0dbd 9745 9cbb
00000020: c443 413d e63d ffbd 1f02 bb3d 208d 0b3e
00000030: 3fac e63d d6f9 71be b704 40be a4a6 653e
00000040: e482 d6be 10ea dbbd 01ab 273d 1a82 3dbd
00000050: cc1d afbd cfdb a8be 9225 723d 1333 a5bc
00000060: b28d 5dbd acd5 c0ba a41a 40be 7dc1 a93d
00000070: 2447 07bf 5d2b eb3d 621b 61bd 3216 233e
00000080: fd89 85bd e777 1fbf e2f2 a6bb 4bee 243d
00000090: 608f babd d31d 4cbe f9c5 83be 30d9 4ebe
000000a0: 56a6 42be 5425 a1bd 2c59 e03c dbc8 a7be
000000b0: e5b0 833d 5b9d bd3c 8e34 543e 17e4 cebd
000000c0: 2e8e ffbd 3b59 cabc 5fb0 bfbd b87e 193e
000000d0: abc1 333e 96c5 0e3e 5d12 a1bd 1dff 49be
000000e0: 7bca 143e 5cca 9e3e 8528 dd3c 57a6 3d3d
000000f0: 7c5e 163e 015b 66bd 0385 143e a6b9 13be
00000100: d9ab 17be 7b8c 073a f957 3d3c 2612 82be
00000110: bfe8 3dbd fac3 70be 582c b03d 53cc 7ebe
00000120: 6859 0dbd 38c2 fa3d bed6 3bbe be91 45be
00000130: 487d 6d3e 0a38 5e3d 5725 3bbe 8212 41bd
00000140: 44cd 603e 0daf 19bd adce 6f3d 6d98 59be
00000150: 0a08 293d b1ff 2ebe ea59 7f3d adf5 34be
00000160: f30e 3a3e 4f24 86be bea6 a63d 91e3 dbbd
00000170: ea32 763e 4e7e 75be 054a fc3d 612b 60be
00000180: 0640 ce3d 3139 01be 791f 83be 1baa 203e
00000190: ec5d bbbd 440e a1bd f7ae a9be bbfd 2cbe
000001a0: 8450 0bbf 1f7f ae3d 4e26 593d 0867 1cbd
000001b0: fbad ea3d 8310 b9bd fedb 203b 0584 efbe
000001c0: 01be 9abe 0b8d c0bd 2a97 9b3d 993e 7a3e
000001d0: 6ba8 0f3e 9d20 013d ee08 5a3e a0e4 893d
000001e0: 474f 0abe dd29 b53d a600 fabe f02d 36bd
000001f0: 69ec e23d 9a51 bf3d a4ae e7bd b417 1e3e
00000200: f0ba 61be 4f58 42be 764a f4bb a2b3 10be
00000210: 7a17 d2be c09f 7a3e 008f c6bd 16f3 1c3d
00000220: 3dae 65bd 45c2 b6bd 0430 513e 5808 85bc
00000230: 7cae 863e d736 a6be dc94 07be 21f6 aabe
00000240: d9ea 84bd a5f9 1dbd 6f8a b93d 38f5 17bc
00000250: 563e 363d a020 823e 347c fe3d f4e0 25be
00000260: bda7 5f3e 92fb bbbc 3a93 73bd 92cc 143e
00000270: 3d82 233e 6728 283e dce4 78be 7604 7bbc
00000280: e296 023d 0e98 8fbd b011 02be 8fbf 133d
00000290: 233c eabe 808d 933e 3a0b ca3d f697 97bc
000002a0: 218b ecbd f5e9 d23d 901a 353e ddb6 bdbd
000002b0: f678 4d3e 12e6 923d c8cc 673d 4d12 993e
000002c0: f778 8b3d 1c22 713e 52de 02be 3ad4 183e
000002d0: 1853 e5bd 6599 3abc 5887 853d 090d 093e
000002e0: 5149 113e 3c45 afbd 92b8 0f3e 4368 813e
000002f0: 67aa 29be e03c 9f3d 4321 543e c526 0cbd
00000300: 58cd c2bd 717a 92bd 378b af3d 0796 e0bc
00000310: 1e6c 063e b063 9c3d 3658 26be 4bfb ea3d
00000320: 6405 263e 4839 963e d508 be3e 2b90 eabd
00000330: 916c 4e3c 056a cb3c 9925 d03c eb45 553c
00000340: 8ce2 57bd fc9b 583e d642 e33d 2f49 a03d
00000350: 3d3e 6f3c e63c 9e3d b7ab 7ebe fcb1 c1bb
00000360: ddeb 893d 8642 0ebd a4bc 02be cf03 99bd
00000370: 4d4b a03e 24cf a23d 88f0 953d d8f9 853e
00000380: c34a 6d3e cbcd a53d 4e11 cebc d08c 123e
00000390: adcf 0ebe fd87 8bbd 7832 803e a651 1abd
000003a0: 1661 4abe 0c4e 453c 58db 043e d80c f63b
000003b0: 0845 2b3e bfc2 993e 025f 683e dec3 c3be
000003c0: d576 a0bd fdf3 5f3b 45e9 10be 19b8 6c3e
000003d0: a929 953d 8ed0 3abc d278 203e 6860 62be
000003e0: 4dbf 5bbe 97b1 873e cdcc e4bd 31f9 363e
000003f0: c5aa 943d 35cc b03d 4cc7 11be 93ac 853d
