results/ppo/MoveSomewhere/MoveSomewhere-33408.pt (torch, 529655 bytes, 40 tensors)

discrete_act_size_vector f4 [1, 2]
3.0 3.0
00000000: 0000 4040 0000 4040

network_body._body_endoder.seq_layers.0.weight f4 [128, 33]
0.006618827 0.07719854 -0.18442318 0.3372087 -0.18192118 0.122423805 0.12099068 0.08588794
0.10961541 0.2811329 -0.21720585 -0.110398285 0.16758893 -0.057321094 0.34832692 -0.3354743
-0.108891904 0.26574808 0.040309254 0.120925084 -0.16752194 0.07564953 -0.091531076 -0.13391642
0.1305738 -0.026139777 -0.31969562 -0.3421784 0.36536503 -0.20009574 -0.07567339 0.19638234
0.007685181 -0.21659131 -0.18253717 0.26963678 -0.035638325 -0.04188192 -0.14616616 0.26844108
0.33871216 0.0912546 -0.06739783 0.09861415 -0.36188203 0.2660045 -0.095694624 -0.12564231
0.09081683 -0.03236863 -0.045489658 -0.15709582 0.031775057 0.1380521 0.23534834 -0.21633944
0.111353435 -0.19590771 0.08684279 0.4121027 0.14050756 -0.1281872 -0.27720731 0.25753877
-0.20304172 0.19000895 0.04259673 0.33313972 -0.025079286 0.033922117 -0.28135553 0.22158404
-0.04059725 0.050632015 0.0016399231 0.0018479462 -0.019674877 -0.2215474 -0.12260776 0.040034365
-0.08436593 -0.01702006 -0.0042957035 0.03700201 0.25755194 -0.28343925 -0.21489067 0.017000217
0.054858804 -0.18969741 0.41980937 0.10345549 0.43367317 0.27645987 -0.20705196 -0.13724223
0.10317608 0.05970107 -0.036556732 -0.3820966 -0.18654792 -0.05419343 0.043276917 -0.21929596
0.3341238 -0.0006585091 0.08326656 -0.15404129 -0.01771066 0.027269477 -0.24902602 -0.068157546
-0.03116255 0.13802657 0.07186603 0.009553734 0.24135225 0.07540861 -0.13517375 -0.07810658
-0.013817638 0.2163208 -0.13871583 0.19448069 -0.399841 -0.18543972 0.31314534 0.023795977
0.18793246 0.14335161 0.06583112 -0.24790633 0.086122565 -0.063048474 -0.19921575 0.08352038
-0.09521963 0.19946785 0.2879095 -0.39620772 -0.09696337 -0.011683383 0.07004258 0.0400502
0.06915883 0.22286889 -0.10256915 0.33704296 -0.11814881 -0.2788232 -0.13691984 -0.3126334
-0.18878812 0.080862485 -0.3682462 -0.23414625 0.15616007 -0.008929881 0.03169062 -0.20878649
0.19982448 -0.10390655 -0.02460141 0.46537957 -0.28035513 -0.036915615 -0.16958383 0.1979013
-0.13068953 0.053237453 -0.070132576 1.2115833e-05 -0.018624758 -0.12115142 -0.07085858 0.012090782
0.06742048 -0.20645654 0.048660487 0.42794073 0.07834355 -0.21887502 0.0041931337 0.1456205
-0.2568841 -0.10394782 -0.1075801 -0.10456432 0.28551373 -0.017409816 -0.26554838 0.06911042
-0.3018735 -0.23282665 -0.19025315 0.03918652 -0.15440565 -0.3288792 0.22419077 -0.17164078
0.13693659 -0.17025727 0.049077496 0.3365957 0.020853058 0.049807947 0.12247065 0.23162785
0.18340759 0.24399348 0.28540733 -0.1541411 -0.00569045 0.0033411146 0.05074599 0.18504484
-0.11075596 -0.18583868 0.092594475 -0.05626987 -0.27223787 0.11037075 -0.12189425 0.10236734
0.14009216 0.17393161 0.01626467 0.009252548 0.101200774 -0.04431905 -0.032333717 -0.10445318
0.13069986 -0.051250275 0.09378196 0.007112492 0.107345775 -0.10911976 0.042640354 0.19467989
0.041391473 -0.047099397 0.1982872 0.0073424457 0.085793994 0.12503275 -0.066268906 -0.10646305
-0.23576349 0.2531195 0.027715644 0.28335732 -0.1631053 0.1338054 0.057928637 -0.1310125
00000000: bfe2 d83b 451a 9e3d 6ed9 3cbe 9ea6 ac3e
00000010: 8c49 3abe 55b9 fa3d f6c9 f73d 04e6 af3d
00000020: 0b7e e03d a7f0 8f3e 366b 5ebe 7f18 e2bd
00000030: 6f9c 2b3e 86c9 6abd e857 b23e 4ac3 abbe
00000040: b802 dfbd 2210 883e 511b 253d 92a7 f73d
00000050: df8a 2bbe 24ee 9a3d a574 bbbd 6321 09be
00000060: 23b5 053e 1623 d6bc 25af a3be 0232 afbe
00000070: 2011 bb3e e6e5 4cbe a6fa 9abd 7418 493e
00000080: f9d3 fb3b 1dca 5dbe 06eb 3abe d50d 8a3e
00000090: 7ef9 11bd 608c 2bbd 95ac 15be 1c71 893e
000000a0: ae6b ad3e b1e3 ba3d e007 8abd 37f6 c93d
000000b0: 9a48 b9be be31 883e 8bfb c3bd 61a8 00be
000000c0: 2dfe b93d f894 04bd 5d53 3abd badd 20be
000000d0: 9026 023d 885d 0d3e 28ff 703e 1688 5dbe
000000e0: 450d e43d 089c 48be a2da b13d 20ff d23e
000000f0: 37e1 0f3e 8143 03be 1eee 8dbe 1fdc 833e
00000100: 2bea 4fbe b591 423e e979 2e3d 4a91 aa3e
00000110: 1373 cdbc ebf1 0a3d d50d 90be ede6 623e
00000120: 4d49 26bd 8463 4f3d b0f2 d63a c936 f23a
00000130: 352d a1bc 52dd 62be c719 fbbd 13fb 233d
00000140: 0bc8 acbd a76d 8bbc f9c2 8cbb 6b8f 173d
00000150: d9dd 833e f31e 91be 4d0c 5cbe 0a44 8b3c
00000160: a0b3 603d 0a40 42be 41f1 d63e 79e0 d33d
00000170: 690a de3e 268c 8d3e 6e05 54be 3a89 0cbe
00000180: fb4d d33d 1c89 743d 83bc 15bd 2aa2 c3be
00000190: 6b06 3fbe eef9 5dbd 2343 313d 1f8f 60be
000001a0: 4612 ab3e cc9f 2cba a987 aa3d 00bd 1dbe
000001b0: f215 91bc 3d64 df3c ad00 7fbe 2f96 8bbd
000001c0: 9b48 ffbc d656 0d3e 7f2e 933d 4487 1c3c
000001d0: 0b25 773e d46f 9a3d fd6a 0abe 58f6 9fbd
000001e0: 6063 62bc 3383 5d3e 860b 0ebe f225 473e
000001f0: f6b7 ccbe e9e3 3dbe 9654 a03e c8ef c23c
00000200: 5e71 403e c4ca 123e 77d2 863d 28db 7dbe
00000210: 0761 b03d 8f1f 81bd 37ff 4bbe bc0c ab3d
00000220: 8202 c3bd 4d41 4c3e e068 933e bddb cabe
00000230: bb94 c6bd a96b 3fbc 7c72 8f3d ae0b 243d
00000240: 25a3 8d3d be37 643e c60f d2bd e590 ac3e
00000250: 01f8 f1bd eac1 8ebe b734 0cbe 7c11 a0be
00000260: ac51 41be 3b9b a53d c48a bcbe 09c4 6fbe
00000270: 6de8 1f3e a34e 12bc 06ce 013d 20cc 55be
00000280: ca9e 4c3e f5cc d4bd e588 c9bc 3b46 ee3e
00000290: b58a 8fbe d434 17bd 62a7 2dbe a3a6 4a3e
000002a0: 7ad3 05be 840f 5a3d aba1 8fbd 1b45 4b37
000002b0: f392 98bc 3c1e f8bd 4e1e 91bd 6a18 463c
000002c0: c013 8a3d 5869 53be 3850 473d 0c1b db3e
000002d0: 9572 a03d c620 60be 8e66 893b 8a1d 153e
000002e0: 5086 83be 98e2 d4bd f552 dcbd d125 d6bd
000002f0: db2e 923e 089f 8ebc f5f5 87be c489 8d3d
00000300: 2a8f 9abe 1c6a 6ebe b9d1 42be 0b82 203d
00000310: 841c 1ebe db62 a8be 4492 653e 9ac2 2fbe
00000320: 1b39 0c3e ec57 2ebe 7c05 493d 4656 ac3e
00000330: 08d4 aa3c 6b03 4c3d e4d1 fa3d da2f 6d3e
00000340: 33cf 3b3e 6dd9 793e e920 923e 2ad7 1dbe
00000350: f476 babb 9af6 5a3b 07db 4f3d 657c 3d3e
00000360: 05d4 e2bd 7f4c 3ebe 2ca2 bd3d 3c7b 66bd
00000370: c362 8bbe 0f0a e23d b1a3 f9bd f8a5 d13d
00000380: 5274 0f3e 211b 323e 7c3d 853c 0098 173c
00000390: 5a42 cf3d e487 35bd 5c70 04bd 8deb d5bd
000003a0: 2fd6 053e cfeb 51bd c210 c03d e80f e93b
000003b0: 1ad8 db3d 2e7a dfbd a7a7 2e3d 2a5a 473e
000003c0: 1b8a 293d 4ceb 40bd cd0b 4b3e e698 f03b
000003d0: c3b4 af3d 9608 003e feb7 87bd 4d09 dabd
000003e0: fc6b 71be e198 813e eb0b e33c 3614 913e
000003f0: 1305 27be 4804 093e 9446 6d3d 2428 06be

network_body._body_endoder.seq_layers.0.bias f4 [128]
-0.00011321618 0.008067525 -0.0019790549 -0.0003509026 1.8794044e-05 -0.0015977658 -4.954932e-05 -0.002019759
-0.006611406 -0.0010612044 0.00037122355 -0.0016877007 0.003494369 0.005529704 -0.001870038 0.0057824873
0.00054560835 0.000579752 -0.0012468322 -0.0008186622 0.0015033211 -0.0074161002 0.004007041 -0.0004412008
0.00032850628 -0.0025112834 -0.0060769003 0.0102894325 0.001967581 -0.0063553425 0.0038182316 0.00026495504
0.0024040146 0.0052274554 -0.0031106574 0.0013327099 0.0030212288 -0.0061844713 -0.0014781945 -0.0010200139
-4.413645e-05 -0.00051753235 -0.0034781592 0.000991379 0.0028873917 0.010891642 -0.005153753 -0.0013604384
0.0020576157 -0.0025018663 0.0006790221 0.0010388842 0.00093149365 0.00790981 0.0006826211 -0.002036282
0.0025914782 -0.0009624762 -6.3414715e-05 0.00036646574 -0.0003244418 -0.0055148057 8.825264e-05 -0.0020859602
-0.00090777135 -0.0035732726 -0.00055505865 -5.0040042e-05 -0.0001857663 0.0032688053 0.00079412194 -0.0010859245
4.0763916e-06 0.0010786194 -0.0036907217 -0.0056897854 -0.0013716287 -0.0015163511 -0.00019885591 0.00022741169
0.00047465423 0.0058880523 0.0013593355 -0.003507131 0.00045811065 -0.0020684374 0.0022983316 0.0011250004
0.0002526864 0.00039220735 -0.0014084725 -0.005948244 -0.00069235306 0.007415924 -0.0024081082 0.0012548061
-0.0047666333 -0.000520399 0.0019265579 -0.0044727987 0.00082942727 -0.00062443217 -0.00207822 -0.00068100664
-0.004292943 -0.00046985608 8.829631e-05 -0.002044558 -0.00089402386 0.007335777 -0.0026584119 0.0010506744
0.0024113592 -0.0015389543 -0.00030697117 0.011470822 -0.004515286 0.00014124798 0.0002979581 0.0007833915
-0.003685591 0.0005153484 -0.0024192762 -0.002839032 2.6889402e-06 0.00055601326 0.00034892905 1.7789262e-05
00000000: 796e edb8 a72d 043c 08b3 01bb 5af9 b7b9
00000010: e7a7 9d37 206c d1ba 2dd3 4fb8 ef5d 04bb
00000020: 7ea4 d8bb 1c18 8bba c8a0 c239 d735 ddba
00000030: c901 653b 8532 b53b 101c f5ba 057b bd3b
00000040: 2807 0f3a 80fa 173a bf6c a3ba 7e9b 56ba
00000050: 160b c53a c202 f3bb 7f4d 833b f850 e7b9
00000060: 5e3b ac39 5894 24bb bc20 c7bb 0295 283c
00000070: 88f2 003b 7a40 d0bb 4c3b 7a3b aae9 8a39
00000080: ac8c 1d3b 134b ab3b 2cdc 4bbb 53ae ae3a
00000090: cfff 453b 1ba7 cabb fabf c1ba fdb1 85ba
000000a0: 271f 39b8 02ab 07ba d4f1 63bb 29f1 813a
000000b0: 653a 3d3b dc72 323c d0e0 a8bb bd50 b2ba
000000c0: 10d9 063b 5af6 23bb 6700 323a 2b2b 883a
000000d0: 7b2f 743a 2698 013c edf1 323a 2573 05bb
000000e0: cad5 293b af4e 7cba 84fd 84b8 3322 c039
000000f0: d719 aab9 8bb5 b4bb 4614 b938 9bb4 08bb
00000100: 81f7 6dba 912d 6abb 5b81 11ba 16e2 51b8
00000110: 43ca 42b9 7439 563b 9f2c 503a 9455 8eba
00000120: f0c7 8836 7660 8d3a 09e0 71bb 6171 babb
00000130: 39c8 b3ba 4dc0 c6ba fa83 50b9 5c75 6e39
00000140: 03db f839 90f0 c03b bb2b b23a e5d7 65bb
00000150: 922e f039 9f8e 07bb 9b9f 163b c074 933a
00000160: ff7a 8439 2ea1 cd39 7f9c b8ba 7de9 c2bb
00000170: 077f 35ba 4801 f33b 5ad1 1dbb 4e78 a43a
00000180: 6b31 9cbb 636b 08ba 8e84 fc3a 8e90 92bb
00000190: ec6d 593a efb0 23ba bf32 08bb 9585 32ba
000001a0: d1ab 8cbb 0457 f6b9 b82b b938 fefd 05bb
000001b0: ed5c 6aba f560 f03b c038 2ebb c8b6 893a
000001c0: e507 1e3b bdb6 c9ba f9f0 a0b9 1df0 3b3c
000001d0: f7f4 93bb f71b 1439 4237 9c39 835c 4d3a
000001e0: f589 71bb 7218 073a b88c 1ebb 0e0f 3abb
000001f0: a473 3436 6bc1 113a 77f0 b639 263a 9537

network_body._body_endoder.seq_layers.2.weight f4 [128, 128]
0.11153413 0.04687659 0.037835818 0.17643842 -0.16581482 0.12972143 0.14006917 -0.0005412639
-0.022260042 -0.052274603 0.038304914 0.11623 0.083194315 0.0566005 -0.039034355 -0.0054139025
-0.1465377 0.060975283 -0.048597965 0.11214342 0.023588108 -0.01328516 0.124506816 -0.009860865
-0.1717371 0.0018324712 -0.04245354 -0.1135814 0.13126981 0.021219747 -0.032530535 -0.05386565
0.051126014 -0.002932412 -0.07850727 0.0936882 0.07664921 0.111545086 -0.020149525 -0.07008753
0.104477786 0.110620305 -0.14068085 -0.12530053 0.023160128 0.0347949 0.0616747 -0.025281427
0.051686157 -0.015607898 0.006527745 0.06997942 0.113557555 0.08141866 0.122918434 0.035206154
0.020989029 -0.050468754 0.06647908 0.22247058 -0.06350315 0.11271811 0.069014125 0.050562948
0.18853031 -0.04675513 -0.03536324 0.026749551 0.101562075 0.028578935 0.05777455 0.06770487
-0.066668406 -0.062486768 -0.050383445 -0.042189047 0.009078538 0.12373067 -0.12565054 -0.058032952
-0.1929983 -0.027611269 0.04938921 0.1239188 0.06839098 -0.07154219 -0.08431092 -0.13695765
0.06806707 0.16714706 -0.15725796 -0.07085216 0.14100042 -0.040098142 -0.011523423 0.12817816
-0.120091744 -0.075339176 -0.08087312 -0.120853014 0.02845246 0.20559846 -0.056792334 0.072790906
-0.07754519 0.06139128 0.04920176 -0.14237802 -0.054834098 0.025884718 -0.049436238 0.05784488
-0.05446027 0.08522097 0.03147327 -0.025473706 0.021901656 0.14356418 0.02531436 -0.024251522
0.1103942 0.13086985 0.017949069 -0.0034149303 0.03732012 -0.045840614 -0.06729303 0.030184017
0.04693835 0.12959673 -0.1491059 -0.12334953 0.054505404 0.015059526 0.018734911 0.004357957
-0.12477702 0.05881363 -0.0048863213 -0.004623112 0.062066037 -0.023882767 0.039118376 -0.18685706
0.082405955 -0.054619025 -0.024726387 0.014222208 -0.06608223 -0.081868894 -0.017381856 -0.018512743
-0.1873088 0.10077867 -0.04305013 0.07604262 -0.11961519 -0.07145594 -0.013667365 0.097221285
-0.0073475274 0.14214702 -0.0049906983 0.002484561 0.15104371 -0.1305167 -0.030920604 -0.0056535187
-0.13244382 -0.0074574226 0.01160463 -0.11024315 0.12156327 0.047783166 0.047535736 0.037872754
0.13854858 0.061103124 -0.11060283 -0.03699961 0.006913873 -0.0032603268 -0.092321165 -0.11180242
0.08825021 0.12537302 0.019223122 -0.020368122 -0.24327403 -0.0011285555 0.058065284 -0.24125862
-0.046789296 0.20342606 -0.09338634 0.0029782176 -0.067970134 0.012371529 0.0326007 -0.16722761
0.0028680745 0.024903083 0.17083307 0.017205393 0.19765444 0.12916537 0.0067704967 0.040626723
0.041189708 0.22212508 0.026292833 -0.12989692 -0.15885782 0.021486452 -0.03452338 -0.035421237
0.06332149 -0.041381065 -0.1445056 0.086850755 0.04722912 -0.014538042 0.01746654 -0.009353302
0.045142964 0.05330951 -0.024290916 0.10830402 -0.09951784 0.067629844 -0.0026178856 0.055271156
-0.042089514 0.09792255 0.014750648 -0.013967244 -0.033236276 -0.013335343 0.02914929 0.052728932
0.0154841775 -0.01740667 0.0021279294 0.058820534 -0.13372566 0.038350888 -0.022396922 -0.09540854
0.03408191 0.14091946 -0.102862686 -0.08916296 -0.107182056 0.1635044 0.14007367 -0.038200438
00000000: 026c e43d ab01 403d bbf9 1a3d 46ac 343e
00000010: 5ccb 29be b2d5 043e 4b6e 0f3e 9be3 0dba
00000020: b15a b6bc e51d 56bd 9de5 1c3d ff09 ee3d
00000030: c861 aa3d edd5 673d 7de2 1fbd 1b67 b1bb
00000040: fb0d 16be 38c1 793d a90e 47bd 73ab e53d
00000050: d93b c13c 00aa 59bc 6efd fe3d 778f 21bc
00000060: dadb 2fbe 882f f03a c3e3 2dbd 5d9d e8bd
00000070: 986b 063e 09d5 ad3c bd3e 05bd 3aa2 5cbd
00000080: 8369 513d b62d 40bb 6bc8 a0bd 99df bf3d
00000090: 43fa 9c3d c071 e43d 9e10 a5bc 0d8a 8fbd
000000a0: 73f8 d53d e68c e23d a40e 10be c84e 00be
000000b0: 4fba bd3c 1985 0e3d 9c9e 7c3d ff1a cfbc
000000c0: ddb4 533d 45b8 7fbc b2e6 d53b 5f51 8f3d
000000d0: dd90 e83d d4be a63d a9bc fb3d 5434 103d
000000e0: 2ff1 ab3c 53b8 4ebd 2f26 883d 54cf 633e
000000f0: f10d 82bd c1d8 e63d 4757 8d3d 181b 4f3d
00000100: 170e 413e 4f82 3fbd 0bd9 10bd e021 db3c
00000110: c7ff cf3d 5f1e ea3c 02a5 6c3d daa8 8a3d
00000120: 7289 88bd 20f2 7fbd df5e 4ebd 6cce 2cbd
00000130: 26be 143c 8166 fd3d 89aa 00be f6b3 6dbd
00000140: 59a1 45be 0731 e2bc 574c 4a3d 24c9 fd3d
00000150: 9210 8c3d b684 92bd 34ab acbd a03e 0cbe
00000160: bf66 8b3d 9928 2b3e 3b08 21be f01a 91bd
00000170: 6a62 103e f33d 24bd bdcc 3cbc 2341 033e
00000180: a9f2 f5bd 6d4b 9abd cea0 a5bd c981 f7bd
00000190: 2215 e93c 6788 523e 149f 68bd 6613 953d
000001a0: 03d0 9ebd 6c75 7b3d c987 493d 8bcb 11be
000001b0: b899 60bd 300c d43c a77d 4abd c1ee 6c3d
000001c0: bb11 5fbd 5588 ae3d 1eea 003d 3cae d0bc
000001d0: 1a6b b33c 7d02 133e 1060 cf3c 21ab c6bc
000001e0: 5b16 e23d bf02 063e ed09 933c 06cd 5fbb
000001f0: fbdc 183d 5ec3 3bbd eed0 89bd 7944 f73c
00000200: 6d42 403d 01b5 043e 38af 18be ae9e fcbd
00000210: 0f41 5f3d 3bbc 763c f579 993c 31cd 8e3b
00000220: 188b ffbd 90e6 703d 6f1d a0bb 797d 97bb
00000230: f538 7e3d cba5 c3bc 973a 203d 7557 3fbe
00000240: 74c4 a83d 33b8 5fbd fe8e cabc 4404 693c
00000250: 1f56 87bd e1aa a7bd 6564 8ebc 09a8 97bc
00000260: e1cd 3fbe 0c65 ce3d 5555 30bd 3cbc 9b3d
00000270: cff8 f4bd 7e57 92bd 15ed 5fbc f41b c73d
00000280: 87c3 f0bb fd8e 113e 0389 a3bb 04d4 223b
00000290: 34ab 1a3e 2ba6 05be 354d fdbc 2741 b9bb
000002a0: 5a9f 07be 655d f4bb 5921 3e3c 29c7 e1bd
000002b0: 2af6 f83d 48b8 433d d5b4 423d 7620 1b3d
000002c0: aedf 0d3e 4547 7a3d bd83 e2bd e78c 17bd
000002d0: c58d e23b 35ab 55bb e112 bdbd abf8 e4bd
000002e0: 87bc b43d c961 003e cf79 9d3c 0cdb a6bc
000002f0: d41c 79be 0aec 93ba ddd5 6d3d 800c 77be
00000300: 22a6 3fbd ec4e 503e 5641 bfbd 332e 433b
00000310: ed33 8bbd f4b1 4a3c 5088 053d b73d 2bbe
00000320: 4ef6 3b3b 8d01 cc3c ddee 2e3e 53f2 8c3c
00000330: ed65 4a3e ed43 043e 0bdb dd3b 3568 263d
00000340: 8ab6 283d c274 633e 1164 d73c b303 05be
00000350: a0ab 22be 5b04 b03c 6368 0dbd dc15 11bd
00000360: b3ae 813d 317f 29bd 47f9 13be cfde b13d
00000370: 5273 413d f830 6ebc fd15 8f3c 983e 19bc
00000380: d4e7 383d 135b 5a3d befd c6bc 7fce dd3d
00000390: 02d0 cbbd 8481 8a3d d590 2bbb 0264 623d
000003a0: 0e66 2cbd 9e8b c83d b4ac 713c ded6 64bc
000003b0: c322 08bd 7c7c 5abc 7eca ee3c 4bfa 573d
000003c0: 59b1 7d3c 6f98 8ebc bb74 0b3b cded 703d
000003d0: 61ef 08be d215 1d3d c079 b7bc 8d65 c3bd
000003e0: 7999 0b3d 314d 103e aca9 d2bd 129b b6bd
000003f0: 4482 dbbd b36d 273e 796f 0f3e 1078 1cbd

network_body._body_endoder.seq_layers.2.bias f4 [128]
0.0007195601 -0.0011121724 0.00021997197 -0.0027398018 -0.00042793338 -0.00046129062 -0.000867317 0.0003762492
-0.0003078804 0.00010108694 0.0019853273 -0.0014522537 -0.00076424883 -0.0007454503 0.0055904477 -0.00079364947
-0.00017753414 -0.001995537 -0.0026513832 -0.0005576912 -0.001971774 -0.0009979202 0.0004575983 0.0008682225
8.841758e-05 -0.0022514823 -0.0021832443 -0.0005546606 -0.00071609684 0.0012144179 0.00015143922 -0.0019463956
-0.0017017914 -0.0022458513 0.0017090945 -0.00053636055 -0.00062719785 -0.0017786154 0.0008448514 0.0026445652
0.00053841335 -0.00090221217 -0.00055518636 0.0005109417 6.1884944e-05 -0.0075418935 0.0007176876 -0.00078637095
-0.00038713758 0.0016158223 0.00010299742 -0.00070093945 -0.0014763497 -0.001481602 0.00025230926 -0.00065022457
0.0004700294 -0.00016372357 0.00057230744 -0.0013177721 -0.0068739466 0.00135471 0.00042264638 -0.0038121673
0.00029233858 -0.00022162622 -0.001540414 -0.001057072 -0.00120912 -0.00085913145 0.00021256687 0.00041092743
0.0010092914 -0.0033692166 -0.0013049357 -0.0019105189 0.0008799095 -0.001405369 -0.0003857404 -0.0009971107
0.00033058174 -0.00083122274 -0.0007064566 -2.7713217e-05 -0.00039445245 -0.003948965 -0.0007101464 -0.0024309244
0.000585563 -0.000764651 -0.0016280508 -0.0011209319 -0.002892862 -0.00039450862 -4.513569e-05 -0.002511699
0.00049672084 0.0006270077 0.00020547575 -0.00061037706 -0.00023236469 0.0004063629 -0.0023387591 0.00033362265
0.00029898348 -0.00055430224 -0.00035540917 -0.0020634024 -0.0031320632 -0.0023932396 0.0006958827 0.0006605293
-0.0019558475 -0.0015541053 -0.0028875566 0.0049696034 -0.0007626998 -0.0012370005 -0.0009523024 0.00357855
0.0013878183 -0.0023627095 0.00031883598 -0.0004919332 0.0010847248 -0.0015971294 -0.0011405543 -0.0020628837
00000000: dca0 3c3a 50c6 91ba 47a8 6639 3f8e 33bb
00000010: 3f5c e0b9 61d9 f1b9 a95c 63ba 5043 c539
00000020: 026b a1b9 a3fe d338 441c 023b 8c59 beba
00000030: df57 48ba 536a 43ba 1330 b73b ea0c 50ba
00000040: 7528 3ab9 8ec7 02bb d4c2 2dbb 0632 12ba
00000050: e138 01bb a5cc 82ba cee9 ef39 6d99 633a
00000060: d46c b938 9b8d 13bb c314 0fbb a566 11ba
00000070: 72b8 3bba 1a2d 9f3a a8cb 1e39 331e ffba
00000080: a50e dfba 222f 13bb b203 e03a 8c9a 0cba
00000090: 896a 24ba 6e20 e9ba 0579 5d3a 7150 2d3b
000000a0: 4f24 0d3a 6f82 6cba ed89 11ba b8f0 053a
000000b0: 3ac8 8138 fd21 f7bb 3323 3c3a 7624 4eba
000000c0: baf8 cab9 00ca d33a 5200 d838 40bf 37ba
000000d0: 1382 c1ba 5032 c2ba 6048 8439 d573 2aba
000000e0: 476e f639 36ad 2bb9 e706 163a 18b9 acba
000000f0: d83e e1bb 8690 b13a a396 dd39 8ed5 79bb
00000100: 0545 9939 5664 68b9 b8e7 c9ba 738d 8aba
00000110: 567b 9eba 5637 61ba 7ce4 5e39 bf71 d739
00000120: 334a 843a 13ce 5cbb 600a abba 606a faba
00000130: baa9 663a 5c34 b8ba 333d cab9 7cb1 82ba
00000140: ee51 ad39 6ae6 59ba 8031 39ba ae79 e8b7
00000150: 83ce ceb9 5266 81bb 1e29 3aba 2550 1fbb
00000160: 7880 193a dc72 48ba 5264 d5ba 3cec 92ba
00000170: 2c96 3dbb 0dd6 ceb9 1450 3db8 519b 24bb
00000180: 5f36 023a c65d 243a fa74 5739 b601 20ba
00000190: eca6 73b9 1b0d d539 de45 19bb 13ea ae39
000001a0: e2c0 9c39 984e 11ba 3656 bab9 263a 07bb
000001b0: 4d43 4dbb e6d7 1cbb e66b 363a 5f27 2d3a
000001c0: ad2d 00bb 1fb3 cbba 293d 3dbb 0ed8 a23b
000001d0: ebef 47ba d922 a2ba efa3 79ba 1b86 6a3b
000001e0: 74e7 b53a b0d7 1abb 7129 a739 14f5 00ba
000001f0: 532d 8e3a c556 d1ba a77e 95ba 7231 07bb

action_model._discrete_distribution.branches.0.weight f4 [3, 128]
0.019480446 0.0010989541 0.0075673796 -0.00518642 -0.008303671 0.0016797733 -0.0020615442 -0.006186765
-0.0052187243 0.008801092 -0.00468089 -0.010816267 -0.0041744555 -0.0060398076 -0.0017298505 -0.0070322836
0.0017169685 0.0063572866 -0.014297527 0.014099811 0.0011364091 0.0013677009 -0.012014544 0.005041019
0.014245554 -0.008830176 -0.0042184773 0.001906383 -0.023360671 -0.0057924245 -0.0003532947 0.0037396003
0.010144074 -0.001833033 0.0029602977 -0.013382717 -0.0060782586 -0.0006893982 -0.00927232 0.011564299
-0.0134448465 -0.009020421 0.010922447 -0.0040855506 -0.0014061754 0.0046675517 -0.008333364 0.00363156
0.016141877 0.01323579 -0.00979718 0.006100209 0.0051248176 0.0024193714 -0.0076358905 -0.0058010994
-0.0124139 -0.004939708 0.0047377567 -0.015419896 0.0026090834 -0.008672489 -0.0036573699 0.009026932
-0.006016952 0.0013495855 0.0019634555 -0.00894024 0.00041932994 -0.010853948 0.012228837 -0.009615954
-0.010770602 -0.0070298105 -0.006675773 -0.010337925 -0.016470026 0.0031282818 6.122015e-05 -0.014229852
0.008992841 -0.013544922 0.0045249825 -0.004135697 -0.00076691684 -0.0073867585 0.0029614698 0.0027184458
0.017459508 -0.007789722 -0.0025521568 -0.0016129618 0.0073375157 0.0083599435 0.0046755574 -0.0021968693
-0.0006878063 -0.012199661 0.0116023915 0.0025095874 -0.008811813 0.024842637 -0.0028228806 0.004495219
0.00547248 0.0005490886 0.008189378 -0.0014374786 0.00316915 -0.012565661 -0.004494733 0.0061727213
0.006235159 0.011537008 0.0072979997 0.012061246 0.007264132 0.013373912 0.0024145949 -0.0011052801
-0.00580627 -0.0023760726 0.008181782 -0.010900039 0.0043965015 -0.004794749 0.00789241 0.005576693
0.010027382 0.0068458193 0.0109669315 0.008766411 -0.0053126304 0.004208434 0.0052348985 0.004831638
0.0015501739 0.010448696 -4.666661e-05 0.003458385 0.002491929 0.010304561 0.0044471254 -0.008402606
0.013491891 0.012708201 -0.013513853 -0.006043748 -0.018079767 -5.916373e-06 0.009969698 -0.00092224625
-0.0051028323 0.010209316 -0.0031839984 -0.0037544009 -0.011164487 0.00471037 -0.003481994 0.008568658
-0.0006315229 -0.0050227614 -0.0060647405 -0.0001628636 0.0082002245 -0.008329039 -0.0012930239 0.007120205
-0.002661924 0.00509379 -0.0057234038 -0.00521266 -0.008530274 0.0007327158 0.011131051 0.015342407
0.00032701882 0.014975534 0.0018627394 0.002944151 0.0023685156 -0.003547936 0.012552542 0.00647848
0.004216232 -0.0048437133 0.012846757 0.005258204 0.0053965524 0.0029095707 0.0001259893 -0.0075016473
-0.0064971996 -0.0012014512 -0.0098240515 0.0012388073 -0.0020121068 -0.00096982386 -0.0064287805 0.020392809
0.0081579145 0.0021999981 -0.0005307936 -0.0100713475 -0.0023853693 -0.020966614 0.011217794 0.0048787785
-0.008985865 -0.012887457 -0.00052971765 -0.0015182695 0.007220497 0.010139367 -0.0077850316 -0.008269599
-0.010018011 -0.008448901 -0.004898943 -0.0027551674 -0.007097441 -0.0043965555 -0.0049395175 0.0023408802
0.008899575 0.0013716253 0.006036399 0.0018868976 0.010680061 0.006489045 -0.0037662834 0.013349411
0.016040666 -0.0006956302 -0.003838118 -0.014820385 0.006860928 -0.015130363 -0.0070075705 -0.004028746
0.00031373804 0.0014456534 0.0047160545 -0.010361696 0.00019834329 -0.0012991173 0.008339606 0.011704327
0.00938328 -0.010814064 0.0034253697 0.0025784979 0.0034391196 -0.004939718 -0.011489047 -0.0057886783
00000000: 7595 9f3c c80a 903a c8f7 f73b d8f2 a9bb
00000010: 1f0c 08bc d72b dc3a f91a 07bb 59ba cabb
00000020: d501 abbb 7532 103c 2762 99bb b636 31bc
00000030: dfc9 88bb 94e9 c5bb 27bc e2ba 126f e6bb
00000040: e70b e13a c950 d03b 2d40 6abc e502 673c
00000050: 90f3 943a 6d44 b33a a6d8 44bc 222f a53b
00000060: 2f66 693c 71ac 10bc 273b 8abb 99df f93a
00000070: e15e bfbc 61ce bdbb 693a b9b9 1514 753b
00000080: 5533 263c 6242 f0ba 8e01 423b 2f43 5bbc
00000090: 212c c7bb bbb8 34ba eeea 17bc 3078 3d3c
000000a0: c647 5cbc 63ca 13bc 10f4 323c 15e0 85bb
000000b0: 6b4f b8ba 43f2 983b a988 08bc 77ff 6d3b
000000c0: f83b 843c edda 583c 5a84 20bc 43e4 c73b
000000d0: 16ee a73b 518e 1e3b 7e36 fabb 2617 bebb
000000e0: ac63 4bbc 46dd a1bb 2f3f 9b3b bba3 7cbc
000000f0: 28fd 2a3b 0e17 0ebc 7cb0 6fbb b2e5 133c
00000100: da29 c5bb 93e4 b03a 51ad 003b 167a 12bc
00000110: 83d9 db39 c2d4 31bc 765b 483c 3c8c 1dbc
00000120: 2e77 30bc 535a e6bb 71c0 dabb 6660 29bc
00000130: 26ec 86bc dc03 4d3b 5163 8038 5324 69bc
00000140: b556 133c 85eb 5dbc 4e46 943b be84 87bb
00000150: eb0a 49ba 9f0c f2bb 3815 423b f427 323b
00000160: 3e07 8f3c ed40 ffbb 1642 27bb 046a d3ba
00000170: 8b6f f03b 25f8 083c 6b35 993b 5af9 0fbb
00000180: e64d 34ba 16e1 47bc f517 3e3c e477 243b
00000190: 6c5f 10bc c982 cb3c 1400 39bb a14c 933b
000001a0: 7d52 b33b b6f0 0f3a be2c 063c c769 bcba
000001b0: 84b1 4f3b 34e0 4dbc 8e48 93bb 8a44 ca3b
000001c0: 4e50 cc3b b805 3d3c 0f24 ef3b 889c 453c
000001d0: f507 ee3b 411e 5b3c 2e3e 1e3b 0cdf 90ba
000001e0: 8642 bebb e2b7 1bbb e20c 063c 1496 32bc
000001f0: 8710 903b 451d 9dbb 2b4f 013c b1bc b63b
00000200: e349 243c e552 e03b a5ae 333c fea0 0f3c
00000210: 9315 aebb e7e6 893b 8389 ab3b b852 9e3b
00000220: 342f cb3a 0231 2b3c e4bb 43b8 12a6 623b
00000230: a24f 233b 76d4 283c 31b9 913b 15ab 09bc
00000240: 180d 5d3c 0f36 503c 3569 5dbc a20a c6bb
00000250: 051c 94bc 4285 c6b6 f257 233c e6c2 71ba
00000260: a935 a7bb fa44 273c a1aa 50bb 650c 76bb
00000270: 41eb 36bc 7359 9a3b 2a32 64bb 8e63 0c3c
00000280: c98c 25ba fa95 a4bb bbba c6bb 5dc6 2ab9
00000290: 3c5a 063c 8676 08bc af7a a9ba 9c50 e93b
000002a0: ad73 2ebb cfe9 a63b 648b bbbb f6ce aabb
000002b0: 90c2 0bbc ba13 403a 035f 363c b85e 7b3c
000002c0: b973 ab39 f15b 753c 2a27 f43a a8f2 403b
000002d0: 1939 1b3b 7d84 68bb 2da9 4d3c 6e49 d43b
000002e0: 5128 8a3b 03b8 9ebb 347b 523c 034d ac3b
000002f0: 90d5 b03b 7fae 3e3b ff1b 0439 61d0 f5bb
00000300: 76e6 d4bb 037a 9dba 0ff5 20bc 7a5f a23a
00000310: 8ddd 03bb c73b 7eba 85a8 d2bb d20e a73c
00000320: c6a8 053c d82d 103b f524 0bba 4b02 25bc
00000330: db53 1cbb 2dc2 abbc d7ca 373c 29de 9f3b
00000340: 7339 13bc ea25 53bc c0dc 0aba ac00 c7ba
00000350: eb99 ec3b 961f 263c 9419 ffbb 367d 07bc
00000360: 9522 24bc 426d 0abc 5087 a0bb 0a90 34bb
00000370: a691 e8bb fb10 90bb addb a1bb 7469 193b
00000380: 86cf 113c 1cc8 b33a fccc c53b c751 f73a
00000390: 6cfb 2e3c 0ea2 d43b c0d3 76bb 7db7 5a3c
000003a0: b767 833c f45a 36ba ef88 7bbb 33d1 72bc
000003b0: a3d1 e03b 58e5 77bc c39f e5bb 9203 84bb
000003c0: 357d a439 147c bd3a 2289 9a3b 1ac4 29bc
000003d0: 5ffa 4f39 2547 aaba d8a2 083c 81c3 3f3c
000003e0: 54bc 193c 792d 31bc 2b7c 603b 04fc 283b
000003f0: da62 613b 5cdd a1bb 8e3c 3cbc f4ae bdbb

action_model._discrete_distribution.branches.0.bias f4 [3]
-0.0002132081 0.00082476484 -0.0014698687
00000000: 9d90 5fb9 0835 583a 9ca8 c0ba

action_model._discrete_distribution.branches.1.weight f4 [3, 128]
0.0054081604 0.00011093107 0.012742252 -0.01059521 -0.00771734 -0.0040711886 -0.003101206 0.003384108
0.007215625 0.0018805738 0.021456318 0.0015197103 -0.004550366 0.009060369 -0.0009521559 0.0053077415
-0.001060054 0.0010894542 0.006128879 -0.0048256614 -0.01531658 -0.012904552 -0.0062406925 -0.013466308
-0.0070110154 -0.0018200002 -0.005331604 -0.0020903393 -0.0026775566 0.014379189 -0.002124334 0.005186615
-0.0037860607 0.0011547668 -0.0091883615 -0.0015057557 -0.0046150526 0.0006369887 0.0008491723 0.015364675
0.012677159 -0.002808964 -0.01843184 -0.007261152 -0.003316713 0.0078344615 0.02448294 0.014485995
0.005854219 -0.0049755946 -0.0023546256 -0.002606771 -0.014629279 0.005940113 -0.010310703 -0.0016236294
-0.010376058 0.014439398 -0.00081210857 -0.009618865 -0.0023929367 -0.009125559 -0.005876918 0.004175445
-0.008412698 0.00051319925 -0.002573145 -0.0020513604 -0.0006300313 0.0036524362 -0.0014562462 -0.008259917
-0.0078330105 -0.0006101988 0.014136069 -0.010402488 -0.008338583 -0.0011572068 0.00953899 0.004311905
-0.006213484 -0.011656054 -0.0010391559 0.011088959 0.016748978 -0.0009210289 -0.0012783246 -0.008482499
-0.018092204 -0.006694028 -0.0060266857 -0.018148568 0.020868583 0.02010983 0.0018465031 -0.013586948
0.0044583026 0.0026329395 -0.002734864 0.013118309 0.0107389735 -0.014799196 0.0045469217 -0.018985562
-0.006487792 -0.0025212595 0.015342379 0.0007003927 -0.0003867496 -0.015833873 -0.0023991338 0.014733994
-0.0071324464 0.00091435097 -0.004172578 -0.02467767 -0.01109868 0.01921423 0.0042294734 0.013540344
0.011346621 0.0044719283 -0.0043452694 -0.007010398 0.012870611 0.013976573 -0.014139701 0.003052955
-0.027241217 0.0022193908 -0.0025004768 0.0068607475 -0.0038522936 0.017536493 -0.001687824 0.015320146
0.0058729346 -0.0029341695 -0.005274327 0.0030210624 -0.0019514594 -0.009886915 -0.01190657 -0.026107656
-0.011512031 -0.00026979798 0.0014536646 -0.009161654 -0.0018390401 -0.0016077199 -0.004307229 -0.002047861
-0.0063400352 0.0046738493 0.00094407157 0.004778293 -0.001552753 0.010023273 0.009387382 0.011570507
-0.0011098877 -0.020079032 -0.0019783059 0.01655884 -0.005582875 0.0013841123 0.00054039806 0.009191802
-0.018131522 -0.004676647 -0.006127304 0.007584295 0.021433847 0.010362703 -0.005167633 -0.013415951
-0.00048613237 -0.014970409 0.0041885376 -0.0029985534 0.0070311334 0.004813899 0.005512704 0.0013469295
-0.007705154 0.0065789465 -0.007752518 0.0045006047 0.005198059 0.004567805 -0.0029526134 -0.022549564
0.015641112 0.009294039 -0.0045594913 0.006397169 -0.0030982308 0.01687056 0.006569111 0.0091097085
-0.023498649 -0.0024142857 0.018000314 -0.00034482928 0.005231546 -0.0010173967 -0.0008366199 0.0077715046
-0.01625978 -0.00526744 0.008408727 0.012030241 0.0007976363 -0.0030510342 0.0017942488 -0.00877346
-0.004602512 -0.011587538 -0.004745327 0.0040425975 -0.0013098024 0.005460837 0.018040009 -0.009220365
0.0019601742 -0.016224809 -0.0018684715 -0.0053811683 0.010637282 -0.016088514 -0.011571979 0.00088147534
0.0074942177 -0.009327225 -0.027575342 -0.0070596733 0.0084030675 -0.0020030062 0.0039993376 0.020056905
0.0014757595 0.0027574543 0.01032182 -0.009753743 0.0022576905 -0.002959744 -0.010282712 0.007903147
0.013766741 -0.0037003653 -0.013174737 0.011804691 -0.00050006487 -0.021368818 -0.009903626 0.009758394
00000000: f036 b13b aaa3 e838 e1c4 503c 8897 2dbc
00000010: bde1 fcbb 9b67 85bb 9a3d 4bbb e9c7 5d3b
00000020: 0d71 ec3b 967d f63a 29c5 af3c 0431 c73a
00000030: 3d1b 95bb f171 143c 1a9a 79ba 90ec ad3b
00000040: 83f1 8aba 04cc 8e3a c3d4 c83b 9520 9ebb
00000050: 65f2 7abc 9d6d 53bc b97e ccbb caa1 5cbc
00000060: a9bc e5bb 138d eeba bcb4 aebb 13fe 08bb
00000070: f279 2fbb b196 6b3c 6938 0bbb 7bf4 a93b
00000080: 8f1f 78bb 8b5b 973a c88a 16bc c75c c5ba
00000090: de39 97bb 97fb 263a fd9a 5e3a 1ebc 7b3c
000000a0: dcb3 4f3c 9916 38bb 5ffe 96bc f5ee edbb
000000b0: 365d 59bb 1d5c 003c 7290 c83c ab56 6d3c
000000c0: c0d4 bf3b 500a a3bb 1050 1abb 5cd6 2abb
000000d0: a5af 6fbc 48a5 c23b 39ee 28bc f6cf d4ba
000000e0: 5700 2abc 3a93 6c3c afe3 54ba 7298 1dbc
000000f0: d1d2 1cbb 5e83 15bc 2993 c0bb 2cd2 883b
00000100: 6ad5 09bc 3888 063a 36a2 28bb 1e70 06bb
00000110: af28 25ba b65d 6f3b 84df beba 9a54 07bc
00000120: 0756 00bc c0f5 1fba f99a 673c 326f 2abc
00000130: 8d9e 08bc 6bad 97ba 6d49 1c3c e14a 8d3b
00000140: 7b9a cbbb 09f9 3ebc 4934 88ba 77ae 353c
00000150: 2735 893c 3471 71ba 758d a7ba 2efa 0abc
00000160: 1a36 94bc 9459 dbbb 817b c5bb 4eac 94bc
00000170: 97f4 aa3c 5fbd a43c 5d06 f23a ca9b 5ebc
00000180: f416 923b 658d 2c3b 673b 33bb 2dee 563c
00000190: 85f2 2f3c 5478 72bc 58fe 943b 9c87 9bbc
000001a0: 8b97 d4bb b73b 25bb 9a5e 7b3c 8f9a 373a
000001b0: a7c4 cab9 0ab6 81bc c93a 1dbb da66 713c
000001c0: 4cb7 e9bb 0eb1 6f3a 1fba 88bb d328 cabc
000001d0: 3dd7 35bc 2967 9d3c 6597 8a3b 52d8 5d3c
000001e0: 2ee7 393c 4189 923b c362 8ebb 7bb7 e5bb
000001f0: 41df 523c fffd 643c 34aa 67bc 1614 483b
00000200: f928 dfbc 3373 113b 0adf 23bb 1fd0 e03b
00000210: c376 7cbb b1a8 8f3c fa39 ddba 5a01 7b3c
00000220: bf71 c03b 324b 40bb 43d4 acbb 04fd 453b
00000230: 1dc8 ffba bafc 21bc c613 43bc b9df d5bc
00000240: f59c 3cbc ac73 8db9 e488 be3a c31a 16bc
00000250: f20b f1ba 21ba d2ba a823 8dbb 6835 06bb
00000260: 12c0 cfbb 1727 993b 927b 773a 3a93 9c3b
00000270: bf85 cbba a738 243c 89cd 193c 3992 3d3c
00000280: a779 91ba c87c a4bc 77a6 01bb 68a6 873c
00000290: 8df0 b6bb 1a6b b53a 80a9 0d3a 3699 163c
000002a0: 8f88 94bc 8f3e 99bb 8dc7 c8bb ad85 f83b
000002b0: 0996 af3c 54c8 293c 3f55 a9bb 94ce 5bbc
000002c0: 95df feb9 7246 75bc 0040 893b 6183 44bb
000002d0: 6c65 e63b e9bd 9d3b eaa3 b43b 748b b03a
000002e0: 847b fcbb 3494 d73b d608 febb cf79 933b
000002f0: 7b54 aa3b 87ad 953b a280 41bb ddb9 b8bc
00000300: ca21 803c 0646 183c c967 95bb 589f d13b
00000310: b00b 4bbb 2134 8a3c b241 d73b e340 153c
00000320: 3d80 c0bc fe38 1ebb 6575 933c 34ca b4b9
00000330: 636d ab3b 2b5a 85ba 9c50 5bba 1ba8 fe3b
00000340: 3b33 85bc 7d9a acbb c2c4 093c 7d1a 453c
00000350: 7718 513a dcf3 47bb 002d eb3a 8fbe 0fbc
00000360: abd0 96bb a8d9 3dbc b07e 9bbb c477 843b
00000370: adad abba d2f0 b23b a4c8 933c 0411 17bc
00000380: 4476 003b e4e9 84bc 80e7 f4ba 8354 b0bb
00000390: ff47 2e3c 0fcc 83bc 6698 3dbc cf12 673a
000003a0: 0e92 f53b 38d1 18bc afe5 e1bc d554 e7bb
000003b0: 05ad 093c de44 03bb e00c 833b 614e a43c
000003c0: 466e c13a 68b6 343b da1c 293c 2ace 1fbc
000003d0: c3f5 133b 44f8 41bb d278 28bc 337c 013c
000003e0: e68d 613c d481 72bb dada 57bc 7668 413c
000003f0: c916 03ba a90d afbc d142 22bc ace1 1f3c

action_model._discrete_distribution.branches.1.bias f4 [3]
3.4371584e-05 -0.00011498206 7.669167e-05
00000000: 352a 1038 8622 f1b8 87d5 a038

exp_avg f4 [128, 33]
-3.501983e-05 7.0824967e-06 1.8570892e-05 -4.4036762e-05 4.7428887e-07 9.958128e-06 -4.567184e-05 1.1632878e-05
1.721812e-05 -4.8588205e-05 2.0232771e-06 7.2359485e-06 -1.7518441e-05 1.0214203e-07 7.921358e-06 -2.6480457e-05
5.7487655e-06 3.6781844e-06 -3.3786448e-06 2.537144e-06 3.3218582e-06 -1.4676788e-05 2.468625e-06 -9.97589e-07
1.7576816e-05 6.338159e-07 3.3920958e-06 -0.00035450098 -5.6103552e-05 2.964897e-05 -6.0833332e-05 -5.6345925e-05
4.014764e-06 -1.3380532e-07 5.0115017e-07 -5.355737e-07 8.907011e-06 -5.408234e-07 1.2743608e-06 -1.5670851e-06
-1.1033247e-06 -2.063136e-06 4.112458e-06 1.7331062e-07 6.4485675e-07 1.7606992e-07 -8.225665e-07 -6.7924145e-07
3.0469075e-06 6.527201e-07 -5.704516e-07 5.3726535e-07 -2.0787512e-07 6.576654e-07 4.304025e-06 8.4374864e-07
-5.986099e-07 -1.5639138e-06 3.7952645e-07 2.2424526e-07 0.00012161915 1.5881701e-06 4.389751e-05 1.7220068e-06
1.5949673e-06 -1.1364637e-07 8.557914e-06 -9.3073675e-07 -2.139669e-06 1.8348986e-05 -1.8010554e-06 -1.2392433e-06
4.4247668e-06 -4.4479825e-07 -4.023593e-06 1.27485155e-05 -8.29407e-07 6.324372e-07 -5.2713667e-06 -8.83579e-07
-1.9263205e-06 6.9465123e-06 1.1495108e-06 2.6249532e-07 -6.772063e-06 5.040689e-07 -1.2694967e-07 6.836828e-06
2.4417196e-07 7.2862014e-07 -1.1512928e-05 -1.9883503e-06 -1.6732588e-06 -1.2118997e-05 -4.2925407e-05 2.1933192e-05
-4.6544003e-05 -4.311069e-05 3.071717e-06 3.2312462e-05 -6.94805e-06 -1.421866e-05 4.4475477e-05 -4.2466063e-06
-1.4636071e-05 2.4942507e-05 -7.267652e-06 2.9240864e-06 4.3033546e-05 -5.472283e-06 -1.7429591e-05 -2.2936132e-05
2.3264374e-06 2.095232e-05 2.3272472e-05 -1.04867695e-05 -1.5365746e-05 -4.061934e-05 5.2529845e-06 2.2880135e-05
3.2088705e-05 -2.4342937e-06 -6.2927097e-06 -7.372074e-05 2.27577e-06 1.5830366e-05 -0.00030770423 0.00021491745
-3.2089083e-05 0.00023303479 0.00021584544 -1.5379417e-05 1.4524472e-06 -3.4184893e-07 -3.66909e-06 2.1994774e-06
6.841024e-07 -5.6409235e-06 1.2807904e-05 -1.4864233e-06 -4.4399885e-06 6.73951e-06 -1.969336e-06 -9.012764e-06
3.900943e-06 -2.794209e-06 -6.140965e-06 9.1375105e-06 -2.8635616e-06 -8.440951e-06 2.9621206e-06 -3.0988328e-06
-5.31582e-06 2.348205e-06 -2.386868e-06 -7.0667534e-06 -9.4227835e-06 -1.6616331e-06 -4.1852086e-06 -0.00064606435
-0.0003940623 -1.612595e-05 -0.00042728102 -0.00039576337 2.8198883e-05 9.998596e-07 -2.4611941e-08 -1.1666901e-06
-5.2559085e-06 3.2936587e-08 -1.4506978e-06 7.5540476e-07 -8.365633e-07 -1.6553067e-06 -3.8683e-06 -3.292151e-08
-1.6538329e-06 -5.0924217e-07 -4.202054e-07 -1.1311927e-06 -2.651061e-06 2.2285512e-08 -9.88717e-07 7.3706e-08
-6.1684595e-09 -8.234663e-07 -1.6841433e-06 -4.8515204e-08 -6.231043e-07 2.621702e-07 -9.79234e-09 -5.626601e-07
0.00026826508 -0.00012242435 1.4610541e-05 -0.00013274458 -0.0001229528 8.76062e-06 4.220946e-05 -9.464994e-06
-7.219454e-06 5.0456318e-05 -8.5511215e-07 -6.7918895e-06 5.440453e-05 -1.229733e-05 1.1694817e-05 5.2302694e-05
-6.471837e-09 -2.3114064e-06 1.5125813e-05 5.7128445e-06 2.3956152e-05 3.2375483e-05 -9.886865e-06 3.8653042e-07
-8.8494835e-07 3.3313597e-06 2.2355733e-05 2.4989768e-05 -7.819765e-07 8.285472e-06 -2.6085365e-05 3.789193e-06
1.9740479e-05 -0.00018316196 0.0013893679 -0.00013422793 0.001506489 0.0013953653 -9.942238e-05 1.7195165e-05
-3.0262195e-06 -4.882654e-06 1.3218415e-05 1.7531676e-06 -1.1435271e-06 2.5996736e-05 -4.9899786e-06 -3.9051833e-06
1.7372167e-05 2.0196578e-06 3.8530516e-06 2.1280679e-05 2.1872804e-06 -3.685153e-06 4.5022857e-06 -7.200514e-07
5.287984e-06 1.9254861e-05 -2.015684e-06 -3.920401e-06 -2.1965923e-06 -1.2914906e-07 6.111076e-06 2.1015416e-05
00000000: 42e2 12b8 2fa6 ed36 b0c8 9b37 1db4 38b8
00000010: c4a1 fe34 d611 2737 c48f 3fb8 d52a 4337
00000020: a26f 9037 30cb 4bb8 a3c7 0736 53cc f236
00000030: 91f4 92b7 2d59 db33 f9e5 0437 5922 deb7
00000040: 85e5 c036 bad6 7636 adbc 62b6 cd43 2a36
00000050: 17ed 5e36 533c 76b7 a8aa 2536 e6e4 85b5
00000060: ed71 9337 7f23 2a35 c3a3 6336 51dc b9b9
00000070: bb50 6bb8 aeb6 f837 4b27 7fb8 fa54 6cb8
00000080: 8fb6 8636 20ac 0fb4 c786 0635 58c4 0fb5
00000090: 526f 1537 1a2d 11b5 b40a ab35 a254 d2b5
000000a0: f315 94b5 6874 0ab6 bffd 8936 4317 3a34
000000b0: 381a 2d35 bb0d 3d34 57ce 5cb5 1e55 36b5
000000c0: 7979 4c36 9536 2f35 2321 19b5 9838 1035
000000d0: 4734 5fb4 6c8a 3035 4b6b 9036 f77d 6235
000000e0: 29b0 20b5 abe7 d1b5 b8c1 cb34 11c8 7034
000000f0: c90d ff38 1c29 d535 981e 3838 b41f e735
00000100: a912 d635 c10d f4b3 f693 0f37 bed7 79b5
00000110: 3c97 0fb6 26ec 9937 cbbb f1b5 1354 a6b5
00000120: 7578 9436 9bcc eeb4 6702 87b6 75e2 5537
00000130: 6aa4 5eb5 c1c4 2935 b2e0 b0b6 162f 6db5
00000140: ef45 01b6 1616 e936 e448 9a35 15ed 8c34
00000150: 943b e3b6 5a4f 0735 a94f 08b4 e867 e536
00000160: bd16 8334 6596 4335 a627 41b7 996f 05b6
00000170: bc94 e0b5 b252 4bb7 ce0a 34b8 2cfd b737
00000180: 3e38 43b8 c0d1 34b8 b223 4e36 3e87 0738
00000190: 4c23 e9b6 ae8c 6eb7 2e8b 3a38 127e 8eb6
000001a0: 728d 75b7 a03b d137 a8dc f3b6 6c3b 4436
000001b0: eb7e 3438 8e9e b7b6 c335 92b7 f866 c0b7
000001c0: e41f 1c36 c4c2 af37 4139 c337 55f0 2fb7
000001d0: b0e5 80b7 af5e 2ab8 cb42 b036 b7ee bf37
000001e0: fc96 0638 d95c 23b6 f725 d3b6 859a 9ab8
000001f0: 6eb9 1836 74cb 8437 5d53 a1b9 775b 6139
00000200: 6497 06b8 cd5a 7439 9254 6239 0c03 81b7
00000210: b5f1 c235 5c87 b7b4 7c3a 76b6 bc9a 1336
00000220: 29a3 3735 2a47 bdb6 87e1 5637 1e81 c7b5
00000230: 36fb 94b6 f323 e236 ef28 04b6 8735 17b7
00000240: d8e4 8236 2584 3bb6 7d0e ceb6 4f4d 1937
00000250: 9d2b 40b6 9c9d 0db7 d8c8 4636 8bf5 4fb6
00000260: 8c5e b2b6 db95 1d36 142e 20b6 f31e edb6
00000270: 8c16 1eb7 4705 dfb5 ab6e 8cb6 a55c 29ba
00000280: 269a ceb9 3746 87b7 b004 e0b9 767e cfb9
00000290: a48c ec37 ea32 8635 3b6a d3b2 2b97 9cb5
000002a0: e95b b0b6 2976 0d33 99b5 c2b5 05c7 4a35
000002b0: 3190 60b5 e82b deb5 72cc 81b6 9565 0db3
000002c0: 44f9 ddb5 dbb2 08b5 9798 e1b4 7cd3 97b5
000002d0: e2e8 31b6 5c6e bf32 0fb4 84b5 4d48 9e33
000002e0: 58f2 d3b1 2c0c 5db5 b90a e2b5 085f 50b3
000002f0: 6743 27b5 66c0 8c34 2b3b 28b2 b509 17b5
00000300: eea5 8c39 095f 00b9 cc1f 7537 5a31 0bb9
00000310: e4ec 00b9 94fa 1237 100a 3138 d7cb 1eb7
00000320: a33e f2b6 0fa1 5338 dc8a 65b5 e3e5 e3b6
00000330: 6b30 6438 a150 4eb7 db34 4437 975f 5b38
00000340: e15e deb1 a91d 1bb6 dfc4 7d37 f6b0 bf36
00000350: 72f5 c837 e9ca 0738 c3df 25b7 5684 cf34
00000360: 308d 6db5 5390 5f36 9288 bb37 1ea1 d137
00000370: 04e9 51b5 d501 0b37 e5d1 dab7 d749 7e36
00000380: 5b98 a537 2a0f 40b9 731b b63a 89bf 0cb9
00000390: 6275 c53a b1e4 b63a fc80 d0b8 563e 9037
000003a0: 0e16 4bb6 aed5 a3b6 a9c4 5d37 614e eb35
000003b0: 4b7b 99b5 9113 da37 976f a7b6 4509 83b6
000003c0: 72ba 9137 7589 0736 7649 8136 e983 b237
000003d0: 31c9 1236 724e 77b6 5712 9736 8e49 41b5
000003e0: 706f b136 8085 a137 3045 07b6 fd8b 83b6
000003f0: 2b69 13b6 39ac 0ab4 be0d cd36 434a b037

exp_avg_sq f4 [128, 33]
8.766872e-10 2.57364e-11 2.5964494e-10 7.89925e-10 3.8941315e-12 1.7450921e-10 7.9653034e-10 6.638916e-11
3.3185568e-10 6.1186917e-10 2.6627023e-12 1.4253351e-10 3.7000916e-10 1.7963178e-11 2.1835758e-10 3.6074296e-10
3.8880245e-12 1.4065647e-10 1.4955165e-10 5.419766e-12 1.4142124e-10 1.8864882e-10 2.0793972e-12 1.306816e-10
1.0921358e-10 3.4300063e-12 1.2522788e-10 7.5018835e-07 1.3350581e-06 1.1374986e-08 1.569646e-06 1.3466212e-06
6.8365664e-09 1.6061189e-11 9.590989e-13 6.423979e-12 2.0786116e-11 4.9117085e-13 6.3381704e-12 2.4784083e-11
7.031803e-13 7.0589173e-12 1.1864189e-11 8.257112e-14 3.7163467e-12 1.898256e-11 7.898256e-13 5.8851574e-12
9.447334e-12 1.9929505e-13 2.883856e-12 1.45075185e-11 2.8090713e-13 4.3757307e-12 1.1475391e-11 1.5004908e-13
2.9931118e-12 6.925573e-12 2.8933168e-13 4.2348555e-12 1.7109672e-08 2.9763234e-08 7.187098e-10 3.4992638e-08
3.0020676e-08 1.5240988e-10 5.888595e-11 3.346641e-12 1.4102123e-11 7.321292e-11 1.9169015e-12 1.1541511e-11
6.0057556e-11 2.1998996e-12 1.1156433e-11 6.4401984e-11 1.7352e-12 9.912824e-12 4.8364125e-11 2.1970422e-12
7.929908e-12 4.64404e-11 1.5698673e-12 9.084747e-12 3.7820743e-11 1.7776778e-12 7.998055e-12 3.9987208e-11
1.3065174e-12 7.706943e-12 2.5387307e-11 1.4383151e-12 1.0004876e-11 2.0903277e-08 8.2639865e-08 7.60928e-10
9.715988e-08 8.3354834e-08 4.2317821e-10 1.8342718e-09 2.0318776e-11 3.2913727e-10 1.6830445e-09 1.6154682e-11
2.6484664e-10 1.6067445e-09 3.40824e-11 3.5297307e-10 1.1898013e-09 1.1582866e-11 2.2093757e-10 7.548519e-10
2.2338709e-11 2.4905045e-10 5.994838e-10 1.7079458e-11 2.0728956e-10 4.407744e-10 2.170737e-11 1.8791083e-10
5.1269794e-10 7.797898e-12 1.9357536e-10 3.9984896e-10 8.7073656e-12 1.5018045e-10 3.540388e-07 1.8918914e-06
1.07500915e-08 2.2241989e-06 1.9081715e-06 9.687465e-09 4.0159376e-10 8.36807e-12 1.5023036e-10 2.9742397e-10
2.169945e-12 1.03945436e-10 3.017359e-10 1.16163815e-11 1.6090446e-10 2.0381909e-10 2.3292674e-12 8.958544e-11
1.3113977e-10 5.2131e-12 1.0582913e-10 1.4488476e-10 1.5497394e-12 8.290542e-11 9.0543885e-11 3.4021553e-12
6.7337025e-11 8.5484626e-11 9.738877e-13 7.6090655e-11 6.786146e-11 1.6274676e-12 5.6183364e-11 4.298258e-07
6.0947013e-07 6.6247257e-09 7.165372e-07 6.147274e-07 3.1208685e-09 2.527434e-10 4.0225958e-11 4.3407977e-10
8.5667265e-11 3.7786558e-16 2.0780498e-10 1.751085e-10 1.6431681e-10 5.8971233e-10 3.833792e-11 4.585172e-16
1.3831446e-10 7.91522e-11 3.6743542e-11 3.5493852e-10 9.084177e-11 2.2343948e-16 1.9824187e-10 2.330215e-11
6.217741e-17 1.6597165e-10 8.55907e-11 4.829823e-16 1.788063e-10 7.734154e-11 7.03689e-17 1.5486226e-10
2.7545173e-06 9.820704e-07 2.7881232e-08 1.1546183e-06 9.90564e-07 5.0289257e-09 1.8480906e-09 2.0537499e-11
3.054315e-10 1.7782648e-09 1.0856999e-11 2.4874897e-10 1.6323619e-09 3.627726e-11 3.165784e-10 1.3469896e-09
9.489641e-12 2.2586398e-10 7.582293e-10 1.5683429e-11 2.2563197e-10 7.368622e-10 1.3156897e-11 2.1193584e-10
3.8200404e-10 1.751492e-11 1.6911766e-10 4.9762966e-10 8.8391265e-12 2.0442366e-10 1.6262396e-10 7.94876e-12
1.5391435e-10 2.0267404e-07 2.2037605e-06 1.1077015e-08 2.5909676e-06 2.222827e-06 1.1284919e-08 1.8885574e-10
5.132363e-12 3.928297e-11 1.6243222e-10 1.4259891e-12 2.831315e-11 1.6592169e-10 8.494182e-12 5.086411e-11
1.2714675e-10 1.5614772e-12 2.3018186e-11 8.769707e-11 3.5986546e-12 3.301735e-11 7.1708375e-11 2.020033e-12
2.7036911e-11 5.2675617e-11 1.8325673e-12 2.2295537e-11 5.528875e-11 1.5897827e-12 2.527899e-11 4.19772e-11
00000000: 61fb 7030 3961 e22d c7bd 8e2f 0822 5930
00000010: 3803 892c fadf 3f2f d7f2 5a30 c6fd 912e
00000020: 8970 b62f 7730 2830 fb5e 3b2c 9eb7 1c2f
00000030: 296a cb2f 7b01 9e2d 3216 702f 0f52 c62f
00000040: 36cc 882c 47a7 1a2f 0c6f 242f eab0 be2c
00000050: 8a7e 1b2f ec6b 4f2f 1753 122c 9aaf 0f2f
00000060: c829 f02e 805d 712c 84b0 092f 8d60 4935
00000070: 3f30 b335 b86b 4332 a0ac d235 8dbd b435
00000080: 13e7 ea31 9546 8d2d 2efb 862b 0f06 e22c
00000090: 2cd6 b62d 9740 0a2b 2a01 df2c cb00 da2d
000000a0: 7bed 452b 135d f82c 8fb7 502d 03ef b929
000000b0: e0c1 822c edf8 a62d ef50 5e2b c910 cf2c
000000c0: 0333 262d e362 602a eeee 4a2c 0e38 7f2d
000000d0: fc22 9e2a 14f5 992c 91e0 492d b4f0 282a
000000e0: 1c9f 522c 04ac f32c 17e1 a22a 3000 952c
000000f0: 91f8 9232 0baa ff32 b58e 4530 d04a 1633
00000100: 15f0 0033 9193 272f d87d 812e ba7f 6b2c
00000110: 5116 782d 36ff a02e d4e3 062c 580a 4b2d
00000120: 6611 842e decd 1a2c 1c44 442d 189f 8d2e
00000130: 2b35 f42b 6463 2e2d 2ab5 542e 659a 1a2c
00000140: 2181 0b2d 3e3f 4c2e 6ef0 dc2b 10d2 1f2d
00000150: 5f56 262e 982f fa2b 0ab4 0c2d 98dd 2f2e
00000160: 40e0 b72b fc94 072d 224f df2d c36c ca2b
00000170: f501 302d cb8e b332 bf77 b133 8c29 5130
00000180: 35a6 d033 ce00 b333 0aa5 e82f b419 fc30
00000190: d1b9 b22d f4f1 b42f dd50 e730 1c19 8e2d
000001a0: da99 912f 4cd4 dc30 5fe5 152e 8b0c c22f
000001b0: 6986 a330 97c4 4b2d 66ec 722f fb7d 4f30
000001c0: 4d7e c42d bcea 882f ecc8 2430 853b 962d
000001d0: d3ea 632f 7b51 f22f a7f0 be2d 329c 4e2f
000001e0: e9ed 0c30 9c2e 092d 9fd6 542f bdd1 db2f
000001f0: 7d2e 192d 0a20 252f b912 be34 e5ec fd35
00000200: 67af 3832 7243 1536 230e 0036 ec6d 2632
00000210: 4cc7 dc2f 7036 132d 162e 252f b482 a32f
00000220: 41b2 182c 1494 e42e 8de1 a52f 885b 4c2d
00000230: 94ea 302f f919 602f 5ae8 232c 1f00 c52e
00000240: 9030 102f 6e6b b72c 81b8 e82e 6f4d 1f2f
00000250: 3f1b da2b 9a4f b62e ad1b c72e c867 6f2c
00000260: 6013 942e 91fb bb2e 0110 892b 3b53 a72e
00000270: 9b3a 952e b30b e52b d818 772e cfc2 e634
00000280: 789a 2335 b49f e331 1058 4035 bf03 2535
00000290: e676 5631 79f2 8a2f 67ea 302e 4ca3 ee2f
000002a0: 6262 bc2e 1ed3 d925 e77b 642f a988 402f
000002b0: 12ab 342f 5119 2230 a99c 282e 9928 0426
000002c0: 0f14 182f ba0e ae2e 8d99 212e 2821 c32f
000002d0: 5fc3 c72e d9cd 8025 20f8 592f c7f7 cc2d
000002e0: 115f 8f24 de7c 362f 4837 bc2e ce35 0b26
000002f0: 8099 442f 6b13 aa2e 7842 a224 da45 2a2f
00000300: 3fda 3836 afcf 8335 7a7f ef32 62f8 9a35
00000310: 85f3 8435 e6ca ac31 e8ff fd30 56a6 b42d
00000320: aae9 a72f 2167 f430 94ff 3e2d 4ec0 882f
00000330: a159 e030 908c 1f2e 730a ae2f fc20 b930
00000340: 8bf1 262d 0f57 782f a56b 5030 f1f3 892d
00000350: c115 782f 118c 4a30 6575 672d a306 692f
00000360: 4a02 d22f 1810 9a2d 64f2 392f 93c9 0830
00000370: e37f 1b2d 25c4 602f 93ce 322f 08d6 0b2d
00000380: 0a3b 292f 9e9e 5934 51e4 1336 3a4d 3e32
00000390: 7ce0 2d36 e12b 1536 99df 4132 2aa6 4f2f
000003a0: 3794 b42c b1c4 2c2e 9b98 322f acb0 c82b
000003b0: 8c0b f92d ce6e 362f 656e 152d e6b3 5f2e
000003c0: a1cc 0b2f 25c2 db2b 5978 ca2d 10d9 c02e
000003d0: 993b 7d2c 3b36 112e 3ab0 9d2e ae25 0e2c
000003e0: b6d1 ed2d 79ab 672e 99f4 002c 161d c42d
000003f0: 9929 732e f5bd df2b 3a5b de2d 209e 382e

exp_avg f4 [128]
-2.4392994e-06 6.9049555e-08 -1.8663236e-06 9.34426e-06 -1.7133147e-05 -5.3228e-06 6.0407307e-05 1.7448476e-05
4.8674967e-05 -5.3707954e-06 -1.9881396e-07 1.4271158e-05 -5.3685466e-07 -1.6181759e-05 1.2519155e-06 -3.2615998e-07
2.0772234e-07 6.7843484e-07 1.446486e-06 6.5704094e-06 -1.8892865e-09 5.6923004e-06 -2.2874128e-06 1.1879635e-05
-7.585966e-06 6.823461e-06 1.5167619e-07 -3.7233574e-05 -1.24047165e-05 2.6546334e-06 -4.00247e-05 6.7602773e-06
-1.5959134e-08 1.4924697e-05 3.7330377e-05 -7.0233496e-06 -9.2806185e-06 1.12454664e-07 8.525939e-06 -4.8018514e-06
-2.8016806e-05 1.8760906e-05 5.3651297e-06 -1.5286929e-06 2.1692196e-05 -4.118661e-05 -1.1557459e-09 1.3286061e-05
-1.1547678e-07 3.0535106e-05 -4.4460694e-06 -2.7790813e-05 1.1391297e-05 -2.755421e-05 4.0888112e-06 1.1868094e-07
7.205113e-06 2.2534066e-06 1.419244e-05 -2.094611e-05 -1.8604646e-06 3.8876848e-07 -4.7261647e-06 6.401312e-07
1.2429274e-07 1.01783735e-05 -3.3849299e-06 8.2371935e-06 2.8521229e-06 -6.952323e-06 2.456672e-08 2.4556603e-05
8.008093e-07 -2.9804874e-05 4.4417033e-07 3.9615494e-05 -2.0268082e-05 -1.443893e-06 -1.0379335e-05 4.173436e-06
-3.2281882e-06 -1.0531986e-06 -1.2329128e-06 -6.305438e-07 -1.772746e-05 1.7865062e-06 3.8371772e-06 -8.5575324e-05
5.1408757e-09 -9.0924345e-07 1.0373009e-06 4.474561e-08 -7.4860386e-06 -2.281282e-07 4.4014205e-06 5.0078856e-06
-1.0502146e-05 -1.0417883e-06 1.2663014e-06 -4.847085e-06 -4.848863e-07 2.900176e-07 1.2086914e-05 -1.318475e-06
5.0457716e-06 1.42845735e-08 -2.7884494e-06 2.3986463e-06 2.3197751e-06 -9.1501954e-07 -1.4521094e-05 2.9874982e-06
-1.1158654e-06 -5.343954e-07 3.6908958e-08 -2.0647535e-06 2.2999808e-05 -2.0551333e-05 -2.9740786e-05 2.1287502e-05
-4.8441725e-06 4.45185e-06 2.4579684e-05 3.1845013e-06 4.4211423e-12 -4.0646484e-08 1.6521228e-06 1.5950958e-05
00000000: d8b2 23b6 6548 9433 647e fab5 4bc5 1c37
00000010: 27b9 8fb7 819a b2b6 da5d 7d38 515e 9237
00000020: 5928 4c38 c836 b4b6 9179 55b4 286e 6f37
00000030: 5f1c 10b5 10be 87b7 7d07 a835 161b afb4
00000040: 480a 5f34 b01d 3635 e124 c235 6377 dc36
00000050: aed4 01b1 7d00 bf36 7481 19b6 a54e 4737
00000060: f48a feb6 15f5 e436 6fdc 2234 3f2b 1cb8
00000070: da1d 50b7 4126 3236 32e0 27b8 57d6 e236
00000080: 8216 89b2 1665 7a37 3093 1c38 1daa ebb6
00000090: f4b3 1bb7 9b7e f133 a10a 0f37 971f a1b6
000000a0: a205 ebb7 bd60 9d37 1d06 b436 7d2d cdb5
000000b0: a3f7 b537 c9bf 2cb8 32d8 9eb0 33e7 5e37
000000c0: 08fc f7b3 d212 0038 722f 95b6 5120 e9b7
000000d0: 401d 3f37 3724 e7b7 9f32 8936 89dd fe33
000000e0: 73c3 f136 3b39 1736 111c 6e37 6eb5 afb7
000000f0: 14b5 f9b5 efb7 d034 7295 9eb6 7bd5 2b35
00000100: 5475 0534 c8c3 2a37 a728 63b6 7a32 0a37
00000110: 1967 3f36 0048 e9b6 ca06 d332 e7fe cd37
00000120: 32f7 5635 7b05 fab7 4e76 ee34 d028 2638
00000130: 6005 aab7 c9cb c1b5 e822 2eb7 8b09 8c36
00000140: daa3 58b6 a15b 8db5 907a a5b5 a442 29b5
00000150: 6eb5 94b7 e3c7 ef35 1ac1 8036 e776 b3b8
00000160: 9fa3 b031 bc12 74b5 6339 8b35 522e 4033
00000170: 9530 fbb6 67f3 74b4 eaaf 9336 6909 a836
00000180: 6032 30b7 93d3 8bb5 c9f5 a935 25a4 a2b6
00000190: 2229 02b5 b7b3 9b34 e6c8 4a37 75f6 b0b5
000001a0: d94e a936 3868 7532 3221 3bb6 6ef8 2036
000001b0: 6fad 1b36 aa9f 75b5 a09f 73b7 d47c 4836
000001c0: d8c4 95b5 5f73 0fb5 d485 1e33 3290 0ab6
000001d0: b6ef c037 a765 acb7 da7b f9b7 9092 b237
000001e0: 208b a2b6 1a61 9536 7830 ce37 51b5 5536
000001f0: 1c8e 9b2c 4893 2eb3 82be dd35 6cce 8537
