results/ppo/MoveSomewhere/MoveSomewhere-3008.pt (torch, 179991 bytes, 14 tensors)

discrete_act_size_vector f4 [1, 2]
00000000: 0000 4040 0000 4040
3.0 3.0

network_body._body_endoder.seq_layers.0.weight f4 [128, 33]
00000000: ae45 893e cab9 593d 7c00 743e e73b 04be
00000010: e2c4 bebd 54f5 bb3c e66b 283e fdd8 e03d
00000020: 8c1d e83d c3b3 a3bc c007 803e 75a3 90be
00000030: 07e9 fe3d d78f 18bd 6eb3 1ebe ab74 ed3d
00000040: 523a 4cbe 0d09 7c3d 9f2f c8bd d0f0 aabb
00000050: e7e5 2a3d 6220 043e 14b9 f13d a559 023e
00000060: 3c2c 0f3e 906d 863d 4124 633e a6f2 d7bc
00000070: f0c9 09be 9dde 1b3e 7523 fabd 1e86 11bd
00000080: 84eb 97bd a55a 18bd f402 b7bd 09b8 a63d
00000090: ed62 b6be 6342 773e 5067 8ebe 5224 9a3e
000000a0: b02c e7bc 5526 0cbe 2474 1e3e edd4 ab3d
000000b0: 0cd8 53be 7201 ecbd a7f4 74bb 1f09 743e
000000c0: 797e 8e3c 9dd0 5f3d 9d69 cdbd 8ee0 3dbe
000000d0: 0c1d 403e 947c 36be 0d38 a7bb 73ca 73bc
000000e0: 19d9 1bbe 66e3 dcbd 1aa0 50bd 7fc1 78be
000000f0: e26c 063e 540b dcbd 76f5 333d 768a d83d
00000100: ca20 3abd 0612 c1be b514 1bbe 7606 a7bd
00000110: 1920 a5bd dfb9 393e 4792 bebd 1f5b 8b3d
00000120: 0810 853d dbbd f13d f95d 613e 6717 7cbe
00000130: c442 453c 543d fb3d 0c78 353e fdf8 60bd
00000140: 943a 5f3d a831 a03c 1ab8 1ebe 5162 d9bd
00000150: 28cf 393e ffb6 24be 994b 6d3e 6c29 9dbe
00000160: d06d 5e3d cd89 ce3e bc3e 91be 3105 143e
00000170: d505 a5bc 87b5 2e3d d874 c4bd de90 ec3d
00000180: c3ca b2bb bcce b3be 699d 8cbd 99c2 e83d
00000190: b2d3 db3d 1dc5 26be b1ee 6c3c c6bc b7bd
000001a0: 4adf 6fbe 01c2 5cbe b996 48bb 7d11 aa3c
000001b0: 1f2f edbe a8fd b23d 381b acbe 48b5 613e
000001c0: da0d a73e 3c50 1ebe 09ce d63d 8d39 72be
000001d0: a678 49bd ed4e b2bd b8c6 103e 383d 9c3c
000001e0: f213 953c b971 a73e b2e0 803c 6b2c 873e
000001f0: 3785 013e 5d06 15be 34cf 75bd bbbb 953c
00000200: fc3b 77be 34d3 4f3e 4ba6 983c d7c7 053e
00000210: af06 5e3e abba 67be 8703 163e af26 6cbe
00000220: 3261 30bd 6a2f 00bd bad0 01be 3fbc 3dbe
00000230: f938 1dbd 02e4 7b3c 6ec8 22be 1052 3a3c
00000240: 76b1 e0bd b2b5 b83c 8e8f d73d ce63 1bbd
00000250: 216b 28bd 9e69 703e f512 26bd 22ec 85bc
00000260: 8f02 05be 4d54 d33c cad9 523d a11e 5cbe
00000270: c3f5 503e cfcf 073e 779e 74be 5a26 c7bd
00000280: 275e f03e 470f 393e bbf9 90bd 3380 80bc
00000290: 83bf 8fbe 5d4c 483e ccbd 29be 367a 913e
000002a0: 5a58 82be b21e 28be 0ba3 f8bd 0e36 a4bd
000002b0: a5b2 823d 0174 88bc 53bf 89bd bef1 6b3e
000002c0: 6da8 b0bc db4f 90bd d72e fe3d 1c2f 1cbe
000002d0: d800 ad3c 5cf1 003e 5792 d5bd 3e6d b7bd
000002e0: 91df 15be 2486 8c3e 9514 8e3e 46b8 123e
000002f0: 4ef4 12be f15f 7b3d 758f c03e 688c 733a
00000300: 04be 433e 0459 bc3c b4a1 1b3e aa95 cd3d
00000310: 1376 57bd 807b aa3e ac02 adbd 6e54 74be
00000320: d72c 8a3e 6917 91be 2310 54be bf8d e73d
00000330: 14ab 863e 1fd8 0a3e 866c 44bc 21c5 e9bc
00000340: 4aaa 8c3e ddd4 db3d 23f0 1bbd 47b6 d13c
00000350: 789f 483e 3e03 db3e b182 913d b9bd 0cbd
00000360: 8701 d7bd a23a 233e da6c 92be a6d7 e7bd
00000370: e078 733d 2dae 43bd ad39 c53d 2d22 a1bc
00000380: 9cbf cc3c c3fa bc3d 19e8 a4bd 61fb e63e
00000390: 7d1d 99be c2e3 843e 838e e33e 4909 42be
000003a0: 0545 5c3e 002d 09be ead5 303e 54fb 74bd
000003b0: 2c7a dfbd e2ba 243d 63e9 2b3e 5fa7 54bd
000003c0: c996 2abe be34 a1bd c463 8dbd a186 563d
000003d0: 03b6 98be 9344 aebe e00c 8cbe 3a97 eebd
000003e0: 365a 983d 0c25 153e 89ec a33d b46e 3dbe
000003f0: ef02 803e 1e89 2cbe f3d8 2e3e d014 4abe
0.26810974 0.053155698 0.2382831 -0.12913476 -0.09314896 0.02294413 0.1644741 0.10978887
0.113337606 -0.019983178 0.25005913 -0.28249708 0.1244679 -0.03724655 -0.15498134 0.11594518
-0.19944122 0.06153207 -0.09774708 -0.0052166954 0.04172316 0.12902978 0.11802879 0.12729509
0.13981718 0.06563866 0.22181799 -0.026360821 -0.1345594 0.15221639 -0.12213794 -0.035528295
-0.07417968 -0.03719582 -0.0893611 0.08140571 -0.3562235 0.24146418 -0.27813196 0.30105835
-0.02821955 -0.13686498 0.15473992 0.08390222 -0.20687884 -0.11523713 -0.003737727 0.23831604
0.017394291 0.05464231 -0.1002991 -0.18542692 0.1876108 -0.1782096 -0.0051031173 -0.014879811
-0.15219535 -0.1078556 -0.050933935 -0.24292563 0.13127473 -0.10744348 0.04393526 0.10573284
-0.045441426 -0.37709063 -0.15144618 -0.08155529 -0.08062763 0.1813731 -0.09305244 0.06804489
0.06497198 0.1180379 0.22008504 -0.24618302 0.012039844 0.12267557 0.17721575 -0.054924954
0.054499224 0.019554928 -0.15499917 -0.106144555 0.1814543 -0.16085432 0.2317337 -0.30695665
0.054303944 0.4033951 -0.28368175 0.14455105 -0.020144382 0.042653587 -0.09592599 0.11551069
-0.0054563 -0.35118663 -0.06865961 0.113652416 0.10733737 -0.1628613 0.014461205 -0.089715526
-0.23425022 -0.21558382 -0.0030607416 0.020760292 -0.46325013 0.08739787 -0.33614516 0.2204181
0.32627755 -0.15460294 0.10488517 -0.23654766 -0.049187325 -0.0870646 0.14138305 0.01907216
0.018197987 0.3270395 0.015732143 0.26401076 0.12648474 -0.14553209 -0.060012057 0.018277993
-0.24143976 0.20295411 0.018633982 0.13064514 0.21682237 -0.22629802 0.14649783 -0.23061632
-0.043061443 -0.031295218 -0.12677279 -0.18528841 -0.03838441 0.0153741855 -0.1589677 0.011372104
-0.10971348 0.022547577 0.10525428 -0.037936978 -0.04111779 0.2347779 -0.040545423 -0.016347948
-0.12989257 0.025797034 0.05147723 -0.21496059 0.2040625 0.13262866 -0.23888575 -0.09724112
0.46946833 0.18072234 -0.07078882 -0.01568613 -0.280758 0.1956038 -0.16576308 0.28413552
-0.25458032 -0.1641796 -0.12140473 -0.080181226 0.0638173 -0.016656877 -0.06725945 0.23041436
-0.021564687 -0.07046481 0.12411278 -0.15252346 0.021118566 0.12592071 -0.10428303 -0.08956383
-0.14636065 0.2744609 0.27750078 0.14328107 -0.14351007 0.061370794 0.3760945 0.00092906365
0.19115454 0.022991665 0.15198404 0.10038312 -0.05260284 0.33297348 -0.08447775 -0.23860332
0.26987335 -0.28338173 -0.2070928 0.11306333 0.26302397 0.13559006 -0.011988765 -0.028536381
0.2747367 0.1073396 -0.03807081 0.025599612 0.19592083 0.4277591 0.071050055 -0.03436062
-0.10498338 0.15940335 -0.28598672 -0.113204286 0.059441447 -0.04777353 0.096301414 -0.019669617
0.02499371 0.092275165 -0.080520816 0.45113662 -0.2990531 0.25955015 0.44444665 -0.18948855
0.21510704 -0.13396072 0.17269102 -0.059809998 -0.10911974 0.040217288 0.16788249 -0.05191743
-0.16659082 -0.07871388 -0.069037944 0.052374486 -0.29826364 -0.34036693 -0.27353573 -0.11649938
0.07439081 0.14564914 0.080041 -0.18499261 0.25002238 -0.16849181 0.17074947 -0.19734502

network_body._body_endoder.seq_layers.0.bias f4 [128]
00000000: 0000 0000 0000 0000 0000 0000 0000 0000
00000010: 0000 0000 0000 0000 0000 0000 0000 0000
00000020: 0000 0000 0000 0000 0000 0000 0000 0000
00000030: 0000 0000 0000 0000 0000 0000 0000 0000
00000040: 0000 0000 0000 0000 0000 0000 0000 0000
00000050: 0000 0000 0000 0000 0000 0000 0000 0000
00000060: 0000 0000 0000 0000 0000 0000 0000 0000
00000070: 0000 0000 0000 0000 0000 0000 0000 0000
00000080: 0000 0000 0000 0000 0000 0000 0000 0000
00000090: 0000 0000 0000 0000 0000 0000 0000 0000
000000a0: 0000 0000 0000 0000 0000 0000 0000 0000
000000b0: 0000 0000 0000 0000 0000 0000 0000 0000
000000c0: 0000 0000 0000 0000 0000 0000 0000 0000
000000d0: 0000 0000 0000 0000 0000 0000 0000 0000
000000e0: 0000 0000 0000 0000 0000 0000 0000 0000
000000f0: 0000 0000 0000 0000 0000 0000 0000 0000
00000100: 0000 0000 0000 0000 0000 0000 0000 0000
00000110: 0000 0000 0000 0000 0000 0000 0000 0000
00000120: 0000 0000 0000 0000 0000 0000 0000 0000
00000130: 0000 0000 0000 0000 0000 0000 0000 0000
00000140: 0000 0000 0000 0000 0000 0000 0000 0000
00000150: 0000 0000 0000 0000 0000 0000 0000 0000
00000160: 0000 0000 0000 0000 0000 0000 0000 0000
00000170: 0000 0000 0000 0000 0000 0000 0000 0000
00000180: 0000 0000 0000 0000 0000 0000 0000 0000
00000190: 0000 0000 0000 0000 0000 0000 0000 0000
000001a0: 0000 0000 0000 0000 0000 0000 0000 0000
000001b0: 0000 0000 0000 0000 0000 0000 0000 0000
000001c0: 0000 0000 0000 0000 0000 0000 0000 0000
000001d0: 0000 0000 0000 0000 0000 0000 0000 0000
000001e0: 0000 0000 0000 0000 0000 0000 0000 0000
000001f0: 0000 0000 0000 0000 0000 0000 0000 0000
0.0 0.0 0.0 0.0 0.0 0.0 0.0 0.0
0.0 0.0 0.0 0.0 0.0 0.0 0.0 0.0
0.0 0.0 0.0 0.0 0.0 0.0 0.0 0.0
0.0 0.0 0.0 0.0 0.0 0.0 0.0 0.0
0.0 0.0 0.0 0.0 0.0 0.0 0.0 0.0
0.0 0.0 0.0 0.0 0.0 0.0 0.0 0.0
0.0 0.0 0.0 0.0 0.0 0.0 0.0 0.0
0.0 0.0 0.0 0.0 0.0 0.0 0.0 0.0
0.0 0.0 0.0 0.0 0.0 0.0 0.0 0.0
0.0 0.0 0.0 0.0 0.0 0.0 0.0 0.0
0.0 0.0 0.0 0.0 0.0 0.0 0.0 0.0
0.0 0.0 0.0 0.0 0.0 0.0 0.0 0.0
0.0 0.0 0.0 0.0 0.0 0.0 0.0 0.0
0.0 0.0 0.0 0.0 0.0 0.0 0.0 0.0
0.0 0.0 0.0 0.0 0.0 0.0 0.0 0.0
0.0 0.0 0.0 0.0 0.0 0.0 0.0 0.0

network_body._body_endoder.seq_layers.2.weight f4 [128, 128]
00000000: 0ac5 f2bd 73ac ac3d 3e61 b53d d398 94bd
00000010: 5631 88bd 1582 b0bd 0f52 64bd 47d2 6639
00000020: e046 453c 08bb e13d eb88 96bb 2995 353d
00000030: fe4e 10bd 55a7 a1ba ad6c 89bc 8449 213d
00000040: a1bb c3bd 6b3d 933d 9c02 083d 0088 67be
00000050: c09d b33d 4580 103e 2074 4ebd 509f d73d
00000060: bf40 6a3c 4a91 953b 98cd e33d 0086 efbc
00000070: 1743 a8bd 3fdf b5bd 76b4 4ebd db62 05bd
00000080: 9aae aa3c 9a40 2fbd 7a7a debd 698f 793c
00000090: 0ad0 8d3d 3ec0 b1bd a832 173b 82d8 473d
000000a0: 490f cabd 927f 2abd f4ae 6dbd 2c7e 43bd
000000b0: 8d27 593d f305 2839 0871 f53c feb0 473d
000000c0: cb83 3fbd 5caf a7bd 6afc 5b3e f134 3abe
000000d0: a100 57bd 63ce 15bd 2cd9 42be 58d6 bd3c
000000e0: 66a3 b8bd a170 74bd c131 d9bc 1546 f2bb
000000f0: 7578 c83d de79 0a3e c82b ab3b 04d7 0e3e
00000100: c47f f03d 1237 6c3d a261 5b3d f746 d0bd
00000110: 844a 30be fcf8 873d 99d4 dfbc 428c bc3c
00000120: 9925 713b 32ac 3f3d 5989 1dbd 81bf 1dbd
00000130: 60cd 5abe ae6d 22be a7cb ba3d 5f09 ba3b
00000140: 0efe 23bd ff27 72bd 585a d13c d00a f73d
00000150: ec1f 083e 1239 e0bc abe9 ebbc b2a4 773e
00000160: 85a6 0a3e 3373 d03d 1293 9f3d 247a 003e
00000170: 9602 f03d 2b9f c13c c314 203d 6bc5 a73d
00000180: 4d68 eabc f199 a3bc e91e 88bd e291 01be
00000190: d82a c13d 3e2b 7e3d b19c ea3d 4fc1 e7bd
000001a0: 7770 773c 376b 0cbd e645 343d 96d9 b93d
000001b0: 99b4 0bbe 2c65 d2bd ae36 48bd 7ab5 dabd
000001c0: 4484 aabd ba0f 32bd ef1f 793d ecab 393d
000001d0: 2915 a73d c0b5 1cbe 9418 e5bc 3937 61bd
000001e0: d231 e8bd 44ac 9c3d fc86 b7bd 934d 263e
000001f0: 9e57 533d 351e b63d 5aa9 953c 3fa9 cb3d
00000200: 674b 32be 18d8 363b 6d58 8b3c 69ce 3a3d
00000210: ebaf d33d 6ce6 0abd 574b 33be aeae 4dbc
00000220: 1fe2 3abe b218 fe3d 8af0 823d 5576 553d
00000230: c6cb 28bd 2c62 a8bd 77c5 6ebb b003 5bbc
00000240: 7b3b 0abd aca3 a23c 5ab7 0dbc e1fe c93b
00000250: da6d e53d 4f03 3bbe 13ab aabd 4c91 40bc
00000260: daca 05bd a2f2 8d3b 9b14 da3c 568f c2bd
00000270: aac1 babd 3fc0 563b 2d10 e8bc 89a6 0a3e
00000280: 6622 41bd ea81 3a3d f453 d1bc 61ba 62bd
00000290: 1f0f 403c b995 a33d a181 003e 8649 2cbd
000002a0: 0b0c 3cbd cbbd 213e 8306 923d 888e c83c
000002b0: fde8 153e 43f6 f9bd 0314 b03d 06e4 b7bd
000002c0: 46c4 2cbc f2ca b5bc f4c0 433d 996b 003e
000002d0: 502c cf3d 991f 043e fa41 9fbd ec61 0c3e
000002e0: 51e2 893d 4ce1 bfbd 2bdc 173d 8aff ee3c
000002f0: 0fcc f03d a4ef f23c 8b2a b33d 6727 79bd
00000300: cc04 c13d ebb6 17be da3e a5bd 54a3 0c3d
00000310: 6650 893d 7c78 3d3d ec86 8b3b 869a a4bd
00000320: 1a9d a8bd f3e2 2fbc a7de c23d 5ff8 03bd
00000330: 3c1d 873d a153 44be ec6a 1abd 7ab2 e83d
00000340: 61d7 7f3d cba7 54bd bac1 9bbd 5a28 d03d
00000350: 5801 843d 96cc 453b 2d5a 34be 7310 113e
00000360: 3796 9a3d 494f 07be f278 d43c 9c60 663d
00000370: 1abe 16bd d870 b83d 5ee0 05be 8291 ccbd
00000380: e580 08be e1ba 3f3d 6590 aebd 6b2d 05bd
00000390: f401 abbd 7895 10be 9df1 b1bd 18a7 013e
000003a0: 8d10 1c3e 91e3 703d 72e0 cebd 4832 92bd
000003b0: 007a 1a3e e59e 0e3e afe6 8d3d d1ee 893d
000003c0: f987 c73a edc2 7d3d 37a0 01be efae 4e3d
000003d0: 2743 d6bd 117c 393d 6ce6 f1bc 5cef 9a3d
000003e0: f449 b6bd 7d16 2cba d69b 1f3c 2c81 2b3e
000003f0: f90b d7bd c5f2 9e3c fd4f 1dbe 2e19 1cbd
-0.118539885 0.084313296 0.08856438 -0.072557114 -0.06650035 -0.08618561 -0.05574232 0.00022012844
0.012040824 0.110220015 -0.0045939586 0.044331703 -0.035231583 -0.0012333194 -0.016775453 0.03937675
-0.09557272 0.07189449 0.033205613 -0.22610474 0.08770323 0.14111431 -0.050403714 0.10528433
0.014297663 0.004564439 0.11123198 -0.0292387 -0.08215921 -0.088804714 -0.05046507 -0.03256498
0.02083521 -0.04278622 -0.10863204 0.015231946 0.06924446 -0.086792454 0.0023070965 0.048790462
-0.09866197 -0.041625567 -0.058028176 -0.04772775 0.053016234 0.00016023945 0.029961124 0.048752777
-0.046756547 -0.08187744 0.21483007 -0.18184258 -0.052490834 -0.03657378 -0.19028157 0.023173496
-0.09015541 -0.059677724 -0.026512982 -0.0073936083 0.097886 0.13523051 0.005223725 0.1394921
0.11743119 0.057669707 0.053559907 -0.101697855 -0.17215925 0.06639287 -0.027323054 0.023016099
0.0036796092 0.046795078 -0.038461063 -0.03851271 -0.21367407 -0.15862152 0.09120875 0.0056773867
-0.040037207 -0.059120174 0.025555775 0.12062609 0.13293427 -0.027370963 -0.028797945 0.2418392
0.13540085 0.101782225 0.07791723 0.12546593 0.11719243 0.023635468 0.0390823 0.08191951
-0.028614188 -0.019970866 -0.06646521 -0.12653306 0.09432 0.062052958 0.11455668 -0.113161676
0.015102497 -0.034281936 0.044011973 0.09074704 -0.13643111 -0.10273203 -0.04888027 -0.10679145
-0.08326009 -0.04347203 0.06082147 0.045329973 0.08158333 -0.15303707 -0.027965821 -0.054984305
-0.113376275 0.076500446 -0.08961293 0.1624053 0.05159723 0.0889248 0.01826923 0.099443905
-0.17411576 0.0027899798 0.017009938 0.045607004 0.10336288 -0.033911154 -0.17509209 -0.012553854
-0.18250321 0.12407054 0.063935354 0.052114803 -0.04120996 -0.0822185 -0.0036433616 -0.013367578
-0.03374813 0.019853435 -0.008649671 0.006164417 0.11202593 -0.18262981 -0.08333411 -0.0117533915
-0.032664157 0.0043319026 0.026621154 -0.094999954 -0.0911897 0.0032768396 -0.028328026 0.1354009
-0.047151946 0.045534052 -0.025552727 -0.055353526 0.011722355 0.07987542 0.1254945 -0.042062305
-0.045909923 0.15795057 0.07130148 0.024482027 0.14639659 -0.12205174 0.08597567 -0.08979039
-0.010544842 -0.022191498 0.047791436 0.12541045 0.10115874 0.12902679 -0.07776256 0.13709229
0.067326196 -0.09369144 0.037075203 0.029174585 0.11757671 0.029655285 0.08748349 -0.060828593
0.09424743 -0.14815871 -0.080686286 0.03433545 0.06704788 0.04625748 0.0042580273 -0.080372855
-0.0823309 -0.010735261 0.09515124 -0.032219287 0.06597373 -0.19172527 -0.037699625 0.11362167
0.06246126 -0.051917832 -0.0760531 0.101639464 0.06445569 0.0030181757 -0.17612524 0.14166431
0.075481825 -0.13213839 0.025936577 0.056244478 -0.03680239 0.09005898 -0.1307387 -0.09988691
-0.1333042 0.04680908 -0.08523635 -0.032514017 -0.08349982 -0.14119518 -0.08688662 0.12661397
0.15240689 0.058810774 -0.10101403 -0.07138497 0.15085602 0.13927801 0.06928765 0.06735004
0.0015223018 0.061953474 -0.12658773 0.0504598 -0.10462027 0.045284335 -0.029528819 0.075651854
-0.08900824 -0.00065646303 0.009741744 0.16748494 -0.105003305 0.01940287 -0.15362544 -0.03810995

network_body._body_endoder.seq_layers.2.bias f4 [128]
00000000: 0000 0000 0000 0000 0000 0000 0000 0000
00000010: 0000 0000 0000 0000 0000 0000 0000 0000
00000020: 0000 0000 0000 0000 0000 0000 0000 0000
00000030: 0000 0000 0000 0000 0000 0000 0000 0000
00000040: 0000 0000 0000 0000 0000 0000 0000 0000
00000050: 0000 0000 0000 0000 0000 0000 0000 0000
00000060: 0000 0000 0000 0000 0000 0000 0000 0000
00000070: 0000 0000 0000 0000 0000 0000 0000 0000
00000080: 0000 0000 0000 0000 0000 0000 0000 0000
00000090: 0000 0000 0000 0000 0000 0000 0000 0000
000000a0: 0000 0000 0000 0000 0000 0000 0000 0000
000000b0: 0000 0000 0000 0000 0000 0000 0000 0000
000000c0: 0000 0000 0000 0000 0000 0000 0000 0000
000000d0: 0000 0000 0000 0000 0000 0000 0000 0000
000000e0: 0000 0000 0000 0000 0000 0000 0000 0000
000000f0: 0000 0000 0000 0000 0000 0000 0000 0000
00000100: 0000 0000 0000 0000 0000 0000 0000 0000
00000110: 0000 0000 0000 0000 0000 0000 0000 0000
00000120: 0000 0000 0000 0000 0000 0000 0000 0000
00000130: 0000 0000 0000 0000 0000 0000 0000 0000
00000140: 0000 0000 0000 0000 0000 0000 0000 0000
00000150: 0000 0000 0000 0000 0000 0000 0000 0000
00000160: 0000 0000 0000 0000 0000 0000 0000 0000
00000170: 0000 0000 0000 0000 0000 0000 0000 0000
00000180: 0000 0000 0000 0000 0000 0000 0000 0000
00000190: 0000 0000 0000 0000 0000 0000 0000 0000
000001a0: 0000 0000 0000 0000 0000 0000 0000 0000
000001b0: 0000 0000 0000 0000 0000 0000 0000 0000
000001c0: 0000 0000 0000 0000 0000 0000 0000 0000
000001d0: 0000 0000 0000 0000 0000 0000 0000 0000
000001e0: 0000 0000 0000 0000 0000 0000 0000 0000
000001f0: 0000 0000 0000 0000 0000 0000 0000 0000
0.0 0.0 0.0 0.0 0.0 0.0 0.0 0.0
0.0 0.0 0.0 0.0 0.0 0.0 0.0 0.0
0.0 0.0 0.0 0.0 0.0 0.0 0.0 0.0
0.0 0.0 0.0 0.0 0.0 0.0 0.0 0.0
0.0 0.0 0.0 0.0 0.0 0.0 0.0 0.0
0.0 0.0 0.0 0.0 0.0 0.0 0.0 0.0
0.0 0.0 0.0 0.0 0.0 0.0 0.0 0.0
0.0 0.0 0.0 0.0 0.0 0.0 0.0 0.0
0.0 0.0 0.0 0.0 0.0 0.0 0.0 0.0
0.0 0.0 0.0 0.0 0.0 0.0 0.0 0.0
0.0 0.0 0.0 0.0 0.0 0.0 0.0 0.0
0.0 0.0 0.0 0.0 0.0 0.0 0.0 0.0
0.0 0.0 0.0 0.0 0.0 0.0 0.0 0.0
0.0 0.0 0.0 0.0 0.0 0.0 0.0 0.0
0.0 0.0 0.0 0.0 0.0 0.0 0.0 0.0
0.0 0.0 0.0 0.0 0.0 0.0 0.0 0.0

action_model._discrete_distribution.branches.0.weight f4 [3, 128]
00000000: 2a5a cb39 176a 23bc 23ac 3d3b 2f9b 0bbc
00000010: 2fc0 56bb e587 86bc 2af3 f03b 7b42 773c
00000020: 1938 c93b 8ddc 01bb 1d09 c9bb f961 aeba
00000030: ca80 51bc 4ac1 9a3b 0b38 a7bb 14f2 b03b
00000040: efb3 a23b d370 f4bb 391a 133b 032f aa3c
00000050: b19b bb3a f14f acbb b256 a13a ff42 6c3b
00000060: ab03 eb3b 68c2 753b aaf4 b03c ad51 a53c
00000070: c4d3 2f3c 974e 643b 9d90 493c 96cd 843c
00000080: 1f06 2aba 40c1 993b f53c 243b 1bec 1cbc
00000090: 3977 8c3b 6460 a73c 8c40 85bb 4b59 2abc
000000a0: d76d 6f3b 5f10 5cbc dff2 8a3c 8624 96bb
000000b0: f0df 6f3c d501 89bb 9167 33ba b8c4 5a3b
000000c0: 9f0b f6bb b009 ab3b 9024 dfbb 2a51 543c
000000d0: d74d 0d3c 588e 73ba a48b c9bb 307a 84bb
000000e0: 161c 97bb 84f6 243b a368 963c 434f 723a
000000f0: f3d4 36ba e826 f43b 383f 63bb 7590 d8bb
00000100: 2750 57b9 b90f 86bb 7ba5 22bb a77f 343b
00000110: 8daa 20bb 2703 90ba a3fe 22ba a369 95bb
00000120: b47b 113b 4bbf 5cbc bd13 383c dc9f c43a
00000130: 93b7 82bc 46b8 25bb 3d00 5f3c cb83 033b
00000140: 897e adbb 0ca1 c13b 0eba 333c 9190 bb3b
00000150: eb86 6dbb 5b4e 70bb 676e 283b c356 92bc
00000160: a242 093b e288 adb9 e49a b53b 522a 043c
00000170: 3372 babb 3363 f03b 2195 1abc 8d79 2dbc
00000180: 6ef5 24bc 3bbf d33b 2bd2 3bbb eb88 13bc
00000190: 1b5e 303c 4e09 05bc f3d8 053c 336e 82bb
000001a0: 47ec 293c a89b 24bc 6491 c5bb 6899 41bc
000001b0: 2cb6 ab3c 8377 4fbc 4d87 d7bb 58e5 46bb
000001c0: 6fd6 8f3b cb6c e5bb 2100 853c c72a 963b
000001d0: b308 12bc 6138 313c 9200 e1ba c7db 09bc
000001e0: 7ac6 a2bc 5b74 693b 3bf6 fe3a e78b febb
000001f0: 02ea eabb 9390 26bb 772e 053c 32cf 25bc
00000200: 356d 4d3b 31a8 8b3b 275c 39bb dde1 373c
00000210: f39f 263b 2a09 de3b df67 1cbc bd59 9ab8
00000220: d59b 4e3b 31b1 303b cf28 443b 67e3 e0bb
00000230: 62e5 e1bb 9716 07bc 7e92 ca3b 236b 2eb9
00000240: 1a90 8a3b a026 63bc d79a 57bb 3015 10bc
00000250: 72a5 d83b 829f 80bb 2198 2d3b 5782 6e3b
00000260: dd6b 63bb 7598 623c 4e7e 3ebb f3c0 313c
00000270: 5b8f 033a 72a5 95bb 49a9 18bc ff79 84bc
00000280: b7f9 723c b2a5 a7bb 6046 3d3c 03cd 81bc
00000290: 2d99 85bc ac0f 32bc 7fa5 8abc e953 87bb
000002a0: b5c9 0bbb 532e 9a3b 4887 e93b 659c ce3b
000002b0: af0a 27bb f507 fc3b 7a8b deba c70f ea3b
000002c0: 1a58 4ebc f065 893c aa44 5a3c 1899 053b
000002d0: 1bcc a43a 4516 08bc 75e9 323c 86db 20bc
000002e0: efb4 a1bc d01d 87bc ab61 9f3b 3d00 9bbb
000002f0: 4f67 faba f76a 053c 3b04 87bb 9811 06bc
00000300: d2b4 ba3a f364 223c 2a4b 0c3c 2684 cb3b
00000310: 734b 1b3c 4732 223b 6dce 973b 14f6 c93a
00000320: 39ba 43bb 4795 76bc f93d 22bc ea23 a93b
00000330: 12da 473b 5499 a5bc 7513 d3ba 0b0c 283c
00000340: 55cb d3b8 9b22 053b 9317 32bc abc1 1e3b
00000350: 10f6 68bc df91 c339 4fb6 e5bb 05a4 293b
00000360: 57f1 533c 785a 69bb 18a7 60bb 631c 47ba
00000370: 7ed3 94ba 7d9b e8bb 3d8d d43b 4b12 123c
00000380: bba2 b03b c545 04ba 6429 00bc 962c 22bb
00000390: 9feb debb 9a15 863b f760 153c 6c76 01bc
000003a0: dfc5 89bb c5bb cf3b 2df2 f7bb 3e69 3e3a
000003b0: 0f00 91bb 9a54 163b 0f38 86ba 9df7 42bb
000003c0: 9dce db3a 09ad 083b 08d8 61bb a74c 91bc
000003d0: 3262 d1ba 87da e5bb 16a1 023a 7fd6 dabb
000003e0: 4602 393c 3a83 543c 2712 a7bb 979b 15bb
000003f0: 2335 27bc 980c bd3b df33 e1bb 2187 a5bb
0.00038786355 -0.009974024 0.0028941713 -0.008520885 -0.003276836 -0.016422221 0.007353206 0.015091534
0.0061407206 -0.0019815296 -0.0061351196 -0.0013304345 -0.012787053 0.004722749 -0.0051031164 0.0053999517
0.0049652974 -0.0074597388 0.002244605 0.02077437 0.0014313367 -0.005258553 0.0012309162 0.0036050675
0.007172068 0.0037499908 0.02160104 0.020180548 0.010731641 0.0034836882 0.012302545 0.016211312
-0.00064858975 0.0046922266 0.0025060747 -0.009577776 0.0042866734 0.020431705 -0.0040665325 -0.010397266
0.0036533976 -0.013431638 0.016961513 -0.0045819907 0.014640793 -0.0041811266 -0.00068437407 0.0033381414
-0.0075087096 0.0052196607 -0.0068097785 0.012958804 0.0086245155 -0.0009290925 -0.0061506797 -0.004042886
-0.0046115024 0.0025171349 0.018360442 0.00092433783 -0.0006974481 0.007450927 -0.0034675132 -0.0066090175
-0.00020533857 -0.0040912298 -0.0024817872 0.0027541907 -0.0024515719 -0.0010987268 -0.00062177534 -0.004559712
0.0022198977 -0.013473342 0.011235175 0.0015001255 -0.015956676 -0.0025286837 0.013610897 0.0020067568
-0.005294625 0.005909091 0.010969652 0.005724021 -0.0036243747 -0.0036667797 0.002570057 -0.017863637
0.0020944257 -0.00033099117 0.005542146 0.008066731 -0.005689883 0.007336044 -0.009434969 -0.010588062
-0.010068281 0.0064620054 -0.0028659205 -0.009004812 0.010764624 -0.008119894 0.0081694005 -0.003980422
0.010371274 -0.010046877 -0.006029295 -0.01181636 0.02096089 -0.012662771 -0.0065774084 -0.0030349102
0.004389576 -0.0070014945 0.016235413 0.004582736 -0.008913207 0.010816664 -0.0017166308 -0.008414215
-0.019870032 0.0035622332 0.0019452045 -0.0077681425 -0.007169009 -0.0025415763 0.008128754 -0.0101202
0.003134561 0.0042619933 -0.0028283687 0.011223284 0.0025424927 0.006775995 -0.009546249 -7.360007e-05
0.0031525989 0.0026961083 0.002993155 -0.006863046 -0.0068937996 -0.008245132 0.006182014 -0.00016633845
0.004228604 -0.013864189 -0.0032898688 -0.008794114 0.0066115195 -0.003925265 0.002648838 0.0036393607
-0.0034701743 0.013830294 -0.0029066983 0.010849225 0.0005018615 -0.0045668418 -0.0093177045 -0.016171454
0.0148300445 -0.005116188 0.011552423 -0.015844828 -0.016308391 -0.010867994 -0.016924618 -0.004129876
-0.0021329944 0.0047052293 0.0071267225 0.006305265 -0.0025488546 0.0076913782 -0.0016978823 0.007142994
-0.012594247 0.01677224 0.013322035 0.002038544 0.0012573035 -0.008306091 0.010919918 -0.0098179635
-0.019739596 -0.016493708 0.004863938 -0.004730253 -0.0019104275 0.008143178 -0.0041203774 -0.008182906
0.0014244562 0.0099117635 0.008562842 0.0062108217 0.009478438 0.0024749206 0.004632762 0.001540842
-0.0029865636 -0.015050239 -0.009902471 0.005161752 0.003049497 -0.020214714 -0.0016103821 0.0102567775
-0.000100991376 0.0020314816 -0.010869878 0.0024224322 -0.014218822 0.0003730198 -0.0070102583 0.0025885117
0.012935958 -0.0035606902 -0.0034279283 -0.00075954775 -0.0011354533 -0.007098614 0.0064865635 0.008915494
0.0053904927 -0.0005045797 -0.007822368 -0.0024745814 -0.0068029906 0.0040919306 0.0091173565 -0.007901769
-0.0042044963 0.0063395225 -0.0075667114 0.0007263607 -0.004425056 0.002293861 -0.0010240095 -0.002974964
0.001676995 0.002085509 -0.003446104 -0.017736746 -0.0015974699 -0.007014576 0.000498311 -0.006678402
0.011292046 0.01297074 -0.0050985995 -0.0022828334 -0.01020554 0.0057693236 -0.0068726386 -0.005051509

action_model._discrete_distribution.branches.0.bias f4 [3]
00000000: 0000 0000 0000 0000 0000 0000
0.0 0.0 0.0

action_model._discrete_distribution.branches.1.weight f4 [3, 128]
00000000: 424a 383c 6735 68bb f684 2ebc 7b23 54bc
00000010: d38b afbc 9b20 3e3b 3dcd d737 579e cc3b
00000020: 1f25 11bb 7767 ba3b 93fa d93a 5db0 71bc
00000030: da3a a73b 3fe9 ecba 920a 2dbc 65a8 33bc
00000040: f83c c5bb 02e6 9d3b 7dab 563b e06a a43b
00000050: 2b1e 123b 0217 613c f9eb 98bb dd20 eebb
00000060: 3ff3 5b3c 137b 7dbb 55a6 ee3b c3f7 003c
00000070: b0de 97bb e52f 60bb c298 7fb9 f354 013b
00000080: 28bb 213c 0070 b7ba 14c1 803c ebb7 40bb
00000090: f312 89bb 4895 b6ba 4b05 38ba fac8 04bc
000000a0: 396f 37bb a01c f1bb d5b5 05bb 98e0 fd3b
000000b0: 0750 2cbc 5efc 8cbb 35cf f1bb 55d7 c4bb
000000c0: 1290 d13b 268b 31bc 639d eeb8 d883 463c
000000d0: 0436 18bb 9f36 943b 1b49 95bb ccd8 9c3b
000000e0: d02e 563c e918 0cbb 560c 30bb af91 07bc
000000f0: 1055 09bc 52db 5a3c 9e46 c83b 7ab2 5d3c
00000100: 4bd9 18bb 1342 60bc 2b64 953b 8b20 bbbb
00000110: 8361 29ba 9009 c7ba d367 3fbc 8b84 b13b
00000120: 7478 99bc 27bb 843a d812 be3b e30d 7dbc
00000130: f583 37ba a42e c8bb f71a b8bb 6d77 c43b
00000140: c36b db3b 51c1 2f3c 0167 b3bb 3455 92bc
00000150: b596 2a3b 334a 7fbc 6bd2 493b 626c b93a
00000160: 7573 793b e7f2 993b 848a 043a 0f2c 06bb
00000170: f168 32bc c37b 473b ef47 4a3b 1be8 b93b
00000180: 70fc b83b d7b6 ba3a db44 023c 8774 e6bb
00000190: 107d 133c c826 5a39 2533 783b e38b 13bc
000001a0: 9c99 04bb d8c2 0c3b b0c8 c3bb 155d 0fba
000001b0: 41fb 80bb 88ed f53a e106 44bb 4fd3 583b
000001c0: 556a 36bc f72a 2d3c b98b 013c cf50 5f3c
000001d0: c390 5e3b 33fb 08bc dad9 02bc b029 0c3c
000001e0: 3bfd 45bb f3d4 443b 7a3d f63b 036a b6b9
000001f0: 2150 b53b dd8b e13a ba58 193c b081 14bb
00000200: f121 00bb ddd5 7fbb 0aa7 d53a e37e 0d3c
00000210: 1a83 cd3b 7fa2 0a3c bd08 073c 4659 263c
00000220: 0ba4 6b3b 0e50 2e3c 63e0 893b f365 9f3c
00000230: 18ca 95bb 6898 803b 83f6 093c 84ff c2bb
00000240: 9bf3 c8bb d393 f83b 19c8 9cbc 2d47 e7ba
00000250: 2421 8c3b a7c0 c7bb 5897 6338 c476 a6bb
00000260: 83a1 6139 b5c0 833b 8a67 64bc 2dd7 f8bb
00000270: 44c4 abba 22a3 efbb 75c7 893c 087a 1ebc
00000280: 1003 e2bb 326b 64bc 2308 ba3a 35ef 94bc
00000290: 7714 203c 0874 363c 68c4 5fbc 291f 8a39
000002a0: ebde f5bb 43d5 723c 871f bbba 8d11 8b3b
000002b0: 8512 e43b 55f3 c8bb 72fd d83b 5e60 a63c
000002c0: 6397 9aba 1180 99ba 036b f0bb b179 1bbc
000002d0: 88d3 5bbb 775b 8d3c 327a b43c f7d3 723b
000002e0: a743 9dbb ef3e 263b bff3 8bbb db24 c83b
000002f0: 2f85 86bb 6bc0 aebb 197b 813b b652 a53a
00000300: 827a 8a3b dd48 52bb d8ba 613c fac7 453b
00000310: 3a24 56bb 858f 7e3a 93ed 70bb 80fb 0b3c
00000320: 6abc 9cba 6fc7 d43b 232b e939 0dc4 f93b
00000330: d0c1 f8bb 9a99 6fbc 7fb4 3a3c 201e 0b3a
00000340: ee02 00bc 1340 c83b 873a a9bb d8b9 c03b
00000350: 599e 8cbb e26e da3a 0b98 4bba 7422 cb3a
00000360: a0f1 f7bb 0fb4 6d3a 5708 15ba 18c3 5f3c
00000370: b5b9 e33c abad da3b 4fe5 c6ba 7e59 a93b
00000380: f078 d13b 6847 d0bb 8b5c 713c 9252 4839
00000390: 83eb 7aba 9812 103c 15d2 69bc cf68 b0bb
000003a0: 930b 48bc 1929 14bc c3b3 9ebc 697a 243c
000003b0: 152f 12bb 3aee b938 1f36 a43c 924b 32bc
000003c0: 5fea 5e3c 5703 663c 4181 0bbc 771d 8a3a
000003d0: 3e7c 2dbb d0e1 353c c125 1bbb d2bc 6e3b
000003e0: cb59 01bc f5db 133c b372 2b3c 77a3 cb3b
000003f0: 2595 dfbb 140b 363a 7be0 25bc bb1a babc
0.011248173 -0.003543222 -0.010651818 -0.012947912 -0.021428978 0.0029011134 2.5725569e-05 0.0062444615
-0.002214737 0.0056886035 0.0016630463 -0.014751521 0.005103451 -0.0018074884 -0.010561602 -0.010965441
-0.006019231 0.004818679 0.0032756024 0.0050176233 0.0022295814 0.013738396 -0.004666802 -0.007267101
0.013424694 -0.0038678094 0.007283012 0.007871571 -0.0046347007 -0.0034208235 -0.00024375602 0.0019734472
0.009871282 -0.0013995171 0.015717067 -0.0029406499 -0.004183167 -0.0013929987 -0.00070198317 -0.008104557
-0.0027989878 -0.0073581487 -0.002040257 0.007747721 -0.010517127 -0.0043025455 -0.0073794373 -0.006007115
0.0063953483 -0.010836398 -0.0001137804 0.012116395 -0.0023225555 0.004523113 -0.004555834 0.0047865864
0.013072684 -0.0021377152 -0.0026862822 -0.00827448 -0.008382097 0.013357954 0.006111934 0.013531322
-0.0023322876 -0.013687628 0.00455906 -0.0057106665 -0.0006461369 -0.0015185345 -0.0116824685 0.0054174117
-0.018734194 0.0010126577 0.005800586 -0.015445205 -0.0007000559 -0.0061090756 -0.005618449 0.005995682
0.006696196 0.010727243 -0.0054749255 -0.017862894 0.002602977 -0.015581655 0.0030795585 0.001414668
0.0038063203 0.0046981457 0.0005056041 -0.0020473038 -0.010889278 0.0030438758 0.003086563 0.005673421
0.0056453273 0.0014245164 0.007950987 -0.007032934 0.009001985 0.00020804547 0.0037872281 -0.00900552
-0.002023316 0.002147844 -0.0059748515 -0.00054688874 -0.003936202 0.0018762806 -0.0029911327 0.0033084934
-0.01113375 0.010569326 0.007906848 0.013630106 0.0033960796 -0.008360672 -0.00798651 0.008554861
-0.0030210752 0.0030034154 0.007514653 -0.0003479273 0.0055332338 0.001720782 0.009359533 -0.0022660308
-0.001955148 -0.0039037385 0.0016300392 0.008636209 0.006271732 0.008461594 0.008241829 0.01015312
0.0035955932 0.010639204 0.004207657 0.019457793 -0.0045712106 0.0039244182 0.008420589 -0.00595087
-0.0061325557 0.0075859814 -0.019138383 -0.0017645113 0.0042764116 -0.006095964 5.4261967e-05 -0.005080076
0.0002151784 0.004020775 -0.013940701 -0.0075940103 -0.0013104756 -0.007313148 0.016818741 -0.009672649
-0.0068973377 -0.013941573 0.0014193099 -0.018180469 0.009770504 0.011136062 -0.013657667 0.00026344627
-0.0075033805 0.014821353 -0.0014276364 0.0042440356 0.0069602155 -0.006132523 0.00662201 0.020309623
-0.0011794384 -0.001171114 -0.0073369755 -0.009489463 -0.003354283 0.017255528 0.022030924 0.003705261
-0.0047993246 0.0025367101 -0.004271 0.006107909 -0.004105232 -0.0053329966 0.003951442 0.0012613151
0.00422603 -0.0032086887 0.013777457 0.003017901 -0.0032675401 0.0009710717 -0.00367627 0.008543849
-0.0011958007 0.006493501 0.00044473363 0.007622248 -0.0075914636 -0.014624024 0.011395573 0.0005306918
-0.0078131985 0.006111154 -0.0051644477 0.0058815293 -0.0042913374 0.0016665126 -0.00077664916 0.0015497939
-0.0075666457 0.00090676633 -0.00056851417 0.013657354 0.027798513 0.006673535 -0.001517454 0.005168139
0.0063925907 -0.0063561685 0.014731537 0.00019104246 -0.0009571837 0.008793496 -0.014271279 -0.005383588
-0.012209791 -0.009043002 -0.019372826 0.0100389505 -0.0022305895 8.8658606e-05 0.020045338 -0.010882275
0.013605683 0.014038882 -0.008514703 0.0010537346 -0.002647176 0.011101201 -0.0023673626 0.0036428464
-0.0078949435 0.00902461 0.010464358 0.006214555 -0.0068231993 0.00069444 -0.010124321 -0.022717824

action_model._discrete_distribution.branches.1.bias f4 [3]
00000000: 0000 0000 0000 0000 0000 0000
0.0 0.0 0.0

network_body._body_endoder.seq_layers.0.weight f4 [128, 33]
00000000: 15d2 8c3e 8639 493d ecc8 9c3c 50f7 44bd
00000010: c8f5 3dbe 93d7 3e3e 4289 b93d 3583 213c
00000020: 9288 97be a498 18bd 9fe6 073d f49a 33bb
00000030: f26e 29be 89af 31be 7da0 05be f410 1dbd
00000040: 39c7 4fbd 0c9d 563d adec 7bbe 279f 01be
00000050: 06e5 ee3d 437d 773d 3924 dcbd fc32 b8be
00000060: 0c39 12bb 6371 adbe dc1f 483e 3145 3a3d
00000070: 7d76 cdbc b545 03be 181c a5bd 3e7d 10be
00000080: 1eba 49bd 84b5 adbe f557 5c3c f927 483d
00000090: 122a f4b9 c38f 143e a206 ad3c d2ae 5dbe
000000a0: debe e33e 2ade 4bbc a08b a4be ce3b 0e3e
000000b0: 3c9b c03e 3435 d4be a28c c5bc 148e 9cbd
000000c0: fe69 273e f565 cbbd e402 a6bc 4505 9d3c
000000d0: 9298 0ebe 54c4 2abe c4e3 febd af9c f83d
000000e0: 55eb 4cbd a9f7 fdbc 3acc 35be 97fb e7be
000000f0: d7bb bd3d 670e 0fbe fcde 68bd 73ca 3c3e
00000100: 3f5f 0a3e 4ad3 b9bc 0d31 b4be 47e0 833d
00000110: 1599 683e 0a67 c03d 7f23 9f3d 2988 e0be
00000120: 87ff 673c 9325 0e3e 1e24 23be 3b54 963d
00000130: a508 ddbd 8573 773d 3377 323e c6b3 6c3e
00000140: 08b9 6ebe a4c0 503e 5b69 7cbd 96da 2ebe
00000150: 13ac f63d 85d0 00bd b536 05be d66f 6e3d
00000160: ae5b 59be 2fd1 d63d e146 30bd 75bd 343c
00000170: 1ae8 47bd aa51 00bd 5787 043b 04ee b1bd
00000180: 399f 5fbe 1653 d43d 4d3c 0d3d 9d19 893d
00000190: 020d f1be 602d f63d 26ab 263d 86a0 61be
000001a0: e0ab 2d3d b645 84be ff9c 503e 1820 833d
000001b0: 5c6a 13be c779 953c 8376 a03e 4c2a a73d
000001c0: d34f a4bd 1142 1d3e 5852 e73c e3c4 9bbe
000001d0: babc c3bd 1fff 95be 5821 463e 2f9e 4e3d
000001e0: 4550 3b3d 4d89 543e 1f56 96bd d08c 81bd
000001f0: 982f 76be d5f3 093e 0f0c 55bc b309 41bd
00000200: d4fa ee3b 6ece c7bb be5e 043e 0124 8a3e
00000210: b8e7 843d 81aa 8a3c 1741 3e3e bd7c 4dbc
00000220: de33 60be 29f1 583d 2206 97be 5cd6 463e
00000230: 8285 5abe 88ba 8cbe 6e3f a3be aeb7 e2bd
00000240: 91d8 02be 21b0 983e 9d70 95bb dd2c ff3d
00000250: a9ea 12be d6ac 4e3d a6ed 473d 8d31 0a3e
00000260: 5080 21be ffab 2e3d 4140 e53d db8e 1abe
00000270: bf8f 37be 07c9 c7bd eac8 a13e 843e c73d
00000280: d8d1 28bc 536c 9d3c 2fa9 5a3c 4fd7 07be
00000290: 43b5 57be a0de 6abe 85c1 80be 45f4 10bf
000002a0: c103 3fbd ffac cdbe b2e0 013d 0732 31be
000002b0: ba34 aebe beb7 673e 89a9 2dbc c4bf de3d
000002c0: fa95 2cbe 1fc4 8abd 1e83 35be f8a1 603c
000002d0: 758c 32be a80f 823e 7fb9 55be 52a8 0abe
000002e0: b9fd a23d ffa6 643d 657b 71be 5018 cfbd
000002f0: 0574 cfbd b447 7cbd ff8e 4bbd 7dd7 86be
00000300: 1363 9fbe 978b 84be cb7b 743e 22ce bf3e
00000310: bd0d 373e efa3 dbbd 237e 93bd 52c2 4a3d
00000320: 6fc4 963b fcc7 6cb9 6a69 413d 6d9f b73e
00000330: 31cc ee3d 5f1a 3dbe 66e9 03be 5977 143d
00000340: 45a8 dfbc 2155 003f 8818 31be 02e8 263e
00000350: 1bab 61bc 8edf e0bc 4546 b0bd 9cdd a9be
00000360: 3adf aebd dfbf 6bbe 7a94 a6bc 846f 7e3e
00000370: e6b8 d93d 74dd abbc 994c 41be 434c 09be
00000380: 317b 08bc 2d75 bfbd 9557 b73d 3f42 65bc
00000390: 28eb 48be cda7 1f3e ae5b 79be edfd 9d3c
000003a0: 0aa7 52be 6fe7 023e 59a7 c2bd f79f 2abd
000003b0: 64f8 a6bd e79c 59bd 570d 5abe 1fca 61bc
000003c0: 1935 bb3c 7674 c63d 5280 6ebd f738 f63d
000003d0: ebaf 2bbe d91e 26be 8afb 5a3e 4e67 c1bc
000003e0: d98d 073e d8aa 543e 2ec6 293d 2dd4 753d
000003f0: 2d45 8bbe 64d4 31bd 048a a7bc 0386 ba3e
0.2750403 0.049127124 0.019138776 -0.048087418 -0.1855079 0.18636923 0.09059383 0.009857942
-0.29596382 -0.037254944 0.03317892 -0.0027405592 -0.16546229 -0.17352118 -0.13049503 -0.038346246
-0.050727103 0.052395865 -0.24602003 -0.12658368 0.116647765 0.060422193 -0.107490964 -0.35976398
-0.0022311835 -0.3387557 0.19543403 0.045476142 -0.025080914 -0.1281956 -0.08061999 -0.14110276
-0.04924976 -0.33927548 0.013448705 0.048866246 -0.00046570651 0.14507966 0.021121327 -0.2164872
0.44481558 -0.012443105 -0.32137775 0.13890001 0.37618434 -0.4144684 -0.02411491 -0.07644287
0.16349027 -0.09931556 -0.02026505 0.019167552 -0.13925388 -0.16676456 -0.124457866 0.1213926
-0.050029118 -0.031001883 -0.17753688 -0.45309135 0.09264343 -0.13970338 -0.05685328 0.18436603
0.13512896 -0.022683758 -0.35193673 0.06439262 0.22714646 0.09394653 0.07770442 -0.43853882
0.014160044 0.13881521 -0.15931746 0.073402844 -0.107926644 0.060412902 0.17428283 0.23115453
-0.23312771 0.20385987 -0.061623912 -0.17075571 0.12044539 -0.03144886 -0.1300915 0.058212124
-0.2122638 0.10489117 -0.043036345 0.011031498 -0.048805334 -0.03132788 0.002022227 -0.08687976
-0.21838082 0.1036741 0.034481335 0.066943385 -0.47080237 0.12020373 0.040690564 -0.22033891
0.04240024 -0.25834435 0.2037239 0.06402606 -0.14396042 0.018246545 0.31340417 0.08162364
-0.08023038 0.15357234 0.028237507 -0.3042365 -0.09557481 -0.29296204 0.19348657 0.050443824
0.045730848 0.20755501 -0.07340645 -0.06325686 -0.24041593 0.13471921 -0.013003363 -0.04712839
0.0072930846 -0.0060976064 0.12926766 0.26980594 0.06489509 0.016927006 0.18579517 -0.012541947
-0.21894786 0.052964363 -0.29496866 0.19417709 -0.21339992 -0.27486062 -0.3188433 -0.1107019
-0.12777926 0.29821876 -0.0045605437 0.12459729 -0.14347328 0.050457798 0.048810624 0.13495465
-0.15771604 0.042644497 0.11193896 -0.15093558 -0.17925929 -0.0975514 0.31598598 0.09728721
-0.010303937 0.019216692 0.013346001 -0.13265727 -0.2106524 -0.22936487 -0.25147644 -0.56622726
-0.04663444 -0.40171048 0.031708427 -0.1730424 -0.34024602 0.22628686 -0.010599502 0.1087642
-0.16854087 -0.067756884 -0.17725798 0.013710491 -0.17436393 0.2540257 -0.20871542 -0.13540772
0.0795855 0.055823322 -0.23582228 -0.10112059 -0.10129551 -0.06159182 -0.04969692 -0.2633628
-0.31130275 -0.2588775 0.23875348 0.37461954 0.17876334 -0.10724627 -0.07201793 0.049501725
0.0046010534 -0.00022581214 0.04721967 0.3586382 0.1166004 -0.18467091 -0.12882003 0.03624663
-0.027301917 0.50129896 -0.17294514 0.16299441 -0.013773705 -0.02745035 -0.08607153 -0.33176887
-0.08538671 -0.23022412 -0.020334471 0.24847227 0.1063097 -0.02097962 -0.18876876 -0.13407998
-0.008330152 -0.093485214 0.08952252 -0.013992845 -0.19620955 0.15591355 -0.2435138 0.01928612
-0.20571533 0.12783597 -0.09504575 -0.04165646 -0.081528455 -0.05312815 -0.21294151 -0.0137811
0.022852467 0.09690182 -0.058227845 0.12022584 -0.16766326 -0.16222705 0.21385017 -0.02360883
0.13237704 0.20768297 0.041448765 0.0600168 -0.27201214 -0.043415442 -0.020451553 0.36430368

network_body._body_endoder.seq_layers.0.bias f4 [128]
00000000: 0000 0000 0000 0000 0000 0000 0000 0000
00000010: 0000 0000 0000 0000 0000 0000 0000 0000
00000020: 0000 0000 0000 0000 0000 0000 0000 0000
00000030: 0000 0000 0000 0000 0000 0000 0000 0000
00000040: 0000 0000 0000 0000 0000 0000 0000 0000
00000050: 0000 0000 0000 0000 0000 0000 0000 0000
00000060: 0000 0000 0000 0000 0000 0000 0000 0000
00000070: 0000 0000 0000 0000 0000 0000 0000 0000
00000080: 0000 0000 0000 0000 0000 0000 0000 0000
00000090: 0000 0000 0000 0000 0000 0000 0000 0000
000000a0: 0000 0000 0000 0000 0000 0000 0000 0000
000000b0: 0000 0000 0000 0000 0000 0000 0000 0000
000000c0: 0000 0000 0000 0000 0000 0000 0000 0000
000000d0: 0000 0000 0000 0000 0000 0000 0000 0000
000000e0: 0000 0000 0000 0000 0000 0000 0000 0000
000000f0: 0000 0000 0000 0000 0000 0000 0000 0000
00000100: 0000 0000 0000 0000 0000 0000 0000 0000
00000110: 0000 0000 0000 0000 0000 0000 0000 0000
00000120: 0000 0000 0000 0000 0000 0000 0000 0000
00000130: 0000 0000 0000 0000 0000 0000 0000 0000
00000140: 0000 0000 0000 0000 0000 0000 0000 0000
00000150: 0000 0000 0000 0000 0000 0000 0000 0000
00000160: 0000 0000 0000 0000 0000 0000 0000 0000
00000170: 0000 0000 0000 0000 0000 0000 0000 0000
00000180: 0000 0000 0000 0000 0000 0000 0000 0000
00000190: 0000 0000 0000 0000 0000 0000 0000 0000
000001a0: 0000 0000 0000 0000 0000 0000 0000 0000
000001b0: 0000 0000 0000 0000 0000 0000 0000 0000
000001c0: 0000 0000 0000 0000 0000 0000 0000 0000
000001d0: 0000 0000 0000 0000 0000 0000 0000 0000
000001e0: 0000 0000 0000 0000 0000 0000 0000 0000
000001f0: 0000 0000 0000 0000 0000 0000 0000 0000
0.0 0.0 0.0 0.0 0.0 0.0 0.0 0.0
0.0 0.0 0.0 0.0 0.0 0.0 0.0 0.0
0.0 0.0 0.0 0.0 0.0 0.0 0.0 0.0
0.0 0.0 0.0 0.0 0.0 0.0 0.0 0.0
0.0 0.0 0.0 0.0 0.0 0.0 0.0 0.0
0.0 0.0 0.0 0.0 0.0 0.0 0.0 0.0
0.0 0.0 0.0 0.0 0.0 0.0 0.0 0.0
0.0 0.0 0.0 0.0 0.0 0.0 0.0 0.0
0.0 0.0 0.0 0.0 0.0 0.0 0.0 0.0
0.0 0.0 0.0 0.0 0.0 0.0 0.0 0.0
0.0 0.0 0.0 0.0 0.0 0.0 0.0 0.0
0.0 0.0 0.0 0.0 0.0 0.0 0.0 0.0
0.0 0.0 0.0 0.0 0.0 0.0 0.0 0.0
0.0 0.0 0.0 0.0 0.0 0.0 0.0 0.0
0.0 0.0 0.0 0.0 0.0 0.0 0.0 0.0
0.0 0.0 0.0 0.0 0.0 0.0 0.0 0.0

network_body._body_endoder.seq_layers.2.weight f4 [128, 128]
00000000: 15e6 a73d 5ea0 223c 4410 bf3c cba0 5a3d
00000010: 8240 e2bd 8c47 0c3d e4a9 173e 99cd 9dbd
00000020: 1863 26be f8df 4b3d f9a0 a53d 0c51 6fbd
00000030: d691 e3bb 8a9c bebd 4043 143d c1b2 453d
00000040: 2949 a13d 9d73 ffbd a4cd c4bc 91e4 2a3e
00000050: e89c d03c 554d b4bc ca8d e43c 7b68 09bd
00000060: 860a 2f3e dcc2 42bd 5663 dc39 cd5b a2bd
00000070: ac16 60bd 4d7c 19bd 64f1 173c 284b 13be
00000080: 4475 883d 6c62 4dbe 3543 073d 595e 8ebc
00000090: 1a74 2bbc 2234 3bbe c8f2 b3bd 8428 c0bd
000000a0: 4b2a 05be 11c4 393d 1b96 b0bd 5c5f 80bc
000000b0: 1bf9 d8bd 6c6f 5a3d bf0c 67be fee3 94bd
000000c0: f251 423d a7be 8c3d f189 4e3e c2f1 eb3c
000000d0: 6328 40bd e07e 16be e91b 4e3d 21d9 d8bc
000000e0: 51bf 933d 95a8 05be 46c8 eebd fa0c 883d
000000f0: e234 04be cdac 61bd 9fdc adbd 2e0c 40be
00000100: e678 653d 258b a3ba 2af2 9dbd 781d 243c
00000110: 2829 cd3d 5647 83bd 9a05 6e3d deb4 4f3d
00000120: 4226 423d bed6 3b3d 1efc 543d c999 ae3c
00000130: a8b4 8dbd 2881 323e fad5 b3bc 0c98 aebd
00000140: fd7e f43c 36e3 ee3d 755a 593d 5b13 1ebd
00000150: aa73 78bc 7cf0 a23d 152c 26bd 48f8 99bd
00000160: 3bb9 4f3e 544d cbbd a4b8 09be a360 2e3e
00000170: 3d66 323c ff8e e3bd b02e a3bd 5bfd 23bd
00000180: 1180 47be b352 8f3b 6879 46bd b283 89bc
00000190: 9b45 6dbd ff2f 613c 7127 a9bd 932f 12bc
000001a0: e4de 42bc 33dd 023d b557 333b 5d73 37bd
000001b0: af68 213d 92b1 163e a138 c7bd 5b23 1f3e
000001c0: 0a5a f63d b193 1abd 1624 233e 5039 04be
000001d0: b278 043e 38cd 913c d368 f43d 02f5 cc3d
000001e0: 25f5 c73c 77c1 85bd b265 723d 4383 9bbd
000001f0: 3c5c ce3d 2f4d 04bd 0443 52bd 4293 12be
00000200: 4c42 bc3d 3198 8a3d 8e06 eebd e858 db3b
00000210: eb79 eb3b 335b 353e 3227 67bd 3231 fe3d
00000220: e74f 493e ae3a 353d bf48 113d c938 723d
00000230: 3db1 adbc 1d7f b8bd 5385 7c3d d8dd c83d
00000240: a927 41be 486c bbbc b611 05bd 0382 0e3c
00000250: b67a 0dbd 2dee 26bc c730 c33d f384 eb3c
00000260: 92e6 9ebd e225 d1bd 1808 b6bd cdf6 733c
00000270: b25f dabc a160 d83d 2328 eb39 d7a8 3e3c
00000280: 6020 673d 7502 11be 649f 35bd 9feb 833d
00000290: 1246 383c 235a 6d3d 4e99 8ebd 5384 bf3d
000002a0: ef8d 0fbd eaff ce3d ffc9 7b3d e104 803d
000002b0: 92f1 1abe 8c7b 66bc d52d 88bd 688a ddbd
000002c0: 6218 45be 1408 0a3e 72f5 7bbd 40e2 eebd
000002d0: 227c c0bb 2ab9 b6bd ce04 5c3d daba 583d
000002e0: 613b 8d3d b2a9 843d b724 90bd 0a82 2fbd
000002f0: 6d9c 1ebe 6135 ea3d f6cb 573c 4d62 cd3c
00000300: 626e 8f3d c786 2d3d cdca 35bd 3b6c 8b3d
00000310: c57b 7bbd 374d 203d 72f3 043e c585 80bd
00000320: 9481 493d 90b3 3b3d f8a2 64bb 002b c13d
00000330: 5a08 a0bd 6b70 8dbd 7f04 3a3d bd3c 4a3d
00000340: 6c71 553c 7cdc f1bd fd8c ad3c 2ad3 39bd
00000350: 4244 9ebd 5576 26bc 82ac f3bc 8061 00bd
00000360: fee6 073e c8cc 123e 53e6 e7bc 5894 493e
00000370: 43f5 e33d 0db1 14bd bca7 8e3d f509 93bd
00000380: ee6f 543d fe39 7ebd 109e 13bc d11a f43b
00000390: 95f0 df3d ebe2 f9bc 8275 383d bd90 1dba
000003a0: 4074 d83d 668f 35bd 34ea 973c 9b30 e93c
000003b0: 132c 8e3d 4739 febc c982 d83c 27f4 06bd
000003c0: 5e5f ad3d 283f 103e 54e9 e3bb 1b4a 443c
000003d0: 40e6 993d 927a 92bd 71c9 c3bd 943e e23d
000003e0: 06f1 f43b b72d febc f0a3 f33d 92a4 d5bb
000003f0: 088a 13bd 8697 f23c 2357 15bd 7ab1 553d
0.081981815 0.00992593 0.023323186 0.053376 -0.1104746 0.03424792 0.14810902 -0.0770523
-0.16248739 0.04977414 0.08087344 -0.0584269 -0.0069448752 -0.09307201 0.036196947 0.048266176
0.07875282 -0.12473223 -0.024023838 0.16688754 0.025465444 -0.022009531 0.027899642 -0.033546906
0.17093858 -0.047549114 0.0004203568 -0.07927666 -0.05470912 -0.037472058 0.009273861 -0.14384139
0.06662992 -0.20057076 0.033023078 -0.017378973 -0.0104646925 -0.18281606 -0.08786541 -0.09382728
-0.13004415 0.045353 -0.0862238 -0.01567047 -0.10594388 0.053328916 -0.22563456 -0.072700486
0.04744143 0.068723015 0.20169808 0.028801803 -0.046913516 -0.14696836 0.050319586 -0.026470723
0.07214225 -0.1305259 -0.11659293 0.066431 -0.12910798 -0.055096436 -0.08489346 -0.18754646
0.0560235 -0.0012477381 -0.07712205 0.0100167915 0.100176156 -0.064100906 0.05811081 0.050709598
0.047399767 0.04585909 0.05199825 0.021313565 -0.06919223 0.17432082 -0.021952618 -0.085250944
0.029845709 0.11664431 0.053064782 -0.038592678 -0.015164295 0.07956025 -0.040569384 -0.07518059
0.20285504 -0.099268585 -0.13449341 0.17029051 0.010888633 -0.11111259 -0.07967889 -0.04003654
-0.19482447 0.004373872 -0.048455626 -0.01678643 -0.05792771 0.013744353 -0.08259476 -0.008922475
-0.011893962 0.031949233 0.002736551 -0.044787753 0.039406475 0.14716175 -0.09727598 0.15540831
0.12028892 -0.037738506 0.15931734 -0.12912488 0.12936667 0.017798051 0.11934056 0.10007669
0.024408886 -0.06531041 0.059179015 -0.075933956 0.10076186 -0.03230017 -0.051333442 -0.14313987
0.091923326 0.067673095 -0.11622344 0.006693948 0.0071861646 0.17710571 -0.056433864 0.12411727
0.19659387 0.044245414 0.035469767 0.059136186 -0.021202678 -0.0900862 0.061650585 0.09807938
-0.18862785 -0.022878781 -0.032487594 0.008697989 -0.034540854 -0.0101886215 0.09530788 0.028749919
-0.077588215 -0.10212304 -0.088882625 0.014890385 -0.02665696 0.105653055 0.00044852597 0.011636934
0.05642736 -0.14161094 -0.04434146 0.064414255 0.011247175 0.05794729 -0.06962834 0.09351411
-0.035047468 0.101074055 0.061471935 0.062509306 -0.15131214 -0.014067542 -0.06649367 -0.108174145
-0.19247583 0.13479644 -0.06151337 -0.116642475 -0.005874173 -0.08922036 0.05371552 0.05291257
0.06896091 0.06477679 -0.07038253 -0.042848624 -0.15489359 0.114359625 0.013171187 0.025071288
0.07003476 0.04236486 -0.04438286 0.06807753 -0.061397333 0.039136138 0.12983492 -0.062755145
0.04919584 0.04582554 -0.0034887176 0.0943203 -0.07814093 -0.06906208 0.045414444 0.04937433
0.01302753 -0.11809632 0.021185393 -0.045367397 -0.07727863 -0.0101600485 -0.029745344 -0.031342983
0.1327171 0.1433593 -0.02830807 0.19685495 0.11130764 -0.03630166 0.069655865 -0.071796335
0.051864557 -0.062067024 -0.009009853 0.007449486 0.10934559 -0.03050371 0.04503394 -0.00060106424
0.10569048 -0.04432621 0.018544294 0.02846556 0.06942 -0.031033171 0.02642955 -0.032947686
0.084654555 0.14086592 -0.006955305 0.011980559 0.0751462 -0.07152285 -0.09559906 0.11047092
0.0074750213 -0.031027658 0.11896503 -0.0065198625 -0.03602031 0.029613268 -0.036460053 0.052171208

network_body._body_endoder.seq_layers.2.bias f4 [128]
00000000: 0000 0000 0000 0000 0000 0000 0000 0000
00000010: 0000 0000 0000 0000 0000 0000 0000 0000
00000020: 0000 0000 0000 0000 0000 0000 0000 0000
00000030: 0000 0000 0000 0000 0000 0000 0000 0000
00000040: 0000 0000 0000 0000 0000 0000 0000 0000
00000050: 0000 0000 0000 0000 0000 0000 0000 0000
00000060: 0000 0000 0000 0000 0000 0000 0000 0000
00000070: 0000 0000 0000 0000 0000 0000 0000 0000
00000080: 0000 0000 0000 0000 0000 0000 0000 0000
00000090: 0000 0000 0000 0000 0000 0000 0000 0000
000000a0: 0000 0000 0000 0000 0000 0000 0000 0000
000000b0: 0000 0000 0000 0000 0000 0000 0000 0000
000000c0: 0000 0000 0000 0000 0000 0000 0000 0000
000000d0: 0000 0000 0000 0000 0000 0000 0000 0000
000000e0: 0000 0000 0000 0000 0000 0000 0000 0000
000000f0: 0000 0000 0000 0000 0000 0000 0000 0000
00000100: 0000 0000 0000 0000 0000 0000 0000 0000
00000110: 0000 0000 0000 0000 0000 0000 0000 0000
00000120: 0000 0000 0000 0000 0000 0000 0000 0000
00000130: 0000 0000 0000 0000 0000 0000 0000 0000
00000140: 0000 0000 0000 0000 0000 0000 0000 0000
00000150: 0000 0000 0000 0000 0000 0000 0000 0000
00000160: 0000 0000 0000 0000 0000 0000 0000 0000
00000170: 0000 0000 0000 0000 0000 0000 0000 0000
00000180: 0000 0000 0000 0000 0000 0000 0000 0000
00000190: 0000 0000 0000 0000 0000 0000 0000 0000
000001a0: 0000 0000 0000 0000 0000 0000 0000 0000
000001b0: 0000 0000 0000 0000 0000 0000 0000 0000
000001c0: 0000 0000 0000 0000 0000 0000 0000 0000
000001d0: 0000 0000 0000 0000 0000 0000 0000 0000
000001e0: 0000 0000 0000 0000 0000 0000 0000 0000
000001f0: 0000 0000 0000 0000 0000 0000 0000 0000
0.0 0.0 0.0 0.0 0.0 0.0 0.0 0.0
0.0 0.0 0.0 0.0 0.0 0.0 0.0 0.0
0.0 0.0 0.0 0.0 0.0 0.0 0.0 0.0
0.0 0.0 0.0 0.0 0.0 0.0 0.0 0.0
0.0 0.0 0.0 0.0 0.0 0.0 0.0 0.0
0.0 0.0 0.0 0.0 0.0 0.0 0.0 0.0
0.0 0.0 0.0 0.0 0.0 0.0 0.0 0.0
0.0 0.0 0.0 0.0 0.0 0.0 0.0 0.0
0.0 0.0 0.0 0.0 0.0 0.0 0.0 0.0
0.0 0.0 0.0 0.0 0.0 0.0 0.0 0.0
0.0 0.0 0.0 0.0 0.0 0.0 0.0 0.0
0.0 0.0 0.0 0.0 0.0 0.0 0.0 0.0
0.0 0.0 0.0 0.0 0.0 0.0 0.0 0.0
0.0 0.0 0.0 0.0 0.0 0.0 0.0 0.0
0.0 0.0 0.0 0.0 0.0 0.0 0.0 0.0
0.0 0.0 0.0 0.0 0.0 0.0 0.0 0.0

value_heads.value_heads.extrinsic.weight f4 [1, 128]
00000000: 15e8 683c d59a 56bd 30a8 333c 6c5a 09bd
00000010: 9f5e d8bd 4bea 13be f4ed 833d b316 b5bd
00000020: 66a0 403e 883b d93d 4459 963d 37c7 b13d
00000030: 3e16 d23b fb3c 543e 5ab2 1dbe 7ada dc3d
00000040: bb3b 57bd e993 e5bd 23d8 2ebe bb15 51be
00000050: 4b8b 35bd 6f41 9ebd dfed 8b3d 0c02 583e
00000060: 9a6e 26be cacd 143e fff5 23be 5999 d6bc
00000070: ff67 073e 126e 43be fd7b 18bd fa5e 233e
00000080: 4367 2dbd 29e8 c33c 9b33 d43d 9298 453c
00000090: 161d 14be 2e05 ca3d c85b d1bd c604 10be
000000a0: 1233 b5b9 c829 983c d65f c8bb bacc c93d
000000b0: fb3b 533d 353c 103e e0b9 473e 5989 eebd
000000c0: e970 803d 9b66 f9bd c7ea 2d3e d435 17be
000000d0: f860 16be caea 103c 1866 0d3e 3068 26be
000000e0: 0909 013d f912 ce3d 5539 c1bd 1224 4d3c
000000f0: 40fb 1bbe 7787 873c 63a7 0a3e 17af 4e3e
00000100: e413 283d 1817 343d 5b72 4b3e 7a54 4fbe
00000110: 12aa d4bb d0c0 12be f917 513e a0e4 72bd
00000120: 104a 423e 24ba 29be c7fb fb3c daaf c73b
00000130: 873f c83d f2b1 52be 42ff 0d3e abde 88bd
00000140: 3601 ee3d 83d7 a0bc cf1f 22be 306b 58be
00000150: 7de0 c6bc 0a49 513c 1faf 553e c712 033e
00000160: ea76 5bbe 5c1b b83d fd0c 5cbd 3f2b 413e
00000170: 0be9 043e f804 ff3d a97b 3a3e b2af 0ebe
00000180: 52b5 363e 4243 ddbd f614 46be e58d 35be
00000190: 1e84 333e 0ad9 d83d 3b28 71bd 3825 52be
000001a0: 0caf 26be 6f3b 94bd 5d02 3abe 6e1a ee3d
000001b0: 07d5 03be 467e 3ebe 7c0d 96bd d2a7 cbbd
000001c0: cf3e 04be 2f54 f4bb e666 37be 808e a1bd
000001d0: ae3a 35be d3c7 9d3d e250 bb3d 0bfb 09be
000001e0: a95e 8dbd d3b6 c43d d5ab f83d cd77 43bd
000001f0: 827e 48be ff96 2cbd 2577 99bd 8f6e e2bd
0.014215489 -0.052393753 0.010965392 -0.0335335 -0.105649225 -0.14444844 0.0644187 -0.0884222
0.18811187 0.10607058 0.07341245 0.08680575 0.006411343 0.20726387 -0.15400067 0.107838586
-0.052547198 -0.11209852 -0.17074637 -0.20418446 -0.044322293 -0.07727324 0.0683248 0.21094531
-0.16253129 0.14531627 -0.16011809 -0.026196169 0.13223265 -0.19084957 -0.03722762 0.159542
-0.042334806 0.023914414 0.103614055 0.012060301 -0.1446422 0.09864269 -0.10222584 -0.14064321
-0.0003456106 0.01857461 -0.00611494 0.098535016 0.051570874 0.14085467 0.195045 -0.11647291
0.06271536 -0.121777736 0.16984092 -0.14766628 -0.14685428 0.008845041 0.13808477 -0.16250682
0.031502757 0.100622125 -0.09434763 0.012520807 -0.15232563 0.016544087 0.13540415 0.20183979
0.041034594 0.043967336 0.19867842 -0.20247069 -0.0064900005 -0.14331365 0.20419301 -0.059300065
0.18973565 -0.16574913 0.030759705 0.006093961 0.09777742 -0.20575693 0.13866904 -0.066830955
0.11621325 -0.019634014 -0.15832447 -0.21134639 -0.024276966 0.0127737615 0.20867585 0.12800132
-0.21432081 0.089895934 -0.053723324 0.18864153 0.12979524 0.124521196 0.18211235 -0.1393421
0.17842606 -0.10803844 -0.19343933 -0.1772991 0.17530867 0.10588272 -0.058876257 -0.2052201
-0.16277713 -0.072378986 -0.18164964 0.11626135 -0.12874232 -0.18602857 -0.07326791 -0.099441186
-0.12914585 -0.0074563245 -0.17910346 -0.07888508 -0.17698166 0.07704129 0.091462865 -0.13474672
-0.069028206 0.096051835 0.12142149 -0.047721673 -0.19579509 -0.04213619 -0.07493428 -0.11056244
