results/ppo/MoveSomewhere/MoveSomewhere-116625.pt (torch, 529655 bytes, 40 tensors)

discrete_act_size_vector f4 [1, 2]
3.0 3.0
00000000: 0000 4040 0000 4040

network_body._body_endoder.seq_layers.0.weight f4 [128, 33]
0.21924198 0.12950097 0.24679844 -0.15194191 0.17374103 0.04433936 -0.23590122 -0.026858825
0.06257541 0.03180637 -0.014773669 0.16602099 0.17186427 -0.29944563 0.040956944 0.013261857
-0.3504669 -0.22307758 0.2977411 -0.08659242 0.035990916 0.03665348 0.21541467 0.28967074
-0.26839638 -0.007205654 0.060943615 0.023851654 -0.03252547 -0.3340986 -0.2698484 0.101464495
-0.06826181 0.08591377 -0.2698274 0.012057262 -0.19992258 -0.017000671 -0.03642229 -0.18592949
-0.026012154 -0.10182243 -0.22311734 -0.0032666936 -0.19770107 -0.050202757 0.012075553 -0.0055331057
0.074143276 -0.1134553 -0.010338389 -0.15887919 0.15214813 0.20817736 -0.01659181 -0.044031467
0.13828783 0.3113779 0.063962765 -0.17247917 -0.012881297 0.21426399 0.0895035 0.091103554
0.047497425 -0.05466259 -0.09503236 0.07725808 -0.2079596 -0.08839116 -0.17433776 0.19950892
0.030159678 -0.107394084 -0.19286345 0.18508208 -0.069921516 -0.31615654 -0.041553084 -0.08421066
-0.22532588 -0.2864921 0.24999508 -0.1656847 -0.17573842 -0.06260722 0.06018648 0.053940788
0.20131895 -0.1984026 -0.013892314 -0.09085294 0.059656683 0.08505645 -0.0145752 -0.29367897
-0.26093352 0.13701464 0.0938189 -0.18048666 0.18010823 0.10130717 0.16298185 -0.102013305
-0.001672598 -0.28251415 0.10844375 -0.18234229 0.18749794 0.09586882 -0.06510685 0.20038699
0.16690208 -0.033223737 0.012439092 0.04481968 0.16963148 -0.012417685 0.021115275 0.09524903
-0.38907 0.24338625 0.25383836 0.0025687437 0.014848993 0.26439798 0.11542802 0.047203306
-0.21876335 -0.44588813 -0.11460512 -0.20511897 -0.010443929 -0.031961583 -0.05502037 0.13150759
-0.10998867 0.14317869 0.03290858 -0.06234524 -0.16219908 0.17827615 -0.25541732 0.03097423
0.15322107 0.04336 0.23752423 0.10774599 -0.23274319 -0.06627183 -0.49013478 0.1557076
-0.32944384 -0.15070945 0.022106498 0.22624488 -0.36242157 0.051504407 -0.31154326 -0.06954099
-0.061422873 -0.26173675 -0.084606625 -0.07243076 -0.39298666 0.20843905 0.077269085 -0.2697033
-0.07722399 0.04045336 0.08444045 0.26070085 -0.24616927 -0.09586651 0.024130462 0.18174654
-0.26625612 0.15428062 -0.11981511 0.020006064 0.10497243 0.11397194 0.12963134 -0.006147503
-0.00038998894 -0.20931415 -0.28070155 -0.16073045 -0.20901497 -0.02323914 -0.07185507 0.15236948
-0.15766886 0.17124498 -0.052509043 0.20131189 0.07995773 0.03566134 0.19437292 -0.3481728
0.07546102 -0.096913055 0.41496217 0.12860055 -0.43820664 0.07944475 0.07345767 0.04101704
0.16644308 -0.30476737 0.18910208 0.008586317 0.04838912 -0.022099946 0.17388545 -0.15177953
0.12740846 0.025977131 0.019189127 0.22848289 0.11830161 -0.052735526 0.16200602 -0.16001524
0.15455402 0.1974609 0.026947558 0.15612963 -0.16876009 -0.061429635 -0.018425075 -0.22761764
-0.18326136 0.1037092 -0.11871908 -0.061685447 -0.09827542 0.008851115 -0.41454417 0.20121668
-0.025914261 -0.04441588 0.042177573 -0.14659141 -0.018838271 0.09433339 -0.14419651 0.25221366
-0.13046843 -0.1509771 0.2242941 0.39621872 -0.058821954 -0.072804734 0.12937419 -0.13453269
00000000: f880 603e e79b 043e bbb8 7c3e a996 1bbe
00000010: 2be9 313e 309d 353d 1790 71be 0a07 dcbc
00000020: 8927 803d 6547 023d 420d 72bc 6801 2a3e
00000030: 30fd 2f3e f050 99be 78c2 273d 4348 593c
00000040: 6670 b3be 736e 64be 8571 983e 5e57 b1bd
00000050: 366b 133d f621 163d aa95 5c3e b94f 943e
00000060: 406b 89be 681d ecbb 03a0 793d 8b64 c33c
00000070: 6d39 05bd f90e abbe 9229 8abe 9ecc cf3d
00000080: d9cc 8bbd 8ff3 af3d d126 8abe d28b 453c
00000090: 81b8 4cbe fe44 8bbc 8a2f 15bd 4d64 3ebe
000000a0: 7117 d5bc 4788 d0bd df78 64be 0616 56bb
000000b0: 2672 4abe 68a1 4dbd 8ad8 453c 0e4f b5bb
000000c0: 6ed8 973d 415b e8bd 5962 29bc 3ab1 22be
000000d0: b8cc 1b3e 722c 553e 8ceb 87bc 575a 34bd
000000e0: 539b 0d3e ed6c 9f3e e9fe 823d 619e 30be
000000f0: 130c 53bc 0568 5b3e 9c4d b73d 8094 ba3d
00000100: a98c 423d e1e5 5fbd 53a0 c2bd 7c39 9e3d
00000110: 5df3 54be 6d06 b5bd 9985 32be 114c 4c3e
00000120: 6e11 f73c 6ef1 dbbd ff7d 45be 2886 3d3e
00000130: 0333 8fbd 45df a1be 9133 2abd a376 acbd
00000140: d4bb 66be 18af 92be b6fe 7f3e 40a9 29be
00000150: c6f4 33be 3738 80bd 1986 763d 04f1 5c3d
00000160: 8e26 4e3e 0d2a 4bbe 979c 63bc 1b11 babd
00000170: 915a 743d 1332 ae3d d2cc 6ebc 175d 96be
00000180: 1499 85be 914d 0c3e 2024 c03d 7fd1 38be
00000190: 4b6e 383e 227a cf3d b7e4 263e 5aec d0bd
000001a0: 133b dbba b2a5 90be c217 de3d f0b7 3abe
000001b0: 76ff 3f3e df56 c43d bd56 85bd 3f32 4d3e
000001c0: 61e8 2a3e 9d15 08bd 55cd 4b3c d794 373d
000001d0: e0b3 2d3e 8c73 4bbc f1f9 ac3c ec11 c33d
000001e0: 2f34 c7be 3f3a 793e 1af7 813e 5e58 283b
000001f0: 3149 733c 2c5f 873e 8765 ec3d 4158 413d
00000200: 8003 60be 734b e4be 17b6 eabd b50a 52be
00000210: 031d 2bbc 26ea 02bd 0a5d 61bd eda9 063e
00000220: bd41 e1bd 6f9d 123e 26cb 063d b95d 7fbd
00000230: 8417 26be 068e 363e 0fc6 82be abbd fd3c
00000240: fce5 1c3e 419a 313d 8d39 733e eea9 dc3d
00000250: 3b54 6ebe 86b9 87bd f2f2 fabe d071 1f3e
00000260: ddac a8be 9453 1abe b018 b53c bdac 673e
00000270: 528f b9be 49f6 523d 9982 9fbe 826b 8ebd
00000280: 8d96 7bbd 5c02 86be 3d46 adbd 9456 94bd
00000290: 8c35 c9be 0c71 553e 413f 9e3d 8d16 8abe
000002a0: 9c27 9ebd 6cb2 253d 1def ac3d 957a 853e
000002b0: cc13 7cbe a955 c4bd 3fad c53c c41b 3a3e
000002c0: b952 88be bdfb 1d3e a061 f5bd c2e3 a33c
000002d0: c9fb d63d 1f6a e93d 14be 043e fe70 c9bb
000002e0: 6e77 ccb9 7356 56be 1db8 8fbe 8696 24be
000002f0: 0508 56be 0260 bebc c028 93bd bf06 1c3e
00000300: f273 21be d85a 2f3e b913 57bd b424 4e3e
00000310: e1c0 a33d a011 123d b209 473e b543 b2be
00000320: 4f8b 9a3d 5a7a c6bd ec75 d43e ddaf 033e
00000330: 9f5c e0be eeb3 a23d fa70 963d 7c01 283d
00000340: 0e70 2a3e 780a 9cbe faa3 413e a0ad 0c3c
00000350: ab33 463d f20a b5bc 070f 323e 186c 1bbe
00000360: 5d77 023e fecd d43c 8432 9d3c 6bf7 693e
00000370: 1d48 f23d 3501 58bd e8e4 253e 09db 23be
00000380: 6943 1e3e 3133 4a3e 20c1 dc3c 72e0 1f3e
00000390: 72cf 2cbe a49d 7bbd 2ff0 96bc 9914 69be
000003a0: dea8 3bbe 7d65 d43d fd22 f3bd e1a9 7cbd
000003b0: a044 c9bd 4404 113c 223f d4be bf0b 4e3e
000003c0: 254a d4bc 6ded 35bd 64c2 2c3d 0f1c 16be
000003d0: b852 9abc dd31 c13d 40a8 13be 2622 813e
000003e0: 8499 05be be99 1abe 5aad 653e 2edd ca3e
000003f0: 4aef 70bd a61a 95bd ab7a 043e f0c2 09be

network_body._body_endoder.seq_layers.0.bias f4 [128]
0.03326997 -0.0047822567 -0.011786466 -0.009039733 -0.017592622 -0.0031640874 0.0072262622 -0.002663905
-0.0039698645 -0.0026042229 0.0012419727 -0.019089585 -0.004064997 0.0028917037 -0.01625592 0.0055235885
0.0016511796 0.001113541 -0.024239976 -0.028400768 0.0033227128 -0.0009324526 -0.0093224235 0.0032156035
0.013797657 -0.001397377 -0.01932492 0.02130268 -0.0039975275 0.0016894947 -0.017925043 0.0003596189
-0.00021013239 -0.00045900943 0.010320165 -0.012861828 -0.0050360416 0.02659712 -0.004588742 0.009513252
-0.002076973 -0.0029463859 0.00046634238 0.0035859914 0.0034617456 0.011698427 -0.006694251 0.03455831
-0.022249611 -0.000558063 0.0034207185 0.002695328 0.02972855 -0.006763527 -0.008106448 0.010614942
-0.010258823 -0.006461447 -0.00023436785 0.018590612 0.0066684126 0.0046680756 0.009811089 -0.0040305983
0.0055599664 0.0028000216 0.0069845053 -0.010484995 0.009377263 -0.0053647463 0.021846065 -0.008099215
0.014679896 -0.01379501 0.0015598634 0.011520451 0.020689348 -0.0050975364 0.0017879067 -0.01412015
0.0025595 -0.0075095585 -0.01493785 0.0022244055 0.00068138214 0.008489542 -0.019556712 0.0046475073
-0.012880444 0.0017331997 0.015059939 0.0010702901 -0.0012389115 0.0128637105 -0.0024248946 -0.017454853
0.033772573 -0.011489937 2.1274382e-05 -0.0072253845 -0.004263635 0.004029176 -0.014356698 0.0031124582
0.022196937 -0.006874167 -0.0075442963 0.0021891152 -0.023067748 0.010960516 -0.0045729373 -0.005316496
0.00050693995 -0.021403529 0.009667285 0.004311086 -0.01680576 -0.00017940448 0.013859347 -0.0047664666
0.006475937 0.00021004665 0.0037765098 -0.012915027 -0.009465683 -0.007631029 -0.007653259 -0.0075391387
00000000: 1846 083d 7ab4 9cbb 061c 41bc 631b 14bc
00000010: 671e 90bc 945c 4fbb 48ca ec3b e994 2ebb
00000020: a315 82bb 9cab 2abb b0c9 a23a c361 9cbc
00000030: ab33 85bb bd82 3d3b 232b 85bc 38ff b43b
00000040: 656c d83a 3cf4 913a ea92 c6bc baa8 e8bc
00000050: dfc1 593b d66f 74ba 14bd 18bc e0bc 523b
00000060: 910f 623c 3128 b7ba 4b4f 9ebc f582 ae3c
00000070: b1fd 82bb 0972 dd3a 8ad7 92bc 3b8b bc39
00000080: fc56 5cb9 34a7 f0b9 e915 293c 6bba 52bc
00000090: 6105 a5bb 34e2 d93c 285d 96bb 79dd 1b3c
000000a0: d31d 08bb 2718 41bb 6a7f f439 f402 6b3b
000000b0: 74de 623b c2aa 3f3c 735b dbbb 048d 0d3d
000000c0: d144 b6bc f94a 12ba 222e 603b 1aa4 303b
000000d0: 4a89 f33c 94a0 ddbb e8d0 04bc 4bea 2d3c
000000e0: 9f14 28bc 8cba d3bb a4c0 75b9 574b 983c
000000f0: b382 da3b a8f6 983b b1be 203c 1c13 84bb
00000100: 6130 b63b 9180 373b 47de e43b 42c9 2bbc
00000110: 17a3 193c c1ca afbb 85f6 b23c 92b2 04bc
00000120: f283 703c 7704 62bc 5574 cc3a 46c0 3c3c
00000130: b57c a93c 3c09 a7bb 3258 ea3a 3458 67bc
00000140: 49bd 273b be12 f6bb e2bd 74bc 55c7 113b
00000150: c89e 323a b817 0b3c 6635 a0bc 1e4a 983b
00000160: 7f08 53bc 882c e33a f6bd 763c fa48 8c3a
00000170: f962 a2ba 50c2 523c fbea 1ebb 7bfd 8ebc
00000180: 1c55 0a3d 4a40 3cbc 6376 b237 ebc2 ecbb
00000190: f6b5 8bbb 2e07 843b 5b38 6bbc 62fa 4b3b
000001a0: 5ad6 b53c b140 e1bb 2536 f7bb 4277 0f3b
000001b0: 93f8 bcbc bc93 333c 94d8 95bb 0036 aebb
000001c0: 2ae4 043a 7456 afbc 8863 1e3c 0344 8d3b
000001d0: 3cac 89bc 861e 3cb9 5112 633c 0530 9cbb
000001e0: 1934 d43b f83f 5c39 527f 773b 8d99 53bc
000001f0: f415 1bbc b60d fabb 31c8 fabb e10a f7bb

network_body._body_endoder.seq_layers.2.weight f4 [128, 128]
0.22652641 0.15994325 -0.06576584 0.005720511 -0.033354785 0.07298453 0.10406309 0.026281998
-0.08694571 0.0700162 0.08229388 -0.07494532 -0.049896754 0.07057404 -0.036440346 0.027418314
-0.021044333 -0.056185473 -0.06889507 -0.045795072 -0.1829044 0.022188926 -0.17037615 -0.14089262
0.026356205 -0.16848822 -0.07663101 -0.032494538 0.07814189 0.030754125 0.013128782 -0.072650045
0.040566806 -0.105606325 0.02581458 -0.09829279 -0.0760233 0.019088719 -0.11110733 0.08781469
0.13850108 -0.026421214 -0.058513723 -0.026773168 -0.002704468 -0.024964923 0.021407563 -0.22573216
-0.07345994 0.0989668 -0.08431423 0.12532368 0.13450693 0.009533721 -0.13834265 -0.096060365
0.010570025 0.017109644 0.1406194 -0.1537564 0.19049521 0.005928697 0.12090852 -0.08880601
0.1619456 -0.093103856 0.046033397 -0.17030464 0.046057995 -0.07272704 -0.09791146 -0.020691857
-0.057837225 0.053083364 -0.19898869 -0.02532684 0.17742693 0.02608827 -0.1602591 0.15121585
-0.12437308 -0.0018041288 0.060232848 -0.0033725519 -0.0917946 0.062401343 -0.034987558 0.06089232
-0.122930385 0.07929001 0.08147649 -0.04234501 0.057907447 -0.022198344 -0.12851232 -0.082829885
0.086180985 -0.18395694 -0.05921952 0.017540753 -0.01921748 -0.051028386 -0.02660699 -0.12159805
0.012906161 -0.057845704 0.03174327 -0.21111506 -0.0065523256 -0.16606954 0.033356614 0.0011295615
-0.12160523 0.079121195 -0.1004523 -0.035697147 -0.13754502 -0.07586117 0.03261501 -0.1626755
-0.0979817 -0.06759521 0.08882862 -0.2155397 -0.12237547 -0.019962706 -0.1794056 -0.031137211
0.08804771 0.115080416 -0.0849488 -0.07207884 -0.057950478 0.08810737 -0.0064730654 0.14146847
0.073816985 -0.054013617 -0.14704095 0.13694891 0.13021794 -0.022876823 0.21085398 -0.05747125
0.036059357 0.11321661 -0.077017605 0.022624856 0.0012690858 -0.023245111 -0.092844054 -0.054816738
-0.0463682 0.07041545 -0.047272053 -0.13523898 0.032593876 0.13684417 -0.09582248 -0.0063740956
0.01746244 -0.0074300175 0.033698335 -0.07524017 0.07024569 0.03534532 0.044450063 0.12865262
0.0247493 0.12259972 -0.016205905 0.09647853 0.22273509 0.078681946 0.16183138 -0.076257385
0.023384362 0.03209886 -0.12034371 -0.03406143 -0.007681797 0.04624371 -0.14886363 -0.019507542
-0.09250685 -0.016730065 -0.031986315 -0.20863584 0.011245339 -0.048447013 -0.029630478 -0.020536885
0.017827002 -0.021978168 -0.066726685 0.1327064 -0.11701667 -0.07404486 0.086813666 -0.053523783
0.09888748 -0.00026917114 0.023934633 -0.12192073 -0.036525324 0.05006124 0.091708936 -0.022995913
0.11074095 -0.016301872 0.047392756 -0.08453816 0.08586503 0.053912558 -0.0032965834 -0.07564974
-0.16667292 -0.029492551 -0.00057383126 -0.05618718 0.057988416 0.06613804 -0.10363245 -0.13222265
0.019339059 0.03399228 -0.07454109 0.013951751 0.077787116 -0.031177253 -0.05136195 -0.05796583
0.048336897 -0.03364931 -0.07854204 0.044544518 -0.06803393 -0.027581194 0.08203309 -0.009610811
-0.040246006 -0.018271565 -0.04559549 -0.033339832 -0.03697624 -0.055223543 0.1084236 0.07939947
0.04225846 -0.16291697 -0.03226163 -0.017767388 -0.17396933 -0.06108131 0.02891757 0.12650667
00000000: 8af6 673e 2ac8 233e 3eb0 86bd 2073 bb3b
00000010: 079f 08bd ea78 953d 081f d53d 584d d73c
00000020: 9810 b2bd a764 8f3d b289 a83d ef7c 99bd
00000030: 8a60 4cbd 1f89 903d 7942 15bd 5f9c e03c
00000040: 2a65 acbc bd22 66bd dc18 8dbd 9d93 3bbd
00000050: 4b4b 3bbe 8dc5 b53c 1677 2ebe 2846 10be
00000060: f8e8 d73c 2d88 2cbe b8f0 9cbd fe18 05bd
00000070: db08 a03d 13f0 fb3c 1a1a 573c 8cc9 94bd
00000080: 6129 263d 2148 d8bd 1979 d33c bb4d c9bd
00000090: 1bb2 9bbd f25f 9c3c 3d8c e3bd 30d8 b33d
000000a0: 3ad3 0d3e 4d71 d8bc 16ac 6fbd 6753 dbbc
000000b0: 723d 31bb 3d83 ccbc ea5e af3c 5526 67be
000000c0: 2a72 96bd 1baf ca3d f0ac acbd da54 003e
000000d0: 2fbc 093e 5333 1c3c b2a9 0dbe 4cbb c4bd
000000e0: e62d 2d3c 8629 8c3c 88fe 0f3e 5172 1dbe
000000f0: 2d11 433e 8445 c23b e39e f73d eddf b5bd
00000100: 11d5 253e 3cad bebd 848d 3c3d 5764 2ebe
00000110: 4fa7 3c3d eaf1 94bd ce85 c8bd f881 a9bc
00000120: bae6 6cbd f16d 593d b1c3 4bbe 3c7a cfbc
00000130: 68af 353e 11b7 d53c f61a 24be 54d8 1a3e
00000140: 50b7 febd 8478 ecba b8b6 763d 0806 5dbb
00000150: cffe bbbd 8d98 7f3d 1d4f 0fbd 3a6a 793d
00000160: edc2 fbbd cd62 a23d 25dd a63d f671 2dbd
00000170: 5c30 6d3d 4dd9 b5bc bc98 03be b7a2 a9bd
00000180: a87f b03d 355f 3cbe 2b90 72bd a0b1 8f3c
00000190: fa6d 9dbc 2403 51bd e7f6 d9bc 6608 f9bd
000001a0: 5d74 533c 9eef 6cbd 3b05 023d 8c2e 58be
000001b0: e4b4 d6bb 220e 2abe f2a0 083d cb0d 943a
000001c0: 2a0c f9bd 4b0a a23d efb9 cdbd 2c37 12bd
000001d0: 9ad8 0cbe 1a5d 9bbd 5197 053d 6894 26be
000001e0: a1aa c8bd 5c6f 8abd c8eb b53d 70b6 5cbe
000001f0: fe9f fabd d488 a3bc 1ab6 37be 7713 ffbc
00000200: 5c52 b43d 48af eb3d a3f9 adbd 129e 93bd
00000210: 7b5d 6dbd a371 b43d 021c d4bb 1cdd 103e
00000220: 5c2d 973d 623d 5dbd e791 16be 563c 0c3e
00000230: da57 053e 2d68 bbbc 1bea 573e f966 6bbd
00000240: fab2 133d 1cde e73d 68bb 9dbd c357 b93c
00000250: 7457 a63a 886c bebc 0625 bebd 8487 60bd
00000260: 95ec 3dbd fa35 903d 57a0 41bd 167c 0abe
00000270: 2881 053d e120 0c3e 943e c4bd cadd d0bb
00000280: 640d 8f3c 8177 f3bb 4407 0a3d 8517 9abd
00000290: f9dc 8f3d 41c6 103d 4511 363d 83bd 033e
000002a0: 0bbf ca3c 9015 fb3d 3fc2 84bc 8996 c53d
000002b0: ab14 643e 0024 a13d 20b7 253e d52c 9cbd
000002c0: 9090 bf3c 187a 033d c376 f6bd ff83 0bbd
000002d0: 95b7 fbbb 0b6a 3d3d b56f 18be 48ce 9fbc
000002e0: 3b74 bdbd 7d0d 89bc 1504 03bd a2a4 55be
000002f0: 5f3e 383c 6070 46bd 9ebb f2bc f83c a8bc
00000300: ef09 923c 8f0b b4bc 00a8 88bd 30e4 073e
00000310: 70a6 efbd d5a4 97bd 5dcb b13d c13b 5bbd
00000320: 8585 ca3d 8a1f 8db9 9012 c43c 93b1 f9bd
00000330: 949b 15bd 040d 4d3d e5d1 bb3d ed61 bcbc
00000340: 27cc e23d 818b 85bc e81e 423d 5822 adbd
00000350: 01da af3d 6ad3 5c3d 7e0b 58bb 40ee 9abd
00000360: 4eac 2abe 5d9a f1bc 2a6d 16ba 8724 66bd
00000370: 4385 6d3d 6173 873d 403d d4bd 6065 07be
00000380: f26c 9e3c 7d3b 0b3d 00a9 98bd e395 643c
00000390: da4e 9f3d 7067 ffbc e860 52bd 946d 6dbd
000003a0: e9fc 453d dcd3 09bd a6da a0bd 5074 363d
000003b0: 6055 8bbd f5f1 e1bc f700 a83d aa76 1dbc
000003c0: ffd8 24bd 40ae 95bc 56c2 3abd 598f 08bd
000003d0: 6674 17bd 1532 62bd 310d de3d 309c a23d
000003e0: 3517 2d3d b5d3 26be c524 04bd ea8c 91bc
000003f0: 0425 32be 6530 7abd 8ae4 ec3c f78a 013e

network_body._body_endoder.seq_layers.2.bias f4 [128]
0.02945846 0.007931397 -0.012217443 -0.002746184 0.0072229323 -0.0019837038 -0.015554047 -0.0024766596
-0.00842889 -0.007014866 0.00026809366 0.002505984 0.00353024 -0.008054335 0.0042431443 0.0054945773
0.01018033 -0.0018009908 -0.014527545 -0.006699567 -0.022826018 -0.008967638 0.008632556 0.0071132677
0.006431766 0.0013008548 0.0049934736 -0.004507065 -0.00094319234 0.014391762 -0.00397515 -0.016342046
0.0035834787 -0.0018601692 -0.029540895 -0.009695454 0.029864663 0.00024511496 -0.0016273843 -0.0055482946
0.0011864225 0.0045544496 -0.017637555 0.0027144044 0.010697509 0.010872867 0.011137771 -0.0004247054
0.00010628309 -0.008464393 -0.014831584 0.0018737776 -0.02668994 -0.019010322 0.021783845 0.015760051
-0.0049587497 -0.007037719 -0.007058576 0.0041077426 -0.013521313 0.005766133 -0.016568625 -0.000975571
-0.00041338094 -0.02424492 -0.00030272387 -0.011440682 -0.0014920578 0.0023322885 0.022914901 -0.01846586
0.010700635 0.005485341 0.004016849 -0.018869894 0.009073095 -0.0059424764 0.0041061617 -0.0065060817
-0.013914665 -0.00041116757 0.0014889056 0.016109712 0.009421201 -0.012548829 0.00616951 -0.0006081505
0.009256435 0.0023890967 -0.0061278204 0.027355706 0.020061407 0.001347653 0.008498211 -0.0046738195
-0.00089953234 0.003805193 0.03928079 -0.0057098363 -0.0019232921 -0.004361904 0.012469866 0.008841613
0.007671706 0.00032949453 -0.020884749 0.0048084073 -0.021087004 0.005405756 -0.005125875 -0.00942932
0.0017089201 -0.0051820907 -0.010228923 -0.004410371 0.0075797522 0.017160162 -0.0074926545 0.003349226
0.0081304815 -0.023215638 -0.024110027 0.03215549 -0.005577663 0.0085934615 -0.027298326 -0.0052421843
00000000: de52 f13c b1f2 013c ac2b 48bc 52f9 33bb
00000010: 59ae ec3b 0701 02bb 67d6 7ebc 744f 22bb
00000020: 5419 0abc f6dc e5bb ec8e 8c39 6f3b 243b
00000030: 995b 673b 54f6 03bc 130a 8b3b db0b b43b
00000040: 66cb 263c 390f ecba f104 6ebc 0b88 dbbb
00000050: a1fd babc 00ed 12bc 906f 0d3c 6a16 e93b
00000060: 90c1 d23b 7281 aa3a 4ba0 a33b 00b0 93bb
00000070: 9140 77ba 6dcb 6b3c fa41 82bb c1df 85bc
00000080: ccd8 6a3b ecd0 f3ba bfff f1bc aed9 1ebc
00000090: bda6 f43c c682 8039 f54d d5ba 78ce b5bb
000000a0: bc81 9b3a 7e3d 953b a27c 90bc 26e4 313b
000000b0: 9b44 2f3c 1c24 323c 337b 363c feaa deb9
000000c0: 4de4 de38 3dae 0abc 2c00 73bc 8b99 f53a
000000d0: dca4 dabc 89bb 9bbc 0974 b23c 391b 813c
000000e0: 027d a2bb aa9c e6bb a14b e7bb 3e9a 863b
000000f0: 7f88 5dbc d4f1 bc3b edba 87bc 76bd 7fba
00000100: 0dbb d8b9 489d c6bc e9b6 9eb9 b371 3bbc
00000110: 2791 c3ba 4fd9 183b 08b8 bb3c b745 97bc
00000120: b751 2f3c 60be b33b c69f 833b 0995 9abc
00000130: 52a7 143c 1bb9 c2bb fb8c 863b f830 d5bb
00000140: 56fa 63bc fa91 d7b9 6227 c33a 84f8 833c
00000150: 625b 1a3c 9b99 4dbc 9a29 ca3b 4a6c 1fba
00000160: 4da8 173c 6492 1c3b e2cb c8bb 1319 e03c
00000170: d257 a43c bba3 b03a 153c 0b3c d726 99bb
00000180: 98ce 6bba 8b60 793b e5e4 203d 9419 bbbb
00000190: f916 fcba 4eee 8ebb 694e 4c3c 6adc 103c
000001a0: ef62 fb3b 02c0 ac39 7e16 abbc d88f 9d3b
000001b0: a7be acbc c522 b13b f5f6 a7bb 6f7d 1abc
000001c0: d8fd df3a 87ce a9bb 3697 27bc e084 90bb
000001d0: 925f f83b 7893 8c3c f184 f5bb b07e 5b3b
000001e0: b635 053c b92e bebc 6482 c5bc 7ab5 033d
000001f0: d4c4 b6bb 97cb 0c3c bda0 dfbc a1c6 abbb

action_model._discrete_distribution.branches.0.weight f4 [3, 128]
0.014742738 -0.004142146 -0.00039955668 0.013828757 0.01954695 0.007358399 -0.0135745 -0.007118133
-0.008127843 0.0043550893 -0.005224984 0.0037223387 0.008991332 0.0024870287 -0.001717591 -0.0024380088
0.007424485 -0.0016819059 -0.0037295264 -0.018225426 -0.0012509716 -0.0026868002 0.01227564 0.01417491
-0.0008404226 -0.0015807023 0.009008568 -0.002335743 0.0019490801 0.003787903 -0.012208644 -0.013146432
0.0072992016 0.012510891 -0.05403187 0.0011321672 0.011517153 0.0075062015 -0.013704084 0.009266406
-6.7014895e-05 0.020324163 -0.028568277 0.004762971 0.008966403 0.011729074 0.010959758 -0.0017415154
0.0048802188 0.006162463 -0.030448113 -0.0057031214 0.003924885 -0.020939277 0.0004378328 -0.0032460843
0.010203665 -0.0025059213 -0.012988414 -0.00400221 -0.013642662 0.0057531116 -0.015132871 0.005679428
-0.0029188967 -0.03226457 0.003631666 -0.007386151 -0.004653258 0.007273189 0.029155334 -0.0037557976
0.015783722 0.0046232375 0.009355725 -0.0110762445 0.0031568995 -0.008862455 0.0004184178 -0.004367727
-0.0017260549 0.01824099 -0.014967866 0.01043179 0.021929001 -0.0042069294 -0.010062553 0.012874698
0.00053872785 0.00024803155 -0.0023270026 -0.0019248789 0.011644799 0.009905328 0.010276161 0.0045068315
0.023277204 0.0065406286 0.03576974 0.003579208 0.015251388 -0.0037409142 0.00076211983 0.0007782775
0.01032893 -0.0037476546 -0.02221202 0.0015214429 -0.013459015 0.001411869 0.00789599 -0.017183332
0.0049857055 0.0033428217 -0.0075961873 0.0016798687 -0.0005008485 0.018543417 -0.009132708 -0.009382515
-0.0026580736 -0.012057027 -0.0021391371 0.02000891 -0.0143450545 0.0016952626 -0.024990102 0.009021226
0.020581422 0.0040145675 -0.0020169383 0.017426888 -0.012523623 -0.01106412 -0.01874598 -0.00030443523
0.0011180748 0.0017925218 0.012490374 0.0014327541 0.011615729 -0.0040917876 -0.003542179 0.008359307
-0.0031011214 -0.01991308 -0.01010554 0.01799028 0.0045056166 0.003288702 -0.0027984697 0.0082527045
0.031619273 -0.021760365 -0.013611029 -0.0059277276 -6.640477e-05 -0.0026243287 -0.021343317 0.0017501119
0.0030419857 -0.005719195 -0.025420982 0.00022233976 -0.011215016 -0.008914944 0.00847723 -0.0008008033
0.0081887 0.01136989 -0.010490436 0.014304822 0.00015128912 0.015595034 -0.0016528957 0.010421025
-0.01119406 -0.010169185 -0.00010794378 -0.015275182 3.5936566e-05 -0.0051819365 -0.0064685936 0.007419547
-0.0033270058 -0.0030554307 -0.0133641735 0.0076241563 -0.014837275 0.004105292 -0.023897031 -0.009478601
0.0039967685 -0.01451168 0.0151602635 -0.0058135954 -0.009277281 0.0017017369 0.01395481 -0.009167377
-0.008822109 0.004473368 0.012122041 -0.0070684617 0.0124354595 0.010784934 0.008255425 -0.00015246439
-0.016921088 0.0037906491 0.009470136 0.0038530277 -0.0047949674 -0.0037600382 0.00212482 -0.029181106
-0.0032338619 0.00044912953 0.007396208 0.00494831 -0.0023827618 0.011367957 0.0094332285 -0.0052790497
0.0063570696 -0.0012507058 0.0036707346 -0.010944239 0.0017120637 -0.0064091072 -0.009871915 0.0039115017
0.0028377254 0.016038252 -0.00015783384 -0.0059463196 -0.011322135 0.0136187505 0.016638452 -0.013374539
0.02225211 0.0116836885 -0.010747783 -0.0024086784 -0.00034798586 -0.008504702 -0.0042066257 -0.007991091
-0.0030566491 -0.012145503 0.004931433 0.01771108 -0.013555917 -0.011789939 -0.018821705 -0.008235229
00000000: 868b 713c d7ba 87bb 977b d1b9 0392 623c
00000010: ed20 a03c ba1e f13b 9467 5ebc 3a3f e9bb
00000020: a52a 05bc 23b5 8e3b 5836 abbb 7bf2 733b
00000030: 6150 133c 6bfd 223b ca20 e1ba 00c7 1fbb
00000040: 1849 f33b 6673 dcba 126b 74bb 7d4d 95bc
00000050: a4f7 a3ba 0715 30bb c41f 493c e23d 683c
00000060: ce4f 5cba 912f cfba ac98 133c 4413 19bb
00000070: 4778 ff3a 783e 783b c406 48bc 2264 57bc
00000080: 242e ef3b 7bfa 4c3c 8650 5dbd 3a65 943a
00000090: 71b2 3c3c 95f6 f53b 1887 60bc 20d2 173c
000000a0: 598a 8cb8 dc7e a63c 0508 eabc b212 9c3b
000000b0: d2e7 123c 4d2b 403c 8f90 333c 8f43 e4ba
000000c0: 3eea 9f3b 7dee c93b 526e f9bc 40e1 babb
000000d0: 529c 803b d988 abbc ec8c e539 42bc 54bb
000000e0: 462d 273c 623a 24bb 5bcd 54bc f924 83bb
000000f0: 7985 5fbc 9984 bc3b ddef 77bc 7f1a ba3b
00000100: f64a 3fbb db27 04bd 3f01 6e3b 8607 f2bb
00000110: 5b7a 98bb ee53 ee3b 2bd7 ee3c d423 76bb
00000120: dd4c 813c 877e 973b c148 193c 2379 35bc
00000130: fce3 4e3b d533 11bc 165f db39 261f 8fbb
00000140: cb3c e2ba 216e 953c c83b 75bc 19ea 2a3c
00000150: 73a4 b33c 48da 89bb 68dd 24bc 66f0 523c
00000160: 6a39 0d3a 3b0a 8239 a080 18bb 384c fcba
00000170: d4c9 3e3c f549 223c 585d 283c 0bae 933b
00000180: d6af be3c c552 d63b 4a83 123d 2591 6a3b
00000190: f5e0 793c 202a 75bb ffc8 473a 5205 4c3a
000001a0: ac3a 293c 369b 75bb fbf5 b5bc 276b c73a
000001b0: 3383 5cbc 760e b93a 2f5e 013c 0fc4 8cbc
000001c0: 215f a33b 3e13 5b3b 70e9 f8bb 0a2f dc3a
000001d0: 604b 03ba 5de8 973c 5ba1 15bc 1fb9 19bc
000001e0: 1333 2ebb d68a 45bc c430 0cbb bae9 a33c
000001f0: 8507 6bbc 9333 de3a 0bb8 ccbc c4cd 133c
00000200: 5f9a a83c a28c 833b 9c2e 04bb d5c2 8e3c
00000210: e22f 4dbc 4846 35bc 2b91 99bc 9b9c 9fb9
00000220: 5d8c 923a 0df3 ea3a 6da4 4c3c 40cb bb3a
00000230: e64f 3e3c 6714 86bb e723 68bb 7af5 083c
00000240: 2f3c 4bbb c120 a3bc b591 25bc 5a60 933c
00000250: daa3 933b 4487 573b 8866 37bb 5a36 073c
00000260: 3683 013d cb42 b2bc cb00 5fbc 623d c2bb
00000270: ca42 8bb8 eefc 2bbb 2ed8 aebc 0364 e53a
00000280: 0d5c 473b 1668 bbbb aa3f d0bc e023 6939
00000290: 30bf 37bc fc0f 12bc 14e4 0a3c 00ed 51ba
000002a0: e629 063c c648 3a3c 14e0 2bbc c65e 6a3c
000002b0: 5da3 1e39 5082 7f3c faa5 d8ba f2bc 2a3c
000002c0: 4a67 37bc a79c 26bc e05f e2b8 c244 7abc
000002d0: 98ba 1638 3ccd a9bb 7ff6 d3bb ac1f f33b
000002e0: e509 5abb 9f3d 48bb 68f5 5abc 0fd4 f93b
000002f0: 0b18 73bc af85 863b b5c3 c3bc 224c 1bbc
00000300: 53f7 823b 66c2 6dbc c162 783c f97f bebb
00000310: bdff 17bc d10c df3a b7a2 643c c432 16bc
00000320: 9b8a 10bc 5595 923b 869b 463c 8e9e e7bb
00000330: 19be 4b3c 4bb3 303c c341 073c d9de 1fb9
00000340: 189e 8abc 8a6c 783b a128 1b3c 1483 7c3b
00000350: 1a1f 9dbb f96a 76bb 9040 0b3b 370d efbc
00000360: 33ef 53bb 2579 eb39 e45b f23b 6f25 a23b
00000370: 1c28 1cbb ab40 3a3c d48d 1a3c e1fb acbb
00000380: f74e d03b b9ee a3ba b590 703b 774f 33bc
00000390: 5367 e03a 7d03 d2bb d0bd 21bc 0e2c 803b
000003a0: 22f9 393b a762 833c 3380 25b9 58d9 c2bb
000003b0: 7a80 39bc 2e21 5f3c 5d4d 883c e220 5bbc
000003c0: 0f4a b63c f16c 3f3c 7817 30bc ebda 1dbb
000003d0: df71 b6b9 4e57 0bbc bcd7 89bb 11ed 02bc
000003e0: 1052 48bb effd 46bc dc97 a13b d416 913c
000003f0: a319 5ebc 972a 41bc fa2f 9abc 0eed 06bc

action_model._discrete_distribution.branches.0.bias f4 [3]
0.009725109 0.005321692 -0.015862776
00000000: 1056 1f3c 9761 ae3b a7f2 81bc

action_model._discrete_distribution.branches.1.weight f4 [3, 128]
0.0157296 -0.007658258 0.0070241005 -0.0059137763 -0.010506291 -0.00044108028 -0.017027449 -0.00631163
-0.0023604624 0.00677702 0.008592031 0.00035069205 -0.007630238 0.0007915114 -0.0017351562 -0.014168026
0.003266951 -0.020920882 -0.007926468 -0.018634334 -0.0075056497 0.010695911 0.006652602 0.0050729313
-0.002066604 0.00333416 -0.02769742 -0.0011942677 -0.023869608 -0.0047867727 0.0074694506 0.0035772354
0.0006207411 0.00235892 0.006543805 0.0030304862 -0.007794044 -0.00091231876 0.0035926532 -0.0058113826
0.011061588 -0.00045081496 0.001341953 0.00431831 -0.0009787541 -0.0011474876 0.0033242994 -0.0055798176
-0.0066743856 0.0027165958 -0.015453285 0.0006708469 -9.985489e-06 0.01181541 0.0007083342 0.0020249626
-0.0004586029 0.007978535 0.01000271 0.008243945 -0.0062190546 -0.0025391614 0.0052786106 -0.01095377
0.004283115 0.0012514371 0.01641156 0.006189124 0.017172482 0.018481977 -0.013909311 -0.003266899
-0.01899804 -0.0069196955 0.002947965 -0.0072366972 0.0025265946 -0.008677117 -0.011757079 -0.009174127
-6.337282e-05 0.010826124 0.0025658808 0.0035272515 0.01486589 -0.01744975 -0.021095958 -0.0058150208
-0.0006873377 0.008834785 -0.009763952 -0.0011557874 0.014202999 0.002972575 -0.0030736355 0.0030627355
0.0010849412 0.007364066 -0.009948962 0.002217915 0.018549547 -0.012868952 -0.009051397 -0.008301233
-0.0023945617 -0.010832689 0.023721779 0.0008910336 0.009842053 -0.0073869964 -0.00043636208 -0.0076311943
-0.009949557 -0.0022811473 0.0040016584 0.0067845057 0.008887399 0.0005124741 -0.00291724 -0.004525956
0.0018996443 0.0027378954 -0.0048371386 -0.0097876685 0.009594075 -0.0071813245 -0.000442263 0.00048679762
0.007723281 0.002771995 0.0072347396 -0.00093846204 0.0016028937 0.00082005624 -0.0012914963 -2.4069352e-05
0.0058028772 -0.015323949 0.009111429 0.006116924 -0.0046791565 -0.00798674 0.00603458 -0.0006649851
-0.007864912 -0.0014974782 -0.009425447 0.011329924 -0.009910703 -0.0009908022 0.0072356225 0.0094379475
-0.0045895777 0.008399196 0.010401305 -0.008857637 -0.005398398 -0.015616981 -0.009311755 0.005115491
-0.00055704126 -0.0061671864 0.0014452994 0.008499801 -0.0013004878 -0.0025517999 -0.010781375 -0.0066942
0.016068667 0.0009489373 0.022705005 -0.0050400384 -0.00036895456 0.013485203 -0.0003089394 0.008785728
0.009745495 -0.008049867 0.012176922 0.020926313 0.007372003 -0.0043767397 0.0012833145 -2.1070187e-05
0.011398934 0.0043735798 0.0009622301 -0.0027524622 0.0076057627 0.012440526 -0.0077116815 -0.007984014
-0.006564126 0.0048852577 -0.0024713092 0.005478358 -0.006353753 0.009813127 0.01482757 -0.0065929852
0.020935012 -0.0073981406 0.0026321064 -0.0008122323 -0.002705981 -0.008238728 0.00930841 0.0061755236
-0.024078716 0.013683753 0.005957197 -0.008846517 0.001739161 -0.01559806 0.02962337 -0.0071256603
-0.012780818 0.0014882213 0.010927529 -0.004432626 0.006461382 -0.0019522546 -0.009446566 0.0015838576
-0.010361308 -0.0007883165 0.0029208844 0.012436298 0.0065165157 -0.0048703775 0.0012514988 0.0028405625
0.0030883297 -0.0088736 0.00926672 0.0025992703 -0.031390686 0.0066954996 -0.004718148 -0.019705703
0.00567451 -0.0038853558 -0.008074487 -0.006598695 0.0073651187 0.013539855 -0.0017560151 -0.000112358495
0.005759587 0.0073978896 -0.0069005033 -0.005131851 -0.007565143 -0.005226225 -0.005300011 -0.013837601
00000000: 5ddb 803c 20f2 fabb 6d2a e63b 5ac8 c1bb
00000010: 9422 2cbc cb40 e7b9 267d 8bbc cad1 cebb
00000020: fdb1 1abb c411 de3b 97c5 0c3c 17dd b739
00000030: 1307 fabb 6e7d 4f3a 2e6e e3ba 0221 68bc
00000040: 581a 563b 4562 abbc 04de 01bc 08a7 98bc
00000050: f4f1 f5bb e73d 2f3c 12fe d93b d53a a63b
00000060: dd6f 07bb ec81 5a3b b3e5 e2bc f988 9cba
00000070: 328a c3bc 5cda 9cbb 4bc2 f43b 0d70 6a3b
00000080: 3bb9 223a 1c98 1a3b 6a6d d63b 1f9b 463b
00000090: 2e65 ffbb ad28 6fba b872 6b3b 696d bebb
000000a0: aa3b 353c 5c5b ecb9 78e4 af3a 9c80 8d3b
000000b0: 8a49 80ba 4b67 96ba 7ddc 593b e7d6 b6bb
000000c0: ceb4 dabb ea08 323b c62f 7dbc c6db 2f3a
000000d0: 5987 27b7 6c95 413c 81af 393a 3cb5 043b
000000e0: a470 f0b9 67b8 023c 68e2 233c 9d11 073c
000000f0: 36c9 cbbb 0f68 26bb 32f8 ac3b 7177 33bc
00000100: 5f59 8c3b 4307 a43a 8971 863c 23ce ca3b
00000110: 4ead 8c3c 8467 973c e1e3 63bc 7819 56bb
00000120: c7a1 9bbc 9dbe e2bb a532 413b d121 edbb
00000130: 3995 253b 772a 0ebc c3a0 40bc 144f 16bc
00000140: 06e7 84b8 0e60 313c 5628 283b 7629 673b
00000150: 1090 733c c7f2 8ebc 6ed1 acbc ee8b bebb
00000160: 742e 34ba c6bf 103c fcf8 1fbc ca7d 97ba
00000170: b2b3 683c 88cf 423b 0c6f 49bb 2db8 483b
00000180: 9634 8e3a 434e f13b f900 23bc 705a 113b
00000190: 38f5 973c 4cd8 52bc 504c 14bc e501 08bc
000001a0: 14ee 1cbb 977b 31bc 2d54 c23c 4194 693a
000001b0: 9040 213c 9e0e f2bb 87c7 e4b9 190f fabb
000001c0: 7703 23bc 4d7f 15bb 5820 833b 8f50 de3b
000001d0: 749c 113c 8e57 063a 2a2f 3fbb 794e 94bb
000001e0: 7cfd f83a 436e 333b dc80 9ebb 755c 20bc
000001f0: 7830 1d3c 5151 ebbb 89df e7b9 df38 ff39
00000200: 9413 fd3b 5caa 353b 6511 ed3b 1f03 76ba
00000210: 3018 d23a 0bf9 563a 6d47 a9ba 8ae8 c9b7
00000220: 1026 be3b 4d11 7bbc 1a48 153c 7a70 c83b
00000230: 9c53 99bb d1da 02bc babd c53b 6552 2eba
00000240: d5db 00bc 0847 c4ba 316d 1abc 25a1 393c
00000250: 8060 22bc cedd 81ba cd18 ed3b 9fa1 1a3c
00000260: 2b64 96bb c89c 093c 3c6a 2a3c 9f1f 11bc
00000270: 0be5 b0bb 5ede 7fbc 5590 18bc d99f a73b
00000280: 6806 12ba 1c16 cabb 3370 bd3a c042 0b3c
00000290: 2175 aaba 193c 27bb 5da4 30bc 055b dbbb
000002a0: 70a2 833c 1bc2 783a d9ff b93c e826 a5bb
000002b0: 3e70 c1b9 0af1 5c3c 25f9 a1b9 04f2 0f3c
000002c0: 92ab 1f3c 97e3 03bc b681 473c a96d ab3c
000002d0: d890 f13b c16a 8fbb e434 a83a e2bf b0b7
000002e0: 98c2 3a3c 3f50 8f3b 2b3e 7c3a a762 34bb
000002f0: c339 f93b 59d3 4b3c 46b2 fcbb 62cf 02bc
00000300: e117 d7bb 8314 a03b b0f5 21bb cc83 b33b
00000310: 2533 d0bb 3dc7 203c 56ef 723c f809 d8bb
00000320: e77f ab3c 1a6c f2bb 6b7f 2c3b fdeb 54ba
00000330: d456 31bb bbfb 06bc 4d82 183c 0c5c ca3b
00000340: ba40 c5bc d231 603c 9734 c33b fbf0 10bc
00000350: 8ff4 e33a 018f 7fbc b6ac f23c 5f7e e9bb
00000360: a366 51bc 6c10 c33a 6109 333c 903f 91bb
00000370: 00ba d33b cbe2 ffba c5c5 1abc 7199 cf3a
00000380: 7ac2 29bc 06a7 4eba 4f6c 3f3b 9dc1 4b3c
00000390: 7f88 d53b b097 9fbb 5509 a43a bb28 3a3b
000003a0: 9365 4a3b 9362 11bc 71d3 173c 8558 2a3b
000003b0: 8593 00bd ec65 db3b b29a 9abb db6d a1bc
000003c0: 3df1 b93b 74a1 7ebb da4a 04bc de39 d8bb
000003d0: 1857 f13b 45d6 5d3c 172a e6ba 02a2 ebb8
000003e0: ebba bc3b ff69 f23b 9e1d e2bb 1629 a8bb
000003f0: 05e5 f7bb c140 abbb b7ab adbb 1bb7 62bc

action_model._discrete_distribution.branches.1.bias f4 [3]
0.0006386246 0.005561466 -0.0047873645
00000000: 5f69 273a f53c b63b 53df 9cbb

exp_avg f4 [128, 33]
1.9272243e-06 1.3433537e-07 -1.1320217e-05 4.6661808e-06 -5.3801836e-07 -7.5975076e-06 -2.6107698e-06 3.711637e-08
-1.6555345e-05 -1.6040913e-06 -1.173139e-08 -4.8206834e-06 -1.0437725e-05 3.0012254e-07 -1.5410478e-05 -2.7408116e-06
-1.0504795e-08 -5.213556e-06 2.1124092e-06 1.1916938e-08 -8.456486e-06 -5.347357e-06 -3.1686404e-10 -3.700208e-06
2.8664622e-06 5.206253e-11 -6.556727e-06 -1.0314003e-05 -0.000109575965 2.0319696e-05 -0.000118813 -0.00011004893
7.841194e-06 -3.3851684e-06 -1.7526403e-07 -1.551123e-06 -4.542922e-06 2.1303183e-06 -1.4661202e-06 -6.7535057e-06
-6.40357e-08 -7.265744e-07 -2.6298273e-06 -5.84941e-07 -3.3672486e-06 7.7507156e-07 -1.7385214e-07 -2.1192789e-06
7.7045337e-07 -2.3294356e-07 -3.3938231e-06 -1.2976951e-06 -1.03638245e-08 -4.8182314e-06 -1.2280486e-07 6.7580747e-10
-4.015326e-06 -7.350904e-06 7.644721e-09 -5.6046897e-06 0.0004098414 -0.0005137924 1.2916385e-05 -0.00055710395
-0.00051601004 3.6766683e-05 1.1063526e-06 -2.9084009e-09 2.9292437e-06 1.4177168e-06 1.4535657e-07 2.337285e-06
2.4617962e-06 6.815563e-08 3.4805166e-06 1.0849465e-06 -1.4518695e-08 9.4317613e-07 2.2414683e-06 -1.3165302e-07
2.4419712e-06 1.0808562e-06 -3.587398e-08 7.9783024e-07 -1.1545153e-06 2.1781895e-08 1.3040948e-06 1.2642896e-06
-6.2830185e-11 8.3106175e-07 -1.0953863e-07 -5.766951e-09 7.726763e-07 -1.2213684e-05 1.1001483e-05 -2.8400627e-06
1.1928883e-05 1.1048968e-05 -7.872599e-07 -4.307212e-07 -1.3493309e-10 3.7958566e-06 1.1508296e-08 -1.7366313e-11
2.1885471e-06 2.5023608e-06 5.8150883e-11 4.2068573e-06 2.25823e-07 8.6573755e-11 1.3427921e-06 1.6705663e-06
-7.669085e-10 3.3184788e-06 5.031163e-07 -6.2707305e-11 1.3999722e-06 1.9328838e-06 -3.3027733e-11 1.5586111e-06
1.4587998e-07 -5.7452076e-14 1.2780263e-06 5.585061e-07 2.2621655e-11 6.450188e-07 2.87308e-07 2.7786945e-07
-3.5144687e-08 3.0129328e-07 2.7906884e-07 -1.988418e-08 -4.3826847e-07 1.3688414e-08 2.1655358e-06 -2.7814446e-07
1.0428469e-07 1.4398912e-06 6.5531685e-07 -2.4157094e-08 3.3592335e-06 6.557623e-08 -6.991701e-10 1.238665e-07
2.426529e-06 -3.9962003e-09 3.921232e-06 4.5550638e-07 1.030987e-09 6.297163e-08 -1.1500008e-06 -1.2510245e-09
2.428613e-06 1.5218985e-06 -2.5322154e-11 3.6029374e-07 -1.9892543e-08 -2.7263851e-09 2.0789541e-06 5.4865272e-06
-5.8014484e-06 3.2490557e-06 -6.290497e-06 -5.8264864e-06 4.151483e-07 9.742922e-06 1.234891e-07 1.2347459e-05
1.7494975e-05 4.621709e-06 1.8370005e-05 1.4669258e-05 4.2458203e-07 7.695797e-06 4.323193e-06 -1.1448612e-07
1.3601456e-05 4.2259016e-06 -2.0095063e-06 8.684236e-06 -1.9025948e-06 -4.6417074e-07 9.272812e-06 5.235764e-06
-7.541223e-08 1.1699556e-05 4.437286e-06 -1.0700952e-09 1.0401651e-05 3.1865184e-05 1.9128285e-08 1.3835981e-05
-0.0006595513 0.001262868 -3.2843927e-05 0.0013693251 0.0012683191 -9.0370115e-05 -1.8227234e-07 -4.2977717e-08
-2.304892e-06 -1.4754395e-06 -1.01240275e-07 -2.1615335e-06 5.0346665e-07 2.5041079e-08 -3.4627683e-06 -7.691981e-07
3.0794144e-08 -1.3366331e-06 -3.004652e-06 -3.5057763e-08 -3.834687e-06 -2.4649314e-06 -1.3950737e-09 -8.01975e-07
1.4734995e-06 -2.9668152e-09 -2.0309735e-06 -3.2362536e-06 3.336163e-12 -5.290144e-07 1.8703923e-06 9.484317e-10
-2.1609235e-06 -6.976698e-05 -6.852309e-05 1.8116148e-06 -7.429946e-05 -6.8818874e-05 4.9034734e-06 3.1501586e-05
4.6045864e-07 2.6230658e-05 3.1099422e-05 6.0752836e-06 3.0251122e-05 3.7395483e-05 7.844314e-07 2.0417374e-05
4.289857e-06 -8.2072654e-07 2.2071426e-05 1.8751214e-05 -2.2451845e-06 1.7293205e-05 -1.7303641e-06 -1.0271926e-06
1.6120051e-05 2.830582e-06 -9.911362e-08 1.6527785e-05 1.2974566e-06 -1.4848736e-09 1.7819639e-05 3.10736e-05
00000000: 7655 0136 d33d 1034 f6eb 3db7 3092 9c36
00000010: 576c 10b5 18ee feb6 af34 2fb6 e169 1f33
00000020: 55e0 8ab7 284c d7b5 338b 49b2 5bc1 a1b6
00000030: b01d 2fb7 8720 a134 c045 81b7 c9ee 37b6
00000040: 9478 34b2 1bf0 aeb6 eac2 0d36 3fbb 4c32
00000050: 55e0 0db7 726d b3b6 a632 aeaf 1751 78b6
00000060: 725d 4036 33f9 642e db01 dcb6 4e0a 2db7
00000070: 26cc e5b8 3774 aa37 3e2b f9b8 12ca e6b8
00000080: ac8d 0337 c02c 63b6 3630 3cb4 2e30 d0b5
00000090: 676f 98b6 97f6 0e36 82c7 c4b5 2c9c e2b6
000000a0: 0084 89b3 d009 43b5 177c 30b6 d704 1db5
000000b0: e4f8 61b6 830e 5035 1dac 3ab4 ef38 0eb6
000000c0: 27d1 4e35 0a1f 7ab4 70c1 63b6 772c aeb5
000000d0: 950c 32b2 4bac a1b6 58dc 03b4 b9c3 3930
000000e0: 63bb 86b6 c9a7 f6b6 d755 0332 eb0f bcb6
000000f0: fbdf d639 06b0 06ba 73b3 5837 9d0a 12ba
00000100: d944 07ba ed35 1a38 fc7d 9435 21dd 47b1
00000110: 0694 4436 6148 be35 4f13 1c34 40da 1c36
00000120: 5635 2536 f45c 9233 d292 6936 7a9e 9135
00000130: e56d 79b2 922e 7d35 226c 1636 825c 0db4
00000140: bfe0 2336 f011 9135 dc13 1ab3 7a2a 5635
00000150: d8f4 9ab5 e51a bb32 5b08 af35 a9b0 a935
00000160: 402a 8aae 2116 5f35 803b ebb3 a326 c6b1
00000170: e969 4f35 60e9 4cb7 0293 3837 e897 3eb6
00000180: 2a22 4837 f55e 3937 1754 53b5 df3d e7b4
00000190: 4a5c 14af 52bc 7e36 05b6 4532 76c1 98ad
000001a0: f4de 1236 3bee 2736 13c0 7f2e a128 8d36
000001b0: c179 7234 b160 be2e fc39 b435 3938 e035
000001c0: 63ce 52b0 08b3 5e36 e40d 0735 13e5 89ae
000001d0: aee6 bb35 b1b6 0136 ec41 11ae 7831 d135
000001e0: 2fa3 1c34 de5e 81a9 a688 ab35 3fec 1535
000001f0: 70fb c62d 5b25 2d35 503f 9a34 162e 9534
00000200: fef1 16b3 6fc1 a134 eed2 9534 c6cd aab2
00000210: 294b ebb4 482a 6b32 9f53 1136 e253 95b4
00000220: 1df3 df33 4942 c135 08e9 2f35 0382 cfb2
00000230: 316f 6136 ead2 8c33 b92f 40b0 2a00 0534
00000240: 73d7 2236 f34e 89b1 2093 8336 528c f434
00000250: a1b2 8d30 053b 8733 ba59 9ab5 83f0 abb0
00000260: 41fb 2236 0944 cc35 6cbc dead 656e c134
00000270: 2ae0 aab2 135b 3bb1 2984 0b36 e918 b836
00000280: 10aa c2b6 5a0a 5a36 f512 d3b6 2381 c3b6
00000290: 8ce1 de34 8875 2337 6d98 0434 ef27 4f37
000002a0: 2cc2 9237 2e14 9b36 4919 9a37 fc1b 7637
000002b0: 1cf2 e334 321d 0137 f20f 9136 69db f5b3
000002c0: cf31 6437 38cc 8d36 0edb 06b6 82b2 1137
000002d0: a95c ffb5 2433 f9b4 6d92 1b37 dfae af36
000002e0: 50f2 a1b3 3649 4437 ffe3 9436 a112 93b0
000002f0: c082 2e37 fba6 0538 8b4f a432 1621 6837
00000300: bde5 2cba d286 a53a e6c1 09b8 ed7a b33a
00000310: ba3d a63a 1685 bdb8 a4b6 43b4 8096 38b3
00000320: bead 1ab6 b707 c6b5 6e69 d9b3 dd0e 11b6
00000330: f725 0735 ea19 d732 e861 68b6 e47a 4eb5
00000340: 8542 0433 5d66 b3b5 87a3 49b6 6b92 16b3
00000350: b6ab 80b6 336b 25b6 cbbc bfb0 4d47 57b5
00000360: 0fc5 c535 c4e0 4bb1 dc4b 08b6 6a2e 59b6
00000370: f8c2 6a2c 9801 0eb5 310a fb35 f959 8230
00000380: 6204 11b6 dd4f 92b8 0eb4 8fb8 9c26 f335
00000390: 38d1 9bb8 da52 90b8 8488 a436 9220 0438
000003a0: f434 f734 e909 dc37 c070 0238 4ada cb36
000003b0: cac3 fd37 18d9 1c38 b791 5235 fa45 ab37
000003c0: 97f1 8f36 e64f 5cb5 0726 b937 ed4b 9d37
000003d0: faab 16b6 e010 9137 dc3e e8b5 12de 89b5
000003e0: 8c39 8737 07f5 3d36 4ad8 d4b3 26a5 8a37
000003f0: 4524 ae35 5814 ccb0 627b 9537 0655 0238

exp_avg_sq f4 [128, 33]
4.4189538e-10 5.3455538e-14 4.769918e-10 2.7800814e-10 8.73988e-14 3.1664976e-10 2.587509e-10 1.9253406e-13
5.9086486e-10 3.131786e-10 2.4891418e-14 1.9554086e-10 4.2386425e-10 1.948526e-13 6.6968625e-10 3.0403516e-10
8.065145e-15 1.430197e-10 3.129713e-10 2.7409826e-13 4.4721143e-10 3.9484252e-10 3.5405676e-14 1.196762e-10
8.611582e-11 5.015504e-16 2.740031e-10 1.667568e-09 5.0409397e-09 1.6965802e-10 5.926335e-09 5.084281e-09
2.5812035e-11 2.2041546e-10 2.152146e-12 7.902423e-11 2.2814874e-10 4.872185e-12 8.272863e-11 1.7176105e-10
3.1747987e-12 7.736055e-11 1.5149959e-10 2.698129e-12 6.888896e-11 1.3044034e-10 2.6902911e-12 7.489863e-11
1.0265344e-10 1.8524602e-13 5.1998884e-11 9.617631e-11 1.3857516e-12 5.876636e-11 8.71942e-11 2.563759e-13
3.9759925e-11 9.824546e-11 3.4807611e-13 4.836872e-11 4.5999735e-07 3.0007396e-07 3.821357e-08 3.5274724e-07
3.026268e-07 1.5363849e-09 1.8692273e-11 3.3297163e-14 1.500528e-11 1.5428367e-11 4.657437e-14 1.0070612e-11
1.8757223e-11 1.0924747e-13 1.748033e-11 1.8166057e-11 2.1368739e-14 7.707963e-12 1.9718446e-11 1.319877e-13
1.9682287e-11 1.4893309e-11 5.135022e-15 5.6208684e-12 1.7602635e-11 2.9375645e-13 1.6507521e-11 2.3554736e-11
4.1598745e-15 4.680568e-12 1.3007818e-11 1.2434025e-14 1.3514108e-11 3.492114e-08 1.1232327e-08 8.0410795e-10
1.32058195e-08 1.1329463e-08 5.751777e-11 1.1942476e-11 3.425607e-19 1.8643132e-11 1.2422534e-11 2.8340555e-19
1.5927384e-11 7.718565e-12 2.6411213e-18 1.4449553e-11 1.4805995e-11 1.0243219e-19 1.6286658e-11 7.379677e-12
2.7052413e-18 1.2091632e-11 1.0872789e-11 2.6736169e-20 1.3633878e-11 7.593924e-12 8.015364e-19 1.0201931e-11
8.098591e-12 1.1485197e-19 9.281609e-12 9.140191e-12 1.2889875e-19 7.769445e-12 2.8458229e-11 3.759962e-12
8.938261e-14 4.4205963e-12 3.7924915e-12 1.9253842e-14 1.6459566e-11 6.179782e-15 1.39547445e-11 1.6227244e-11
4.1908503e-14 1.1433432e-11 1.1653704e-11 2.315393e-14 1.759492e-11 1.7831773e-11 3.1626745e-15 9.614647e-12
1.213536e-11 1.6960464e-14 1.5813476e-11 1.03225145e-11 1.986151e-15 7.0767897e-12 1.9620135e-12 8.262468e-15
7.240929e-12 7.6609205e-12 9.1343355e-15 4.5503085e-12 1.452942e-12 2.2263073e-15 5.0077156e-12 1.2782961e-09
2.709963e-09 5.6418707e-11 3.1853389e-09 2.7327476e-09 1.38737025e-11 2.0860087e-09 6.674652e-12 5.6388466e-10
2.1006654e-09 2.0134205e-11 5.924526e-10 1.4568842e-09 2.4885571e-11 4.8476545e-10 1.3233593e-09 5.3950633e-12
4.793906e-10 8.350693e-10 8.892801e-12 3.470866e-10 5.690228e-10 2.092011e-12 3.521275e-10 4.1419593e-10
5.678478e-12 2.6083025e-10 2.9680464e-10 1.3115954e-12 2.69159e-10 3.7239892e-10 1.0329141e-12 2.1050879e-10
5.934068e-06 2.3334683e-06 7.2399945e-07 2.742431e-06 2.3527714e-06 1.1944622e-08 3.1088077e-11 2.5253928e-14
3.541685e-11 1.6684447e-11 1.1504865e-13 2.6779228e-11 9.893829e-12 2.7432668e-14 3.0539737e-11 1.788012e-11
1.7139246e-14 1.6233919e-11 2.876073e-11 1.1322355e-14 3.2656804e-11 2.03089e-11 2.4098894e-15 1.3205858e-11
2.7678724e-11 1.5314425e-14 2.4589171e-11 3.0869113e-11 3.0980357e-15 1.2294078e-11 2.1403013e-11 5.984619e-16
1.8461755e-11 2.4394632e-08 1.862189e-08 3.1190533e-10 2.1893774e-08 1.8782984e-08 9.535806e-11 2.2012532e-09
1.0192124e-11 5.0633336e-10 2.3985967e-09 2.6167827e-11 5.423087e-10 1.6671093e-09 2.9587468e-11 4.724377e-10
1.6464472e-09 8.056479e-12 4.359894e-10 1.0749786e-09 1.7237762e-11 3.952645e-10 7.332988e-10 2.4658114e-12
3.315884e-10 7.464024e-10 9.383617e-12 3.4474382e-10 4.1236334e-10 2.1107174e-12 2.7322336e-10 7.1646455e-10
00000000: 3fef f22f 0abe 7029 501d 0330 2bd6 982f
00000010: facd c429 7e14 ae2f f43f 8e2f 2ac6 582a
00000020: 6b6a 2230 f82b ac2f b433 e028 dcff 562f
00000030: 9705 e92f 7062 5b2a fb14 3830 2525 a72f
00000040: eb49 1128 7740 1d2f cb0e ac2f b94d 9a2a
00000050: 6adb f52f 2511 d92f f773 1f29 db95 032f
00000060: e65e bd2e e38f 1026 82a2 962f 5530 e530
00000070: 9334 ad31 7d8a 3a2f 98a0 cb31 cfb1 ae31
00000080: 890b e32d 7059 722f 9e71 172c b0c6 ad2e
00000090: 29da 7a2f be6c ab2c 14ec b52e 70da 3c2f
000000a0: 1768 5f2c 1e1e aa2e 5893 262f 2cdd 3d2c
000000b0: 097d 972e b16b 0f2f fa4f 3d2c 2eb4 a42e
000000c0: c0bc e12e 8891 502a 8ab1 642e 737e d32e
000000d0: f706 c32b 853a 812e f9bd bf2e a953 902a
000000e0: b2dd 2e2e 470b d82e 0ef3 c32a 56ba 542e
000000f0: 8ef5 f634 da19 a134 4420 2433 3661 bd34
00000100: b678 a234 bd28 d330 426b a42d 04f5 1529
00000110: e3fc 832d 98b5 872d 98c0 5129 012a 312d
00000120: 83fd a42d e100 f629 34c2 992d 53ca 9f2d
00000130: f578 c028 9499 072d fe71 ad2d dd9a 142a
00000140: 9220 ad2d c000 832d 3802 b927 48c4 c52c
00000150: 9cd5 9a2d c45e a52a a233 912d 8d30 cf2d
00000160: 12e0 9527 cfae a42c 01d6 642d d2fd 5f28
00000170: 22be 6d2d 33fc 1533 4cf8 4032 1108 5d30
00000180: cfdf 6232 81a3 4232 40f7 7c2e 2118 522d
00000190: 4f36 ca20 9afc a32d 1f8a 5a2d 094b a720
000001a0: 4819 8c2d 54c9 072d 5fe1 4222 0033 7e2d
000001b0: 233c 822d 76dc f11f 4b42 8f2d 1cd3 012d
000001c0: 909c 4722 dfb7 542d b046 3f2d 1784 fc1e
000001d0: 87d9 6f2d fe97 052d 6192 6c21 6a79 332d
000001e0: d078 0e2d e197 0720 a748 232d c3cb 202d
000001f0: 422d 1820 78ae 082d 3c52 fa2d ba4a 842c
00000200: 9145 c929 3189 9b2c ba6f 852c 566c ad28
00000210: a6c7 902d 6ea6 de27 957e 752d 81bc 8e2d
00000220: 37bd 3c29 9a23 492d 9e03 4d2d 548d d028
00000230: 3dc4 9a2d 95d9 9c2d 0ce5 6327 8524 292d
00000240: ce7c 552d 2bc4 9828 c818 8b2d 7998 352d
00000250: 051e 0f27 0efe f82c 7e10 0a2c e8d7 1428
00000260: 7ec4 fe2c b8c5 062d b08c 2428 8919 a02c
00000270: c17b cc2b 1f6c 2027 7e31 b02c 0cb0 af30
00000280: 2c3a 3a31 d121 782e 13e5 5a31 01cb 3b31
00000290: 9a11 742d 7459 0f31 ecd7 ea2c dbff 1a30
000002a0: 4c5b 1031 331a b12d 25da 2230 8e3b c830
000002b0: 53e5 da2d 5640 0530 91e1 b530 69d2 bd2c
000002c0: 1dc6 0330 c78a 6530 9e71 1c2d 19d0 be2f
000002d0: 6b69 1c30 5236 132c 8a95 c12f e5b4 e32f
000002e0: 2fcb c72c 9864 8f2f 8a2b a32f 3497 b82b
000002f0: c3f8 932f 7dba cc2f a75e 912b f574 672f
00000300: 421d c736 ae98 1c36 dd58 4235 9b0a 3836
00000310: 4ee4 1d36 0135 4d32 10ba 082e 9877 e328
00000320: d4c3 1b2e 09c2 922d 8488 012a 768d eb2d
00000330: d80d 2e2d 6d17 f728 b050 062e 7346 9d2d
00000340: 6960 9a28 89cb 8e2d 68fb fc2d 25f7 4b28
00000350: 4ba0 0f2e 94a3 b22d 9da6 2d27 e651 682d
00000360: f276 f32d a9f0 8928 e449 d82d 88c3 072e
00000370: ac3c 5f27 9b47 582d 4d43 bc2d b27e 2c26
00000380: 2d64 a22d 5d8c d132 f8f5 9f32 c678 ab2f
00000390: eb10 bc32 3858 a132 d1b1 d12e db44 1731
000003a0: 3f4d 332d 0b2e 0b30 8fd4 2431 b52c e62d
000003b0: 9511 1530 3220 e530 8720 022e d9dc 0130
000003c0: 3649 e230 28bb 0d2d 0eb0 ef2f 72be 9330
000003d0: fd9f 972d 884c d92f 5191 4930 1c84 2d2c
000003e0: eb4a b62f 662b 4d30 0e14 252d 6186 bd2f
000003f0: fbb2 e22f 4e87 142c c534 962f b6f0 4430

exp_avg f4 [128]
-2.103091e-05 -1.4494815e-05 5.0667045e-06 6.259555e-06 5.2063897e-06 5.5381635e-05 -5.663641e-06 8.478384e-05
-3.0906263e-05 -1.4220305e-08 2.0123072e-05 3.297944e-07 2.155758e-05 2.1536618e-05 3.9704514e-06 2.662976e-05
-7.525802e-06 9.080381e-06 2.5875274e-06 3.6707252e-06 2.752137e-05 1.02433305e-05 -5.4084703e-05 -1.4423408e-05
-2.6041685e-06 3.1068714e-05 3.565172e-07 -7.700826e-06 1.969813e-05 1.3154145e-05 3.2726973e-07 3.511167e-05
-1.7563641e-05 -3.1851934e-05 5.7915145e-06 -3.0530714e-06 -2.1674681e-05 -6.2821728e-06 2.969178e-06 -6.806663e-06
2.8583747e-06 2.0210324e-05 8.884276e-06 1.47524615e-05 4.3762444e-05 1.659796e-05 1.2862165e-06 -4.7857386e-05
3.5701107e-06 3.0609484e-05 6.341741e-06 -1.7214728e-05 -1.7901382e-05 -2.6764357e-05 7.655417e-06 -1.627882e-05
-5.359068e-07 6.1168425e-06 3.8873886e-06 -1.3038212e-05 1.1585171e-05 3.1183842e-07 -5.071482e-06 9.995879e-06
-3.4558004e-06 -5.414277e-06 -8.787327e-06 3.376336e-06 -2.48486e-06 -3.4067398e-05 -1.5232101e-06 6.377072e-06
-7.617829e-06 -2.7869535e-05 2.597308e-05 -9.437148e-06 -1.2875076e-05 2.7839687e-05 5.5469563e-06 6.0265343e-06
5.2938944e-06 -6.084246e-07 5.875519e-06 -1.0328693e-05 -6.801315e-06 -1.7944409e-05 4.195124e-07 1.139663e-06
4.3968474e-05 9.369969e-06 -4.6437644e-06 1.856304e-05 4.681926e-06 5.8436e-07 -1.1855878e-05 7.594838e-07
-1.7843844e-05 2.0534311e-05 -9.56737e-07 -2.0493817e-05 -1.2512314e-05 9.112244e-06 2.2848586e-05 1.732435e-05
-1.1269556e-05 -5.0706826e-06 -1.970563e-05 8.968493e-06 1.3860737e-05 -1.7848713e-05 -2.3427809e-05 3.4529276e-05
-6.3623506e-06 3.8197727e-06 -1.4725941e-05 2.5243896e-06 -1.5112416e-05 1.1442723e-05 -7.856838e-06 2.4694884e-06
2.6702392e-05 -1.816371e-05 1.7230419e-05 7.945333e-06 2.3012884e-05 -7.2652445e-05 6.0632874e-06 3.3201715e-05
00000000: 896b b0b7 c22e 73b7 a902 aa36 2b09 d236
00000010: 8cb2 ae36 9449 6838 4e0a beb6 facd b138
00000020: 59a1 01b8 904d 74b2 f8cd a837 990e b134
00000030: 8dd6 b437 89a9 b437 eb39 8536 f962 df37
00000040: 2686 fcb6 f057 1837 62a5 2d36 9456 7636
00000050: b1dd e637 c5da 2b37 02d9 62b8 11fc 71b7
00000060: 46c3 2eb6 c74f 0238 5a67 bf34 cc32 01b7
00000070: 693d a537 9fb0 5c37 9cb3 af34 de44 1338
00000080: a255 93b7 c198 05b8 bb54 c236 5ee3 4cb6
00000090: 06d2 b5b7 74cb d2b6 1742 4736 ca64 e4b6
000000a0: 81d2 3f36 5789 a937 ad0d 1537 5781 7737
000000b0: 918d 3738 d93b 8b37 10a2 ac35 7aba 48b8
000000c0: 0996 6f36 af62 0038 24cb d436 5968 90b7
000000d0: ed2a 96b7 0584 e0b7 c46f 0037 808e 88b7
000000e0: 3cdb 0fb5 473f cd36 6a70 8236 b2be 5ab7
000000f0: ee5d 4237 bf6a a734 b32b aab6 f9b3 2737
00000100: 33ea 67b6 49ac b5b6 486d 13b7 0395 6236
00000110: 92c1 26b6 97e3 0eb8 1a71 ccb5 a2fa d536
00000120: a79c ffb6 5fc9 e9b7 c4e0 d937 3e54 1eb7
00000130: 0802 58b7 4689 e937 fe1f ba36 8937 ca36
00000140: 35a2 b136 9f52 23b5 5326 c536 6649 2db7
00000150: da36 e4b6 5387 96b7 5839 e134 86f6 9835
00000160: ca6a 3838 b633 1d37 a2d1 9bb6 d3b7 9b37
00000170: 7019 9d36 eadc 1c35 9ce8 46b7 54df 4b35
00000180: 5daf 95b7 1941 ac37 3c69 80b5 23ea abb7
00000190: fbeb 51b7 cae0 1837 f7aa bf37 c253 9137
000001a0: 6012 3db7 d524 aab6 854d a5b7 6277 1637
000001b0: 6a8b 6837 d2b9 95b7 d686 c4b7 87d3 1038
000001c0: 2d7c d5b6 992b 8036 6f0f 77b7 af68 2936
000001d0: 558b 7db7 1ffa 3f37 ddd0 03b7 7db9 2536
000001e0: f3fe df37 455e 98b7 0b8a 9037 f24c 0537
000001f0: cb0b c137 fc5c 98b8 3e73 cb36 1242 0b38
