results/ppo/MoveSomewhere/MoveSomewhere-14272.onnx (onnx, 89367 bytes, 9 tensors)

action_model._discrete_distribution.branches.0.bias f4 [3]
000000 d6 d7 ec ba f9 81 28 bb 02 47 66 3b
       -0.0018069695 -0.0025712235 0.0035137539

action_model._discrete_distribution.branches.0.weight f4 [3, 128]
000000 6c cc 33 3c d5 77 8e 3b f3 17 d6 3b 6d a1 22 bc
       0.010974031 0.004347781 0.0065336167 -0.009926182
000010 fd ef 00 bc da 9b f1 3a 09 02 57 3a 19 53 b1 bb
       -0.007869718 0.0018433288 0.00082019024 -0.0054115173
000020 c8 41 d0 bb 03 01 42 3c 7a 01 95 bc 89 02 e3 3b
       -0.006355498 0.0118410615 -0.01818918 0.0069277924
000030 57 23 9c 3c 2b 43 d9 3b db e8 9d 3a fc 82 61 3c
       0.01905982 0.0066303215 0.0012047546 0.013764139
000040 f3 50 52 3c be 43 86 3b 30 bf 7d 3c f3 27 e7 b9
       0.012836683 0.004097431 0.015487477 -0.00044089518
000050 db 8e 97 bb ad 18 26 3a be ad 9f 39 14 38 b8 38
       -0.004625184 0.00063360744 0.0003045629 8.784249e-05
000060 dd cf ab bb a3 c3 56 3c b8 a0 b3 3c 58 f3 5c 3a
       -0.005243285 0.013108167 0.021927223 0.0008428595
000070 ff b1 35 3b e2 6a 52 3c 88 20 26 3b 21 40 8f ba
       0.0027724502 0.012842866 0.002534898 -0.0010929146
000080 e7 97 93 bc fa 4a 73 3c 43 64 1a 3c b7 0e d9 bb
       -0.018016769 0.014849419 0.009423318 -0.0066240686
000090 dc c1 a3 bb ae d6 34 3c a9 15 19 bc 1e d4 cd bb
       -0.004997475 0.011037512 -0.009343543 -0.00628139
0000a0 c4 3b 3b 3c 7b eb 34 bc 6d 95 04 bc 4f 89 49 bc
       0.011427823 -0.011042471 -0.0080922665 -0.012300803
0000b0 89 0d b9 3c e4 7c fc bb 8b 27 1f bc cd a5 e6 3a
       0.022589462 -0.007705318 -0.009714018 0.001759702
0000c0 ac d7 c6 3b 3c 03 4c 3c 11 60 55 3b b4 90 5b 3c
       0.0060681906 0.012451943 0.003255848 0.013401199
0000d0 e2 e2 cd ba 73 27 f8 3a 77 7b 9c ba 6d a9 a1 bb
       -0.0015707875 0.0018932655 -0.0011938651 -0.004933527
0000e0 d9 e4 00 bc 83 46 24 bb 5c 7e 0d bb 0e 89 02 ba
       -0.0078670615 -0.0025066442 -0.0021590209 -0.0004979529
0000f0 2b 5c 63 38 2d d6 b2 3b 24 f8 84 3c 50 fe 0a bc
       5.4206856e-05 0.0054576606 0.016231604 -0.008483484
000100 83 d5 01 3c 8b 68 b9 bb c9 77 0e 3c 0e 4b 6b ba
       0.00792444 -0.0056582144 0.008695551 -0.00089757226
000110 84 cb 9e 3b 38 f9 88 3b 68 a3 e1 3b e0 42 d9 3a
       0.0048460383 0.0041801 0.0068859346 0.0016575716
000120 ae c8 27 3b 8a e2 d4 3b bf 72 00 bc e1 83 b2 bb
       0.0025601792 0.006496732 -0.007839858 -0.00544785
000130 42 10 71 3a 65 81 99 3a d2 5c 29 3c 86 7d 2c 3c
       0.0009195843 0.0011711536 0.0103370715 0.010527974
000140 5b 2a 88 bc 36 a2 8d bb 8b ae de bb b5 b5 8f bb
       -0.01662176 -0.0043223156 -0.0067957095 -0.004385675
000150 d1 1b df bb e5 fc a7 ba 8f 97 9d 3b d4 cf 23 3c
       -0.006808736 -0.0012816457 0.004809327 0.009998281
000160 03 58 04 bc c3 db a9 bb 93 73 1e bc 9c 72 3f bc
       -0.008077624 -0.0051836683 -0.00967111 -0.01168504
000170 b9 a5 be 3b 99 3a d4 bb 64 24 6c ba c4 f5 bb bb
       0.0058180955 -0.006476712 -0.0009008108 -0.0057360847
000180 98 82 2a bc 29 fb 30 bb e9 e7 5a bc 63 bf de 3a
       -0.010407113 -0.0027005172 -0.013360956 0.0016994294
000190 2b dd 4e bc f2 f1 e3 bb 9d 3a 75 bb 4b 8c 9f 3c
       -0.012625973 -0.0069563324 -0.003741897 0.019476077
0001a0 49 86 35 3c 27 8a da bb f5 7f 02 bb 6b d8 82 bc
       0.011079379 -0.006669301 -0.0019912694 -0.015972337
0001b0 35 44 54 bc 1a 6a 58 3c fb f8 b5 bb fa ac 57 bc
       -0.012955715 0.01320889 -0.0055533624 -0.013163799
0001c0 22 fa 9c 37 bf 18 26 3c ac 02 05 3c 06 78 41 bc
       1.8713126e-05 0.010137736 0.008118313 -0.011808401
0001d0 23 72 30 3c 51 12 c1 3b 2d eb 34 3c 04 51 17 bc
       0.0107694 0.005892076 0.011042398 -0.009235624
0001e0 15 3d 64 bb 39 aa c8 bb ac a0 c7 bb bd 89 22 bb
       -0.0034826447 -0.0061238077 -0.0060921516 -0.0024801337
0001f0 41 87 35 3c 97 9a 54 bb 40 a6 ad bc f0 59 2c bc
       0.01107961 -0.0032440776 -0.021197438 -0.01051949
000200 8e 40 0d bc fd c5 59 3c 7d 51 ab 3a 87 26 c3 ba
       -0.008621348 0.013291833 0.001307055 -0.0014888801
000210 e1 6d 02 3c f5 45 3a 3c e1 f2 e2 bc 6d d7 8a 3b
       0.0079607675 0.011369218 -0.027703704 0.0042371065
000220 53 6e 18 3b d7 cd 3a bc 20 b8 81 3c 98 7a 6e 3c
       0.0023259118 -0.011401615 0.015834868 0.014555596
000230 46 75 73 bb ab 54 b0 3b c1 8d b6 bc a2 0c 87 3c
       -0.0037148758 0.005381187 -0.02228439 0.016485516
000240 b1 a9 9b bc d2 95 99 b9 05 a3 2e 3c 27 4e 36 bc
       -0.019001814 -0.0002929406 0.010658984 -0.011127031
000250 28 45 cd 37 01 f5 7e bb 7a 8f 83 bc ad 84 ac 3b
       2.4470108e-05 -0.0038903358 -0.016059626 0.0052648396
000260 45 5e e2 bb b2 79 26 3c ed 21 aa 3b a7 dc 7b 3b
       -0.0069082105 0.01016085 0.0051920325 0.003843108
000270 c4 2c 54 3c 50 9d 2b 3c 03 e2 94 3b f6 61 68 3c
       0.012950126 0.010474518 0.0045435443 0.014183512
000280 2f 7f b8 bb a9 e6 34 3c d3 3f 8f bb 1c 59 20 bc
       -0.005630396 0.011041322 -0.004371622 -0.00978687
000290 6c be 4c bc 2c 32 68 39 a2 8c e4 3b 14 de 0f 3c
       -0.012496572 0.00022143935 0.0069747726 0.008780975
0002a0 a6 dc 01 3c 5e 32 48 3b 7c 71 00 3c 3e 0b 16 bc
       0.007926142 0.00305476 0.007839557 -0.009157954
0002b0 bb f2 85 ba 70 bf 98 3c cb 2f 81 bc d7 13 02 3c
       -0.0010219434 0.018645972 -0.01576986 0.0079393005
0002c0 1e cf 9e b9 b3 1e bc bc 05 56 13 3a 37 63 fa bb
       -0.00030290423 -0.022963857 0.0005620423 -0.007641222
0002d0 76 8a ce 3b bd fc 6a bb 0c 59 a2 bb 24 2c f6 3b
       0.006303127 -0.003585621 -0.004954463 0.007512586
0002e0 82 d7 c7 bc f4 e7 1d bc 55 ca 97 3c 01 9c af 39
       -0.024394754 -0.0096378215 0.018529097 0.00033494833
0002f0 cd eb 44 bb b3 5a 12 3b 51 38 f0 3a 12 7f 1c bb
       -0.0030047775 0.0022331893 0.001832733 -0.002387945
000300 06 c1 ae bb 48 b4 25 3c f6 29 8c 3b aa 71 19 bb
       -0.005333069 0.010113783 0.004277463 -0.0023413696
000310 aa e5 84 bb 63 8d c4 ba e5 6b 20 3c 0e a5 2f 3b
       -0.0040556984 -0.001499575 0.009791349 0.002680126
000320 a6 45 4e 3c f6 92 89 bc 18 d8 c4 3a 1e d5 87 3a
       0.012589848 -0.01679371 0.0015018014 0.0010363196
000330 c2 75 7c bc 58 cc e7 3b 60 45 27 b9 2a e0 10 3b
       -0.015408935 0.00707392 -0.00015952205 0.0022106268
000340 05 6c b8 bc 37 4c 4d bc 5c 84 1e 3c dc 40 b4 bb
       -0.022512445 -0.012530378 0.009675112 -0.005500896
000350 6b fd 18 bb a2 45 a3 3b 8f ee 73 3c 6c df f8 bb
       -0.0023344408 0.004982666 0.01488842 -0.0075949933
000360 61 d0 fc 3a 41 ea 30 3b 86 46 95 3c 07 3f 6a bb
       0.0019288176 0.0026995095 0.018222105 -0.0035743134
000370 ff 82 a0 b7 f9 1e 02 3c b1 4a 8f bc 6e 0a 84 bc
       -1.9134486e-05 0.007941955 -0.01749167 -0.016118255
000380 39 66 eb bb c7 9e 47 bc 4f e7 9a 3c 2b cc 3d 3c
       -0.0071838167 -0.012183852 0.018909125 0.011584322
000390 4a c9 88 3c 50 31 c1 ba c9 56 38 ba 8f e3 b1 bb
       0.016697545 -0.0014739428 -0.0007031975 -0.0054287384
0003a0 76 85 f6 bb fe 5c e8 bb e9 4d 49 ba 07 6d d7 bb
       -0.007523234 -0.0070911637 -0.0007679151 -0.0065742764
0003b0 f8 89 e1 bb 6b e9 db 3b 05 7a 36 bb 94 9e a1 bb
       -0.0068829022 0.006711175 -0.0027843725 -0.004932234
0003c0 08 66 54 3c fc 41 55 b6 be c7 79 bb 76 7f 4a 3b
       0.012963779 -3.1777881e-06 -0.003811344 0.0030898727
0003d0 fd 41 21 3b a6 95 46 bc d4 85 e5 3c 2b 08 fe ba
       0.0024605982 -0.01212064 0.028017916 -0.0019381096
0003e0 50 3a 9b 3b 15 56 45 3c c9 62 06 3c 30 4b 11 bb
       0.004737176 0.012044449 0.008202263 -0.002217006
0003f0 25 96 a4 ba 1b d3 fa 3a dc f7 2e bc 5a b9 86 bc
       -0.0012556954 0.0019136401 -0.0106792115 -0.016445804

action_model._discrete_distribution.branches.1.bias f4 [3]
000000 48 ac 81 3a ca 97 3d b9 0a 19 8f ba
       0.0009893263 -0.0001808099 -0.0010917496

action_model._discrete_distribution.branches.1.weight f4 [3, 128]
000000 a6 56 93 3b c5 57 1d bb 59 ed 31 3c d7 74 02 ba
       0.0044964133 -0.0024008614 0.010859811 -0.0004976517
000010 7c 63 81 3b 2d 77 88 b8 35 c8 15 3c 6f b2 06 3c
       0.003948627 -6.5071836e-05 0.009141971 0.008221253
000020 75 f0 b8 bc f9 dc 7c 3b 75 fb ae bc 0d f5 6c ba
       -0.022575596 0.0038583858 -0.021360138 -0.0009039201
000030 c5 b0 95 3a be bc a0 3a 84 e0 ec bb b7 85 06 3c
       0.0011420479 0.0012263281 -0.007228913 0.008210591
000040 42 0a c9 ba da b7 92 3b 4b 57 46 bb fe 64 38 3c
       -0.001533814 0.004477483 -0.0030264433 0.011254547
000050 06 56 09 bc e0 78 2b 3c 9b e0 2f 3c bb 51 ee bb
       -0.008382326 0.010465831 0.010734702 -0.0072729266
000060 ef 8d 89 3c 23 4d f2 b9 07 2b df b9 41 1b 7e 3c
       0.016791312 -0.00046215308 -0.00042565932 0.0155094275
000070 ec 39 a5 3b 70 cb 93 bb 8a 4e b1 3b b9 ba c1 bc
       0.005042305 -0.0045103356 0.005410974 -0.023648607
000080 68 1e ad bc 3b d2 2c 3b 16 cc 1d bc 5f 52 09 bc
       -0.021132663 0.0026370424 -0.009631177 -0.008381455
000090 51 cc ee 3a 28 2d 02 bc d5 9e aa 39 6f fc 81 bc
       0.001821885 -0.007945336 0.00032543266 -0.01586744
0000a0 16 74 2d 3a 71 d6 aa b9 50 54 95 3b 7b 72 dd 3b
       0.00066167244 -0.00032584698 0.00455717 0.006758032
0000b0 fd 16 b0 bb a0 b7 63 3c 4f 4c 8d bb 08 c7 49 ba
       -0.005373834 0.01389876 -0.004312075 -0.00076971995
0000c0 12 59 b7 3b 6b 71 83 b8 89 68 bf 3b 48 09 6f 3c
       0.005595335 -6.2676925e-05 0.005841319 0.014589615
0000d0 5b 6f 28 3c 32 97 e0 3b c1 c7 82 3b 44 b9 fc 3b
       0.010280455 0.0068539614 0.0039910977 0.007712515
0000e0 31 67 85 bb 6b 63 b5 3b c3 be f8 3a ab e6 93 3a
       -0.0040711393 0.005535533 0.001897775 0.0011283954
0000f0 8b 9b 3d bc 29 a7 38 bc c5 7f 8b 3b 91 c2 0f bc
       -0.011572729 -0.011270323 0.0042571747 -0.008774416
000100 3e b6 24 3b 1b b6 88 3b f0 37 6e bc 90 78 5c bc
       0.002513304 0.0041720993 -0.014539704 -0.013456479
000110 67 17 1f bc ef d1 17 3c 34 08 04 bc 73 77 a6 ba
       -0.009710169 0.009266361 -0.008058596 -0.0012700394
000120 87 27 9b 3c dc 89 3f 3b 85 96 1c 3c 0b 90 87 3a
       0.018939747 0.0029226458 0.009557371 0.0010342611
000130 48 be c6 ba ce b4 0b bc 3b ea 5f bc f8 0a 00 bb
       -0.0015162909 -0.008526994 -0.013666685 -0.0019537788
000140 16 ef 29 3c 66 9f 18 3c 0b 06 50 bb 23 1f 57 3b
       0.010371944 0.009315347 -0.0031741883 0.0032824955
000150 25 e0 6e bb b5 b2 6d bc 51 15 2c bc 8e dc 79 bc
       -0.0036449519 -0.014507939 -0.010503129 -0.015250338
000160 79 0b cc ba a6 fa c8 bb 07 15 57 3c f1 3a 21 3c
       -0.0015567384 -0.0061333952 0.013127572 0.009840713
000170 84 cd f2 3b d6 bd b8 3b 8a e5 52 bb 85 2d ca 39
       0.0074097533 0.0056378646 -0.0032180273 0.00038562357
000180 46 fd 86 3c df 1e 2e 3c 49 3b 46 3b 82 f5 2b bc
       0.016478192 0.010627477 0.003024774 -0.010495545
000190 88 a2 78 bb 32 50 85 bc 49 25 bb ba 58 48 18 bc
       -0.0037938673 -0.016273592 -0.001427808 -0.009294592
0001a0 40 4b 34 bb b6 1d ca 3b 25 bf b0 ba 66 d0 a8 39
       -0.0027510673 0.0061680926 -0.00134847 0.00032198726
0001b0 79 ff 0d bc 92 02 0a 3a 7a a9 93 bb 6b c2 80 3c
       -0.008666866 0.0005264665 -0.004506287 0.015717706
0001c0 34 f1 f6 3b aa 40 cc bc a1 ce 49 bc e1 d0 07 bc
       0.007536078 -0.024933178 -0.012317331 -0.008289547
0001d0 f1 d3 33 bb 8c 80 bc 3b 42 2c ce bb 08 a7 32 3c
       -0.002743956 0.0057526287 -0.006291897 0.010904081
0001e0 20 96 45 bc 59 b7 21 bc 52 78 90 3b e6 0b 34 bc
       -0.012059718 -0.009870374 0.0044088745 -0.010989165
0001f0 6d f4 61 bc 95 f0 77 bb b9 3f 13 b9 4b 3e 16 3a
       -0.013791186 -0.0037832607 -0.00014042751 0.0005731328
000200 4e a1 53 bb 0d 34 1d 38 33 b1 89 bb 71 77 a9 3b
       -0.003229219 3.7480193e-05 -0.004202032 0.005171709
000210 23 63 5f 3c 29 bd 21 3b c8 03 aa ba 55 8a 39 bb
       0.013634476 0.0024679399 -0.0012971098 -0.0028311212
000220 ea e1 e6 bb d1 e3 39 bb fc c1 12 3c 36 bb e5 3b
       -0.007045974 -0.002836455 0.008957382 0.0070108427
000230 83 f8 a1 3c a0 af 3f bc 66 6c 15 bc 68 ca a3 bc
       0.01977182 -0.011699587 -0.0091200825 -0.019993976
000240 02 96 aa 3b 38 c6 b9 3a 52 41 f8 39 b4 f8 3d 3c
       0.0052058706 0.0014173454 0.00047350914 0.01159494
000250 5a ba 23 bc a6 e0 d9 bb 1e 06 2d bb 1c 60 a0 bb
       -0.00999316 -0.0066490946 -0.0026401351 -0.0048942696
000260 eb ad 25 bc 29 d6 ab bb 96 51 af 3b dd 66 02 3c
       -0.010112266 -0.0052440357 0.005350302 0.007959095
000270 e0 d9 6b ba 46 38 fe 39 c2 c0 6f 3a 61 e0 95 3b
       -0.00089970045 0.00048488582 0.00091458496 0.004573867
000280 2d 14 0d 3c 8b cb 01 bc ca 33 2d bb e5 2f 6e 3b
       0.008610767 -0.007922064 -0.0026428574 0.0036344465
000290 2a f1 3e bc be fc 85 3a 54 06 d8 3b 4f 51 5c bb
       -0.011654178 0.0010222418 0.0065925512 -0.00336178
0002a0 65 83 20 3c b8 58 12 3c 55 c2 b8 bb b4 b5 be bb
       0.009796952 0.008932285 -0.0056384006 -0.0058200005
0002b0 3d c5 58 3c 47 77 ed bb 6a a5 97 bc f9 89 ec 3a
       0.013230619 -0.007246885 -0.018511493 0.001804649
0002c0 75 51 e3 b9 05 41 81 3c 7f ce da 3b 53 74 4d bc
       -0.00043357504 0.015778074 0.0066774483 -0.012539941
0002d0 47 e4 59 bb d0 5b c8 3b 97 dd 95 3c 9e 53 e5 ba
       -0.0033247636 0.0061144605 0.018294139 -0.0017496233
0002e0 74 40 96 ba e2 de a6 bb 83 5c e6 3a 71 6f 5c 3c
       -0.00114633 -0.0050924877 0.0017575178 0.013454304
0002f0 5c 7d 01 3c 73 f0 95 bb 1f 3e 9b 3c e5 67 ff b9
       0.007903423 -0.004575783 0.01895052 -0.00048714798
000300 cf 29 b5 3b e0 c3 3d 3c 18 d2 56 bb 47 7e bf 3a
       0.0055286656 0.011582345 -0.0032779034 0.0014609777
000310 89 09 b0 3a 68 b4 ae bc 12 c6 4d 3c e0 f1 b6 bb
       0.0013430576 -0.021326259 0.012559431 -0.005583033
000320 a1 c3 87 3b dc 18 a3 3b 27 68 f5 ba ce 5f 0f bb
       0.004143194 0.0049773287 -0.0018723056 -0.0021877172
000330 c4 f1 2b bb fe 95 2e bc 1b fb 01 bc 28 86 0a 3b
       -0.0026236633 -0.010655878 -0.007933403 0.0021137092
000340 af bd 97 3b b2 48 c7 3b 5a 45 db 3c 61 05 ef bb
       0.0046307663 0.006081664 0.026766468 -0.0072943424
000350 30 80 0c bc 48 8e 08 3c 61 4c be bb 7c 95 e5 bb
       -0.008575484 0.008334704 -0.005807445 -0.0070063453
000360 34 a6 12 3a bb 64 9e bb e5 e1 25 bc 07 7a 0b bc
       0.0005594224 -0.0048337854 -0.010124658 -0.00851298
000370 be 91 78 ba 58 0e 76 bc 82 c7 a1 3c f5 dc 9e 3c
       -0.00094821665 -0.015018068 0.019748453 0.01939247
000380 15 e6 33 bb eb 37 fb ba aa 0f e0 b8 7d fa 00 3c
       -0.0027450372 -0.0019166445 -0.0001068407 0.007872221
000390 84 35 29 3c 2d b8 4a 3c 85 ca 5b 3c 7e 46 41 bc
       0.0103277005 0.0123730125 0.013414984 -0.011796592
0003a0 b4 67 0b 3c 25 5e f6 3b 52 75 2a 3a fb e6 68 bb
       0.0085086115 0.007518547 0.00065024674 -0.0035538066
0003b0 06 20 1a bb ad bd e0 39 bb a9 0e 3c a7 3f 94 bb
       -0.0023517623 0.0004286593 0.008707459 -0.0045241895
0003c0 60 50 7f ba 1b 77 4e 3b d0 62 9f bb 67 a4 cf 3b
       -0.0009739455 0.0031504098 -0.0048640743 0.006336737
0003d0 84 3a 06 ba a5 84 ac bc ed c0 b9 ba 5b 19 2f 3b
       -0.0005120414 -0.021059344 -0.0014171876 0.0026717994
0003e0 20 6f fa 3b ad 84 20 bc 1f 28 13 3b d2 b4 0f 3b
       0.0076426417 -0.009797257 0.0022454334 0.0021927846
0003f0 27 ca 4e 3c 23 4f ab bb d7 2d 4a 3c 93 cb 34 3c
       0.012621439 -0.0052279397 0.012340031 0.011034864

discrete_action_output_shape f4 [1, 2]
000000 00 00 40 40 00 00 40 40
       3.0 3.0

network_body._body_endoder.seq_layers.0.bias f4 [128]
000000 7c 4c 66 bb 78 b4 ef 3a 84 f3 15 3b 75 d3 aa 3b
       -0.0035140803 0.0018288037 0.0022880742 0.005213196
000010 b1 82 af b9 e3 d8 00 38 19 96 c1 3a 9b bb 34 ba
       -0.00033475974 3.071957e-05 0.0014769464 -0.00068944105
000020 66 7c 0c bb cc 85 0a bb 36 af 14 3b 0c ba d3 3a
       -0.0021436452 -0.0021136878 0.0022687442 0.0016153469
000030 59 e1 84 bb 2e 8e 24 3a 7e ce 4f 38 ee fe db 3a
       -0.004055184 0.000627729 4.9544957e-05 0.0016784349
000040 f3 3f 04 bb e4 45 d0 ba a0 b7 6d 3b b7 7f f5 3a
       -0.0020179718 -0.001588997 0.003627278 0.0018730079
000050 37 b2 0b 3b 20 69 86 bb 51 a7 3f bb ab aa 8d bb
       0.002131594 -0.0041018873 -0.0029244015 -0.0043233237
000060 ac bb d3 ba 9d 32 74 3a c6 0d b8 b9 09 b4 15 ba
       -0.0016153953 0.00093154033 -0.00035105477 -0.0005710726
000070 09 b7 80 3b ca de 67 3b 44 d1 d3 3a 91 17 3f b9
       0.0039280695 0.0035380595 0.0016160388 -0.00018223959
000080 72 3c 6c 3b 0f 0a bd 3a 16 f0 16 bb eb 73 4c bb
       0.003604677 0.0014422553 -0.0023031286 -0.0031197022
000090 0c ab 9d 3a 68 5e 81 3b a6 d2 1f 3a a9 2a 22 bb
       0.0012029125 0.0039480217 0.0006096758 -0.0024744666
0000a0 26 ca 98 3a ba 8e 0c bb 2e f5 f2 3a 74 5a 79 ba
       0.0011656925 -0.0021447376 0.0018536204 -0.0009512075
0000b0 82 84 26 ba ea 46 8c ba 07 3b c1 38 cb 8d b9 ba
       -0.00063521427 -0.0010702286 9.213952e-05 -0.0014156637
0000c0 75 85 79 39 d9 56 da 3a 2e 2d 93 3b 1b 99 3a 3a
       0.00023796207 0.0016657963 0.00449147 0.00071181514
0000d0 26 c3 4f bb 12 7b 43 3b 18 70 2a 39 10 fe da b9
       -0.003170201 0.0029827994 0.00016254222 -0.00041769492
0000e0 6a 6b 02 bb 99 99 b7 3a 7a bf 16 ba 06 da ae ba
       -0.001990045 0.0014007568 -0.0005750578 -0.0013340123
0000f0 72 44 c6 3a 75 83 8b ba e6 28 85 39 91 1b e6 3a
       0.00151266 -0.0010644036 0.00025398209 0.0017555823
000100 d4 44 9a 3b 12 03 87 bb 2d 36 df b8 b7 76 4f 3b
       0.004707912 -0.004120239 -0.0001064356 0.0031656453
000110 b0 dd a2 b6 6a ea d5 b9 45 f4 81 bb bb fc 95 3a
       -4.853784e-06 -0.00040801178 -0.003965887 0.0011443117
000120 81 55 61 bb a8 86 ec b9 72 67 1b 3b 76 17 85 3a
       -0.003438324 -0.00045113754 0.0023712781 0.0010154087
000130 da 34 f6 b9 3e 6e b3 39 ee 76 30 bb eb e5 1a 3b
       -0.00046960154 0.00034223677 -0.0026926356 0.0023635577
000140 ea 52 10 3b ef a7 c2 b9 1d 43 cc ba b9 14 86 bb
       0.0022022077 -0.00037127684 -0.0015583966 -0.004091826
000150 b3 0b f4 ba a8 7b 3a ba 76 cc 3e 3b ee 01 ab ba
       -0.0018619209 -0.0007113763 0.0029113567 -0.001304684
000160 b7 e1 9b b9 60 4f be bb f3 11 f2 ba 28 e3 c4 bb
       -0.00029732074 -0.005807802 -0.0018468484 -0.0060085244
000170 8a 72 12 39 31 4e 9b 3b ce 05 fa b9 ea 4a 1f 3b
       0.00013966314 0.0047395458 -0.0004768804 0.0024306127
000180 01 a7 1f 3b b1 62 70 bb f7 c1 f5 ba 54 24 1b ba
       0.0024361017 -0.0036679918 -0.0018749823 -0.0005918194
000190 6c 9a a0 ba 8e 36 84 3b 4f e9 28 39 94 a3 32 39
       -0.0012253053 0.0040348237 0.00016108643 0.0001703634
0001a0 71 06 63 ba d0 bf 7e bb 60 14 62 3b 08 c5 7f bb
       -0.00086603226 -0.0038871653 0.0034497008 -0.0039027352
0001b0 88 15 66 39 04 33 2f 3b 0c 49 a4 ba ac 60 85 bb
       0.0002194253 0.0026733289 -0.0012533977 -0.004070362
0001c0 2d 16 c7 3a ae 64 98 b9 8a 7c 95 bb a7 98 db 3b
       0.0015189104 -0.0002906671 -0.0045619654 0.006701547
0001d0 53 2f 93 3a 44 01 27 bb 40 40 78 bb 29 24 01 3b
       0.0011229314 -0.0025482932 -0.0037880093 0.001970539
0001e0 51 9b 12 3a 7d 53 86 3a 3e 3b 0a 3b 81 a1 34 3b
       0.0005592602 0.001024827 0.002109244 0.0027562084
0001f0 a1 3e 9f 3a 93 90 07 ba 77 7e 0e 3b 43 99 0a 39
       0.0012149402 -0.00051713845 0.002174286 0.000132178

network_body._body_endoder.seq_layers.0.weight f4 [128, 33]
000000 1b d5 d6 3c c8 c2 11 be 78 7a 83 3e eb 5a 13 3e
       0.026224663 -0.1423446 0.25679374 0.14390151
000010 10 46 34 3e 96 cb b7 bd ae ac 26 be d9 97 ea 3c
       0.17604852 -0.08974378 -0.1627681 0.02863686
000020 cd f1 3c bd 61 5a 00 3e 30 34 6b be 67 19 69 3e
       -0.046129037 0.12534477 -0.22969127 0.22763596
000030 5e e8 9b bb 90 cf 99 be 65 f5 8a 3d e7 ff 1e bc
       -0.004757925 -0.3004117 0.067850865 -0.009704567
000040 37 97 47 3d 71 38 10 3e f9 ba f0 3d b5 5d 98 3d
       0.048728194 0.1408403 0.11754412 0.07439748
000050 ec ff 9b bc e7 82 7f be fc 6a 66 be f6 75 45 3d
       -0.019042931 -0.24952279 -0.22501749 0.0482082
000060 bc c7 a4 3c 5c 9b 44 3a 1c 72 7c bd 9d 3f 7b bd
       0.020114772 0.0007499957 -0.06163226 -0.061339963
000070 fe f0 a0 3e 46 f2 1c 3d ee 3e 1b bd f0 81 57 be
       0.31433862 0.038316987 -0.03790181 -0.21045661
000080 51 eb 14 3e dd fc 4d be 87 79 37 bd 46 31 41 be
       0.14542891 -0.20115991 -0.044793632 -0.18866453
000090 d6 c3 e6 3c 8d 55 82 be 69 2c 11 3d 3e 4c 83 be
       0.028169554 -0.25455895 0.035442743 -0.25644106
0000a0 81 98 b9 3d 22 22 a8 bd 7c 86 4a be b1 14 94 3d
       0.09062291 -0.08209635 -0.19777864 0.07230509
0000b0 16 de a5 3d 91 27 f1 3e 7f 2a 3e be 62 bc 71 bd
       0.08099 0.471005 -0.18570898 -0.059017546
0000c0 31 89 57 3e 0e 5e 95 3e ca 4d 7a be 27 57 67 bd
       0.21048428 0.2917332 -0.24443737 -0.0564796
0000d0 9e d7 16 3c 82 71 b7 bd a7 3a b6 bd 2d b7 3b bd
       0.009206681 -0.08957197 -0.08897906 -0.045828987
0000e0 c3 f0 c6 be c4 af 71 be b0 32 23 bc 99 b2 b8 bd
       -0.38855562 -0.23602206 -0.009960815 -0.0901844
0000f0 6c a4 dd be f5 dd 13 3c af 35 e7 be 43 f2 46 3c
       -0.43289506 0.009025087 -0.45158145 0.012142721
000100 01 e3 2b 3d dd 37 a3 bd e7 18 12 be f3 53 6c 3d
       0.041964535 -0.079696395 -0.14267312 0.057697248
000110 40 2b 75 be e5 81 09 bd 11 0c 8c bc d6 dd f0 3c
       -0.2394228 -0.033571143 -0.017095597 0.029402655
000120 94 84 1a be 07 2c 4b be be 35 6f bd 12 9a fb bd
       -0.15089637 -0.19841014 -0.058400862 -0.12285246
000130 60 88 cb 3d e0 b0 03 3e c2 36 42 3d 14 29 a8 bd
       0.09938121 0.12860441 0.047415502 -0.0821096
000140 2d 60 01 bb 6c 89 89 3d fa c5 8b bc 3f 19 96 bc
       -0.0019741163 0.06715664 -0.017062176 -0.018322585
000150 92 b2 60 bd f9 1d b0 3e 1d 01 41 bd 66 9e 2a 3e
       -0.054857798 0.34397867 -0.047120202 0.16661987
000160 10 5a 1d 3e 12 38 43 3e 3c fc 01 3e e9 1d d4 3d
       0.15366387 0.19064358 0.12693876 0.103572674
000170 aa a5 34 3d 75 f3 a0 bc 26 d4 83 3c cd df 94 3e
       0.044103302 -0.01964734 0.016092371 0.29076996
000180 01 b0 8c bd 40 fb 2f be 8c c6 3b be 93 3b 55 bd
       -0.068695076 -0.17185688 -0.18337458 -0.052058768
000190 44 bc 00 be 1e fc cf 3e c2 4e 18 be 1e a0 24 3e
       -0.12571818 0.40622038 -0.14873794 0.16076705
0001a0 93 ad 7b 3d 57 30 80 3e 03 21 d2 3d 9d 32 e0 bd
       0.06144483 0.2503688 0.10260203 -0.10947154
0001b0 1c a4 de bd 59 df cf 3e c9 71 1e be 64 38 3c 3e
       -0.10871145 0.40600088 -0.15473093 0.18380886
0001c0 1b e9 96 3d 04 c9 e7 3d 01 98 00 3e ef 50 9c 3e
       0.0736868 0.113176376 0.12557985 0.30530497
0001d0 62 f6 0c 3e 50 8e 6c 3e aa e7 10 3e 35 7b 29 3d
       0.13765863 0.23101163 0.14150873 0.041377265
0001e0 91 b7 cb bd d2 e8 36 3d 10 f0 c0 3c b4 5b 29 be
       -0.09947122 0.04465563 0.02355197 -0.16538888
0001f0 59 94 93 3a dc 63 85 3d a6 e7 ed 3d a0 37 e5 3d
       0.0011259421 0.06513187 0.11616449 0.1119225
000200 90 76 66 bc a3 a1 62 3e 11 f6 c9 bd f5 23 1d 3e
       -0.014066353 0.22131972 -0.098613866 0.15345748
000210 17 99 7a 3d 4c 50 df 3d 05 20 c6 3e 70 e0 a3 3e
       0.061181154 0.10903987 0.38696304 0.3200717
000220 f4 fc 7e bd ba ab 1f bc 9c 6f 5e bd 2c 88 3d be
       -0.062252954 -0.009745533 -0.054305658 -0.18508977
000230 27 75 5a 3e 10 7a 6c be c2 de da 3c ec ca 68 be
       0.21333753 -0.23093438 0.026717547 -0.22733659
000240 84 fe 2f bd 23 c5 8d be 0f 6f 05 3e 87 f6 7f bc
       -0.042967334 -0.27689466 0.13030647 -0.015622742
000250 b6 fe b3 bc f3 66 92 bd 55 47 30 bd 17 cf 8f be
       -0.021972042 -0.07148542 -0.043036778 -0.28087685
000260 5e 34 80 3d 3b 09 ea bd 6b c0 99 3d e5 f3 ba bd
       0.06259988 -0.11427542 0.07507404 -0.091285504
000270 1a d4 8e ba 23 39 57 3e 98 70 25 3e 6c f6 d7 3d
       -0.0010896951 0.2101789 0.16156232 0.10545048
000280 ff 20 80 3d 09 13 32 3c 0d f1 7c 3e 3f a7 b2 3e
       0.062562935 0.010868796 0.24701329 0.34893224
000290 0f 9f 11 3e 8c 4e 1a 3e 9e 6c 10 3d e3 08 f4 bc
       0.14220832 0.15069026 0.035259835 -0.029789394
0002a0 07 30 5b bd 90 dd a6 3d be ba 94 3e 29 c6 28 be
       -0.0535126 0.081477284 0.29048723 -0.16481842
0002b0 e0 47 55 bc 73 20 e8 3c 86 0c 0c be 8a 74 3d bc
       -0.013017625 0.028335785 -0.13676652 -0.01156343
0002c0 91 e6 dd 3d bd a2 ea bd 57 a7 8c 3e 2d e4 80 3e
       0.10834993 -0.11456821 0.2747142 0.25174084
0002d0 c1 4b 6b bd 70 84 0c be 3d 4d e6 bd c2 eb cb bd
       -0.05744529 -0.13722396 -0.11245201 -0.099570766
0002e0 77 a9 9e 3d 85 f6 69 bc 23 57 9d 3d e8 4f 8c 3d
       0.077471666 -0.014279966 0.07682636 0.068511784
0002f0 26 18 73 bd c2 f3 54 bd 95 f2 bd bd 94 a6 b3 3d
       -0.0593492 -0.051990278 -0.092747845 0.08772007
000300 41 ab 91 3e 6e 17 be 3d 4a 31 a6 3b 30 84 b4 3d
       0.2845097 0.092818126 0.0050717937 0.08814275
000310 fa 12 70 bd 32 c4 79 3e c8 a4 e7 3d 02 9a 86 3e
       -0.058611847 0.24391249 0.113107264 0.26289374
000320 d7 f2 58 be c3 60 24 be bb 1d 8b 3e 9d d0 a3 be
       -0.21186386 -0.16052537 0.2717112 -0.31995097
000330 1a 60 2d be 00 fa fd bd 0b 27 96 3c 70 c1 99 3e
       -0.16931191 -0.12401199 0.018329164 0.30030394
000340 3e 88 89 3e d6 71 51 be 4e d7 3a be 87 af 58 bd
       0.26861757 -0.20453581 -0.18246195 -0.05290177
000350 7e fb f2 bd 12 20 4a 3e 6a 8e 33 bd f7 72 de 3d
       -0.118643746 0.19738796 -0.04383699 0.108617716
000360 ef 71 b2 be b5 cb a4 bc b7 cd 0a 3d c0 1d 29 3e
       -0.3485255 -0.020116666 0.03388759 0.16515255
000370 06 82 ac be ad 0a 84 be ae 21 90 3e 50 79 16 bd
       -0.3369295 -0.25789395 0.28150696 -0.036736786
000380 da dd 92 bd 43 9c 0f be b8 35 1c bc 49 a1 9c bd
       -0.07171221 -0.14024453 -0.009534292 -0.0764795
000390 a9 47 50 3d 64 b5 93 bd 84 1c 17 bd dd e3 13 be
       0.05084959 -0.07212332 -0.03689243 -0.14442392
0003a0 6f 6d 90 3d 9a 93 01 bc cb 97 35 be f8 94 ec 3d
       0.07052123 -0.007908726 -0.17733686 0.11551851
0003b0 cf 17 03 bb 98 b1 6d 3e 36 60 a7 bd 6d e8 cd 3d
       -0.0020003205 0.23212278 -0.08172648 0.10054097
0003c0 3a 3e 7c 3d de e6 11 3e 52 20 3d 3e 2c a4 9d 3d
       0.06158278 0.14248225 0.1846936 0.07697329
0003d0 59 fc 3b 3e 81 82 99 3a af 49 b6 3d fe c2 36 bd
       0.18357982 0.0011711867 0.08900773 -0.044619553
0003e0 c2 03 02 3e c2 ca 20 bd 9b 0f 4c bd 25 14 a5 be
       0.12696746 -0.039255865 -0.04981957 -0.32241932
0003f0 5f fd 7a 3d 4a 12 1f 3c 1d 3b e6 bc e0 15 33 3e
       0.06127679 0.00970895 -0.02810436 0.17488813

network_body._body_endoder.seq_layers.2.bias f4 [128]
000000 46 86 83 3a 89 ed a1 ba ca 3c b4 ba 06 01 2e bb
       0.0010034523 -0.0012354116 -0.0013751027 -0.0026550903
000010 3a 32 07 3a af 48 52 bb cc fb 96 3b 0b 40 b8 3a
       0.00051573256 -0.003208678 0.0046076532 0.0014057172
000020 e3 69 49 ba 79 9d 25 3b fd 53 c0 b9 da 18 55 3b
       -0.000768332 0.0025270863 -0.0003668367 0.0032516033
000030 1b d7 3f ba 47 57 18 3a 01 9b f0 3a 57 9b 7c bb
       -0.0007318125 0.0005811345 0.0018356742 -0.0038544738
000040 7d 89 c3 3a 57 0d 0e 3b be ed 75 bb 33 ab 24 bb
       0.0014918294 0.0021675432 -0.0037525739 -0.0025126457
000050 f0 c7 05 bb 55 b8 c4 3a f9 ca f8 3a fe ed e2 b9
       -0.0020413361 0.0015008549 0.0018981389 -0.00043283397
000060 3f 71 0d 3a fb 30 a6 3a ec a9 16 bb e1 31 60 ba
       0.0005395598 0.0012679392 -0.0022989465 -0.00085523544
000070 e0 fd ae 3a d7 ec bd 37 f6 83 65 bb e2 f3 9b 3b
       0.0013350807 2.2640843e-05 -0.0035021282 0.0047592977
000080 c2 3c 54 b9 b7 3d 03 b9 df 69 07 3b 6a 37 20 3b
       -0.0002024053 -0.00012516124 0.002066247 0.0024447092
000090 1d 35 eb 3a da d4 d9 ba 8c 1f ed 3a 82 3e 4d 3a
       0.0017944906 -0.0016619221 0.0018091067 0.0007829444
0000a0 48 d5 f9 3a ec 8c cb 3a 71 6a 00 3b ca 70 f5 3a
       0.0019060755 0.0015529669 0.0019594694 0.001872563
0000b0 f9 5a a7 b9 84 f3 4a ba 34 50 ad 3a 99 8e 2c 3b
       -0.00031920502 -0.0007741975 0.0013222755 0.0026330112
0000c0 aa d3 e7 ba fa aa 07 3b 80 7f 58 bb fe 4a d5 39
       -0.0017686982 0.0020701275 -0.003303498 0.000406824
0000d0 47 2b 91 b9 7b c1 08 bb ba 01 08 3b 13 a5 38 b9
       -0.000276888 -0.0020867276 0.0020752982 -0.00017609102
0000e0 3f 29 7e 3b 2d a6 bf 3a cf e1 8d ba 50 03 b7 b9
       0.0038781909 0.0014621668 -0.0010824742 -0.00034906948
0000f0 28 8d 79 bb b9 ba b0 bb f5 cd 03 bb e3 cf a6 3b
       -0.003807852 -0.005393353 -0.0020111774 0.0050907
000100 1a 4c ef 3a fa e1 34 bb 64 d4 d8 ba e7 b8 ec ba
       0.0018256933 -0.0027600513 -0.001654279 -0.0018060476
000110 bd fb e5 3a cd 97 29 3a 07 8b 4a b8 09 ae 96 b9
       0.0017546337 0.00064694585 -4.8290032e-05 -0.00028739896
000120 cc a0 28 3a 75 0f f5 3a f0 33 ae ba fa f1 c1 3b
       0.0006432652 0.0018696623 -0.0013290625 0.0059187384
000130 ab 52 83 3b a7 a8 0a bb 96 dd ba 39 46 50 14 bb
       0.0040076575 -0.0021157654 0.0003564178 -0.0022630855
000140 40 39 86 3b 5d e1 4a 3b 83 5d 01 bb 81 76 d9 3a
       0.00409618 0.003095708 -0.0019739575 0.0016591103
000150 8a 6d b9 39 25 dd cc ba bd f2 19 bb 11 16 71 ba
       0.00035367563 -0.0015629871 -0.002349063 -0.00091967086
000160 96 c3 80 bb 11 42 82 ba 57 9d 0e 3b bd 00 7c 3b
       -0.0039295657 -0.0009937902 0.0021761262 0.0038452588
000170 3e 1a 13 3b 7b be 45 3b 63 b5 12 3a 26 f7 65 3b
       0.0022446061 0.003017335 0.0005596487 0.003508994
000180 ba 66 42 3a e3 83 08 3a 34 b0 c1 ba 74 92 0b bb
       0.000741582 0.0005207641 -0.0014777244 -0.002129701
000190 79 cb 02 bb 07 57 55 3a f3 20 72 b9 e7 0e 83 39
       -0.0019957705 0.0008138273 -0.00023091193 0.0002499737
0001a0 9a 98 1f 3b 68 ee b0 39 26 1e e9 ba ce 58 3e 3b
       0.0024352432 0.00033746962 -0.0017785474 0.002904463
0001b0 ef 51 48 ba be ac 16 bb 34 ed 9c ba ee 38 b3 3a
       -0.00076416036 -0.0022991146 -0.0011972548 0.0013673583
0001c0 10 4f 63 ba 19 1c e5 b9 e3 11 dc b8 bf 8e 69 ba
       -0.0008671144 -0.00043699218 -0.00010493749 -0.00089095155
0001d0 74 f3 fe 3a c2 4e dd 3a a7 da 62 bb 3b f4 3f bb
       0.0019451217 0.0016884434 -0.003461519 -0.002928986
0001e0 41 bd 25 38 a8 c4 47 ba 2d 23 96 bb d1 9d 6e 3a
       3.9515322e-05 -0.00076205516 -0.00458183 0.0009102496
0001f0 fa f9 4c b8 d5 83 f0 3a 1c e4 5e 39 c8 4d 8c b9
       -4.88702e-05 0.0018349836 0.00021256547 -0.00026760832

network_body._body_endoder.seq_layers.2.weight f4 [128, 128]
000000 01 6f 8d bd 25 96 0c bd 11 d8 f1 bd 44 da 81 3d
       -0.06905938 -0.034322876 -0.118087895 0.06340459
000010 ed ff ca bd e6 36 d8 3b 30 47 50 bc ed 0c a1 3c
       -0.09912095 0.0065983413 -0.012712285 0.019659484
000020 fc e1 ab bd 2c 02 10 ba c3 25 0f 3e d1 c6 aa bd
       -0.083927125 -0.00054934877 0.13979249 -0.083387025
000030 b4 43 c9 bd 35 eb 16 bd 6b 25 10 3d 42 2f 01 bd
       -0.098273665 -0.036845405 0.035191935 -0.03153921
000040 63 1d c4 bc 34 c8 4a bd 42 c6 00 be 36 bc 00 bd
       -0.023939794 -0.049507335 -0.1257563 -0.031429492
000050 5f e1 c6 3c b8 81 c7 3d e5 7c 8d 3d ee cd 0d be
       0.024277387 0.09741539 0.06908587 -0.13848087
000060 78 dd c2 bb 1d 4a f8 3c 82 61 f1 bd 06 9b 44 3c
       -0.0059468113 0.030308777 -0.11786176 0.011999851
000070 b2 c7 35 bb 63 88 99 3d 17 47 43 bd 23 bd 37 ba
       -0.0027737436 0.07496717 -0.04767522 -0.00070090796
000080 fa f6 48 bd 63 91 a0 3d fe ac 2c 3e 14 0f ea bd
       -0.04906366 0.0784023 0.16862866 -0.11428657
000090 6c b1 15 3e 5d fe 33 3e d4 d5 6a bd 0c da 8e 3d
       0.14618462 0.175775 -0.05733283 0.06975183
0000a0 27 1e 3e bd 77 08 55 3e 97 0a d5 bc c5 1a 8b 3c
       -0.046415474 0.2080401 -0.026006026 0.016980538
0000b0 c1 42 75 3c e8 93 f4 bc bd 50 b2 3d ff 21 96 3c
       0.014969529 -0.029855683 0.08706806 0.018326757
0000c0 4c 8f 15 3c e3 97 2e bd b7 c2 04 bd 76 29 34 bd
       0.009128403 -0.04262532 -0.032412257 -0.043984853
0000d0 4f 48 53 3c 17 5d 16 bd 4a cf a7 3a 11 8d 5a 3d
       0.012895658 -0.03670987 0.0012802866 0.053357188
0000e0 8e f5 0d 3e 78 12 cc 3d bf 31 c9 3c 8c 16 e4 bc
       0.13863203 0.0996446 0.024559854 -0.027842782
0000f0 42 20 18 bd 81 7f ac bb 5b 95 3c bd ac 13 0a be
       -0.03714014 -0.005264223 -0.046040874 -0.13484067
000100 e1 48 4f 3e 90 99 2c bd d3 51 9f bc 9b 7f 19 3b
       0.20242645 -0.042138636 -0.019448197 0.0023422006
000110 76 c8 d3 3b ea d2 69 bd f4 a9 95 bd 59 fb 18 be
       0.006463106 -0.05708591 -0.073078066 -0.14939632
000120 85 32 23 bd 6b 57 c5 bd 0f 11 67 3d 85 30 ab bd
       -0.0398431 -0.09635814 0.056412753 -0.08358864
000130 ae d5 25 3c c4 b6 74 3d 96 71 92 3c 39 93 59 bd
       0.010121746 0.05974461 0.017876428 -0.053118918
000140 1a 07 00 3e c8 da e2 3d c4 79 3c 3d ca 4c c5 bd
       0.12502709 0.110768855 0.046014562 -0.09633787
000150 19 e6 48 bd 3c 54 a1 3b 1a 79 08 bd ac 5c 29 3e
       -0.049047563 0.0049233716 -0.033318616 0.16539258
000160 aa 1d 83 bd 81 b6 08 3d a5 de 11 3e f5 ef f3 bc
       -0.06402142 0.033377174 0.14245088 -0.029777506
000170 3f 17 c1 3b 51 f4 6b bc 07 81 58 bd a5 dc bd 3d
       0.0058926637 -0.014401511 -0.052857425 0.092706
000180 f3 c2 26 be 47 63 a4 bd 8b 41 fb bd 9c 7f 58 bd
       -0.16285305 -0.08026748 -0.12268361 -0.052856073
000190 17 e9 94 bd ba eb 44 3a 9b 81 7d bc 66 8e 19 3b
       -0.07271021 0.00075119326 -0.015472795 0.0023430823
0001a0 51 11 25 3d 62 d6 2c bc ee c2 a9 3d d2 61 18 bb
       0.040299717 -0.01054916 0.08289133 -0.0023251665
0001b0 7e 1d 32 3e 17 24 08 be 2e fb 86 3d 15 dd d7 3c
       0.17394063 -0.13295017 0.065908775 0.026350537
0001c0 d4 41 b2 3d 8a 5f 7a bb 59 2b ba 3c 60 73 d5 bc
       0.08703962 -0.0038203918 0.022725748 -0.026055992
0001d0 44 50 eb 3d 92 16 05 3e c8 26 c9 bb 0e 8e 3a bd
       0.11489919 0.12996891 -0.0061386563 -0.04554563
0001e0 b1 0d 11 3e d0 09 fd 3d 21 28 c3 3c ce 7a 9c 3d
       0.14165379 0.12355387 0.023822846 0.07640611
0001f0 5a 2d b4 bd 9f 2b d0 3d 2e ab 99 3d ec 2a 9a 3d
       -0.087977126 0.1016457 0.07503353 0.07527718
000200 1c 5a 98 3d 37 73 2e 3c da d4 ff 3d ff d9 6e bc
       0.07439062 0.010647587 0.1249177 -0.0145783415
000210 5e e7 cb bc e1 8d 6d bd 1a 2d d7 3c c5 fa 4f 3b
       -0.024890598 -0.057996634 0.026266623 0.0031735164
000220 82 18 14 3e bb 7d 83 3d 9b a6 8c bd 2a f6 0f 3e
       0.14462474 0.064204656 -0.06867715 0.14058748
000230 bf a5 89 bd 7d bf 2b 3d e6 c2 4c 3d 99 72 1d 3d
       -0.06721067 0.041930664 0.049990557 0.038439367
000240 f0 52 28 3e a1 9f b8 bd 0c a9 2d bd 46 28 b2 3d
       0.16437888 -0.09014822 -0.042397544 0.08699088
000250 85 99 c8 bc d5 2b 84 bd 12 84 bd bb 66 49 b8 ba
       -0.024487266 -0.06453673 -0.0057835663 -0.001405996
000260 50 12 05 bd 77 89 54 bc cb 19 92 3d 80 6d 03 be
       -0.032488167 -0.012972227 0.07133826 -0.1283474
000270 34 ca ad bd a2 16 ad 3c df de e7 bd ca b3 b4 3c
       -0.08485833 0.021128956 -0.11321806 0.022058386
000280 1a 79 28 3d 25 66 08 bc 1b ef 77 3d b1 ca dd bd
       0.041131116 -0.008325134 0.060530763 -0.10829676
000290 aa b7 51 3c 98 ca 1b bc 93 24 54 3d 39 fe 15 3e
       0.012800137 -0.009508751 0.051792692 0.1464776
0002a0 7b 86 6c bd 74 aa 99 3d db 01 45 be 97 44 3a 3e
       -0.057745438 0.075032145 -0.19238989 0.18190227
0002b0 c9 cc b5 bd 21 9e 11 3d e2 b2 61 bd 8d 35 9b 3d
       -0.0887695 0.035551194 -0.055102237 0.075785734
0002c0 65 22 e1 bc ea c4 68 bc 87 ea 48 bd 82 96 a6 bd
       -0.02748222 -0.014207104 -0.049051788 -0.08134176
0002d0 15 a6 e5 bd 0c 23 07 bd 86 ec ac 3d 55 1b 54 3d
       -0.11213318 -0.032992408 0.08443551 0.05178388
0002e0 bc 3f b8 3d 8c c0 15 be 78 0b 7a bd 69 ec 78 3d
       0.08996531 -0.14624232 -0.061046094 0.060772333
0002f0 86 31 94 bc 23 e1 b1 bd 5d e6 7e 3b 20 32 e6 bd
       -0.01809002 -0.086855195 0.0038894631 -0.11240029
000300 e5 72 ad bd 7d cc 54 3e 0a 4d 23 3e aa d1 af 3d
       -0.0846918 0.20781131 0.15947357 0.08584912
000310 ed c3 b7 3d 86 3f 75 3d 73 7e 2e bd 14 d4 e0 3b
       0.08972917 0.059875034 -0.04260106 0.006861219
000320 2f 20 44 bd 00 98 0d bc 41 3a ba bd 6a db 7e bd
       -0.047882255 -0.008642197 -0.09093142 -0.06222097
000330 98 d5 29 bc 4c 98 e7 bd ff 8b 76 3b e4 d7 18 be
       -0.010365866 -0.11308345 0.0037620065 -0.14926106
000340 ce 9f 8e bc 73 39 3a 3d f9 48 08 3e 6c 00 bf bd
       -0.017410185 0.045464944 0.13309087 -0.09326252
000350 e7 0d 9f bc e7 c7 cf 3c f6 2f be bd 58 d8 96 3d
       -0.019415809 0.025363876 -0.092864916 0.07365483
000360 93 83 bc 3d 61 59 58 3d 8b 1e 2d bd 5c 73 9e bc
       0.09204783 0.052819613 -0.042265456 -0.019342117
000370 67 d4 77 bd f2 b5 46 3d 73 96 0e be e8 42 b9 3d
       -0.060505297 0.04851336 -0.1392458 0.090459645
000380 95 51 21 be 75 10 6f 3d 05 25 01 bd 58 e3 5c bc
       -0.15753777 0.058365304 -0.031529445 -0.013481937
000390 55 d3 e8 bd d7 aa 0b be eb 4c 94 bd 47 5a a1 3d
       -0.113684334 -0.13639389 -0.072412334 0.07878547
0003a0 31 83 47 3d 93 f1 d1 b9 45 4b 11 be 3c 25 f3 bd
       0.0487091 -0.00040043573 -0.1418887 -0.11872336
0003b0 65 cd 3f 3e e2 0e 2f 3d 2d 6b bf bd a3 54 0c 3e
       0.18730696 0.042738803 -0.09346614 0.13704161
0003c0 d5 1f 7c bd c8 b3 55 3e 8e 8e e6 3d 74 b8 e0 bd
       -0.061553795 0.20869362 0.11257659 -0.10972682
0003d0 a1 b9 0f 3e 53 e8 54 3d ea 0c ee bd 6d 1d 41 3c
       0.14035656 0.051979374 -0.11623557 0.011786801
0003e0 65 ba 27 3e af 32 82 bd 8b bb c4 bd 74 97 be bd
       0.16379698 -0.063573234 -0.096060835 -0.09306231
0003f0 1f ae 2c 3d f9 67 62 bd 3c cf c2 bd 8d 4f 61 bd
       0.042158242 -0.055274937 -0.09512183 -0.055007506
