results/FirstRun2/MoveSomewhere/MoveSomewhere-10112.pt (torch, 192023 bytes, 14 tensors)

discrete_act_size_vector f4 [1, 2]
0	0x40400000	3.0
1	0x40400000	3.0

network_body._body_endoder.seq_layers.0.weight f4 [128, 45]
0	0x3d4c3f66	0.04986515
1	0x3dbafec5	0.09130625
2	0xbdcca1d6	-0.09991805
3	0x3e014e25	0.12627466
4	0xbeb866d7	-0.3601596
5	0xbd70c04f	-0.05877715
6	0xbe6a880f	-0.22903465
7	0xbc171c37	-0.009223036
8	0x3d997512	0.074930325
9	0x3d662952	0.05619175
10	0x3e01ba33	0.12668686
11	0x3e89e900	0.26935577
12	0x3db52d26	0.08846502
13	0x3e140c61	0.14457847
14	0x3e92d24c	0.2867607
15	0xbcdce097	-0.026962562
16	0xbc9e36db	-0.019313267
17	0xbe06ebd7	-0.13175903
18	0xbe2cc98b	-0.16873758
19	0xbc9c8417	-0.019105954
20	0xbdf64190	-0.12024224
21	0x3e04c77b	0.12966721
22	0xbdc8e4f0	-0.09809291
23	0x3e0b0b13	0.13578443
24	0xbd212b87	-0.03934815
25	0x3e04585d	0.12924333
26	0x3e1f6cf0	0.155689
27	0xbc283f33	-0.010268974
28	0x3e130203	0.14356236
29	0x3d947681	0.07249165
30	0xbe160241	-0.14649297
31	0xbcdd145d	-0.026987249
32	0xbdeceb5e	-0.1156833
33	0x3db692ce	0.089147195
34	0x3d6a58be	0.057213537
35	0xbe900563	-0.2812911
36	0x3d86bef5	0.06579391
37	0xbdc6940d	-0.09696207
38	0xbd329ebe	-0.04360842
39	0x3d56d6e8	0.052451044
40	0xbe5005e7	-0.20314752
41	0x3d8e1810	0.06938183
42	0xbea02b93	-0.31283244
43	0x3dc983c8	0.098395884
44	0x3e57cd96	0.21074519
45	0x3dc319cf	0.09526407
46	0x3e24bb77	0.16087137
47	0xbc5c170e	-0.013433231
48	0x3dc70875	0.0971841
49	0x3dd0bd1a	0.10192318
50	0x3de10189	0.10986621
51	0x3ebb17d9	0.36541632
52	0xbd5ac417	-0.053409662
53	0x3e3fc07a	0.18725768
54	0xbcc90eb2	-0.02454314
55	0x3e452a56	0.19254431
56	0x3ddab47c	0.10678956
57	0xbe9a2cdb	-0.30112347
58	0x3e16733f	0.146924
59	0xbebd19af	-0.36933658
60	0x3dd429cb	0.10359534
61	0xbce560cc	-0.028000258
62	0xbc87c325	-0.016572544
63	0xbd2364fc	-0.039891228
64	0xbed921e0	-0.42408657
65	0x3c9897bc	0.01862704
66	0x3d6387a1	0.055549268
67	0xbbc0b8de	-0.005881413
68	0x3d88af27	0.06674033
69	0x3e91b20d	0.28456154
70	0x3e917f8c	0.28417623
71	0x3d377ed8	0.044798702
72	0x3ce2c880	0.027683496
73	0x3dbca149	0.0921045
74	0xbd381329	-0.044940148
75	0x3e0a1b1f	0.13486908
76	0xbc3716cd	-0.01117487
77	0x3e81b21a	0.25331193
78	0xbdc9b659	-0.09849233
79	0xbef17b1c	-0.47164237
80	0xbd238e24	-0.039930478
81	0x3d579b80	0.05263853
82	0x3e9ca520	0.3059473
83	0x3b86db47	0.0041154954
84	0xbdedd008	-0.116119444
85	0xbdf10323	-0.117681764
86	0x3da03f9b	0.07824632
87	0x3e859b0b	0.2609485
88	0x3e2c9cf3	0.16856746
89	0x3d88906f	0.066681735
90	0xbe5d15e4	-0.21590382
91	0x3e17437e	0.1477184
92	0x3cbe66e3	0.02324242
93	0x3e1e9c87	0.15489398
94	0xbddb04ce	-0.10694276
95	0xbeb01bd6	-0.34396237
96	0x3d0cf6b1	0.03441495
97	0xbe867f34	-0.26268923
98	0x3e65f6b7	0.22457395
99	0x3da7f3ea	0.0820082
100	0x3e1d459a	0.15358582
101	0x3e1675fd	0.14693446
102	0x3da12d9c	0.078700274
103	0xbdbe9605	-0.09305958
104	0x3dfea18c	0.12433156
105	0x3e3fba54	0.18723422
106	0x3d4970f9	0.049180005
107	0xbe9f6c1c	-0.31137168
108	0x3e00dd1d	0.12584348
109	0x3e99d4d5	0.3004519
110	0xbe4b9f7c	-0.19885057
111	0x3e0b1c6d	0.13585062
112	0xbe192d2d	-0.1495864
113	0xbcd974a9	-0.026544886
114	0xbb94565d	-0.004526897
115	0x3e27710d	0.16351719
116	0xbe107d25	-0.14110239
117	0x3e3aca2d	0.18241186
118	0xbe29befa	-0.16576758
119	0x3e4f55ab	0.20247523
120	0x3eb067b0	0.34454107
121	0x3d67177b	0.056418877
122	0xbc171d4a	-0.009223292
123	0x3e07889d	0.13235708
124	0xbd69fbee	-0.057125024
125	0x3e013630	0.12618327
126	0x3dc77d15	0.097406544
127	0x3da0c0df	0.07849287
128	0x3ee4760d	0.44621316
129	0xbdacb2cc	-0.0843254
130	0xbdb2340d	-0.08701334
131	0x3e9d524f	0.3072686
132	0xbdb0bda2	-0.086299196
133	0x3e3feccd	0.18742676
134	0x3c6c1fc1	0.014411868
135	0x3dc800d7	0.09765785
136	0x3e45cbef	0.19316076
137	0xba59e93e	-0.0008312649
138	0xbd34538f	-0.044025
139	0x3c298a62	0.010347934
140	0xbbf938fe	-0.007605671
141	0xbdcbaa05	-0.09944538
142	0xbdd6e952	-0.10493721
143	0x3d9761f7	0.07391732
144	0x3d9df79d	0.07713244
145	0x3ebd5c83	0.36984643
146	0x3dbb4552	0.09144081
147	0xbe3bd3e9	-0.18342556
148	0xbe00af42	-0.12566856
149	0xbe3ca1bd	-0.18421073
150	0x3e146a53	0.14493684
151	0xbe1b0662	-0.15139154
152	0x3d604aee	0.05475896
153	0xbe0ae646	-0.13564405
154	0x3b71ad7b	0.0036877084
155	0x3bcff659	0.0063465056
156	0x3bfff682	0.0078113684
157	0x3e2a8605	0.16652687
158	0xbe1eb931	-0.15500332
159	0x3c8b37a5	0.016994307
160	0xbd05995d	-0.03261696
161	0xbb15c5bf	-0.0022853462
162	0xbdec2e41	-0.1153226
163	0x3e041d74	0.1290186
164	0x3cb9eca1	0.022695841
165	0xbdea60f9	-0.11444277
166	0xbe8d3f21	-0.27587226
167	0x3b265fca	0.0025386685
168	0x3d536384	0.051608577
169	0xbd13ccd2	-0.036084004
170	0xbd7b4a2b	-0.06135003
171	0xbe13504b	-0.14386098
172	0x3da11449	0.07865197
173	0x3db61c4b	0.08892115
174	0x3e12c2ff	0.14332198
175	0x3e5c3db5	0.21507914
176	0x3db32ef6	0.087491915
177	0xbdd4a85a	-0.10383673
178	0xbd7a1c51	-0.06106216
179	0xbe0877bd	-0.13326927
180	0x3de3df60	0.1112659
181	0x3c9987ed	0.018741572
182	0x3e5b0775	0.21389563
183	0x3c5c84fd	0.013459441
184	0xbace6182	-0.0015745612
185	0x3e0f2ffe	0.13983151
186	0x3dfaf860	0.12254405
187	0xbdc86fe8	-0.097869694
188	0x3dc175b2	0.09446277
189	0x3e29cfe6	0.16583213
190	0x3d29a85b	0.041420322
191	0xbe25a0c1	-0.16174604
192	0x3e045564	0.12923199
193	0x3b7947f9	0.0038037284
194	0xbe2ba585	-0.1676236
195	0xbc2bea77	-0.0104929125
196	0x3e979253	0.29603824
197	0xbe26c0b8	-0.16284454
198	0x3d90fa7f	0.07079028
199	0xbe56241c	-0.20912212
200	0x3d0abff9	0.033874486
201	0xbcea10c0	-0.02857244
202	0x3cd8e109	0.026474493
203	0xbdd01a94	-0.101613194
204	0x3d96697e	0.0734434
205	0x3e23b8ea	0.15988508
206	0xbdfd1b84	-0.12358764
207	0x3d4d34d7	0.05009922
208	0xbd3a8579	-0.045537446
209	0x3d4692db	0.048479896
210	0xbe63363f	-0.22188662
211	0xbe7fca95	-0.24979623
212	0xbd134468	-0.03595391
213	0xbe3fd98a	-0.18735328
214	0xbb8069e4	-0.003918873
215	0xbe0897f8	-0.13339221
216	0xbd1b72cf	-0.037951287
217	0x3bbd637b	0.0057796813
218	0xbc88c1cd	-0.016693974
219	0xbe589f0d	-0.21154423
220	0x3ea4cc43	0.3218709
221	0x3e0fe10f	0.14050697
222	0x3e23b677	0.15987574
223	0x3d4b09f9	0.049570058
224	0x3d3c68b1	0.04599828
225	0xbd512a6d	-0.05106585
226	0x3e93f693	0.2889906
227	0xbcb1b807	-0.021694196
228	0xbe089ac6	-0.13340291
229	0x3e637f53	0.22216539
230	0xbd818da0	-0.06325841
231	0x3e1fc38b	0.15601937
232	0xbe40c67d	-0.18825717
233	0x3d20788b	0.03917746
234	0x3e9f6911	0.31134847
235	0x3e0975b1	0.13423802
236	0xbdb6696c	-0.089068264
237	0xbd9f61c8	-0.07782322
238	0xbd28ca67	-0.04120865
239	0xbd41d782	-0.047324665
240	0x3e4dae2c	0.20085973
241	0xbc733523	-0.014844212
242	0xbe0ee348	-0.13953888
243	0xbe808e3f	-0.25108525
244	0xbec2012b	-0.37891516
245	0x3dffd210	0.12491238
246	0x3d16d669	0.03682557
247	0xbe415e1e	-0.18883559
248	0x3e88b19b	0.26698002
249	0xbdcb73ad	-0.09934173
250	0xbe752b52	-0.23942307
251	0xbcdf7c09	-0.027280824
252	0xbe729ee7	-0.23693429
253	0x3d2d5142	0.04231382
254	0xbd7b3ee4	-0.061339274
255	0x3d6b7ca5	0.057491917

network_body._body_endoder.seq_layers.0.bias f4 [128]
0	0x00000000	0.0
1	0x00000000	0.0
2	0x00000000	0.0
3	0x00000000	0.0
4	0x00000000	0.0
5	0x00000000	0.0
6	0x00000000	0.0
7	0x00000000	0.0
8	0x00000000	0.0
9	0x00000000	0.0
10	0x00000000	0.0
11	0x00000000	0.0
12	0x00000000	0.0
13	0x00000000	0.0
14	0x00000000	0.0
15	0x00000000	0.0
16	0x00000000	0.0
17	0x00000000	0.0
18	0x00000000	0.0
19	0x00000000	0.0
20	0x00000000	0.0
21	0x00000000	0.0
22	0x00000000	0.0
23	0x00000000	0.0
24	0x00000000	0.0
25	0x00000000	0.0
26	0x00000000	0.0
27	0x00000000	0.0
28	0x00000000	0.0
29	0x00000000	0.0
30	0x00000000	0.0
31	0x00000000	0.0
32	0x00000000	0.0
33	0x00000000	0.0
34	0x00000000	0.0
35	0x00000000	0.0
36	0x00000000	0.0
37	0x00000000	0.0
38	0x00000000	0.0
39	0x00000000	0.0
40	0x00000000	0.0
41	0x00000000	0.0
42	0x00000000	0.0
43	0x00000000	0.0
44	0x00000000	0.0
45	0x00000000	0.0
46	0x00000000	0.0
47	0x00000000	0.0
48	0x00000000	0.0
49	0x00000000	0.0
50	0x00000000	0.0
51	0x00000000	0.0
52	0x00000000	0.0
53	0x00000000	0.0
54	0x00000000	0.0
55	0x00000000	0.0
56	0x00000000	0.0
57	0x00000000	0.0
58	0x00000000	0.0
59	0x00000000	0.0
60	0x00000000	0.0
61	0x00000000	0.0
62	0x00000000	0.0
63	0x00000000	0.0
64	0x00000000	0.0
65	0x00000000	0.0
66	0x00000000	0.0
67	0x00000000	0.0
68	0x00000000	0.0
69	0x00000000	0.0
70	0x00000000	0.0
71	0x00000000	0.0
72	0x00000000	0.0
73	0x00000000	0.0
74	0x00000000	0.0
75	0x00000000	0.0
76	0x00000000	0.0
77	0x00000000	0.0
78	0x00000000	0.0
79	0x00000000	0.0
80	0x00000000	0.0
81	0x00000000	0.0
82	0x00000000	0.0
83	0x00000000	0.0
84	0x00000000	0.0
85	0x00000000	0.0
86	0x00000000	0.0
87	0x00000000	0.0
88	0x00000000	0.0
89	0x00000000	0.0
90	0x00000000	0.0
91	0x00000000	0.0
92	0x00000000	0.0
93	0x00000000	0.0
94	0x00000000	0.0
95	0x00000000	0.0
96	0x00000000	0.0
97	0x00000000	0.0
98	0x00000000	0.0
99	0x00000000	0.0
100	0x00000000	0.0
101	0x00000000	0.0
102	0x00000000	0.0
103	0x00000000	0.0
104	0x00000000	0.0
105	0x00000000	0.0
106	0x00000000	0.0
107	0x00000000	0.0
108	0x00000000	0.0
109	0x00000000	0.0
110	0x00000000	0.0
111	0x00000000	0.0
112	0x00000000	0.0
113	0x00000000	0.0
114	0x00000000	0.0
115	0x00000000	0.0
116	0x00000000	0.0
117	0x00000000	0.0
118	0x00000000	0.0
119	0x00000000	0.0
120	0x00000000	0.0
121	0x00000000	0.0
122	0x00000000	0.0
123	0x00000000	0.0
124	0x00000000	0.0
125	0x00000000	0.0
126	0x00000000	0.0
127	0x00000000	0.0

network_body._body_endoder.seq_layers.2.weight f4 [128, 128]
0	0xbae70c4b	-0.0017627565
1	0x3d1a6e78	0.037703007
2	0x3e020afd	0.12699504
3	0xbe304d63	-0.1721702
4	0xbd48ff03	-0.049071323
5	0x3dde3633	0.108501814
6	0x3d660f39	0.05616686
7	0xbd9e9ecf	-0.07745134
8	0x3e07c0f5	0.13257201
9	0xbbb84496	-0.0056234105
10	0xbe12c5f2	-0.14333323
11	0x3db06ca4	0.086144716
12	0x3dac3964	0.08409384
13	0xbd3d6a1f	-0.046243783
14	0xbd3b977d	-0.045798767
15	0x3b2ab82e	0.002604972
16	0x3d93e8aa	0.072221115
17	0x3a8687aa	0.001026382
18	0xbd8994d7	-0.06717842
19	0xbd094939	-0.033517096
20	0xbd7131c0	-0.058885336
21	0x3cdf112e	0.027229872
22	0x3d6f228b	0.058382552
23	0x3d40c99f	0.04706728
24	0x3d7dc0fb	0.06195162
25	0x3d795724	0.06087412
26	0xbe5f15fd	-0.21785732
27	0xbe25ae36	-0.16179737
28	0x3d1d0df9	0.038343403
29	0xbb0d05a8	-0.0021518264
30	0xbd8f0a52	-0.0698439
31	0xbdfa63e3	-0.12226083
32	0x3d1e5b02	0.03866101
33	0x3d0ee907	0.0348902
34	0x3c8cb260	0.0171749
35	0x3e206d59	0.15666713
36	0xbca899da	-0.020581175
37	0x3aada15c	0.0013246941
38	0xbd9d8cbb	-0.07692858
39	0xbd88a1cc	-0.06671485
40	0xbdd1580b	-0.10221871
41	0xbdea93c7	-0.114539675
42	0xbd2811e7	-0.041032698
43	0xbd48847a	-0.048954464
44	0x3d1d4acf	0.03840142
45	0xbcc73538	-0.024317369
46	0xbdfeb50a	-0.12436874
47	0xbdeb695d	-0.11494706
48	0x3dc52fd9	0.09628267
49	0xbd171e6b	-0.036894243
50	0x3de36a77	0.11104291
51	0xbd1a7c8c	-0.037716433
52	0xbd66841b	-0.05627833
53	0x3c8fa5e1	0.017535152
54	0xbd01843c	-0.03162025
55	0xbdfc37c4	-0.12315324
56	0x3dfcf72b	0.12351831
57	0x3d8359f6	0.06413643
58	0x3d6a9b86	0.057277225
59	0xbde99c72	-0.11406793
60	0x3c23447b	0.0099650575
61	0x3cf2fc8c	0.02966144
62	0x3ce92a05	0.02846242
63	0xbc8e2c1a	-0.017355014
64	0x3d4db55e	0.050221793
65	0x3ddc2458	0.107491195
66	0x3a1ea994	0.0006052491
67	0x3e2e6037	0.1702889
68	0xbda20be9	-0.07912428
69	0x3dcd3722	0.100202814
70	0x3e38ec5d	0.18058915
71	0xbce977b1	-0.028499456
72	0xbe24f1a7	-0.16107808
73	0x3c35600a	0.011070261
74	0x3d1e9152	0.038712807
75	0xbbb6e0a9	-0.005580981
76	0xbdfe90b6	-0.12429945
77	0x3e4825ad	0.19545622
78	0xbc82d0c4	-0.015968688
79	0x3bf95e0c	0.007610088
80	0xbd334c60	-0.04377401
81	0xbd6a6d49	-0.05723313
82	0x3d8ef119	0.069795795
83	0xbca05df9	-0.01957606
84	0x3cae9acc	0.021314047
85	0xbde816c3	-0.113324665
86	0x3c9d4763	0.019199079
87	0xbd6292dd	-0.05531584
88	0x3da25c8a	0.07927807
89	0x3d96d1ff	0.07364272
90	0xbdb865b8	-0.09003776
91	0xbd8bda29	-0.0682872
92	0xbd6ff801	-0.058586124
93	0x3cf214b7	0.029550893
94	0x3e5cf652	0.21578339
95	0xbd4dfa3f	-0.05028748
96	0x3cc5aa36	0.024129014
97	0x3ca4a18b	0.020096561
98	0xbe16fa37	-0.14743887
99	0x3e1d6d44	0.15373713
100	0x3e2a6bc9	0.1664268
101	0x3d3398d7	0.04384693
102	0x3dfb1678	0.12260145
103	0x3ba37d10	0.004989274
104	0xbcb454dc	-0.02201312
105	0xbc8f9ac0	-0.017529845
106	0x3da0451a	0.0782568
107	0xbd827986	-0.06370835
108	0x3d38e5e3	0.045141112
109	0xbe254906	-0.16141137
110	0x3d4faeda	0.05070386
111	0xbd2f2757	-0.042762127
112	0xbda8171d	-0.082075335
113	0x3c91dc0c	0.017805122
114	0x3d6e07f1	0.058113042
115	0xbcea3f05	-0.028594503
116	0xbe056c2c	-0.13029546
117	0x3da4ba75	0.08043376
118	0x3cef47e8	0.029209092
119	0x3d8156ac	0.063153595
120	0xbcc69bde	-0.024244245
121	0xbe44b99e	-0.19211432
122	0xbd9a42f7	-0.07532304
123	0xbd0c20c6	-0.034210943
124	0x3d9b39e7	0.07579403
125	0x3dab099f	0.083514445
126	0xbdba9bf9	-0.09111781
127	0xbe04ec3d	-0.12980743
128	0xbd43bd9d	-0.04778825
129	0x3da3249d	0.07965968
130	0x3dbe641a	0.092964366
131	0x3e4316e0	0.19051695
132	0x3cc4a7b0	0.02400574
133	0xbdbf87f4	-0.09352103
134	0x3e6db6ec	0.2321431
135	0x3dd5ca39	0.104389615
136	0xbddc6253	-0.10760941
137	0x3e6d7cbf	0.23192118
138	0x3e1c7f31	0.15282895
139	0xbc4c29f2	-0.012461172
140	0x3c6beffc	0.014400478
141	0xbd3424a0	-0.04398024
142	0x3e754049	0.23950304
143	0x3dd0b56a	0.10190852
144	0xbcc6d429	-0.024271088
145	0x3d82450b	0.06360825
146	0xbd6f88ef	-0.0584802
147	0xbdef8228	-0.11694747
148	0x3cebf5fa	0.028803814
149	0xbca7f943	-0.0205046
150	0xbd92a9d3	-0.07161298
151	0x3cad9bce	0.021192458
152	0xbc0163b4	-0.007897306
153	0x3de2e9c4	0.110797435
154	0x3d195eeb	0.037444036
155	0xbdaae670	-0.08344734
156	0x3d11de74	0.03561254
157	0x3d0c1bd5	0.03420623
158	0x3d01528c	0.031572863
159	0xbca17b52	-0.019712124
160	0x3a8e6459	0.0010863646
161	0xbd705f7f	-0.058684822
162	0xbcb6b164	-0.022301383
163	0xbe2517e9	-0.16122402
164	0xbdc3082c	-0.09523043
165	0xbd87525e	-0.06607507
166	0xbe53c94e	-0.2068226
167	0x3e60abd2	0.21940544
168	0x3d5eac6f	0.054363664
169	0x3db0ff48	0.08642441
170	0x3def3386	0.11679749
171	0xbd8cb419	-0.068702884
172	0x3d24221a	0.040071584
173	0xbc853f7b	-0.016265621
174	0x3d839c88	0.0642634
175	0xbe1bc96b	-0.15213554
176	0x3e0bdec2	0.13659194
177	0x3d930ad1	0.071797974
178	0x3d77c20f	0.060487803
179	0x3d2c3364	0.042041197
180	0x3dc9fe08	0.09862906
181	0xbd0ea80a	-0.034828223
182	0xbd8af986	-0.06785874
183	0x3d877fed	0.06616197
184	0xbde88b90	-0.113547444
185	0x3cd4d8de	0.025982317
186	0x3d958ce5	0.07302264
187	0x3dc8e097	0.09808462
188	0xbdabefa3	-0.083953165
189	0xbd1e17c4	-0.038596883
190	0xbd2a62c9	-0.041598115
191	0x3e118d19	0.1421398
192	0xbcf338a8	-0.029690102
193	0x3d845c3c	0.06462905
194	0xbc9ea45a	-0.019365478
195	0x3c709011	0.014682786
196	0xbc57706f	-0.013149365
197	0x3d163ebe	0.03668093
198	0xbd52ea82	-0.051493175
199	0x3d8ef28d	0.06979857
200	0xbe32d7bc	-0.17465109
201	0x3de004e4	0.10938433
202	0x3d838df2	0.06423558
203	0xbdd89f78	-0.10577291
204	0xbdbd87e7	-0.09254437
205	0xbd20b708	-0.039237052
206	0x3d1a51b1	0.037675563
207	0x3d8ff6fe	0.07029532
208	0x3df3c1aa	0.11902173
209	0x3d87736e	0.06613813
210	0x3c8dbc01	0.017301561
211	0x3e10909b	0.14117663
212	0xbdce734f	-0.10080587
213	0x3e0ea9a4	0.139319
214	0xbcf6ef58	-0.030143425
215	0x3d897add	0.067128874
216	0x3e2cf1bd	0.16889091
217	0x3de2f15f	0.11081194
218	0x3d3256ca	0.0435398
219	0x3d0f9f77	0.035064187
220	0x3d31a94e	0.043374352
221	0x3d6a94bc	0.05727075
222	0xbda2509b	-0.079255305
223	0x3da8e0cc	0.082460016
224	0xbc263611	-0.010144726
225	0xbd18cd11	-0.03730494
226	0x3e559fd0	0.20861745
227	0x3c6c1dfd	0.014411447
228	0x3cba9344	0.0227753
229	0x3d9d5dc3	0.07683899
230	0xbe32e7e8	-0.17471278
231	0x3c669119	0.01407268
232	0xbe36bec9	-0.17846216
233	0x3d804e18	0.06264895
234	0x3d7b29d9	0.061319206
235	0xbd986e8f	-0.074429624
236	0x3d946803	0.07246401
237	0x3da1f477	0.07907956
238	0xbdc9cb0a	-0.0985318
239	0x3c1389c6	0.009005016
240	0x3e30b2ae	0.17255661
241	0x3d3ad13a	0.04560969
242	0x3d6a8d2e	0.057263546
243	0xbe25afe2	-0.16180375
244	0x3e63e4c4	0.22255236
245	0xbd3c5f6d	-0.045989443
246	0x3e04fe8a	0.12987724
247	0x3d0512ea	0.03248874
248	0x3db03112	0.086031094
249	0x3e05bd26	0.13060436
250	0x3e1c2c4c	0.15251273
251	0xbd5a2ec2	-0.053267248
252	0x39479cdf	0.00019036558
253	0xbd9e81c1	-0.07739592
254	0x3e382927	0.17984448
255	0xbdc5c779	-0.09657187

network_body._body_endoder.seq_layers.2.bias f4 [128]
0	0x00000000	0.0
1	0x00000000	0.0
2	0x00000000	0.0
3	0x00000000	0.0
4	0x00000000	0.0
5	0x00000000	0.0
6	0x00000000	0.0
7	0x00000000	0.0
8	0x00000000	0.0
9	0x00000000	0.0
10	0x00000000	0.0
11	0x00000000	0.0
12	0x00000000	0.0
13	0x00000000	0.0
14	0x00000000	0.0
15	0x00000000	0.0
16	0x00000000	0.0
17	0x00000000	0.0
18	0x00000000	0.0
19	0x00000000	0.0
20	0x00000000	0.0
21	0x00000000	0.0
22	0x00000000	0.0
23	0x00000000	0.0
24	0x00000000	0.0
25	0x00000000	0.0
26	0x00000000	0.0
27	0x00000000	0.0
28	0x00000000	0.0
29	0x00000000	0.0
30	0x00000000	0.0
31	0x00000000	0.0
32	0x00000000	0.0
33	0x00000000	0.0
34	0x00000000	0.0
35	0x00000000	0.0
36	0x00000000	0.0
37	0x00000000	0.0
38	0x00000000	0.0
39	0x00000000	0.0
40	0x00000000	0.0
41	0x00000000	0.0
42	0x00000000	0.0
43	0x00000000	0.0
44	0x00000000	0.0
45	0x00000000	0.0
46	0x00000000	0.0
47	0x00000000	0.0
48	0x00000000	0.0
49	0x00000000	0.0
50	0x00000000	0.0
51	0x00000000	0.0
52	0x00000000	0.0
53	0x00000000	0.0
54	0x00000000	0.0
55	0x00000000	0.0
56	0x00000000	0.0
57	0x00000000	0.0
58	0x00000000	0.0
59	0x00000000	0.0
60	0x00000000	0.0
61	0x00000000	0.0
62	0x00000000	0.0
63	0x00000000	0.0
64	0x00000000	0.0
65	0x00000000	0.0
66	0x00000000	0.0
67	0x00000000	0.0
68	0x00000000	0.0
69	0x00000000	0.0
70	0x00000000	0.0
71	0x00000000	0.0
72	0x00000000	0.0
73	0x00000000	0.0
74	0x00000000	0.0
75	0x00000000	0.0
76	0x00000000	0.0
77	0x00000000	0.0
78	0x00000000	0.0
79	0x00000000	0.0
80	0x00000000	0.0
81	0x00000000	0.0
82	0x00000000	0.0
83	0x00000000	0.0
84	0x00000000	0.0
85	0x00000000	0.0
86	0x00000000	0.0
87	0x00000000	0.0
88	0x00000000	0.0
89	0x00000000	0.0
90	0x00000000	0.0
91	0x00000000	0.0
92	0x00000000	0.0
93	0x00000000	0.0
94	0x00000000	0.0
95	0x00000000	0.0
96	0x00000000	0.0
97	0x00000000	0.0
98	0x00000000	0.0
99	0x00000000	0.0
100	0x00000000	0.0
101	0x00000000	0.0
102	0x00000000	0.0
103	0x00000000	0.0
104	0x00000000	0.0
105	0x00000000	0.0
106	0x00000000	0.0
107	0x00000000	0.0
108	0x00000000	0.0
109	0x00000000	0.0
110	0x00000000	0.0
111	0x00000000	0.0
112	0x00000000	0.0
113	0x00000000	0.0
114	0x00000000	0.0
115	0x00000000	0.0
116	0x00000000	0.0
117	0x00000000	0.0
118	0x00000000	0.0
119	0x00000000	0.0
120	0x00000000	0.0
121	0x00000000	0.0
122	0x00000000	0.0
123	0x00000000	0.0
124	0x00000000	0.0
125	0x00000000	0.0
126	0x00000000	0.0
127	0x00000000	0.0

action_model._discrete_distribution.branches.0.weight f4 [3, 128]
0	0xbb68c9d7	-0.0035520697
1	0x3c8d3cf9	0.017240988
2	0x3c060645	0.008180206
3	0x3c8f8389	0.017518776
4	0xbb5e99b5	-0.0033966128
5	0xbb57371f	-0.0032839251
6	0x3c3bd5d9	0.0114645595
7	0xbc4a2342	-0.012337508
8	0x3b102b4d	0.0021998466
9	0xbc2e6d13	-0.0106461225
10	0x3c4abf74	0.012374748
11	0xbc23cba5	-0.009997283
12	0xbceb6c27	-0.028738094
13	0xbc5339b3	-0.012892175
14	0xbb7097b2	-0.0036711511
15	0xbc0ee817	-0.008722327
16	0x3b45d874	0.003018883
17	0x3b94d300	0.0045417547
18	0x3bae31c1	0.0053159897
19	0xbcb1a4a0	-0.021684945
20	0xbb369aa9	-0.002786318
21	0x3b1ca7cd	0.0023903728
22	0x3b6bf088	0.0036001522
23	0xbc5a4fd5	-0.0133246975
24	0x3b192387	0.0023367123
25	0xbbd15a60	-0.0063889474
26	0xbb9a827a	-0.004715261
27	0x3bbfe6b7	0.005856361
28	0x3cad8407	0.02118112
29	0x3b7c6c08	0.003851654
30	0xbbcfba0b	-0.0063393167
31	0x3c59dcea	0.013297299
32	0x3c024297	0.007950447
33	0x3baf0ecb	0.0053423396
34	0xbbad28ec	-0.0052844193
35	0xbc2c6883	-0.010522964
36	0xbbbce8a2	-0.0057650367
37	0xbc694100	-0.014236689
38	0x3b677143	0.0035315312
39	0x3b826e73	0.0039804517
40	0xbb8dec16	-0.004331122
41	0xbbaf97a6	-0.005358654
42	0xbc02b96a	-0.0079787765
43	0x39a9f2fa	0.00032415224
44	0xbb831fbd	-0.004001586
45	0xbb8130f1	-0.003942602
46	0x3c44c24b	0.012009214
47	0xbc37626c	-0.011192899
48	0xbb4d904a	-0.003136652
49	0xbb5ee1a2	-0.0034009
50	0xbc82f221	-0.015984597
51	0x3c0c7173	0.00857197
52	0x3bc2204b	0.00592426
53	0xbb053681	-0.0020326676
54	0x3b896436	0.0041928543
55	0xbba835e3	-0.005133377
56	0xbb90c3fe	-0.0044178953
57	0xbb6ac8ef	-0.0035825332
58	0xbb822d79	-0.003972706
59	0xbc0e597e	-0.008688329
60	0xbc7fc707	-0.015611417
61	0x3bae71a9	0.005323608
62	0xbb3f82f6	-0.0029222346
63	0x3beebc88	0.0072856583
64	0x3b47f0e0	0.0030508563
65	0xbc1ab7e9	-0.009443262
66	0x3b8b57de	0.004252418
67	0x3ba46f24	0.005018132
68	0xbc50a52a	-0.012734691
69	0xbc2b0ec6	-0.010440534
70	0x3ca82a44	0.020527966
71	0x3b64e4b5	0.003492636
72	0x3bfb90d0	0.007677175
73	0x3c4718d5	0.0121519165
74	0xb9800741	-0.00024419467
75	0xbc84c6a8	-0.016208008
76	0xbb51697a	-0.0031953738
77	0xba04fe6b	-0.00050733116
78	0xbbd1e9f2	-0.0064060623
79	0x3ad9fec5	0.0016631713
80	0xb9c64217	-0.00037814744
81	0x3b880335	0.004150773
82	0x3a9fb097	0.0012183365
83	0xbc292723	-0.010324272
84	0xbbcbddc7	-0.0062215063
85	0xbc0823d7	-0.008309326
86	0x3c761f2a	0.0150220785
87	0xbbe599c8	-0.0070068575
88	0x3beb158d	0.0071742
89	0x3bbf824f	0.0058443914
90	0xba0646cd	-0.00051222445
91	0x3b8f3b68	0.0043710954
92	0xba28d3fd	-0.000644028
93	0x3c3c5a96	0.011496207
94	0x3bf1284a	0.007359539
95	0x3c544c97	0.012957714
96	0x3b92cf50	0.00448028
97	0xbc4be7d2	-0.012445407
98	0xbbab5de5	-0.005229699
99	0xbb27f81d	-0.0025630065
100	0xbac729ee	-0.0015194991
101	0x3bc593db	0.0060295886
102	0xbbbc7228	-0.005750913
103	0x3b4e7dc5	0.003150807
104	0xbc48399f	-0.012220769
105	0x3ae40cc2	0.0017398822
106	0xbc83436b	-0.016023358
107	0xbc96b60a	-0.01839735
108	0xbc6c3e2f	-0.014419123
109	0xbb6469c7	-0.0034853087
110	0xbba44177	-0.005012687
111	0xbb957d34	-0.0045620445
112	0x3a56600d	0.0008177765
113	0xbc81d1eb	-0.015847167
114	0xbb00c7b3	-0.001965028
115	0xbc0ce475	-0.00859939
116	0xbc8c590a	-0.0171323
117	0x3ba6f2d2	0.0050948644
118	0x3bf0fd13	0.0073543875
119	0x3bd45570	0.0064799115
120	0x3c2a1edf	0.010383337
121	0xba8d4998	-0.0010779379
122	0x3ab151e4	0.0013528434
123	0xbb9efd4b	-0.004851972
124	0x3c1990fc	0.009372946
125	0x3c27be3b	0.010238226
126	0xbc0fb345	-0.0087707685
127	0x3c528b2a	0.012850562
128	0xbb1831c7	-0.002322303
129	0x3b70eca0	0.0036762133
130	0x3aa059ca	0.001223379
131	0xbc2d8b6d	-0.010592324
132	0xbb8aa6c0	-0.004231304
133	0x3c16b0b7	0.009197406
134	0xbb6248bf	-0.0034528223
135	0x3adae738	0.0016700989
136	0x3a97e361	0.001158815
137	0xbc2b9bd4	-0.010474164
138	0xbba86ffa	-0.005140302
139	0xbb6d07bf	-0.0036167947
140	0x38866437	6.4082844e-05
141	0x3be7fd5b	0.007079763
142	0xbaecaf6f	-0.0018057654
143	0x3cae00f7	0.021240694
144	0x3b77119b	0.0037699703
145	0x3c6afe72	0.014342891
146	0xbcae0b83	-0.021245724
147	0xbad6bd05	-0.0016383237
148	0x3a7e2ad3	0.00096957124
149	0x3c6a761a	0.014310384
150	0x3baf54fe	0.005350708
151	0xbb917da0	-0.0044400245
152	0xbb305581	-0.0026906433
153	0xbc5d2ea2	-0.013499888
154	0x3c697ca5	0.014250909
155	0x3bb4fa37	0.005522992
156	0x3b21771b	0.0024637643
157	0xb9fe845a	-0.00048545265
158	0xbc376043	-0.011192384
159	0x3bb7101b	0.0055866367
160	0xbc5b8985	-0.013399486
161	0x3bd128da	0.0063830437
162	0xbac4a460	-0.0015002601
163	0xbad8b738	-0.0016534096
164	0xbbaab03f	-0.0052089985
165	0xbc1be116	-0.009514114
166	0xbc14f26f	-0.009091004
167	0x3ae81428	0.0017706202
168	0xbc31b4bf	-0.010846316
169	0xbc10d9b3	-0.008840966
170	0xbc169875	-0.009191622
171	0x3c1297af	0.008947297
172	0xbb410b59	-0.0029456227
173	0x3bd13797	0.0063848007
174	0xbbbf2cdd	-0.0058342055
175	0xbbad941a	-0.005297196
176	0xbbb92df3	-0.0056512295
177	0x3bd843b3	0.0065998673
178	0x3ba290e8	0.004961122
179	0x3c0cda02	0.008596899
180	0x3b0b6d73	0.0021274954
181	0x3bcecef3	0.0063112914
182	0xbb4e7c23	-0.0031507097
183	0xbc54b55a	-0.012982691
184	0xbaad183f	-0.0013206078
185	0xbb9cbfba	-0.004783598
186	0x3c9a34b3	0.018823957
187	0x3c8043e9	0.015657382
188	0xbc800d7b	-0.015631428
189	0xbbf308d7	-0.0074168253
190	0x3bc1bd81	0.005912483
191	0x3c68a9ff	0.0142006865
192	0xbc4f6b90	-0.012659922
193	0xbc290cb0	-0.010317966
194	0xbc8217df	-0.015880523
195	0xbb8f019f	-0.004364207
196	0x3bc23def	0.005927793
197	0xbc6309b8	-0.013857298
198	0x3c4c165e	0.012456505
199	0xb98e95eb	-0.00027196048
200	0xbc45dc98	-0.012076519
201	0xb9c5c09b	-0.0003771827
202	0x3c930bbf	0.017949937
203	0xbc8d2dcb	-0.01723375
204	0xba38ecc1	-0.0007054322
205	0xbbbb9488	-0.0057244934
206	0xbbe7f823	-0.0070791407
207	0x3ca65d1e	0.020308074
208	0x3b198d8c	0.0023430316
209	0x3c11720d	0.0088772895
210	0xbbd2a2e7	-0.006428111
211	0xbc86887b	-0.0164225
212	0x3b04d92a	0.0020271041
213	0x3c6b02b3	0.014343905
214	0x3b2fd05e	0.0026827077
215	0xba26fb00	-0.00063697994
216	0xbbe86885	-0.007092538
217	0x3c5396ff	0.012914418
218	0x3bdb4725	0.0066918307
219	0x3c0df5ef	0.008664592
220	0x3b8a546b	0.004221489
221	0x3b511c8d	0.0031907887
222	0x3c3694d0	0.011143878
223	0x3c440e0f	0.011966242
224	0xbc241bfd	-0.010016439
225	0xbc7332d7	-0.014843664
226	0x3a768cff	0.00094051653
227	0xbc5ff37f	-0.013668894
228	0xb96253b7	-0.00021584226
229	0x3c4b0cf3	0.012393224
230	0x39fea59d	0.00048570047
231	0xbc9791fc	-0.018502228
232	0xbc17b9cf	-0.009260609
233	0xbbbffec0	-0.005859226
234	0x3a788b77	0.0009481231
235	0x3b418570	0.0029528998
236	0x3aec20a7	0.0018015102
237	0x3bf2e273	0.0074122488
238	0xbbb40914	-0.0054942463
239	0x3c915af1	0.01774356
240	0x3b060947	0.0020452307
241	0x3c5a1443	0.013310495
242	0x3c695b2a	0.014242927
243	0xbb98f91f	-0.0046683694
244	0x3ad1a795	0.0015995378
245	0xbbdf389a	-0.0068121674
246	0x3c03b7dc	0.008039441
247	0xbb6e65e7	-0.0036376656
248	0x3c4ebfdd	0.012618986
249	0xbbf06922	-0.0073367516
250	0xbc5d6f3d	-0.013515291
251	0xbb9a43fc	-0.0047078114
252	0xbb177233	-0.002310884
253	0xbb64a380	-0.0034887493
254	0xbc5258fa	-0.0128385965
255	0x3c19d6ad	0.009389562

action_model._discrete_distribution.branches.0.bias f4 [3]
0	0x00000000	0.0
1	0x00000000	0.0
2	0x00000000	0.0

action_model._discrete_distribution.branches.1.weight f4 [3, 128]
0	0xbb31f9a3	-0.0027156852
1	0x3abd9de0	0.0014466606
2	0xba553a4d	-0.00081339927
3	0x3b165177	0.002293674
4	0x3c1e3d5b	0.009658183
5	0x3a85722b	0.001018112
6	0xbb50df55	-0.0031871398
7	0xbc58f195	-0.013241191
8	0xb9fb486a	-0.00047928403
9	0x3ce05a82	0.027386907
10	0x3b6f99db	0.003656021
11	0xbc4b9f8b	-0.012428175
12	0xbb00deb9	-0.0019664003
13	0xbc866550	-0.016405731
14	0xb81dc4cb	-3.7614995e-05
15	0x3bb276ca	0.0054462897
16	0x3c8724eb	0.016497096
17	0x3b60f400	0.0034325123
18	0x3b33d2c0	0.002743885
19	0xbc3a1a94	-0.011358876
20	0x3b2c2caf	0.002627175
21	0xbcc60e08	-0.024176612
22	0x3c2b9e17	0.010474703
23	0x3bf91cd5	0.007602314
24	0x3b95b333	0.0045684814
25	0xbb51c42b	-0.0032007794
26	0xbc87a801	-0.016559603
27	0xb923d66e	-0.00015624773
28	0xbb441f7f	-0.0029926
29	0xbb4b176b	-0.00309893
30	0x3c901887	0.01758982
31	0x3c8d5e8a	0.017256994
32	0xbc594520	-0.01326111
33	0xbaf6e383	-0.0018836114
34	0xba3ac006	-0.00071239506
35	0x3b3a64bb	0.0028441388
36	0x3c44ed4f	0.012019469
37	0x3bb8a165	0.005634474
38	0x3b9a766b	0.0047138236
39	0xbb6b54e0	-0.0035908744
40	0x3b4da5cf	0.0031379347
41	0x3b9b169f	0.0047329213
42	0x3bf8e297	0.007595371
43	0xbbe1e2ff	-0.006893515
44	0x3c24fd9b	0.01007023
45	0x3c611220	0.0137372315
46	0x3c14ac48	0.009074278
47	0xbbcdb665	-0.0062778466
48	0x3acb74fa	0.0015522533
49	0xbc032629	-0.008004704
50	0x3c7ee1b5	0.015556742
51	0xb981f2ce	-0.000247857
52	0x3b94a32e	0.004536054
53	0x3c5319c0	0.012884557
54	0xbad58f9b	-0.0016293408
55	0x3b20abef	0.0024516543
56	0xbc0d4ede	-0.00862476
57	0xbc512ddd	-0.012767282
58	0xbc20ec89	-0.009822019
59	0x3abb4b96	0.0014289494
60	0x3a824f1b	0.0009941788
61	0xbc10a020	-0.008827239
62	0xbb117d02	-0.0022199755
63	0xb675fff5	-3.6656832e-06
64	0x3a6687e2	0.0008794052
65	0xbc4b21fa	-0.012398237
66	0x3bd97a8b	0.0066369227
67	0xbb98f3b2	-0.0046677226
68	0xbbf556cb	-0.007487153
69	0xbca410b0	-0.020027488
70	0xbbca341b	-0.0061707622
71	0xbb8d3cc1	-0.004310221
72	0xbc733ab0	-0.014845535
73	0x3b1fc3bf	0.0024378148
74	0x3bb6a06b	0.0055733225
75	0x3c6cfe20	0.014464885
76	0xbb7897af	-0.0037932207
77	0x3b3aed2f	0.002852272
78	0xbb2c4bdf	-0.002629034
79	0xbc38ea32	-0.011286305
80	0x3b6f08d0	0.0036473759
81	0xbbf4f2eb	-0.007475247
82	0x3c1c1430	0.009526297
83	0x3a21ebc7	0.0006176796
84	0x3c5480cb	0.01297016
85	0xbb8d7dac	-0.00431796
86	0xbb564655	-0.003269573
87	0x3c65f1a7	0.014034665
88	0xbb948ce9	-0.0045333994
89	0x3c6c50ab	0.01442353
90	0xbba3da11	-0.005000361
91	0xbb845b5b	-0.0040392107
92	0x3acc5112	0.0015588126
93	0xbc2f4840	-0.010698378
94	0x3a9ca2f1	0.0011950416
95	0x3b85055f	0.004059478
96	0x3b88d18e	0.0041753715
97	0xbc9e6136	-0.019333463
98	0x3bcd81b3	0.006271565
99	0xbc0fb649	-0.0087714875
100	0x3be695bf	0.007036894
101	0x3c82818b	0.015930912
102	0xbaf3b918	-0.0018594591
103	0x3c1f85df	0.009736507
104	0xbacbc0ca	-0.0015545127
105	0xbbb1b6bf	-0.0054233964
106	0xbabbe596	-0.001433539
107	0xbc1ff35a	-0.009762609
108	0x3c9c9940	0.019116044
109	0xbbb7c706	-0.0056084422
110	0x3843c2f3	4.6673184e-05
111	0x3c388ba8	0.011263765
112	0x3bf1626a	0.007366468
113	0x3b3de4c8	0.0028975476
114	0xbc47e006	-0.012199407
115	0x3b90947a	0.004412231
116	0x3baf40b5	0.00534829
117	0xbb480ce7	-0.0030525269
118	0x3bd2686f	0.006421141
119	0x3c0fbaa9	0.008772531
120	0x3be736a7	0.0070560756
121	0xbc2815c1	-0.010259093
122	0x3b4d18a0	0.0031295195
123	0xbbf4ed13	-0.0074745505
124	0x3c0cb217	0.008587382
125	0x3a575817	0.00082147255
126	0xbb0f5f24	-0.0021876777
127	0xbc2b119e	-0.010441212
128	0xbada9df8	-0.0016679158
129	0xb9fafb92	-0.0004787115
130	0xbc6dda6d	-0.014517409
131	0xbbabb9ef	-0.005240671
132	0x3b294aaf	0.0025831868
133	0x3add8f17	0.0016903606
134	0x3c79ca32	0.015245961
135	0xbc620112	-0.0137942005
136	0x3837cb56	4.381997e-05
137	0xbc1d20ad	-0.00959031
138	0xbb920923	-0.0044566556
139	0xbca526d4	-0.020160116
140	0x3ba2521e	0.004953637
141	0xbc852898	-0.016254708
142	0x3c6fa1ca	0.014625976
143	0x3a75f84f	0.0009383009
144	0x3c322d43	0.010875049
145	0x3be0b19a	0.0068571093
146	0xbbf9dea5	-0.0076254182
147	0x3c1c47d5	0.0095386105
148	0x3c2801ac	0.010254305
149	0x3b8e8f37	0.0043505686
150	0x3bc8b10a	0.0061246203
151	0xbb595be3	-0.003316634
152	0xbaffb5ed	-0.0019509174
153	0x3c25f44c	0.010129046
154	0xbb9f9a56	-0.004870693
155	0x3c0d6e33	0.008632231
156	0xbbe4c4a5	-0.0069814497
157	0x3a1d4c95	0.00060004863
158	0xbc806249	-0.015671866
159	0xbc86fc19	-0.016477631
160	0xb9817262	-0.0002469002
161	0x3ba2cd3c	0.0049683135
162	0xba2c5157	-0.00065734
163	0xba1ab8f4	-0.0005902194
164	0xbb38b054	-0.0028181272
165	0xbb8b9bb5	-0.004260505
166	0xbc20cdc3	-0.009814682
167	0xb901af42	-0.00012367687
168	0x3bc00d31	0.0058609475
169	0xbc81b9c9	-0.01583566
170	0x3c3184df	0.010834902
171	0xbc8603a7	-0.016359163
172	0xbc0feb73	-0.008784163
173	0x3c5300aa	0.012878576
174	0xbbd499a8	-0.006488044
175	0x3be6cf38	0.0070437454
176	0xbba5e1ab	-0.005062302
177	0xbaf7f230	-0.0018916782
178	0xbb8acce0	-0.004235849
179	0xbb4d689f	-0.0031342877
180	0xbb3caa39	-0.0028787984
181	0x3c278e01	0.010226727
182	0xbbbbfef0	-0.005737178
183	0x3b40a2ff	0.0029394028
184	0xbc23764a	-0.009976933
185	0x3c537953	0.012907344
186	0xbb5013e7	-0.0031750144
187	0xbb8b0932	-0.0042430395
188	0x3b7acdd5	0.0038269658
189	0xbbce2a23	-0.006291644
190	0xbc002e87	-0.007823593
191	0x3984fe86	0.00025366637
192	0x399e7bb3	0.00030228271
193	0x3bb0e1c7	0.0053980085
194	0xbc926042	-0.017868165
195	0x3c92e744	0.017932542
196	0xbaa1004e	-0.0012283416
197	0xbaccd09f	-0.0015626139
198	0x3bf17178	0.007368263
199	0x3be52188	0.0069925226
200	0xbc951870	-0.01820013
201	0xbc1d35df	-0.009595363
202	0x3c5af5e8	0.013364293
203	0x3b1e3f27	0.0024146528
204	0x3ba0f119	0.0049115536
205	0x3b84106b	0.0040302775
206	0xbb4e7bca	-0.003150689
207	0x3b066aa8	0.002051035
208	0x3bf019b5	0.0073272833
209	0xbb656478	-0.003500251
210	0x3baff0d8	0.005369287
211	0xba499dc7	-0.0007691052
212	0xbb59c18f	-0.0033226942
213	0x3b3e4933	0.002903533
214	0x3c5a076b	0.013307433
215	0xbc02484e	-0.007951809
216	0x3aa60925	0.001266752
217	0x3b529f7a	0.0032138512
218	0x3a958562	0.0011407549
219	0x3a35d8ce	0.00069369085
220	0x3c1ef914	0.00970294
221	0x3bc0f16b	0.0058881543
222	0xbaea645d	-0.0017882694
223	0x3c13c070	0.009018049
224	0x3c565895	0.013082643
225	0xba5891b0	-0.0008261455
226	0x3c467e97	0.012115142
227	0x3c58a598	0.013223074
228	0x3bbfcb96	0.0058531268
229	0xbbea83e2	-0.007156835
230	0xbbc232c5	-0.0059264624
231	0xbb975af7	-0.004618998
232	0x3ba78d61	0.005113289
233	0xbbe83eef	-0.0070875804
234	0xbc0db231	-0.008648441
235	0xbb8a3d11	-0.0042187055
236	0xbbac543e	-0.005259066
237	0xb9e50b1f	-0.0004368657
238	0xba1381ac	-0.00056269276
239	0xbc8bdf98	-0.017074391
240	0xbb86c5bf	-0.0041129286
241	0x3a94f5af	0.0011364723
242	0x3b74aeef	0.0037335714
243	0x3c0e517f	0.008686422
244	0x3bbf16a2	0.0058315555
245	0x3b46bcca	0.003032493
246	0x3994164c	0.00028245372
247	0xbb7dd6d8	-0.0038732793
248	0xbba9ba4a	-0.005179678
249	0xbc875a3e	-0.016522523
250	0xbc5bc598	-0.013413809
251	0x38328dff	4.257075e-05
252	0xba947232	-0.0011325537
253	0xbb41d51b	-0.0029576484
254	0x3b6af61f	0.0035852266
255	0xbccced43	-0.025015479

action_model._discrete_distribution.branches.1.bias f4 [3]
0	0x00000000	0.0
1	0x00000000	0.0
2	0x00000000	0.0

network_body._body_endoder.seq_layers.0.weight f4 [128, 45]
0	0x3bb93392	0.0056518996
1	0x371d7cd3	9.386992e-06
2	0xbded126a	-0.11575778
3	0xbe342227	-0.17591153
4	0x3ba5f8f9	0.0050650802
5	0xbd7455da	-0.059652187
6	0xbdc7fd18	-0.09765071
7	0xbd205b2d	-0.039149452
8	0x3bd738b9	0.006568041
9	0x3e27c3f2	0.16383341
10	0xbe23cccf	-0.15996097
11	0xbc91dd4d	-0.01780572
12	0xbd7f78eb	-0.062371176
13	0xbe6d5bf4	-0.23179609
14	0xbe671b01	-0.22568895
15	0x3bc6765f	0.0060565914
16	0xbdcaa965	-0.09895591
17	0xbdd9f108	-0.10641676
18	0x3e931687	0.28728124
19	0x3e61980a	0.22030655
20	0xbe27cd7d	-0.16386981
21	0x3d846075	0.0646371
22	0xbe83cd37	-0.25742504
23	0xbe2f5f2d	-0.1712615
24	0xbd80bf69	-0.062865086
25	0x3e0f5c78	0.14000118
26	0x3dc099a3	0.09404304
27	0xbd7640e2	-0.06012047
28	0xbbe1da47	-0.0068924758
29	0x3d9187e6	0.07105999
30	0xbdacc601	-0.08436204
31	0x3cc36e62	0.023856346
32	0xbdb85f6c	-0.09002575
33	0x3cc255f7	0.023722632
34	0xbd13004c	-0.035888955
35	0xbc32cf38	-0.010913663
36	0x3a257ef4	0.0006313168
37	0x3e12b8af	0.14328264
38	0x3cc14664	0.023593135
39	0x3e1e23ee	0.15443394
40	0xbdea2323	-0.11432483
41	0x3dd12ccc	0.102136225
42	0xbdd5b7bb	-0.104354344
43	0x3d6a9770	0.05727333
44	0x3e45e9d1	0.19327475
45	0x3d45eaa9	0.048319492
46	0xbd3260b7	-0.043549266
47	0x3e824df8	0.2545011
48	0xbd865253	-0.06558671
49	0xbe954a7f	-0.29158399
50	0xbe21e060	-0.15808249
51	0xbe8fca1d	-0.28083888
52	0x3e011056	0.12603888
53	0xbe2aa9f0	-0.16666389
54	0x3e30b211	0.17255427
55	0x3e68aecd	0.22722931
56	0x3e858361	0.26076797
57	0x3cbdce35	0.023169616
58	0xbe115006	-0.14190683
59	0x3e0f34fd	0.13985057
60	0xbd588eb3	-0.052870464
61	0x3e22e551	0.1590779
62	0xbd02c5ef	-0.031927045
63	0x3e55611a	0.20837823
64	0x3bd041a2	0.0063554803
65	0x3e43df85	0.19128235
66	0xbcb7a673	-0.022418236
67	0x3e0e615e	0.1390433
68	0x3b9d6de1	0.0048043584
69	0xbe5f973a	-0.21835032
70	0xbd8d5986	-0.06901841
71	0xbe5fd9f5	-0.21860488
72	0xbe060257	-0.1308683
73	0x3c268325	0.010163103
74	0x3cef3b44	0.029203065
75	0xbdec7c05	-0.11547092
76	0x3df8ec28	0.12154418
77	0xbdfba7a3	-0.122878335
78	0x3e0afad2	0.13572243
79	0x3dc30e10	0.095241666
80	0x3cb51160	0.022103012
81	0x3c343e71	0.011001215
82	0xbd9e7b81	-0.077384
83	0x3e3c84b1	0.18409993
84	0xbe356eec	-0.17718095
85	0x3d0e1c68	0.03469506
86	0xbd984efb	-0.07436939
87	0xbe784ccb	-0.24248044
88	0x3d732117	0.05935773
89	0xbdaf9958	-0.0857417
90	0x3e433191	0.19061877
91	0xbe676dd5	-0.22600491
92	0x3dd07d3e	0.10180138
93	0x3e411120	0.18854189
94	0x3e7c8dca	0.24663463
95	0x3e44b189	0.1920835
96	0x3e1c279d	0.15249486
97	0x3e8a5498	0.27017665
98	0xbe9a6759	-0.30156973
99	0x3ea5e361	0.3240004
100	0xbdae6604	-0.08515552
101	0xbdf73c67	-0.12072068
102	0xbe00ca1c	-0.12577099
103	0xbda558e5	-0.08073596
104	0x3df88b53	0.12135949
105	0xbd9b871a	-0.07594128
106	0x3e02f56f	0.12788938
107	0x3d504961	0.05085123
108	0x3ceb2295	0.028703013
109	0x3dad8b80	0.08473873
110	0xbdedfaac	-0.116200775
111	0x3ddba356	0.10724513
112	0xbe9bddc9	-0.30442646
113	0x3dd64feb	0.10464462
114	0x3c11d25e	0.008900253
115	0x3d16015c	0.03662239
116	0xbe97bfe4	-0.29638588
117	0xbcc28d06	-0.023748886
118	0x3d3eb516	0.046559416
119	0x3c7b6e19	0.015346074
120	0x3d74a669	0.059729014
121	0xbd85a200	-0.0652504
122	0xbe14db2e	-0.14536735
123	0x3a02b274	0.0004985698
124	0xbe2ea9f8	-0.17057025
125	0x3eaacdcc	0.33360136
126	0x3d803823	0.06260707
127	0xbd3b1cbe	-0.045681708
128	0xbd7c3d10	-0.06158167
129	0xbdc670a0	-0.0968945
130	0xbe7bdd9f	-0.2459626
131	0xbe699f97	-0.22814785
132	0x3dfe4e64	0.124172956
133	0xbda2fb7c	-0.07958123
134	0x3e8106cc	0.25200498
135	0xbd9ea344	-0.07745984
136	0xbdeb8a7b	-0.115010224
137	0x3c45b722	0.012067588
138	0x3e049cc8	0.12950432
139	0x3d8d5c3b	0.06902357
140	0x3cb15e7f	0.021651505
141	0xbc5c5053	-0.013446885
142	0x3d794327	0.060855057
143	0x3dc9599a	0.09831543
144	0xbca51611	-0.020152124
145	0x3cd67c1b	0.026182225
146	0xbe06e05c	-0.13171524
147	0x3e3e1555	0.18562825
148	0x3e7377b3	0.2377613
149	0xba7f6295	-0.0009742168
150	0x3df9f913	0.1220571
151	0x3c9a79c7	0.018856896
152	0xbd9b88c1	-0.07594443
153	0xbc89b96b	-0.016812047
154	0xbe1f1806	-0.15536508
155	0x3e1c9d01	0.15294267
156	0x3db63f0e	0.088987455
157	0x3d778a31	0.060434524
158	0xbe715e45	-0.23571117
159	0xbd122479	-0.035679314
160	0x3cb2fbda	0.021848608
161	0xbdb7dc5f	-0.08977579
162	0xbe325a2a	-0.17417207
163	0xbe23c5af	-0.15993379
164	0x3e0c5e6b	0.13707893
165	0x3b54bb7f	0.003246039
166	0xbc95f789	-0.01830651
167	0x3c88142e	0.016611185
168	0xbe198a8d	-0.14994259
169	0x3ea5c013	0.32373103
170	0x3e7cc638	0.2468499
171	0xbd8617c0	-0.06547499
172	0x3e31fc12	0.17381313
173	0x3cbf4750	0.023349434
174	0xbd0f8961	-0.035043124
175	0x3cb9449f	0.022615729
176	0xbe4f9993	-0.20273428
177	0x3d84229d	0.064519145
178	0x3dec2707	0.115308814
179	0x3d9a49f3	0.07533636
180	0x3e27f7cb	0.1640312
181	0xbdd3eac4	-0.10347512
182	0xbaa7648d	-0.0012771055
183	0x3d0560be	0.032562964
184	0x3c940dd3	0.018072998
185	0x3db2d9ab	0.08732923
186	0xbc75f9ed	-0.0150132
187	0xbdeae709	-0.11469848
188	0xbe077b48	-0.13230622
189	0xbe646c21	-0.22306873
190	0xbd8d9bd7	-0.0691449
191	0x3dfea821	0.12434412
192	0xbe16d8ed	-0.14731188
193	0xbd378822	-0.04480756
194	0xbe9e95f2	-0.30973774
195	0x3d4bd0cb	0.049759667
196	0x3e29fb62	0.16599801
197	0xbdf1dd0d	-0.1180974
198	0xbe90e9a5	-0.28303257
199	0xbe37e328	-0.17957747
200	0xbd4b1f78	-0.049590558
201	0xbcdeb53a	-0.027186025
202	0x3dbaaa98	0.091145694
203	0xbdc4aadc	-0.09602901
204	0x3d06ba0e	0.03289228
205	0x3dbbbfe5	0.0916746
206	0x3e487f72	0.19579867
207	0x3d223aea	0.039606966
208	0x3e0ee1fb	0.13953392
209	0xbd88df75	-0.06683246
210	0x3e1660ae	0.14685318
211	0x3d21be7a	0.039488293
212	0x3de2d89d	0.11076472
213	0x3d953250	0.07284987
214	0x3e61a8fa	0.22037116
215	0xbe8be2ee	-0.2732157
216	0x3ca0fc52	0.019651566
217	0xbd8a08a9	-0.06739933
218	0x3eb7f813	0.35931453
219	0xbca01629	-0.019541817
220	0xbd383695	-0.04497393
221	0x3c4a5c1c	0.012351062
222	0x3de40a78	0.11134809
223	0x3d7425bf	0.05960631
224	0x3df2da2f	0.118580215
225	0xbe78a284	-0.24280745
226	0x3be1e2f0	0.006893508
227	0x3d0091bb	0.03138898
228	0xbda9e2c0	-0.08295202
229	0x3e0d3ba8	0.13792288
230	0x3e083a86	0.13303575
231	0xbe213a42	-0.1574488
232	0x3e20c3c4	0.15699679
233	0x3cb6be00	0.022307396
234	0xbc28a425	-0.010293041
235	0xbe12d775	-0.14340003
236	0xbe147e39	-0.14501275
237	0xbd8c7566	-0.068583295
238	0x3d29db4d	0.041468907
239	0xbc4d8b8a	-0.012545476
240	0x3c9c9437	0.019113643
241	0xbe3205ff	-0.173851
242	0xbe1da1f2	-0.15393808
243	0xbdba4794	-0.09095684
244	0xbd1a0542	-0.03760267
245	0xbc4602f8	-0.012085669
246	0x3c055102	0.00813699
247	0xbda86509	-0.08222396
248	0xbdcdc167	-0.10046654
249	0xbd11b9bd	-0.035577524
250	0xbd973f90	-0.073851705
251	0x3dcf338a	0.10117252
252	0xbe0ef20b	-0.1395952
253	0xbdbdc986	-0.09266953
254	0xbcaf81a8	-0.02142413
255	0x3d31c771	0.043403093

network_body._body_endoder.seq_layers.0.bias f4 [128]
0	0x00000000	0.0
1	0x00000000	0.0
2	0x00000000	0.0
3	0x00000000	0.0
4	0x00000000	0.0
5	0x00000000	0.0
6	0x00000000	0.0
7	0x00000000	0.0
8	0x00000000	0.0
9	0x00000000	0.0
10	0x00000000	0.0
11	0x00000000	0.0
12	0x00000000	0.0
13	0x00000000	0.0
14	0x00000000	0.0
15	0x00000000	0.0
16	0x00000000	0.0
17	0x00000000	0.0
18	0x00000000	0.0
19	0x00000000	0.0
20	0x00000000	0.0
21	0x00000000	0.0
22	0x00000000	0.0
23	0x00000000	0.0
24	0x00000000	0.0
25	0x00000000	0.0
26	0x00000000	0.0
27	0x00000000	0.0
28	0x00000000	0.0
29	0x00000000	0.0
30	0x00000000	0.0
31	0x00000000	0.0
32	0x00000000	0.0
33	0x00000000	0.0
34	0x00000000	0.0
35	0x00000000	0.0
36	0x00000000	0.0
37	0x00000000	0.0
38	0x00000000	0.0
39	0x00000000	0.0
40	0x00000000	0.0
41	0x00000000	0.0
42	0x00000000	0.0
43	0x00000000	0.0
44	0x00000000	0.0
45	0x00000000	0.0
46	0x00000000	0.0
47	0x00000000	0.0
48	0x00000000	0.0
49	0x00000000	0.0
50	0x00000000	0.0
51	0x00000000	0.0
52	0x00000000	0.0
53	0x00000000	0.0
54	0x00000000	0.0
55	0x00000000	0.0
56	0x00000000	0.0
57	0x00000000	0.0
58	0x00000000	0.0
59	0x00000000	0.0
60	0x00000000	0.0
61	0x00000000	0.0
62	0x00000000	0.0
63	0x00000000	0.0
64	0x00000000	0.0
65	0x00000000	0.0
66	0x00000000	0.0
67	0x00000000	0.0
68	0x00000000	0.0
69	0x00000000	0.0
70	0x00000000	0.0
71	0x00000000	0.0
72	0x00000000	0.0
73	0x00000000	0.0
74	0x00000000	0.0
75	0x00000000	0.0
76	0x00000000	0.0
77	0x00000000	0.0
78	0x00000000	0.0
79	0x00000000	0.0
80	0x00000000	0.0
81	0x00000000	0.0
82	0x00000000	0.0
83	0x00000000	0.0
84	0x00000000	0.0
85	0x00000000	0.0
86	0x00000000	0.0
87	0x00000000	0.0
88	0x00000000	0.0
89	0x00000000	0.0
90	0x00000000	0.0
91	0x00000000	0.0
92	0x00000000	0.0
93	0x00000000	0.0
94	0x00000000	0.0
95	0x00000000	0.0
96	0x00000000	0.0
97	0x00000000	0.0
98	0x00000000	0.0
99	0x00000000	0.0
100	0x00000000	0.0
101	0x00000000	0.0
102	0x00000000	0.0
103	0x00000000	0.0
104	0x00000000	0.0
105	0x00000000	0.0
106	0x00000000	0.0
107	0x00000000	0.0
108	0x00000000	0.0
109	0x00000000	0.0
110	0x00000000	0.0
111	0x00000000	0.0
112	0x00000000	0.0
113	0x00000000	0.0
114	0x00000000	0.0
115	0x00000000	0.0
116	0x00000000	0.0
117	0x00000000	0.0
118	0x00000000	0.0
119	0x00000000	0.0
120	0x00000000	0.0
121	0x00000000	0.0
122	0x00000000	0.0
123	0x00000000	0.0
124	0x00000000	0.0
125	0x00000000	0.0
126	0x00000000	0.0
127	0x00000000	0.0

network_body._body_endoder.seq_layers.2.weight f4 [128, 128]
0	0x3d9cc1f7	0.07654183
1	0x3cb117ab	0.021617731
2	0xbd11645e	-0.03549611
3	0x3d26aa17	0.040689554
4	0x3d9698b3	0.07353344
5	0x3d422212	0.047395773
6	0xbd304066	-0.043030165
7	0xbd5f0212	-0.054445334
8	0x3dc5e166	0.09662132
9	0x3d28a919	0.04117689
10	0x3ccab516	0.024744552
11	0x3ddc8c5c	0.10768959
12	0x3de53ad0	0.11192858
13	0x3d1994d8	0.037495464
14	0x3bf10d3b	0.0073563135
15	0x3c9804df	0.01855701
16	0xbe0e43c3	-0.13893037
17	0x3bcf90e8	0.006334413
18	0x3c5a58d4	0.013326842
19	0x3d935195	0.07193295
20	0xbc704984	-0.014665965
21	0x3d9c2cd4	0.07625738
22	0xbdb80a7f	-0.08986377
23	0x3e1932d4	0.14960796
24	0x3d96da32	0.07365836
25	0x3c4ee341	0.012627424
26	0xbdcf4eab	-0.101224266
27	0xbd0a9f9d	-0.033843625
28	0xbe1b615e	-0.15173861
29	0xbd1f01ab	-0.03881995
30	0xbc2fae6f	-0.010722741
31	0x3d63abf7	0.05558392
32	0x3d89f5e8	0.06736356
33	0x3ddfb35a	0.109228805
34	0xbd93df09	-0.07220275
35	0xbdf8bdb6	-0.121455595
36	0x3d922e36	0.0713772
37	0x3ceb3a4e	0.028714325
38	0x3d34648f	0.044041213
39	0x3d922236	0.071354315
40	0xbd8fc7b9	-0.07020516
41	0x3cbe64a5	0.02324135
42	0x3e80e8f6	0.25177735
43	0xbe04fe95	-0.1298774
44	0x3deba6f7	0.115064554
45	0x3cae879d	0.0213049
46	0xbc215506	-0.009846931
47	0xbd72c02e	-0.059265308
48	0x3dc62e71	0.09676827
49	0x3dc3e7d6	0.095657036
50	0x3dd2e134	0.1029686
51	0xbe459b59	-0.19297542
52	0x3cdd0315	0.026979009
53	0xbcacec64	-0.021108814
54	0xbd9d74b4	-0.07688275
55	0x3dfcd4f2	0.123453036
56	0xbcf4a8e8	-0.029865697
57	0xbba5571d	-0.005045785
58	0xbbc0ed1f	-0.005887642
59	0x3d4ead3f	0.05045819
60	0x3d9adf02	0.075620666
61	0xbd9c3172	-0.076266184
62	0xbd968f24	-0.07351521
63	0xbce1443c	-0.027498357
64	0x3d1d6404	0.03842546
65	0xbd1059fb	-0.035242062
66	0x3e09af51	0.13445784
67	0x3d5a70c5	0.0533302
68	0xbd6525c3	-0.055944216
69	0xbd626ae4	-0.05527772
70	0x3c20b01d	0.009807614
71	0x3d555b7f	0.05208921
72	0xbde83af8	-0.113393724
73	0xbe12f9b3	-0.14353065
74	0x3d986618	0.07441348
75	0x3d0be178	0.03415057
76	0xbd17b2c2	-0.03703571
77	0x3d69e57f	0.05710363
78	0x3ddad517	0.10685175
79	0x3e37940a	0.17927566
80	0xbd3d6132	-0.04623527
81	0xbb2f45a9	-0.0026744402
82	0x3d320a7d	0.043467034
83	0x3dd91d0a	0.10601242
84	0x3c4e65f8	0.012597553
85	0x3ce3acc9	0.027792351
86	0x3e0effab	0.13964717
87	0x3d529ee3	0.051421057
88	0x3d0f419e	0.034974687
89	0x3d0876eb	0.033316534
90	0x3dbeb031	0.093109496
91	0x3d5032a0	0.05082953
92	0x3d32b06d	0.043625284
93	0x3e155ef2	0.14587
94	0xbd5d6e5d	-0.05406033
95	0xbcd03639	-0.02541648
96	0x3cd8e08b	0.026474258
97	0x3c75221a	0.014961744
98	0x3e32cec4	0.17461687
99	0xbdd1bace	-0.10240708
100	0x3de956db	0.113935195
101	0x3df52146	0.11969237
102	0xbd2e89a7	-0.042611744
103	0x3c9ae3fa	0.018907536
104	0xbce5774c	-0.028010987
105	0xbd5a5ee5	-0.053313155
106	0xbd6e2c60	-0.058147788
107	0xbdcbac3f	-0.09944963
108	0x3d97fe76	0.074215814
109	0xbd47e957	-0.048806515
110	0x3ddcb635	0.10776941
111	0x3d4b454f	0.049626645
112	0xbe69560c	-0.2278673
113	0xbcf0703b	-0.02935039
114	0xbaf4b770	-0.0018670391
115	0x3db1b8e3	0.086778425
116	0xbbac2356	-0.005253236
117	0x3ccab22d	0.024743164
118	0xbda0eb70	-0.07857406
119	0x3d4085f6	0.047002755
120	0xbd21c4ad	-0.039494205
121	0x3e018210	0.12647271
122	0xbbcffa63	-0.006346987
123	0xbdae7d26	-0.08519964
124	0xbdfb1f13	-0.12261786
125	0xbdd958df	-0.10612654
126	0xbd390eb2	-0.04518003
127	0x3df2904a	0.11843927
128	0x3dc8fa99	0.09813423
129	0xbd897a0d	-0.067127325
130	0x3c948458	0.018129513
131	0xbd96f992	-0.073718205
132	0x3c84c493	0.016207015
133	0x3d307f05	0.043089885
134	0x3c9d9522	0.019236151
135	0x3c9c7e10	0.01910308
136	0xbcc41911	-0.023937734
137	0x3d41c66c	0.04730837
138	0xbd2d3c57	-0.042293873
139	0x3db54fc5	0.088531055
140	0xbde6d6a4	-0.11271408
141	0x3d9b575a	0.0758502
142	0xbd04dfad	-0.032439876
143	0x3de68da6	0.11257486
144	0x3d0020a3	0.031281125
145	0xbda1c663	-0.078991674
146	0x3bdf6107	0.0068169865
147	0xbcb9e1ea	-0.022690732
148	0xbde4ad41	-0.11165858
149	0xbca99cc0	-0.020704627
150	0x3bef6a71	0.00730639
151	0xbb794139	-0.003803326
152	0x3cb73c0e	0.022367503
153	0x3dca1609	0.09867484
154	0xbde36a70	-0.11104286
155	0xbda76f71	-0.08175553
156	0xbdc06697	-0.093945675
157	0x3d17c6ce	0.03705483
158	0xbd996c58	-0.07491368
159	0x3c3b0e6e	0.0114170145
160	0xbdc839ce	-0.0977665
161	0xbded6423	-0.11591365
162	0x3d22dcbc	0.03976129
163	0xbdb4f722	-0.08836199
164	0x3e3d0b7f	0.18461417
165	0x3df31a5e	0.118702635
166	0x3da886d6	0.08228843
167	0x3dfbeebf	0.123013966
168	0xbe96b72e	-0.2943663
169	0xbc1ff2db	-0.009762491
170	0xbd1379bd	-0.03600477
171	0xbd68157f	-0.056661125
172	0xbd9b9050	-0.07595885
173	0xbd39e0c7	-0.04538038
174	0x3e662a65	0.2247711
175	0xbdaaef02	-0.08346368
176	0xbde70a3a	-0.112812474
177	0xbd76b01c	-0.060226545
178	0x3dc94bc7	0.098289065
179	0x3e0805b2	0.13283423
180	0xbd9f1110	-0.07766926
181	0x3d378110	0.044800818
182	0x3ad0bfbb	0.0015926281
183	0x3da5ef97	0.08102339
184	0xbdea8727	-0.114515595
185	0xbd9eba8e	-0.07750426
186	0xbcff128b	-0.031136772
187	0x3d475840	0.048668146
188	0xbd43e502	-0.04782582
189	0xbdc44d1a	-0.095850185
190	0xbd08f28e	-0.033434443
191	0xbce90524	-0.028444834
192	0xbceb4993	-0.028721606
193	0xbe588dc7	-0.21147834
194	0x3e019cd0	0.12657475
195	0x3e6981e2	0.22803453
196	0xbdd231ed	-0.10263429
197	0x3d8361b1	0.064151175
198	0xbca53beb	-0.020170173
199	0x3dbd969b	0.09257241
200	0xbd5b8f4a	-0.053603448
201	0x3c090b6d	0.0083645405
202	0xbd456150	-0.048188508
203	0xbe14da8e	-0.14536497
204	0xbdce383b	-0.10069319
205	0xbd01b74a	-0.03166894
206	0xbda777b8	-0.081771314
207	0x3dff6461	0.12470318
208	0x3d87cbf4	0.06630698
209	0x3b83ba59	0.004020017
210	0xbd436b2b	-0.047709625
211	0x3af40274	0.0018616454
212	0xbbc28bf2	-0.005937093
213	0x3d870980	0.06593609
214	0xbdaad3fe	-0.083412156
215	0x3c8e3699	0.017360019
216	0xbda11d91	-0.078669675
217	0xbe20d424	-0.15705925
218	0xbd2d3377	-0.04228541
219	0x3cb36544	0.021898873
220	0x3c30b2ca	0.010784814
221	0xbdf461f2	-0.11932744
222	0xbd9103bf	-0.07080793
223	0x3e057c06	0.13035592
224	0xbc31e508	-0.010857828
225	0x3ca39a0b	0.019970914
226	0x3e1eb6f4	0.15499479
227	0xbd967503	-0.07346537
228	0x3d8a8664	0.06763914
229	0xba5978a9	-0.0008295873
230	0x3d84f5e9	0.06492216
231	0x3caf035a	0.021363903
232	0x3d89a667	0.06721192
233	0x3d265b58	0.040614456
234	0x3dcbb71e	0.09947036
235	0xbd0c530f	-0.0342589
236	0x3d31ee1a	0.043439962
237	0xbc029e4f	-0.007972314
238	0xbd00f075	-0.031479318
239	0x3d8df199	0.06930847
240	0x3c6355e3	0.013875457
241	0xbbf21b7d	-0.0073885308
242	0xbcc3ca26	-0.023900103
243	0xbd0967c6	-0.03354623
244	0xbe0a4582	-0.13503078
245	0x3da93f9f	0.08264088
246	0xbd994a26	-0.07484846
247	0x3da5862a	0.080822304
248	0xbdc5dd69	-0.09661371
249	0xbccc7ea3	-0.024962729
250	0xbbbc476d	-0.0057458193
251	0xbdd26820	-0.102737665
252	0xbd0e3826	-0.034721516
253	0xbd7bcdc4	-0.06147553
254	0x3b5e0077	0.0033874789
255	0xbdafc7b3	-0.085830115
