results/FirstRun2/MoveSomewhere/MoveSomewhere-10241.onnx (onnx, 161357 bytes, 11 tensors)

action_model._discrete_distribution.branches.0.bias f4 [3]
000000 52 32 b9 3a 4f 05 ea bc 73 8a c6 3c
       0.0014129377 -0.028566984 0.02423594

action_model._discrete_distribution.branches.0.weight f4 [3, 128]
000000 d2 93 ba bb 93 ea 20 bb f9 20 17 3c f7 a1 f6 bb
       -0.005693891 -0.002455388 0.00922417 -0.007526632
000010 ab 55 28 3b 8c b2 b3 3c b8 50 34 bc 79 60 0c 3c
       0.0025685828 0.021935724 -0.011005573 0.008567923
000020 48 75 15 3a af 53 82 3c b5 0d 65 3b cc 4a 60 bb
       0.0005701375 0.015909044 0.0034950797 -0.003422427
000030 de df 90 38 99 c7 0a bc 51 0f 14 bc ad 7b 68 3c
       6.9081536e-05 -0.008470439 -0.009036855 0.014189643
000040 34 e8 f8 3c 3b 4a aa 3c 95 f1 f8 bb 83 f7 16 bb
       0.03038416 0.020787349 -0.007597158 -0.0023035712
000050 c8 8f 73 bb cb 45 db 3b aa 9d 02 bc cf d0 1a 3c
       -0.0037164558 0.0066916696 -0.00797216 0.009449198
000060 c3 2a f1 3b d5 ed 0b bc 9e 0a ab bc 36 f7 8e 3b
       0.007359834 -0.00854059 -0.020879086 0.004362966
000070 33 3e 77 3b d0 d9 17 bb de 27 f5 3b 82 6a 7b bc
       0.0037726283 -0.0023170598 0.007481559 -0.015345218
000080 94 02 3e 3c 19 96 2e 3c 49 0c e2 3b c1 a2 26 bc
       0.011597294 0.010655903 0.006898437 -0.0101706395
000090 a4 ca bb 3b 1b 73 2b 3c 78 b9 64 3c 0f 2a 9e 3b
       0.0057309438 0.010464455 0.013960235 0.004826791
0000a0 f2 1e d5 bb 1c 76 f2 3a 5e ee 2f bc ee ec 84 bb
       -0.006503933 0.0018498334 -0.0107379835 -0.0040565645
0000b0 ac 4a 5f ba b4 d5 87 3b 55 f1 c1 3c bc df 67 3b
       -0.0008517902 0.0041453484 0.023674646 0.0035381159
0000c0 a7 d0 4b bc 22 1a 54 bc 0b 55 50 bc aa e7 56 3b
       -0.012439883 -0.012945684 -0.012715588 0.003279189
0000d0 05 06 46 3c a3 4f 32 3c 7f c8 2f 3b 77 a4 8b 3a
       0.012086396 0.010883245 0.0026822386 0.0010653873
0000e0 a6 49 15 bc 5c 18 00 3c 80 14 fb 3b f1 e4 4a bc
       -0.009111797 0.007818308 0.007662356 -0.012383685
0000f0 d6 99 ca 3b fc 2c 95 bb 0d 99 b4 3c 48 f0 dd bb
       0.0061828895 -0.0045524817 0.022045637 -0.0067730285
000100 cc 29 ef b8 ad 8d 37 3c fa 9a c8 3b 64 e2 e0 3b
       -0.00011404193 0.011203212 0.0061219903 0.0068629254
000110 f9 5d 32 bc f7 98 54 bc 00 3d b4 ba 58 c1 22 3a
       -0.010886663 -0.012975923 -0.001375109 0.000620862
000120 c9 c3 72 3b 99 40 20 3c 69 2f 46 39 c4 ed ce 3a
       0.0037042967 0.009781026 0.00018900413 0.0015787412
000130 6e 0e e8 3c a3 fd 07 bb 52 7e 8e bc 8f d4 c1 3c
       0.028327193 -0.0020750544 -0.017394219 0.023660926
000140 a4 a7 f8 bb 44 4b 9c bc 62 88 22 3c e8 9b 64 bc
       -0.0075883437 -0.019078858 0.0099202115 -0.013953187
000150 22 31 d6 3c 4d 14 e0 3c ca 4b 59 bb cd 9e 9b 3b
       0.026146475 0.02735343 -0.0033156746 0.004749155
000160 80 6f 8d 3c 39 9e a9 3b 6b dc 35 3b ad 9b 8a 3b
       0.017265081 0.0051763323 0.0027749788 0.004229984
000170 3f 4e 53 bb ff 75 f8 bb f9 54 46 3b c7 18 ab bb
       -0.0032242683 -0.0075824256 0.003026305 -0.0052214595
000180 a2 80 bb 3b 71 80 11 3c 28 40 2f bb f0 3b 23 3c
       0.0057221213 0.0088807205 -0.002674112 0.009963021
000190 d1 92 4d bb 75 a9 1a bc c4 6e 0d bb fb 30 77 bc
       -0.0031368027 -0.009439816 -0.0021580914 -0.015087361
0001a0 62 5c a2 ba 9b 20 70 3c 48 8a 85 39 12 0b 84 3b
       -0.0012387151 0.014656211 0.00025470764 0.00402964
0001b0 be 75 da bb 22 23 c0 bc 35 5a c1 3b 4e 18 48 3c
       -0.006666868 -0.023454253 0.005900646 0.012212826
0001c0 45 0f 17 3c 89 90 3c 3b 9a 19 90 bb ff 05 5a 3c
       0.009219949 0.0028772673 -0.004397583 0.013307094
0001d0 8f 22 a0 3b 1d 4c a4 bb f8 60 38 bc 52 14 c4 3c
       0.004886932 -0.005013956 -0.011253588 0.02393547
0001e0 dd ff fc 3b eb b6 92 ba 9b c5 7d bc 24 7b d9 bb
       0.007720931 -0.001119343 -0.015489007 -0.006636994
0001f0 bc 3a 15 3b da 81 1c 3c 55 59 32 bb a4 86 cf 3b
       0.0022770604 0.009552443 -0.002721389 0.006333189
000200 86 a0 f7 bc 40 5d af 3c bf 0f a2 bb 52 87 25 3b
       -0.03022791 0.02140677 -0.0049457247 0.002525766
000210 93 65 d8 3c a4 d5 e8 bc 3a b2 35 3b df 74 0c 3c
       0.026415622 -0.028422184 0.002772464 0.008572786
000220 8b da d5 bc d9 c6 05 bd 58 c0 58 bc 73 55 9a bc
       -0.026105186 -0.03266034 -0.013229452 -0.018839573
000230 7a 63 f1 3a 26 95 00 bc e8 1a 35 3c df 87 95 bc
       0.0018416487 -0.00784806 0.011053778 -0.018253265
000240 b8 73 25 3c d9 d2 1c 3c 0a 22 b5 3a f4 eb c7 3c
       0.01009839 0.009571754 0.0013819349 0.024404503
000250 41 d5 12 3c 1c 0a a4 bc 74 f0 25 bc 7f fd c7 3b
       0.0089619765 -0.020024352 -0.010128129 0.006103217
000260 59 50 19 bd 9f 60 42 3b 24 fe fc 3c cd 85 27 3a
       -0.03743014 0.0029659641 0.030882902 0.00063904823
000270 8b 58 97 bc 55 cb f1 3c 5f e4 74 bc a8 25 26 bc
       -0.018474838 0.029515902 -0.014947026 -0.010140814
000280 bf 61 f1 bc 96 66 be 3c bc 92 20 3b cf 6f ba bc
       -0.029465554 0.023242276 0.0024501523 -0.022758393
000290 aa 1e f9 3c 81 bd 54 bc c8 0b 83 3a 7e 4e b9 bb
       0.03041013 -0.012984634 0.0009998018 -0.005655109
0002a0 36 ef 53 bc 39 68 4c 3c a9 4b 91 3c 78 48 34 ba
       -0.01293545 0.0124760205 0.017736273 -0.0006877254
0002b0 9b e0 12 3c 34 2b f1 bc 92 c5 f0 bc 1d 46 57 bc
       0.008964683 -0.029439546 -0.029391084 -0.013139275
0002c0 17 32 b1 bc 74 2b 41 bc 59 7e c6 3c 8c fd 67 bc
       -0.02163033 -0.011790145 0.02423017 -0.014159571
0002d0 3c 0a b1 bb 8c 2e 9a bc fb e2 9c 3b 47 42 19 bd
       -0.0054028314 -0.018821023 0.0047878004 -0.037416723
0002e0 17 ec 9b bc 35 68 a5 3a f2 21 63 bc 9c 8e 06 3c
       -0.019033475 0.0012619557 -0.013863074 0.008212712
0002f0 62 ff cb 3c 5a e5 18 3c 2f bb b3 3c 28 31 3d bc
       0.02490205 0.009332025 0.021939842 -0.011547364
000300 4f 7b 04 3c c4 77 33 bc 61 66 14 bc d2 90 10 3d
       0.00808604 -0.010953847 -0.009057612 0.03529436
000310 38 03 9a 3b db 02 df 3b f1 5f b9 bc 97 3a af 3a
       0.0047000907 0.0068057603 -0.022628756 0.0013368902
000320 37 a4 cf bb 6e 34 e2 3b ee 63 8c 3c 49 65 1a 3b
       -0.0063367146 0.0069032228 0.017137494 0.0023558906
000330 02 45 bc 3b 17 a2 af 3c 8f 59 02 bc c7 2e ed 3b
       0.005745531 0.021439595 -0.007955923 0.0072382423
000340 c2 55 b8 3c 20 95 1c 3c a4 f3 a2 3c b6 68 0c 3b
       0.02250183 0.009557039 0.019891568 0.0021424717
000350 24 54 3e 3b 25 11 18 3c 12 47 ef bb a4 da a7 bc
       0.002904185 0.009281431 -0.0073021734 -0.020489998
000360 88 1c 44 bc 11 45 db 3b 58 7a 7a bc c3 d1 d4 3c
       -0.011969693 0.006691583 -0.015287958 0.025978928
000370 6f 41 09 bc d3 02 b7 3c d2 b9 87 bc 92 41 ab 3c
       -0.008377417 0.022340214 -0.016568098 0.02090529
000380 6f d6 68 3c 28 2e 2a 3c 94 db 13 bc 68 a3 bd bc
       0.014211281 0.010386981 -0.0090245195 -0.023149207
000390 c7 5d 9a bc 06 06 be bc 80 72 d2 3c 1a bd 0d 3a
       -0.018843545 -0.023196232 0.025689363 0.00054069015
0003a0 f4 af b1 3c 58 bd b2 bc 12 e4 81 3c 13 64 ee 3b
       0.021690346 -0.021818802 0.015855823 0.0072751134
0003b0 a0 52 c9 bc e5 41 89 3c a1 a0 82 bc 55 71 d5 bb
       -0.024575531 0.016755054 -0.015945734 -0.0065137544
0003c0 7a 6b 83 3c e4 92 8d bc 3b 34 86 3b 8d 32 02 bc
       0.01604246 -0.017281957 0.004095582 -0.007946623
0003d0 67 25 71 bc c6 d0 ab bc f6 5d 2d bb 38 28 e0 bc
       -0.01471839 -0.020973574 -0.002645371 -0.027362928
0003e0 93 14 69 bc 6a e5 bc 3c dd 1c f5 bc 1f 96 9f 3c
       -0.014226097 0.023058612 -0.02992099 0.019480763
0003f0 13 fd 96 bc 41 a4 9d bc 02 38 18 bd 95 06 6d bb
       -0.018431222 -0.019243361 -0.03716279 -0.0036167253

action_model._discrete_distribution.branches.1.bias f4 [3]
000000 de 00 57 bb 59 ca 82 3c 5f 03 83 bc
       -0.0032806913 0.015965628 -0.015992818

action_model._discrete_distribution.branches.1.weight f4 [3, 128]
000000 53 f4 3f 3a 94 73 84 bb 5b 0a 1d 3d 19 cf ab 3b
       0.0007322479 -0.0040420983 0.038339954 0.005243194
000010 29 0c 25 3c d8 ac df ba de d4 86 bc 89 26 26 3d
       0.0100737 -0.0017065061 -0.016458925 0.040564094
000020 9f 3a 79 bc ba 1e 17 bc 9f c0 e7 bc 1a af 9b bc
       -0.01521173 -0.009223634 -0.028290091 -0.019004393
000030 9c 8b 8e bc a0 56 2b 3b 0f a1 ad 3c cb e2 c2 bc
       -0.017400555 0.0026144162 0.021194963 -0.023789784
000040 36 bd 29 3d 91 e4 b3 bb 8f ff 25 bc 8d 64 88 3c
       0.04144021 -0.0054898937 -0.010131731 0.016649509
000050 af eb 00 bc 64 cd 1d bd e1 ea 1e bd 54 e4 c4 3b
       -0.007868691 -0.038525954 -0.038798217 0.006008664
000060 7f 0d 9c 3c 89 be 8e 3b fc 1d ac 3c 9a 82 a8 bc
       0.019049404 0.0043562097 0.021010391 -0.020570088
000070 d8 6f 38 ba 89 4f 47 3c c3 d3 71 3c b3 24 00 3c
       -0.0007035709 0.012164959 0.014759961 0.00782125
000080 c7 6a d1 bc 55 25 fb 3b e4 9c 82 ba 31 38 8a bc
       -0.02556361 0.0076643624 -0.000996497 -0.016872497
000090 49 5c c8 3b 8e f6 4c 3c c9 a8 22 3d c9 2e 5f bc
       0.006114517 0.012509955 0.039711747 -0.013621994
0000a0 58 27 de bb 33 2b 76 bb 4e 57 ec 3c aa 40 87 3b
       -0.0067795925 -0.003756237 0.028850224 0.0041275816
0000b0 7c a3 62 bc 69 17 97 bc f7 64 6c bb 6f 3d c7 ba
       -0.013832923 -0.01844378 -0.0036070922 -0.0015200804
0000c0 e0 2e c8 3b 7c 04 18 bd e2 8b 7a bc ac 6f 03 bd
       0.0061091036 -0.03711365 -0.01529214 -0.03208892
0000d0 65 16 80 bb 4f a3 6c bc 2c 7a 3c bd 00 a4 bb 3b
       -0.0039089196 -0.014443233 -0.04601495 0.0057263374
0000e0 8d ed 69 3d 97 71 29 bb fa 66 7f bc 5c 89 94 bc
       0.05711131 -0.0025855058 -0.015588516 -0.018131904
0000f0 32 0c 39 3d 3d 02 b4 bc 46 72 18 3d 7d 51 1e bc
       0.045177646 -0.021973724 0.037218355 -0.009662983
000100 c1 7f d5 b9 b3 34 4d 3d 09 74 f1 bc 7e 06 75 3b
       -0.0004072171 0.050099086 -0.029474275 0.0037387903
000110 ff 33 0c 3c 76 99 9c bb 37 01 fb bc 35 32 e4 bc
       0.008557319 -0.004779036 -0.030640228 -0.027855972
000120 6f 0b 0d 3d 3b ba 4e bc 2c 1d e4 bb d5 91 f1 bc
       0.034434732 -0.012617643 -0.0069614854 -0.029488483
000130 f5 09 d2 3b 9c 54 fc 38 1a da 18 bc 9c 68 94 3c
       0.0064098784 0.00012032056 -0.009329343 0.018116288
000140 6f 28 06 3c f4 cd 8a 3c e9 fd 06 3c ef 35 01 bc
       0.008188351 0.01694391 0.008239248 -0.007886394
000150 ef 18 ed bb 85 ec 99 3c 5f 61 39 bd 84 7f 0e bc
       -0.0072356383 0.01878954 -0.045258876 -0.008697394
000160 e5 c2 57 bc 29 f9 87 3b 59 5f fb 3a f5 db 36 bc
       -0.013169025 0.0041495753 0.0019178196 -0.01116084
000170 c2 81 f9 bb 0f d0 1f bc 91 20 74 bc 31 dd c9 bb
       -0.0076143453 -0.009754195 -0.014900343 -0.0061604013
000180 55 b8 93 3c 94 e7 08 bd b1 8e fc bc 31 8f 70 3c
       0.018032232 -0.033423975 -0.03082976 0.014682577
000190 d0 1e ec 3c 17 54 58 bc 2d a0 d5 bb f5 78 ca bb
       0.028823286 -0.013203642 -0.0065193386 -0.00617897
0001a0 8c 34 42 ba 61 99 31 ba c0 2b 9c bc cf 63 95 3c
       -0.0007408343 -0.00067748694 -0.01906383 0.018236069
0001b0 ba d7 9e bb 14 bd c9 3c a2 94 5e bc ee 93 10 3b
       -0.004847494 0.024626292 -0.0135852415 0.002206083
0001c0 97 c0 da 3c 6c ab 5b bc 52 61 f6 bc 63 60 9b 3c
       0.026703162 -0.013407569 -0.030075703 0.01896686
0001d0 2a 98 60 bc f1 59 e9 bc a4 47 b7 3b 57 e5 16 3b
       -0.013708154 -0.02848527 0.005593257 0.002302488
0001e0 31 4f 2f 3b 5b 5b 84 3c 86 fb 29 bc 0f 9f 41 bc
       0.0026750083 0.016156843 -0.010374909 -0.011817708
0001f0 fd 6d 96 bc bd e7 f1 bc aa a0 65 bc a2 02 27 bd
       -0.018362993 -0.029529447 -0.014015356 -0.040773995
000200 5d 2f 26 3c cc 9a e4 3c be a7 cf bc 8a 37 34 bb
       0.010143128 0.027905844 -0.02534854 -0.0027498924
000210 2c 3d a1 bb 6d bc 0e bd 6d dc d0 3b 11 3b 85 bc
       -0.0049206223 -0.034847666 0.006373933 -0.016263517
000220 61 73 c2 bb 23 23 aa bc c1 6f 28 3d 8c bb a3 3c
       -0.0059341644 -0.020768708 0.0411222 0.01998689
000230 45 4a d4 3a ca 97 7f 3c 17 7a bc bb 15 b6 8e 3b
       0.001619645 0.015600154 -0.005751859 0.004355202
000240 16 2b 39 bc d0 cd 8a bb ad 78 95 3c 0a fe 54 bc
       -0.011301776 -0.0042359605 0.01824602 -0.013000021
000250 b5 a1 7a 3c 53 2f 94 3c a5 70 d3 3c 1d 3e 9f bc
       0.015297343 0.018088972 0.025810549 -0.019438798
000260 e3 4b 79 3b 35 17 b6 bb ec 08 04 bd 92 7a 1d 3c
       0.0038039617 -0.0055569657 -0.03223507 0.009611743
000270 4f 9c de 3b 68 53 d6 3b 21 68 d4 bc e6 f9 29 3b
       0.006793536 0.0065407045 -0.025928559 0.0025936305
000280 08 4e e9 3b 02 d0 8b bb 55 f9 01 bd 9a ed bf 3c
       0.0071198978 -0.00426674 -0.031731922 0.023428727
000290 23 9b 0b 3c 91 4c ad 3c c5 47 dd bc b6 4e 64 3b
       0.008520874 0.021154674 -0.027011761 0.0034836954
0002a0 cc 40 28 3a 44 8c 3d bc d3 b3 a1 bc a3 3f d7 38
       0.0006418347 -0.011569086 -0.019739067 0.00010263852
0002b0 6d d8 a4 3c 1a 00 8b 3c 64 29 4b 3c 87 62 29 3c
       0.020122731 0.016967822 0.012400005 0.010338432
0002c0 dd c2 a7 bc 49 84 1f 3c a0 13 85 bb 22 8c e2 3c
       -0.02047866 0.009736129 -0.0040611774 0.027654711
0002d0 25 c7 73 3c 60 47 b1 3c db 3e 21 3c 01 40 7e bc
       0.014879023 0.02164048 0.009841646 -0.015518189
0002e0 eb 33 e8 bc 96 82 af bc 91 9c 7e 3c 18 29 d1 3b
       -0.028345069 -0.021424573 0.015540258 0.0063830726
0002f0 07 8b e8 bc a6 45 b6 3c 46 2e 0d bd 30 ed d6 3c
       -0.028386606 0.022250008 -0.034467958 0.026236147
000300 c5 f9 80 bb 70 6e fd bc 26 6c 9d 3c a7 1e c3 ba
       -0.003936025 -0.03093645 0.019216608 -0.0014886454
000310 e6 bf bb bc 79 18 02 bc 89 6c b3 3b 5f f0 26 bc
       -0.022918653 -0.007940405 0.005475585 -0.010189145
000320 14 88 07 bd d6 66 64 bb 40 6d 61 3b 84 76 7b ba
       -0.03308876 -0.0034851334 0.0034397393 -0.00095925503
000330 32 7d 67 3c 6b 51 78 bc 2c 84 2c 3c 0b f9 96 bc
       0.01412897 -0.01515613 0.010529559 -0.0184293
000340 cb 08 bd bc c6 85 47 bc d8 51 fd bc 6d 90 8f bb
       -0.023075482 -0.01217789 -0.030922815 -0.0043812306
000350 39 4d 62 3c f7 9c 56 bc f6 0b 13 3d 3b 2d 9c 3b
       0.013812357 -0.013098947 0.03590008 0.004766134
000360 b1 87 ab 3c 26 8d 97 3c 29 53 4d 39 59 1d b8 bb
       0.020938726 0.018499922 0.00019581303 -0.005618733
000370 02 cf 5b 3c e2 fd 41 b9 de 74 76 3c 14 3e c2 bb
       0.013416054 -0.00018500493 0.015042512 -0.0059278104
000380 87 6b 9e bc ed 5d 84 3c e2 7a 86 3c 3b 60 f4 bc
       -0.019338382 0.016158069 0.016416017 -0.029831043
000390 d0 a9 0f 3c 20 e0 26 3c 97 69 e4 bb 04 a3 2d 3c
       0.008768514 0.0101852715 -0.006970595 0.010597948
0003a0 9b da 19 bb 12 5a 9a bb 90 6b 84 39 c9 a9 33 bc
       -0.0023476246 -0.0047104442 0.00025257142 -0.010965773
0003b0 83 f5 bc 3c da 26 87 3a f0 79 5c 3c db 31 64 3b
       0.023066288 0.0010311261 0.013456807 0.0034819755
0003c0 d9 da ba bc 6b 14 f6 3c 7d 07 9c 3c 88 9b ab 3b
       -0.022809433 0.030039033 0.01904654 0.0052370466
0003d0 f4 64 ad 3c d6 7d 2e 3c 52 5b c3 3c e5 af 64 3c
       0.021166302 0.010650119 0.023847256 0.013957952
0003e0 93 73 ca 3c 56 ab 58 bc bf a7 fd 3c 5a d1 3d bb
       0.024713313 -0.013224443 0.030963777 -0.0028963895
0003f0 90 25 84 3c cc 89 50 3c 1a 34 eb bb 62 dd 5a 3c
       0.016131192 0.012728166 -0.007177842 0.013358446

discrete_action_output_shape f4 [1, 2]
000000 00 00 40 40 00 00 40 40
       3.0 3.0

network_body._body_endoder.seq_layers.0.bias f4 [128]
000000 2f e5 06 bc 9e e8 08 bc cc c9 6c 3c 84 a0 ae bb
       -0.008233353 -0.0083562415 0.014452409 -0.0053291935
000010 2c 36 cb bb ad 79 af bc 75 c5 f1 bb 35 2a e1 3c
       -0.006201526 -0.021420324 -0.007378275 0.027485946
000020 ac 7b 2e 3c 79 d9 92 bb d6 c4 10 bc f7 28 94 bc
       0.010649603 -0.004481491 -0.008835992 -0.01808594
000030 54 7d b3 3c ae 1a 3e 3c ca 53 93 bb 29 2a 8b bb
       0.021910347 0.011603041 -0.0044960724 -0.0042469692
000040 c0 fa d2 3b fd 81 62 3a 59 7d dd bb 7f 3c f7 3c
       0.006438583 0.00086405856 -0.0067593274 0.030180214
000050 ba 72 96 3a eb c3 84 b9 2c 68 61 ba 33 5e 8f 39
       0.0011478283 -0.00025322972 -0.00085985917 0.0002734527
000060 e6 1b 25 bc 8c 4d 13 3b 3e b4 f3 39 20 d2 16 bc
       -0.010077452 0.0022476641 0.00046482863 -0.009205371
000070 a9 21 2f bc f7 cf 18 bc e2 b8 bc 3b 24 b1 5b 3c
       -0.010689178 -0.009326926 0.0057593444 0.013408933
000080 db 33 58 3c fe 16 ac ba e5 ca a7 bb b5 cb ac bb
       0.013195957 -0.0013129411 -0.0051206225 -0.005273307
000090 0b 9a 6a 3c 65 3a aa bb de 3d 71 3a 4f e9 90 bb
       0.014318953 -0.0051949495 0.00092026393 -0.004422344
0000a0 1e ba 56 ba 26 6f ca 3c e6 c7 ec 3b 34 bf f6 3b
       -0.0008191186 0.024711203 0.007225978 0.0075301174
0000b0 77 3d eb 3b 5a fa 4b bb d7 d3 36 3c 22 18 5e 3a
       0.007178958 -0.0031124563 0.011158905 0.0008472224
0000c0 25 c6 91 3c e5 e1 5e bb ca 16 9d 3a d5 e0 42 bc
       0.017794678 -0.0034009155 0.0011984941 -0.011894424
0000d0 67 77 d9 bc 5c fd 55 3c b7 6d 56 3c b6 b5 3f 39
       -0.026546193 0.013060894 0.0130876815 0.00018282872
0000e0 27 d8 a2 bc 13 ea 87 bc a5 ff 26 bb f6 58 84 bc
       -0.01987846 -0.016591107 -0.0025481966 -0.016155701
0000f0 54 dd ad 3b c1 32 0c bb d2 7d fd bb c1 d1 0e 3c
       0.0053059254 -0.0021392556 -0.007735946 0.008717001
000100 44 a6 37 3b 02 f2 59 3c 8c 5b 34 3b 41 37 1d bb
       0.0028022686 0.013302328 0.0027520387 -0.0023989233
000110 1a 80 89 ba f2 18 bd 3a 00 23 c3 ba 26 a0 bf ba
       -0.0010490448 0.001442699 -0.001488775 -0.0014619872
000120 5c fe 11 bb df 5d 65 3c 6f 5d 13 3b ec 57 35 b7
       -0.0022276854 0.013999431 0.002248611 -1.0808912e-05
000130 84 fe c9 3c 20 7f 71 3b 32 70 1a ba f2 28 c5 3b
       0.024657495 0.0036849454 -0.0005891352 0.006016844
000140 69 11 50 bc 97 ea 6c bc 4e 77 a2 3b 46 ba 24 bc
       -0.012699463 -0.014460227 0.00495807 -0.010054177
000150 24 cd e9 bb c4 44 a4 bb 9d 96 b5 bb b1 1a 2e 3c
       -0.0071350504 -0.0050130803 -0.005541636 0.010626481
000160 0d 9f 02 bc 65 ee 59 bc 26 3a 6f 3a d6 9d c1 bb
       -0.007972491 -0.013301467 0.0009125791 -0.005908708
000170 d0 11 eb ba d4 30 a4 3b 71 e3 25 3c 47 c9 19 3c
       -0.0017934386 0.0050107036 0.010125027 0.009386367
000180 43 b9 79 bb 00 25 5d 3c a5 5c 11 bc 86 43 e5 bc
       -0.003810481 0.013497591 -0.008872186 -0.0279863
000190 a4 cd 73 3b 77 87 92 bb d3 a3 ca bc e0 e7 cd 3a
       0.0037201429 -0.004471715 -0.02473632 0.0015709363
0001a0 6b b4 20 bc 8b 86 18 3b ed e9 40 bc 1d 88 53 bc
       -0.00980864 0.0023273553 -0.011774522 -0.01291087
0001b0 4e 4f 17 3c a2 ba 60 3a bd c8 bc bb 00 76 01 3c
       0.009235216 0.00085727323 -0.0057612346 0.007901669
0001c0 8a 2f d7 3a 1d 31 8b 3c b7 54 9e 3b 9e 06 cd bb
       0.0016417366 0.016991192 0.004831876 -0.0062568923
0001d0 3d 15 87 bc 56 63 df 3c 66 41 aa bb 6e ac cc ba
       -0.01648962 0.027269047 -0.0051957844 -0.0015615353
0001e0 04 cc 26 3c d5 c5 56 bb 8a 6f 67 bb 89 fd 96 bc
       0.010180477 -0.0032771726 -0.0035314285 -0.018431442
0001f0 80 62 de 3a b8 77 1b bc af c5 48 bb a8 3e 20 3c
       0.0016966611 -0.009488992 -0.0030635407 0.009780563

network_body._body_endoder.seq_layers.0.weight f4 [128, 44]
000000 85 4f cd 3d 7b cf 72 be 02 79 45 be ed 68 b0 3c
       0.10024933 -0.2371196 -0.19284442 0.021534408
000010 36 a5 80 bd 1b 54 c2 3d 30 20 f5 3c 1b 4f f6 bd
       -0.062815115 0.09488698 0.029922575 -0.12026807
000020 f5 04 b4 bd 34 bc 14 3e cd 6b 2f be be b3 1e 3e
       -0.08790008 0.14524919 -0.17130966 0.15498254
000030 83 06 ba 3c e4 50 01 3e 04 6f 3c bd 4a 3f 85 3c
       0.022708183 0.12628514 -0.04600431 0.01626553
000040 d2 d1 84 3d 06 37 02 be 86 7c 4e be 42 94 65 3e
       0.064853325 -0.12716302 -0.2016469 0.22419837
000050 a4 04 0e 3e 50 54 2f 3d ca 82 19 3e 1b d0 29 be
       0.13868958 0.042805016 0.14991298 -0.16583292
000060 e6 1e 34 ba d6 49 84 be 1d 9f a0 3e 42 ac 24 3e
       -0.00068710593 -0.25837582 0.31371394 0.16081336
000070 d3 77 72 3d 85 ab 11 3e ed 9f 57 3e 6b 97 f2 3d
       0.059196305 0.14225586 0.210571 0.11845287
000080 bb 36 79 3d b2 27 37 3e fa 9a dd bd 0e 84 75 3e
       0.06084321 0.17886236 -0.10820575 0.23976156
000090 13 28 35 bd 27 21 6b 3e b4 ff 0b 3e a2 15 83 be
       -0.04422767 0.22961865 0.13671762 -0.25602442
0000a0 2c e4 55 bb 3f 19 95 bc 85 b4 fa be ac c5 16 3e
       -0.0032637222 -0.018200515 -0.4896585 0.14723843
0000b0 f1 80 52 bd ff 16 0f 3e e7 ed 24 be 0d 7d 9d 3b
       -0.0513925 0.13973616 -0.16106378 0.004806167
0000c0 e7 ec 17 be 6c e1 79 bd 97 87 15 3e fb 3b 3f 3d
       -0.14836465 -0.061005995 0.14602505 0.04668806
0000d0 28 2b e3 3d 98 30 bd 3d 05 bb 30 3e be 4b a6 3d
       0.11092216 0.09237784 0.17258842 0.081199154
0000e0 b7 5e c5 ba b6 35 67 bd e9 16 44 3d 74 d9 d9 bd
       -0.0015058134 -0.056447707 0.04787341 -0.10637179
0000f0 f3 93 38 3e 4d 49 ea 3c ad 19 04 3e 72 9b 59 bd
       0.18025188 0.028599406 0.1290042 -0.05312676
000100 4c 10 9f 3d 29 f6 c3 3c 40 e8 23 ba da 7f a4 bc
       0.0776678 0.02392109 -0.00062525645 -0.020080496
000110 02 ad 32 3e 00 09 1f 3e dd 16 f5 bd 3c 71 49 3e
       0.1744881 0.15530777 -0.119672514 0.19672102
000120 93 f5 1f 3e 42 87 b2 3d d0 d0 21 3e 8f 3a 87 3d
       0.15621023 0.08717205 0.15802312 0.06602966
000130 53 0d 5c be 6c 28 24 be 28 e2 8b 3d b1 32 8d 3e
       -0.21489458 -0.16031045 0.06830245 0.27577737
000140 8b f9 42 3d df 0d 8d 3d a5 c8 29 be a4 ee 76 3e
       0.047601264 0.06887411 -0.16580446 0.24114472
000150 92 db c2 bb 28 de 46 be 73 96 cb be 8c 9f 88 bd
       -0.005946585 -0.19420683 -0.3976322 -0.06671056
000160 ee fa 58 3d eb d4 1d bc 27 9b da 39 87 44 89 be
       0.05297368 -0.009633283 0.00041695798 -0.26810095
000170 e8 45 77 be 11 76 22 3d 7d d3 2e 3d 0b c7 6e 3c
       -0.24147761 0.03966338 0.04268216 0.014573823
000180 d5 97 0e be fb bc b0 3d e5 50 d4 3d c7 74 2b be
       -0.13925107 0.08629795 0.10366992 -0.16743766
000190 8f ce ec 3d d7 03 77 bb b4 8f db bd 49 67 75 bd
       0.115628354 -0.0037691498 -0.107207686 -0.059912954
0001a0 57 3d 93 3e 2b 2b c6 bd c5 fc bf 3d 08 55 5e 3d
       0.28757736 -0.096762024 0.09374384 0.05428031
0001b0 50 66 59 3e 62 56 a8 3c df 95 02 bf 72 a5 00 be
       0.21230435 0.020549003 -0.51009935 -0.12563112
0001c0 20 ce 88 bd 2f f9 18 be 20 86 11 be 58 a2 6a 3b
       -0.0667994 -0.14938806 -0.14211321 0.003580233
0001d0 8a eb 01 be ea 81 f5 bd e6 4a 6c 3d 82 74 f8 3d
       -0.12687507 -0.1198767 0.057688616 0.12131597
0001e0 ee 28 96 be f4 0b 53 3e dc df ee 3d 50 39 8c 3d
       -0.29328102 0.20610029 0.116637915 0.06846869
0001f0 35 d1 28 be 33 b4 10 be c3 4c 2a 3e 3d 06 5d 3e
       -0.16486056 -0.1413124 0.16630845 0.21584411
000200 17 0c 9a 3c d4 b7 6a be 92 40 41 3b df 4b 71 bd
       0.018804593 -0.22921687 0.002948795 -0.058910247
000210 a8 68 a7 bc f3 46 c1 bc 66 96 ed bd 3f 7d 22 3e
       -0.020435646 -0.023593402 -0.11600952 0.1586809
000220 b3 1d a7 bb 42 81 d6 bd 1f 54 6b 3e 78 37 cc 3c
       -0.005099976 -0.10473873 0.22981308 0.024928793
000230 99 dd c7 3e b5 7a 06 3e f8 58 7f 3c 04 d2 a2 be
       0.39036253 0.13132747 0.015585177 -0.31800854
000240 50 0c 33 be 6a c2 01 3e f2 5b 35 3d 54 3e e3 bc
       -0.17485166 0.1267182 0.04427714 -0.027739681
000250 f8 4a 66 3e 12 7e 13 3e ed f6 ce bb 38 a3 20 3d
       0.22489536 0.14403561 -0.006316057 0.039218158
000260 64 2c e1 bd 02 6a 0e 3e 82 6f 6f be ae 61 27 be
       -0.10994795 0.13907626 -0.2338238 -0.16345856
000270 59 5e 11 3e 25 93 0f 3e 86 df 85 bd 30 a9 34 be
       0.14196147 0.14020975 -0.06536774 -0.17642665
000280 58 8c aa 3d 98 80 95 3e 02 ab 1b be 8f 04 c5 3e
       0.0832755 0.29199672 -0.15201953 0.3848004
000290 b5 e3 92 3d fc 44 24 3e 65 e4 29 bd 7a 4f ee bd
       0.07172338 0.1604194 -0.04147758 -0.11636253
0002a0 30 7d 41 3d 05 a2 74 bb 6b c0 06 bd ae a0 2d be
       0.04723853 -0.0037328016 -0.032898348 -0.16955826
0002b0 3b 40 1d 3c 9e 7f 89 3e 1d 75 52 be 62 fe 03 be
       0.009597833 0.26855177 -0.20552488 -0.12890008
0002c0 06 df 91 3e 5b 72 de 3d 82 e1 68 be 98 f4 e0 bd
       0.28490466 0.10861655 -0.22742274 -0.109841526
0002d0 b2 80 00 3c 8b 4d 9b 3b 40 6e 23 3d 71 6e 84 bc
       0.007843183 0.0047394685 0.039900064 -0.016165944
0002e0 f2 8c 98 be ff 3d 20 bd 5e 7f 32 bd f6 47 8d bd
       -0.29795033 -0.039121624 -0.043578498 -0.06898491
0002f0 bd 0a 6a 3e d5 20 0b 3e b2 35 81 3e dd 8e ac be
       0.22855659 0.13586743 0.2523628 -0.33702746
000300 c1 17 c7 bc 0d fe b6 bd c3 5e 92 3e b9 67 a3 3e
       -0.024303319 -0.08935175 0.28587922 0.31915072
000310 ad cf fa be df eb 0e 3e f8 26 40 be 6d 10 02 bd
       -0.4898657 0.13957165 -0.18764865 -0.031753946
000320 78 da b4 3e 7b 62 7f be ac 51 59 3d 69 a8 bf 3a
       0.35322928 -0.24939911 0.053056404 0.0014622334
000330 e5 1c 9a 3d f9 82 b5 bd f0 fd ed 3d 72 8c 18 be
       0.075250424 -0.08862872 0.116207 -0.14897326
000340 29 ad 75 3b 5d f6 91 3d ab fd 50 3d b0 fa b1 3c
       0.0037487245 0.07127068 0.051023167 0.021725982
000350 4a 5b 8c 3d d6 a4 e0 bd 92 fc 7b bd 73 a9 9d 3d
       0.068533495 -0.1096894 -0.061520167 0.076983355
000360 07 9d d6 3b f5 9c 9b bd 95 31 4b 39 8c d4 c6 bd
       0.006549481 -0.075982966 0.0001937806 -0.09708509
000370 22 71 97 3c 1b eb 19 bd 34 f6 68 3d 66 ab 4f 3e
       0.018486563 -0.03757773 0.056875423 0.20280227
000380 42 0d a5 3d 63 5c 7c 3e 91 22 b4 3e d6 dd 23 3d
       0.08059169 0.24644618 0.35182622 0.04000648
000390 d2 17 8b 3c a1 5e b8 bd 79 3b 4e bd 51 91 b1 be
       0.016979132 -0.09002424 -0.050349686 -0.3468118
0003a0 22 fc 3b 3e 95 76 cc bd 2e 76 10 be 7d 77 19 3e
       0.183579 -0.09983555 -0.14107582 0.14986987
0003b0 9f 50 07 3e 77 da 05 bd 8d f8 05 3d 7a a0 33 3d
       0.13214348 -0.032679047 0.03270774 0.043854214
0003c0 d9 0d 21 be 42 0d cb 3c 40 46 04 3d b8 4c 06 3e
       -0.15727939 0.024786595 0.032293558 0.13115203
0003d0 2b 4d 35 3d 4b 15 29 3e ad 1c 09 be 39 b3 14 3e
       0.044263046 0.16512029 -0.13389845 0.14521493
0003e0 f5 14 6c 3c 43 28 9d 3d 93 5d 3f be 79 51 6f 3d
       0.014409293 0.07673695 -0.1868804 0.058427308
0003f0 c0 06 33 bb ef 1a 01 be 68 05 a3 be ec e6 5b bd
       -0.0027317256 -0.1260793 -0.31840062 -0.05368702

network_body._body_endoder.seq_layers.2.bias f4 [128]
000000 70 ae d7 ba ff c5 a2 bb c8 3c 31 3c 15 71 18 3c
       -0.0016455185 -0.0049674506 0.010817714 0.009304305
000010 f3 0d 1c bb b4 4b 0d bc 62 fd 01 bb a9 5e 22 bc
       -0.0023812025 -0.008624006 -0.0019834866 -0.009910264
000020 d5 33 05 bb 3f ec 4c 3b ab f5 9c bb 99 e5 91 3b
       -0.0020325084 0.0031268743 -0.004790028 0.004452419
000030 d6 2b 98 ba 72 a5 95 3b 2d 82 8e 3c 49 85 e3 3b
       -0.0011609744 0.0045668418 0.017396057 0.006943379
000040 76 26 3c bc dd da f3 3a 93 1e 35 3c 63 36 07 3c
       -0.011483779 0.0018604655 0.011054653 0.008252713
000050 00 25 fc b9 6b ab 84 3b 42 20 70 3b e4 e6 cf 3a
       -0.00048092753 0.004048755 0.003664032 0.0015861657
000060 9a db 81 3b 8f d1 e0 bb 7a 1d 02 3c 6e d9 33 3b
       0.003962946 -0.006860919 0.007941598 0.002744283
000070 8e 19 b5 3b 48 f8 1c 3c c7 cc 6f 3c a6 32 69 3c
       0.005526728 0.009580679 0.014636225 0.014233267
000080 c0 79 23 3c 6a 4a 15 3c d7 ab b8 3b 76 14 ae 3b
       0.009977758 0.00911198 0.0056357193 0.0053124977
000090 f5 c5 a0 b9 c9 5c ec bb 65 9c 09 3c 8e e3 36 3c
       -0.00030665068 -0.0072132093 0.008399104 0.011162652
0000a0 68 57 d3 3b 03 11 0a 3c 27 a3 9c 3b 36 cc a7 bc
       0.0064496286 0.0084269075 0.0047801915 -0.020483118
0000b0 eb 44 c4 bb 93 df cd 3b eb 2d 4f bc af 4b 19 3b
       -0.005989661 0.0062827556 -0.012645225 0.0023391058
0000c0 7e cf ff 3b c5 51 00 3c 53 22 93 3b e3 41 52 bc
       0.0078067174 0.007831995 0.0044901758 -0.012833091
0000d0 57 27 6e bc 0a c5 45 3c a6 27 8e bb 5f 82 bd 3b
       -0.014535747 0.012070904 -0.0043382226 0.0057833637
0000e0 58 ff 9a bb 33 5a f7 3b b2 ff 6b bc 21 98 b5 b8
       -0.0047301464 0.0075485944 -0.014404224 -8.659089e-05
0000f0 b9 77 3d bc 7c 0c 01 bb 24 21 86 bc de ee bd bb
       -0.011564189 -0.001969128 -0.016373225 -0.0057962975
000100 4b ed d1 3b 7a fa 74 bc 8d 42 74 b9 6e b4 52 3c
       0.0064064614 -0.014952296 -0.00023294445 0.012860401
000110 00 f8 fd bb a4 b7 1d bc c9 4f 07 bc 09 91 7b bc
       -0.007750511 -0.009626303 -0.008258768 -0.015354403
000120 9b 96 df bb fd e3 56 3c f4 fa 41 bb 45 f2 02 ba
       -0.0068233735 0.01311588 -0.0029599043 -0.00049952074
000130 a6 53 48 bc 8b 70 2f bc f9 2f 81 3b 49 99 a6 bb
       -0.012226975 -0.010707985 0.0039424864 -0.005084191
000140 10 7f 36 39 59 e7 c9 3b 5a 81 2e 3a 6f 57 da 3a
       0.00017404207 0.006161612 0.0006656848 0.0016658137
000150 b8 16 dd bb a9 fa c1 ba 40 29 14 bc ba d2 bc bb
       -0.006747093 -0.0014799434 -0.009043038 -0.0057624253
000160 02 b5 cc bb d9 2c 84 3c 09 c3 ad 3a f6 55 96 b9
       -0.0062471638 0.016134666 0.0013256978 -0.00028674275
000170 b7 a4 43 3c e5 0b d5 ba 3b b7 3f bb 25 98 8b bb
       0.011941127 -0.0016254155 -0.00292535 -0.0042600804
000180 ee b4 3d bc 32 7d 18 ba 56 d4 78 3b b8 de 08 3c
       -0.0115787815 -0.00058169954 0.003796836 0.008353882
000190 bb 50 c8 bb dc be 2f bc 61 63 22 bc 72 c7 b3 bb
       -0.0061131394 -0.010726657 -0.009911389 -0.005486422
0001a0 42 9a da bb 55 c2 94 b9 0c 53 02 3c 26 db 56 bc
       -0.006671221 -0.00028373548 0.00795437 -0.0131137725
0001b0 b9 d5 3f 3c 83 2f 39 bc 80 58 07 3b 74 34 51 bc
       0.01170867 -0.011302832 0.0020652115 -0.012768853
0001c0 45 fc 97 bb 4c 16 e9 bb 91 e2 d6 3b 02 35 a1 ba
       -0.004638227 -0.0071132537 0.0065577705 -0.0012299123
0001d0 13 26 16 bc 40 3a 9b bb 9b 3d 4d 3c 76 4b 39 bc
       -0.009164351 -0.0047371686 0.012526895 -0.011309495
0001e0 bd 47 33 bb 44 41 5d bc f4 dd 04 bc 2e 14 5a ba
       -0.0027355992 -0.01350433 -0.008109558 -0.0008319047
0001f0 9f 68 a6 bc 94 6b 60 3b dd cd f5 bb df 7b 11 bc
       -0.02031356 0.003424381 -0.0075013475 -0.008879631

network_body._body_endoder.seq_layers.2.weight f4 [128, 128]
000000 1f d5 4f bc 65 a5 0b bd 0e e6 b9 bc 83 fa 31 3e
       -0.012685089 -0.03409328 -0.022692706 0.17380719
000010 8f 9b 20 bd 85 4d 96 3c 2b f3 f6 3d 19 61 91 3d
       -0.039210852 0.018347511 0.12058099 0.07098598
000020 65 87 f9 bd cb 94 07 be 15 64 17 bb 8a b2 a7 3c
       -0.121840276 -0.13240354 -0.0023100425 0.020470876
000030 b0 1c 0f be 10 02 cb 37 5e bb ae 3d bb 59 85 3d
       -0.13975787 2.4200446e-05 0.08531831 0.06511255
000040 69 c5 48 be 98 36 76 3d 80 51 2c 3d f5 7c e6 3d
       -0.19606556 0.06011066 0.042069912 0.112543024
000050 93 e8 11 be 60 ce 8f bc c5 9b fb 3c 4a a1 d3 3c
       -0.14248876 -0.017554462 0.030713925 0.025833745
000060 d8 dd ac 3b b4 6d 8f 3d d4 dc 51 3e 13 16 b3 3d
       0.0052754693 0.07003346 0.20494395 0.08744445
000070 0b 32 e0 bc 4b cd c9 bc bf c7 88 bd 15 17 b6 bd
       -0.027367612 -0.024634024 -0.066787235 -0.08891121
000080 32 8a 9c bd 8b dc 9a bd c1 37 06 be 04 17 91 bd
       -0.07643546 -0.075615965 -0.13107206 -0.07084468
000090 c4 e3 f4 bd cb f8 4f 3d 19 90 97 bc b8 08 ff bd
       -0.11957505 0.050774377 -0.018501328 -0.12452835
0000a0 9b e4 33 be a6 64 5f 3d ce 8f 46 3d 90 b7 8f 3c
       -0.17567675 0.054539345 0.048476987 0.017543584
0000b0 a5 e6 a5 bd a9 e2 2e bd c7 0e 08 bd 76 5b 2b 3d
       -0.081006326 -0.04269663 -0.033217218 0.04183527
0000c0 f7 f4 a7 bd 1a 92 86 3d fd 3b cf 3d bc 25 37 3d
       -0.0820102 0.065708354 0.10118864 0.04471372
0000d0 4f 89 91 3c c8 87 e3 3a 31 7b f9 3d e7 8d a1 bd
       0.01776567 0.0017359192 0.121817 -0.07888394
0000e0 62 08 a2 3d 51 ae 2a 3e 84 a6 9c 3d 5d a8 27 3d
       0.07911755 0.16668059 0.07648948 0.040932048
0000f0 51 7f 0d bd 18 16 33 3e d3 a5 c7 bd 80 c4 f9 3c
       -0.034545247 0.17488897 -0.09748425 0.030489206
000100 fd 31 1c 3c 95 25 13 3e 66 dd 9e bc 35 8b 53 bd
       0.0095334025 0.14369805 -0.01939268 -0.05164643
000110 1e a0 24 bd f3 e6 84 3d 12 d1 a2 bd 23 a3 78 bd
       -0.040191762 0.064893626 -0.07950033 -0.060702454
000120 77 0d 5f 3d c1 78 81 bd 13 c7 50 bb aa b8 c7 3d
       0.0544562 -0.0632186 -0.0031856939 0.09752019
000130 fb 3c 5b bd 15 0a 16 3d 20 b7 97 bd 22 31 97 3d
       -0.053524952 0.03663071 -0.07407975 0.07382418
000140 e8 b8 26 3d c0 6c f1 3c 73 7c 1f bc 85 12 90 bd
       0.040703684 0.029470801 -0.009734261 -0.07034782
000150 1e cf 97 bc 01 b1 2b bd 51 94 b3 3d 73 df 41 bd
       -0.018531378 -0.04191685 0.087685235 -0.04733224
000160 b6 9e 9e bc 61 c7 3f bd db d8 0a 3e 00 01 2f 3e
       -0.019362789 -0.046821002 0.13559286 0.17090225
000170 0e 91 e8 bc c6 af 92 3d 8a c9 fc bb 9b 76 44 bc
       -0.02838948 0.071624324 -0.007714455 -0.011991168
000180 16 09 3f bd 1c bf 0d 3c 62 b7 0e 3d 1a 19 f8 3a
       -0.046639524 0.008651521 0.034842856 0.0018928379
000190 0e 26 21 3d b8 20 42 3d 54 62 dd bd 3b 19 d8 3d
       0.039342932 0.047394484 -0.1080977 0.10551687
0001a0 c2 cc 9c bd f2 9b 6f 3d ea e0 6d be 32 ca 14 3d
       -0.07656242 0.05849833 -0.23230329 0.03632564
0001b0 02 1f 70 bd 0b b9 ae bc 5d f5 3b bd 36 f0 ed 3d
       -0.05862332 -0.02132847 -0.045888294 0.11618082
0001c0 88 4a 17 be c5 e0 fa 3b fa 7b b9 bd 9b 86 1e be
       -0.14774525 0.007656189 -0.0905685 -0.15481035
0001d0 94 86 24 3e 85 39 88 bd c0 63 04 bd ef 84 95 bd
       0.16066962 -0.06651596 -0.03232169 -0.07300746
0001e0 c1 92 cb 3d 92 d6 32 3d 8e 40 73 be dd 4e 1d 3d
       0.099401005 0.04366166 -0.23755094 0.038405288
0001f0 61 36 9e 3c c9 00 ad 3c c3 ce f3 3d b4 f6 75 bc
       0.01931304 0.021118538 0.11904671 -0.015012432
000200 18 fb 1a 3e 37 16 6f bc 77 df f0 bc 5b 62 f1 3d
       0.15134847 -0.014592699 -0.029403431 0.11786338
000210 db 2c 89 bd b4 6e 7a 3b d4 63 67 bc e4 54 35 3d
       -0.066980086 0.0038212957 -0.014122922 0.04427041
000220 81 7b 6b 3d 2b 09 7e 3c fa 32 c0 3d 50 57 db bd
       0.05749083 0.0155051155 0.09384723 -0.10710013
000230 8b 5f fa 3d cc e8 cc bc 70 2b 57 3d d6 4f 2f 3d
       0.122252546 -0.02501335 0.05253166 0.042800747
000240 93 32 ea 3d 86 de 72 3e 75 7f 3a bd 2d 1c 13 be
       0.114354275 0.23717698 -0.04553171 -0.14366217
000250 46 ee 2b bd bb 44 93 3c f0 a6 a1 bd 4e b6 9a 3d
       -0.041975282 0.01797711 -0.07893169 0.07554303
000260 61 d9 06 bd 20 dd 54 bd 96 48 6e 3d 91 a2 7d bc
       -0.032922152 -0.051968694 0.058174692 -0.015480653
000270 06 3c 1d bd 94 1b a6 3d f0 c8 b1 3d 66 d1 ab bd
       -0.03838732 0.08110729 0.08680904 -0.08389549
000280 51 66 35 bd 60 20 11 3d 4d 83 44 3e b5 53 ab bd
       -0.04428703 0.035431266 0.19190712 -0.08365575
000290 49 16 1d 3e 3a 7b 1d 3c 26 ab a5 3d be 18 26 3d
       0.15340532 0.009611899 0.080892846 0.04055094
0002a0 85 5c c7 3d 9f 6d b4 bd cb c2 7e 3d ac 92 fe 3b
       0.097344436 -0.08809971 0.062197488 0.0077689495
0002b0 e2 32 b3 bd 58 ac 08 bd 2d ea df 3c da dc fe bd
       -0.087499395 -0.033367485 0.027333343 -0.12444468
0002c0 ce 4e f2 bb 63 dc 4c bc 23 99 c3 bd 4c 8a 7d 3d
       -0.007394648 -0.012503716 -0.09550693 0.06189947
0002d0 7b 57 b5 bd 48 0c 02 3e b9 f5 96 bd 94 17 d7 3d
       -0.08854576 0.12699997 -0.073710866 0.10502544
0002e0 5f 4f fd 3a 51 67 23 be c9 93 0b 3e 89 d4 36 bd
       0.0019326023 -0.15957381 0.13630594 -0.044636283
0002f0 2a 8f 2b 3e 86 c9 c4 3c 54 51 11 be 3a a8 b4 bd
       0.16753832 0.024021875 -0.1419118 -0.08821149
000300 e8 c2 a1 bc e6 e7 f4 3d b5 2d 27 3d cd 4c 99 3d
       -0.019746259 0.119582936 0.040815074 0.07485352
000310 ef 64 43 3d d2 23 aa bd 56 b4 d3 3d 56 14 1e 3e
       0.04770368 -0.083076134 0.10337131 0.15437445
000320 19 4f 3d 3e 7e 9e 41 3d 2d 73 b9 3c c0 10 a2 bc
       0.18487205 0.04727029 0.022637928 -0.019783378
000330 6a 8b c0 bb 8c ad 89 3b 74 a0 05 3e ed 29 b6 3d
       -0.0058759945 0.0042015966 0.1304949 0.088947155
000340 ab 60 09 bc 9d 5f 8e bc 59 d2 ae bc b1 01 7e 3d
       -0.008384864 -0.017379576 -0.021340536 0.06201333
000350 07 9c 05 3e 0d 6b b4 3c f9 67 ab bc ca 81 cf bd
       0.13047801 0.022023702 -0.020923601 -0.10132177
000360 4b 93 47 3d be 97 15 be 59 7c 8d bd ec 01 ff 3c
       0.048724454 -0.14608666 -0.06908483 0.031128846
000370 92 59 b8 3d 46 87 b4 bd e0 6e 7c 3c f4 4d 89 3c
       0.09001459 -0.08814864 0.015407294 0.016760804
000380 93 54 80 3c 00 60 bc bd 26 27 08 be 5c 65 03 bd
       0.015665328 -0.09197998 -0.13296184 -0.032079086
000390 d2 3e 53 bd e2 c3 28 3e f8 06 31 be 4a 3f 68 bd
       -0.051573582 0.16480973 -0.17287815 -0.056700982
0003a0 03 ab 49 3d 33 3a e8 3d 3f 75 a9 bd e0 d7 11 be
       0.049235355 0.113392256 -0.08274316 -0.14242506
0003b0 ec fb 01 bd dc 81 27 39 86 bd c5 3d c4 89 e6 bd
       -0.031734392 0.00015974737 0.09655289 -0.112567455
0003c0 5a e3 85 bd 5f a9 90 3d 0c ca 45 bd 83 8f c5 bc
       -0.065375045 0.07063555 -0.04828839 -0.024116283
0003d0 9c 24 fd 3c 1a ac 1b bc e0 da 72 3d fb 62 1e 3d
       0.030901246 -0.009501481 0.059290767 0.038668614
0003e0 8f d7 02 be 83 2f d3 bd bc 50 d5 bb fa 48 75 3d
       -0.12777542 -0.103117965 -0.0065098684 0.05988405
0003f0 86 ca 02 3e 94 26 30 3e 48 7d a5 3d 58 1f c4 bc
       0.12772569 0.17202216 0.08080536 -0.023940727

network_body._body_endoder.seq_layers.4.bias f4 [128]
000000 8c fd 34 3c 99 8d 08 3b f1 2a 23 bc e8 f5 df bb
       0.011046778 0.0020836352 -0.0099589685 -0.006834734
000010 ca 05 8c bc 4e fc a6 3b 30 88 54 3c 27 c4 aa bb
       -0.017092604 0.005095995 0.012971923 -0.0052113715
000020 26 b5 56 3c 65 65 4e 3c a9 48 43 bc 32 be bb bb
       0.013104713 0.0125974165 -0.011919179 -0.00572946
000030 f6 e7 70 bc 49 58 b3 b8 7a d6 3e bc fc ae 67 3c
       -0.014703741 -8.5518295e-05 -0.011647815 0.014140841
000040 75 da 88 3a 74 e2 58 bb f2 5a 2b bc e1 23 b3 bc
       0.0010441082 -0.003309396 -0.010458695 -0.021867694
000050 60 6e 24 3b 1e c4 a5 3b c5 cb d4 3b 73 fb c1 3b
       0.0025090203 0.0050587794 0.006494018 0.0059198677
000060 ee be 3c 3c 5f 67 61 3c 60 19 bf bc 3b ea 3a 3c
       0.011520131 0.013757556 -0.02332753 0.011408384
000070 fe 73 02 3c 44 ca 46 bc 37 5f b1 3b 5b 5b 3e 3c
       0.007962225 -0.012133185 0.005412962 0.0116184605
000080 9e f6 c6 3b 2f 8d 81 bc 6d d4 da 3b fc d4 6b 3c
       0.0060718795 -0.015814392 0.006678155 0.014394041
000090 bf 2b 88 bc 56 08 02 3c ba ea 13 bc 07 25 63 bc
       -0.016622422 0.007936558 -0.009028131 -0.0138638085
0000a0 64 f5 fc ba 6e 38 88 bc ba 6f 9c bc d2 71 0d 3b
       -0.0019299206 -0.01662847 -0.019096244 0.0021582735
0000b0 97 ec ab 3b f6 02 85 3c 09 20 7d 3c 94 b2 21 3c
       0.0052467096 0.016236763 0.015449532 0.0098692365
0000c0 a8 89 a2 3c e1 17 f9 3b c8 35 b9 bc 08 1f 40 3c
       0.01984103 0.0076017235 -0.022608653 0.011726148
0000d0 b5 64 81 bc 3a 55 2e 3c 66 8d 37 bc 80 19 48 3c
       -0.015795091 0.010640437 -0.011203146 0.012213111
0000e0 a3 e9 b5 bb be ff b0 bb e8 c9 60 3c 7f 3c 69 3b
       -0.0055515333 -0.0054015806 0.013720013 0.0035589037
0000f0 65 3e 08 bc 84 b1 ff bb 31 69 00 bb ee 4a 12 3c
       -0.008315657 -0.007803144 -0.001959395 0.008928997
000100 24 30 a9 bc 96 52 14 3c 03 35 08 bc 46 44 ad bc
       -0.020652838 0.009052893 -0.00831342 -0.02115072
000110 7b 7a d0 ba 7c f0 2a bc b6 fd 9a 3c 69 b0 67 bb
       -0.0015905643 -0.0104333125 0.018919807 -0.0035352951
000120 79 bf 10 3b 25 38 cf bc 77 94 59 bc c4 fd 17 3b
       0.0022086783 -0.025295326 -0.013280026 0.0023192028
000130 47 43 f8 3a 69 58 83 bc 6e ce 40 3a a9 75 d5 3a
       0.0018940949 -0.016033368 0.0007354979 0.0016285676
000140 9e 44 a7 bc 9b a6 4b bc 6b 8d 8b bc a4 07 97 3c
       -0.020418461 -0.012429859 -0.017035207 0.01843626
000150 d6 fe f9 3a 40 b4 71 bb 59 48 4a 3b 8c 90 61 3c
       0.0019073139 -0.003688112 0.0030865876 0.013767373
000160 8a 12 30 3c c1 7a 53 3b a1 0d fb 3b 79 55 96 bc
       0.010746608 0.0032269212 0.007661537 -0.018351303
000170 15 d2 4e 3b 00 88 3e bc 79 d3 9d 3b 77 01 76 38
       0.0031558324 -0.011629105 0.0048164693 5.8652335e-05
000180 9c fb 14 bc 3f 96 e9 bb ea 42 41 bc cc 8e 99 3b
       -0.0090931915 -0.0071285064 -0.011795739 0.004686212
000190 19 97 50 3c 00 59 15 3c 60 a1 94 bc 05 28 9e bb
       0.012731337 0.009115458 -0.018143356 -0.004826548
0001a0 fc d3 4b ba 5e 17 61 bb dd e5 b6 bc c4 f0 21 bc
       -0.00077754236 -0.0034346203 -0.022326404 -0.009884063
0001b0 22 da 12 3c cb 9a 09 3c f0 b8 67 3c 50 52 7f 3b
       0.00896314 0.008398722 0.014143214 0.0038958974
0001c0 20 df 20 bc 08 34 53 3c b0 84 51 bb 35 17 54 3b
       -0.009818822 0.012890823 -0.0031969957 0.0032362465
0001d0 28 8a 59 3b 1d 40 b4 3b 20 79 2d bc ff 98 93 3c
       0.003319392 0.005500807 -0.0105879605 0.01801729
0001e0 94 94 18 3b 51 1a a6 bc 1f d3 7a 3c e2 ff a0 bb
       0.002328192 -0.02027622 0.015309124 -0.004913316
0001f0 c0 ca 40 3b 15 0d 0b 3c 3f a8 27 3c 00 58 a8 3b
       0.0029417723 0.008487006 0.010232984 0.0051374435

network_body._body_endoder.seq_layers.4.weight f4 [128, 128]
000000 0a 4e 8a bd 58 58 14 bd b6 5e 09 3e 50 fe 27 3e
       -0.06753166 -0.036217064 0.13415036 0.16405606
000010 04 4f ae bd c9 4b 00 3e 10 0e 39 3e 4f 80 03 bd
       -0.08511165 0.1252891 0.1807177 -0.032104786
000020 b7 65 ac 3d 49 c8 0d 3c 6c 01 fc bc 40 a0 0c be
       0.08417838 0.008653709 -0.030762397 -0.13733006
000030 77 dd cd bd 3c c8 eb bb 5c c6 63 be 09 1a 19 bd
       -0.10052007 -0.0071955007 -0.22243637 -0.037378345
000040 b7 73 95 bd df dc a4 bd 6f 95 48 bd 92 67 a8 bd
       -0.072974615 -0.0804994 -0.048970636 -0.082228795
000050 c1 67 8a bb 6b 4c 49 be dd 4e 67 bc c5 94 c5 3d
       -0.004223794 -0.19658057 -0.014117924 0.09647516
000060 a2 41 19 3d be 50 1d bd 5c ab a7 bc 83 78 40 3d
       0.037416108 -0.03840708 -0.020467453 0.04698993
000070 97 d0 b9 3c 13 6e d8 3d 26 04 37 be d7 0d 69 3d
       0.022682471 0.1056787 -0.17872676 0.056897964
000080 a4 52 09 bd 06 06 a6 3d 4a 8f 29 be 47 48 49 3e
       -0.033526078 0.08106618 -0.16558567 0.19656478
000090 3c 98 c0 bd 11 79 fc 3d c4 85 b2 bd 0e a9 a1 bd
       -0.094040364 0.12327779 -0.0871692 -0.07893573
0000a0 f0 d5 b5 bc 39 d5 ed 3d c5 31 86 bd 99 6b 0c 3e
       -0.02219674 0.116129346 -0.065524615 0.1371292
0000b0 21 b4 3e bd 5b e4 02 bc 2a c3 5f bd 7c cc 52 3d
       -0.046558503 -0.0079890145 -0.054629482 0.051464543
0000c0 00 13 d5 3d a9 8c 9b 3d 51 38 0d be 75 cd 97 3d
       0.104040146 0.07595188 -0.13791014 0.07412235
0000d0 98 fb 02 be ea 4d 3c 3d 4d d8 0a be 68 6c 31 bd
       -0.12791288 0.045972742 -0.13559075 -0.043316275
0000e0 7d 94 8a 3d b9 9b e0 3d 2d 2c 0d 3d 31 a3 f0 3d
       0.06766603 0.10967202 0.034465957 0.11749876
0000f0 4c aa 89 3e a6 9d 2e 3d 0e 87 d8 3d 7d 6f a9 bd
       0.2688774 0.042630814 0.10572635 -0.08273218
000100 64 32 0d bd c6 f3 01 3e ae db 59 bd 2e 60 93 bd
       -0.034471884 0.12690648 -0.05318802 -0.07196079
000110 12 c3 04 bd ed 40 31 be 1e 14 e6 3b 43 95 d2 3d
       -0.032412596 -0.17309923 0.007021441 0.10282376
000120 cf 12 21 be 61 90 e8 bc a2 18 d4 3d 78 8a 27 be
       -0.15729831 -0.028389158 0.10356261 -0.16361415
000130 90 50 a1 bd af 01 96 3d 93 ef 99 3b c8 d0 43 bd
       -0.07876694 0.0732454 0.004697749 -0.04780653
000140 c4 c1 10 bc 74 2a 42 3e 12 b1 b4 bd 97 10 ca 3d
       -0.00883526 0.18961507 -0.08822836 0.098664455
000150 c1 5a a2 3c de 6a 25 be 4f d0 06 3d 73 81 15 3d
       0.019818665 -0.16154048 0.032913502 0.036500406
000160 47 7c 79 3d 23 66 f2 bc 23 41 3b 3d 24 1e ec 3d
       0.060909536 -0.029589718 0.045716416 0.11529186
000170 f6 a1 7e bd 7e 84 ef bd 1a ce f6 bc 3a c1 f4 3c
       -0.062166177 -0.11695193 -0.030127574 0.029877294
000180 5f a4 1d 3e 71 c1 d7 3d c0 f1 08 be 42 b9 55 3c
       0.15394734 0.10534943 -0.1337347 0.013044657
000190 61 f5 37 bd c2 29 c3 3c ff 0d b3 bd 81 70 13 3d
       -0.044911746 0.023823623 -0.08742904 0.035995964
0001a0 d5 d6 b0 bd 04 84 43 3e 44 84 0b 3d fe 17 9a 3c
       -0.08634726 0.19093329 0.034061685 0.018810268
0001b0 13 d8 71 3d fc b7 ed 3d 4c b7 8e 3c 07 d0 03 be
       0.059043955 0.11607358 0.017421387 -0.12872325
0001c0 95 a0 14 be a1 e9 4a bd f6 f1 2b bd 41 b9 63 3d
       -0.14514382 -0.049539212 -0.0419788 0.055596594
0001d0 e7 d2 3b be 47 9f ed bd 36 c9 91 3d c7 82 d5 3d
       -0.18342172 -0.11602645 0.07118456 0.104253344
0001e0 21 71 cd 3d 8f 8e b6 3d a3 00 8d 3d f0 43 39 3d
       0.10031343 0.0891391 0.06884887 0.045230806
0001f0 8a 66 b8 bd 9c 9f 00 bd 28 4c 87 bd a8 91 c0 3c
       -0.09003933 -0.031402215 -0.066063225 0.023506954
000200 35 ac bb 3c 87 bf 0d 3c 54 be a1 3c a3 50 40 3d
       0.022909263 0.008651621 0.019744076 0.0469519
000210 58 2a b1 bd 2c 74 b9 3d 7e ae 8b 3c 7e 97 ed bd
       -0.086506546 0.09055361 0.017050978 -0.116011605
000220 d3 f4 93 bc 7c 86 f1 3c 15 c9 de 3d 89 ee 20 39
       -0.018061077 0.029483072 0.10878197 0.0001534765
000230 97 46 e4 3d cb a9 81 3b c7 02 66 bc 58 d5 76 bc
       0.111462764 0.0039570085 -0.014038748 -0.015065514
000240 a0 80 98 bc 5c 9c c5 3d 27 4a 01 3e 6a 49 8c 3c
       -0.01861602 0.09648964 0.12625943 0.01712485
000250 67 32 93 bd ca d7 be 3d 2f bd 15 bd c7 0f 15 be
       -0.07187348 0.09318502 -0.036557373 -0.145568
000260 ac 06 a6 bc 5d 53 f6 3d f6 33 c0 bd 6f 6f 8b 3d
       -0.020266853 0.12027619 -0.09384911 0.06808364
000270 d1 1e f5 bd 61 43 ab bd bb 71 de 3c 58 6c 87 3d
       -0.119687684 -0.08362461 0.02715384 0.06612462
000280 cf 78 35 ba 46 e2 05 be ab 66 db bc b3 50 fc 3d
       -0.0006922604 -0.13074598 -0.026782354 0.1232008
000290 d7 47 03 3d 73 d0 91 bd 3f c6 6d bd ab ed 0c be
       0.032050934 -0.07119837 -0.05805039 -0.13762538
0002a0 d2 48 e8 bc 5e 4a fe bc 83 37 a3 3c 1f 1d 18 3e
       -0.028355036 -0.03104132 0.019923931 0.14854859
0002b0 dc b1 a5 3c 94 96 c7 3d 09 d2 bc bd ef 3c ba 3d
       0.020226412 0.097455174 -0.092197485 0.090936534
0002c0 80 b7 78 bd 86 69 29 be d5 73 7d 3c b6 36 d4 3d
       -0.060721874 -0.1654416 0.015469511 0.10361998
0002d0 63 fc d8 3c db ce a3 bd e6 2f 47 be 99 a1 63 3d
       0.026487535 -0.07998439 -0.19451866 0.055574033
0002e0 fd c2 50 bd 01 26 14 3e fe 25 1c be 25 4a 9e bd
       -0.050967205 0.14467622 -0.15248868 -0.07728986
0002f0 77 f5 d8 bc b1 13 0d bd ec 2d d2 bc 9f 4e b9 bc
       -0.026484234 -0.034442607 -0.025656663 -0.022620497
000300 cc 8f b7 3d 09 3f c8 3d 54 27 8c bc 0a 19 31 3e
       0.08962974 0.09777648 -0.017108597 0.17294708
000310 2a 8e 48 bc c6 14 27 bd 2b fa e8 3d b8 80 86 bc
       -0.012240926 -0.040791295 0.11375841 -0.0164188
000320 34 36 db bc 59 47 d1 bc 3c 1a 22 3d eb 39 01 bd
       -0.026759245 -0.025546717 0.0395758 -0.031549376
000330 04 46 9f bd a5 53 9a bd 48 49 9e bd 79 6e ac 3d
       -0.07777026 -0.07535485 -0.07728821 0.084195085
000340 64 52 d9 bd d0 f0 30 3d 6f fd cd 3c 72 65 a5 3d
       -0.10611418 0.043198407 0.02514526 0.0807599
000350 37 65 9c bd 56 df 5a bd 49 75 9e bc 85 1f c1 3d
       -0.07636493 -0.053435646 -0.019343035 0.0942984
000360 50 6e ed 3d ed b8 8d 3d 3e 2b 31 3c df 98 82 3d
       0.11593306 0.069200374 0.010813532 0.06376814
000370 a3 d9 27 3d ba 6c 21 3e bf 69 26 3e a2 93 b8 ba
       0.04097904 0.15764132 0.16251276 -0.0014082084
000380 c9 12 97 3d 1a 24 a2 3d 18 a6 08 3e 2c 17 ba 3d
       0.0737663 0.07917042 0.1334461 0.09086451
000390 c6 62 0c 3d 4c af 0b be 1a 10 2d bd da 69 92 3d
       0.034273885 -0.13641089 -0.042251684 0.07149096
0003a0 10 79 95 bd 82 3e 0a 3e ba 9b 4f bd de 6c c5 bc
       -0.072984815 0.13500407 -0.05068562 -0.024099763
0003b0 96 1f 2b bd 5f a8 1d bd 8b 60 05 3e 84 87 fb 3a
       -0.04177817 -0.03849065 0.1302511 0.0019190167
0003c0 6a fb 21 bd cb 02 e0 3c 3c 35 08 bd 7d 87 70 3c
       -0.039546408 0.027345082 -0.033253893 0.01468074
0003d0 88 8b e4 bd 18 ee 94 3d 81 e5 9d 3a 32 aa e6 3d
       -0.11159426 0.07271975 0.0012046547 0.11262931
0003e0 1f a4 a1 3d fa 10 e2 bd b5 73 96 3d cb e4 dc bd
       0.07892632 -0.11038394 0.07346288 -0.10785826
0003f0 3c 1d 0d bc b9 97 00 be a5 eb ae bd c6 22 09 3e
       -0.008612927 -0.12557878 -0.085410394 0.13392171
