results/FirstRun2/MoveSomewhere/MoveSomewhere-71761.onnx (onnx, 95511 bytes, 9 tensors)

action_model._discrete_distribution.branches.0.bias f4 [3]
00000000: 28dd 033a de3d 44bc 6cc2 243c
0.0005030208 -0.011977641 0.010056119

action_model._discrete_distribution.branches.0.weight f4 [3, 128]
00000000: a67d 903b f552 b0bb ca0c 9e3b faf8 463c
00000010: bf2e c8bc 461c 343c bc8f 68bc 55e8 5a3b
00000020: 8f37 e0bb 0ea4 00bb 9be7 ed3a a42e f6ba
00000030: 2a6e 0e3b 4137 d63b 4fbb 3a39 ec30 323b
00000040: f021 47bc d60d 693a f9e2 213c 7f08 22bc
00000050: fb18 3a3c 746a 54bc bf04 8abb eaa0 683c
00000060: 974f 1b3c 8d6c 23ba 4806 933c 4b32 153b
00000070: d74c e7bb 3750 a13b 3eaa 43bc e056 103c
00000080: 084f 103c f929 81bc fc85 45bc 0229 8f3c
00000090: 7ab3 44bc b7cc b9ba c86e 00bc 888e 23bc
000000a0: dd09 1f3c 25bd b1bb b1e9 adbb f4a7 5d3c
000000b0: 0776 aa3c 8939 9e3c 408a 0cbc 6420 88b9
000000c0: 244b 7f3c 7e8d 89bc e103 9e3c 5e89 793b
000000d0: cee1 093c da40 9f3b d6f9 8639 f624 46bb
000000e0: 215e b93b 270b 90bb 312e 6ebc ebbe f53b
000000f0: 2c0e 01bb 201b 85bc d81b b4ba f712 f23a
00000100: f41c 49ba 28c4 99ba ed30 edb9 ff6c 08bc
00000110: 9afb a43c 3130 c0bb ddd4 1dba 4a20 cb3b
00000120: cfc2 7b3c e1f7 043c 3a19 9d3b 9b63 883b
00000130: 3500 173b 0a30 c9bb fd41 a03c 1139 faba
00000140: 9ebd cdbb 420d a73b 8373 d9bb ddf0 563b
00000150: 8ef1 213c ce10 dd3a eceb 04bc a7cf 503a
00000160: ffad 67bc c2be 14ba 0b89 843b 116d 713c
00000170: 07a4 bf3b 83ad 9e3a 6ad2 ebba 4514 983b
00000180: 7ab8 8dbc 62c9 56bc 72d9 00bc 3e38 193c
00000190: 060e 2abb e72a 823c c6e1 403b aec3 203b
000001a0: f223 fa3b c69d f839 3293 7cbc 1347 85bc
000001b0: 1bb4 573c 6575 413c 5876 efbc 1ce8 edbc
000001c0: 6d59 0e3c e840 8eb9 86a8 c73a 1a3c a83c
000001d0: f69a 4ebc 30cc a23c e722 5ebc 4276 853c
000001e0: eb98 fcbb 21cf be3b 326b 04ba 9299 d03b
000001f0: a0eb edbb 06b9 cb3b 9265 1d3b a1dc e13b
00000200: adc1 7abc ccbc f5ba 801c 47bc 248c b0bc
00000210: bf3e 953c fc3a 013c ee2e 3839 c0bf f3bb
00000220: 76eb 89bc e6b2 183c e92e d03b b72d e7bc
00000230: 2b38 c739 ea52 2938 a49e 1bba 2e0d 8dbb
00000240: efd4 5e3a 893d 90bc 6dba 8e3a 66f5 19bc
00000250: 9560 dfbb e454 c43c 1bb3 fbbb e4d3 f43b
00000260: 1aaf 723b f3c3 10bd eec2 8fbc 6ea9 0c3b
00000270: 7af0 0dbc 530e fbbb 4bd2 3c3c 22a4 7e3c
00000280: 258f 68ba 8151 503c d51c 50bc bd9b b53c
00000290: 61ab 8bbb deaa a2bb e973 2a3c 774d 1a3c
000002a0: 23bc 2cbc 403e 843b 458a 853c 9b77 5c3c
000002b0: ea48 7cbc c359 93bc 459d 2dbb d511 a2bc
000002c0: 4bd3 dfbc 6dbb 443c a6ec 57bb dda8 5b3b
000002d0: b11c 633c e4ff 22bc cb3d a63c 965e bd3c
000002e0: 6df5 673c 90ae 69bc f56a 543c c42b e63a
000002f0: 473c 6bbb 7d25 d43b e4d5 4e3b 86f2 2cbc
00000300: 5ed4 febc 80ed a93b b97a 9a3c ccaf 3abb
00000310: 71f2 71bc 509d 23bb cf04 2ebc 0072 40bc
00000320: f74c b43c 438f 653c a81a 553c 2d14 92bc
00000330: 22a6 e4bc afaa 883c 0bcd b9bc bb95 b03c
00000340: 50e8 70bb 73fb bcbc c3ff 8d3a 0949 f8bb
00000350: ddfd 803b a2ee 78bc b995 863c f8c9 c53b
00000360: b873 10bb c9a0 4c3c 2091 fe3b 311b faba
00000370: d86b 95bc 40af 513b 183f 3439 c22c 163b
00000380: 3e0a a7bc 6249 a9bb 2c68 ad3c 5a50 1d3c
00000390: 1919 4d3c b538 3cbc 846e 98bc 3eab f0bc
000003a0: ac56 6abc 0040 aab6 4510 96bc 0e09 08bc
000003b0: 0949 6fbc 9faa 6bbc 1081 2c3c cff5 9dbc
000003c0: b21c 3d3c d19b 8dbc 3151 afbc 14d3 77bc
000003d0: 1d5c 293c a0d4 ffbb d925 2dbc a8ea 36bc
000003e0: b395 41bb 4fd8 9a3c 170c 0d3c ba08 813c
000003f0: 5149 a13c 0ec2 9c3c e6cb 68bc ba00 493b
0.0044095097 -0.005380983 0.004823302 0.012144322 -0.024436353 0.010993069 -0.014194425 0.003340264
-0.0068425606 -0.0019629034 0.0018150689 -0.001878221 0.0021733143 0.0065373485 0.0001780812 0.0027189804
-0.012154087 0.00088903063 0.009880775 -0.009889721 0.011358495 -0.0129648335 -0.0042119916 0.014198521
0.009479425 -0.0006234132 0.017947331 0.0022765573 -0.0070587206 0.0049228924 -0.011942444 0.008809775
0.008807905 -0.015767084 -0.01205587 0.017475609 -0.012005681 -0.001417539 -0.007838912 -0.009982713
0.009706941 -0.005424159 -0.005307399 0.013528813 0.020808233 0.019314544 -0.008577883 -0.00025964074
0.01558188 -0.016791102 0.019288959 0.0038076262 0.008415652 0.004860026 0.00025744614 -0.0030234433
0.005656973 -0.0043958607 -0.01453738 0.007499566 -0.0019692285 -0.016248286 -0.0013741208 0.0018468787
-0.0007671856 -0.0011731433 -0.00045240615 -0.008326768 0.020139504 -0.00586512 -0.0006020794 0.0061989175
0.01536627 0.00811574 0.004794267 0.0041622645 0.0023040895 -0.00613976 0.019562716 -0.0019090493
-0.0062787076 0.005098016 -0.0066360845 0.0032797374 0.009884251 0.001686597 -0.008112889 0.0007965513
-0.014140605 -0.0005674177 0.004044657 0.014735476 0.005848411 0.0012106154 -0.0017991785 0.004641088
-0.01729988 -0.013109537 -0.007864343 0.009351788 -0.00259483 0.015889598 0.0029431446 0.0024530697
0.0076336795 0.00047419796 -0.0154159535 -0.016269242 0.013165499 0.011807774 -0.029231235 -0.029041342
0.008688313 -0.0002713271 0.0015232719 0.020536471 -0.012610188 0.019872755 -0.013558126 0.016291741
-0.007708659 0.0058230315 -0.0005051374 0.0063659633 -0.0072607547 0.006217125 0.002401684 0.006892756
-0.015304965 -0.0018748282 -0.012152791 -0.0215512 0.018218396 0.007887598 0.0001756509 -0.00743863
-0.01683591 0.009319996 0.0063532484 -0.02822004 0.00037998086 4.036996e-05 -0.000593642 -0.0043045497
0.00085003575 -0.017607467 0.00108893 -0.009396886 -0.0068169334 0.02396626 -0.007681263 0.0074715484
0.0037030638 -0.03534312 -0.017549004 0.0021463293 -0.008663291 -0.0076616197 0.011524747 0.015542062
-0.0008871428 0.012714745 -0.012702187 0.022168988 -0.0042623733 -0.0049642166 0.010403612 0.009417883
-0.010542902 0.004035741 0.016301284 0.013456251 -0.015398243 -0.017987138 -0.0026491445 -0.019783894
-0.027322432 0.012007576 -0.003294745 0.0033517398 0.013861821 -0.009948704 0.020293137 0.023116391
0.014157635 -0.01426281 0.012964954 0.0017560651 -0.0035894082 0.0064741955 0.0031560594 -0.010555869
-0.031107124 0.005185783 0.018857347 -0.002848613 -0.014767275 -0.0024965592 -0.010621264 -0.01174593
0.022009356 0.014011207 0.013006844 -0.017831886 -0.02791125 0.01668295 -0.02268078 0.021555772
-0.0036759563 -0.02306912 0.0010833669 -0.007577066 0.003936513 -0.015193613 0.016428815 0.0060360394
-0.002204163 0.012489506 0.007768765 -0.001908159 -0.0182399 0.0031995326 0.00017189642 0.0022914861
-0.020390626 -0.0051662186 0.021167837 0.009601677 0.012518191 -0.011488129 -0.018607385 -0.02937853
-0.014302891 -5.0738454e-06 -0.018318305 -0.00830294 -0.014604815 -0.014383941 0.010528818 -0.01928225
0.011542486 -0.017286213 -0.02140102 -0.015126009 0.010336903 -0.0078073293 -0.010568106 -0.011164345
-0.002953869 0.018901972 0.0086088395 0.015751231 0.01968828 0.019135501 -0.014208769 0.00306706

action_model._discrete_distribution.branches.1.bias f4 [3]
00000000: f8ca 9c3c 5277 33bc 4ed1 28bc
0.019139752 -0.010953741 -0.010303808

action_model._discrete_distribution.branches.1.weight f4 [3, 128]
00000000: d6dd 683c e526 75bc d016 403b 1a5b 953c
00000010: 74e5 13bb 28f9 943b c418 c43c ca95 2cbc
00000020: 9f2a 283c 0b00 973c 41eb 483a ce17 143d
00000030: 7e06 f43c 87ef 093b 1727 03bd cf6c 10b9
00000040: 7e6f 64bc bea5 d63c 7086 633b 1f3b 72ba
00000050: 2dcb 1ebc 1db4 b8bc 7ac2 ab3c 20ad c93c
00000060: e58a f63c 4bfe 55bb 1d6b 883c 9d04 0dbd
00000070: f9b9 f53c 5e37 953b 1484 d5bc 21d7 5fbc
00000080: 168c 0a3d f7b9 893c 5ed8 923c f48a 71bc
00000090: f5ce 9ebc 171b a03c d208 db3a 318f 0dbd
000000a0: 504f 353c 1167 adbb 2dce babc 04ee c0bc
000000b0: a969 a2bc d01d d03c 2eed 59bc 0d57 133c
000000c0: 7aa3 c93c 3c86 93bc e82e 383b a8aa 8bbb
000000d0: 8f41 febc c667 69bc 9b05 efba c8c1 59bc
000000e0: 7f2a 883c e4ee aa3c 7059 4bbc d646 8338
000000f0: de23 23bc 0cc2 99bc 8edd 7bbc 818b 0d3d
00000100: e221 5e3c b921 293c 6f73 a7bc 2b80 93bc
00000110: d2c6 3f3c 1fda 893c 57e6 513c 0800 4a3c
00000120: 9a12 8bbb 5e3e e6bc 24ff 17bc e5ac 9c3c
00000130: c55d 9b3b 96c5 91bc e08f 06ba 9862 0abc
00000140: d01c 903c dd1a e83c f713 b8bc 720c b13c
00000150: e73e 193c 85f7 ac3c ed6f 98bc 42fc b9bc
00000160: c17d 00bc 483e 56bc 757f 63bb cc7d 233c
00000170: 02e5 ba3c 25ec 50bc a960 b2bc b02e 373c
00000180: 85a3 aabb b15c a5bb 314f babc 48fe bcbc
00000190: 6704 d6bc 7b92 d13c 4bef 933c 3357 0fbc
000001a0: 2f24 c73b 2665 95bc f02e a23c 8bd2 963c
000001b0: e5c1 b33c d1ff 8b3c 9d78 80bc 56bb 8d3c
000001c0: 993b bfbc ce0a bd3c 2e12 9a3c 61c5 b43c
000001d0: 21ae 4bbc e107 943c 2464 fc3b 300f 03bd
000001e0: f2b9 b93c a515 bebb 49c4 fa3b 4816 5dbc
000001f0: 0ac0 22bd 6d64 4cbc c4b8 823c 00ba 2bbc
00000200: d5f6 62bc 912b 3d3b 0dc0 3dbc 626e 21bc
00000210: d95f ae3c e69f a5b9 cfdd 28bc 8f8e 9cbc
00000220: 11e9 9abc 929d 33bc ef3f 29bc 71a0 c1bc
00000230: 76d1 ab3b 7afc 473c 753a bd3c e05a 50bc
00000240: 66a4 a33c 2c53 9ebb 1fdb 2c3c d079 ebb9
00000250: 6227 843c cc6f 9b3b ce47 a9bc 170c 223b
00000260: 610c 7fbc 1614 3fbc da04 cd3b 76aa 1d3c
00000270: c35f e9bb b297 123c 92a8 063c 3665 403c
00000280: d246 083c 3700 81bb 62b9 8ebc 98a1 de3b
00000290: cdfc 953c 49b2 8fbb f055 9b3b deba e93b
000002a0: be75 73bc 55fe 40bc 7bfa 873c dbaa 6c3c
000002b0: 2fce be3c f226 a3bb 9e93 953c 744e bebb
000002c0: c4e6 2c3a ea9a 2e3c 6db9 67bb d8b9 8abb
000002d0: 1f7a f13c 9015 23bb d448 1b3c 8bb9 c73c
000002e0: e317 8b3c e543 343c 185c 11bb b6ea e03a
000002f0: 9a0a 923c 0da1 adbb 7cdf 52bb 4ba0 94bc
00000300: f35f d8bc d53a 92bc b534 123c 0f30 de3c
00000310: 7d25 943b 3913 62bc 1e03 72bc 0919 bbbc
00000320: 0019 1a3c eaa3 0e3d af83 9d3c cc15 5abb
00000330: 6703 a0bb ae6a 9f3c d17f 40bc 77ea c63c
00000340: aff1 c5bc 1995 2fbc 55a4 143c 1924 acbc
00000350: 57eb 8a3b 787f 09bd c057 aa3c 0292 3b3c
00000360: 9633 733c e2db 033c 46fe b43b 7c88 0abc
00000370: 9387 b4bb 67ec ba3b adb6 7cbb 194e 873c
00000380: 2399 f7bb c466 15bc cb96 e5b8 90c3 c13c
00000390: cf86 013b b36f 39bc 6861 a23b ab59 2b3c
000003a0: 559f 4e3c 9e1a 973b 0901 9ebc 0421 42bc
000003b0: 9521 00bd c4b5 7e3c 0998 153c 4fd5 47bc
000003c0: 331b 5b3c beff d9bc a7f8 8fbc 215b 75bc
000003d0: 684f b03c c64c c6bb 4f5f 9cbc 885b 083c
000003e0: 5c0f dbbc 6760 6d3c 2862 0fbc 1196 c93b
000003f0: cb9e bf3c 635c 183c d75a 89bc ea33 9d3c
0.014213046 -0.014962886 0.0029310472 0.018231917 -0.0022567185 0.0045463033 0.02393759 -0.010533759
0.010264068 0.018432638 0.000766445 0.036155514 0.029788252 0.002104731 -0.0320197 -0.00013773445
-0.013942597 0.026202079 0.0034717582 -0.0009240377 -0.009691996 -0.022546822 0.020966757 0.024618685
0.030095527 -0.003265279 0.016652638 -0.034428228 0.029995905 0.0045537194 -0.026063956 -0.013662131
0.033825003 0.016812308 0.017925438 -0.014742602 -0.019385794 0.019544167 0.0016711003 -0.034560386
0.011066273 -0.0052918275 -0.02280339 -0.023550995 -0.019825773 0.02540484 -0.013301177 0.0089929225
0.024614085 -0.018008344 0.002810413 -0.004262287 -0.03103712 -0.014245933 -0.0018235923 -0.01329083
0.016621826 0.020865865 -0.01241146 6.259761e-05 -0.009957282 -0.018769287 -0.015372647 0.03455687
0.013557883 0.0103229815 -0.020440785 -0.018005451 0.011705117 0.016827641 0.012811265 0.012329109
-0.004244161 -0.02810591 -0.009277139 0.019125411 0.004741403 -0.017794412 -0.00051331334 -0.008446358
0.017591864 0.028333122 -0.022470457 0.02161238 0.009353376 0.02111412 -0.018608058 -0.022703294
-0.007842482 -0.013076372 -0.0034713421 0.009978723 0.022814278 -0.012751614 -0.021774607 0.011180565
-0.0052074813 -0.00504645 -0.02274284 -0.02307047 -0.026125146 0.025582543 0.01805844 -0.008748817
0.0060773115 -0.018236708 0.019797772 0.018410942 0.021943042 0.017089756 -0.015682513 0.017301243
-0.023343848 0.023076441 0.018807497 0.022066774 -0.012431652 0.018070163 0.0077023674 -0.031996906
0.022671673 -0.00580092 0.0076527935 -0.013494082 -0.039733924 -0.012475115 0.015957244 -0.010481358
-0.013852795 0.002886508 -0.011581433 -0.0098529775 0.021285938 -0.00031590386 -0.01030679 -0.019110946
-0.018909963 -0.010962861 -0.010330184 -0.023636075 0.0052434755 0.012206191 0.023099164 -0.012716979
0.019975852 -0.004831692 0.010550289 -0.0004491345 0.01613206 0.004743552 -0.020664122 0.0024726444
-0.015566916 -0.011662504 0.006256682 0.009623161 -0.0071220114 0.0089473 0.008218901 0.011742881
0.008317666 -0.003936793 -0.017422382 0.006794166 0.018309021 -0.004385267 0.004740469 0.007132872
-0.014859615 -0.0117793875 0.01659893 0.014445032 0.023291675 -0.004979008 0.018258866 -0.005807692
0.0006595666 0.010657052 -0.0035358325 -0.00423358 0.029477177 -0.0024884678 0.009477813 0.024380466
0.016979164 0.011002515 -0.0022180136 0.0017159793 0.01782732 -0.0052987398 -0.0032176664 -0.01814284
-0.02641294 -0.017850319 0.008923699 0.027122525 0.0045210705 -0.013798528 -0.014771251 -0.022839086
0.0094053745 0.03482429 0.01922783 -0.0033277152 -0.004883218 0.019460049 -0.011749224 0.024281723
-0.024163095 -0.0107167 0.009072383 -0.021013306 0.0042394805 -0.03356883 0.020793796 0.011448385
0.014843842 0.00804803 0.005523476 -0.008455392 -0.005509326 0.005704451 -0.0038561032 0.016516732
-0.007556097 -0.0091187395 -0.00010947658 0.023652822 0.001976419 -0.011318135 0.0049554594 0.01045839
0.01261123 0.0046113273 -0.019287603 -0.011848692 -0.031282026 0.015546266 0.009130486 -0.012196853
0.013373184 -0.026611205 -0.017574621 -0.01497534 0.021522239 -0.0060516326 -0.019088415 0.008322604
-0.026740722 0.014488316 -0.00875143 0.0061519225 0.023391148 0.00929937 -0.016766949 0.019189794

discrete_action_output_shape f4 [1, 2]
00000000: 0000 4040 0000 4040
3.0 3.0

network_body._body_endoder.seq_layers.0.bias f4 [128]
00000000: 5d48 4f3b fa5e bd3c eef2 bf3c 80c0 d73b
00000010: 4b35 ad3c 19ee 67bb 9d4c b93c 2910 c53c
00000020: b753 27bc e918 c93b 3b4f 88bb bbad a13b
00000030: 1943 853c 9f2c 80bc 75d9 59bc ddb9 1d3b
00000040: ab3d a23c d216 4d3c 7dc5 85bb d5eb 86bc
00000050: 7205 30bc 0301 c03c 4ca1 983c 84b7 0dbc
00000060: 230e a1bc 6795 dbbb 70a7 e73a 55e1 82bb
00000070: 4a0d 483c 2177 223c 7887 02bc a493 dfbb
00000080: 8244 d0ba fdd4 933b d4e4 74bc 310a 3ebc
00000090: 26a5 373c 33a2 6cbc 0e9c 40bc ead0 103c
000000a0: 23cf 8e3c 0b32 92bc 5511 083c f634 993c
000000b0: a0ea f13a d23e 8c3b 47f1 583a f301 62bc
000000c0: 6576 80bc 9d1f 8f3c b369 623c 49aa 983c
000000d0: c0c2 c2ba 549f 76bc b383 e53b c6c7 39bc
000000e0: 89c5 20bc da51 703b 3d48 8b3c 3913 64bc
000000f0: f2f2 363a e1b2 50bb 27a5 9ebb d38f 09bc
00000100: e6ab 3cbc 0f8c 75bc 9bb2 11bc cf14 ffbb
00000110: 0c5a 0a3c b38d 8bbc 3825 e03b b41d 133c
00000120: 0c47 60bc 3aab b9ba f082 4fbc 788e 543c
00000130: 6b7f 8bbc b962 b63c 666d 5a3c f361 7ebb
00000140: d43c cebb b2d3 04bc cd79 a3bb 5913 0abb
00000150: 404a 9b3c f803 3bbc b79d 5c3c 9fad a8bb
00000160: 469a 8e3c c7bc 4abc 5b2c bc3b 0494 afbc
00000170: 7f60 a2bb e425 bb3c 51fe 533c 1bbc 43bc
00000180: 717c ddbb c0a9 05bc c822 02bb 037a 4d3c
00000190: 8ce9 a63c 4665 7e3c 74c2 95bc 4b9d 903a
000001a0: 14fd 26bc 14ef 4f3c f8d0 8b3c 9612 52bc
000001b0: e0a8 953c 2e3d 8fbb fc0c 083c 3bf6 52bc
000001c0: 9892 893c 03db adbb fe13 003c 0f6f b73c
000001d0: 543e 9abc e7d3 dd3b f1f3 51bb d5a7 2f3c
000001e0: 42eb 7dbc f248 3d3a 5769 39bc 4831 92bc
000001f0: 67b0 1f3c 07ad d3bb 0eb9 503c 3d71 fdba
0.0031628825 0.023116577 0.023431268 0.006584227 0.021143576 -0.003538972 0.02261954 0.024055557
-0.01021283 0.0061370027 -0.0041598356 0.0049340404 0.016267346 -0.015646277 -0.013296475 0.0024067082
0.019804796 0.012517648 -0.0040823803 -0.016469875 -0.010743486 0.023437982 0.0186316 -0.008649711
-0.019660061 -0.0067011598 0.0017673802 -0.003994147 0.0122102 0.009916098 -0.007966869 -0.00682302
-0.0015889558 0.004511474 -0.014947135 -0.0115991095 0.011208808 -0.014442968 -0.011755956 0.0088388715
0.017432755 -0.017846128 0.0083049135 0.018702012 0.0018456765 0.0042799497 0.0008275699 -0.01379441
-0.015681455 0.01747113 0.013819146 0.018635886 -0.0014859065 -0.015052635 0.007004225 -0.011339134
-0.009812721 0.003666988 0.01700222 -0.013920599 0.00069789507 -0.0031844901 -0.004841465 -0.008396107
-0.011515593 -0.014987006 -0.0088926805 -0.007784463 0.00844432 -0.01703534 0.0068403743 0.00897925
-0.013688814 -0.0014165409 -0.012665495 0.01297342 -0.017028531 0.022263872 0.013331747 -0.0038815707
-0.0062938724 -0.008107113 -0.004988885 -0.002106866 0.018956304 -0.01141452 0.0134653365 -0.0051476504
0.017407548 -0.01237411 0.0057425923 -0.021432884 -0.004955351 0.022845216 0.012939052 -0.011946703
-0.0067592193 -0.008158147 -0.0019857157 0.012541297 0.020375036 0.015527075 -0.018281199 0.0011033205
-0.010192174 0.012691278 0.017067418 -0.012821814 0.018269002 -0.004371307 0.008303877 -0.012876089
0.016793534 -0.0053056492 0.0078172665 0.022391824 -0.018828548 0.0067696455 -0.003203627 0.010721167
-0.015497984 0.00072206475 -0.011316619 -0.017845765 0.009746647 -0.0064598355 0.012739433 -0.0019336116

network_body._body_endoder.seq_layers.0.weight f4 [128, 45]
00000000: 0558 8bbe 36cf 593e c7b6 f3bd 3e48 ea3d
00000010: a305 383e 58e4 c9bc 3ae1 acbd f118 353e
00000020: dede debe bbeb 23be 7d80 193d 03ec 443d
00000030: ce32 0abe cae9 783d 41d9 09bd a22d 823e
00000040: a49f b23d e701 a13b c6ab 2d3e e924 85be
00000050: e22e 403d f6a9 86be d842 14be d5a8 163d
00000060: 82cc c63d 13c4 883d 72a9 8bbd 3ce7 2e3b
00000070: 4b13 0c3e add0 10bc 546f 1c3e 3cf6 11be
00000080: 0ea2 843d 9a47 1a3d 2125 acbc 8e1e 3a3e
00000090: e14e 11bd b268 923d 9877 d83c 62bc da3d
000000a0: ae9a c53d 90ae 863b 4e55 d4bd bee7 9ebe
000000b0: eb55 8d3d 17cc 83be 234b d13d a79a 97be
000000c0: e8fb eb3c 05e7 cbbd 8f64 a1bd 7e3d 893e
000000d0: 1067 ce3d 14c1 05bd 9770 d13d 18a2 85be
000000e0: 134b 1b3e 2ece 1e3c 207d b93d 23e2 223e
000000f0: b607 b73d 24a2 d93d 383f cebd 5092 a33b
00000100: fc6b 783d d11f 9b3e d362 6dbe 8ef4 483e
00000110: 6719 8bbc 461f cf3d 44dd ce3c 4c5b c13c
00000120: 44cf 01bb cabf a8bd 30bf b5bd c9f3 b33e
00000130: 9f19 6f3e 1152 1b3d 4344 3a3d f6a0 54bd
00000140: 71e3 19bd da1a 84bd 9c3a 8dbc 2029 eabc
00000150: 12e6 8dbe 21d9 35be b83b 4c3e 5679 09bd
00000160: 96c8 693e b472 bbbd 67d8 e0bd ae83 153e
00000170: dbe2 7cbc bc16 443d 7229 023d ba27 513d
00000180: f960 66be 0b43 24be 61f0 82bd e017 de3b
00000190: 8dd0 23be b490 b13c 1928 d03d b751 d1bd
000001a0: 855b ee3d 5dd4 00be 675b 273e 9205 1c3e
000001b0: 7569 debd b102 343e 2ccf 713d f089 04bd
000001c0: 7a81 123e cf37 3d3e 86ec e1bc bb7e 083e
000001d0: 57fb 623e ea9c bebd 9123 6a3e 2ad2 3d3e
000001e0: 0e98 e23a 4489 733d e5c8 4e3d 2775 6cbe
000001f0: 0646 d63d f817 0a3e 84e1 363e 44e3 6a3b
00000200: adbf 28be 6b7c 71be ce16 2f3b 3be3 77bd
00000210: 36fa 853d e066 70bc 2e17 8a3d 6cf2 1fbe
00000220: a96d ac3d c7ac d53d 3dcf 1c3c 1022 873d
00000230: de06 a2bb 8a13 61bd 524d 3e3c 96d9 97bd
00000240: f759 673c 4b00 633d 173a d7bd ecbd d0bc
00000250: 5fbd 12be 1215 9fbe ddeb e1bd 8c4c 153d
00000260: d6f7 a1bc 2b39 b13d 49f4 b83d eade 25bd
00000270: e338 40bd 578a 3cbe fcab 853e 8f67 843e
00000280: 70aa 9abd e80f 403e b0a6 b03d 32bc 453d
00000290: 0321 223e b19d 3e3e 48a4 2fbe 76fb 5fbd
000002a0: 233a 80be 4a5e 863e dd7b e7bd 7e31 723e
000002b0: cd35 353e ebdf 16bb d982 473e dbd7 89bd
000002c0: a03c abbd 2fc5 403d c820 3d3d e1f2 53bc
000002d0: 60dc 1ebe bedc 113e 72fc 143d 80e2 393c
000002e0: 8dfb 68bd 8167 acbd 61e8 623d 20b9 da3c
000002f0: ef2f f63d 3ca4 4c3d 1ba8 fe3d c357 523d
00000300: 39e7 edbd 8597 5cbe a3e4 0e3d d901 dc3c
00000310: d8e8 9c3e 17af ad3d 1345 b13c 4709 203e
00000320: 113f b0bd 66bf 9f3d 7dac 593e 69e6 2dbd
00000330: 8737 e33c a15d 53be 71b1 973d c19f 6b3d
00000340: 6c2e 04be b37f c63e 4acd 2cbd b9d4 9a3e
00000350: a5a2 be3d 51b6 083e cee2 2f3d 921c 7dbd
00000360: 261f 65bd 084f 423e ffd5 663e 5741 39bd
00000370: 9ab6 0cba 383b 88be 6f53 0b3e 168a eb3e
00000380: d010 1cbd 5407 62be e820 5dbd 9b73 1fbe
00000390: b68b 35bd 87af b13e c4a3 1e3e bc43 0e3e
000003a0: 9732 283e 3266 5fbd 8b12 d1bd a2bb 7bbe
000003b0: 84ae 043e caf0 3e3c 882e 10be 971b 193d
000003c0: 4b45 55be 8ad9 af3d a00c c73d 2fd6 463e
000003d0: 9b2f 6e3e 36a3 5bbb a4b5 abbd 19ce 623c
000003e0: 3fef 08be 06da 713d 8bd3 05bd 7a05 9f3d
000003f0: 537d a5be 1c2e 3cbe adf8 193e 66a1 1cbd
-0.2721559 0.21270451 -0.119000964 0.1143956 0.179709 -0.024645016 -0.08441396 0.17685296
-0.4352941 -0.16007893 0.03747605 0.04807664 -0.13495943 0.060769834 -0.033654455 0.2542544
0.08721855 0.004913557 0.16960058 -0.26004723 0.04691971 -0.26301545 -0.14478624 0.036782105
0.097069755 0.06678023 -0.068194285 0.002668812 0.13679235 -0.008838815 0.15276843 -0.14254087
0.06476222 0.03766594 -0.021013798 0.18175718 -0.035475615 0.07148875 0.026424214 0.106804624
0.096486434 0.004110165 -0.10367833 -0.3103618 0.06901153 -0.25741646 0.10219409 -0.29610178
0.028806642 -0.09956173 -0.07880508 0.26804727 0.10078251 -0.032654837 0.10226553 -0.2610023
0.15165357 0.009692712 0.09057069 0.15906577 0.089370176 0.10626629 -0.10070652 0.004991807
0.060649857 0.30297711 -0.2318223 0.1962454 -0.016979886 0.10113387 0.025251992 0.023603104
-0.0019807378 -0.08239706 -0.08874357 0.3514693 0.23349617 0.03792006 0.045475256 -0.051911317
-0.03757042 -0.06450434 -0.017239861 -0.028584063 -0.27714592 -0.1775861 0.19944656 -0.03356298
0.22830424 -0.09152737 -0.109787755 0.14601013 -0.015434946 0.047873244 0.031777807 0.051063277
-0.2249793 -0.160412 -0.06393505 0.0067777485 -0.15997525 0.021675445 0.10163898 -0.10220664
0.1163855 -0.1258101 0.16343461 0.152365 -0.10859958 0.17579152 0.059035465 -0.03235811
0.14307204 0.1847832 -0.027578603 0.13329594 0.22166191 -0.09307273 0.2286513 0.18537202
0.0017287747 0.05945708 0.050484557 -0.23091565 0.10462575 0.13485706 0.17859465 0.0035841027
-0.16479369 -0.23582618 0.0026716474 -0.06051944 0.065418646 -0.014672965 0.067427024 -0.1561982
0.084193535 0.10433345 0.009570894 0.06598294 -0.0049446663 -0.054950275 0.011615114 -0.07414548
0.01412057 0.0554202 -0.10509127 -0.025481187 -0.14330052 -0.31070763 -0.110313155 0.036449954
-0.019771498 0.08653482 0.09030969 -0.04049579 -0.04692925 -0.18412147 0.26107776 0.2586026
-0.075520396 0.18756068 0.08625543 0.04827518 0.15832905 0.18614842 -0.17152512 -0.05468317
-0.25044355 0.26243812 -0.11302922 0.23651692 0.17696305 -0.002302165 0.19483508 -0.06730624
-0.08361173 0.04706305 0.04617384 -0.012936325 -0.15513754 0.14244363 0.036373563 0.011345506
-0.056880523 -0.08418179 0.055397395 0.026699603 0.12020861 0.049961314 0.12434407 0.051353227
-0.11616368 -0.21542175 0.034886014 0.02685635 0.30646396 0.08480661 0.021639382 0.15628539
-0.08605779 0.07800178 0.21257205 -0.042456064 0.027736438 -0.20641185 0.07406891 0.0575254
-0.12908334 0.38769302 -0.042187966 0.3024042 0.09308366 0.13350798 0.042940907 -0.061794825
-0.05593791 0.1897546 0.2254257 -0.04522833 -0.0005367786 -0.2660768 0.13606046 0.4600379
-0.03810197 -0.22073108 -0.05398646 -0.15571444 -0.04432269 0.3470423 0.15492159 0.13893026
0.16425548 -0.05454082 -0.10208615 -0.24583295 0.12957197 0.011654088 -0.1408025 0.037379827
-0.20827214 0.08586414 0.09719205 0.19417642 0.23260348 -0.003351403 -0.083842546 0.013843083
-0.13372515 0.059045814 -0.032672446 0.077647164 -0.32322177 -0.18376964 0.15036269 -0.03823986

network_body._body_endoder.seq_layers.2.bias f4 [128]
00000000: 2e4f f93b dcd6 49bc 4727 7e3b 19b5 ca3b
00000010: c98e 89bb b1a9 eebb fc95 333b 96df e03a
00000020: 23a7 803c 2d6b 373c 088a 533c c8f7 ba3c
00000030: 6a35 893c b92d ed3b aad8 60bc 9b51 9a3b
00000040: 3e71 4abb 172c a93c ddc3 bf3b d76f 833c
00000050: e46e f7bb 01af 27bc 67ff 6a3c fb00 893c
00000060: 9a17 b13c 2d55 d13b fbc1 503c f4ec afbc
00000070: a6aa 943c 0d63 c8bb c07e 77bc bafd 3cbc
00000080: cac8 573c dced 6d3b 2d31 333c 8431 8bbc
00000090: 5069 16bc a5f1 fd3b 949e 04bc cc71 a5bc
000000a0: 040f 353c 6fe2 683c 2225 97bc 943b 8fbc
000000b0: 707f 0abc 5f38 ac3c 3205 9bbb 350f c23b
000000c0: 1f97 3e3c eb2e 0fbc 16bd 9dbb 5911 e3bb
000000d0: 4540 33bc ebb8 35bb a9ea a0bb 0e35 90bc
000000e0: 78d2 3b3c 96af 183c 77f5 d9bb 1ecb 2b3c
000000f0: 4e86 8bbc aea6 04bc db85 593b be7e 983c
00000100: 7314 483c de02 893c bf84 8ebc a802 2ebc
00000110: 4ccd 2d3c c103 573c 3955 a93c a813 d43b
00000120: 257a 31ba 1e56 8cbc 33ce 7dbc 8bf3 8d3c
00000130: 0a12 443c 8f30 73bc 9c7c 243c c204 30bc
00000140: e047 6f3c 067f c83c cad9 00bc 6b5d b13c
00000150: 1b55 edbb ae33 ad3c ce58 3cbc 14f9 65bc
00000160: cb01 843a f3f5 88bc bbe9 1ebc 0946 ba3b
00000170: 11e1 833c 54dc b6bb 1160 74bc e971 08bc
00000180: 8ec7 823a 06a4 e2bb 22eb 37bc 87f1 92bc
00000190: dae9 8cbc d73b aa3c b593 533c 0a4e 433a
000001a0: 7f4e 753a 3e8c 66bb dd34 9f3c 8401 a13c
000001b0: e929 013c 628c 163c dd20 32bc c43f 8c3c
000001c0: 6975 9ebc b8b9 903c f653 6f3c 72f7 9b3c
000001d0: e6f5 20bc dd89 943c 3f90 fa3b f37c 00bb
000001e0: 9a7f 753c eac3 9abb 5df4 683c 9600 6bbc
000001f0: a758 8fbc c1d9 95bc 9072 353c 154d 1bbc
0.007608316 -0.012319293 0.0038780735 0.0061861393 -0.0041979295 -0.0072834124 0.002740263 0.0017156478
0.015704697 0.011194986 0.012911327 0.02282323 0.016749103 0.0072381166 -0.013723532 0.004709435
-0.0030890252 0.020650906 0.005852206 0.01604454 -0.007551061 -0.010234595 0.014343119 0.0167241
0.0216177 0.0063883276 0.012741561 -0.021475293 0.018147778 -0.0061153234 -0.015105903 -0.0115351025
0.01317043 0.0036305105 0.010937017 -0.016991384 -0.009180382 0.0077497535 -0.008094449 -0.020195864
0.011050943 0.014214142 -0.018450323 -0.017484464 -0.008453235 0.021022974 -0.004730844 0.005922223
0.01163271 -0.008739213 -0.0048138006 -0.0069295582 -0.010940616 -0.0027728628 -0.004910786 -0.017603423
0.011463754 0.009319207 -0.006651576 0.010485439 -0.017031815 -0.00809638 0.0033191356 0.018615123
0.012211907 0.016725 -0.017397283 -0.0106207505 0.010608029 0.013123454 0.02067052 0.00647207
-0.0006770215 -0.017130908 -0.015491056 0.017328044 0.0119671915 -0.01484312 0.010039475 -0.010743322
0.014604539 0.024474632 -0.007864425 0.02165099 -0.0072428114 0.021142807 -0.011495782 -0.014036436
0.0010071335 -0.01671884 -0.00969928 0.0056846184 0.016098531 -0.0055804644 -0.014915482 -0.00832794
0.0009977685 -0.006916526 -0.011225494 -0.017937435 -0.017201353 0.020780487 0.012913634 0.00074502884
0.0009357705 -0.0035178806 0.019434387 0.019654043 0.007883527 0.009188743 -0.010872093 0.01712025
-0.019343095 0.017666683 0.01460742 0.01903889 -0.009824252 0.018132145 0.00764659 -0.0019605726
0.014984036 -0.004723062 0.014218417 -0.014343401 -0.017498327 -0.01829231 0.011074677 -0.009478827

network_body._body_endoder.seq_layers.2.weight f4 [128, 128]
00000000: aa19 403e 960b 973d 2257 54bc e5f6 d0bd
00000010: b49a 713d a4f2 833c f574 363d dd9c 303d
00000020: 3f35 e3bd 55aa 013e 0b87 503d e32b 1d3d
00000030: 2a02 4e3c 4cf3 803d 7e80 eb3d e6f4 1dbe
00000040: 3707 c53d 1042 65bd 054a 783d 7a21 803d
00000050: d574 dbbd 92b5 f0bb 9b63 cdbd 1800 3cbd
00000060: 7d77 96bc 623b 583d ce2c 293e c3b9 26bc
00000070: 6bc9 c7bd 7320 23bd da5c 26bd abc9 913d
00000080: 4edd 0abd b017 4c3e 0e73 4ebd afc2 81ba
00000090: d384 babc ab1e 3b3d f971 0ebd 9cb1 d73d
000000a0: e68a 9c3d 4732 9a3d 0b70 72bc 5385 503e
000000b0: 9692 12be cce2 fb3d 5cdc 87bc 118a 86bd
000000c0: f87c cabd 9109 283e 16b0 bb3d f6fa 9e3d
000000d0: 03ff 083c d4e1 4b3e 27b7 ba3c d4d8 693c
000000e0: a95c 903d ba86 b53d 09a3 163d 2519 8bbd
000000f0: 7b56 a0bd 6884 b53c 732c aa3d 0cac dfbd
00000100: faa8 3d3d 4d1a 4d3a 436f 44bc 6602 d2bd
00000110: f5d4 0a3e 17bf 46bd ab87 8f3d aebe 02bd
00000120: 7dff f0bd c8bf 9cbd f68a 033e 53ef 7c3d
00000130: 6c8c 493d 16dd b0bd 76fe 7bbc d87d f2bc
00000140: 378b 2fbe 2e71 b63d e960 17be 2fa6 26be
00000150: 92ff d5bb fecc 933d d6d5 fb3d 3bbc afbd
00000160: 98c0 b23b b22d babd dd6e 563d 73ed 9abd
00000170: a1d0 71be 337f 743b 373c d0bc 43a9 8cbd
00000180: 5325 a33d 0aa2 1939 c955 c6bc dd65 e53c
00000190: f2e8 56bd 3cb5 4e3d 487d 9e3c 24f5 773d
000001a0: 3281 ee3c 2de7 91bd 08df 423e 46b7 cfbd
000001b0: 793c 263d 2701 90bd b217 813d 56bd ef3d
000001c0: 59af c43d 08e2 743c 1ffb 2dbe 6c2c 38bd
000001d0: a2f1 363e f882 0bbe 3ce7 d53d 87bf 143c
000001e0: b57f e4bd 0f6a 0bbe 9a14 b83c 4f09 97bc
000001f0: c9a2 bdbc af3e fd3d be5f b53b c7d6 4d3e
00000200: 118a a53d 1743 33bd 787d d63d 7ad6 913d
00000210: a015 7e3d 9395 123b 7d57 483d e7f3 323c
00000220: 5a1f 98bd 3d79 d93d e2ff 153d 1b30 b93d
00000230: 6334 a3bd d8c4 e7bc ccc3 aabc a465 553d
00000240: 26a1 423e 3191 9f3d 3548 2e3d 8885 7e3e
00000250: d789 33bb d77c 983d 1601 04bd 9768 83bd
00000260: f939 75bd 182f 3abe 6996 8d3c b80f 2f3d
00000270: 6a86 073e 4aa0 edbd 45c0 6fbd ad81 f83d
00000280: 7219 e0bc b961 bf3d 4768 d33d 5b8e da3c
00000290: d979 803e 6eee aa3d 6e90 1ebd 1d30 413c
000002a0: aded d6bd 92ee fabd ec3c 59bd 2053 29bc
000002b0: 3cfc cb3d e001 1fbe 09c4 01bd b349 58bd
000002c0: d1fc c1bc f02b 6bbc add9 cb3b 6d69 21be
000002d0: b603 823d 6677 1f3e 3988 633c 653d 563d
000002e0: 5f78 abbd 6d12 a33d 3e42 bfbd 1453 9fbc
000002f0: f57a 993d 1247 2c3c 9302 c33d 6450 02bd
00000300: b35c 723d 5383 3bbe 14c9 1f3d 4659 d6bd
00000310: cdfd bdbd 2973 af3d d356 ac3d df3d 0abe
00000320: c6e5 c3bd 8f3b 04be b77f 2a3c 62d6 77bd
00000330: c85b 41bd 5dba 9b3d a12c 9a3c 9e26 e73d
00000340: 88b7 92bd 99db da3d 86cd bbbc 86d8 db3d
00000350: 5a38 733d acbd 3b3c aa40 83bd def2 263d
00000360: 172e 2fbb 2738 4c3e e878 30be 59af 1f3d
00000370: b7dc 1b3c f781 163d 6621 b3bc 83cb b6bc
00000380: 7bef 1bbe b036 e73d a073 a0bd 6f33 1fbd
00000390: ff35 153d 52d2 c4bc 3cec c33c 42b9 143e
000003a0: 0bfa dfbc 07fe bbbd d8b7 4abe 9c81 823d
000003b0: f27b e2bd f158 c83b 5c67 d23d 4a29 a03d
000003c0: 0813 08be f64d 243e 025c 173e 6cf4 3e3d
000003d0: 69f5 e33c 1783 9e3c 0cfd ce3d e1b0 6ebd
000003e0: a891 96bd 9c61 6b3d de4d aebd 6fa6 5a3d
000003f0: cc5c 033d 62db 773e de0d ddbc 42db 0b3d
0.1875979 0.07375257 -0.012960227 -0.102033414 0.058985427 0.016106911 0.044545133 0.043118346
-0.1109414 0.12662633 0.050910037 0.03837193 0.012573758 0.06296405 0.11499117 -0.15425453
0.09620517 -0.055971205 0.060617466 0.06256385 -0.10715643 -0.0073458636 -0.10028764 -0.045898527
-0.018367523 0.052791007 0.16520998 -0.010176125 -0.09755214 -0.039825868 -0.040615894 0.07118543
-0.03390246 0.19930911 -0.050402693 -0.0009899939 -0.022768414 0.045683544 -0.03477666 0.10531923
0.0764368 0.07529121 -0.014797221 0.20363359 -0.1431373 0.122991174 -0.016584568 -0.06569303
-0.09887117 0.164099 0.09164445 0.07762711 0.008361581 0.19910365 0.022792412 0.014272887
0.070489235 0.08863588 0.036776576 -0.06791905 -0.07828995 0.022157863 0.08309259 -0.10921487
0.046303727 0.00078240485 -0.0119894175 -0.10254364 0.13557799 -0.04852208 0.070082985 -0.031920128
-0.117674805 -0.07653767 0.12845978 0.061751675 0.049206182 -0.08635919 -0.015380492 -0.029601023
-0.1714295 0.08908306 -0.14783062 -0.16274332 -0.0065307105 0.072168335 0.12296645 -0.08580824
0.005455088 -0.09090747 0.05235182 -0.07564821 -0.23614742 0.0037307262 -0.025419338 -0.068682216
0.079661034 0.00014651581 -0.024210827 0.028002674 -0.052468248 0.050465807 0.019346848 0.06053652
0.02911434 -0.071241714 0.19030392 -0.101423785 0.040585015 -0.0703147 0.06303348 0.11706035
0.096037574 0.014946468 -0.16990326 -0.04496424 0.17865613 -0.1362418 0.10444495 0.009078867
-0.11157171 -0.13614677 0.022470761 -0.018437056 -0.023148911 0.123654716 0.005535095 0.20101462
0.08082975 -0.043765154 0.1047315 0.07120986 0.062032342 0.0022366985 0.04891156 0.010922409
-0.07427855 0.106188275 0.036620982 0.090423785 -0.07968976 -0.028292105 -0.020845316 0.052098885
0.19006786 0.07791365 0.04254933 0.24855626 -0.0027395391 0.07445686 -0.032227598 -0.06416433
-0.05986974 -0.18182027 0.017283635 0.0427396 0.13234869 -0.11602838 -0.058532972 0.12134109
-0.027355883 0.09344811 0.10322624 0.026679209 0.25092962 0.08346258 -0.038711958 0.011791256
-0.10494552 -0.12252535 -0.053036615 -0.01033476 0.09960219 -0.15528059 -0.031681094 -0.05280466
-0.023680123 -0.014353737 0.0062210173 -0.15762873 0.06348364 0.1557289 0.0138874585 0.052304644
-0.08372568 0.07962499 -0.093388066 -0.019448794 0.07494155 0.010514991 0.09521975 -0.031814948
0.059170436 -0.18311815 0.039010122 -0.10466246 -0.09276924 0.08566887 0.08414998 -0.13500164
-0.0956531 -0.12913345 0.010406426 -0.060507186 -0.04720667 0.07603905 0.018820109 0.112866625
-0.07163912 0.10686416 -0.02292515 0.10734658 0.059379913 0.0114587955 -0.06408818 0.04075896
-0.0026730353 0.19943295 -0.17233622 0.038985584 0.009513072 0.036745038 -0.021866512 -0.022313839
-0.15228073 0.11289728 -0.07834554 -0.03886741 0.036428448 -0.02402607 0.023916356 0.14523795
-0.02734091 -0.09179311 -0.19796693 0.06372377 -0.11058797 0.0061141183 0.102736205 0.07820375
-0.1328851 0.16045365 0.14781192 0.046619818 0.027826982 0.019349618 0.101068586 -0.058274154
-0.073520005 0.057466134 -0.08510946 0.05338138 0.03207092 0.24204782 -0.026984151 0.034144647
