results/FirstRun2/MoveSomewhere/MoveSomewhere-106560.onnx (onnx, 95511 bytes, 9 tensors)

action_model._discrete_distribution.branches.0.bias f4 [3]
0.0026751584 0.009412186 -0.009458431
00000000: b651 2f3b 9235 1a3c 89f7 1abc

action_model._discrete_distribution.branches.0.weight f4 [3, 128]
0.005713097 0.003995092 -0.0064919647 0.012932475 -0.0057550655 0.007762947 -0.0038307775 -0.011206552
-0.0036885764 -0.011489878 0.022825541 -0.009499494 -0.0023416542 -0.007669495 0.01207285 0.00440736
0.013494008 -0.00080833526 0.0018078545 -0.0014037966 0.0092403395 -0.02587274 -0.010757364 -0.006473273
-0.009229961 0.004754877 -0.0069962614 0.014497508 0.0036530127 0.0046812063 0.0072507425 -0.015802197
0.017318023 0.008833372 -0.0016129487 0.00057877135 0.012033715 0.0055636717 -0.0057001268 0.014505352
-0.018131174 0.0027425766 -0.0047608763 0.002733388 -0.02291149 0.010314642 0.010013389 -0.0064620157
0.010028357 0.010619262 -0.015265213 0.0061742184 0.0028207996 -0.0071278387 -0.0026904861 0.00056670816
0.00071701664 0.018609628 -0.011508262 0.0012483153 0.0028076274 -0.011732195 -0.0049863365 -0.018834824
0.013925159 -0.0043961667 -0.0028247042 -0.006140198 -0.012522609 -0.0013125736 0.0156924 -0.014245644
-0.002999399 -0.011659909 0.0012627571 0.008749367 -0.0006928006 0.011339103 0.0055806497 0.00022074247
-0.0051164064 -0.0080609815 -0.015669107 -0.0022327274 0.0034798714 0.008213439 -0.0069388063 0.0060129315
0.010325748 0.0025134564 0.008205746 -0.0091261305 -0.002414575 0.004792742 -0.006108378 0.015973378
0.0020070048 -0.011116446 -0.00034921535 0.0022451067 0.016855802 -0.0019242143 -0.0070108674 0.001219909
0.0030009772 0.0012695392 -0.00060368684 -0.00476296 0.014351095 -0.015521598 0.00518555 0.006481913
0.0017282178 0.0016290029 -0.0036318789 0.004714072 -0.0062335646 -0.00627944 -0.019959271 -0.00062483334
-0.012024348 -0.00393395 0.004313324 0.012467873 -0.0125406105 0.01686709 0.0074755475 0.01579179
0.0027402297 -0.014983232 -0.00344397 -0.0050817123 -0.012509816 -0.0073574083 -0.019457178 -0.0058460184
0.015736267 -0.023964038 -0.0074037137 0.0037019358 0.015248861 0.027299695 -0.0011126908 -0.013250974
-0.011329145 -0.006656571 -0.007386072 0.014769649 -0.008923608 -0.0071361843 -0.0015871538 0.032350723
0.0059051146 -0.020056987 -0.008990041 -0.030303944 0.0104647055 0.0069657806 -0.016480917 -0.006550022
0.0031078162 0.0025899431 0.011274226 0.008811706 -0.00012762101 -0.022214627 -0.013993001 0.0041920333
0.001847439 -0.00036057146 0.0051570414 -0.0060980953 -0.020356935 0.011831282 -0.0029638456 0.023100808
0.02002425 0.019269815 0.028085103 -0.006137513 0.005410011 1.8582541e-05 -0.0104045505 0.013246117
-0.0047662854 0.016318755 0.0019278415 0.003947622 0.01992799 -0.016089322 -0.0100643085 -0.010246717
0.008909774 -0.0112713305 -0.011280166 -0.010102961 -0.012990509 0.015163783 0.0115110725 -0.009261463
-0.017484315 0.0026139466 -0.025474241 0.024817675 -0.03298657 0.0066170236 -0.003610217 -0.013606941
-0.00053833076 -0.02414991 -0.0029001287 -0.015830165 -0.016731003 -0.018101577 -0.017772723 0.0022300961
-0.009438225 0.003643552 0.019440854 0.013499093 -0.020747501 -0.008377573 -0.005803059 0.016932232
-0.018313691 0.02818299 -0.008405886 0.009359807 -0.010870966 -0.006866382 -0.0014915232 0.0131363245
0.008527605 -0.0014112013 0.010205762 0.028259514 0.008694513 0.008134461 0.0090481555 -0.021802882
-0.0049967985 -0.02308336 -0.008782658 -0.011360792 0.007500495 -0.001242084 -0.016787129 -0.00584773
-0.009238429 0.013556378 -0.02446689 -0.0011274212 -0.0093094995 0.0021215777 -0.005388464 0.018692233
00000000: ee34 bb3b 43e9 823b 8cba d4bb bbe2 533c
00000010: fd94 bcbb 5260 fe3b c80d 7bbb b09b 37bc
00000020: 0bbc 71bb 0b40 3cbc a1fc ba3c c4a3 1bbc
00000030: 7076 19bb 6350 fbbb 34cd 453c 9e6b 903b
00000040: f915 5d3c 76e6 53ba 88f5 ec3a 99ff b7ba
00000050: cb64 173c 12f3 d3bc a83f 30bc c01d d4bb
00000060: 4339 17bc cdce 9b3b e540 e5bb f586 6d3c
00000070: 6267 6f3b ce64 993b a397 ed3b 9c73 81bc
00000080: 87de 8d3c d9b9 103c 9469 d3ba b0b8 173a
00000090: 0f29 453c 764f b63b 21c8 babb dba7 6d3c
000000a0: d487 94bc cdbc 333b 2001 9cbb a422 333b
000000b0: e1b0 bbbc bffe 283c 330f 243c 51bf d3bb
000000c0: fa4d 243c 6afc 2d3c f21a 7abc 1951 ca3b
000000d0: 2add 383b a590 e9bb de52 30bb 248f 143a
000000e0: 2cf6 3b3a 3873 983c 268d 3cbc 839e a33a
000000f0: 2c00 383b 6438 40bc 6c64 a3bb 7d4b 9abc
00000100: 5a26 643c b80d 90bb ac1e 39bb b733 c9bb
00000110: a12b 4dbc a90a acba 598d 803c 9066 69bc
00000120: 9191 44bb 3409 3fbc 1983 a53a 8159 0f3c
00000130: 109d 35ba a5c7 393c e2dd b63b 1b77 6739
00000140: 87a7 a7bb 3512 04bc 805c 80bc f352 12bb
00000150: 8e0e 643b a991 063c ed5e e3bb 2008 c53b
00000160: 532d 293c cdb8 243b 6571 063c c485 15bc
00000170: d93d 1ebb 6f0c 9d3b ca28 c8bb 9ada 823c
00000180: f487 033b c121 36bc e416 b7b9 a422 133b
00000190: 2e15 8a3c eb35 fcba 6bbb e5bb 5be5 9f3a
000001a0: 0bac 443b ab66 a63a bd40 1eba 9b12 9cbb
000001b0: db20 6b3c 4d4e 7ebc 8ceb a93b 3a66 d43b
000001c0: 5e85 e23a 4484 d53a d104 6ebb 8178 9a3b
000001d0: ee42 ccbb c3c3 cdbb a081 a3bc dbcb 23ba
000001e0: c501 45bc 5de8 80bb c956 8d3b 0d46 4c3c
000001f0: 2277 4dbc da2c 8a3c 70f5 f43b c95d 813c
00000200: 6d95 333b 3b7c 75bc 3bb4 61bb 7e84 a6bb
00000210: f9f5 4cbc 6a16 f1bb a964 9fbc f58f bfbb
00000220: 58e9 803c 3b50 c4bc da9a f2bb 2d9c 723b
00000230: 5cd6 793c 9ca3 df3c b5d7 91ba 9d1a 59bc
00000240: e19d 39bc 5d1f dabb dd06 f2bb 66fc 713c
00000250: 5334 12bc a7d6 e9bb 0b08 d0ba 3182 043d
00000260: b17f c13b 8d4e a4bc f74a 13bc fa3f f8bc
00000270: 2874 2b3c 3441 e43b fd02 87bc 91a1 d6bb
00000280: 81ac 4b3b 09bc 293b 88b7 383c f95e 103c
00000290: 01d2 05b9 73fb b5bc e642 65bc 535d 893b
000002a0: c425 f23a 150b bdb9 66fc a83b 88d2 c7bb
000002b0: 96c3 a6bc fed7 413c 143d 42bb e83d bd3c
000002c0: e509 a43c bbdb 9d3c bb12 e63c 311d c9bb
000002d0: 7646 b13b b4e1 9b37 d977 2abc 3e06 593c
000002e0: 802e 9cbb e9ae 853c a0af fc3a 0e5b 813b
000002f0: 0640 a33c c1cd 83bc c5e4 24bc d9e1 27bc
00000300: 4dfa 113c 63ab 38bc 72d0 38bc e486 25bc
00000310: 25d6 54bc 8471 783c f098 3c3c 64bd 17bc
00000320: 443b 8fbc bf4e 2b3b 5baf d0bc 704e cb3c
00000330: ed1c 07bd 9ed3 d83b 6499 6cbb a6ef 5ebc
00000340: c41e 0dba 08d6 c5bc 1610 3ebb 43ae 81bc
00000350: 750f 89bc c249 94bc 1a98 91bc ce26 123b
00000360: c9a2 1abc a9c8 6e3b 6d42 9f3c 4d2b 5d3c
00000370: aaf6 a9bc 1742 09bc 9627 bebb 77b5 8a3c
00000380: 9806 96bc 04e0 e63c d7b8 09bc e059 193c
00000390: 231c 32bc 63ff e0bb 377f c3ba bd39 573c
000003a0: 5eb7 0b3c 0ff8 b8ba 1236 273c 7f80 e73c
000003b0: 6e73 0e3c 6746 053c b73e 143c f59b b2bc
000003c0: 2fbc a3bb 5119 bdbc 23e5 0fbc 9e22 3abc
000003d0: b6c6 f53b 6ccd a2ba 2985 89bc 519e bfbb
000003e0: c85c 17bc 921b 5e3c ca6e c8bc fac5 93ba
000003f0: df86 18bc 2b0a 0b3b b691 b0bb 7420 993c

action_model._discrete_distribution.branches.1.bias f4 [3]
0.0039041657 -0.0052257683 0.0024148386
00000000: 08dd 7f3b ec3c abbb 4542 1e3b

action_model._discrete_distribution.branches.1.weight f4 [3, 128]
-0.011677949 -0.012992491 -0.00081324717 -0.01227419 0.00082414923 -0.001350027 0.029202688 0.0023828896
0.0061535607 0.0012191292 0.0058147786 -0.002066544 0.0062299105 -0.008982191 0.008588616 -0.006731852
-0.0019733685 -0.017152341 0.017740786 0.00035924226 0.0042259274 -0.006524846 0.00046833602 -0.013231333
0.009271532 0.002475248 0.0068024294 -0.017756695 -0.0005200856 0.0070137014 -0.0154191535 -0.01436338
0.0135224145 -0.026454791 -0.010473388 0.00088628556 -0.004285646 -0.011764075 -0.00828046 -0.0019915644
-0.010261246 0.0032136953 -0.0026353206 0.0052763904 0.0013899787 0.017876761 0.002278394 -0.0025054049
0.013680007 -0.00461809 0.0041752467 0.009465149 0.009639074 -0.007303759 0.01285002 -0.008409705
0.011708217 0.0054382123 -0.009629696 0.0048141093 0.018407235 0.0011394401 -0.0024558362 0.014936976
0.006120934 -0.015006876 0.0028418216 -0.008334345 -0.012480926 -0.017912863 0.021334535 -0.013816173
-0.007805954 -0.016731791 -0.013422532 0.006229062 -0.0007463148 -0.0044032857 -0.019950995 -0.012373821
-0.011690928 0.010182206 -0.009910136 -0.0028827235 -0.010524288 0.0017182741 -0.003679849 -0.0067478786
0.0013125461 0.011166623 0.004310972 -0.0010811089 0.003539885 -0.0024052563 0.006660884 0.006693789
-0.0050858785 0.010397415 -0.016916927 -0.007675199 -0.0032800287 -0.012613354 0.005901082 0.020421939
0.022218427 0.016876262 0.0075220554 0.00809781 0.0049327235 -0.017480155 -0.007705448 0.007934102
-0.0021047844 0.008014369 -5.3268523e-05 -0.012130377 0.007651022 0.010822479 0.0012194675 0.022952965
0.011048604 -0.019903323 0.0010328948 0.0028855093 -0.006728849 -0.0017445319 -0.0044495706 -0.00073264487
-0.007530171 -0.004126876 0.0049249143 0.014470332 -0.002581691 0.00054683816 0.008684251 0.026306404
0.004982519 0.013331777 -0.0061825383 0.007859405 0.0026085342 -0.0139828 -0.006994473 0.0006006553
0.0190842 -0.0063220644 -0.004208784 -0.008191543 0.005252335 0.0032778934 0.017102303 0.003198059
0.010863848 -0.00045541243 -0.0061280904 0.00771107 0.010112495 0.0013208459 0.007620303 -0.0005034573
-0.019764218 -0.005125532 0.010641555 -0.0127182845 0.014132098 0.0093862405 0.016508173 0.014029449
0.012641225 -0.020870652 0.023582274 0.018202966 -0.00039669752 -0.013340737 -0.009932953 0.0031509278
-0.013826205 0.0065500303 -0.0022647814 0.0065967683 0.0014608103 0.0044844327 -0.0028940565 0.0017812087
0.0077159964 -0.024694646 0.010141837 -0.0018335754 -0.0030418644 0.023454351 -0.005800935 -0.0029528579
-0.0050867656 0.018979808 0.013229758 -0.0017123175 0.020165548 0.0014476934 -0.01175569 0.004889929
-0.0003951905 0.025451427 0.03480689 -0.014701287 0.0150632225 -0.013590049 0.0013148796 0.013555736
0.008063074 0.0014648302 0.018811861 -0.0026292943 0.005048706 0.03638915 0.0068256757 0.010873332
-0.0030808966 -0.009616476 -0.0040767887 -0.030607712 0.011695148 0.012625753 -0.0033780541 0.004806397
0.0042241374 -0.030172737 0.013716528 -0.0055331546 0.0067696245 0.0055192905 0.0025692738 -0.009861545
0.002680446 0.017415557 -0.0021991683 -0.011696823 -0.0016042753 0.009772196 -0.017365078 0.0073467433
-0.0053967033 0.018634427 0.0035417653 0.0004309797 0.00080908136 -0.00569541 0.005118334 -0.010102793
8.35766e-05 0.0108634755 0.017888593 -0.0076188687 0.012916834 0.013575042 0.0025595557 -0.0041206107
00000000: de54 3fbc 75de 54bc 1830 55ba af19 49bc
00000010: b80b 583a 64f3 b0ba 7a3a ef3c 412a 1c3b
00000020: cfa3 c93b 30cb 9f3a e689 be3b db6e 07bb
00000030: 4724 cc3b 0a2a 13bc 44b7 0c3c de96 dcbb
00000040: a153 01bb 1183 8cbc 2055 913c ae58 bc39
00000050: a679 8a3b 60ce d5bb ff8a f539 3cc8 58bc
00000060: a0e7 173c c537 223b eae6 de3b 7d76 91bc
00000070: 5b56 08ba 31d3 e53b 9ea0 7cbc 6254 6bbc
00000080: 1e8d 5d3c b8b7 d8bc 9398 2bbc 9e55 683a
00000090: 9b6e 8cbb 1bbe 40bc c4aa 07bc e884 02bb
000000a0: c91e 28bc dc9c 523b 58b5 2cbb 92e5 ac3b
000000b0: f22f b63a 4972 923c 1c51 153b b831 24bb
000000c0: 1c22 603c 5953 97bb 82d0 883b b613 1b3c
000000d0: 35ed 1d3c 5f54 efbb e488 523c dcc8 09bc
000000e0: d2d3 3f3c 0833 b23b dfc5 1dbc adbf 9d3b
000000f0: c5ca 963c 4459 953a 18f2 20bb 38ba 743c
00000100: 1e92 c83b 66df 75bc db3d 3a3b c78c 08bc
00000110: cc7c 4cbc ffbd 92bc c3c5 ae3c 3b5d 62bc
00000120: 17c9 ffbb 1c11 89bc 2eea 5bbc 291d cc3b
00000130: 57a4 43ba 7049 90bb 4570 a3bc 91bb 4abc
00000140: 4e8b 3fbc 44d3 263c 205e 22bc 13ec 3cbb
00000150: 106e 2cbc b637 e13a 9f29 71bb 4f1d ddbb
00000160: bd09 ac3a 36f4 363c 0e43 8d3b ffb3 8dba
00000170: 6afd 673b 81a1 1dbb 8b43 da3b 9257 db3b
00000180: 71a7 a6bb eb59 2a3c 5e95 8abc 3c80 fbbb
00000190: c0f5 56bb 3ea8 4ebc dd5d c13b e94b a73c
000001a0: 6b03 b63c 1640 8a3c 937b f63b adac 043c
000001b0: afa2 a13b 8b32 8fbc fc7d fcbb 09fe 013c
000001c0: 6cf0 09bb b34e 033c a46c 5fb8 7dbe 46bc
000001d0: 6db5 fa3b c450 313c 8ad6 9f3a db07 bc3c
000001e0: 3405 353c 4b0c a3bc 3362 873a d01a 3d3b
000001f0: ad7d dcbb c7a8 e4ba b4cd 91bb f70e 40ba
00000200: a7bf f6bb bf3a 87bb 2d61 a13b f914 6d3c
00000210: 9631 29bb b059 0f3a 6448 0e3c 8780 d73c
00000220: 6644 a33b 876d 5a3c e496 cabb bcc4 003c
00000230: f1f3 2a3b 1d18 65bc e431 e5bb 4b75 1d3a
00000240: 7856 9c3c 5229 cfbb d7e9 89bb d235 06bc
00000250: c81b ac3b edd1 563b 211a 8c3c 8796 513b
00000260: 48fe 313c 6cc4 eeb9 26ce c8bb 25ad fc3b
00000270: e1ae 253c 3c20 ad3a bcb3 f93b 73fa 03ba
00000280: 92e8 a1bc 14f4 a7bb eb59 2e3c 5a60 50bc
00000290: 518a 673c bfc8 193c 263c 873c c6db 653c
000002a0: 241d 4f3c eef8 aabc 9d2f c13c 631e 953c
000002b0: d7fb cfb9 1b93 5abc d3bd 22bc cc7f 4e3b
000002c0: 4f87 62bc a3a1 d63b ba6c 14bb b429 d83b
000002d0: a978 bf3a 26f2 923b 36aa 3dbb 7277 e93a
000002e0: 78d6 fc3b 6d4c cabc f329 263c 9554 f0ba
000002f0: 045a 47bb 5723 c03c c515 bebb bc84 41bb
00000300: e2ae a6bb 8b7b 9b3c a0c1 583c d76f e0ba
00000310: 3832 a53c 88c0 bd3a f09a 40bc b33b a03b
00000320: 9231 cfb9 837f d03c ab91 0e3d abdd 70bc
00000330: bccb 763c cca8 5ebc 0a58 ac3a e118 5e3c
00000340: fc1a 043c 8cff bf3a 551b 9a3c 3d50 2cbb
00000350: 9e6f a53b ca0c 153d eba9 df3b 0f26 323c
00000360: dee8 49bb 6c8e 1dbc 9596 85bb 06bd fabc
00000370: 029d 3f3c 3fdc 4e3c 5862 5dbb fb7e 9d3b
00000380: a26a 8a3b d12c f7bc 4abb 603c 774f b5bb
00000390: bad3 dd3b 2adb b43b 4361 283b 5192 21bc
000003a0: 6caa 2f3b 12ab 8e3c ec1f 10bb 08a4 3fbc
000003b0: 8c46 d2ba 901b 203c 3541 8ebc f3bc f03b
000003c0: d4d6 b0bb 3aa7 983c f61c 683b 1ef5 e139
000003d0: 8818 543a 90a0 babb b3b7 a73b 2f86 25bc
000003e0: d845 af38 b8fc 313c 198b 923c b4a7 f9bb
000003f0: 21a1 533c da69 5e3c 38be 273b 3006 87bb

discrete_action_output_shape f4 [1, 2]
3.0 3.0
00000000: 0000 4040 0000 4040

network_body._body_endoder.seq_layers.0.bias f4 [128]
0.01153353 0.009752583 0.017664235 0.0061610444 0.009525305 -0.006335371 -0.0120925 0.019239735
-0.007296253 0.00619608 0.012583694 0.02289343 0.011911302 0.0111933565 0.00960584 0.0012045241
0.0062778816 -0.004164948 0.012117479 -0.016336292 -0.013130282 0.012260242 -0.005656638 0.0008279982
0.016131151 -0.012348439 0.005661537 0.008799343 0.014363357 0.013231712 -0.009045053 0.0072576036
0.005362016 0.0036294768 0.009526565 0.00031351938 0.006572975 0.013004467 -0.008118092 -0.005956781
0.014041688 0.0013139118 0.011786747 0.0009847401 0.006938929 0.009746368 -0.0057261693 -0.003764177
0.0036671185 -0.006018106 -0.021791907 -0.017099015 0.021298984 -0.002808375 -0.007198662 -0.0037957397
0.0044629746 0.0007951293 0.015166854 -0.0032582348 0.019846037 0.010551231 0.0077353893 0.009034464
-0.0020649624 0.010547894 0.011878321 0.0065989583 -0.00057248946 0.009985668 0.012689633 0.007871038
0.019620178 0.007069996 -0.00829353 0.011786885 0.015140976 0.008637201 -0.017749235 0.014752939
0.015283711 -0.0052872533 0.0024214503 -0.005018682 -0.018477341 0.008623343 0.008123185 0.019346891
0.011124018 0.006444156 -0.005815819 0.01095125 0.013228123 0.0066109225 0.0058407225 0.0048815343
-0.007221778 0.012873183 0.001565902 -0.009207008 0.0077469684 0.010896032 -0.015166448 0.007184984
0.016274666 -0.0018650037 0.004376815 -0.0039900946 -0.010200333 0.0022614496 -0.0026320396 0.0071345265
0.013771586 0.01090962 0.0024851952 -0.0015307759 -0.013804343 0.011504321 -0.009389446 -0.019562267
0.012972379 0.01907452 0.008541682 -0.0013371403 0.0036287964 0.026741657 0.009176167 -0.005106611
00000000: 22f7 3c3c 4cc9 1f3c 96b4 903c 96e2 c93b
00000010: 0610 1c3c f298 cfbb 9f1f 46bc a69c 9d3c
00000020: 6815 efbb 7c08 cb3b d72b 4e3c 018b bb3c
00000030: 9f27 433c 5764 373c d061 1d3c 1fe1 9d3a
00000040: b0b6 cd3b 1e7a 88bb 6488 463c b0d3 85bc
00000050: 6520 57bc 2fdf 483c 525b b9bb 050e 593a
00000060: 7a25 843c 1b51 4abc 6a84 b93b 1f2b 103c
00000070: 4954 6b3c d3c9 583c b431 14bc 31d1 ed3b
00000080: dab3 af3b 84dc 6d3b 4f15 1c3c dc5f a439
00000090: 1c62 d73b b010 553c bf01 05bc 1a31 c3bb
000000a0: 1c0f 663c 9037 ac3a 331d 413c 6512 813a
000000b0: f55f e33b 3baf 1f3c 97a2 bbbb 69b0 76bb
000000c0: 0a54 703b 8833 c5bb f184 b2bc 3c13 8cbc
000000d0: 357b ae3c b70c 38bb c1e2 ebbb f2c1 78bb
000000e0: 253e 923b 3970 503a 657e 783c 1c88 55bb
000000f0: 2894 a23c 12df 2c3c 2679 fd3b 4a05 143c
00000100: 5254 07bb 13d1 2c3c 4a9d 423c 133c d83b
00000110: 1e13 16ba ed9a 233c 2ee8 4f3c 87f5 003c
00000120: 7fba a03c 6dab e73b 96e1 07bc c71d 413c
00000130: db11 783c 0c83 0d3c d866 91bc 50b6 713c
00000140: 8868 7a3c b240 adbb 32b1 1e3b c273 a4bb
00000150: cb5d 97bc ec48 0d3c 1b17 053c 5f7d 9e3c
00000160: 8341 363c 8029 d33b a092 bebb df6c 333c
00000170: c5ba 583c 70a0 d83b 8863 bf3b 47f5 9f3b
00000180: aaa4 ecbb 0bea 523c f43e cd3a fed8 16bc
00000190: 48da fd3b 4585 323c b27c 78bc 0470 eb3b
000001a0: 7352 853c 2473 f4ba 636b 8f3b 57bf 82bb
000001b0: 4c1f 27bc d434 143b 4c7e 2cbb bfc8 e93b
000001c0: 38a2 613c 43be 323c a8de 223b 51a4 c8ba
000001d0: 9c2b 62bc 9f7c 3c3c 31d6 19bc 0c41 a0bc
000001e0: 1a8a 543c 2b42 9c3c 69f2 0b3c fc42 afba
000001f0: 1ad1 6d3b 5211 db3c a257 163c 5c55 a7bb

network_body._body_endoder.seq_layers.0.weight f4 [128, 45]
0.00871173 -0.22747491 0.25868097 -0.17220023 0.17585382 -0.031038254 -0.03342345 0.115307786
0.2312178 0.034352127 0.050057687 -0.1334329 0.064499505 0.045581035 -0.08740792 -0.17422408
0.21095976 0.28937545 0.0895226 0.07317072 0.25861138 -0.0005283365 -0.027471513 -0.1644403
-0.090307355 -0.13253471 0.0076530366 0.037664995 0.2788409 0.0796588 0.15931831 0.008144439
-0.07487735 0.030400869 0.10709946 0.09814953 0.18491873 0.26585943 -0.045104004 0.06724611
-0.005720041 -0.084728315 -0.40052444 -0.09632609 -0.17890292 0.12888974 0.16235328 -0.04691487
-0.17486928 0.026050525 0.037751406 0.07638177 0.1075392 0.052299228 0.045127835 -0.14256732
-0.023157215 0.095404856 0.06164194 0.26880452 -0.102111936 0.0019411099 0.14291891 -0.081122965
0.04430078 -0.033643086 -0.006612518 0.07054576 -0.076124646 -0.060379904 0.041955475 -0.039433505
-0.078410536 -0.024231434 -0.04975876 -0.13521178 -0.04215482 -0.058436733 -0.09208313 0.25751248
-0.11736503 0.108419426 0.055440575 -0.27900952 -0.00136884 0.13869053 0.10970355 0.010107718
-0.053029105 -0.22447482 0.19924693 -0.03963021 0.113479145 -0.56066823 0.085596636 -0.009276711
0.02296883 -0.0042219083 0.21718882 0.07314364 0.097622894 -0.09702429 0.022447037 -0.1900111
-0.14141642 -0.02591512 0.17829941 0.0044640047 -0.08251709 0.080990486 0.009689612 -0.20346493
0.09258501 0.054844 -0.052940235 -0.13263497 0.13263677 0.08706921 0.03385969 -0.27240074
-0.23507676 -0.15426232 -0.07531458 -0.05154348 0.03571575 0.07895427 -0.0043666195 -0.22505966
-0.2171317 0.032729793 0.30475944 0.18416798 0.11264675 -0.16415039 -0.007780658 0.03041286
0.019120164 0.048795745 -0.097647585 -0.26707193 0.081905164 0.13171022 -0.045907475 0.06861687
0.13297112 0.021215536 -0.28893313 -0.11601723 -0.08759502 -0.077857256 -0.040786423 -0.033049334
0.05440201 0.10137382 -0.01377953 0.029385207 0.14616628 0.088763654 -0.31292596 -0.21028934
-0.20019105 -0.22809926 0.14201115 0.066462554 -0.17471409 0.02234972 -0.16346149 0.15906668
-0.06905971 0.27976975 0.027697057 -0.054923642 0.106869884 -0.053640287 -0.023903964 -0.010028406
0.05958108 0.0759072 0.01558085 -0.117705755 -0.23133011 0.089424506 -0.061530937 -0.048276424
-0.26187134 -0.21794362 -0.09901268 0.100499935 0.028024517 0.032533906 0.05578526 0.039385527
-0.15861744 -0.06791665 0.21297586 -0.052039742 0.026026525 0.18602417 -0.1345092 -0.35935035
0.22274363 0.17898016 0.070387326 0.15071923 0.0356058 0.061776724 0.062622584 -0.04219236
-0.22222668 -0.17833717 -0.016600426 0.17086524 0.061076444 -0.08926308 0.077145286 0.18275622
0.3334626 -0.007582332 -0.013080796 -0.0836552 -0.0051092184 -0.21768373 -0.28657374 -0.054730237
0.08529591 -0.14929353 0.3172703 -0.27777842 0.21170436 -0.03799104 -0.10336084 0.41478392
-0.08146078 -0.07248743 0.17158823 0.29646578 -0.14227761 -0.14362462 -0.045120936 0.08269435
-0.08572905 -0.11378367 0.0146784475 0.0997135 -0.40652716 -0.13802502 0.02647222 0.17272605
0.10370553 0.0063346117 -0.026995614 0.12220327 0.12175779 0.17005646 0.02844875 -0.049336888
00000000: a5bb 0e3c 2fef 68be d571 843e 4255 30be
00000010: 0613 343e f043 febc 07e7 08bd 7d26 ec3d
00000020: 5cc4 6c3e d1b4 0c3d 4a09 4d3d a2a2 08be
00000030: 5118 843d 2eb3 3a3d ec02 b3bd cc67 32be
00000040: d605 583e 0529 943e a057 b73d 88da 953d
00000050: b668 843e 1080 0aba f00b e1bc 0a63 28be
00000060: 10f3 b8bd 2eb7 07be 53c6 fa3b 9c46 1a3d
00000070: 3cc4 8e3e 2724 a33d 5724 233e 4170 053c
00000080: 4c59 99bd 3e0b f93c f656 db3d 9f02 c93d
00000090: 565b 3d3e ba1e 883e fabe 38bd 54b8 893d
000000a0: 2f6f bbbb 0a86 adbd 8a11 cdbe 9d46 c5bd
000000b0: 5432 37be acfb 033e f03f 263e cf29 40bd
000000c0: ef10 33be e967 d53c 38a1 1a3d 0c6e 9c3d
000000d0: 833d dc3d b737 563d f7d7 383d 2bfd 11be
000000e0: 33b4 bdbc 9f63 c33d 427c 7c3d bfa0 893e
000000f0: 1020 d1bd d76c fe3a 5659 123e cc23 a6bd
00000100: bc74 353d 55cd 09bd d2ad d8bb 4c7a 903d
00000110: 3de7 9bbd eb50 77bd 81d9 2b3d 0785 21bd
00000120: b495 a0bd 0081 c6bc d7cf 4bbd f574 0abe
00000130: 88aa 2cbd 5b5b 6fbd 1496 bcbd add8 833e
00000140: 145d f0bd 010b de3d a815 633d 56da 8ebe
00000150: a66a b3ba e404 0e3e 41ac e03d d89a 253c
00000160: 0c35 59bd badc 65be 6307 4c3e 4953 22bd
00000170: c167 e83d f487 0fbf 4a4d af3d 59fd 17bc
00000180: 2129 bc3c ef57 8abb bf66 5e3e 55cc 953d
00000190: 83ee c73d acb4 c6bd d9e2 b73c 4592 42be
000001a0: 77cf 10be f24b d4bc 1f94 363e c946 923b
000001b0: b8fe a8bd 57de a53d 2ec1 1e3c 1c59 50be
000001c0: 369d bd3d 1aa4 603d dcd7 58bd 76d1 07be
000001d0: efd1 073e 5851 b23d 75b0 0a3d 1c78 8bbe
000001e0: f6b7 70be f1f6 1dbe 883e 9abd 421f 53bd
000001f0: ae4a 123d c7b2 a13d dc15 8fbb 0a76 66be
00000200: c657 5ebe ad0f 063d 6e09 9c3e 8896 3c3e
00000210: 57b3 e63d 0a17 28be e4f4 febb 6424 f93c
00000220: e4a1 9c3c 0cde 473d 75fb c7bd a7bd 88be
00000230: e5bd a73d 0bdf 063e 7a09 3cbd 0087 8c3d
00000240: 9529 083e 34cc ad3c 0bef 93be 719a edbd
00000250: 0565 b3bd a073 9fbd aa0f 27bd bd5e 07bd
00000260: a4d4 5e3d 149d cf3d 8ac3 61bc 3fb9 f03c
00000270: 9dac 153e b8c9 b53d d537 a0be 1756 57be
00000280: e2fe 4cbe da92 69be 5f6b 113e 851d 883d
00000290: 40e8 32be c316 b73c 7362 27be 60e2 223e
000002a0: 2d6f 8dbd fb3d 8f3e f0e4 e23c 9df7 60bd
000002b0: 99de da3d ebb5 5bbd 3fd2 c3bc 2f4e 24bc
000002c0: 4a0b 743d 3c75 9b3d d246 7f3c b70f f1bd
000002d0: cde1 6cbe 3224 b73d dd07 7cbd 80bd 45bd
000002e0: 0014 86be 9d2c 5fbe 29c7 cabd e9d2 cd3d
000002f0: ac93 e53c 4642 053d 167f 643d b852 213d
00000300: 9c6c 22be e217 8bbd 5816 5a3e a027 55bd
00000310: 9435 d53c 1f7d 3e3e c8bc 09be c5fc b7be
00000320: e816 643e 9346 373e 3b27 903d 2456 1a3e
00000330: 63d7 113d 9709 7d3d 4540 803d e5d1 2cbd
00000340: 648f 63be 059e 36be 9efd 87bc 4cf7 2e3e
00000350: 4b2b 7a3d 90cf b6bd 59fe 9d3d 7224 3b3e
00000360: 9cbb aa3e 3675 f8bb d650 56bc 6b53 abbd
00000370: 3b6b a7bb 7ce8 5ebe cbb9 92be d02c 60bd
00000380: 9faf ae3d 67e0 18be 4171 a23e f938 8ebe
00000390: 07c9 583e 7e9c 1bbd d9ae d3bd 8f5e d43e
000003a0: e9d4 a6bd 4a74 94bd d3b4 2f3e 5dca 973e
000003b0: 39b1 11be 5512 13be bbd0 38bd a85b a93d
000003c0: b692 afbd 6a07 e9bd df7d 703c 9736 cc3d
000003d0: 5424 d0be 6e56 0dbe 45dc d83c 19df 303e
000003e0: 9163 d43d 9392 cf3b e825 ddbc b545 fa3d
000003f0: 265c f93d 4823 2e3e 5a0d e93c 7a15 4abd

network_body._body_endoder.seq_layers.2.bias f4 [128]
0.007409899 -0.0045668017 0.011401003 -0.003820871 -0.0022105903 0.010189568 0.0070963935 -0.001766436
0.010087476 0.006692117 -0.0032449877 0.011284878 0.010164914 0.008297636 -0.0068773753 0.015612861
-0.0044451584 0.005650707 -0.004470611 0.013771596 0.0016252276 -0.0008273271 0.0015013247 0.007993351
-0.005726793 -0.005017189 -0.0041448437 8.319788e-05 0.0051180855 0.0036614214 0.005381703 0.003377631
0.00065117376 0.0009869739 0.003643923 0.012543215 0.0014958221 0.013311735 -0.0037646554 0.006955134
0.0059161116 0.0013664999 -0.00055987516 0.001178913 -0.0004835483 0.009805312 -0.006934805 0.0054146517
0.008905307 -0.003404023 0.012813607 -0.0054920195 0.0071090315 -0.009979253 -0.013233542 0.014131634
0.007838153 0.012266199 0.00014574366 -0.0011474215 0.00790614 -0.011775995 -0.012332641 -0.003717425
-0.013114906 -0.0018712034 0.0073371576 -0.0040614186 0.0008266253 0.010087961 0.0024538815 0.00781171
-0.009302845 -0.0020990986 0.002213654 0.004067836 -0.00512179 0.000107459135 -0.0008102347 0.0088455
0.004587368 0.01307802 0.0024078432 -0.008169986 -0.018633747 0.0036026118 0.000505892 0.008315691
-0.0036482704 0.004725729 0.010599556 0.004696713 -0.004153634 0.00070012314 -0.007929794 0.0048550875
-0.007326626 0.013721937 -0.0017319589 -0.0033429728 -0.0069192383 -0.0085607 -0.005000802 0.0012216143
0.00642494 -6.8602356e-05 0.013528783 0.01125384 -0.0021437514 -0.0051712734 0.013568721 -0.0075279493
-0.0049523027 0.0030244614 -0.009030012 0.0030229788 -0.005739201 0.009283758 -0.006728344 -0.0021201188
0.002413702 -0.0048643234 -0.010471942 -0.00012367895 -0.005173026 0.004352186 0.0010948153 0.009871755
00000000: bdce f23b 1ca5 95bb 46cb 3a3c 9467 7abb
00000010: 8ddf 10bb 25f2 263c dd88 e83b c287 e7ba
00000020: f145 253c 8c49 db3b dca9 54bb 35e4 383c
00000030: bd8a 263c cff2 073c 9b5b e1bb 16cd 7f3c
00000040: b1a8 91bb 9129 b93b 347e 92bb 43a2 613c
00000050: 9705 d53a fbe0 58ba 19c8 c43a 8bf6 023c
00000060: d2a7 bbbb 3b67 a4bb 78d1 87bb 867a ae38
00000070: 9db5 a73b 75f4 6f3b ff58 b03b 3f5b 5d3b
00000080: 88b3 2a3a 595d 813a e2ce 6e3b 0f82 4d3c
00000090: 760f c43a 7719 5a3c 70b8 76bb e5e7 e33b
000000a0: f1db c13b 211c b33a 96c4 12ba c285 9a3a
000000b0: c184 fdb9 76a6 203c 5c3d e3bb 646d b13b
000000c0: 91e7 113c 0716 5fbb 2af0 513c 66f6 b3bb
000000d0: e1f2 e83b 0580 23bc 80d1 58bc 5e88 673c
000000e0: 996b 003c 2bf8 483c c4d2 1839 1465 96ba
000000f0: c188 013c 1af0 40bc d80e 4abc 0ba0 73bb
00000100: e7df 56bc 2b43 f5ba 8a6c f03b a615 85bb
00000110: e3b1 583a fa47 253c 4dd1 203b 5ff9 ff3b
00000120: f66a 18bc 0891 09bb f412 113b 7b4b 853b
00000130: b0d4 a7bb af5b e138 ee65 54ba b7ec 103c
00000140: a251 963b 3145 563c e8cc 1d3b 68db 05bc
00000150: cda5 98bc cc19 6c3b d69d 043a 893e 083c
00000160: d217 6fbb 4ada 9a3b c3a9 2d3c e2e6 993b
00000170: 351b 88bb 7888 373a f7eb 01bc 6d17 9f3b
00000180: 3214 f0bb fad1 603c e602 e3ba c715 5bbb
00000190: c7ba e2bb 2e42 0cbc c5dd a3bb 931e a03a
000001a0: 4e88 d23b 9cde 8fb8 d4a7 5d3c 0762 383c
000001b0: 2e7e 0cbb c973 a9bb 574f 5e3c 04ad f6bb
000001c0: ed46 a2bb 0b36 463b 9ef2 13bc 2b1d 463b
000001d0: e80f bcbb e71a 183c 7179 dcbb b1f1 0abb
000001e0: 332f 1e3b e764 9fbb 8292 2bbc d1af 01b9
000001f0: 7d82 a9bb c89c 8e3b e87f 8f3a 24bd 213c

network_body._body_endoder.seq_layers.2.weight f4 [128, 128]
-0.10260049 0.043125145 0.117120765 0.18774743 -0.046343982 0.11742328 -0.026582584 -0.12793353
-0.03613835 -0.16094883 0.09137359 -0.03358654 -0.09470868 0.044815857 0.02820166 -0.09769437
0.029361768 0.12613983 -0.034903638 -0.021561882 0.06307771 0.14601225 0.04044554 -0.22409979
-0.048564903 -0.060937643 0.031053113 0.030021299 -0.019725202 0.00935268 0.038540013 0.1890876
-0.11946585 -0.094898656 -0.09130384 0.110107616 -0.07298757 0.040246543 0.13564773 0.02179131
0.12416847 0.027155293 -0.06326465 -0.08245575 0.07178361 0.04386446 0.0564844 0.022447584
0.021204917 -0.05531998 0.16507345 0.046389643 -0.043309852 -0.115019254 -0.034632985 -0.02463981
0.15830407 -0.100421906 -0.12825418 -0.029184043 -0.117042564 -0.005126922 -0.06815405 -0.069743976
-0.050285626 0.1055716 0.04061146 -0.11288275 0.05048137 0.13216475 0.115100875 0.112787336
0.029743083 0.055102255 0.09678253 0.096295804 -0.032989636 -0.04277763 0.07421744 -0.11747187
0.030149685 0.02283221 0.070373416 -0.007106519 -0.14033277 -0.2444783 0.05662522 -0.042263057
-0.060682207 -0.08123499 -0.12993354 -0.06565944 0.2257375 -0.18746826 -0.04588947 -0.13125156
0.13423349 -0.050491333 -0.03890863 -0.06272141 -0.007854976 -0.116733395 -0.19563358 0.059457704
-0.036332317 -0.06139856 0.07968692 -0.065655254 -0.15069337 -0.02728445 -0.08063628 0.016200438
-0.14553005 -0.09151706 0.07809924 0.084579185 -0.06721959 0.019530479 0.03293753 0.100676365
-0.042575885 -0.044168558 0.050852705 -0.017872432 -0.014244164 0.0069452478 -0.061307736 0.054012887
-0.10708533 -0.1148917 0.0063942703 -0.14143085 0.06771891 -0.04669891 0.033884067 0.05733623
-0.019302996 -0.04970822 -0.099186346 0.015418452 0.15345018 3.5676945e-05 -0.102226704 0.073474385
0.16855563 0.12752692 0.19449377 -0.045716386 -0.039503884 0.024698002 -0.042627983 0.081928246
0.07666124 -0.2059552 -0.2244129 0.028359625 0.041562032 0.098963834 -0.008514604 0.006704972
-0.20261417 0.051419802 -0.04385641 0.06289961 0.05825896 -0.084513254 0.014516855 0.048684467
0.046071526 -0.100386895 -0.11280111 -0.10690278 0.0014754253 -0.041019082 -0.15327473 -0.023807148
0.077830516 0.012712671 0.032130342 0.08974968 -0.0069653313 -0.13008653 0.045761667 0.14547212
0.007696735 0.033069447 0.121269025 -0.063159384 -0.034197 0.1067439 -0.13622753 0.10402243
-0.07755407 -0.10399738 -0.051016137 -0.022400921 0.009280488 0.10504776 -0.022768704 -0.061930247
-0.0046083773 -0.057431668 -0.06448533 0.03842804 -0.03741806 -0.11643402 0.027261382 -0.043706935
0.20111959 -0.13112754 0.011885325 -0.030014576 -0.09293901 0.046960358 -0.041113522 0.0018970561
0.071938 0.13537328 0.052567627 -0.077273384 -0.086322516 0.15383476 -0.12635154 0.07240754
0.042250015 0.045570225 -0.047850054 -0.00048748753 0.005746757 0.011873915 -0.110384695 0.07674955
0.04155644 -0.12644057 0.048486326 -0.030073058 0.059239306 0.063588925 0.082087725 0.09585956
-0.036860414 -0.04424517 0.046663214 0.14572892 0.045328468 0.11776049 0.089235194 0.07138001
-0.10893743 0.2419871 -0.06340161 -0.024829056 -0.2209277 -0.05133522 -0.08489805 -0.05285494
00000000: 3520 d2bd fea3 303d 03dd ef3d dd40 403e
00000010: 30d3 3dbd 9e7b f03d b8c3 d9bc 0201 03be
00000020: ce05 14bd c5cf 24be 1422 bb3d 0a92 09bd
00000030: a0f6 c1bd d590 373d 2b07 e73c fc13 c8bd
00000040: 1788 f03c cd2a 013e 1ef7 0ebd 8ba2 b0bc
00000050: e32e 813d 3c84 153e 39aa 253d 6a7a 65be
00000060: feeb 46bd c099 79bd 1963 fe3c 3aef f53c
00000070: bf96 a1bc fc3b 193c 22dc 1d3d 2ea0 413e
00000080: 83aa f4bd 3a5a c2bd 82fd babd 1a80 e13d
00000090: 827a 95bd 8fd9 243d 3de7 0a3e b083 b23c
000000a0: 0a4c fe3d c774 de3c e690 81bd 8fde a8bd
000000b0: 4903 933d 38ab 333d 305c 673d ffe3 b73c
000000c0: efb5 ad3c 3497 62bd 0409 293e 1103 3e3d
000000d0: ac65 31bd 378f ebbd 51db 0dbd 6dd9 c9bc
000000e0: 761a 223e 00aa cdbd 1055 03be 6013 efbc
000000f0: 03b4 efbd bdff a7bb 5a94 8bbd eed5 8ebd
00000100: 4df8 4dbd ec35 d83d 3458 263d 122f e7bd
00000110: 8ec5 4e3d 3256 073e 02ba eb3d 0cfd e63d
00000120: c4a7 f33c e7b2 613d eb35 c63d bc36 c53d
00000130: 2420 07bd 9937 2fbd 50ff 973d 1795 f0bd
00000140: 79fc f63c 9d0a bb3c f01f 903d cddd e8bb
00000150: 65b3 0fbe 8558 7abe d9ef 673d 071c 2dbd
00000160: e88d 78bd 885e a6bd 4c0d 05be 7578 86bd
00000170: bb27 673e aef7 3fbe 99f6 3bbd cf66 06be
00000180: 8174 093e 00d0 4ebd a85e 1fbd 1574 80bd
00000190: 28b2 00bc eb11 efbd 2b54 48be ec89 733d
000001a0: 32d1 14bd 0e7d 7bbd e532 a33d 4376 86bd
000001b0: 5d4f 1abe a483 dfbc a224 a5bd c8b6 843c
000001c0: d405 15be 4c6d bbbd 7ff2 9f3d da37 ad3d
000001d0: 6daa 89bd 62fe 9f3c 81e9 063d 692f ce3d
000001e0: 0d64 2ebd 17ea 34bd ed4a 503d 3569 92bc
000001f0: 5b60 69bc f694 e33b d21d 7bbd 9e3c 5d3d
00000200: 8e4f dbbd 574c ebbd 0787 d13b 40d3 10be
00000210: 36b0 8a3d 5b47 3fbd 05ca 0a3d 65d9 6a3d
00000220: 5121 9ebc d99a 4bbd 3622 cbbd ad9d 7c3c
00000230: 0b22 1d3e d4a3 1538 3c5c d1bd bd79 963d
00000240: d999 2c3e 6b96 023e 6029 473e 1b41 3bbd
00000250: d3ce 21bd 7753 ca3c ae9a 2ebd ffc9 a73d
00000260: 9100 9d3d ece5 52be 7fcc 65be 7252 e83c
00000270: f33c 2a3d 8dad ca3d d680 0bbc 62b5 db3b
00000280: 177a 4fbe 929d 523d c7a2 33bd 83d1 803d
00000290: f2a0 6e3d 4915 adbd 1ad8 6d3c 5d69 473d
000002a0: 7fb5 3c3d a597 cdbd 4504 e7bd d8ef dabd
000002b0: 0f63 c13a a003 28bd 0df4 1cbe 3507 c3bc
000002c0: 9b65 9f3d cf48 503c 1b9b 033d aece b73d
000002d0: 6f3d e4bb 6735 05be 9670 3b3d a5f6 143e
000002e0: e534 fc3b d473 073d e55b f83d b559 81bd
000002f0: 2712 0cbd 8c9c da3d 3b7f 0bbe b609 d53d
00000300: abd4 9ebd 94fc d4bd 4cf6 50bd 2382 b7bc
00000310: 300d 183c 4823 d73d 6f85 babc 92aa 7dbd
00000320: df01 97bb 783d 6bbd e210 84bd b866 1d3d
00000330: ae43 19bd f674 eebd 4353 df3c 0b06 33bd
00000340: 4bf2 4d3e 4c46 06be abba 423c 21e1 f5bc
00000350: cf56 bebd 8159 403d a766 28bd a4a6 f83a
00000360: 3b54 933d 4b9f 0a3e 2751 573d 8241 9ebd
00000370: dcc9 b0bd dc86 1d3e 4c62 01be 684a 943d
00000380: 5a0e 2d3d d8a7 3a3d 6bfe 43bd 7895 ffb9
00000390: 4b4f bc3b cf8a 423c 5f11 e2bd de2e 9d3d
000003a0: 1637 2a3d a379 01be 9999 463d c65b f6bc
000003b0: eaa4 723d e93a 823d 9c1d a83d 0452 c43d
000003c0: f2fa 16bd 6c3a 35bd ed21 3f3d f639 153e
000003d0: 58aa 393d 692c f13d f1c0 b63d af2f 923d
000003e0: 961a dfbd 77cb 773e b4d8 81bd 4e66 cbbc
000003f0: df3a 62be e144 52bd 07df adbd 6c7e 58bd
