results/FirstRun2/MoveSomewhere/MoveSomewhere-7680.pt (torch, 192023 bytes, 14 tensors)

discrete_act_size_vector f4 [1, 2]
00000000: 0000 4040 0000 4040
3.0 3.0

network_body._body_endoder.seq_layers.0.weight f4 [128, 45]
00000000: f2ca 96be 6f8b f83d 2a5a a23d 238d 2b3d
00000010: ff2f 06be ac35 b2bb 817a 50bd c1fd 253e
00000020: c664 773e 69ec 2fbe 6000 44be 1076 30bd
00000030: 2310 463e 2f47 f7bc 4be7 d0bc a1a7 e9bd
00000040: 6259 a63e 05b1 6cbd a4b0 3bbe ef3c 88bd
00000050: 443f 3abd d5e7 003e a287 253d 6e8a 0b3e
00000060: e3cb b73d 476d edbc d938 603d a2ae 86be
00000070: ba19 e8bd 4e5c 38be 747e 1ebc 3b63 1bbe
00000080: bb6f aebd 02ee 1ebd 9cd5 40be 3caf eebd
00000090: 5895 a8be 4dc8 f7bd c786 a1bd b745 cebe
000000a0: 1423 c43d f449 25bd 3f09 a63b 7eef b7bd
000000b0: 7e45 ff3c 2702 6cba 5028 adbd b583 333d
000000c0: 8db1 203e 3cdd 253d c874 3e3e 1a7e 70bd
000000d0: 6065 93bc bdde 1e3e 7ee2 9bbd 4b0a 873d
000000e0: 7b42 b13d 3f8b 5a3e dd04 31bd c896 82be
000000f0: f7f1 2cbe e1fb 19be 55de 8dbd 3f36 8a3d
00000100: 5ef5 7ebe 8d89 c83c 6534 16be 3173 da3c
00000110: 88f4 9abd 33d9 35be 0a62 533e 9ddf 163e
00000120: 00ab 483d f501 183d bb71 d73d 45a0 bd3d
00000130: 3a4b a3bd d5f9 083e ff0c 0e3e bb74 873d
00000140: 1265 bcbd 300e 873e 5ce1 943d e29f 9b3d
00000150: 0b98 a93d 2ebe f2bd 651b dcbc 7b54 a1be
00000160: a609 35bc 11fb e63d d208 ff3d c271 813d
00000170: 1bca 973d 42d3 d33d 2338 8d3d c19a 87be
00000180: 5fe8 5d3e 4701 2f3e 3b81 b6be a0a1 883c
00000190: 3fb0 a33d 53b6 793d 3bda 243e 7bfa 043c
000001a0: fb7b 063d 53f1 c7bd c961 e13d cdda 83bd
000001b0: 4dfb 8dbe 5085 623d 0e3c 463e 4733 0cbe
000001c0: 84e4 643d 0470 72bd b2ca 7e3d b4a1 a63c
000001d0: f0a7 263d 4f8a 503e 4e80 8ebd 65f1 1a3d
000001e0: 21d0 fe3d faac 0ebd 8ffe 09be 21c0 853d
000001f0: 36a1 f33d cb01 1b3e b32b 68be 345c 913d
00000200: 7673 653e 7b86 3b3d 6b01 70bd 1712 673d
00000210: 41af 89bd c2f0 80bd 21cf 1cbe d21f b8bd
00000220: 9e89 2e3b 4f90 89bd 28d4 e53d 85a9 5e3e
00000230: e4c1 7dbe c820 69bd 2991 99bd 7a10 ffbd
00000240: 403f 893e 660f 833d 5359 083d 7626 023e
00000250: a655 c7bd 37eb 0f3d 6d4b 2fbe be35 d93c
00000260: ff64 07bd 1860 80bd 6c3c 81be 4b2b 60be
00000270: 8f4e 9f3e e6eb 19be be95 8fbe e338 4ebd
00000280: 70fa c03d 2499 8f3d df51 33be 8ed7 1abe
00000290: 7360 253e 3b9d 2c3e 9888 013e c681 483d
000002a0: b337 823c ad3a ccbd 96af 66be 2d96 463e
000002b0: 091d 85bc fd41 3fbd 3cf8 8cbd 308f c8bc
000002c0: 4c1a 093c 48f2 f53d 549e e2bd 94e8 34bd
000002d0: b49c dbbe 9a7b 16bd 35cd 63bd 9e04 1a3b
000002e0: dfda 503e e069 583d f1c2 273e 5cfa 6c3d
000002f0: 92d8 2d3e 8d03 15be 02d7 3bbd d788 1ebe
00000300: bf34 9cbe 355a 6fbd 4177 5bbe 9ee6 c83d
00000310: 55db 443e b749 3ebd ad80 043e 8eff 123d
00000320: e6f8 4e3d 4359 61bd 14a2 313d 8b18 d83d
00000330: 8b1c 19bd ddc2 5c3e 56a9 373e 1952 253e
00000340: 8503 773d e8f7 65be bd81 febd bde1 413e
00000350: 0407 0d3d 3122 c23d 118e 59bc 2fb2 55be
00000360: e6f6 d73d 91ea 5dbe 83c1 473e d496 fdbb
00000370: 0ad4 e8bd 0bc2 f1bd 6cd1 2fbc 2d14 2fbe
00000380: d6e5 a73b 65c2 17be d300 b6bd 46a5 4abe
00000390: 54df 87be 6974 92bc 1deb 11be c73b 71bb
000003a0: dd16 1c3e be1f 463d 2717 343e d573 a5bc
000003b0: ddb6 6fbd 2300 b0bd f7fa 7f3d 10eb 433d
000003c0: 9178 14bd 9a00 e93c e4ba f4bd 1e83 43be
000003d0: 7e9a 6b3e 3bbc 103e 45f3 71bc 2be3 d1bd
000003e0: 7e16 a53c beed 6dbd df5a d93d b437 6c3e
000003f0: 2fc0 13bd 5b0a 79be 69ec b4bc dfc9 e83d
-0.2945171 0.1213597 0.07927354 0.041882645 -0.13104247 -0.005438527 -0.05089808 0.1621008
0.24159536 -0.17180027 -0.19140768 -0.043081343 0.19342093 -0.03018531 -0.025500914 -0.11408926
0.3249007 -0.057786006 -0.18329102 -0.06652247 -0.04547049 0.12588437 0.040412553 0.13627025
0.08974435 -0.028982772 0.054741714 -0.2630511 -0.11333032 -0.18003961 -0.009673703 -0.15174572
-0.08517405 -0.0388012 -0.18831486 -0.11654517 -0.3292644 -0.12098751 -0.07887035 -0.40287563
0.09577003 -0.04035373 0.00506702 -0.089812264 0.031161066 -0.0009003006 -0.084549546 0.043826777
0.1569273 0.04049419 0.18599236 -0.05871401 -0.017992675 0.15514655 -0.07611559 0.0659376
0.08655258 0.2134218 -0.04321753 -0.25505662 -0.16889177 -0.1503749 -0.06927172 0.06748628
-0.24898288 0.024479652 -0.14668424 0.026666256 -0.07566172 -0.17758636 0.20642868 0.14733739
0.048991203 0.03711124 0.10519739 0.092590846 -0.07973333 0.13376553 0.13872145 0.066140614
-0.09198965 0.26378012 0.072695464 0.075988546 0.08280953 -0.1185268 -0.026868531 -0.31509766
-0.011049664 0.11278356 0.12452854 0.06320526 0.074115954 0.103430286 0.06895473 -0.26485255
0.21670674 0.17090331 -0.3564547 0.016678631 0.07992601 0.060964894 0.16098873 0.00811636
0.03283308 -0.09762826 0.11004979 -0.06438217 -0.2773079 0.055302918 0.19358847 -0.13691436
0.055881992 -0.059188858 0.062205024 0.020340778 0.0406875 0.2036526 -0.06958066 0.037827868
0.12442041 -0.034832932 -0.13476013 0.06530786 0.11895983 0.15137403 -0.2267292 0.070976645
0.22407326 0.045782547 -0.058595102 0.056413736 -0.0672288 -0.06295921 -0.15313388 -0.08990444
0.002663232 -0.06716978 0.11222106 0.21744354 -0.24780995 -0.05691603 -0.0749839 -0.124543145
0.26806068 0.063994214 0.03328831 0.12709984 -0.09733133 0.035136428 -0.17118616 0.026514884
-0.0330553 -0.062683284 -0.2524141 -0.21891515 0.31114623 -0.15031394 -0.28043932 -0.05034722
0.09422767 0.07011631 -0.175117 -0.1512129 0.16150074 0.16856854 0.12649763 0.048951887
0.0158957 -0.09972129 -0.22527918 0.19393225 -0.016249197 -0.04669379 -0.068832844 -0.02448234
0.008368086 0.12009102 -0.11065355 -0.044167116 -0.42892992 -0.03673897 -0.055615623 0.0023501287
0.20395993 0.052835345 0.16382958 0.05785595 0.16977146 -0.14552136 -0.045859344 -0.15481888
-0.30508992 -0.058435638 -0.2143221 0.09809612 0.19224294 -0.04645702 0.12939711 0.035888247
0.050530337 -0.055016767 0.04336746 0.10551556 -0.037380736 0.2155871 0.1793569 0.16144599
0.06030609 -0.2245785 -0.12427089 0.18933769 0.03443052 0.09479178 -0.0132785 -0.20868753
0.10545139 -0.21671511 0.19507413 -0.0077389274 -0.11368568 -0.11804589 -0.010731082 -0.1709754
0.005123834 -0.1482025 -0.08886876 -0.1978961 -0.26537573 -0.017877774 -0.14249845 -0.0036809312
0.15243097 0.048370115 0.17586957 -0.020196835 -0.058524 -0.08593776 0.062495198 0.047831595
-0.036247794 0.02844267 -0.11949709 -0.19092986 0.23008153 0.14134304 -0.014767473 -0.10248407
0.020152327 -0.058088057 0.106130354 0.23068124 -0.036071952 -0.24320357 -0.022085385 0.11366629

network_body._body_endoder.seq_layers.0.bias f4 [128]
00000000: 0000 0000 0000 0000 0000 0000 0000 0000
00000010: 0000 0000 0000 0000 0000 0000 0000 0000
00000020: 0000 0000 0000 0000 0000 0000 0000 0000
00000030: 0000 0000 0000 0000 0000 0000 0000 0000
00000040: 0000 0000 0000 0000 0000 0000 0000 0000
00000050: 0000 0000 0000 0000 0000 0000 0000 0000
00000060: 0000 0000 0000 0000 0000 0000 0000 0000
00000070: 0000 0000 0000 0000 0000 0000 0000 0000
00000080: 0000 0000 0000 0000 0000 0000 0000 0000
00000090: 0000 0000 0000 0000 0000 0000 0000 0000
000000a0: 0000 0000 0000 0000 0000 0000 0000 0000
000000b0: 0000 0000 0000 0000 0000 0000 0000 0000
000000c0: 0000 0000 0000 0000 0000 0000 0000 0000
000000d0: 0000 0000 0000 0000 0000 0000 0000 0000
000000e0: 0000 0000 0000 0000 0000 0000 0000 0000
000000f0: 0000 0000 0000 0000 0000 0000 0000 0000
00000100: 0000 0000 0000 0000 0000 0000 0000 0000
00000110: 0000 0000 0000 0000 0000 0000 0000 0000
00000120: 0000 0000 0000 0000 0000 0000 0000 0000
00000130: 0000 0000 0000 0000 0000 0000 0000 0000
00000140: 0000 0000 0000 0000 0000 0000 0000 0000
00000150: 0000 0000 0000 0000 0000 0000 0000 0000
00000160: 0000 0000 0000 0000 0000 0000 0000 0000
00000170: 0000 0000 0000 0000 0000 0000 0000 0000
00000180: 0000 0000 0000 0000 0000 0000 0000 0000
00000190: 0000 0000 0000 0000 0000 0000 0000 0000
000001a0: 0000 0000 0000 0000 0000 0000 0000 0000
000001b0: 0000 0000 0000 0000 0000 0000 0000 0000
000001c0: 0000 0000 0000 0000 0000 0000 0000 0000
000001d0: 0000 0000 0000 0000 0000 0000 0000 0000
000001e0: 0000 0000 0000 0000 0000 0000 0000 0000
000001f0: 0000 0000 0000 0000 0000 0000 0000 0000
0.0 0.0 0.0 0.0 0.0 0.0 0.0 0.0
0.0 0.0 0.0 0.0 0.0 0.0 0.0 0.0
0.0 0.0 0.0 0.0 0.0 0.0 0.0 0.0
0.0 0.0 0.0 0.0 0.0 0.0 0.0 0.0
0.0 0.0 0.0 0.0 0.0 0.0 0.0 0.0
0.0 0.0 0.0 0.0 0.0 0.0 0.0 0.0
0.0 0.0 0.0 0.0 0.0 0.0 0.0 0.0
0.0 0.0 0.0 0.0 0.0 0.0 0.0 0.0
0.0 0.0 0.0 0.0 0.0 0.0 0.0 0.0
0.0 0.0 0.0 0.0 0.0 0.0 0.0 0.0
0.0 0.0 0.0 0.0 0.0 0.0 0.0 0.0
0.0 0.0 0.0 0.0 0.0 0.0 0.0 0.0
0.0 0.0 0.0 0.0 0.0 0.0 0.0 0.0
0.0 0.0 0.0 0.0 0.0 0.0 0.0 0.0
0.0 0.0 0.0 0.0 0.0 0.0 0.0 0.0
0.0 0.0 0.0 0.0 0.0 0.0 0.0 0.0

network_body._body_endoder.seq_layers.2.weight f4 [128, 128]
00000000: 2bac 9b3d 6c55 f03d d045 15be 828e c73d
00000010: be25 4e3d 488b e7bc cccf a43d 4aca e23d
00000020: 8c83 3e3e b453 77bd c424 ca3c af28 71bd
00000030: 4677 10bd d7c0 10be 8a34 a6bc a285 8c3d
00000040: 5d8a d4bd 1546 e43d 10e4 063e 7bdf ebbd
00000050: 32fc 23bd 9c15 0ebd 9b71 8b3c 8560 0b3e
00000060: 0aa8 693d ff7f 38bd dedf ac3d 5239 cabd
00000070: 38e2 63be a082 d73d b401 b43a 3188 50bb
00000080: dea8 6abd d461 01bc 5202 f23d 3b99 213d
00000090: 54cb 883d bfd0 bbbc 3361 b7bc cebd babc
000000a0: 160e 17be 7269 67bd 4060 f1ba bd4a 953c
000000b0: 43a1 c2bd 8ade 613b 732e e6bc ec15 a4bd
000000c0: 5f08 0c3c a911 c13c ee10 c2bd e89e 4e3e
000000d0: 4e0e 873d 3e27 95bb e873 023e 4bc4 df3d
000000e0: ead8 ed3d 0e13 41be 0ef2 173a 6e97 903c
000000f0: 361b 73be 3531 76bd 31fd bd3d faa2 60bc
00000100: 17bb dfbd 1d5e 9a3d a0fd 0cbd e2e0 cabd
00000110: 4a1c 10be e654 92bd 1502 39bd ac01 0d3d
00000120: 7515 2d3e 0d34 e2bb c951 113b 4b00 7a3d
00000130: 1587 6ebd 8db4 103e e40a c6bc b167 793d
00000140: decc 323e 08a4 a53d 6f6c 533d 7e3b 8dbd
00000150: 84c1 863d 8a6d 40bd 0b92 c6bd 41f0 203e
00000160: 0785 443c 129d c3bd 867b 2bbb 363e d8bd
00000170: 30f0 d9bd 3b57 7c3d 3d97 1fbd 1880 bebc
00000180: bfad f73d cb9d e63d acdd 3abd 20e3 dd3d
00000190: 323a 003c 50c8 79bd 9696 283e 00c6 16bc
000001a0: 8550 1fbd deb8 ffbc e761 7f3b 679d 863d
000001b0: 2ef4 e2bd d343 c4bd 4f33 f0bd cf04 0cbd
000001c0: d27d a6bd 1cca d5bc 448d ba3c 7f81 7db9
000001d0: f4ba b73d ac56 733b 788f c1bd 02b2 ea3b
000001e0: aaca be3d 1214 533e d534 d3bc 6e6a ea3c
000001f0: e86f ddbc b6d3 59be e6e5 e83c b7de cb3d
00000200: 301c c4bd be44 59bd f07f debc a558 b0bc
00000210: 9505 28bd 359d 5a3d 48c5 16bd ee95 8f3d
00000220: 8176 a03c ecf0 a63b 0aa6 073e df3c 263d
00000230: cf39 cebc 3e9f b9bd 58d8 52bd 5a87 633d
00000240: af58 d4bd 0f11 803d d47e c1bd 059e bd3d
00000250: 8299 153d 4886 123d f060 8d3d df6d 403d
00000260: d99a 403e c701 69be eec0 01be 8114 9e3d
00000270: 7368 3f3e 3501 8c3d 480e 52bd 9916 fdbc
00000280: 275c f53d 4853 1cbd 816d e73d 76c4 a83c
00000290: 8888 c23d 9c92 09be b937 633d 0985 06be
000002a0: 89e4 e9bb 35ea 723d 2626 dabc aef3 0cbe
000002b0: 05af 9e3d d2c3 733d 5420 d0bc 16ae 06bd
000002c0: 2a5e d0bd 493a c83d 0424 ac3c b36f dcbd
000002d0: 8c22 afbd 226f 0cbd 293b c03d 98ad 363d
000002e0: e27e 2f3d 1954 bdbd 2fd4 cfbd 7c8c 24bd
000002f0: cdff 943d 02ec 203d e5db 3bbd 1363 a53c
00000300: 2d4e ccba 1711 0f3e 3fb7 603d e00d 97bd
00000310: 3897 ebbc 69d6 553d 7858 a73d 6149 bb3d
00000320: d1d6 edbb 6ad7 363c bc8a 013d 9cee 35bd
00000330: ff8b 4ebe 4588 7d3d 57bd f43d ef7d 4dbe
00000340: 667f 8c3d 279c 213d 56b3 393d ed5e e13c
00000350: 6057 063d 09ea 883d 711f bc3d 1ef7 353d
00000360: d4b8 fa3d 9be9 51bc 483b cd3c a58b ac3d
00000370: d224 7dbd d651 ddbc 0a86 00bc 45f3 d0bc
00000380: 2202 283e 694e b13d c923 d6bd d2a2 a83d
00000390: 8489 3c3c ed26 9fbb a932 573e c412 913d
000003a0: 4562 5b3d 3bca ebbc c11f 5f3c a77c 88ba
000003b0: 8179 28be c8fb a3bc 77d4 b9bd 9ff1 3f3d
000003c0: 5220 133e fb36 21be 9a19 f7bd dc06 0d3e
000003d0: c054 eb3d 01d0 b2bc 179c d13d e833 8a3d
000003e0: 5f16 a43d d7b1 20be 692e f7bb 2784 553d
000003f0: 65c3 a4bd aa99 b63d bec7 7fbd 8d25 e9bc
0.07601198 0.11735043 -0.14577413 0.09743978 0.050328963 -0.028264657 0.080474466 0.1107374
0.18604869 -0.06038256 0.024675734 -0.05887669 -0.035269998 -0.14136063 -0.020288724 0.06861426
-0.10377953 0.111461796 0.13172936 -0.11517235 -0.040035434 -0.034688577 0.017021945 0.13611038
0.05704502 -0.04504394 0.08441137 -0.09874214 -0.22254264 0.105229616 0.0013733418 -0.0031819458
-0.05728995 -0.007896859 0.11816849 0.039452773 0.06679407 -0.022926686 -0.022385215 -0.022795584
-0.14751467 -0.056497045 -0.0018415526 0.018224115 -0.095034145 0.003446492 -0.02809832 -0.08011994
0.008546918 0.023567991 -0.09475885 0.20177805 0.06594525 -0.004551797 0.12739527 0.10926112
0.11613639 -0.18854925 0.0005796262 0.017650332 -0.23740849 -0.06010552 0.09276808 -0.013710732
-0.109243564 0.07537482 -0.034421563 -0.09906174 -0.14073291 -0.07145099 -0.045168 0.034425423
0.16902716 -0.0069031776 0.0022173992 0.061035436 -0.058234293 0.14131375 -0.024175115 0.060889903
0.17460963 0.08087927 0.051617082 -0.06896113 0.06579879 -0.046979465 -0.09695824 0.1571665
0.011994607 -0.09551443 -0.0026166155 -0.10558741 -0.10641515 0.061606627 -0.03896259 -0.02325444
0.12093686 0.11260565 -0.04562156 0.10834336 0.007826375 -0.06098205 0.16463694 -0.00920248
-0.03889515 -0.031216081 0.0038968266 0.06572991 -0.1108173 -0.09583249 -0.11728536 -0.034184273
-0.08129467 -0.02609735 0.022772439 -0.00024176201 0.08971205 0.0037130518 -0.094511926 0.0071623335
0.09315999 0.20613125 -0.025782028 0.028615203 -0.0270309 -0.21272168 0.028429937 0.09954589
-0.09575689 -0.053044073 -0.027160615 -0.021526644 -0.04102095 0.05337258 -0.036809236 0.07011019
0.019587757 0.005094638 0.13246933 0.040585395 -0.02517405 -0.09063576 -0.051475853 0.055549003
-0.103684776 0.06253254 -0.09448019 0.092586555 0.03652335 0.03577259 0.06903255 0.04697978
0.1880907 -0.22754584 -0.12671253 0.077187546 0.18692188 0.06836168 -0.05128315 -0.030894564
0.11980467 -0.03816536 0.11300183 0.020601492 0.094986975 -0.13434833 0.055473063 -0.13136686
-0.007137839 0.05930539 -0.026629519 -0.13764831 0.07748226 0.05951292 -0.02540604 -0.032880865
-0.1017421 0.09776742 0.021013267 -0.107634924 -0.08551511 -0.034285672 0.09386284 0.044599146
0.042845614 -0.09244556 -0.10147893 -0.04017304 0.072753526 0.039287575 -0.045864005 0.020188844
-0.0015587263 0.13971363 0.054862257 -0.07375693 -0.02875863 0.05220643 0.08171171 0.09144855
-0.007258274 0.011159757 0.031626448 -0.04441701 -0.20170592 0.061897535 0.11950176 -0.20067571
0.06860237 0.03945556 0.045337044 0.027511084 0.03279817 0.06685264 0.091856845 0.044425122
0.122422844 -0.012812044 0.025052682 0.084250726 -0.061802693 -0.027016561 -0.007844457 -0.025506625
0.16407064 0.08657534 -0.10456044 0.082341805 0.011507396 -0.0048569352 0.21015419 0.070836574
0.053560514 -0.028782954 0.013618411 -0.0010413126 -0.164526 -0.02001752 -0.090737276 0.046861287
0.14367798 -0.1574363 -0.1206543 0.13772148 0.11490774 -0.0218277 0.1023485 0.067481816
0.080120794 -0.1569284 -0.0075433743 0.052127983 -0.08045081 0.08916028 -0.06244635 -0.028460288

network_body._body_endoder.seq_layers.2.bias f4 [128]
00000000: 0000 0000 0000 0000 0000 0000 0000 0000
00000010: 0000 0000 0000 0000 0000 0000 0000 0000
00000020: 0000 0000 0000 0000 0000 0000 0000 0000
00000030: 0000 0000 0000 0000 0000 0000 0000 0000
00000040: 0000 0000 0000 0000 0000 0000 0000 0000
00000050: 0000 0000 0000 0000 0000 0000 0000 0000
00000060: 0000 0000 0000 0000 0000 0000 0000 0000
00000070: 0000 0000 0000 0000 0000 0000 0000 0000
00000080: 0000 0000 0000 0000 0000 0000 0000 0000
00000090: 0000 0000 0000 0000 0000 0000 0000 0000
000000a0: 0000 0000 0000 0000 0000 0000 0000 0000
000000b0: 0000 0000 0000 0000 0000 0000 0000 0000
000000c0: 0000 0000 0000 0000 0000 0000 0000 0000
000000d0: 0000 0000 0000 0000 0000 0000 0000 0000
000000e0: 0000 0000 0000 0000 0000 0000 0000 0000
000000f0: 0000 0000 0000 0000 0000 0000 0000 0000
00000100: 0000 0000 0000 0000 0000 0000 0000 0000
00000110: 0000 0000 0000 0000 0000 0000 0000 0000
00000120: 0000 0000 0000 0000 0000 0000 0000 0000
00000130: 0000 0000 0000 0000 0000 0000 0000 0000
00000140: 0000 0000 0000 0000 0000 0000 0000 0000
00000150: 0000 0000 0000 0000 0000 0000 0000 0000
00000160: 0000 0000 0000 0000 0000 0000 0000 0000
00000170: 0000 0000 0000 0000 0000 0000 0000 0000
00000180: 0000 0000 0000 0000 0000 0000 0000 0000
00000190: 0000 0000 0000 0000 0000 0000 0000 0000
000001a0: 0000 0000 0000 0000 0000 0000 0000 0000
000001b0: 0000 0000 0000 0000 0000 0000 0000 0000
000001c0: 0000 0000 0000 0000 0000 0000 0000 0000
000001d0: 0000 0000 0000 0000 0000 0000 0000 0000
000001e0: 0000 0000 0000 0000 0000 0000 0000 0000
000001f0: 0000 0000 0000 0000 0000 0000 0000 0000
0.0 0.0 0.0 0.0 0.0 0.0 0.0 0.0
0.0 0.0 0.0 0.0 0.0 0.0 0.0 0.0
0.0 0.0 0.0 0.0 0.0 0.0 0.0 0.0
0.0 0.0 0.0 0.0 0.0 0.0 0.0 0.0
0.0 0.0 0.0 0.0 0.0 0.0 0.0 0.0
0.0 0.0 0.0 0.0 0.0 0.0 0.0 0.0
0.0 0.0 0.0 0.0 0.0 0.0 0.0 0.0
0.0 0.0 0.0 0.0 0.0 0.0 0.0 0.0
0.0 0.0 0.0 0.0 0.0 0.0 0.0 0.0
0.0 0.0 0.0 0.0 0.0 0.0 0.0 0.0
0.0 0.0 0.0 0.0 0.0 0.0 0.0 0.0
0.0 0.0 0.0 0.0 0.0 0.0 0.0 0.0
0.0 0.0 0.0 0.0 0.0 0.0 0.0 0.0
0.0 0.0 0.0 0.0 0.0 0.0 0.0 0.0
0.0 0.0 0.0 0.0 0.0 0.0 0.0 0.0
0.0 0.0 0.0 0.0 0.0 0.0 0.0 0.0

action_model._discrete_distribution.branches.0.weight f4 [3, 128]
00000000: 9d8c 193c 7dea 9ebb c0d8 093b 2dd7 693a
00000010: f3e8 fbbb 4848 393c a200 683c 0151 afbc
00000020: c7b6 5b3a 515a 39bc 2567 593c 3bd5 983c
00000030: 7ecd cabb 57f4 373c f3a5 093c 24bd 1839
00000040: 55d4 513b 0ddf 373b de0e 81bb 52d0 e6bb
00000050: 8b71 503c 3776 50bc 1f8a 2abc d21f 773c
00000060: ca5d cbbb 8861 f73b 05a9 f8bb 9f19 ab3b
00000070: c880 1e3c d131 993b cb2e 373c 521d 56bc
00000080: fb39 7b3c c7bf 37b9 dcdf 0f3c 910b 45bb
00000090: 001a 433b a067 ddba 6914 1fbc 453d 36bb
000000a0: 2312 713b 1b1d a0bb 540e 993b d60c 1abc
000000b0: c7a7 7e3b 28d3 4cbc d722 56bb 557c 3bbc
000000c0: 9de1 acba e442 4cbc 93f0 24bc df30 a2bb
000000d0: da23 c63b 470f cb3b 6ad1 573c 02b1 213c
000000e0: ff2a 1d3c 3bbd 823b 794d 3bbb c58b 28bc
000000f0: 3e5f 383c 45ff 7a3b 3bdf 823a 6703 8ab9
00000100: d855 6e3c a331 2a3c 25e6 453c a73a 7cbb
00000110: 7910 28bb 1c4a a33a 4205 aebb d518 783b
00000120: b7cd dbbb fbd3 bf39 0b9a 61bc 6515 d33b
00000130: bf72 213b e080 f0bb ed33 183c 52f0 82bc
00000140: a538 1ebc 13df 663c 6a6f b03b 4bcf 85bb
00000150: 5d7c 1abc 0e46 083c a1ce 9d3b 4f08 f9ba
00000160: 2bec 76bb 9f7f 50bb db7e 21bc 84ff 213c
00000170: 3f32 c6bb 3740 62ba 5f18 aabc f7fa ec3a
00000180: e885 dabb 8aec 99b9 5f5d 84ba 2f0e 993b
00000190: 57e5 7a3c 910f bdb9 fe32 a7bb 6257 ce39
000001a0: 5aba ea3b 7568 773c 2092 383c eee1 463b
000001b0: e68a c9ba b7ce 41ba 2e71 37bc 1211 c23b
000001c0: a57d 6e3b e3ef ee3b a97c 2f3c 1b72 7e3b
000001d0: c361 223a 6781 01bc 7b41 1a3b 2ac3 7fbc
000001e0: 42c0 6f3b ffd7 dcbb c99a 2d3b d71d 28bb
000001f0: f343 31bc c97b 073c 1509 673c 6548 65bb
00000200: f093 ee3b b141 abbb 0303 6ebb 579d 963c
00000210: ff09 42bb e2ad df3b fa59 573c b3ad 85bc
00000220: cfbc 15bb 5d1c 57bc 54a1 0fbb e0c8 00bc
00000230: d59b 7f3b da32 ec3b 86bd 09bc b39f f0ba
00000240: a8e1 71ba 1e23 0d3c 5011 063b 975c 9f3b
00000250: 9b15 0fbb dc83 b1bb b84a 0e3c 95f7 66bb
00000260: 815a 8bbb 96b4 a23b 3377 d3bb 188a 813b
00000270: 8df6 41bc 27b8 523c e7dd 833c 2bb0 423c
00000280: 4d27 ea3b 558a 1a3c df59 39bb 50da edbb
00000290: d70e 7f3b af28 e1ba 036b b83b eb96 393c
000002a0: 378d bb3b e7eb 9c3b 2047 c1bc 73a4 c938
000002b0: 93ab ac3b 48a9 233b 6c2b 23bc 1f00 ac3b
000002c0: fff6 02bc 725b dcbb 6d46 c8bb fbe0 cbba
000002d0: 7d26 1cbb 49b5 cbba 985b e5ba 18d0 25bc
000002e0: 03f6 933c 8b92 ae3b d156 453c f900 8c3c
000002f0: cb08 343c 8061 c4bb 8708 d5bb e0d5 97b9
00000300: 1ffe 3abc f779 e3bc 34c2 89ba b0a7 84bc
00000310: 15ef 313c 3d53 003c 88fc dabb e836 953c
00000320: 2fad 063c 1f52 19bc d9f9 83bb 12ec 8f3a
00000330: c500 87bc 9a2d abbb dfe9 4639 79cf 06bc
00000340: 5adc 693b 1756 16bc 3237 50bc 3818 25bc
00000350: d087 75bb 7e21 3abb f0a9 65bc a2f3 b8bb
00000360: a140 a8bc 3c6b 0f3c 1c82 943c 80b9 19bc
00000370: 170d ce3b 9f8f 8aba db25 4c3c 5e65 33bc
00000380: a9bb 10bc cf33 df3b 857e 903b 174f e2bb
00000390: cf69 26bb b7c6 07bc 877d 5c3c 07ba ebbb
000003a0: 27a2 6dbc 3377 acba 2882 68ba 6fad 42bc
000003b0: 2806 c33b d085 323c 7aa3 35bc f8ad 743c
000003c0: 90f3 eebb e761 e6bb da55 53bc 3f35 b3bc
000003d0: fa56 cd3b b1fd 093b 9226 8d3b 6abf 52bc
000003e0: 6d45 563b 4994 403a 8836 8b3b 5a17 2ebc
000003f0: 25cd f2bb 7d55 d63b a3ad 813b 5303 ba36
0.009371904 -0.0048497305 0.0021033734 0.00089203083 -0.007687682 0.011308737 0.014160307 -0.02140093
0.0008381423 -0.011313037 0.0132692205 0.018656364 -0.0061890474 0.011227689 0.008401382 0.0001456631
0.003201743 0.0028056533 -0.00393854 -0.0070438767 0.012722383 -0.012723497 -0.010408907 0.01508327
-0.006206249 0.0075494684 -0.007588508 0.00522156 0.0096742585 0.004675128 0.01118059 -0.013068514
0.015333648 -0.00017523683 0.0087814 -0.0030066709 0.0029770136 -0.0016891845 -0.009709456 -0.0027807516
0.0036784492 -0.004886282 0.0046708975 -0.009402474 0.0038857327 -0.012501515 -0.0032674575 -0.011443217
-0.0013189797 -0.01246712 -0.010067123 -0.0049496735 0.0060467543 0.0061968896 0.013172487 0.009868862
0.009592771 0.003989843 -0.0028580113 -0.01028723 0.011253176 0.0038299125 0.0009984741 -0.00026323946
0.014546834 0.010387811 0.0120787965 -0.0038487108 -0.0025644584 0.0012457999 -0.0053106854 0.0037856598
-0.0067078727 0.00036588297 -0.013769637 0.0064417594 0.0024635044 -0.007339582 0.009289724 -0.015983734
-0.00965706 0.014091271 0.0053843753 -0.004083549 -0.009429065 0.008317484 0.004815892 -0.0018999669
-0.0037677388 -0.003181435 -0.009856905 0.00988758 -0.0060484703 -0.00086307846 -0.020763574 0.0018080164
-0.006668795 -0.0002935867 -0.0010098628 0.0046708803 0.015313468 -0.00036060487 -0.0051025143 0.00039356487
0.007163328 0.015100588 0.011265308 0.0030347067 -0.0015376478 -0.00073931686 -0.011196418 0.005922445
0.0036390808 0.0072917803 0.010710874 0.0038825336 0.0006194377 -0.007904387 0.0023537565 -0.015610496
0.00365831 -0.006739616 0.0026489964 -0.0025652552 -0.010819423 0.008269259 0.014101286 -0.0034985777
0.007280819 -0.005226337 -0.0036317713 0.018385572 -0.002960801 0.0068261484 0.013144011 -0.016318178
-0.0022848134 -0.013129321 -0.0021916227 -0.007860392 0.0039002795 0.0072082104 -0.008407002 -0.0018358141
-0.0009227046 0.00861433 0.0020457096 0.0048633325 -0.0021832946 -0.00541733 0.0086848065 -0.0035242785
-0.0042527323 0.004965375 -0.0064534186 0.0039532296 -0.011838567 0.012861288 0.016097022 0.011882822
0.0071457983 0.009432395 -0.0028282327 -0.007258691 0.0038918757 -0.0017178262 0.005627991 0.011327486
0.005723621 0.004788864 -0.023593485 9.615058e-05 0.0052694767 0.0024972726 -0.009959083 0.005249038
-0.007993459 -0.0067247683 -0.006111911 -0.001555472 -0.0023826652 -0.0015541698 -0.001749861 -0.010120414
0.018061643 0.005327528 0.012044624 0.017090308 0.0109884245 -0.005993068 -0.0065012607 -0.00028960314
-0.011413126 -0.027768118 -0.0010510148 -0.01619324 0.010860224 0.007832346 -0.006682936 0.018214658
0.008220001 -0.009357958 -0.004027587 0.0010980389 -0.01647986 -0.005223942 0.00018969875 -0.008228176
0.0035684318 -0.009175799 -0.012708472 -0.010076575 -0.0037464984 -0.002840131 -0.014017567 -0.0056442777
-0.02053863 0.008753594 0.018128447 -0.009382606 0.0062881815 -0.0010571367 0.012460197 -0.010949461
-0.008833804 0.006811596 0.0044096136 -0.006906401 -0.0025392657 -0.008287123 0.013457662 -0.007193807
-0.014503992 -0.0013158083 -0.00088694924 -0.01188217 0.0059516616 0.010896161 -0.011086339 0.0149340555
-0.0072922185 -0.007030714 -0.012898887 -0.021875976 0.006266472 0.0021055753 0.0043075765 -0.0128630195
0.003269519 0.0007346315 0.004248444 -0.010625685 -0.007409709 0.0065409527 0.0039574667 5.543619e-06

action_model._discrete_distribution.branches.0.bias f4 [3]
00000000: 0000 0000 0000 0000 0000 0000
0.0 0.0 0.0

action_model._discrete_distribution.branches.1.weight f4 [3, 128]
00000000: 683f fc3a 9f04 d03a 8368 303b efa2 6a3b
00000010: f71d 993b afb5 bbbb 5376 173c 4d4c e93b
00000020: dbf1 293a 5738 9cba 7676 02ba 8add 8d3b
00000030: 7214 95bc a509 9ebb 073a 833b d747 7c3c
00000040: 7db9 233b 4355 863b 47a5 cbba a3ee 72bc
00000050: a97c a43b 3a67 583b eba2 8f3b af03 4e3b
00000060: ff52 c03a 1d08 03bc 00e7 d6ba 8ae7 5abc
00000070: 3a2e 863b 579b 47bc ae4e 853c 6fa0 053c
00000080: e760 4dbc d49d 2d3c e803 94bb 0745 20b9
00000090: 2f4e b1bb fb2c 423b b50a 223c 1f61 d23b
000000a0: 9f36 4cbc 82c1 48bc 6957 ad3b e814 80bb
000000b0: e9f7 c33b 4759 5c3b ec98 aa3a 7dfd 72bc
000000c0: 60df 0c39 cf99 0bbc 096b 9e3c 6584 ae3c
000000d0: edc9 3e39 4df2 293c 3b9b a3bb e350 31bc
000000e0: c714 633b 2116 b0bb 9f5a 11bb b31b 63bc
000000f0: 9623 9fb9 9dc3 dc3b 0bb6 0cbc f325 85bc
00000100: 5245 b63b e341 93bb 0b0e 96bb 97c5 a6bb
00000110: a134 3e3b 6dbb 193c 4f78 d6bb bca8 253c
00000120: b559 e0bb 0afa 103c 83c5 52bc ebc5 f13a
00000130: 1716 fdbb 6b21 79bc 5ed4 29bb 5299 573c
00000140: 0f3f 973b 5d44 6bbb 139c a33b c334 0a3b
00000150: 2301 92bb 06bf 8c3b d036 6f3b 6f00 43bc
00000160: e6ab 97bb 00a1 903b 0c23 9e3b afb2 0ebc
00000170: a88f 69bc a5cf 26bb 8b6a c4bb c664 853c
00000180: c095 983b 3a0e 50bc f7af 523b d011 b8b7
00000190: 4505 f5ba 98be 3e3c b5db 26bc 6015 e83b
000001a0: 7f71 d938 db6d 4e3b 5d98 e4bb c7ab 8bbb
000001b0: 4ee1 8a3b ffad 813b b2f3 d3bb a24b da3a
000001c0: 437b c6bb 974a 863c 7cbb 2e3b e9ec 9cbb
000001d0: 6705 f83b 4b61 c9b9 e72c 12bc 4feb d03b
000001e0: 8d0e 9a3a 4fd8 3ebc d61b babb 7baa 4eba
000001f0: af82 31bc 45e2 873a 523e 72bb af80 8bb9
00000200: 87d0 733c d3ed 8c3b cf63 c63a 0bcf 2e3a
00000210: 063e 3f3b 3f78 a63a 1f5a 0fbc df69 803c
00000220: c93b 4c3b 6b53 563c 4305 63bc 5d50 363c
00000230: f8c3 25ba 4b86 d1ba 593e 003c 20d4 543b
00000240: 8ddc b53b e704 d93b b827 b7bb 64eb a0bb
00000250: b5ac 5b3c 1f1e 8b3c bc64 173c 422c 1bbc
00000260: 3776 a2b8 bfc4 58bc 22e8 f63b 3959 353c
00000270: 93aa 303c 411e c239 f585 a5bb 1737 37bb
00000280: 6cdc abbb 0314 a73b 0c3c a0bc 134f 4139
00000290: 6a23 7d3c 4d93 c2bb 45ab 093b 9301 903a
000002a0: db97 753a fba8 4f3c 1f49 b2bb 5384 2abc
000002b0: f090 d43b 9315 223a b755 013c cd2a e5bb
000002c0: 9f57 bf3b 6fed f33b 33c6 9c3a f046 da3a
000002d0: 6bd6 213b f2a3 6bbc 2d2c 4cba 58fd 9abc
000002e0: 0050 95bc 68c8 6cbc 77a7 223b 7315 bebc
000002f0: cfe1 6ebc 9d70 0c3a afd0 e23c 00b0 6a3b
00000300: 2678 b33b 9a42 df3b 0ed9 9b3b 57e2 a03c
00000310: 8794 7e3c c215 dd3b e4f2 b0bb 5ae6 a93a
00000320: 37b2 a53c f7c0 363b e037 5cbc a931 953c
00000330: ea1a cebb cb1f 72bc b3f6 90bc f043 e8bb
00000340: 02e1 be3b fd05 0cbc e5fc 82bb 5722 0ebc
00000350: db56 ffbb d3f2 b8bb 3b51 313c 2e82 b13b
00000360: 48d1 e63c 2a99 1cbc 1396 333b 6b47 bdbc
00000370: 0f3c ae3a a5d6 0a3c 7b99 fc3a 731a 263c
00000380: 8bf0 c2b9 856e 733b 67b0 1c3c efab aabb
00000390: 011b b0bb 1f16 1bbc 2b8f e1bc 8f08 06bb
000003a0: 5354 86bc bf7b b8bb a74c 4bbc b6d3 443c
000003b0: 1007 35bb da6b 883b edfa 273b 71a7 91bc
000003c0: e725 ddbb 0ead 3c3c ed17 323c 2d86 53bc
000003d0: 435c d9bc d41c 0f3c 92c9 58ba 2bc0 5cba
000003e0: 15a1 6ebb ff64 64bb 6d10 923b 33ba 1eba
000003f0: 1487 1fbb 3028 e53b 11b2 b73a 7351 2fbc
0.0019244971 0.0015870518 0.0026917763 0.0035802682 0.0046727615 -0.0057284455 0.009244519 0.0071196915
0.00064828777 -0.0011918646 -0.00049767585 0.004329388 -0.018198226 -0.004822927 0.00400472 0.015397987
0.0024982386 0.0040995195 -0.0015536927 -0.014827403 0.0050197435 0.0033020512 0.004383435 0.00314353
0.0014673172 -0.00799754 -0.0016395748 -0.013360867 0.004094866 -0.012183032 0.016272869 0.008155926
-0.01253531 0.010596711 -0.004517067 -0.00015284504 -0.0054109315 0.0029628861 0.009890248 0.006420269
-0.012464195 -0.012253167 0.005289961 -0.003908742 0.005980481 0.003362255 0.0013015545 -0.014830944
0.00013434654 -0.008520558 0.019338148 0.021303365 0.00018195035 0.01037271 -0.00499287 -0.010822508
0.0034649835 -0.0053737317 -0.0022179259 -0.0138615845 -0.00030353357 0.006737186 -0.008588324 -0.016253447
0.005562463 -0.0044939383 -0.004579311 -0.0050894725 0.0029023068 0.009383065 -0.0065451036 0.01011103
-0.0068466314 0.008848676 -0.012864473 0.0018445825 -0.0077235806 -0.015205721 -0.0025913934 0.013159113
0.0046156715 -0.0035898902 0.0049929707 0.0021088577 -0.004455702 0.0042952327 0.0036501177 -0.011901959
-0.004628646 0.004413724 0.0048259553 -0.008709594 -0.014255442 -0.0025453356 -0.005994146 0.016283404
0.0046565235 -0.012698704 0.003214834 -2.1942804e-05 -0.0018693587 0.011642121 -0.010184218 0.007082626
0.000103685066 0.0031498584 -0.006976171 -0.004262421 0.004238284 0.0039575095 -0.0064682597 0.001665462
-0.0060571744 0.01639299 0.0026662042 -0.004788984 0.0075690034 -0.00038410196 -0.008921838 0.006375707
0.0011753604 -0.011648252 -0.005679588 -0.000788368 -0.01083438 0.0010367116 -0.0036963415 -0.00026608023
0.01488126 0.004300812 0.0015135946 0.0006668425 0.0029181256 0.0012700631 -0.008749514 0.015675483
0.0031163564 0.013081412 -0.013856235 0.011127559 -0.0006323452 -0.0015985457 0.007827365 0.003247507
0.0055499733 0.006622899 -0.0055894516 -0.0049108732 0.013407876 0.016982136 0.009240326 -0.009471001
-7.746781e-05 -0.013230502 0.0075349966 0.011068636 0.010782856 0.00037025104 -0.0050513693 -0.002795642
-0.005244782 0.005098821 -0.019559883 0.00018435372 0.015450338 -0.00593797 0.0021006626 0.0010986797
0.00093686365 0.012674565 -0.0054408456 -0.010407525 0.0064870045 0.00061830244 0.007893971 -0.0069936276
0.0058393027 0.007444076 0.0011960923 0.0016653221 0.0024694453 -0.014382349 -0.0007788565 -0.018919632
-0.018226624 -0.014452077 0.0024819055 -0.023203587 -0.014580204 0.0005357357 0.027687399 0.003581047
0.0054769693 0.0068133594 0.0047560995 0.019639177 0.015538341 0.0067469785 -0.0054000486 0.0012962327
0.020226581 0.0027886012 -0.013441056 0.018212156 -0.0062898295 -0.014778088 -0.01769576 -0.007088177
0.005825163 -0.00854635 -0.0039974325 -0.008675179 -0.0077923364 -0.0056441813 0.0108225895 0.00541713
0.028175965 -0.0095580015 0.0027402684 -0.023105344 0.0013293045 0.008474027 0.0019271815 0.010138142
-0.00037181782 0.0037144732 0.009563542 -0.0052084844 -0.005374313 -0.009465723 -0.027534088 -0.0020451879
-0.01639763 -0.005629986 -0.012408412 0.012013366 -0.0027622618 0.0041632475 0.002563174 -0.017780038
-0.006748903 0.011515869 0.010869962 -0.012910408 -0.026533252 0.0087349005 -0.00082697824 -0.0008420969
-0.003641193 -0.0034850237 0.0044575245 -0.00060549675 -0.0024341987 0.006993316 0.001401486 -0.010700571

action_model._discrete_distribution.branches.1.bias f4 [3]
00000000: 0000 0000 0000 0000 0000 0000
0.0 0.0 0.0

network_body._body_endoder.seq_layers.0.weight f4 [128, 45]
00000000: 5973 093d d95c 6abd 4605 d0bd e63f 2e3c
00000010: b397 be3d 0895 993e 0049 703c 457c 10be
00000020: a96c e2bd 3c46 c0be 6269 3f3e 0931 19be
00000030: b86d 513e e803 bdbe a75b f13d eedd d33d
00000040: 41a0 0e3e efa3 c9bc ba06 673c 5763 c3bd
00000050: ab08 9f3e da84 c7bc c16a 1ebe 979d 80be
00000060: f908 fc3c f26f 373d fe2c b03e 81b6 d93d
00000070: 5308 b3bc 6781 0f3e a550 1abc 6587 623e
00000080: 5d97 f8bd 45fb d3bd 6528 b9bd ec18 863e
00000090: 0ea1 0dbc e5d4 803d 8eb0 5a3d 0961 52be
000000a0: ce0d 493e a2b7 7d3e 740c 7f3d 3378 b5be
000000b0: 4e7f 3f3e f2a1 de3a a1d0 263d c827 ccbc
000000c0: 4865 32bd db0c d3bd 007a 33be 3435 50bd
000000d0: b49c 813d 3187 75bd 6bb3 963c 4b17 2abe
000000e0: 86de e7bd 9f14 133e f192 12be fdf6 85be
000000f0: 6e4d 06bd 4e73 ba3d 99c9 b1bd 6583 d93e
00000100: f2f8 fd3d 70ed d93d 9171 b3bc db35 73be
00000110: f149 8bbd 32fb 733d aef9 bc3b 9a24 4ebe
00000120: a999 023e ddfe 9f3e 44ce 38be da2c bf3d
00000130: ec78 a3bd 4ad9 133e 042f 16bd d0c7 af3e
00000140: b117 2abe 1fd9 91bd 2f31 12bc 8e8a 913e
00000150: 708e 363e d511 693e 3e04 d83c fa29 773d
00000160: 8c7d a5bb ab40 b0bd c362 0bbe a63c c03d
00000170: 4d50 ba3d 05d5 6cbd ae14 04be 1704 1ebe
00000180: 0358 1abe fd87 953e 9648 6f3c f610 713d
00000190: bfa5 ccbd b07b 52bd 1e04 c2bd 13bb 853d
000001a0: c472 513b 591e 913d bd22 1abe c869 473e
000001b0: 51e8 bb3d 7d2e f6bd 69eb 6cbd 4ec4 9bbd
000001c0: fa78 44be f698 703d 0332 383e 82e8 d73d
000001d0: 229a 1f3e b5b6 29bd ad51 14bc eb54 2b3e
000001e0: c7ac 0ebd 1c74 213d a7fe 053e 8519 e63d
000001f0: 1041 e2bd 7cb7 13be 3b83 a9be d17c 85bd
00000200: d230 03be 54b6 023c 4d1e 683e d121 f83a
00000210: 3e99 073c d9eb 7c3d 7688 1dbc 0f7c 8fbd
00000220: 4fc0 623d d190 01be d8ef 9a3c e981 023d
00000230: 26c3 273e 0161 34be bfa7 d0bc c8b4 93ba
00000240: b92e 3dbe c679 893c 02b1 343e 7c51 ef3c
00000250: 613a 81be a213 f4bd 2e59 86be 4557 213e
00000260: 6b26 033d 5763 1fbd 2df7 c93c 8cbd 35be
00000270: a57d 793e 30e6 433d f2a6 c3be 94fb 1c3e
00000280: 20cf b1bc 5022 983d 4cd2 0d3e 8fbc 21be
00000290: 44bc 593d 31e2 353e ed32 e93d 0f69 1cbe
000002a0: 16d9 79be 8ad5 be3c efbd 493d 3e98 523e
000002b0: 8088 55bd d5e6 4abd 6aa0 6c3d cef6 c6bd
000002c0: a51f 273e b848 3c3c e16a 883e 9a5f 193e
000002d0: bc62 943d 13c4 c6bd 0eeb 123b 2d27 2d3e
000002e0: 5f56 8b3d ab8e 703b 169d ac3d 8973 7e3d
000002f0: 99bd 82be 7369 143d 71ce 053c 9e4e a5bd
00000300: ef5e f23d 0e58 62bc fc37 13bd f5c4 4fbe
00000310: c862 d9bc 648d f7bc de16 0e3e e77a 01be
00000320: 6e87 68bd 8a6d cdbc fba8 b8bd bbc1 29be
00000330: 5aef 313e 07a9 abbd 1dfe 2d3b 5e1d 023d
00000340: 9326 243e e953 913e 339f eb3c bfb1 4fbe
00000350: 647c 283d 5d77 e33b 59ad d53d 1b28 ce3e
00000360: d692 8ebd 7d8d 883e 7899 3fbe b23b 04be
00000370: 6764 a33d dba1 743e 3ea1 6d3d aa61 0ebe
00000380: a8ac 4b3c 0f72 053e 5369 28be 89fc bebc
00000390: 4740 87bd 9bfc e43c c513 573d b99d a3bc
000003a0: bec1 2b3d a8ff 9a3d 3a3c 043e efb0 59bb
000003b0: dc0e 8ebd 3b32 303e 3965 e93d 58eb 0bbb
000003c0: 0dcc 5bbe d898 e33d 44f0 9bbd 1fb4 3dbe
000003d0: 8a42 edbd cc99 99bd 6168 4b3d daa8 8e3e
000003e0: b161 a13d d734 3e3e 9d38 2e3c 4c8f 32be
000003f0: 156c 61be b4e3 e4ba e1d5 93be 5798 4fbd
0.03355727 -0.057217453 -0.10157256 0.010635352 0.09306278 0.29996514 0.014665842 -0.14109905
-0.110558815 -0.37553585 0.18692544 -0.14960112 0.2045201 -0.36917043 0.117850594 0.10345064
0.1392832 -0.024614302 0.014100725 -0.09540432 0.310613 -0.02435534 -0.15470411 -0.25120232
0.030765997 0.044784494 0.34409326 0.10630513 -0.021854555 0.14014207 -0.009418641 0.22121961
-0.12138245 -0.1035066 -0.09040908 0.2619089 -0.008644355 0.062906064 0.053391032 -0.20544828
0.19634172 0.24777082 0.062267736 -0.35443267 0.18700907 0.0016985519 0.040726308 -0.024921313
-0.04355362 -0.10305186 -0.17527008 -0.05083199 0.06328717 -0.05994338 0.0183961 -0.16610448
-0.1132174 0.14363335 -0.14313866 -0.26165 -0.032788686 0.09104024 -0.0868103 0.4248306
0.12400998 0.10640991 -0.021904739 -0.23751013 -0.068012126 0.05956573 0.005767069 -0.2013115
0.12753929 0.31249133 -0.18047434 0.09334727 -0.079820484 0.14438358 -0.03666593 0.34332132
-0.166106 -0.07121491 -0.008922859 0.2842602 0.17827773 0.22760709 0.02636921 0.060342766
-0.0050503667 -0.086060844 -0.13611893 0.09386568 0.090973474 -0.05782034 -0.12898514 -0.15431248
-0.15072636 0.29205313 0.014604708 0.058854066 -0.09992551 -0.05138749 -0.094734415 0.06529822
0.0031959275 0.070858665 -0.15052314 0.19473946 0.0917517 -0.12020586 -0.057841692 -0.076058015
-0.19186774 0.058739625 0.17987828 0.10542394 0.15586141 -0.04143401 -0.009052676 0.16731612
-0.034832742 0.03941737 0.13085423 0.11235336 -0.11047566 -0.14425462 -0.33107933 -0.065179475
-0.12811592 0.007978041 0.22667809 0.0018930977 0.008276282 0.06174836 -0.009615054 -0.07006084
0.05535918 -0.126529 0.018913195 0.031862173 0.16383037 -0.17615129 -0.025470613 -0.0011269087
-0.18474855 0.016781699 0.17645648 0.02921366 -0.25239852 -0.11917807 -0.26239914 0.15755947
0.03201906 -0.038913097 0.024653995 -0.17748088 0.24364336 0.047826946 -0.38213307 0.15330344
-0.02170521 0.074284196 0.13849753 -0.15794586 0.05315806 0.17762066 0.113866664 -0.15274452
-0.24399218 0.023295183 0.0492534 0.20565888 -0.05213213 -0.049536545 0.05777017 -0.09715043
0.16320665 0.011491947 0.26644042 0.14977875 0.072453946 -0.09705367 0.0022417936 0.16909476
0.06803583 0.003670613 0.08428399 0.0621219 -0.25535277 0.036233377 0.008166895 -0.08071636
0.118345134 -0.013814939 -0.035942063 -0.20289977 -0.02653636 -0.030218787 0.1387591 -0.1264454
-0.05676978 -0.025076646 -0.090166055 -0.16577809 0.17376462 -0.08381849 0.0026549168 0.031766288
0.1603034 0.2838433 0.028762436 -0.20282649 0.041134253 0.0069417194 0.10433454 0.40264973
-0.069616005 0.26670447 -0.18710887 -0.12913397 0.079781346 0.23889868 0.0580151 -0.13904443
0.012431301 0.13031791 -0.16446428 -0.023313778 -0.06604057 0.027952483 0.052509088 -0.019972669
0.041932814 0.07568294 0.129136 -0.0033217033 -0.06936428 0.17206661 0.1139626 -0.0021349993
-0.21464558 0.11113137 -0.076141864 -0.18525742 -0.11584957 -0.075000376 0.04966009 0.278632
0.07879961 0.18574844 0.010633615 -0.17437476 -0.22013886 -0.001746288 -0.28874114 -0.050682392

network_body._body_endoder.seq_layers.0.bias f4 [128]
00000000: 0000 0000 0000 0000 0000 0000 0000 0000
00000010: 0000 0000 0000 0000 0000 0000 0000 0000
00000020: 0000 0000 0000 0000 0000 0000 0000 0000
00000030: 0000 0000 0000 0000 0000 0000 0000 0000
00000040: 0000 0000 0000 0000 0000 0000 0000 0000
00000050: 0000 0000 0000 0000 0000 0000 0000 0000
00000060: 0000 0000 0000 0000 0000 0000 0000 0000
00000070: 0000 0000 0000 0000 0000 0000 0000 0000
00000080: 0000 0000 0000 0000 0000 0000 0000 0000
00000090: 0000 0000 0000 0000 0000 0000 0000 0000
000000a0: 0000 0000 0000 0000 0000 0000 0000 0000
000000b0: 0000 0000 0000 0000 0000 0000 0000 0000
000000c0: 0000 0000 0000 0000 0000 0000 0000 0000
000000d0: 0000 0000 0000 0000 0000 0000 0000 0000
000000e0: 0000 0000 0000 0000 0000 0000 0000 0000
000000f0: 0000 0000 0000 0000 0000 0000 0000 0000
00000100: 0000 0000 0000 0000 0000 0000 0000 0000
00000110: 0000 0000 0000 0000 0000 0000 0000 0000
00000120: 0000 0000 0000 0000 0000 0000 0000 0000
00000130: 0000 0000 0000 0000 0000 0000 0000 0000
00000140: 0000 0000 0000 0000 0000 0000 0000 0000
00000150: 0000 0000 0000 0000 0000 0000 0000 0000
00000160: 0000 0000 0000 0000 0000 0000 0000 0000
00000170: 0000 0000 0000 0000 0000 0000 0000 0000
00000180: 0000 0000 0000 0000 0000 0000 0000 0000
00000190: 0000 0000 0000 0000 0000 0000 0000 0000
000001a0: 0000 0000 0000 0000 0000 0000 0000 0000
000001b0: 0000 0000 0000 0000 0000 0000 0000 0000
000001c0: 0000 0000 0000 0000 0000 0000 0000 0000
000001d0: 0000 0000 0000 0000 0000 0000 0000 0000
000001e0: 0000 0000 0000 0000 0000 0000 0000 0000
000001f0: 0000 0000 0000 0000 0000 0000 0000 0000
0.0 0.0 0.0 0.0 0.0 0.0 0.0 0.0
0.0 0.0 0.0 0.0 0.0 0.0 0.0 0.0
0.0 0.0 0.0 0.0 0.0 0.0 0.0 0.0
0.0 0.0 0.0 0.0 0.0 0.0 0.0 0.0
0.0 0.0 0.0 0.0 0.0 0.0 0.0 0.0
0.0 0.0 0.0 0.0 0.0 0.0 0.0 0.0
0.0 0.0 0.0 0.0 0.0 0.0 0.0 0.0
0.0 0.0 0.0 0.0 0.0 0.0 0.0 0.0
0.0 0.0 0.0 0.0 0.0 0.0 0.0 0.0
0.0 0.0 0.0 0.0 0.0 0.0 0.0 0.0
0.0 0.0 0.0 0.0 0.0 0.0 0.0 0.0
0.0 0.0 0.0 0.0 0.0 0.0 0.0 0.0
0.0 0.0 0.0 0.0 0.0 0.0 0.0 0.0
0.0 0.0 0.0 0.0 0.0 0.0 0.0 0.0
0.0 0.0 0.0 0.0 0.0 0.0 0.0 0.0
0.0 0.0 0.0 0.0 0.0 0.0 0.0 0.0

network_body._body_endoder.seq_layers.2.weight f4 [128, 128]
00000000: 3935 04be 2d3f 11be 1735 a9bd 2b69 4f3c
00000010: bb54 4f3d 59cd 4b3e b15e 0cbd 786c 3b3e
00000020: f7ff 41ba 4516 84bd a5a3 c4bc 0ad8 163d
00000030: c5ea c63d a3f0 093e c59e 133c 8671 c8bd
00000040: cdc5 483d 7bc8 cf3a d39c f8bc 0088 44bd
00000050: e733 253c ac83 083e 19f6 efbd 2c91 6e3d
00000060: 6dd7 ad3d 16dd 9abc 8bfe 9cbb 21e0 6ebd
00000070: 4970 a7bc ac0c 44bc 1cec 883d 6b17 2e3e
00000080: b17e 813d 8c80 ce3c cde8 b13c b7e0 cd3d
00000090: ad90 393d 81a2 bc3c 9f53 10be fcbe 1c3b
000000a0: 9cb9 e0bc bd6a 9b3d 2905 0ebc cf0c e5bd
000000b0: d5d3 8d3d c90c 3cbe 3fc2 443d e81a a0bd
000000c0: a6c7 01bd 0f92 2f3e bb9c 99bd 7489 573d
000000d0: 94ba 413d 288f bdbd 2005 c33d 8709 8dbd
000000e0: a55c 1bbd 5672 943d 2ea3 943c 5e5f 8bbd
000000f0: 0a16 d0bb 1506 b13c 47d2 143d 6667 f5bd
00000100: b2b6 403d c71c 2cbd fa7d 5ebd 4635 13bc
00000110: a885 753b de0e 733d 0b0b b63d 6784 afbc
00000120: 2eb8 683d 8856 91bd f8fd 53bd 9630 193e
00000130: 679c 11be d99a aabd 8eb0 053c 3854 793e
00000140: 7404 d4bd 35ec d1bd 998e 62bd 32bd 093b
00000150: 67b9 173d 089e 24bc 27e5 b63d 6e7a e23d
00000160: 4199 b83c a392 993c 9c29 b2bd 9e83 cdbc
00000170: 4032 98bd 41a7 043d 0c63 01be c63d 06be
00000180: 153e a13c a485 ee3c 2bf6 12bd e58d f33d
00000190: 240c 9d3d d821 3abd 2afe b3bd 07ee b2bc
000001a0: 7587 40bd ecf1 d1bd b720 e7bc a04e dbbd
000001b0: f4b3 13bc b0c5 a0bc 1697 7abd 362a 9f3c
000001c0: d5b2 f1bc c127 843c 5dd6 733e 2b6a e2bc
000001d0: f6db 033d 4751 82bb 5460 8bbd 6723 883d
000001e0: 5c0a 183e a28f dfbd 54ea 0cbd 6d07 ebbd
000001f0: 120e 3dbd 0d2c 723d 386d d43d 832f c9bd
00000200: 92f1 623d 6fce 303d 0886 10bc 9a55 553d
00000210: c595 cdbc 7203 48bd 3eb5 2abd 25ae 6bbe
00000220: c693 5a3d 2f3d c3bc b807 7f3c 9684 353c
00000230: 0f37 01be dbff a23c 6678 213d 9dc9 b03d
00000240: 2ff4 583e 2d4e 193d 3a26 8a3d 0a8e 1b3d
00000250: 06dd 8ebc b9ca ec3d 4209 a0bd 4277 81bc
00000260: d883 28bd 0221 fabd 229d b43d 9265 f83c
00000270: 0dd4 0f3c c8b5 c33c 29a3 ccbd 3cd2 64bd
00000280: e556 b4bd 1b2a 1dbe 877b 36bd 9b86 553d
00000290: 7d2a 2a3d ef59 c93d 4b7b fdbc 2deb e4bd
000002a0: 9449 9e3d 354e 2f3d 6eaf 8abc 5bcd 923d
000002b0: 23c7 7f3d 5b90 0abe a2a7 b13d 164d f9bd
000002c0: d42e 563d 0c96 75bc 8dae bf3d 58ec b73d
000002d0: edd0 5abd f8c6 5e3d 8da2 05bc ac3b 24bd
000002e0: aa58 ee3b 092d a7bd 63bc f1bd e86a e13d
000002f0: 077c 8cbc 07af 0f3e 06b1 843d bd5c 1d3d
00000300: 2a20 28be c20d d03d bccb b13d 3c39 b13c
00000310: 4314 173e 891b e4bd 01b8 0d3d c362 efbd
00000320: e388 5d3e 0915 46bd ddc9 993d 08c2 1bbe
00000330: 048c 27be 1392 113e 6be7 853d dc3d 0d3d
00000340: 58e4 0abd 6cb6 ce3d 3c09 d6bd ba3c f23d
00000350: eb85 a0bd 2206 ac3b ee31 2d3e 0114 0b3d
00000360: 0902 9d3d 06a2 113e b07a 42bd 82b3 9b3c
00000370: 49ec d13d 2a6c 0fba c813 11bb 9506 3bbc
00000380: dffd 003e 8eeb f43d 4602 c7bd 3a41 cebc
00000390: 64b0 9dbc a0a1 353d 58e0 6a3d 2589 b8bd
000003a0: 5e20 9ebd fcc3 f83d 3524 b03c d659 b9bd
000003b0: 38cf dd3d 3b72 44bd d978 c0bd 04b4 b0bd
000003c0: b6f6 913c 25dd cfbb 13a3 523c 8fcd 863d
000003d0: c2e1 febd c7b6 cc3d e4b1 d3bd 871c d23d
000003e0: 3caa d63d ceee 953d fd1d e23d c199 1b3d
000003f0: 1ad8 e5bd f60f eabd d623 d1bd 6cac 743d
-0.12910928 -0.14184256 -0.08262079 0.012659351 0.050617915 0.19902553 -0.034269992 0.18303096
-0.00074005075 -0.0644956 -0.024003813 0.036827125 0.097127475 0.13470702 0.009010022 -0.09787278
0.049016763 0.0015852595 -0.030348217 -0.047981262 0.010083175 0.13331479 -0.11716861 0.058243915
0.08488355 -0.01890425 -0.004791086 -0.058319215 -0.020439284 -0.011965912 0.06685659 0.17001121
0.063229926 0.02520778 0.021717453 0.100526266 0.04530399 0.023026707 -0.14094399 0.0023917546
-0.027432255 0.07588718 -0.008668222 -0.11184084 0.069251694 -0.18364252 0.04803681 -0.07817632
-0.03168454 0.1714556 -0.07500597 0.05262132 0.047297075 -0.092558205 0.09522462 -0.06886583
-0.03793015 0.0724837 0.018144216 -0.06805299 -0.0063502835 0.021609345 0.03633335 -0.11982612
0.04704923 -0.04201963 -0.05431936 -0.008984869 0.0037463699 0.05934035 0.08888825 -0.021425439
0.056816272 -0.07096583 -0.051755875 0.1495994 -0.14219819 -0.08330316 0.00815977 0.24348533
-0.10352412 -0.10250131 -0.055311773 0.002101731 0.037042048 -0.010047443 0.08930426 0.11058508
0.022534015 0.01874668 -0.086993426 -0.025087174 -0.074314594 0.03238607 -0.1263544 -0.13109502
0.019682923 0.02911646 -0.035879295 0.118922986 0.07668331 -0.045442432 -0.08788712 -0.021842016
-0.047004182 -0.10251221 -0.028213842 -0.10708356 -0.009015072 -0.019625515 -0.061179243 0.019429307
-0.02950422 0.016132237 0.23812242 -0.027638515 0.032192193 -0.003976974 -0.068054825 0.066473775
0.14847702 -0.10916068 -0.03440316 -0.11476026 -0.046155997 0.05912404 0.10372394 -0.09823515
0.05540616 0.04316562 -0.008821018 0.05208359 -0.02509583 -0.04883141 -0.041676752 -0.2301565
0.053363584 -0.023832886 0.015565805 0.011078974 -0.1261866 0.019897392 0.03942146 0.08632205
0.21186899 0.03742807 0.067455724 0.037977256 -0.017439377 0.11562104 -0.07814266 -0.015803937
-0.04114136 -0.12213327 0.08819033 0.03032187 0.008778584 0.023890391 -0.09992058 -0.055864558
-0.08805636 -0.15348093 -0.0445514 0.052130323 0.041544426 0.098316066 -0.03094258 -0.11177669
0.07728878 0.042799193 -0.016929355 0.07168075 0.06244577 -0.1353163 0.086745515 -0.12172906
0.052290753 -0.014989387 0.09359465 0.08980626 -0.053421903 0.05438897 -0.008156431 -0.04009597
0.007273753 -0.08162887 -0.1180351 0.11006719 -0.017148985 0.14031611 0.06479077 0.03841852
-0.1641852 0.10158874 0.086814374 0.021633737 0.14753823 -0.111380644 0.034599308 -0.11688759
0.2163425 -0.048359904 0.075092055 -0.15210736 -0.16362005 0.14215879 0.0653828 0.03448282
-0.03390917 0.10093388 -0.1045098 0.11827989 -0.07838043 0.0052497545 0.16913578 0.033954624
0.07666404 0.14221963 -0.047480285 0.019006494 0.10250146 -0.0005471135 -0.0022137035 -0.0114151435
0.12596844 0.11958991 -0.097172305 -0.025177587 -0.019249149 0.04434359 0.057342857 -0.09010533
-0.07721017 0.12146756 0.02150164 -0.09050338 0.108305395 -0.0479605 -0.0939805 -0.08628085
0.017817836 -0.006343501 0.012856263 0.06582176 -0.12445404 0.099957995 -0.10336664 0.102593474
0.104816884 0.07320939 0.11040876 0.037988428 -0.11222859 -0.114288256 -0.10211913 0.059734747

network_body._body_endoder.seq_layers.2.bias f4 [128]
00000000: 0000 0000 0000 0000 0000 0000 0000 0000
00000010: 0000 0000 0000 0000 0000 0000 0000 0000
00000020: 0000 0000 0000 0000 0000 0000 0000 0000
00000030: 0000 0000 0000 0000 0000 0000 0000 0000
00000040: 0000 0000 0000 0000 0000 0000 0000 0000
00000050: 0000 0000 0000 0000 0000 0000 0000 0000
00000060: 0000 0000 0000 0000 0000 0000 0000 0000
00000070: 0000 0000 0000 0000 0000 0000 0000 0000
00000080: 0000 0000 0000 0000 0000 0000 0000 0000
00000090: 0000 0000 0000 0000 0000 0000 0000 0000
000000a0: 0000 0000 0000 0000 0000 0000 0000 0000
000000b0: 0000 0000 0000 0000 0000 0000 0000 0000
000000c0: 0000 0000 0000 0000 0000 0000 0000 0000
000000d0: 0000 0000 0000 0000 0000 0000 0000 0000
000000e0: 0000 0000 0000 0000 0000 0000 0000 0000
000000f0: 0000 0000 0000 0000 0000 0000 0000 0000
00000100: 0000 0000 0000 0000 0000 0000 0000 0000
00000110: 0000 0000 0000 0000 0000 0000 0000 0000
00000120: 0000 0000 0000 0000 0000 0000 0000 0000
00000130: 0000 0000 0000 0000 0000 0000 0000 0000
00000140: 0000 0000 0000 0000 0000 0000 0000 0000
00000150: 0000 0000 0000 0000 0000 0000 0000 0000
00000160: 0000 0000 0000 0000 0000 0000 0000 0000
00000170: 0000 0000 0000 0000 0000 0000 0000 0000
00000180: 0000 0000 0000 0000 0000 0000 0000 0000
00000190: 0000 0000 0000 0000 0000 0000 0000 0000
000001a0: 0000 0000 0000 0000 0000 0000 0000 0000
000001b0: 0000 0000 0000 0000 0000 0000 0000 0000
000001c0: 0000 0000 0000 0000 0000 0000 0000 0000
000001d0: 0000 0000 0000 0000 0000 0000 0000 0000
000001e0: 0000 0000 0000 0000 0000 0000 0000 0000
000001f0: 0000 0000 0000 0000 0000 0000 0000 0000
0.0 0.0 0.0 0.0 0.0 0.0 0.0 0.0
0.0 0.0 0.0 0.0 0.0 0.0 0.0 0.0
0.0 0.0 0.0 0.0 0.0 0.0 0.0 0.0
0.0 0.0 0.0 0.0 0.0 0.0 0.0 0.0
0.0 0.0 0.0 0.0 0.0 0.0 0.0 0.0
0.0 0.0 0.0 0.0 0.0 0.0 0.0 0.0
0.0 0.0 0.0 0.0 0.0 0.0 0.0 0.0
0.0 0.0 0.0 0.0 0.0 0.0 0.0 0.0
0.0 0.0 0.0 0.0 0.0 0.0 0.0 0.0
0.0 0.0 0.0 0.0 0.0 0.0 0.0 0.0
0.0 0.0 0.0 0.0 0.0 0.0 0.0 0.0
0.0 0.0 0.0 0.0 0.0 0.0 0.0 0.0
0.0 0.0 0.0 0.0 0.0 0.0 0.0 0.0
0.0 0.0 0.0 0.0 0.0 0.0 0.0 0.0
0.0 0.0 0.0 0.0 0.0 0.0 0.0 0.0
0.0 0.0 0.0 0.0 0.0 0.0 0.0 0.0

value_heads.value_heads.extrinsic.weight f4 [1, 128]
00000000: a03f 2fbc a462 553e b847 5bbe b06c 18bc
00000010: 5469 d03d f73f 48be e05c 40be 2c85 f23d
00000020: 8069 133b bc40 2dbe ae5b 26be b8f3 f23c
00000030: 1225 91bd 3cf3 60bd f0a3 9e3c e9bc 39be
00000040: 202a 803b 0065 243c 7016 543c b8db eebd
00000050: 402d 33bc 4823 49bd 44d9 ef3d 5072 af3d
00000060: 0435 0e3e 4ee8 53be caba 06be a0d5 ad3c
00000070: 9eea f0bd 040b 27be d668 93bd 30be 363d
00000080: 3004 283d d819 7a3d 0d02 babd bca1 d43d
00000090: 3e3a e3bd c82d e73d 9095 a33d 7e0a 86bd
000000a0: 10cd 64bd f0b4 143d 98dd 52bd 100a de3d
000000b0: 46b1 aebd 3ceb b73d d8ee 343d 7c9c 4ebd
000000c0: 9cbb 123e e5d3 20be 4da8 00be 2c7e b23d
000000d0: 4a75 3bbe b674 483e 502c a5bc 7be8 55be
000000e0: f84a 3c3e 18c8 71bd e0c9 b33d 184d df3d
000000f0: 4a48 27be 6845 3bbd eaa3 333e 397d 45be
00000100: 40ec 05bb 3075 8abc 8a81 cfbd 3011 a5bc
00000110: 00ce 5cbe a006 1dbd 6093 5abd 8c32 0f3e
00000120: 0c3c 0e3e 50a0 04be e077 8d3d 5406 28bd
00000130: 6079 cbbd 082e d5bd 8d0e d4bd 6c27 09be
00000140: 803c 2d3d 4f6d 57be f21d 35be 8044 ea3d
00000150: b0e2 3f3d 8ad9 223e 11e4 26be 5c1f 113e
00000160: a811 19bd e0d0 7dbc 6c0c 0c3d c6a7 343e
00000170: 29ba c8bd 709b 1d3c 808f 063b 4098 583d
00000180: 6419 53bd cc7a e23d e8bc 1f3d 38ff 553d
00000190: c4a6 1c3e 7045 143c f86b 45be 60b5 6bbc
000001a0: b43d 103e 6052 b03d c7d4 37be 00c7 8f3c
000001b0: 8460 43be 36a2 59be f46f c93d 88d1 683d
000001c0: 90d3 193e 3fb7 d0bd 1773 48be 12c2 90bd
000001d0: c7d2 ccbd 81df c9bd 40db 0ebc 08ee 533d
000001e0: be59 133e 6061 c33b 268c 173e 8800 673d
000001f0: b41c a4bd 3e7f 22be b4bb 4a3e d37c 3dbe
-0.010696322 0.2083841 -0.21414077 -0.009303257 0.1017634 -0.1955565 -0.18785429 0.11841807
0.0022493303 -0.16919225 -0.1624591 0.02965723 -0.07087149 -0.054919466 0.01936528 -0.1813847
0.0039112717 0.010033846 0.012944803 -0.11663002 -0.010936081 -0.049105912 0.11711362 0.08566725
0.13887411 -0.20694086 -0.13157192 0.021220028 -0.117635 -0.16312796 -0.0719773 0.04461497
0.04101962 0.061059803 -0.090824224 0.10382411 -0.11095093 0.11288029 0.07987511 -0.0654497
-0.055859625 0.036305368 -0.05148086 0.10841763 -0.08529906 0.08980414 0.04417309 -0.050442204
0.1432938 -0.15705831 -0.12564202 0.087154716 -0.18306461 0.19575772 -0.020162731 -0.20889466
0.18387973 -0.059028715 0.08778739 0.10903376 -0.1633617 -0.045720488 0.17542997 -0.1928605
-0.0020435005 -0.016901582 -0.101321295 -0.020149797 -0.21562958 -0.038336396 -0.053363204 0.13984126
0.13890094 -0.1295178 0.0690763 -0.04102166 -0.0993526 -0.104091704 -0.10354338 -0.13393945
0.042294025 -0.21037792 -0.17687204 0.114388466 0.046847045 0.15903297 -0.16297938 0.14172119
-0.037370354 -0.015491694 0.034191534 0.17642125 -0.09801132 0.009619579 0.002053231 0.052879572
-0.051537886 0.11058578 0.038998514 0.05224535 0.15297991 0.009049758 -0.19279468 -0.014386505
0.14086038 0.08609462 -0.17952262 0.017550945 -0.19079787 -0.21253285 0.098358065 0.05684045
0.15022111 -0.101912014 -0.19575153 -0.07068266 -0.1000114 -0.09857083 -0.008719265 0.051740676
0.14389703 0.0059625357 0.14799556 0.05639699 -0.08013287 -0.15868852 0.19798166 -0.18504648
