results/FirstRun2/MoveSomewhere/MoveSomewhere-18259.pt (torch, 562551 bytes, 40 tensors)

discrete_act_size_vector f4 [1, 2]
0	0x40400000	3.0
1	0x40400000	3.0

network_body._body_endoder.seq_layers.0.weight f4 [128, 44]
0	0xbd6503ec	-0.055911943
1	0x3de29bc7	0.110648684
2	0xbe1b7f88	-0.15185368
3	0x3b9d76d1	0.004805424
4	0xbdf36ce2	-0.11886002
5	0xbc85550d	-0.016275907
6	0xbd3efa03	-0.04662515
7	0xbe0a62d5	-0.13514264
8	0xbd7103c5	-0.058841486
9	0x3e5a9716	0.21346697
10	0xbce17771	-0.027522774
11	0xbd89eac7	-0.06734233
12	0x3d995ac5	0.07488016
13	0xbda60ebb	-0.08108278
14	0xbe5f5872	-0.21811083
15	0x3db2235a	0.08698149
16	0x39908e5a	0.0002757188
17	0x3de270b6	0.11056654
18	0x3e206f8e	0.15667555
19	0xbddd0272	-0.10791482
20	0x3de97fb1	0.11401308
21	0xbea008b6	-0.31256646
22	0x3d562e52	0.05229027
23	0xbdac4634	-0.08411828
24	0xbdb0ce2c	-0.08633074
25	0x3e78f155	0.24310811
26	0x3e9b0315	0.3027579
27	0xbd9dbcda	-0.07702036
28	0xbdba2b2f	-0.09090268
29	0x3dac34f1	0.08408535
30	0xbe938793	-0.28814372
31	0x3a8e2f13	0.001084777
32	0x3ebcac74	0.3685032
33	0x3d866049	0.06561334
34	0x3d0c23d0	0.03421384
35	0x3d0516c9	0.032492433
36	0x3e509d4f	0.20372508
37	0x3dbc243c	0.09186599
38	0xbe54bb9f	-0.20774697
39	0xbdde997e	-0.1086912
40	0xbcd4c73a	-0.025973905
41	0xbc948959	-0.018131899
42	0xbd2a8d5d	-0.04163872
43	0x3c20be0a	0.009810934
44	0xbe38d9f7	-0.18051897
45	0xbe5518e4	-0.20810276
46	0x3dd8a916	0.105791256
47	0xbe951a88	-0.29121804
48	0xbe1d87d4	-0.15383846
49	0xbdbd8a28	-0.09254867
50	0xbe939044	-0.28821003
51	0x3dec1ca7	0.115289025
52	0x3e20482f	0.15652536
53	0xbc58da39	-0.013235622
54	0x3c7b02bb	0.015320475
55	0xbcc47d03	-0.023985391
56	0xbd7aa6a5	-0.06119408
57	0xbe1608d7	-0.1465181
58	0x3d652df9	0.055952046
59	0x3e378c17	0.17924534
60	0xbe0ccbad	-0.13749571
61	0xbdddf188	-0.10837084
62	0x3a975895	0.0011546785
63	0xbe71be9a	-0.23607865
64	0x3bf969db	0.007611496
65	0x3ccfac10	0.0253506
66	0x3c965243	0.018349772
67	0x3ce2dc0e	0.02769282
68	0xbd9fc78d	-0.07801733
69	0xbec03958	-0.3754375
70	0xbd44cdcb	-0.048047822
71	0xbe5ce95f	-0.21573399
72	0xbde3973c	-0.1111283
73	0xbe0c8240	-0.13721561
74	0xbdcf2c1d	-0.10115836
75	0x3da5781a	0.08079548
76	0xbe26f2e6	-0.16303596
77	0xbad820ef	-0.0016489307
78	0x3cce1254	0.025155224
79	0x3d80dd16	0.06292169
80	0xbd01d96d	-0.031701494
81	0xbd685d1c	-0.05672942
82	0x3b62f34c	0.003462988
83	0xbdb1fed0	-0.0869118
84	0xbea027be	-0.3128032
85	0xbdefbbc1	-0.11705733
86	0x3ea07342	0.31337935
87	0xbe290eb8	-0.16509521
88	0xbdfc1ba1	-0.12309957
89	0x3db02c0d	0.08602152
90	0xbdffced6	-0.12490623
91	0xbdcc4be6	-0.09975414
92	0x3d5b486a	0.053535856
93	0x3ea0aec3	0.31383333
94	0x3c6cb81e	0.014448194
95	0x3d31b357	0.043383922
96	0xbc870e1e	-0.016486224
97	0xbdeb9b7f	-0.11504268
98	0x3c87d8d4	0.016582884
99	0x3e52b018	0.20574987
100	0x3da87d24	0.08226994
101	0x3dfa4ab8	0.12221283
102	0x3e72ad64	0.23698956
103	0xbe364b71	-0.17802216
104	0xbd229e92	-0.039702006
105	0x3e4e3ca1	0.20140316
106	0xbdfe6568	-0.124216855
107	0xbe773597	-0.24141537
108	0x3dc524e8	0.0962618
109	0x3e13c54a	0.14430729
110	0xbd500569	-0.05078641
111	0x3e712050	0.23547482
112	0x3e669e7b	0.22521393
113	0x3e45cf85	0.19317444
114	0x3e57a468	0.2105881
115	0x3e559269	0.20856632
116	0x3dc4b143	0.096041225
117	0x3dd96b4f	0.106161706
118	0xbebd5140	-0.3697605
119	0x3de06741	0.10957194
120	0xbdd15083	-0.102204345
121	0xbdd5dfd1	-0.1044308
122	0x3eaddb51	0.33956388
123	0xbe24192a	-0.16025224
124	0x3ebcfd87	0.36912176
125	0xbd7c3070	-0.06156963
126	0xbdcc9ccc	-0.09990844
127	0x3e0a6ecd	0.1351883
128	0x3d43cb67	0.0478014
129	0xbda42bbf	-0.080161564
130	0xbe2a2bfb	-0.1661834
131	0x3d842ba1	0.06453634
132	0xbe42a7bb	-0.19009297
133	0xbdc9e5dc	-0.09858295
134	0xbd397e44	-0.045286432
135	0xbce11a93	-0.027478492
136	0x3d12c9dd	0.035837043
137	0xbd5abc62	-0.053402312
138	0xbe6537a2	-0.22384503
139	0x3e7906c6	0.2431899
140	0xbde5da0f	-0.11223232
141	0xbe8dbd86	-0.27683657
142	0xbcaf50cf	-0.021400837
143	0xbc0f10d4	-0.0087320395
144	0x3d08056e	0.033208303
145	0x3eacc3c9	0.33743122
146	0xbe366115	-0.17810471
147	0xbd4ddedc	-0.050261363
148	0xbdb426a4	-0.087964326
149	0xbdb9e621	-0.09077097
150	0x3e36b25f	0.1784148
151	0x3d6ee45f	0.05832326
152	0xbe8e8b53	-0.2784067
153	0x3e0e017e	0.13867757
154	0x3e1e3061	0.15448143
155	0x3e259e45	0.16173656
156	0x3e118e09	0.14214338
157	0xbe16ec0d	-0.14738484
158	0xbbc5236c	-0.0060161855
159	0x3e8ef745	0.27923027
160	0x3e76180c	0.2403261
161	0xbc793d3a	-0.015212351
162	0xbe088904	-0.13333517
163	0x3d94df76	0.07269184
164	0x3cfd80f4	0.030945279
165	0x3c4cf637	0.012509874
166	0xbe5c0785	-0.21487243
167	0x3e063f78	0.13110149
168	0x3df1dc28	0.118095696
169	0x3e33c77b	0.17556565
170	0x3e571de5	0.21007498
171	0x3d1a8e66	0.037733458
172	0x3eaa44a9	0.3325551
173	0x3da38ef7	0.07986253
174	0xbe2281b5	-0.15869792
175	0xbe23b165	-0.1598564
176	0xbea0ec2e	-0.3143019
177	0xbd0e861c	-0.034795865
178	0xbc0ed292	-0.008717196
179	0xbdca0a24	-0.098652154
180	0x3dbaef0b	0.09127625
181	0xbdd4bc42	-0.1038747
182	0xbe2f5af7	-0.17124544
183	0xbddbd398	-0.10733718
184	0x3e0f2599	0.13979186
185	0xbde1e12d	-0.11029277
186	0x3e33f78d	0.17574902
187	0xbe8b6359	-0.27224234
188	0xbe0c4ffe	-0.1370239
189	0x3e0afd4d	0.13573189
190	0xbe309909	-0.17245878
191	0xbc7b4269	-0.015335658
192	0x3ddaf2a5	0.10690812
193	0x3ea6c32d	0.32570782
194	0xbcd047ac	-0.0254248
195	0x3d90628c	0.07050046
196	0x3cd892aa	0.026437122
197	0x3d17ad7d	0.037030686
198	0xbe57bf3a	-0.21069041
199	0x3e734a9a	0.23758927
200	0xbdc74126	-0.09729223
201	0x3e45aa76	0.19303307
202	0x3dd8d2f3	0.1058711
203	0xbe11cd46	-0.14238462
204	0x3dfe0a21	0.12404276
205	0xbe06d081	-0.13165475
206	0xbe9dd949	-0.30829838
207	0xbcf49b27	-0.029859139
208	0x3e11eb2a	0.14249864
209	0x3e79e643	0.24404244
210	0x3e28076c	0.16409081
211	0x3d32ea64	0.043680564
212	0x3e01c375	0.12672217
213	0xbe3f8988	-0.18704808
214	0xbe95c13b	-0.29248986
215	0xbdcfbec2	-0.10143806
216	0x3dd1db13	0.10246863
217	0x3e900e4b	0.28135905
218	0x3e385738	0.18002021
219	0x3e238886	0.15970048
220	0x3df84f02	0.121244445
221	0xbe1f5e98	-0.15563428
222	0x3cfeadeb	0.03108879
223	0x3daff17d	0.08590982
224	0x3e8476e4	0.25871956
225	0xbe408c81	-0.18803598
226	0x3d1a5257	0.03767618
227	0xbe3408df	-0.17581509
228	0x3d24cb10	0.040232718
229	0xbe57e338	-0.21082771
230	0xbd2a5fe3	-0.04159535
231	0xbe812721	-0.25225165
232	0x3d3952b6	0.045244895
233	0x3dc40bc9	0.0957256
234	0x3e2ed3e4	0.17073017
235	0xbdda8d99	-0.10671539
236	0x3ea09763	0.313655
237	0x3d9a204c	0.075256914
238	0xbdf45cdf	-0.11931776
239	0x3e1eb256	0.15497717
240	0xbdc21bfa	-0.09477992
241	0xbda6f225	-0.08151654
242	0x3db0619c	0.086123675
243	0xbe0576d2	-0.13033608
244	0x3e29f59d	0.165976
245	0x3c781b15	0.015143176
246	0x3c824ef8	0.015906796
247	0xbe16fb41	-0.14744283
248	0x3eaecd9d	0.34141245
249	0x3e8d13dd	0.27554217
250	0x3c99107a	0.018684614
251	0x3db48111	0.0881368
252	0xbd114129	-0.035462532
253	0x3c4eb50f	0.01261641
254	0x3e093757	0.13400017
255	0xbd9e23e6	-0.07721691

network_body._body_endoder.seq_layers.0.bias f4 [128]
0	0xb992ce45	-0.00028000973
1	0x3b8c0620	0.004273191
2	0x3aed3bbd	0.0018099468
3	0xbaf674b2	-0.0018803088
4	0xbb96a77b	-0.004597602
5	0x39c13492	0.00036850997
6	0xbb45611d	-0.0030117698
7	0x3b19229e	0.002336658
8	0xbac8a004	-0.0015306477
9	0x3aa34d35	0.0012458923
10	0xbb210fcf	-0.0024576073
11	0x3b3ccd66	0.002880895
12	0xbaf3c9a1	-0.0018599519
13	0x3b6c110a	0.0036020898
14	0xbb43df76	-0.0029887832
15	0x3a8d85d4	0.001079733
16	0x3af24fab	0.0018486878
17	0x39853feb	0.0002541536
18	0xb80be3ae	-3.3352226e-05
19	0x3b59d9a0	0.0033241287
20	0xbb3ed17c	-0.0029116562
21	0x3b88afbf	0.004171341
22	0x3b2dde90	0.0026530363
23	0x3b6b88c2	0.0035939668
24	0x3a5bd422	0.0008385797
25	0x3ade8a46	0.0016978465
26	0xbb64ec42	-0.003493086
27	0x3b121d92	0.0022295457
28	0x3a16e872	0.0005756683
29	0xba4977a2	-0.0007685368
30	0xbadd95fa	-0.0016905658
31	0xbaf90ac2	-0.0019000398
32	0xba0a968e	-0.00052867166
33	0x3b08af70	0.0020856522
34	0xba6f4b2a	-0.0009128327
35	0x378fe3ee	1.7153066e-05
36	0xba7ec389	-0.0009718468
37	0x3ad4cd41	0.0016235487
38	0xbaf25a74	-0.0018490092
39	0xbac74ac8	-0.0015204782
40	0x3b865fee	0.004100791
41	0xbb34d2b1	-0.0027591402
42	0x3b17eb9f	0.0023181213
43	0x3932b79e	0.00017043806
44	0xba89c3af	-0.0010510589
45	0x3b83f8a0	0.004027441
46	0xbb624fed	-0.0034532503
47	0xbace6f59	-0.0015749737
48	0xbb1a22df	-0.002351932
49	0x3a9393f7	0.0011259307
50	0xbab9e477	-0.0014182468
51	0x3b631e4e	0.0034655514
52	0xbb3de745	-0.0028976959
53	0x3b2472e3	0.0025092892
54	0x3acd1276	0.001564576
55	0xba65a57d	-0.00087603164
56	0x3ad4ecd2	0.0016244894
57	0x3b185f09	0.0023250005
58	0x3b4d7a2b	0.0031353335
59	0xbbb529e2	-0.0055286745
60	0xba420b9a	-0.00074022415
61	0x3b82a858	0.0039873533
62	0xbb524571	-0.0032084847
63	0xba7bfe0b	-0.00096127455
64	0xbaa77129	-0.0012774813
65	0x3aaf1f6e	0.0013360807
66	0xb89804f0	-7.2488445e-05
67	0xbb0952b9	-0.0020953848
68	0xbb05d937	-0.002042366
69	0xbaac1aa3	-0.0013130497
70	0xbac944f4	-0.0015355633
71	0x3bcd031d	0.0062564746
72	0x38c1d1b6	9.242019e-05
73	0x3b5ed132	0.0033999202
74	0xba331612	-0.0006831597
75	0xbb987ac3	-0.004653306
76	0xb8fed2af	-0.00012150907
77	0x3b523cad	0.0032079623
78	0xbb920e41	-0.0044572656
79	0x3acd22ea	0.0015650664
80	0xbaacbb26	-0.0013178333
81	0xb952958d	-0.00020082873
82	0x3bac1ecb	0.0052526942
83	0xbb0da60d	-0.0021613867
84	0x3ad964be	0.001658581
85	0x3b186f49	0.002325969
86	0x3b80dda3	0.003932671
87	0x3ad11904	0.001595289
88	0x3b7c5d2f	0.003850769
89	0xbb729d06	-0.0037019863
90	0x3ac142d2	0.0014744645
91	0xb9177aa3	-0.00014446168
92	0x3aa68e47	0.0012707197
93	0x3b78d317	0.0037967616
94	0x3a81f11d	0.0009913776
95	0x3b720534	0.003692937
96	0xba93a8db	-0.0011265533
97	0x397e41f0	0.00024247891
98	0xbae9458e	-0.0017797218
99	0xba7d4fc8	-0.00096630724
100	0xbb05779e	-0.0020365487
101	0x3ae8be1b	0.0017756851
102	0xba131136	-0.00056101696
103	0x3a2fcfed	0.00067067036
104	0xbaba9588	-0.0014235238
105	0x3b27069c	0.0025486117
106	0x39a5bbd9	0.0003161121
107	0x3b6d2ef0	0.0036191307
108	0x3ac4aa4a	0.0015004363
109	0x3b401063	0.0029306642
110	0x3a08d4d7	0.0005219704
111	0xbb6f5293	-0.0036517724
112	0x3b5f5a60	0.0034080967
113	0x3b7ea083	0.0038852997
114	0xba69fd8e	-0.0008926027
115	0x3b7da93a	0.0038705603
116	0xba281848	-0.00064123096
117	0xba692615	-0.00088939193
118	0xbb7017cb	-0.0036635275
119	0xbb55d17c	-0.0032626083
120	0x3ab19823	0.0013549369
121	0xbb78df7a	-0.0037975
122	0x3b3c62b7	0.0028745362
123	0x3b3542ad	0.002765815
124	0xbad94117	-0.0016575184
125	0xbb3c8045	-0.0028762978
126	0xbb18cdbf	-0.0023315994
127	0x3a1ae56e	0.00059088215

network_body._body_endoder.seq_layers.2.weight f4 [128, 128]
0	0x3d8c54ca	0.0685211
1	0xbd8b7be3	-0.06810739
2	0x3e1e5db3	0.15465431
3	0xbd0aefcb	-0.03392009
4	0x3b02a4f7	0.0019934752
5	0xbde129af	-0.10994279
6	0xbca46081	-0.020065548
7	0xbcc2b768	-0.023769096
8	0xbe150cc0	-0.14555645
9	0x3c445034	0.011982013
10	0xbdc703b3	-0.097175024
11	0xbc8bc6f7	-0.017062647
12	0x3e1a5c29	0.15074219
13	0xbcac416c	-0.02102729
14	0xbd3ad8b5	-0.045616824
15	0x3df4ca2b	0.11952623
16	0xbd7b55ee	-0.061361246
17	0xbdb0a297	-0.086247616
18	0xbe0c31d6	-0.13690886
19	0xbb85f547	-0.004088077
20	0xbb437481	-0.002982408
21	0xbbd647de	-0.006539329
22	0x3de026d7	0.10944908
23	0x3dc08707	0.094007544
24	0x3c0e83af	0.008698388
25	0xbc501c59	-0.012702071
26	0xbd9c4d96	-0.07631986
27	0x3d666117	0.056244936
28	0xbc8eff80	-0.017455816
29	0xbde80d64	-0.11330679
30	0x3cd9c44a	0.026582856
31	0xbe6f9495	-0.23396523
32	0x3e38c2c4	0.18043047
33	0x3d86e491	0.06586564
34	0xbd37be8f	-0.044859465
35	0x3c6f3256	0.014599403
36	0xbdeaa9bd	-0.11458156
37	0x3d8422ac	0.06451926
38	0xbd110671	-0.035406534
39	0xbda3b11d	-0.07992766
40	0xbe125b55	-0.14292653
41	0xbdcb3b4a	-0.09923418
42	0xbe3c827f	-0.18409155
43	0x3e67081c	0.22561687
44	0x3e11d225	0.1424032
45	0x3d9da110	0.07696736
46	0xbc6093b6	-0.013707092
47	0xb9517a1a	-0.0001997728
48	0xbdf88fab	-0.121367775
49	0x3db44bde	0.08803533
50	0x3d342fc0	0.04399085
51	0xbe122bb1	-0.1427448
52	0x3c304b63	0.010760161
53	0xbc74798d	-0.014921558
54	0xbc9ce288	-0.019150987
55	0xbe481cbd	-0.19542213
56	0x3dc6b82b	0.09703096
57	0x3db20d6d	0.08693967
58	0x3bfe7708	0.0077656545
59	0xbca5f9c4	-0.0202607
60	0xbe22d4a7	-0.15901433
61	0xbdb60141	-0.08886958
62	0x3cb7255c	0.022356682
63	0x3e20bb6a	0.15696493
64	0xbd299b88	-0.04140809
65	0xbe238dd4	-0.15972072
66	0x3c282944	0.010263745
67	0x3de87576	0.11350529
68	0x3c620258	0.013794504
69	0x3d1c91ba	0.038224913
70	0xbe0c9eef	-0.13732503
71	0xbdb68594	-0.08912197
72	0x3d8a5b44	0.06755689
73	0xbd9ec723	-0.07752826
74	0xbdd5d05a	-0.104401305
75	0x3d585bcf	0.05282193
76	0xbdbb22a7	-0.09137469
77	0xbda5287c	-0.080643624
78	0x3e25d427	0.16194211
79	0x3dcd98c3	0.100389026
80	0x3dbfcfd2	0.093658105
81	0xbd8ca770	-0.06867874
82	0x3d325b04	0.04354383
83	0xbd5d1985	-0.053979415
84	0x3c357e50	0.0110774785
85	0xbd2659a4	-0.04061283
86	0xbda4527d	-0.08023546
87	0x3d69d0d1	0.05708391
88	0xbda3603e	-0.07977341
89	0x3dbea50f	0.09308826
90	0xbd18122c	-0.037126705
91	0x3dd17383	0.1022711
92	0xbe14bdd8	-0.14525545
93	0xbd8cee4f	-0.06881391
94	0xbc8b1594	-0.016978063
95	0x3d98b118	0.07455653
96	0x3e1cc1f7	0.15308367
97	0xbcf7528f	-0.030190734
98	0x3d81bdf1	0.063350566
99	0x3dcac0cc	0.09900054
100	0xbdeb7258	-0.11496419
101	0x3d7d77bd	0.06188177
102	0x3dca945f	0.09891581
103	0xbcc38a8e	-0.023869779
104	0xbe02717b	-0.12738602
105	0x3cd82d06	0.026388656
106	0xbe56d358	-0.20979059
107	0xbe226d83	-0.15862088
108	0x3e1a2252	0.15052155
109	0x3e18572a	0.14877
110	0xbdda39a3	-0.106555246
111	0x3e5a23b5	0.21302684
112	0xb96ed38a	-0.00022776253
113	0xbe0d2644	-0.13784128
114	0xbe3f2ce1	-0.18669464
115	0x3bf3f235	0.007444645
116	0x3e34a2a7	0.17640172
117	0x3d84ddd5	0.064876236
118	0x3dd31a10	0.103077054
119	0x3b399d48	0.0028322507
120	0xbc8ba97e	-0.017048594
121	0xbd11bcf0	-0.035580575
122	0x3c8a4344	0.016877778
123	0xbcfa7573	-0.030573582
124	0x3d81f94c	0.06346378
125	0x3dac4bed	0.08412919
126	0x3da801fc	0.082035035
127	0xbcdab03e	-0.026695367
128	0x3dbbdeed	0.09173379
129	0x3cb7c589	0.02243306
130	0x3c800dd4	0.015631594
131	0x3e71646e	0.23573467
132	0x3cbf33c8	0.02334012
133	0x3e30d3d7	0.1726831
134	0xbd88b109	-0.06674392
135	0xbd64a1eb	-0.05581848
136	0xbe0102f3	-0.12598781
137	0xbdb33806	-0.0875092
138	0x3d8bc5c5	0.06824831
139	0xbb3faf30	-0.0029248707
140	0x3d446a63	0.04795302
141	0xbdfbd64a	-0.12296732
142	0x3d829f9a	0.06378098
143	0x3d4fd101	0.05073643
144	0x3d3d108c	0.04615836
145	0x3ce809fa	0.02832507
146	0xbd090598	-0.0334526
147	0x3d93e118	0.072206676
148	0xbe1b06c3	-0.15139298
149	0xbde2d126	-0.11075048
150	0xbd86033f	-0.06543588
151	0x3d60ad64	0.05485286
152	0xbd427730	-0.047476947
153	0xbd61c7c3	-0.05512215
154	0x3e33de41	0.17565252
155	0xbd6d59ea	-0.057947077
156	0xbe0def1c	-0.13860744
157	0xbdb9c843	-0.090714
158	0xbd942b54	-0.07234827
159	0x3e27f4c6	0.16401967
160	0xbc6b202e	-0.014350934
161	0x3d320c23	0.043468606
162	0xbc7c74ad	-0.015408677
163	0xbd20de82	-0.0392747
164	0xbd236f56	-0.0399011
165	0x3dfb7763	0.122786306
166	0xbd1c9391	-0.038226668
167	0x3d2efbdc	0.04272066
168	0xbda1d036	-0.07901041
169	0x3c14c108	0.009079225
170	0xbde82d2a	-0.11336739
171	0xbd695458	-0.056965202
172	0x3e2a99a4	0.16660172
173	0xbd44dc16	-0.048061453
174	0xbdd4a610	-0.103832364
175	0xbacb5285	-0.0015512264
176	0x3e13c8e8	0.14432108
177	0x3caa948a	0.020822782
178	0xbcbcc10f	-0.023041276
179	0x3d8ce36c	0.06879315
180	0xbd411eff	-0.0471487
181	0x3d6027cd	0.054725457
182	0xbc36eeb9	-0.011165314
183	0x3b540534	0.0032351734
184	0xbd247f66	-0.04016056
185	0x3ca0a0d0	0.019607931
186	0xbc873e6f	-0.016509263
187	0x3e002d3b	0.12517254
188	0x3df2d8ef	0.11857783
189	0x3a0f2f25	0.0005462042
190	0xbc9abfe2	-0.018890325
191	0x3ca4de4f	0.020125536
192	0x3e0858d6	0.13315138
193	0xbc767f41	-0.015044988
194	0xbda05d59	-0.07830305
195	0x3c399e1a	0.011329198
196	0x3dd8eb22	0.10591723
197	0xbaeaeda7	-0.0017923609
198	0xbd5dfd2a	-0.054196514
199	0x3d5a4121	0.053284768
200	0xbd876794	-0.06611553
201	0xbdd0cb60	-0.10195041
202	0xbd2c8d72	-0.04212708
203	0x3e34403d	0.1760263
204	0x3d94d03e	0.072662815
205	0x3d2daad2	0.042399235
206	0x3de6f3b3	0.11276951
207	0x3db95c8d	0.09050856
208	0xbca5f3d4	-0.020257868
209	0x3e072393	0.13197164
210	0xbd19962e	-0.037496738
211	0x3ce967da	0.028491903
212	0x3d2dd47c	0.04243897
213	0x3d31e89c	0.043434724
214	0x3c74044c	0.014893603
215	0x3bda3f35	0.006660367
216	0xbd298a42	-0.04139162
217	0x3e378b84	0.17924315
218	0x3adf57a6	0.0017039671
219	0xbdf5e26e	-0.12006079
220	0xbcad5e65	-0.021163175
221	0xbd9825e8	-0.07429105
222	0xbe2d2daa	-0.1691195
223	0x3dc80455	0.09766451
224	0xbd828575	-0.06373111
225	0xbdbd1715	-0.09232918
226	0xbe090068	-0.13379061
227	0xbdf17837	-0.11790507
228	0x3ccda21c	0.025101714
229	0x3ded4eaf	0.11587273
230	0xbd4b3e57	-0.04962
231	0xbd4a3528	-0.0493671
232	0xbd494f23	-0.049147736
233	0x3c829988	0.01594235
234	0xbd0a5992	-0.033776827
235	0xbdcc810f	-0.099855535
236	0x3dd6c926	0.10487585
237	0xbda53d15	-0.08068291
238	0x3e2ad606	0.16683206
239	0x3d4ffd8d	0.050778914
240	0x3e8a6424	0.27029526
241	0x3e3894af	0.18025468
242	0xbdff1478	-0.12455076
243	0x3a4cd27a	0.0007813346
244	0x3d7f902a	0.062393345
245	0x3ccea62b	0.02522572
246	0x3e4642c3	0.19361405
247	0xbe0ab2f1	-0.13544823
248	0x3e21de82	0.15807536
249	0x3b2af512	0.0026086015
250	0x3d88e1ae	0.0668367
251	0x3d3d3893	0.04619653
252	0x3d7e42cf	0.062075432
253	0xbdace930	-0.084429145
254	0x3dc57d92	0.09643091
255	0x3dcbbef3	0.0994853

network_body._body_endoder.seq_layers.2.bias f4 [128]
0	0xbb20aa99	-0.0024515747
1	0x3a538024	0.00080681057
2	0x3b5e20cb	0.0033894058
3	0xbb8c23b0	-0.004276715
4	0x3b494c06	0.003071548
5	0x396c06f3	0.00022509303
6	0xb73fb3ab	-1.1426319e-05
7	0xbb0e80ec	-0.0021744324
8	0x3bbb1c85	0.005710187
9	0x39e02e85	0.0004275927
10	0xb9c57b58	-0.00037666666
11	0xba8f9fe1	-0.0010957682
12	0x3b2cd8a9	0.0026374257
13	0x3b87d337	0.004145052
14	0x37cf1b52	2.4689045e-05
15	0xbb8d03ea	-0.004303445
16	0x3b2d7dc3	0.0026472665
17	0x39eafd1a	0.00044820533
18	0xbb6e1111	-0.003632609
19	0xbad80cca	-0.0016483304
20	0xb92adb7e	-0.0001629423
21	0x3b2c147e	0.0026257331
22	0xbab0f77d	-0.0013501492
23	0x3a14c2cd	0.00056747795
24	0xbb06ac65	-0.0020549532
25	0xbb3d0f24	-0.0028848136
26	0x3b914867	0.00443368
27	0x3a93fce7	0.0011290581
28	0x3a53d5c6	0.0008080866
29	0xbb1ef21f	-0.0024253202
30	0xbb3663d3	-0.0027830496
31	0x39b18bc8	0.00033864216
32	0xbb882f4a	-0.004156028
33	0x3b42ec97	0.002974307
34	0x390e4b7c	0.00013570295
35	0xbb86752e	-0.0041033244
36	0xbb098efa	-0.0020989762
37	0xbb1fbb66	-0.0024373173
38	0x3881b7c2	6.185427e-05
39	0x38df6d88	0.000106538704
40	0xbb79c2de	-0.0038110535
41	0x3b45a94f	0.003016073
42	0xbb871fb6	-0.0041236533
43	0xb82d8301	-4.136842e-05
44	0x3b1b691c	0.0023713773
45	0xbb4eb3bf	-0.0031540242
46	0x3a24f094	0.00062919524
47	0x3a1db668	0.00060162554
48	0x3ab514ba	0.0013815381
49	0x3b6372e8	0.003470594
50	0x3a765e08	0.0009398167
51	0xbaa6dbe4	-0.0012730327
52	0xb73e8480	-1.1355733e-05
53	0x3b883564	0.0041567553
54	0x3aaf1f22	0.0013360719
55	0x3b698279	0.0035630746
56	0x3a3b6950	0.00071491767
57	0x3afabe08	0.001913012
58	0x3aca2205	0.0015421516
59	0x3b363c3b	0.0027806896
60	0xba2364c9	-0.00062329747
61	0x3a595dc4	0.0008291865
62	0xbb05f325	-0.0020439115
63	0xbad61435	-0.0016332926
64	0xba7c0f41	-0.000961531
65	0x3ba4b30d	0.0050262273
66	0x3b79c74b	0.0038113173
67	0x3ae25e24	0.0017270488
68	0x3b811563	0.003939317
69	0xbb65923e	-0.0035029794
70	0xbb6685e7	-0.0035175027
71	0xbb96428d	-0.00458557
72	0xbac797bb	-0.0015227714
73	0xb962707a	-0.0002159494
74	0x3b761013	0.0037546202
75	0xba080246	-0.0005188327
76	0xb97f1a92	-0.00024328593
77	0x3baaa961	0.00520818
78	0xbb603c4c	-0.0034215627
79	0x3a3a032d	0.000709581
80	0x3a40eab6	0.00073591934
81	0xbb16c040	-0.0023002774
82	0x3b0c6206	0.0021420731
83	0x382aaebc	4.0693893e-05
84	0x3b0eec7e	0.002180844
85	0x3ab8fdde	0.0014113744
86	0x3b1aac7d	0.0023601346
87	0xba58c663	-0.0008269308
88	0x3ba798e6	0.0051146625
89	0xbb77b52b	-0.0037797194
90	0x3ad47fdb	0.001621242
91	0x3ba508ef	0.0050364654
92	0xba1f4ac6	-0.0006076511
93	0xbb000c3b	-0.001953854
94	0xba49f33d	-0.0007703787
95	0x3ad1d99e	0.001601029
96	0xbb4b07f8	-0.0030980092
97	0x3b6b23d6	0.0035879514
98	0xbb2de79a	-0.002653575
99	0x3b365d8e	0.002782676
100	0xbb262284	-0.0025350163
101	0xb9da9264	-0.0004168927
102	0x3b3fe80a	0.0029282593
103	0xbb540331	-0.0032350535
104	0x38072980	3.2225158e-05
105	0x3b45fcab	0.0030210416
106	0xba64d62d	-0.00087294244
107	0x3b3f908f	0.002923045
108	0x3b552714	0.0032524513
109	0x3a4eb09c	0.0007884593
110	0x3aca4cdc	0.0015434283
111	0x39d32b1f	0.00040277184
112	0xbb04a89e	-0.0020242105
113	0x3ae47939	0.0017431147
114	0xba7557bd	-0.00093590823
115	0x3a18211d	0.0005803274
116	0x3b4acc60	0.003094457
117	0x3af46315	0.0018645251
118	0xbb021267	-0.0019847394
119	0x3b839830	0.004015945
120	0x3b14811e	0.0022659968
121	0xba90c838	-0.0011045998
122	0xbae75ef7	-0.0017652203
123	0xba83c4da	-0.0010053173
124	0xbabbe9e4	-0.0014336673
125	0xbad0f91b	-0.001594338
126	0x3aa1435f	0.0012303403
127	0x3af1dc61	0.0018452519

action_model._discrete_distribution.branches.0.weight f4 [3, 128]
0	0x3c033335	0.008007814
1	0x3b915899	0.0044356105
2	0x3bdc17de	0.0067167124
3	0x3adf79b1	0.0017049817
4	0xbc0af3e7	-0.008481002
5	0xbb6ff312	-0.0036613387
6	0x3c3c2230	0.01148276
7	0x3b2d4f2a	0.002644489
8	0x38d945a8	0.00010360341
9	0xbc3a1807	-0.011358268
10	0x3c304e11	0.0107608
11	0xbc2b0d36	-0.010440161
12	0x3c92572b	0.01786383
13	0xbbe18c29	-0.0068831635
14	0xbcb5833f	-0.02215731
15	0xbbbe0282	-0.005798639
16	0x3b9f5eff	0.0048636193
17	0x3c88955f	0.016672788
18	0x3b3658bd	0.0027823888
19	0xbbaf6755	-0.0053528943
20	0xbbd61345	-0.006533059
21	0x3a6cef07	0.00090383034
22	0x3be4f705	0.006987455
23	0xbc80781f	-0.015682278
24	0x38bf6c27	9.127735e-05
25	0xbc10afc3	-0.008830967
26	0xb9a92e89	-0.00032268863
27	0xbbfe883c	-0.0077677052
28	0xbc991997	-0.01868896
29	0xbc308979	-0.010774964
30	0xbb0747d4	-0.0020642178
31	0xbc4eb0d7	-0.012615404
32	0x39b5e3d0	0.00034692744
33	0xbb76deea	-0.0037669488
34	0xbb1b9d60	-0.0023744926
35	0xbc2e477e	-0.010637162
36	0xbc5e1a99	-0.013556146
37	0x3cbad954	0.022808708
38	0xbcb25478	-0.021768793
39	0x3bab5cf9	0.005229589
40	0x3bcb7ecb	0.0062101833
41	0x3b3c851b	0.002876586
42	0xba46761e	-0.00075707014
43	0x3bf2f452	0.007414379
44	0x3c9740b3	0.018463468
45	0x3b0ed739	0.0021795763
46	0x3bebc59b	0.0071951873
47	0xbb3f7b92	-0.002921794
48	0xbb2b0761	-0.0026096927
49	0x3bce22de	0.0062907776
50	0x374fa1b4	1.2375811e-05
51	0xbb759b20	-0.0037476495
52	0x3c5134ec	0.012768965
53	0xbaafd53a	-0.0013414987
54	0xbc06f31a	-0.008236671
55	0x3bf45b6e	0.0074571883
56	0x3c32edb0	0.010920927
57	0xbbb0ec56	-0.005399267
58	0xbb24bdd7	-0.0025137567
59	0x3bae579a	0.0053205015
60	0x3bf99acb	0.0076173297
61	0x3b478e4f	0.0030449813
62	0xbc429f3d	-0.011878786
63	0xbacb99ad	-0.001553347
64	0xba82dd91	-0.0009984245
65	0xbc12f30a	-0.008969078
66	0x3b52a3b5	0.0032141034
67	0xbc5b1be2	-0.013373347
68	0x3ad691b8	0.0016370332
69	0xbc37cee3	-0.011218759
70	0xbbc7b698	-0.006094765
71	0xba81c502	-0.0009900632
72	0x3bde05a8	0.0067755766
73	0xbbf764d9	-0.007549864
74	0x3a5e251f	0.00084741594
75	0xbaceaac9	-0.0015767451
76	0xbc153927	-0.009107864
77	0xba4af5f2	-0.0007742337
78	0xbc2c9910	-0.01053454
79	0xbba9918a	-0.0051748203
80	0xba926972	-0.0011170341
81	0xbc1b77bf	-0.009488999
82	0xbacf24b2	-0.0015803783
83	0xbc8c2c74	-0.01711104
84	0xbb064c78	-0.0020492356
85	0xbc18c795	-0.009324928
86	0xb9ec7d54	-0.00045106804
87	0x3ba44b6a	0.005013873
88	0xbc61908b	-0.013767372
89	0x3bb13f1c	0.0054091346
90	0x3c437ba3	0.011931333
91	0xbc21a8a2	-0.009866865
92	0xbcd7b90e	-0.026333358
93	0x3b722861	0.0036950337
94	0xbb9c54c8	-0.004770849
95	0x3b363744	0.0027803937
96	0x3c8860b1	0.016647669
97	0x3b976067	0.0046196464
98	0xb880f96b	-6.149973e-05
99	0xba6a9fd2	-0.00089502067
100	0x3c39fa2b	0.011351149
101	0x3ceefa3e	0.02917206
102	0xbbea84e2	-0.007156954
103	0xbbf4a984	-0.007466497
104	0x3a499dac	0.00076910364
105	0xbc20f563	-0.00982413
106	0x3ad8252e	0.0016490573
107	0x3c8796a6	0.016551327
108	0x3a834334	0.0010014535
109	0xba4f1df9	-0.00079008896
110	0x3c1fd4b4	0.009755302
111	0x3c4bc316	0.012436649
112	0x3c0bf7fa	0.008543009
113	0x3be69610	0.007036932
114	0xbc10b28d	-0.008831632
115	0xba95d445	-0.0011431059
116	0xbc0643a1	-0.008194835
117	0xbb9dbb42	-0.0048135826
118	0xbbe79392	-0.0070671523
119	0xba73bc72	-0.0009297795
120	0xbc249915	-0.010046263
121	0xbc1bbcac	-0.009505432
122	0xbc1ea435	-0.009682705
123	0xbadafed0	-0.001670802
124	0xbc798e1f	-0.015231638
125	0xbba887af	-0.005143128
126	0xbb93cf4b	-0.004510795
127	0xbc4acdfe	-0.012378214
128	0xbab7dd1d	-0.0014027689
129	0xbc07133d	-0.008244333
130	0x3baf29f1	0.005345576
131	0x3a1c8c44	0.0005971829
132	0xbb2706f8	-0.0025486331
133	0xbb904fed	-0.004404059
134	0xbb13b253	-0.002253671
135	0x3bdaf1be	0.00668165
136	0x3bc473ac	0.0059952345
137	0xbc4f75be	-0.012662349
138	0x3c369393	0.011143583
139	0xbba79229	-0.005113859
140	0x3a730907	0.00092710595
141	0x3bd64e3f	0.0065400894
142	0xbb78c757	-0.0037960613
143	0xbbbed51a	-0.0058237435
144	0x3b5ba3fb	0.0033514488
145	0xbb8bba96	-0.004264186
146	0xbc5ae3fb	-0.013360019
147	0x3be1d402	0.0068917284
148	0x3bf8fb4d	0.0075983168
149	0x3ba03fc7	0.0048904154
150	0xb82da322	-4.1398343e-05
151	0xbbd53a59	-0.0065071997
152	0x3becc332	0.0072254175
153	0xbcb307e4	-0.021854348
154	0x3a939800	0.001126051
155	0x3c128266	0.008942222
156	0x3c276495	0.010216852
157	0x3bab6580	0.0052306056
158	0xbad55515	-0.0016275967
159	0x3b72941e	0.0037014554
160	0x3b4c6ff1	0.0031194652
161	0xbbdaa72e	-0.0066727614
162	0xbc255aba	-0.010092432
163	0xbc519e87	-0.0127941435
164	0x3b3dd7da	0.002896777
165	0xbc122fe9	-0.0089225555
166	0x3c11676a	0.0088747535
167	0xbbde17e8	-0.006777752
168	0xbbc7dba8	-0.006099183
169	0x3c23e81f	0.010004072
170	0xbbc1a31f	-0.005909338
171	0xbc54f59f	-0.012998014
172	0x3bf6b54e	0.0075289374
173	0x3b85fb1f	0.004088774
174	0x3b4f083c	0.0031590601
175	0xbc644435	-0.013932277
176	0xbc7b9d19	-0.015357279
177	0xbbf596ec	-0.007494798
178	0xbb0e43a6	-0.0021707802
179	0x3c44a771	0.012002812
180	0x3c379ba6	0.011206543
181	0x3a03989a	0.0005019993
182	0xbc985511	-0.01859525
183	0xbc1d08c7	-0.009584612
184	0xbb2982f9	-0.002586542
185	0x3c2ada8b	0.010428081
186	0xbae2a159	-0.0017290517
187	0xbbececb4	-0.0072303656
188	0xbcbe1c7b	-0.02320694
189	0x3bb01517	0.005373608
190	0x3ca30fb3	0.019904947
191	0x3bbbbacc	0.005729055
192	0x3bc760d8	0.0060845427
193	0x3bab172f	0.0052212696
194	0xbb3c2c63	-0.002871298
195	0x3c1ef0df	0.009700983
196	0x3b5270f8	0.0032110792
197	0xbc54f5d5	-0.012998064
198	0xbca497dd	-0.020091945
199	0xbbc00fb3	-0.0058612465
200	0x3b0139df	0.0019718332
201	0x3c0409e1	0.008058996
202	0xbb90e16e	-0.0044214046
203	0xbba17069	-0.0049267304
204	0x3ba6522b	0.005075713
205	0x3b5c1969	0.0033584482
206	0x3ac416aa	0.0014960368
207	0xbc634d72	-0.013873445
208	0xbbfc492d	-0.007699153
209	0xba562e76	-0.00081703754
210	0x3c67fc0f	0.014159217
211	0xbb1fbc44	-0.002437369
212	0x3b86ff39	0.0041197804
213	0xbb8e6d8a	-0.004346554
214	0x3cb3314c	0.021874093
215	0xbbccbb93	-0.0062479465
216	0xba343f45	-0.0006875883
217	0x3c12f1c2	0.008968772
218	0x3aaf347f	0.0013367085
219	0xbb5ddc49	-0.0033853224
220	0x3c346cfd	0.011012313
221	0x3c27d572	0.01024376
222	0x3ba39a17	0.004992734
223	0xbc1581c4	-0.009125177
224	0xbc102c69	-0.008799651
225	0xb9cf47f1	-0.00039535717
226	0x3c722c4d	0.01478107
227	0xbaa7be3c	-0.0012797783
228	0x39b092cd	0.0003367871
229	0xbc77eaf7	-0.015131704
230	0x3c28870b	0.010286103
231	0xbc8d9401	-0.017282488
232	0xbbaff328	-0.0053695627
233	0xbc1438d9	-0.009046757
234	0x3ad28a48	0.001606294
235	0xbbb17897	-0.0054159868
236	0x3a90c083	0.0011043701
237	0xbb853646	-0.004065308
238	0x3c834c87	0.016027702
239	0x3b279eb0	0.0025576763
240	0x3b440dc5	0.0029915434
241	0xbbc55a10	-0.006022699
242	0x3b2be7be	0.0026230658
243	0xbb4a1812	-0.00308371
244	0xb9a54881	-0.00031525272
245	0x3b8c67fe	0.004284858
246	0xbc0bf620	-0.0085425675
247	0x3c89fa77	0.016843064
248	0x3c36cef6	0.011157742
249	0xbc2c3a07	-0.010511882
250	0x3bfebb39	0.0077737835
251	0x3bb36e78	0.0054758154
252	0xbbd3aa15	-0.0064594843
253	0x3c219c0c	0.009863865
254	0xbb6ee4c9	-0.0036452285
255	0x3bdaa768	0.0066727884

action_model._discrete_distribution.branches.0.bias f4 [3]
0	0x3a27d2a3	0.0006401932
1	0x3afc1094	0.0019231015
2	0xbacf1470	-0.0015798938

action_model._discrete_distribution.branches.1.weight f4 [3, 128]
0	0x3a32a5bd	0.0006814858
1	0x3b3897a2	0.0028166552
2	0xb9d88f3e	-0.00041305454
3	0xbb26cc4d	-0.0025451363
4	0x3c2d8c86	0.010592585
5	0x3c9b046d	0.018923009
6	0x3ba45465	0.0050149434
7	0xbc385afb	-0.01125216
8	0xbbefe7ab	-0.007321318
9	0xbba399a9	-0.004992683
10	0xbc38bc41	-0.011275352
11	0xbbd7118a	-0.00656337
12	0x3b6e6b47	0.003637986
13	0x3b9da7cd	0.004811263
14	0xbcacd927	-0.02109964
15	0xbb3737b8	-0.0027956795
16	0x3c93db5a	0.01804893
17	0xbbf52157	-0.007480781
18	0xbbc242fd	-0.005928396
19	0xbc45cbb5	-0.012072493
20	0xbbc202e9	-0.005920757
21	0xbc2fe125	-0.010734831
22	0x3ca84b58	0.02054374
23	0xbcd4ec8b	-0.025991699
24	0xbb578411	-0.0032885114
25	0xbc039f83	-0.008033636
26	0x3ab91bf2	0.0014122708
27	0xbcc2f2e1	-0.023797454
28	0xbba45e02	-0.0050160894
29	0x3c21ee0b	0.009883414
30	0xbb4aafc0	-0.003092751
31	0x3aff211f	0.0019464827
32	0xbc1fa4f3	-0.009743917
33	0xbc20db82	-0.00981796
34	0x3c6cbabe	0.01444882
35	0x3b623b9a	0.0034520389
36	0x3b6ce0c6	0.0036144718
37	0x3c05d2c7	0.008167929
38	0xbb28a316	-0.0025731972
39	0x3c6403e0	0.0139169395
40	0xbb8decaa	-0.004331191
41	0xbafcfd2a	-0.0019301523
42	0xbaef696e	-0.0018265673
43	0xbb3aa057	-0.0028476918
44	0x3bd38145	0.006454619
45	0x3bea8dc9	0.0071580154
46	0xbc806d25	-0.015677044
47	0x3b78a650	0.0037940927
48	0xbba95a76	-0.0051682545
49	0x3badd00a	0.005304341
50	0x3b8501f9	0.004059073
51	0xbbc91bd7	-0.006137352
52	0xbbac3897	-0.0052557695
53	0x3b858108	0.0040742196
54	0xb96c2b67	-0.00022522883
55	0x3c23b708	0.0099923685
56	0x3b22bc34	0.0024831416
57	0x3b7a35de	0.003817908
58	0xbc3549e8	-0.011064984
59	0xbbba2734	-0.005680943
60	0xbc5e6b10	-0.01357533
61	0x3b97120a	0.0046103047
62	0xbbca3beb	-0.0061716936
63	0xbbeaf7e4	-0.007170664
64	0xbb8a4df9	-0.004220721
65	0x3b7ce418	0.0038588103
66	0xbc11604f	-0.008873059
67	0xbc015132	-0.007892894
68	0x3ba10baf	0.004914723
69	0x3b84513e	0.004038005
70	0x3c7c9c78	0.015418164
71	0xbae1605a	-0.0017194853
72	0x3c06d576	0.008229604
73	0x3c3476ae	0.011014624
74	0xba083ae6	-0.0005196765
75	0xbbdb56d8	-0.006693702
76	0x3b1e986a	0.0024199733
77	0xb82b15b6	-4.0789797e-05
78	0xba476712	-0.0007606606
79	0xbb866aee	-0.0041021025
80	0xba1c9f4b	-0.0005974664
81	0x3a8ebe24	0.0010890407
82	0xbb377ff2	-0.0027999845
83	0x3c371343	0.011174026
84	0x3ca62544	0.020281442
85	0x3b232f77	0.0024900117
86	0x3c4f93a5	0.012669479
87	0xbac248bc	-0.0014822702
88	0x3ba9d80c	0.0051832255
89	0xbbd70d5d	-0.0065628723
90	0x3bf72163	0.007541822
91	0x3bf91c45	0.007602247
92	0x3c58daa6	0.013235724
93	0x3b33d6d2	0.0027441275
94	0x3b482622	0.0030540307
95	0x3aa5e39f	0.0012656337
96	0xb980807d	-0.00024509794
97	0x3b12fb1a	0.00224275
98	0x3c4273a5	0.011868392
99	0xbbb7bdab	-0.005607327
100	0xba6c38db	-0.00090111577
101	0xbc929d7f	-0.017897366
102	0xba00bd11	-0.00049109856
103	0xbbeb8381	-0.0071873073
104	0x3b6d4218	0.0036202725
105	0x3a56fa85	0.00082007825
106	0x3ca361d2	0.019944105
107	0xbb5d2767	-0.003374541
108	0xbc1136e5	-0.0088631855
109	0xbc3b7512	-0.011441486
110	0x3c7c97af	0.015417024
111	0x3adb1531	0.001671469
112	0xbac43a58	-0.0014971001
113	0x3ab6f3da	0.0013958171
114	0xb8b311ec	-8.538723e-05
115	0x3c3eb5df	0.011640041
116	0x3b7f5dc6	0.0038965805
117	0xbb08d187	-0.002087684
118	0xbb6b9e56	-0.003595253
119	0xbbd18272	-0.006393724
120	0x3b3aee49	0.0028523377
121	0xbb677d42	-0.0035322462
122	0xbbad29b5	-0.005284513
123	0xbc3b53ff	-0.0114336
124	0xbc10e5ba	-0.008843834
125	0x3c9bcf96	0.019019883
126	0x3c8fba6e	0.017544951
127	0xbcb490a4	-0.022041626
128	0x3c1388e1	0.009004802
129	0xbc55383e	-0.013013897
130	0xbc29949f	-0.010350375
131	0x3c6bd226	0.014393365
132	0xbc7e301a	-0.015514398
133	0xbc2d7faf	-0.010589524
134	0x3b7b9e73	0.0038394004
135	0x3bb3f805	0.0054922127
136	0xbc2525d5	-0.010079821
137	0xbc14225a	-0.009041393
138	0x3ace1a94	0.0015724474
139	0x3be6774d	0.0070332647
140	0xbc1cde7d	-0.00957453
141	0xbc5f80ef	-0.01364158
142	0xbb7b371e	-0.0038332413
143	0x3cd5024a	0.026002068
144	0xbc6b7475	-0.014371027
145	0x3b7318ac	0.0037093563
146	0xbb23f6e7	-0.0025018991
147	0x3bf0965f	0.0073421444
148	0xbb00b31f	-0.0019638014
149	0xbb809d30	-0.003924988
150	0x3cb2b7c3	0.02181614
151	0xba1902bd	-0.0005836895
152	0x3c237b14	0.009978075
153	0x3c6ed94f	0.014578178
154	0xbc6eb2d8	-0.014569007
155	0xbb024477	-0.0019877234
156	0xbc649a26	-0.0139527675
157	0x3c48bccb	0.012252043
158	0xb861f378	-5.387093e-05
159	0x3c36909e	0.011142878
160	0x3bfd6a03	0.007733585
161	0xbc65864d	-0.014009071
162	0xbb80ac6b	-0.003926804
163	0x3c173bea	0.009230593
164	0x3b07e373	0.0020734936
165	0x3c4cb313	0.0124938665
166	0xbb086136	-0.0020809895
167	0xbb621678	-0.0034498256
168	0x3c57480f	0.013139739
169	0xbb0ab6ff	-0.0021166203
170	0xbb938984	-0.004502477
171	0x3c1a9125	0.009434019
172	0x3b6a2592	0.003572796
173	0x3c0da354	0.0086448975
174	0xb99437e2	-0.00028270396
175	0x3aaabba8	0.0013025897
176	0xbbbcc301	-0.005760551
177	0xbcab9a76	-0.020947676
178	0x3b725260	0.003697537
179	0x3c286d1c	0.01027992
180	0x3a6409c1	0.0008698963
181	0xbc2b5c56	-0.010459026
182	0xbc8cb2e1	-0.01717514
183	0xbbe1e978	-0.0068942867
184	0x39a8fca8	0.000322317
185	0x3baab160	0.005209133
186	0xba3917f0	-0.0007060757
187	0xbc6b6fe4	-0.0143699385
188	0xbb926100	-0.0044671297
189	0xbc174279	-0.009232157
190	0x3af53a23	0.0018709343
191	0x3bcf00ed	0.006317249
192	0x3c4d9a5f	0.012549012
193	0xbc23bba5	-0.009993468
194	0xbca30f3b	-0.019904723
195	0xba39bc73	-0.0007085271
196	0xbb3236bf	-0.0027193276
197	0x3c032972	0.008005487
198	0x3b8f54a3	0.004374103
199	0x3c67bdeb	0.014144401
200	0xbb77dc49	-0.003782051
201	0xbc12cea3	-0.008960399
202	0xbc0a1169	-0.0084270025
203	0xbc168d66	-0.009188985
204	0x3b7fb355	0.0039016802
205	0xbbe5125e	-0.006990715
206	0x3b67c717	0.003536647
207	0x3beaefcc	0.0071696993
208	0x3bcecfda	0.006311399
209	0xbbc20013	-0.005920419
210	0x3a7e8c36	0.0009710224
211	0x3b8efc41	0.004363567
212	0x3a15fae0	0.0005721282
213	0xbc847ed3	-0.016173756
214	0x3b8acac4	0.0042355973
215	0xbbdfd254	-0.006830493
216	0xba788d26	-0.0009481482
217	0x3b87a5d1	0.00413964
218	0xbc69d0ff	-0.01427102
219	0x3c290517	0.010316155
220	0xbab13cca	-0.0013522145
221	0x3c75bdf9	0.014998906
222	0x3bd0dac1	0.0063737337
223	0x389e0966	7.535778e-05
224	0x39bb2ead	0.00035702196
225	0xbc0e4a15	-0.008684655
226	0x3bc143c5	0.0058979713
227	0xbbb3caee	-0.0054868376
228	0x3a87f319	0.0010372131
229	0xbba179c1	-0.0049278443
230	0xbbd16feb	-0.0063915155
231	0xba62061a	-0.0008622125
232	0x3bf62a9b	0.007512403
233	0xbbcf776b	-0.0063313744
234	0x3c195e1e	0.009360818
235	0xbbc8c5ae	-0.006127081
236	0x3a5f1e47	0.00085112866
237	0x3c1243c2	0.0089272875
238	0xbc0fa62a	-0.008767644
239	0x3a728e4a	0.000925277
240	0x3b60f83f	0.0034327654
241	0xbbfe6866	-0.00776391
242	0x3b948ac4	0.0045331437
243	0xbb9d3da9	-0.00479861
244	0xbbe45c3a	-0.006969002
245	0xbbb6d653	-0.0055797487
246	0xbb310ec2	-0.0027016853
247	0xbbd4ee2c	-0.006498119
248	0x3b70feb3	0.0036772906
249	0x3c19d982	0.009390237
250	0x3c32a21c	0.010902908
251	0xbb5d432d	-0.0033761964
252	0x3c4b63fa	0.012413973
253	0x3c1c6b39	0.009547048
254	0xbb71e24b	-0.0036908563
255	0x3b3a8cde	0.002846531

action_model._discrete_distribution.branches.1.bias f4 [3]
0	0x3a2ce735	0.0006595732
1	0xbb962066	-0.004581499
2	0x3b87d714	0.0041455124

exp_avg f4 [128, 44]
0	0xb30baf16	-3.25227e-08
1	0x35e40261	1.6988016e-06
2	0x00000000	0.0
3	0x3576b22e	9.1901427e-07
4	0x353708ac	6.818543e-07
5	0x351ae8f6	5.7708473e-07
6	0x00000000	0.0
7	0x35907906	1.0764059e-06
8	0xb66e9e70	-3.5556986e-06
9	0x36bf06d6	5.6930394e-06
10	0x00000000	0.0
11	0x35288ab5	6.278672e-07
12	0x36e9da3b	6.9693465e-06
13	0x32645e80	1.32928335e-08
14	0x00000000	0.0
15	0x3493ddbc	2.7542217e-07
16	0xb68ff2c8	-4.2899956e-06
17	0xb3738110	-5.6695228e-08
18	0x00000000	0.0
19	0x3600658e	1.91326e-06
20	0x3718c2ac	9.105232e-06
21	0x00000000	0.0
22	0x00000000	0.0
23	0x33375190	4.268219e-08
24	0x363c38e9	2.804731e-06
25	0x00000000	0.0
26	0x00000000	0.0
27	0x35f38fbc	1.8146743e-06
28	0x35de15d8	1.6546646e-06
29	0x00000000	0.0
30	0x00000000	0.0
31	0x351d1e36	5.853102e-07
32	0x366f6ae8	3.5676003e-06
33	0x00000000	0.0
34	0x00000000	0.0
35	0x35af29b8	1.3050658e-06
36	0x36923d10	4.3582477e-06
37	0x00000000	0.0
38	0x00000000	0.0
39	0x3577f6c2	9.237375e-07
40	0x36b5310a	5.3999293e-06
41	0x00000000	0.0
42	0x00000000	0.0
43	0x358376fb	9.794888e-07
44	0x32aec125	2.0344098e-08
45	0x3357b630	5.0224287e-08
46	0x00000000	0.0
47	0xb59fb39a	-1.1898694e-06
48	0xb51b902a	-5.7951786e-07
49	0x35368620	6.799546e-07
50	0x00000000	0.0
51	0xb59b2c5f	-1.1561314e-06
52	0x3498de02	2.8473738e-07
53	0xb43c34e8	-1.7528112e-07
54	0x00000000	0.0
55	0xb5a01be6	-1.1929048e-06
56	0xb577cbd3	-9.2311274e-07
57	0x33a40e16	7.639407e-08
58	0x00000000	0.0
59	0xb5908363	-1.0767075e-06
60	0x357714ab	9.2044746e-07
61	0xb4e18573	-4.2006613e-07
62	0x00000000	0.0
63	0xb5c61b07	-1.4760016e-06
64	0xb60a1282	-2.0574375e-06
65	0x00000000	0.0
66	0x00000000	0.0
67	0xb5a25815	-1.2095576e-06
68	0xb628f5ab	-2.5176948e-06
69	0x00000000	0.0
70	0x00000000	0.0
71	0xb5e2c90a	-1.6896822e-06
72	0xb5d07658	-1.553165e-06
73	0x00000000	0.0
74	0x00000000	0.0
75	0xb5e2f4f3	-1.6909602e-06
76	0xb654dca0	-3.1718882e-06
77	0x00000000	0.0
78	0x00000000	0.0
79	0xb5fbd541	-1.8763022e-06
80	0xb729909d	-1.0106855e-05
81	0x00000000	0.0
82	0x00000000	0.0
83	0xb61878a0	-2.2719978e-06
84	0xb6cfeb38	-6.196464e-06
85	0x00000000	0.0
86	0x00000000	0.0
87	0xb60f3a48	-2.1342585e-06
88	0x353b436b	6.9761035e-07
89	0x3604ba37	1.9777924e-06
90	0x00000000	0.0
91	0xb5500694	-7.749561e-07
92	0x37c5b8da	2.3570308e-05
93	0xb7b16c85	-2.1150578e-05
94	0x00000000	0.0
95	0xb64d16e9	-3.0560716e-06
96	0xb62259c1	-2.4192125e-06
97	0x36d2828e	6.2736863e-06
98	0x00000000	0.0
99	0xb6188f6a	-2.2733243e-06
100	0x3724e4da	9.828445e-06
101	0xb6a3f1b2	-4.8859156e-06
102	0x00000000	0.0
103	0xb699ab55	-4.579701e-06
104	0xb7c0cca4	-2.2983477e-05
105	0x377c56d6	1.5040589e-05
106	0x00000000	0.0
107	0xb30b60c0	-3.2451453e-08
108	0xb52dbec4	-6.472512e-07
109	0x00000000	0.0
110	0x00000000	0.0
111	0xb658b40e	-3.2291314e-06
112	0xb73618b9	-1.08538015e-05
113	0x00000000	0.0
114	0x00000000	0.0
115	0xb6796f42	-3.7168652e-06
116	0xb722a216	-9.693691e-06
117	0x00000000	0.0
118	0x00000000	0.0
119	0xb64d92b6	-3.0632777e-06
120	0xb7901d34	-1.7179736e-05
121	0x00000000	0.0
122	0x00000000	0.0
123	0xb6a8a2c8	-5.0257404e-06
124	0xb7bcf454	-2.252512e-05
125	0x00000000	0.0
126	0x00000000	0.0
127	0xb63b45e1	-2.7905846e-06
128	0xb7a445ab	-1.9582765e-05
129	0x00000000	0.0
130	0x00000000	0.0
131	0xb6b99310	-5.53055e-06
132	0xb5c31c30	-1.4536836e-06
133	0x37b31ead	2.1352747e-05
134	0x00000000	0.0
135	0x3716559f	8.960632e-06
136	0x36a22c0e	4.833105e-06
137	0x377fc8fc	1.524598e-05
138	0x00000000	0.0
139	0x370270be	7.774854e-06
140	0x37910e8e	1.7292125e-05
141	0x362498de	2.4526885e-06
142	0x00000000	0.0
143	0x3709a071	8.203192e-06
144	0xb6a3a95e	-4.8774955e-06
145	0x3712eb48	8.757059e-06
146	0x00000000	0.0
147	0x36ef84f0	7.138231e-06
148	0x37d77d28	2.5688278e-05
149	0x36239700	2.4376786e-06
150	0x00000000	0.0
151	0x3693a35a	4.399958e-06
152	0x36bb8ae2	5.5892024e-06
153	0x00000000	0.0
154	0x00000000	0.0
155	0x36b1a202	5.2938713e-06
156	0x379ae9bc	1.8467072e-05
157	0x00000000	0.0
158	0x00000000	0.0
159	0x35d583eb	1.590813e-06
160	0x37816abe	1.5427704e-05
161	0x00000000	0.0
162	0x00000000	0.0
163	0x3635e27a	2.7102928e-06
164	0x3766605a	1.3731502e-05
165	0x00000000	0.0
166	0x00000000	0.0
167	0x3594b09c	1.1078259e-06
168	0x3712bd04	8.746287e-06
169	0x00000000	0.0
170	0x00000000	0.0
171	0x35a1213e	1.200511e-06
172	0x3720a94a	9.576159e-06
173	0x00000000	0.0
174	0x00000000	0.0
175	0x35aac416	1.2723056e-06
176	0xb5d2204c	-1.5655619e-06
177	0x36a980f3	5.051604e-06
178	0x00000000	0.0
179	0x36858d9b	3.980194e-06
180	0xb6ab32a7	-5.102094e-06
181	0x370ccbb0	8.392075e-06
182	0x00000000	0.0
183	0x368fc302	4.284434e-06
184	0x366279f8	3.374762e-06
185	0xb2d68a20	-2.497569e-08
186	0x00000000	0.0
187	0x3688aec7	4.0734626e-06
188	0xb4c652a4	-3.6940503e-07
189	0x36847e9c	3.948646e-06
190	0x00000000	0.0
191	0x3689aa60	4.1027524e-06
192	0x37461e88	1.1808828e-05
193	0xb66fc69f	-3.5729388e-06
194	0x00000000	0.0
195	0x3678337b	3.6984845e-06
196	0x370dc39c	8.449799e-06
197	0x00000000	0.0
198	0x00000000	0.0
199	0x3664c54b	3.4089487e-06
200	0x37429b70	1.1599492e-05
201	0x00000000	0.0
202	0x00000000	0.0
203	0x368e15ef	4.234483e-06
204	0x3748060f	1.192234e-05
205	0x00000000	0.0
206	0x00000000	0.0
207	0x3652630a	3.1350087e-06
208	0x3792a6c2	1.7482209e-05
209	0x00000000	0.0
210	0x00000000	0.0
211	0x3690b99f	4.3131436e-06
212	0x378634aa	1.5998568e-05
213	0x00000000	0.0
214	0x00000000	0.0
215	0x364722a7	2.967348e-06
216	0x3793a574	1.760081e-05
217	0x00000000	0.0
218	0x00000000	0.0
219	0x368c3715	4.1787375e-06
220	0xb532a6dd	-6.6552985e-07
221	0xb708cd40	-8.15402e-06
222	0x00000000	0.0
223	0xb5ec7e72	-1.7620171e-06
224	0xb5e8491a	-1.7306622e-06
225	0xb6f5a656	-7.320933e-06
226	0x00000000	0.0
227	0xb5c0d547	-1.4367187e-06
228	0xb6e1713b	-6.7187043e-06
229	0xb5bf6806	-1.4260884e-06
230	0x00000000	0.0
231	0xb5cdb7f4	-1.5327228e-06
232	0x36df7076	6.65901e-06
233	0xb65994e9	-3.2422197e-06
234	0x00000000	0.0
235	0xb5c75737	-1.4852038e-06
236	0xb729326d	-1.0084926e-05
237	0xb55e57fc	-8.282948e-07
238	0x00000000	0.0
239	0x35320e04	6.633056e-07
240	0x368ab520	4.133806e-06
241	0x00000000	0.0
242	0x00000000	0.0
243	0xb504091a	-4.9187076e-07
244	0xb69b0adf	-4.6206255e-06
245	0x00000000	0.0
246	0x00000000	0.0
247	0x3609fb90	2.056102e-06
248	0x34dcf9ac	4.1159853e-07
249	0x00000000	0.0
250	0x00000000	0.0
251	0x35516574	7.80062e-07
252	0x36cc3487	6.0857888e-06
253	0x00000000	0.0
254	0x00000000	0.0
255	0x3612525b	2.1803633e-06

exp_avg_sq f4 [128, 44]
0	0x2aa1cbe9	2.8740836e-13
1	0x2dd5e3e5	2.4316502e-11
2	0x00000000	0.0
3	0x2ced55ec	6.7454844e-12
4	0x2cedc28e	6.757545e-12
5	0x2d7f9215	1.45275085e-11
6	0x00000000	0.0
7	0x2cd31fe8	6.000523e-12
8	0x2ceeef41	6.7909294e-12
9	0x2dbf2040	2.1728508e-11
10	0x00000000	0.0
11	0x2ce01cf5	6.369678e-12
12	0x2e10f716	3.2961266e-11
13	0x2c9278ba	4.162973e-12
14	0x00000000	0.0
15	0x2c8c2651	3.9832933e-12
16	0x2dcca723	2.3266339e-11
17	0x2ca0ad4b	4.566713e-12
18	0x00000000	0.0
19	0x2ca4197c	4.6639897e-12
20	0x2e335302	4.0773614e-11
21	0x00000000	0.0
22	0x00000000	0.0
23	0x2c21adb2	2.2975896e-12
24	0x2e1524ee	3.3911478e-11
25	0x00000000	0.0
26	0x00000000	0.0
27	0x2c29022e	2.4017554e-12
28	0x2e29b06c	3.8582845e-11
29	0x00000000	0.0
30	0x00000000	0.0
31	0x2be1a64f	1.6033371e-12
32	0x2e08c824	3.110058e-11
33	0x00000000	0.0
34	0x00000000	0.0
35	0x2bdc3e34	1.5649205e-12
36	0x2e29e12a	3.8626137e-11
37	0x00000000	0.0
38	0x00000000	0.0
39	0x2bbfdb3a	1.3632214e-12
40	0x2e291132	3.8441424e-11
41	0x00000000	0.0
42	0x00000000	0.0
43	0x2bb56b1e	1.2890555e-12
44	0x26d9d880	1.5116082e-15
45	0x29f702c8	1.0969486e-13
46	0x00000000	0.0
47	0x2a6a6cb4	2.0821089e-13
48	0x296044d4	4.979769e-14
49	0x2979535b	5.5361406e-14
50	0x00000000	0.0
51	0x2a636454	2.0196458e-13
52	0x2a505cd9	1.8506324e-13
53	0x2a0028d4	1.1382849e-13
54	0x00000000	0.0
55	0x2a78d7ab	2.210165e-13
56	0x2ac020b6	3.412875e-13
57	0x27b31496	4.97048e-15
58	0x00000000	0.0
59	0x2a62eb3a	2.0154443e-13
60	0x2b300733	6.253775e-13
61	0x294b7a61	4.51812e-14
62	0x00000000	0.0
63	0x2a86d6f0	2.3952324e-13
64	0x2bff96c0	1.8160681e-12
65	0x00000000	0.0
66	0x00000000	0.0
67	0x2a656822	2.0375414e-13
68	0x2bed83d1	1.6876449e-12
69	0x00000000	0.0
70	0x00000000	0.0
71	0x2a8bb35e	2.481582e-13
72	0x2c0e9fb7	2.0268073e-12
73	0x00000000	0.0
74	0x00000000	0.0
75	0x2a853c2f	2.3667307e-13
76	0x2c7c3415	3.5840265e-12
77	0x00000000	0.0
78	0x00000000	0.0
79	0x2a9f3f3f	2.828796e-13
80	0x2d0dee1b	8.067792e-12
81	0x00000000	0.0
82	0x00000000	0.0
83	0x2ac4c231	3.4951341e-13
84	0x2cd954c2	6.176921e-12
85	0x00000000	0.0
86	0x00000000	0.0
87	0x2ab58fc1	3.2251808e-13
88	0x2b4e7c67	7.3358545e-13
89	0x2f23cc75	1.4897401e-10
90	0x00000000	0.0
91	0x2e268fc2	3.7871713e-11
92	0x2e1c7d6b	3.5581687e-11
93	0x2f235c52	1.4857562e-10
94	0x00000000	0.0
95	0x2e290dec	3.8438516e-11
96	0x2e495751	4.577966e-11
97	0x2f18b783	1.3889516e-10
98	0x00000000	0.0
99	0x2e336238	4.0787124e-11
100	0x2f36ea41	1.6636027e-10
101	0x2e1972ef	3.4890254e-11
102	0x00000000	0.0
103	0x2e0d17e5	3.208091e-11
104	0x2f61bc8b	2.0530615e-10
105	0x2dbf5d13	2.175552e-11
106	0x00000000	0.0
107	0x2dff04d2	2.8992284e-11
108	0x2f62eacf	2.0638001e-10
109	0x00000000	0.0
110	0x00000000	0.0
111	0x2da6a0af	1.8943373e-11
112	0x2f81ec33	2.3632793e-10
113	0x00000000	0.0
114	0x00000000	0.0
115	0x2d9ce795	1.783799e-11
116	0x2faaa4f0	3.1040015e-10
117	0x00000000	0.0
118	0x00000000	0.0
119	0x2d583daf	1.2291875e-11
120	0x2fadb583	3.1597489e-10
121	0x00000000	0.0
122	0x00000000	0.0
123	0x2d6fa1f8	1.3621541e-11
124	0x2fb5244b	3.2949496e-10
125	0x00000000	0.0
126	0x00000000	0.0
127	0x2d258ca3	9.410392e-12
128	0x2fb0c8e3	3.2156952e-10
129	0x00000000	0.0
130	0x00000000	0.0
131	0x2d4f6013	1.17879205e-11
132	0x2b1c7f06	5.5598614e-13
133	0x2e91fde8	6.6389394e-11
134	0x00000000	0.0
135	0x2ddfb20a	2.543123e-11
136	0x2d743f5a	1.3883861e-11
137	0x2e55ff94	4.8657592e-11
138	0x00000000	0.0
139	0x2dcaba52	2.3047484e-11
140	0x2dccc977	2.3281583e-11
141	0x2e3c0a50	4.275541e-11
142	0x00000000	0.0
143	0x2ddf35f9	2.5376133e-11
144	0x2e7e7a5d	5.7861594e-11
145	0x2dbbf875	2.1369776e-11
146	0x00000000	0.0
147	0x2da466e6	1.8690337e-11
148	0x2ef88dc6	1.1302918e-10
149	0x2d246b00	9.3460795e-12
150	0x00000000	0.0
151	0x2da2bbb8	1.8500632e-11
152	0x2ef27a47	1.1026607e-10
153	0x00000000	0.0
154	0x00000000	0.0
155	0x2d5b5069	1.2466563e-11
156	0x2f53755e	1.9232035e-10
157	0x00000000	0.0
158	0x00000000	0.0
159	0x2d519bf1	1.19149005e-11
160	0x2f32c401	1.625864e-10
161	0x00000000	0.0
162	0x00000000	0.0
163	0x2d08e932	7.782485e-12
164	0x2f6681dd	2.0964515e-10
165	0x00000000	0.0
166	0x00000000	0.0
167	0x2d1cb2a4	8.9072395e-12
168	0x2f4c6a92	1.8591553e-10
169	0x00000000	0.0
170	0x00000000	0.0
171	0x2cd24b58	5.976924e-12
172	0x2f6ee35d	2.172675e-10
173	0x00000000	0.0
174	0x00000000	0.0
175	0x2d0e707a	8.09674e-12
176	0x2a95ad97	2.658817e-13
177	0x2dac2dbf	1.9574451e-11
178	0x00000000	0.0
179	0x2cb3b0ca	5.1071135e-12
180	0x2c8836db	3.8714427e-12
181	0x2d9f8f27	1.813978e-11
182	0x00000000	0.0
183	0x2cb0edfe	5.0286433e-12
184	0x2cbc304a	5.3486425e-12
185	0x2d5e0410	1.2620141e-11
186	0x00000000	0.0
187	0x2cbe8e0b	5.4158947e-12
188	0x2d9c5275	1.7771765e-11
189	0x2ccb9992	5.7866567e-12
190	0x00000000	0.0
191	0x2c8f9e2f	4.0818664e-12
192	0x2e0d529e	3.2133067e-11
193	0x2c6dba9a	3.378331e-12
194	0x00000000	0.0
195	0x2c884bfd	3.873789e-12
196	0x2e0cdf56	3.2030677e-11
197	0x00000000	0.0
198	0x00000000	0.0
199	0x2c290acc	2.4022338e-12
200	0x2e1ccb64	3.565094e-11
201	0x00000000	0.0
202	0x00000000	0.0
203	0x2c33999b	2.5522698e-12
204	0x2e2dd8a8	3.9528075e-11
205	0x00000000	0.0
206	0x00000000	0.0
207	0x2be2f062	1.6124985e-12
208	0x2e4b5a6f	4.6237177e-11
209	0x00000000	0.0
210	0x00000000	0.0
211	0x2c0d0e02	2.004508e-12
212	0x2e320626	4.0477975e-11
213	0x00000000	0.0
214	0x00000000	0.0
215	0x2bb54215	1.2879165e-12
216	0x2e36f93b	4.160337e-11
217	0x00000000	0.0
218	0x00000000	0.0
219	0x2bfbb3d8	1.7884539e-12
220	0x2b6677ac	8.187849e-13
221	0x2e4ca2e1	4.6528895e-11
222	0x00000000	0.0
223	0x2dd3a5c5	2.406154e-11
224	0x2d995eeb	1.7436238e-11
225	0x2e207178	3.648057e-11
226	0x00000000	0.0
227	0x2dba4367	2.1175684e-11
228	0x2dc0b433	2.1907897e-11
229	0x2dd6c81e	2.4417853e-11
230	0x00000000	0.0
231	0x2dd188d4	2.3821313e-11
232	0x2e235fbd	3.7146942e-11
233	0x2dcd332b	2.3328525e-11
234	0x00000000	0.0
235	0x2da35829	1.8570106e-11
236	0x2f05c4bb	1.2166172e-10
237	0x2d16f1b0	8.580178e-12
238	0x00000000	0.0
239	0x2da0de15	1.8288518e-11
240	0x2efd13fc	1.1508658e-10
241	0x00000000	0.0
242	0x00000000	0.0
243	0x2d6738ec	1.3143469e-11
244	0x2f4d5cc2	1.8677596e-10
245	0x00000000	0.0
246	0x00000000	0.0
247	0x2d580183	1.2278514e-11
248	0x2f3e7055	1.7320308e-10
249	0x00000000	0.0
250	0x00000000	0.0
251	0x2d14dda0	8.462037e-12
252	0x2f5c92a0	2.0060975e-10
253	0x00000000	0.0
254	0x00000000	0.0
255	0x2d2218b7	9.214122e-12
