results/FirstRun2/MoveSomewhere/MoveSomewhere-234240.pt (torch, 565879 bytes, 40 tensors)

discrete_act_size_vector f4 [1, 2]
0	0x40400000	3.0
1	0x40400000	3.0

network_body._body_endoder.seq_layers.0.weight f4 [128, 45]
0	0x3e70080e	0.23440573
1	0x3d8e79f7	0.06956857
2	0x3d1fd6cf	0.039023217
3	0xbea3f47b	-0.3202246
4	0xbcee61e0	-0.029099405
5	0x3d8f668c	0.07001981
6	0xbc980713	-0.01855806
7	0xbdb33175	-0.087496676
8	0xbe9472a3	-0.2899371
9	0x3df2b7cf	0.11851465
10	0xbe2f4dda	-0.17119542
11	0x3e68c596	0.22731623
12	0xbe13fdda	-0.14452305
13	0xbc91509e	-0.017738637
14	0xbb68edb2	-0.0035542068
15	0xbda65393	-0.08121409
16	0xbeb3dc05	-0.351288
17	0x3e2bf293	0.16791753
18	0xbc5a92ca	-0.013340661
19	0xbdf4c523	-0.11951663
20	0xbe095311	-0.13410594
21	0x3dd45a40	0.10368776
22	0xbdd2be64	-0.102902204
23	0xbe8c3de6	-0.27390975
24	0x3d532597	0.05154952
25	0x3e32336c	0.17402428
26	0x3df081a5	0.11743478
27	0xbd9421d6	-0.07233016
28	0x3e21816e	0.1577203
29	0x3e5a2c53	0.21305971
30	0xbc7cdf64	-0.01543412
31	0xbe8ad0df	-0.2711248
32	0xbe1b6f33	-0.15179138
33	0x3d4810c0	0.0488441
34	0x3d28020c	0.041017577
35	0x3d245931	0.040124122
36	0xbd5ce1a4	-0.053926125
37	0x3ecc19e7	0.39863512
38	0xbe126460	-0.14296103
39	0xbc90ce81	-0.017676594
40	0xbd3058e6	-0.04305353
41	0xbdc78cae	-0.097436294
42	0xbda3f133	-0.080049895
43	0x3dd15b8a	0.10222538
44	0x3d1e772a	0.038687862
45	0xbca67640	-0.020320058
46	0xbcbccbd4	-0.023046412
47	0xbd81cbf9	-0.06337733
48	0xbe1cd352	-0.15314987
49	0xbe4e4770	-0.20144439
50	0xbe477848	-0.19479477
51	0x3ebfa6c9	0.37431934
52	0xbd613f6b	-0.05499212
53	0x3e43ca33	0.19120102
54	0x3ea1d0b7	0.3160455
55	0x3d13bacd	0.03606682
56	0x3e388215	0.18018372
57	0x3e5c9925	0.21542795
58	0x3e29959e	0.1656098
59	0xbd966726	-0.07343893
60	0xbd6b5ecb	-0.05746345
61	0xbe15384b	-0.14572255
62	0xbdb3f67c	-0.087872475
63	0xbdc00274	-0.09375468
64	0xbe048832	-0.1294258
65	0xbe4756da	-0.19466725
66	0xbe16ba9b	-0.14719622
67	0xbd4d62f7	-0.05014321
68	0xbe409b0a	-0.18809143
69	0xbe17df6e	-0.14831325
70	0x3d690640	0.056890726
71	0xbce44eda	-0.02786963
72	0x3e0f3aa6	0.13987216
73	0xbe8eee13	-0.2791601
74	0x3d373482	0.04472781
75	0x3d6b225a	0.057405807
76	0x3dcdef23	0.10055377
77	0x3d78fe50	0.060789406
78	0x3ccdd1be	0.025124427
79	0xbe533f2c	-0.20629567
80	0x3d4bf664	0.049795523
81	0xbdd15549	-0.10221345
82	0x3e7699ad	0.2408206
83	0x3e757115	0.23968919
84	0x3e7a5091	0.24444796
85	0xbdafa507	-0.08576398
86	0xbe627fb8	-0.22119033
87	0x3d98d59b	0.07462617
88	0xbd836a83	-0.064168
89	0xbd8ca79d	-0.06867907
90	0xbdac258f	-0.08405601
91	0x3e21f790	0.15817094
92	0xbe2c34ae	-0.1681697
93	0x3e84e066	0.25952452
94	0x3e3860cf	0.1800568
95	0x3d18bc14	0.03728874
96	0xbee89aaa	-0.454305
97	0x3d65deda	0.05612073
98	0x3db6bdea	0.08922942
99	0x3d346d5e	0.044049613
100	0xbc8694cd	-0.016428376
101	0x3db01d11	0.08599294
102	0x3cdc06ef	0.026858775
103	0xbcfe6653	-0.031054651
104	0x3bba5a96	0.005687068
105	0xbdae665c	-0.08515617
106	0xbe5431f8	-0.20722187
107	0x3e45e5d2	0.1932595
108	0x3cb67a54	0.022275127
109	0x3e5f0a5a	0.21781293
110	0xbe458d58	-0.192922
111	0xbb1f3f4c	-0.0024299202
112	0x3e19c799	0.15017547
113	0xbdd9ad7e	-0.10628794
114	0x3cffeb74	0.031240202
115	0x3e541e83	0.20714764
116	0xbd107640	-0.035269022
117	0xbdf74628	-0.12073928
118	0x3e444d1e	0.19170043
119	0xbd02bd50	-0.031918824
120	0xbdca88c8	-0.0988937
121	0xbcabd392	-0.020974908
122	0xbe3978fe	-0.18112561
123	0x3eb77eac	0.3583883
124	0x3c08d3bd	0.008351264
125	0x3d3c274f	0.045935925
126	0x3e2d76b1	0.16939808
127	0xbb57472d	-0.003284882
128	0xbde8ec6d	-0.1137322
129	0x3dee6fed	0.11642442
130	0xbe18c26a	-0.14917913
131	0x3d54283b	0.05179618
132	0x3c123932	0.008924769
133	0x3d68646d	0.0567364
134	0x3e00cc94	0.1257804
135	0xbdb17cb6	-0.08666365
136	0xbc473926	-0.012159621
137	0x3d48250c	0.048863456
138	0x3e26d9ba	0.16293994
139	0x3e14893f	0.1450548
140	0x3da4acd8	0.0804078
141	0xbe10d113	-0.14142255
142	0xbdc42931	-0.09578169
143	0x3e666eca	0.225032
144	0x3e566255	0.20935948
145	0x3e2802ad	0.1640727
146	0x3c74ccf7	0.014941446
147	0x3dd4753a	0.10373922
148	0x3dc69dfc	0.09698102
149	0xbe3a97d4	-0.1822198
150	0xbd91ebd5	-0.071250595
151	0x3ce8265c	0.028338604
152	0xbda737a1	-0.08164907
153	0xbd6d5e8e	-0.057951503
154	0xbd647a80	-0.055780888
155	0x3c4fe5d7	0.012689075
156	0x3ded3e09	0.11584098
157	0xbdb8e2d2	-0.090276375
158	0xbdee685c	-0.11640999
159	0xbe78608e	-0.24255583
160	0x3c9ed461	0.01938838
161	0x3c056b0a	0.008143196
162	0x3ec60fd6	0.38683957
163	0xbdd1a348	-0.102362216
164	0x3db2e605	0.08735279
165	0xbdb03a1f	-0.08604836
166	0x3e907c1c	0.28219688
167	0x3d3dfffa	0.046386696
168	0xbe1d702b	-0.1537482
169	0x3ddd8784	0.10816863
170	0xbd0b37c6	-0.033988737
171	0xbe0763f2	-0.1322172
172	0x3e1aa956	0.15103659
173	0xbd2fe461	-0.04294241
174	0xbded6618	-0.115917385
175	0x3dafa1fb	0.08575817
176	0xbd3c864d	-0.046026517
177	0x3e1a7c02	0.15086368
178	0x3df10b18	0.11769694
179	0xbe615743	-0.22005944
180	0x3bf541d4	0.007484654
181	0x3d8d9336	0.06912844
182	0xbd6117c8	-0.05495432
183	0xbe07a19a	-0.1324524
184	0x3e2f54d8	0.17122209
185	0xbe5e275d	-0.21694703
186	0xbe31a562	-0.17348245
187	0xbd3650fa	-0.04451082
188	0x3d8e7636	0.06956141
189	0x3e3d4b9f	0.18485878
190	0x3e9bd1fb	0.3043364
191	0x3defe2b4	0.11713162
192	0x3daff6b4	0.08591977
193	0xbd87cdfa	-0.06631084
194	0x3e1b46df	0.15163754
195	0x3d003d6a	0.03130857
196	0xbdf0040b	-0.11719521
197	0xbdda04e7	-0.10645466
198	0x3e03ac29	0.12858643
199	0x3e0e0e90	0.13872743
200	0xbd8f8863	-0.070084356
201	0x3e3f1939	0.18661965
202	0x3dae0373	0.08496752
203	0x3e73767d	0.23775668
204	0x3e4bc0ca	0.19897762
205	0x3dcb82be	0.099370465
206	0x3cf663b3	0.030076837
207	0xbb3c1cd3	-0.0028703704
208	0x3dc803eb	0.09766372
209	0x3ccd5af8	0.025067791
210	0xbced9248	-0.029000416
211	0x3df7a2c8	0.12091595
212	0xbe68bd17	-0.22728382
213	0x3c801b59	0.01563804
214	0x3dfd9899	0.12382621
215	0x3e32ebeb	0.17472808
216	0x3a5f2202	0.00085118425
217	0xbe6a78f1	-0.22897698
218	0x3d7430d2	0.05961687
219	0xbda8f8bf	-0.082505696
220	0xbddf01c9	-0.10889012
221	0xbe065db4	-0.13121682
222	0xbe28a1e1	-0.16468002
223	0x3dea42ee	0.11438547
224	0x3e85af1a	0.26110154
225	0xbe2e88f4	-0.17044431
226	0xbcdb9450	-0.02680412
227	0xbe0484a0	-0.12941217
228	0xbe050413	-0.12989835
229	0xbdb50f55	-0.08840815
230	0x3da628af	0.081132285
231	0x3e4fc931	0.20291592
232	0xbc463836	-0.012098363
233	0x3d75f986	0.060052417
234	0x3e51b586	0.20479402
235	0xbe8df18d	-0.2772335
236	0x3d47d7a0	0.04878962
237	0xbd8fa982	-0.07014753
238	0xbe72380b	-0.23654191
239	0xbe407ce1	-0.18797638
240	0xbd833601	-0.06406785
241	0x3e8a4ee1	0.27013305
242	0x3e2fed72	0.17180422
243	0x3eb97a11	0.36225942
244	0x3dce7a71	0.100819476
245	0x3e034ecf	0.12823032
246	0xbde834e5	-0.11338214
247	0x3dab6992	0.08369745
248	0x3e80c1e7	0.25147936
249	0x3e55dc89	0.20884909
250	0x3dde3848	0.108505785
251	0xbe99c962	-0.30036455
252	0x3cc899e0	0.024487436
253	0x3c5f0ac3	0.013613406
254	0xbe0abeb7	-0.13549314
255	0x3da557ec	0.080734104

network_body._body_endoder.seq_layers.0.bias f4 [128]
0	0x3c4f478f	0.012651338
1	0xbc0944ad	-0.00837819
2	0x3cc62142	0.02418578
3	0x3cce4625	0.025179932
4	0x3c989bd2	0.018628988
5	0x3be6167f	0.0070217247
6	0x3ca4acd7	0.020101948
7	0x3b0d16a1	0.002152838
8	0x3a91acb1	0.0011114088
9	0xbccad702	-0.024760727
10	0x3a099b98	0.00052493205
11	0x3c2babbd	0.010477957
12	0x3c6c5a44	0.014425818
13	0x3cafb715	0.021449605
14	0x3abc153d	0.0014349591
15	0x3af3ea76	0.0018609304
16	0xbc6b0e69	-0.014346697
17	0x3c3fd7ec	0.011709195
18	0x3b79b0ed	0.003809984
19	0xbcbae019	-0.022811936
20	0x3c7a8d34	0.0152924545
21	0x3c39dfde	0.011344878
22	0x3c336391	0.010949031
23	0x3cb9abed	0.022664988
24	0x3c15e4ed	0.009148818
25	0x3bbd0290	0.0057681277
26	0x3d02ba88	0.03191617
27	0x3c17ee31	0.009273098
28	0x3c55ecb8	0.013056926
29	0x3bd3e60c	0.0064666327
30	0x3c8347bf	0.016025422
31	0xbc47547c	-0.012166139
32	0x3bba09dd	0.0056774453
33	0x3c95abeb	0.018270453
34	0x3be8e465	0.007107305
35	0xbc5138d2	-0.012769895
36	0x3c0b6c2e	0.008509679
37	0x3c5163a5	0.012780105
38	0x3c937772	0.018001292
39	0x3b429449	0.0029690436
40	0x3c7e745d	0.015530673
41	0x3c1a00e5	0.009399627
42	0x3c25cfe7	0.010120369
43	0x3b9c8b9c	0.004777385
44	0x3cd1ecef	0.025625674
45	0x3c44baef	0.012007459
46	0x3a39f17a	0.0007093173
47	0xbc7752b8	-0.015095405
48	0x3c7ae518	0.015313409
49	0x3b5044cd	0.003177929
50	0x3a9e4fee	0.0012078264
51	0x3c322830	0.010873839
52	0x3cb630cd	0.022240067
53	0x3cafde90	0.02146843
54	0xbb7d7863	-0.0038676492
55	0xbac4d012	-0.0015015623
56	0xbc1fe2cb	-0.0097586615
57	0x3c5a11f8	0.013309948
58	0x3c619100	0.013767481
59	0x3bad9951	0.0052978178
60	0x3b21883c	0.0024647852
61	0x3b0fc3bd	0.0021936737
62	0xbc04814a	-0.008087466
63	0x3c23a407	0.009987838
64	0x3bf35afd	0.007426618
65	0x3cc2b339	0.0237671
66	0x3b4a9fd6	0.0030918024
67	0x3b6016fe	0.0034193392
68	0x3c50f14f	0.012752845
69	0x3a2ea4fb	0.0006662157
70	0xbc8ae4cf	-0.016954808
71	0x3c35ace8	0.011088587
72	0xbc18d444	-0.009327952
73	0x3c1908d9	0.009340488
74	0x3c553c50	0.013014868
75	0xb96235b6	-0.00021573048
76	0x3b5c04e6	0.0033572256
77	0x3c445507	0.011983163
78	0x3c80cb9d	0.01572209
79	0xbc423503	-0.011853459
80	0xbb86283e	-0.0040941527
81	0x3b90eed0	0.004423
82	0x3c66ecde	0.0140945595
83	0xbc13ba37	-0.009016565
84	0xbb0959dc	-0.0020958101
85	0xbc60c490	-0.013718739
86	0x3cc8118d	0.024422431
87	0x3c97b445	0.018518576
88	0x3c8c00f7	0.017090304
89	0x3c52aa35	0.012857963
90	0x3c553950	0.013014153
91	0xbc1c49f5	-0.009539117
92	0x3b367451	0.0027840326
93	0xbc93850f	-0.018007783
94	0xbb10fac0	-0.0022122115
95	0x3c8b9329	0.017037945
96	0x3cb00d85	0.021490822
97	0x3aeb5475	0.0017954247
98	0xba7be2ba	-0.0009608675
99	0x3c9b9ee0	0.018996656
100	0x3c8484d7	0.016176624
101	0xbc20f8c5	-0.009824936
102	0x3c258fc8	0.010105081
103	0x3c457ce1	0.012053699
104	0xbc92f465	-0.017938802
105	0x3ce87189	0.02837445
106	0xbb93211f	-0.0044900323
107	0x3ac9d2c0	0.0015397891
108	0x3ca7d4bc	0.020487182
109	0x3bd1c5a1	0.006401733
110	0x3beabef4	0.0071638767
111	0x3c72ed48	0.01482708
112	0x3b7639f8	0.0037571173
113	0x3b85a3f8	0.0040783845
114	0x3cbd986d	0.023143971
115	0x3c5dbae0	0.013533324
116	0x3bc8445d	0.006111665
117	0x3c0f22f7	0.008736364
118	0x3bd71fb0	0.0065650567
119	0x3bd62061	0.0065346216
120	0xbc88a3a5	-0.016679594
121	0x3c8a8e2e	0.0169135
122	0x3bda7443	0.0066666915
123	0x3b765041	0.0037584456
124	0xbbcdd4b9	-0.006281462
125	0x3c162843	0.009164873
126	0x3c4bd775	0.012441506
127	0xbbcd97b7	-0.0062741893

network_body._body_endoder.seq_layers.2.weight f4 [128, 128]
0	0xbd912d13	-0.07088675
1	0xbe1e5ca6	-0.1546503
2	0x3c692425	0.014229809
3	0xbd80be30	-0.062862754
4	0x3d8b5a7b	0.06804367
5	0xbd4a2ae8	-0.049357325
6	0xbddcca1a	-0.10780735
7	0x3d483607	0.04887965
8	0xbda179f2	-0.07884587
9	0x3ccbaaa2	0.024861638
10	0xbdc27d0d	-0.09496508
11	0xbe1654ec	-0.14680833
12	0xbd5d3436	-0.05400487
13	0x3cc92de4	0.024558015
14	0xbdaa458e	-0.08314048
15	0xbc551623	-0.013005766
16	0x3dfc450e	0.12317859
17	0xbde75033	-0.11294594
18	0x3d5772a0	0.05259955
19	0x3e5de96d	0.21671076
20	0xbe9a772c	-0.30169046
21	0xbcefb7b2	-0.029262397
22	0x3c0f02c4	0.008728687
23	0xbd80954a	-0.06278475
24	0xbc26d638	-0.01018291
25	0xbe1b0344	-0.15137964
26	0xbb881a72	-0.004153543
27	0x3df82bd2	0.12117733
28	0x3ccb4fcd	0.024818325
29	0x3e2e4622	0.17018941
30	0x3d8baee0	0.06820464
31	0xbd0f9c1c	-0.035060987
32	0xbe2c514c	-0.16827887
33	0xbdb3e1bb	-0.08783289
34	0x3ded24a3	0.115792535
35	0x3d833f9a	0.064086154
36	0xbd003d05	-0.031308193
37	0xbe0a9213	-0.13532285
38	0x3e32d8da	0.17465535
39	0x3e0ed23d	0.13947387
40	0x3d04193c	0.032250628
41	0x3c492b63	0.012278411
42	0x3d346b1d	0.044047464
43	0x3e3d601a	0.18493691
44	0x3c91e8a1	0.017811121
45	0x3d8b182c	0.0679172
46	0xbe07581b	-0.13217203
47	0x3cfa490c	0.03055241
48	0x3d39a0df	0.045319434
49	0x3e49456b	0.19655387
50	0x3d1fe466	0.039036177
51	0xbc829500	-0.01594019
52	0xbca5baeb	-0.020230731
53	0xbc1b2dd1	-0.009471373
54	0x3dc2f382	0.09519102
55	0x3caa2206	0.020768177
56	0xbcecc9b3	-0.028904771
57	0xbc648d2b	-0.013949673
58	0xbd2e0d81	-0.042493347
59	0x3dab026d	0.08350072
60	0xbd231565	-0.039815325
61	0x3cfd009e	0.030884083
62	0x3d843eb5	0.06457273
63	0x3d82a5e7	0.063792996
64	0x3e3e3588	0.18575108
65	0x3dc92f14	0.098234326
66	0x3cc1c663	0.023654168
67	0x3b983670	0.0046451613
68	0xbd8803db	-0.0664136
69	0xbe3dcc71	-0.1853502
70	0x3ddf2fdb	0.108977996
71	0x3d9b540d	0.07584391
72	0x3da6139a	0.081092075
73	0xbdcd85a8	-0.100352585
74	0xbc0ec38f	-0.008713617
75	0xbd805647	-0.06266456
76	0xbe1ef45e	-0.15522906
77	0x3d454a8a	0.04816679
78	0xbd9cca04	-0.07655719
79	0x3e3c3092	0.18377903
80	0x3d811988	0.06303698
81	0x3c8608d0	0.016361624
82	0x3e39900d	0.18121357
83	0x3cd673f9	0.026178347
84	0x3c498c66	0.01230154
85	0x3d1e2432	0.038608737
86	0x3c65aef7	0.014018766
87	0x3defc2ac	0.117070526
88	0x3d4bbf20	0.049742818
89	0xbd19d64a	-0.037557878
90	0xbdae8072	-0.08520593
91	0x3c39e4c8	0.01134605
92	0x3ca18cc3	0.01972044
93	0x3ae250fc	0.0017266567
94	0x3d139d38	0.036038607
95	0xbc10d559	-0.008839929
96	0xbe1b1d91	-0.15147997
97	0x3da44486	0.08020882
98	0x3c525996	0.012838742
99	0x3d38de43	0.04513384
100	0x3d7e203c	0.06204246
101	0x3d92e56a	0.071726635
102	0x3da98d8f	0.08278953
103	0x3d794a58	0.060861915
104	0x3dd93495	0.10605732
105	0xbd6c335e	-0.057666175
106	0xbd84df97	-0.06487959
107	0xbc285d46	-0.010276144
108	0xbd90416e	-0.0704373
109	0x3d3c4dc1	0.04597259
110	0xbd786006	-0.06063845
111	0xbe3069a2	-0.17227796
112	0x3d9d468a	0.0767947
113	0xbd9610dd	-0.07327435
114	0xbd24f5c0	-0.040273428
115	0x3e73fa9c	0.23826069
116	0x3db71603	0.08939745
117	0x3cb443db	0.022005012
118	0xbcc0832c	-0.023500048
119	0x3dbd99f3	0.09257879
120	0x3dbf8032	0.09350623
121	0x3dc9d2a9	0.09854633
122	0xbbc0eb3c	-0.005887417
123	0xbe0ac2ed	-0.13550921
124	0x3ca11ed6	0.019668024
125	0x3d387149	0.045029912
126	0x3e28fb97	0.16502224
127	0x3cb9792b	0.022640785
128	0x3e1ffc6e	0.15623638
129	0xbdbbb0ef	-0.09164607
130	0x3d4088d4	0.04700549
131	0x3d4beb05	0.04978468
132	0x3d071edc	0.032988414
133	0x3cac3c32	0.021024797
134	0xbd07fa66	-0.033197783
135	0x3da49f0f	0.080381505
136	0xbdc0d7c3	-0.09416153
137	0x3ca28f84	0.019843824
138	0x3dbe1d64	0.092829496
139	0x3e14e163	0.14539103
140	0x3d07b73d	0.033133734
141	0x3bb88019	0.005630505
142	0x3b76daf3	0.0037667125
143	0xbdf77df5	-0.12084571
144	0x3da6c697	0.08143347
145	0xbc99462f	-0.018710224
146	0xbdf5a88a	-0.11995037
147	0xbd26a54c	-0.040684983
148	0x3cf03868	0.029323772
149	0xbd1f0b91	-0.03882939
150	0xbd89bee5	-0.06725863
151	0x3e0da1f9	0.13831319
152	0x3d9f8063	0.0778816
153	0xbd8d205e	-0.06890939
154	0x3cb2a347	0.021806372
155	0xbd513ef2	-0.05108542
156	0xbe171a2a	-0.14756075
157	0xbe1da4ed	-0.15394945
158	0xbcc8a4da	-0.02449267
159	0xbe1a8bbf	-0.15092371
160	0x3d2928a4	0.041298524
161	0xbe2fb691	-0.17159487
162	0xba143f9b	-0.000565523
163	0x3a45a5e8	0.00075396756
164	0x3dd2c788	0.10291964
165	0x3e1c5e66	0.15270385
166	0xbe01889f	-0.12649773
167	0xbe043bc2	-0.12913421
168	0xbcc637ec	-0.024196588
169	0xbd3d71e0	-0.046251178
170	0x3d06fbc9	0.032954965
171	0x3be1bb14	0.0068887565
172	0x3b81050e	0.00393737
173	0x3dae510d	0.08511553
174	0xbe000a42	-0.12503913
175	0x3d0995d4	0.033590153
176	0x3d109ca6	0.03530564
177	0x3d7673b1	0.060168926
178	0x3e196f7f	0.14983939
179	0xbc80e1b5	-0.015732625
180	0x3d61b177	0.055100884
181	0xbb6eb1ae	-0.0036421823
182	0x3d8f2162	0.06988789
183	0xbdad718c	-0.08468923
184	0x3e057130	0.13031459
185	0xbda27041	-0.07931567
186	0xbe25203d	-0.16125579
187	0x3d3b1937	0.045678344
188	0xbe45dee0	-0.19323301
189	0x3de965f2	0.11396398
190	0x3e038e6f	0.12847303
191	0x3d46f8e4	0.048577204
192	0x3b8bf5b8	0.0042712353
193	0xbc7d0618	-0.015443347
194	0xbd63b07b	-0.055588227
195	0x3d4e97e9	0.05043784
196	0x3c21ea39	0.009882503
197	0x3c0499c3	0.0080933
198	0xbdabd8b7	-0.083909445
199	0xbd8bc689	-0.06824977
200	0x3ccc9b51	0.024976404
201	0xbe0eebaf	-0.13957094
202	0xbe038b02	-0.12845996
203	0x3d24a196	0.040193163
204	0xbdbcecb1	-0.09224833
205	0xbbfdc80b	-0.0077447942
206	0xbc470557	-0.012147269
207	0x3e0cf859	0.13766612
208	0xb89d6378	-7.504871e-05
209	0x3e22908d	0.15875454
210	0xbd8c3955	-0.06846873
211	0x3e3f1b48	0.1866275
212	0x3d198cfa	0.03748796
213	0x3cd8e143	0.0264746
214	0xbda97740	-0.08274698
215	0xbc4053d1	-0.011738733
216	0xbc6923fd	-0.014229772
217	0x3d1fa663	0.038977038
218	0xbe0cf828	-0.13766539
219	0x3d8b5e34	0.06805077
220	0x3d133e5a	0.035948135
221	0xbd864911	-0.06556905
222	0xbdf2c881	-0.11854649
223	0xbb412190	-0.0029469468
224	0x3e2f36a7	0.17110692
225	0xbc298a09	-0.010347852
226	0x3d9184c3	0.071054004
227	0xbda5fc25	-0.081047334
228	0xbc037af6	-0.008024922
229	0xbdc48f44	-0.09597638
230	0x3c986f6e	0.018607821
231	0x3ca906f7	0.020633204
232	0xbcaef8f3	-0.021358943
233	0x3d24e2c3	0.04025532
234	0xbd2b59f4	-0.041833833
235	0x3e6d5d4d	0.23180123
236	0x3cdcc40b	0.02694895
237	0x3d6f2c1f	0.058391687
238	0x3da3e91c	0.080034465
239	0xbd871376	-0.06595509
240	0xbe14ac83	-0.14518933
241	0xbcab13b1	-0.020883413
242	0x3cb6ba8a	0.022305746
243	0x3c0c1dc9	0.008552023
244	0x3d968db6	0.07351248
245	0xbc8637a3	-0.016383952
246	0x3cb89cd7	0.022535725
247	0xbd2b748a	-0.041859187
248	0x3dcc8960	0.0998714
249	0x3de78570	0.11304748
250	0xbe690b06	-0.22758111
251	0x3d68faee	0.05687993
252	0xbc76e8de	-0.015070168
253	0x3c95d682	0.018290762
254	0xbe2b1f49	-0.16711153
255	0xbd1209f8	-0.03565404

network_body._body_endoder.seq_layers.2.bias f4 [128]
0	0xbc8c98ec	-0.017162763
1	0xba9a8db8	-0.0011791503
2	0x3c4dfbf2	0.0125722755
3	0xba7e1cbd	-0.00096936134
4	0x3c42efe3	0.011898014
5	0x3950468a	0.00019862704
6	0x3ba09be6	0.004901397
7	0x3b80f606	0.0039355783
8	0x3bc8dd91	0.0061299284
9	0x3b6d0b2e	0.0036169994
10	0xbad8df1d	-0.0016545985
11	0x3b6dc0ce	0.003627825
12	0x3c29dec3	0.010368052
13	0x3c85cf20	0.016334116
14	0x3ba9b1cc	0.0051786657
15	0xbb9d0147	-0.004791412
16	0x39c3f23f	0.00037373786
17	0x3aa82be7	0.0012830467
18	0x3c21426e	0.009842498
19	0x3c9fe8d8	0.019520208
20	0x3af2b3c6	0.0018516711
21	0xb9ec4d52	-0.00045071036
22	0x3bdaa7a6	0.0066728173
23	0xbb0eabcb	-0.0021769877
24	0x3c5bb438	0.013409667
25	0x3bbbbe4c	0.0057294723
26	0xbb5ec11c	-0.0033989614
27	0xbb9a298e	-0.0047046607
28	0x3c0d10dc	0.008609977
29	0x3b9bdcf7	0.0047565657
30	0xbae21bce	-0.0017250718
31	0x3c1079a4	0.008818064
32	0x3aa17f68	0.0012321295
33	0x3bff5807	0.007792476
34	0x3cb14163	0.021637624
35	0x3b8f1b3f	0.0043672617
36	0x3c11ebe0	0.008906335
37	0x3b433fef	0.0029792746
38	0x3be5d02b	0.007013341
39	0x3cb7768d	0.022395397
40	0xbad1d222	-0.0016008059
41	0x3c54ff50	0.013000324
42	0xbab02b02	-0.0013440552
43	0xbbca9437	-0.0061822194
44	0x3bf292e6	0.0074027656
45	0x3c8bfe62	0.017089073
46	0x3bef0455	0.0072942176
47	0x3bf5f57d	0.007506071
48	0x3c2fa8cf	0.010721399
49	0xbb4759d0	-0.0030418523
50	0x3c9112f4	0.017709233
51	0x3aeb6c5a	0.0017961368
52	0x39ccd459	0.00039068123
53	0x3bf183b5	0.007370437
54	0xbb519bfc	-0.0031983843
55	0x3c195e1a	0.0093608145
56	0x3bfff208	0.007810835
57	0x3c278e65	0.010226821
58	0x3c381522	0.011235507
59	0xbc0f05b1	-0.008729384
60	0xbc27fd6d	-0.0102532925
61	0x3bfdcf04	0.0077456255
62	0xb913d144	-0.0001409697
63	0x3c03fefb	0.008056398
64	0x3ccdbd6f	0.025114743
65	0xbb8d601d	-0.004314436
66	0x3c40721e	0.011745958
67	0xbb7b4658	-0.0038341489
68	0x3c0bd462	0.008534523
69	0x3cb469f4	0.022023179
70	0x3c4156e4	0.0118005015
71	0x3c4888b0	0.01223962
72	0x3c65b38b	0.014019857
73	0x3b1c3015	0.002383237
74	0xbc368e03	-0.011142257
75	0xbc034c84	-0.008013848
76	0x3b7cbb0a	0.0038563632
77	0xba002953	-0.000488897
78	0x3cbc5f22	0.022994582
79	0x3a8b602a	0.0010633518
80	0xbbf5a3fa	-0.007496354
81	0xba91d769	-0.0011126819
82	0x3c22f330	0.009945676
83	0xbc0281c5	-0.00796551
84	0x3be0f38f	0.006864972
85	0x3b86adea	0.0041100876
86	0x3b865886	0.0040999083
87	0x3b795ab3	0.0038048446
88	0x3b945e6b	0.004527857
89	0x3bd2b8b1	0.0064307083
90	0x3c800b80	0.015630484
91	0x3c894b85	0.016759643
92	0x3c85761b	0.016291669
93	0x3c8569f2	0.01628587
94	0x3b772b09	0.003771486
95	0x3c902063	0.017593568
96	0x3c463c6c	0.012099367
97	0x3c6b9a80	0.014380097
98	0x3cc389b9	0.023869382
99	0x3c12eb0b	0.008967171
100	0x3c978457	0.018495722
101	0x3bea0d59	0.0071427044
102	0x3c379f1f	0.011207371
103	0x3c61cd04	0.01378179
104	0x3cb31e82	0.021865133
105	0xbaa0acbf	-0.0012258514
106	0x3ae98c53	0.0017818309
107	0x3bc3d16d	0.0059758932
108	0xbc402b13	-0.01172902
109	0x3bfcf744	0.007719906
110	0xbb32ccee	-0.0027282792
111	0x3b14137f	0.0022594628
112	0x3a881167	0.0010381163
113	0x3c8b3496	0.016992848
114	0x3c6a3c52	0.014296608
115	0x3c98015e	0.01855534
116	0x3b984343	0.00464669
117	0x3c67ad86	0.014140492
118	0xbb0b9534	-0.0021298649
119	0x3bdedf58	0.006801527
120	0x3aa5fea2	0.0012664387
121	0x3b993e65	0.0046766275
122	0x3baaae18	0.005208742
123	0x3c60dd2a	0.013724605
124	0xbca3991e	-0.019970473
125	0x3c0e8606	0.008698946
126	0x3b17042f	0.0023043265
127	0x3c830fc4	0.015998729

action_model._discrete_distribution.branches.0.weight f4 [3, 128]
0	0x3bd339f5	0.006446118
1	0x3b2f0b87	0.0026709752
2	0x3a0238b2	0.00049675547
3	0x3abf5647	0.0014597856
4	0x3bd5ce6e	0.0065248525
5	0x3c8777ab	0.016536554
6	0xbb8e1ec4	-0.0043371636
7	0x3bcb4436	0.0062031997
8	0xbc5655c1	-0.013081969
9	0xb9c06a3e	-0.0003670025
10	0xbcaf0b8b	-0.021367809
11	0x3b23d229	0.0024997091
12	0xbbf5cfd1	-0.0075015803
13	0x3c94938f	0.018136768
14	0xbc4f1fd5	-0.012641867
15	0x3c217fbb	0.0098571135
16	0x3c9e9552	0.01935831
17	0x3c604c5b	0.01369008
18	0xbce3e0a6	-0.027817082
19	0xbbd80f5a	-0.006593627
20	0x3c334b3c	0.01094323
21	0xbcae37b5	-0.021266798
22	0x3bbff062	0.0058575133
23	0x3c3ca0a4	0.011512909
24	0xbc3e7182	-0.011623742
25	0xbc9b9174	-0.018990256
26	0xbc9e6385	-0.019334564
27	0xbc03b564	-0.008038852
28	0xbc5a45c6	-0.013322299
29	0xbb398edb	-0.0028313908
30	0xbb0075db	-0.0019601497
31	0x3bd5e32e	0.006527326
32	0xbc61ecb6	-0.013789346
33	0xbcaf1a15	-0.021374742
34	0x3b62ae0d	0.0034588606
35	0x3b4de983	0.0031419701
36	0xbbeffb5d	-0.007323666
37	0xbc08d9c1	-0.008352698
38	0x3caee1fa	0.021347988
39	0x3b927978	0.0044700466
40	0x368c6da4	4.185089e-06
41	0xbc8c0be3	-0.017095512
42	0xbc903f3e	-0.017608281
43	0x3bd87e52	0.0066068554
44	0x39a11d93	0.00030730347
45	0x3b8d8b42	0.0043195793
46	0xbcf35b4e	-0.029706623
47	0x3922200e	0.00015461465
48	0xbc3971bf	-0.011318623
49	0xbcb3cfb8	-0.021949634
50	0x3d14c92f	0.036324676
51	0xbaffeab3	-0.0019524902
52	0xbbf2bee8	-0.0074080117
53	0xbc6d3a67	-0.014479256
54	0xbb9716aa	-0.004610856
55	0xbc698f55	-0.014255364
56	0x3c81dc1f	0.015852032
57	0xba8a3fcc	-0.0010547577
58	0xbc5e3c57	-0.013564191
59	0x3abe86dc	0.0014536041
60	0xbc4ce6ad	-0.012506169
61	0x3c7e45e6	0.015519595
62	0xbc0fc1eb	-0.008774261
63	0xbc91b909	-0.017788427
64	0x3c08378a	0.008314023
65	0x3b700033	0.0036621212
66	0xbab928bc	-0.001412652
67	0x3c556ca2	0.013026388
68	0xbcc4facb	-0.024045369
69	0x3cb29721	0.02180058
70	0x3c060b01	0.0081813345
71	0x397e9619	0.00024279243
72	0xbbd9b000	-0.0066432953
73	0xbc92adbd	-0.01790511
74	0x3c12822d	0.008942169
75	0x3b490561	0.0030673372
76	0x3cddb92c	0.027065836
77	0x3ccbcff9	0.024879443
78	0x3c6b6898	0.014368199
79	0xbc9a2578	-0.018816695
80	0x3c1ecc63	0.009692284
81	0x3baddee6	0.0053061126
82	0x3bceefd2	0.00631521
83	0x3cea01a6	0.02856524
84	0xbd066ad2	-0.032816716
85	0xbb7b0b03	-0.0038306124
86	0x3a4733c5	0.0007598962
87	0xbc53c172	-0.012924539
88	0x3cdefa10	0.027218848
89	0xbc089a08	-0.008337505
90	0x3c153ffd	0.009109494
91	0x3b4cd5c7	0.003125535
92	0x3bbcc75a	0.0057610692
93	0x3b720cc8	0.0036933888
94	0xbc9079c4	-0.017636187
95	0x3ca72b22	0.02040631
96	0xbb8cc512	-0.0042959535
97	0xbb976a82	-0.004620851
98	0x3cd4e11f	0.025986252
99	0xbbabaeb0	-0.00523933
100	0x3c480cc2	0.012210073
101	0x3aceaa61	0.001576733
102	0xbad47893	-0.001621025
103	0x3b7e0adb	0.0038763795
104	0x3b3d2001	0.0028858187
105	0xbc93adfa	-0.018027294
106	0xbbccc0f9	-0.00624859
107	0x3c594283	0.013260487
108	0x3b04b3ad	0.0020248697
109	0xbc753f35	-0.014968683
110	0xbc01dcb5	-0.007926156
111	0x3b3505ab	0.0027621787
112	0xbc47f344	-0.012203995
113	0x3be43a52	0.00696496
114	0x3b9a3fc4	0.0047073085
115	0x3cb11704	0.02161742
116	0x3c8ae313	0.01695398
117	0x3caefad4	0.021359839
118	0xbc11ea2d	-0.0089059295
119	0x3ad8ede7	0.0016550393
120	0xba7d7fb3	-0.0009670213
121	0xba0789ab	-0.00051703554
122	0x3bf2ad82	0.0074059376
123	0xbb69166f	-0.003556635
124	0xbb772f50	-0.003771741
125	0xbbc340b7	-0.0059586423
126	0x3ac994ef	0.0015379469
127	0xbcad5d37	-0.021162612
128	0xbbea6ede	-0.0071543297
129	0xbc2a7712	-0.010404365
130	0xbce762e0	-0.02824539
131	0xbd137de0	-0.036008716
132	0x3d0716ff	0.032980915
133	0x3ce65da2	0.02812082
134	0x3cfa97d1	0.03058997
135	0xbb8e2b0e	-0.0043386286
136	0x3c0b0ec8	0.008487411
137	0xbcf447b0	-0.02981934
138	0xbcb14202	-0.02163792
139	0xbd0a2c3b	-0.033733588
140	0x3d009306	0.031390212
141	0xbcc3d493	-0.023905074
142	0x3cdeb7a4	0.027187176
143	0xbd01b2ac	-0.031664535
144	0xbd20ba4e	-0.039240174
145	0xbd2d97ee	-0.04238122
146	0x3b948e96	0.004533599
147	0x3c79ccf9	0.015246623
148	0xbc68f61c	-0.014218833
149	0x3cafc657	0.02145688
150	0xb92566f2	-0.00015773976
151	0xbce9822a	-0.02850445
152	0x3d4e9920	0.050439
153	0xbc13c392	-0.009018796
154	0xbc893920	-0.016750872
155	0xbbfe42ee	-0.0077594435
156	0x3cc04050	0.023468167
157	0xbcb4bdaa	-0.022063095
158	0xbce4bf19	-0.027923154
159	0xbd1d2938	-0.038369387
160	0xbcdc5dd6	-0.026900213
161	0x3ae00fde	0.0017094573
162	0x3c649d30	0.013953492
163	0x3bef0194	0.0072938893
164	0x3d0a0ca4	0.03370346
165	0x3d0615cc	0.03273563
166	0xbc9527c3	-0.018207436
167	0x3cbe212b	0.023209175
168	0xbd1707f6	-0.036872827
169	0x3d187d73	0.037229013
170	0x3c39b16f	0.011333807
171	0xbd0fa3c1	-0.035068277
172	0xbd194941	-0.037423376
173	0xbb732edd	-0.003710679
174	0x3ce76cf7	0.0282502
175	0x3cfc8643	0.03082574
176	0x3cd0961a	0.025462199
177	0xbc55b69a	-0.013044024
178	0x3b89e931	0.004208707
179	0xbd302782	-0.043006428
180	0x3c896167	0.016770078
181	0xbc7af7db	-0.015317882
182	0xbd0349b7	-0.03205272
183	0x3cc1b34d	0.023645068
184	0xbc96b0c7	-0.01839484
185	0xbccc5304	-0.024941929
186	0x3cd04539	0.025423633
187	0xbd0861b9	-0.03329632
188	0xbb152ccb	-0.0022762294
189	0xbcaaf146	-0.020867001
190	0x3c434ae3	0.01191971
191	0xbbe8c55d	-0.0071036057
192	0x3d0de233	0.03463955
193	0xbd1024d3	-0.03519137
194	0x3ccb1e3c	0.02479469
195	0xbca0c43e	-0.019624826
196	0x3cd6caaf	0.026219694
197	0x3caa2eb3	0.020774221
198	0xbba30769	-0.0049752486
199	0x3d118f75	0.035537202
200	0x3cf92771	0.030414315
201	0xbb090c72	-0.002091196
202	0xbcc5832e	-0.024110403
203	0x3c90d905	0.017681608
204	0xbcf3b925	-0.02975137
205	0xbcd81a85	-0.026379833
206	0x3c95673c	0.018237703
207	0x3c371781	0.011175037
208	0xbc8f92f6	-0.017526131
209	0x3cc38372	0.023866389
210	0x3c470a56	0.01214846
211	0xbce3289a	-0.027729321
212	0x3bb18749	0.0054177386
213	0xbd102265	-0.03518905
214	0x3cca0904	0.024662502
215	0x3c30714a	0.010769198
216	0xbb89a8cb	-0.00420103
217	0x3c5e4da8	0.013568319
218	0x3ca6871a	0.020328093
219	0x3d18aa07	0.037271526
220	0xbcac1ccb	-0.021009823
221	0xbcfa9404	-0.030588157
222	0xbd034e4a	-0.032057084
223	0x3d359b9d	0.044337858
224	0xbd2e6a41	-0.0425818
225	0xbce7fdba	-0.028319228
226	0x3d0cf96a	0.034417547
227	0xbc9dbc0c	-0.019254707
228	0xbcbcc1af	-0.023041574
229	0xbd2a451b	-0.04156981
230	0x3cb85f3e	0.022506353
231	0x3ce7c410	0.028291732
232	0x3b2d321c	0.0026427573
233	0xbcd8c57f	-0.026461361
234	0x3ca520d5	0.020157257
235	0xbc529b23	-0.01285437
236	0xbc5c0a0c	-0.01343013
237	0x3c73eae1	0.014887542
238	0xbc4e6356	-0.012596926
239	0xbcc69148	-0.024239197
240	0xbcf078a9	-0.02935441
241	0xbce281ef	-0.027649848
242	0xbca5424c	-0.020173214
243	0xbc093548	-0.00837452
244	0xbbc8d99c	-0.0061294567
245	0x3c43e562	0.011956545
246	0x3cd39cab	0.025831541
247	0x3c94dd5c	0.018171959
248	0x3b23dcc9	0.0025003424
249	0xbc7c1f23	-0.015388283
250	0x3d35be25	0.04437079
251	0x3d002bc6	0.031291746
252	0xbc1df835	-0.009641697
253	0x3d00bb26	0.03142848
254	0xbbc5f158	-0.0060407333
255	0x3d0f5f0f	0.035002764

action_model._discrete_distribution.branches.0.bias f4 [3]
0	0x3b1ed9ca	0.00242387
1	0x3c4e6772	0.0125979055
2	0xbc72e2bf	-0.014824568

action_model._discrete_distribution.branches.1.weight f4 [3, 128]
0	0xbabbcea6	-0.0014328554
1	0xbcb9b4c3	-0.022669202
2	0x3c3259b7	0.0108856475
3	0x3c345641	0.011006893
4	0xbb3ae838	-0.002851976
5	0x3ced509e	0.028969105
6	0x3cbfced6	0.023414057
7	0xbb0f1ea5	-0.0021838334
8	0xbbed94eb	-0.0072504184
9	0xbba9895d	-0.0051738457
10	0xbc9bcbcb	-0.019018074
11	0xbc7b6d22	-0.0153458435
12	0x398571b5	0.00025452455
13	0xbc6b6ba7	-0.014368928
14	0xbb8ab1b2	-0.0042326087
15	0x3bbe88da	0.005814654
16	0xbca04c2b	-0.01956757
17	0x3b7efe2e	0.0038908827
18	0xbcada6c2	-0.02119768
19	0x3c95775a	0.018245388
20	0xba6369e0	-0.00086751394
21	0x3c38e43b	0.011284883
22	0xbc64fddb	-0.0139765395
23	0xbcd1794b	-0.025570532
24	0x3b95c10c	0.004570132
25	0xbbb0de28	-0.005397577
26	0x3d289c7a	0.041164853
27	0xbd0369a7	-0.03208318
28	0x3a6bf391	0.0009000833
29	0x3ca329cd	0.019917393
30	0x3c26b4fd	0.010174987
31	0x3c0b8dc2	0.008517684
32	0x3c33342f	0.0109377345
33	0x3c3a51e6	0.011372065
34	0xbc86b6e6	-0.016444635
35	0x3a5a6bd5	0.0008332108
36	0x3ba32335	0.0049785622
37	0x3cc05e51	0.023482474
38	0xbc7b7349	-0.01534731
39	0xbc093c6b	-0.008376221
40	0x3b1332f9	0.0022460802
41	0xbbab5544	-0.0052286703
42	0xbb4edb9c	-0.0031564003
43	0xba3faeb6	-0.0007312106
44	0xbafd3738	-0.0019318825
45	0x3b8971b7	0.004194464
46	0x3bb2654d	0.005444205
47	0x3b56757d	0.0032723837
48	0xbbbf4d1c	-0.0058380496
49	0x3c7f9ca9	0.015601316
50	0xbb6d1fef	-0.0036182364
51	0xbb58982b	-0.0033049684
52	0x3be06285	0.006847682
53	0xbcd2511b	-0.02567344
54	0x359c8338	1.1661095e-06
55	0xba83658c	-0.001002477
56	0xbc8d2ffd	-0.017234797
57	0xbbbd4eb2	-0.0057772035
58	0x3c81fb9c	0.015867047
59	0x3c44ebc0	0.012019098
60	0x3ca1802f	0.019714443
61	0x3c2ac74c	0.010423493
62	0xbb6b1b65	-0.0035874483
63	0xbc9555c5	-0.018229375
64	0x3a711433	0.00091964303
65	0x3c5dabe9	0.013529756
66	0xbbb30006	-0.0054626493
67	0xbb755e97	-0.0037440413
68	0xbbf297ef	-0.007403366
69	0xbbae9c24	-0.005328672
70	0xbc26e2a2	-0.010185869
71	0xbc2d6998	-0.010584258
72	0x3b270f0b	0.0025491144
73	0x3c97d3aa	0.018533546
74	0x3bd60a64	0.0065320004
75	0x3b8147cc	0.0039453264
76	0xbcabfd7a	-0.02099489
77	0x3c088ccf	0.008334353
78	0x3bb58051	0.005538978
79	0xbc03a1e0	-0.0080341995
80	0xbcb1c129	-0.021698551
81	0x3c674d48	0.014117546
82	0xbc8a9086	-0.016914617
83	0x3b78643f	0.0037901548
84	0xbb279344	-0.0025569955
85	0xbbce5977	-0.006297286
86	0x3c3b5e45	0.01143605
87	0x3bfaaca9	0.007649977
88	0xbc07133b	-0.008244331
89	0x3bd90b1b	0.0066236383
90	0x3c44d413	0.012013453
91	0x3bb141cc	0.005409455
92	0xbbbf8e91	-0.0058458527
93	0xbcf3b892	-0.029751096
94	0xb58ae8e8	-1.0349586e-06
95	0xbbfbda34	-0.007685924
96	0x3b58f622	0.003310569
97	0x3b1c6237	0.0023862252
98	0xbce38389	-0.027772682
99	0xbc024107	-0.007950074
100	0x3b8d7959	0.0043174443
101	0x3c10fb5b	0.00884899
102	0xbc8fb996	-0.017544549
103	0x3c2dd681	0.010610224
104	0xbcc3ca1a	-0.02390008
105	0xbb9c312b	-0.0047666035
106	0x3c510632	0.012757825
107	0xbcc457a9	-0.02396758
108	0x3b9828bd	0.0046435283
109	0xbad22766	-0.001603347
110	0x3cd370eb	0.02581068
111	0xbaf72358	-0.0018855138
112	0xbc6f1413	-0.014592188
113	0xbc654fa1	-0.013996036
114	0xbd0ffe38	-0.03515455
115	0xbbc7be63	-0.006095694
116	0xbc938c4f	-0.01801124
117	0xbbc38bbe	-0.0059675863
118	0xbc587a74	-0.013212789
119	0xbaf54959	-0.0018713876
120	0xbd0288e5	-0.031868834
121	0xbc2a1ddb	-0.010383095
122	0x3bab47a8	0.005227048
123	0x3b3368cc	0.0027375696
124	0x3c8fe832	0.017566774
125	0x3c2a2be7	0.010386444
126	0xbc004a7f	-0.007830261
127	0x3c05b8c8	0.008161731
128	0x3ca04a32	0.01956663
129	0x3c730a28	0.014833964
130	0xbaec86e8	-0.0018045576
131	0xbb21b05c	-0.0024671769
132	0xbcd3d876	-0.025860053
133	0xbbe86ebc	-0.0070932787
134	0xba1c4b03	-0.00059621054
135	0x3cb86f18	0.022513911
136	0xbbf7bf0c	-0.0075606164
137	0xb93fd0e0	-0.00018292991
138	0xbc5420d3	-0.012947279
139	0xbc963645	-0.018336425
140	0x3addb14d	0.0016913802
141	0x3bd1ce83	0.006402792
142	0x3be79a8e	0.007067985
143	0xbb7f4e00	-0.0038956404
144	0x3bcb2453	0.0061993985
145	0x3c035e31	0.008018062
146	0xbafb1d0e	-0.0019158439
147	0x3abd38a5	0.0014436437
148	0xbc098871	-0.008394347
149	0xbaae51c3	-0.0013299513
150	0x3c6ecad2	0.014574723
151	0xbc26283e	-0.01014143
152	0xbcaa0e90	-0.020758897
153	0x3c6075b9	0.013699942
154	0xbbdb1122	-0.006685392
155	0x3c0cd8f2	0.008596646
156	0x3bb1b544	0.00542322
157	0xbc501476	-0.012700191
158	0xbc8a86d6	-0.016909998
159	0x3a9aa761	0.001179915
160	0xbbf26221	-0.007396952
161	0x3abee5a6	0.001456429
162	0x3ae58e22	0.0017513672
163	0x3cd52aae	0.026021328
164	0xbc70a77b	-0.014688368
165	0xbcb89ca4	-0.02253563
166	0xbc642b31	-0.013926313
167	0x3cab8cb5	0.020941118
168	0x3c494b04	0.0122859515
169	0xbcb95757	-0.022624655
170	0x3b83eb91	0.0040258844
171	0x3c2b432e	0.010453029
172	0xbbc67b45	-0.0060571753
173	0xbcd9372c	-0.026515566
174	0x3b698c2c	0.0035636527
175	0xbc7718de	-0.015081612
176	0xbbd27e43	-0.006423743
177	0xbbc9f31a	-0.006163013
178	0x3d06cf22	0.03291238
179	0xbae2e1eb	-0.001730976
180	0xbbae1946	-0.0053130714
181	0xbac56c96	-0.0015062268
182	0xbc3d3385	-0.011547928
183	0x3ba85184	0.0051366705
184	0xbbdea9e7	-0.0067951563
185	0xbc01c494	-0.007920403
186	0x3c27308c	0.010204446
187	0xbc556d0f	-0.01302649
188	0x3bdd1797	0.006747197
189	0xbc761c0c	-0.015021335
190	0xbc34b71e	-0.011029987
191	0x3c301496	0.010747096
192	0xbbbf7979	-0.005843338
193	0x3b382207	0.0028096454
194	0xbc1b6635	-0.009484817
195	0xbc8edb35	-0.01743851
196	0x3b52cb3b	0.0032164592
197	0x3cd07bd9	0.02544968
198	0x3c05d4a7	0.008168376
199	0xbc1b8cb3	-0.0094939945
200	0x3ce1778b	0.027522823
201	0xbca2d8c6	-0.019878756
202	0x3b389e9e	0.0028170715
203	0x3c166a60	0.009180635
204	0xbc9919f1	-0.018689128
205	0xbb90f39a	-0.004423571
206	0xbc15dd11	-0.009146945
207	0xbbdd09d7	-0.0067455578
208	0xbb61bcec	-0.0034444882
209	0xbca445eb	-0.02005287
210	0x3ccdbedb	0.025115421
211	0xbc091d61	-0.008368821
212	0x3b9c5b06	0.004771593
213	0x3c3694b7	0.011143855
214	0xbbc14bff	-0.005898952
215	0x3c68f35d	0.014218179
216	0x3bb2fe36	0.005462433
217	0x3c6b75c8	0.014371343
218	0xba48a116	-0.0007653398
219	0xbcaf931c	-0.021432452
220	0xba7b1534	-0.00095780496
221	0xbc5132a2	-0.012768419
222	0x3d3137a5	0.043265957
223	0x3c12adde	0.008952586
224	0xbb115f70	-0.002218213
225	0xbc319fbf	-0.010841309
226	0x3c6b68b3	0.014368224
227	0x3b1ba0c0	0.0023746938
228	0xbc2d8ddc	-0.010592904
229	0xbcbebb88	-0.023282781
230	0xbc755059	-0.01497277
231	0xbc528930	-0.012850091
232	0xbada40c4	-0.0016651382
233	0x3c0c04b7	0.008546046
234	0xbc0965c8	-0.008386083
235	0xbcd347c0	-0.025791049
236	0xbc5bcbfe	-0.013415335
237	0xbb941123	-0.0045186444
238	0xbc4a1199	-0.012333297
239	0xbacd567a	-0.0015666031
240	0x3c74a2f2	0.014931427
241	0x3c360d60	0.011111587
242	0x3c98f9d6	0.018673819
243	0x3b93db83	0.004512252
244	0xbc4feefb	-0.012691255
245	0x3c72bd9f	0.014815717
246	0xbc39dae3	-0.011343691
247	0xb97f3e50	-0.00024341908
248	0x3c3a11f2	0.011356818
249	0x3c7f0120	0.015564233
250	0xbc299252	-0.010349827
251	0x3b451752	0.0030073714
252	0x3c69279f	0.014230638
253	0xbcfe7ff5	-0.031066874
254	0xbc2fe3b1	-0.010735438
255	0xbcde8000	-0.027160645

action_model._discrete_distribution.branches.1.bias f4 [3]
0	0xbad1f727	-0.0016019092
1	0x3b940c0f	0.004518039
2	0xbac343df	-0.0014897546

exp_avg f4 [128, 45]
0	0xb72eb290	-1.0412783e-05
1	0xb78b0598	-1.6572696e-05
2	0x351b24a3	5.7795313e-07
3	0x364ee8a6	3.0831811e-06
4	0x35ffc53c	1.9056383e-06
5	0xb7f09d5e	-2.868351e-05
6	0x34c6d5d0	3.7035943e-07
7	0x36fd7ed0	7.5547505e-06
8	0xb6ca4dd2	-6.0291286e-06
9	0xb7a19ba1	-1.9265166e-05
10	0xb5956a87	-1.1132369e-06
11	0xb5b514d0	-1.3491608e-06
12	0x3568e408	8.6758564e-07
13	0xb7dcbe3e	-2.6314632e-05
14	0xb580e8ea	-9.60453e-07
15	0x37075d77	8.0683885e-06
16	0xb68bb691	-4.1637763e-06
17	0xb79e589b	-1.8876328e-05
18	0xb661fb7e	-3.3674e-06
19	0xb595b748	-1.1154707e-06
20	0xb5b66188	-1.3588442e-06
21	0xb7d8dbbe	-2.5851532e-05
22	0x355784a9	8.028679e-07
23	0x36716fc6	3.597686e-06
24	0xb842303a	-4.629812e-05
25	0x37e16ba6	2.6872218e-05
26	0xb6ea43a4	-6.981618e-06
27	0x36a4c79c	4.9108185e-06
28	0xb8ceab72	-9.85478e-05
29	0x38956e26	7.1253904e-05
30	0x356ded95	8.863511e-07
31	0x37af6f01	2.0913316e-05
32	0x36adad89	5.176004e-06
33	0xb7cb2d8e	-2.4220699e-05
34	0xb6f70e2d	-7.362824e-06
35	0x375d4930	1.3189667e-05
36	0x3732c3a4	1.0655178e-05
37	0xb819d15e	-3.667303e-05
38	0xb4d1339c	-3.8966834e-07
39	0x376c6d85	1.4092196e-05
40	0x37d06601	2.4843031e-05
41	0xb8403cda	-4.583304e-05
42	0xb6b5c841	-5.417533e-06
43	0x377a94a7	1.4935772e-05
44	0x38128adf	3.4938446e-05
45	0x36bb62f0	5.584552e-06
46	0xb673d6a2	-3.6334754e-06
47	0x348d03f0	2.6266162e-07
48	0x35d1caa2	1.5630687e-06
49	0x368f8e6e	4.278313e-06
50	0xb57fc7ce	-9.5285657e-07
51	0xb5953652	-1.1117174e-06
52	0x360bd94e	2.0839102e-06
53	0x3700a061	7.666736e-06
54	0xb6909642	-4.3090267e-06
55	0xb5998a6e	-1.1439677e-06
56	0x35e11e8a	1.6772694e-06
57	0x36c37970	5.82559e-06
58	0xb61bfbc6	-2.3243351e-06
59	0xb5acceae	-1.287515e-06
60	0x35f6bce6	1.8383405e-06
61	0x364e3830	3.0729097e-06
62	0xb6323a15	-2.6557875e-06
63	0x35f12365	1.79662e-06
64	0x3642132c	2.8919412e-06
65	0x36b6b549	5.445127e-06
66	0xb5b2ca7a	-1.3320962e-06
67	0xb5feeb1f	-1.8992904e-06
68	0x3583f9c5	9.832953e-07
69	0xb69d4503	-4.6869986e-06
70	0x361c44ab	2.3285781e-06
71	0x36996a8a	4.572158e-06
72	0x3698e1df	4.556248e-06
73	0xb6b0e32c	-5.271655e-06
74	0x3711d932	8.693243e-06
75	0xb5a21d48	-1.2078463e-06
76	0x35d85138	1.6116892e-06
77	0x36709b16	3.5853059e-06
78	0xb6c83250	-5.9663216e-06
79	0x369a2caa	4.5947572e-06
80	0x36c3d06b	5.835716e-06
81	0xb60ae090	-2.0694315e-06
82	0x368c3bc9	4.179285e-06
83	0x33df18e8	1.0388777e-07
84	0x362c1f94	2.5648378e-06
85	0x371091f8	8.617055e-06
86	0xb73af7ef	-1.11441905e-05
87	0x369f13cf	4.7408753e-06
88	0x36dd615c	6.5976474e-06
89	0x35935166	1.0976044e-06
90	0x374c25c4	1.21681405e-05
91	0x3785ebb3	1.5964592e-05
92	0xb5a6664e	-1.2397738e-06
93	0x37510187	1.2457726e-05
94	0x3774ab12	1.4583364e-05
95	0x36b5bb86	5.416051e-06
96	0x36e74f0e	6.8935396e-06
97	0x372914fa	1.0078069e-05
98	0x346051c0	2.0891366e-07
99	0x37e6bd12	2.750618e-05
100	0xb55cb09a	-8.2213376e-07
101	0x37414bda	1.1521357e-05
102	0xb7a852f0	-2.0065781e-05
103	0x38366e30	4.34948e-05
104	0x366875d4	3.463928e-06
105	0x37194806	9.13628e-06
106	0x36844fe3	3.9432066e-06
107	0x37a64edc	1.9825464e-05
108	0x3651aada	3.1242876e-06
109	0x372becd0	1.02475315e-05
110	0xb6a71a7c	-4.980071e-06
111	0x37da8d62	2.6053462e-05
112	0x36c3458c	5.819549e-06
113	0x37514d0f	1.2475312e-05
114	0x38092f9b	3.270768e-05
115	0xb78003aa	-1.5260495e-05
116	0x371e793c	9.445761e-06
117	0x3717fbdd	9.058943e-06
118	0x36d8e548	6.4639935e-06
119	0x37b0b282	2.106396e-05
120	0xb52a74e0	-6.350001e-07
121	0x37a58ac5	1.9734152e-05
122	0x388bf11a	6.672945e-05
123	0xb856ce94	-5.1213967e-05
124	0x373ee1d1	1.13774595e-05
125	0x3687aea4	4.0436444e-06
126	0x37a1dc16	1.9295181e-05
127	0x3742738a	1.1590202e-05
128	0xb685f6b4	-3.992429e-06
129	0x3780c4d2	1.535044e-05
130	0x384c949a	4.8775786e-05
131	0xb8113500	-3.4620054e-05
132	0x3755b1f4	1.2737222e-05
133	0xb6267140	-2.4801848e-06
134	0xb6ecc552	-7.056319e-06
135	0xb7fc73a0	-3.0094583e-05
136	0x360f7994	2.1379428e-06
137	0x361e3a61	2.3577816e-06
138	0xb74e1dc2	-1.2285485e-05
139	0xb774adf0	-1.4584031e-05
140	0xb71bc44c	-9.284424e-06
141	0xb5e83ffe	-1.7303971e-06
142	0xb764d47c	-1.3639332e-05
143	0xb7c93fc8	-2.3990768e-05
144	0xb6908d67	-4.307996e-06
145	0x36353004	2.699905e-06
146	0xb779f12e	-1.4897711e-05
147	0xb791cf99	-1.7382017e-05
148	0xb637c8e0	-2.738605e-06
149	0xb6b7d1ac	-5.478234e-06
150	0xb7487f47	-1.1950563e-05
151	0xb77ba782	-1.4999767e-05
152	0xb6e087e6	-6.691541e-06
153	0xb6831d8a	-3.907543e-06
154	0xb7aab15e	-2.0348172e-05
155	0xb747ab70	-1.190124e-05
156	0xb774394b	-1.4556873e-05
157	0x3566a73b	8.592503e-07
158	0xb6ef371d	-7.129171e-06
159	0xb7f3daf2	-2.9069812e-05
160	0x37b64e38	2.1732514e-05
161	0xb7993067	-1.826156e-05
162	0xb79b847a	-1.8539129e-05
163	0xb82d32c7	-4.1293704e-05
164	0x37ac9382	2.0572686e-05
165	0xb6a3ac58	-4.877842e-06
166	0xb54bd83a	-7.5938044e-07
167	0xb7302d9a	-1.0501035e-05
168	0x36674a34	3.4464874e-06
169	0xb79b8f9c	-1.8544313e-05
170	0xb775d876	-1.4653537e-05
171	0xb6efa03e	-7.1414097e-06
172	0xb798a855	-1.8198198e-05
173	0xb48b2ef7	-2.592494e-07
174	0xb6ae2c20	-5.190741e-06
175	0xb72636d6	-9.9071385e-06
176	0x36a8e477	5.033387e-06
177	0xb7addad6	-2.072511e-05
178	0xb7621714	-1.3476023e-05
179	0x372a0b23	1.0135383e-05
180	0x37d40fac	2.5279667e-05
181	0x37f0d280	2.8708251e-05
182	0x369f2a41	4.7434883e-06
183	0x380f407b	3.415391e-05
184	0x3787af36	1.6174843e-05
185	0x37abe104	2.048957e-05
186	0x37b91c86	2.2067e-05
187	0x37fce476	3.0147126e-05
188	0x3719f952	9.17756e-06
189	0x3845d24d	4.7164318e-05
190	0x36205c34	2.3895527e-06
191	0x3817b49e	3.616942e-05
192	0x35995b28	1.1425918e-06
193	0x37f9b04c	2.9765208e-05
194	0x37e966c6	2.7823622e-05
195	0x37fbd24e	3.0019462e-05
196	0x3814e4ba	3.5498968e-05
197	0x37b8b4d2	2.201871e-05
198	0x35a2e7a2	1.2137355e-06
199	0x380045ec	3.0582698e-05
200	0x37d474be	2.5326732e-05
201	0x37b92e5b	2.2075305e-05
202	0x373e1350	1.1329379e-05
203	0x37d7cad2	2.5724443e-05
204	0x380b04d6	3.3144686e-05
205	0x371e0db7	9.420727e-06
206	0x37879c38	1.6166e-05
207	0x37f0f611	2.8724813e-05
208	0x3831468d	4.2265794e-05
209	0x378d9d0f	1.6881646e-05
210	0xb4df5bb0	-4.1603698e-07
211	0x37faca9c	2.989667e-05
212	0x3838447d	4.3932803e-05
213	0xb6a1b4e8	-4.819234e-06
214	0x37a490fb	1.9617835e-05
215	0x37e6130e	2.742701e-05
216	0x385e4dcf	5.300139e-05
217	0x373bb9be	1.1189315e-05
218	0xb6b72ed8	-5.4592783e-06
219	0x37d640a2	2.5540885e-05
220	0x3884c200	6.330386e-05
221	0xb7bafad8	-2.2289736e-05
222	0x37949f8d	1.7717271e-05
223	0x37c5f996	2.3600453e-05
224	0xb78a601e	-1.649564e-05
225	0x386b46d5	5.6094334e-05
226	0x36819c48	3.862693e-06
227	0xb7265dc5	-9.916203e-06
228	0x3778b96e	1.4825126e-05
229	0x37b2ce52	2.1315329e-05
230	0x37dac79a	2.6080572e-05
231	0x36317f7a	2.6449256e-06
232	0x37d038a7	2.4821913e-05
233	0xb6d70752	-6.4083515e-06
234	0x3817ebf6	3.622096e-05
235	0x37a9afd1	2.022824e-05
236	0x37e6a0a9	2.749295e-05
237	0x3649e3b8	3.0083884e-06
238	0x3879f45c	5.9593804e-05
239	0xb752be83	-1.2561332e-05
240	0x37b16700	2.1148007e-05
241	0xb7e1cc64	-2.6917267e-05
242	0x387369af	5.803414e-05
243	0x379ebeee	1.8923976e-05
244	0x3843c478	4.66746e-05
245	0xb763f4d0	-1.3587254e-05
246	0x38627511	5.3991625e-05
247	0x3721ac3e	9.636451e-06
248	0x37f0c187	2.8700348e-05
249	0x38f36611	0.00011606154
250	0xb8e2cf74	-0.00010815161
251	0x3830b5b9	4.2130912e-05
252	0x38233031	3.890711e-05
253	0x38eddefd	0.000113425755
254	0xb8db3d0e	-0.00010454106
255	0x382c9f1e	4.1156185e-05

exp_avg_sq f4 [128, 45]
0	0x308f5f41	1.0431692e-09
1	0x32f70b1f	2.8759642e-08
2	0x2d0d68d1	8.038196e-12
3	0x309486c9	1.0806726e-09
4	0x30c297d9	1.4158515e-09
5	0x32f18c5e	2.8119924e-08
6	0x2c62efa9	3.224957e-12
7	0x30a29b2d	1.1831155e-09
8	0x30162fd5	5.4637656e-10
9	0x32fcece9	2.9444395e-08
10	0x2e62d11f	5.1572187e-11
11	0x309eda02	1.1557975e-09
12	0x31199a86	2.2352267e-09
13	0x32e61863	2.6786614e-08
14	0x2caa12b2	4.833766e-12
15	0x30c85d14	1.457837e-09
16	0x302faebb	6.3912936e-10
17	0x3300357f	2.9850977e-08
18	0x2ee807cc	1.05515235e-10
19	0x30b1b2da	1.2929278e-09
20	0x31a2496f	4.723169e-09
21	0x32ce9af2	2.4052017e-08
22	0x2c90cc56	4.115412e-12
23	0x310621e7	1.9518838e-09
24	0x312e56b1	2.536961e-09
25	0x32ea60f6	2.7285278e-08
26	0x2f01d4fa	1.1808146e-10
27	0x30ccff99	1.4915599e-09
28	0x323d0e18	1.10044525e-08
29	0x32a38c80	1.903959e-08
30	0x2c49e998	2.8693489e-12
31	0x314200d8	2.8231195e-09
32	0x31c0d505	5.612153e-09
33	0x32cd1503	2.3874696e-08
34	0x2f18102b	1.3830063e-10
35	0x30ff96fb	1.8596603e-09
36	0x3291ed7b	1.6988215e-08
37	0x32544dd3	1.2357719e-08
38	0x2c1a0d48	2.1892089e-12
39	0x31930748	4.279091e-09
40	0x32455904	1.1487149e-08
41	0x329ddd15	1.8377742e-08
42	0x2edc2971	1.0011803e-10
43	0x3125c421	2.4122147e-09
44	0x31694db1	3.3950125e-09
45	0x303477e9	6.565402e-10
46	0x30f84a57	1.8065504e-09
47	0x2eb9ec59	8.45481e-11
48	0x2fcf056b	3.765693e-10
49	0x301b1f91	5.643353e-10
50	0x30f8f943	1.8115219e-09
51	0x2f1ad69a	1.408246e-10
52	0x3003b682	4.791688e-10
53	0x3039d7de	6.7609374e-10
54	0x30f7e317	1.8036158e-09
55	0x2e8c698d	6.3852125e-11
56	0x2fb5f47d	3.3097428e-10
57	0x3003415b	4.77504e-10
58	0x30ff4905	1.8574445e-09
59	0x2f8b5f47	2.535165e-10
60	0x3021cbb4	5.886094e-10
61	0x3046cb83	7.232119e-10
62	0x30f435cc	1.7768627e-09
63	0x2e2cf3d8	3.932485e-11
64	0x2fab4767	3.1155453e-10
65	0x2ffc74a2	4.5921406e-10
66	0x30f65ac3	1.7924652e-09
67	0x2fa338f0	2.9689984e-10
68	0x303389e3	6.531577e-10
69	0x3071d8a3	8.798315e-10
70	0x30e7a6ac	1.6854833e-09
71	0x2de90faa	2.649599e-11
72	0x2fb0354e	3.205209e-10
73	0x3029c41f	6.1760547e-10
74	0x30e0e37f	1.6362803e-09
75	0x2fa37a4d	2.9736427e-10
76	0x30412dc6	7.027804e-10
77	0x30a25c1f	1.1813234e-09
78	0x30b5aa5c	1.3217902e-09
79	0x2e618276	5.127495e-11
80	0x2fccf790	3.7283288e-10
81	0x30956360	1.0869421e-09
82	0x309ee18b	1.1560116e-09
83	0x2f5a459a	1.9851712e-10
84	0x304e4415	7.5039114e-10
85	0x30d995a9	1.5831364e-09
86	0x30726ac4	8.819081e-10
87	0x2f0d1b94	1.2833673e-10
88	0x2ff53e18	4.460936e-10
89	0x3010249b	5.2438914e-10
90	0x319a5711	4.491888e-09
91	0x32acdb2a	2.01231e-08
92	0x2fdaecbf	3.9822187e-10
93	0x316b50d9	3.4242957e-09
94	0x31b81869	5.35788e-09
95	0x32a03516	1.8650592e-08
96	0x2f39a501	1.6884273e-10
97	0x317b4476	3.6564223e-09
98	0x318b3e3d	4.052508e-09
99	0x32b7cc16	2.1396811e-08
100	0x3032dc01	6.5068667e-10
101	0x316bbe37	3.4305125e-09
102	0x31df0b84	6.4914634e-09
103	0x3291bd71	1.696637e-08
104	0x30911acc	1.0557755e-09
105	0x31903958	4.197471e-09
106	0x31671c47	3.3630998e-09
107	0x32bd0ff0	2.2009743e-08
108	0x3085994f	9.720597e-10
109	0x316ff375	3.4917467e-09
110	0x3222494a	9.446305e-09
111	0x3276170f	1.43243275e-08
112	0x309e71d7	1.1528368e-09
113	0x31a7277f	4.86483e-09
114	0x3195692f	4.3484287e-09
115	0x32b9cee6	2.1630921e-08
116	0x306c870f	8.604823e-10
117	0x3171a816	3.5165661e-09
118	0x3297271f	1.7596504e-08
119	0x32171fcf	8.796589e-09
120	0x308e90d5	1.0373024e-09
121	0x31b7a923	5.3452296e-09
122	0x31dd8240	6.4467542e-09
123	0x32ad5447	2.0178176e-08
124	0x303356be	6.524309e-10
125	0x31800620	3.7259866e-09
126	0x32c857fc	2.3323075e-08
127	0x31910e29	4.2216652e-09
128	0x3020d66e	5.8512384e-10
129	0x31bfab4c	5.578306e-09
130	0x32324411	1.037644e-08
131	0x328fc5a0	1.673726e-08
132	0x300f1fdc	5.206837e-10
133	0x318e248a	4.136898e-09
134	0x31be80d8	5.5443756e-09
135	0x303a3925	6.7747613e-10
136	0x3163acd9	3.31311e-09
137	0x2eb7251d	8.328469e-11
138	0x2fec7e44	4.3017867e-10
139	0x303b01e9	6.803292e-10
140	0x3164eca8	3.331289e-09
141	0x2e0bc5c1	3.178058e-11
142	0x2ff08d97	4.375635e-10
143	0x30380126	6.694044e-10
144	0x31563b67	3.1174865e-09
145	0x2f22cc35	1.4806363e-10
146	0x3006867e	4.894004e-10
147	0x30545216	7.72418e-10
148	0x315bd427	3.198929e-09
149	0x2e0b1d4c	3.1630962e-11
150	0x300b2849	5.0625154e-10
151	0x305343d4	7.685774e-10
152	0x31474130	2.8995366e-09
153	0x2f84bc1a	2.4144314e-10
154	0x3017edcc	5.527141e-10
155	0x30836dd7	9.562723e-10
156	0x3147c45a	2.9069924e-09
157	0x2e54ddf0	4.840034e-11
158	0x3024d50b	5.9965605e-10
159	0x30943e86	1.0786187e-09
160	0x3129c0cb	2.4702327e-09
161	0x2fa1541f	2.93455e-10
162	0x3020053f	5.8215116e-10
163	0x30dbdad6	1.5996544e-09
164	0x3124a27d	2.3957505e-09
165	0x2e2972f7	3.852826e-11
166	0x3049061f	7.313207e-10
167	0x30fc5827	1.8360468e-09
168	0x3101911e	1.885446e-09
169	0x2f87fd7d	2.473647e-10
170	0x301e5da2	5.7613125e-10
171	0x311b18a8	2.2569484e-09
172	0x30d05a77	1.5159703e-09
173	0x2e559932	4.8566658e-11
174	0x307859ef	9.034968e-10
175	0x311f7152	2.320196e-09
176	0x30bbb11e	1.365638e-09
177	0x2f3e3924	1.73007e-10
178	0x301a99de	5.624353e-10
179	0x3032d37f	6.5056577e-10
180	0x32b3e936	2.0944395e-08
181	0x32864580	1.5631258e-08
182	0x3105abeb	1.9451771e-09
183	0x325a58ea	1.2709487e-08
184	0x32a19afa	1.8813342e-08
185	0x3276f8c3	1.43756465e-08
186	0x310bdcd2	2.0352684e-09
187	0x3285fc9c	1.5598111e-08
188	0x32aec695	2.034657e-08
189	0x328cb2b0	1.6379403e-08
190	0x313f627d	2.7850142e-09
191	0x32479132	1.1616338e-08
192	0x3259cbc0	1.267739e-08
193	0x32705505	1.398917e-08
194	0x321de3bc	9.190384e-09
195	0x32a0d2ab	1.8722252e-08
196	0x32a4ce7d	1.9186013e-08
197	0x328f756a	1.6700785e-08
198	0x316b1286	3.420753e-09
199	0x323b0206	1.0885293e-08
200	0x32653958	1.3342593e-08
201	0x32617192	1.3122547e-08
202	0x323778f6	1.0679505e-08
203	0x32a93aeb	1.9700982e-08
204	0x32a60f59	1.9331923e-08
205	0x328a0475	1.6067341e-08
206	0x3152f2b2	3.0696978e-09
207	0x3234d908	1.0526726e-08
208	0x32b426ec	2.0972458e-08
209	0x3209a32a	8.011549e-09
210	0x3229551e	9.856448e-09
211	0x32a93d99	1.97022e-08
212	0x32b95340	2.1574692e-08
213	0x3280b31a	1.4982607e-08
214	0x3141d7ec	2.8207934e-09
215	0x3238f94e	1.0766895e-08
216	0x32f69527	2.8705996e-08
217	0x318b53ae	4.0549457e-09
218	0x31ab57fa	4.986757e-09
219	0x3295ff53	1.7461991e-08
220	0x32cfa120	2.4171243e-08
221	0x3254b209	1.2380505e-08
222	0x3106e4dd	1.962966e-09
223	0x32432e42	1.1361012e-08
224	0x32754c67	1.4278249e-08
225	0x31f69628	7.176613e-09
226	0x331135e6	3.3809464e-08
227	0x30b26bb5	1.2981817e-09
228	0x31fae43a	7.301904e-09
229	0x31f59987	7.1478925e-09
230	0x330d684a	3.292397e-08
231	0x30b1ad5a	1.2927714e-09
232	0x320f0828	8.32555e-09
233	0x32056ee6	7.766834e-09
234	0x330f01a2	3.3296267e-08
235	0x30b8acb6	1.3436849e-09
236	0x31f12ce5	7.019127e-09
237	0x3212a16f	8.535024e-09
238	0x32fba3a8	2.9294668e-08
239	0x3116645b	2.1884918e-09
240	0x3228fc00	9.836185e-09
241	0x3233b2a1	1.0459787e-08
242	0x33032afd	3.0539912e-08
243	0x30fe0639	1.8482701e-09
244	0x31e911f4	6.7832335e-09
245	0x3286c50c	1.568926e-08
246	0x32ae99db	2.0326231e-08
247	0x31409c88	2.8028655e-09
248	0x323e430a	1.10746985e-08
249	0x3288598d	1.5873207e-08
250	0x32d6d78c	2.5010898e-08
251	0x30d04129	1.5152511e-09
252	0x31df00d0	6.4902466e-09
253	0x32e92cfe	2.714523e-08
254	0x325962ed	1.26535555e-08
255	0x3118a600	2.2213271e-09
