results/OvalTrack-Apr-21-9-40am/MoveSomewhere/MoveSomewhere-4999971.onnx (onnx, 638066 bytes, 11 tensors)

action_model._discrete_distribution.branches.0.bias f4 [3]
0.022865597 -0.01440005 -0.032594685
00000000: a250 bb3c 30ee 6bbc 0182 05bd

action_model._discrete_distribution.branches.0.weight f4 [3, 256]
-0.0015013259 -0.0701 -0.037476357 -0.01807286 -0.019313563 0.041001964 -0.07374304 -0.05901662
-0.22450586 -0.07106138 -0.0615799 -0.060407154 -0.0024001277 -0.118163705 0.073354706 -0.057568584
-0.003447409 -0.10764247 0.022547062 -0.077193186 -0.07397319 -0.0797415 -0.025878271 -0.016542716
0.01647184 -0.07301896 -0.048954964 -0.078912914 0.017194219 0.10804666 -0.1299435 -0.085263595
-0.07033985 0.016513444 -0.08152702 0.00433853 -0.11569382 -0.1374774 -0.0112547055 -0.12974021
0.11495343 -0.041608356 0.035086576 -0.04448059 0.025916487 -0.10978976 0.083986335 -0.005227686
-0.07963051 -0.0026862924 -0.14814325 -0.0378629 -0.02965793 0.008421692 0.12712233 0.009480901
-0.02699344 -0.0393651 -0.20963609 -0.02898202 -0.054376494 -0.004835746 0.060219377 -0.014009164
-0.0109053645 0.02204364 -0.0937236 -0.03166342 -0.11616184 -0.023398943 -0.050728247 -0.042990483
0.002811498 0.03749956 -0.12178313 0.08550002 -0.01118865 -0.14033478 0.032081075 0.027920535
-0.019821405 -0.08132138 0.044825062 0.008604235 -0.037292752 -0.03902902 -0.05989436 -0.051049456
0.017686578 -0.051162794 0.06420666 -0.02160122 -0.0016581157 -0.13022074 0.00343601 -0.09954902
0.029935824 -0.12116993 0.014026854 -0.11949977 -0.18756023 -0.045082152 -0.09340144 -0.07306073
-0.030244483 0.00044142737 -0.007821303 -0.0061472077 -0.08532357 0.026718779 0.0070566996 -0.0067506935
-0.059826404 -0.112112485 -0.02483061 -0.0039563957 -0.030050045 0.12204252 0.026552726 -0.0100407945
-0.02304727 0.03570921 -0.13302262 0.023956742 -0.006438082 -0.013731931 0.18602103 -0.038068622
-0.024890669 -0.008256321 0.12546849 0.018293647 -0.04586543 0.0015963361 -0.0725424 -0.17774941
-0.016319443 -0.22691728 -0.04948842 -0.085412085 0.11535798 -0.09671661 -0.1471924 -0.010859157
0.074425064 0.034487776 -0.084987074 -0.03546291 0.02133942 -0.11739797 -0.0044705677 -0.018492104
-0.060698565 -0.2127404 -0.018302735 -0.04964986 0.06345292 -0.12090892 0.06186614 0.036838215
-0.18940414 0.045359693 -0.016615322 -0.06984303 -0.07464273 -0.011393421 -0.0493074 -0.04719602
-0.0020881763 0.004305718 -0.02578902 0.059977412 -0.006370126 0.026642073 0.07965636 0.0069143935
-0.054466896 -0.15786383 -0.045668997 -0.06683529 -0.007865828 0.0123911295 0.017574433 0.1140489
-0.080070004 0.044598427 0.012821727 -0.10517587 -0.11561256 -0.07397086 -0.077822365 0.18047728
-0.20284946 -0.08911018 -0.0076957806 0.014946368 -0.11058612 0.045258336 -0.06818315 0.09672006
-0.19160818 -0.010560222 -0.03203554 0.21307962 -0.028945241 0.023359269 0.05833345 0.029700756
-0.17460112 -0.029865943 0.00076818466 0.03760873 -0.010072801 -0.027894394 0.008034224 0.07512975
-0.095833175 -0.04642658 0.05707947 0.011917317 -0.050999355 -0.089667425 -0.05405476 -0.07827558
0.0021815214 0.08028146 0.018891582 -0.05006486 -0.15803541 -0.121048935 -0.1385944 -0.08311634
-0.089357875 -0.0055301874 -0.05570256 -0.03482118 0.050710008 -0.018744363 -0.118965074 0.008382972
-0.051964898 0.009465373 0.044657025 0.060595077 -0.07693861 -0.055594485 -0.09692665 0.072360225
0.09409595 0.030986138 -0.022770327 -0.063449256 -0.19231388 -0.14274937 0.017531972 -0.06914716
00000000: 23c8 c4ba 9790 8fbd cf80 19bd 890d 94bc
00000010: 7a37 9ebc adf1 273d 9706 97bd 69bb 71bd
00000020: dde4 65be a188 91bd 353b 7cbd 7e6d 77bd
00000030: 764b 1dbb d0ff f1bd fe3a 963d 09cd 6bbd
00000040: eded 61bb a873 dcbd 9eb4 b83c 7617 9ebd
00000050: 417f 97bd 834f a3bd abfe d3bc 9784 87bc
00000060: f4ef 863c f78a 95bd 0085 48bd 189d a1bd
00000070: e4da 8c3c 9147 dd3d e90f 05be ae9e aebd
00000080: 570e 90bd 3447 873c a3f7 a6bd 3a2a 8e3b
00000090: e2f0 ecbd e0c6 0cbe a865 38bc 9eda 04be
000000a0: b46c eb3d 866d 2abd f1b6 0f3d 4731 36bd
000000b0: d04e d43c 74d9 e0bd 0701 ac3d 024d abbb
000000c0: 5215 a3bd 820c 30bb ddb2 17be 2116 1bbd
000000d0: 30f5 f2bc 23fb 093c 5b2c 023e c855 1b3c
000000e0: 5921 ddbc 4d3d 21bd d8aa 56be b46b edbc
000000f0: e3b9 5ebd 2d75 9ebb 98a8 763d b186 65bc
00000100: 6aac 32bc dd94 b43c 29f2 bfbd 81b1 01bd
00000110: 42e6 edbd 24af bfbc 6cc8 4fbd ca16 30bd
00000120: 1c41 383b 2399 193d 6f69 f9bd a21a af3d
00000130: 9950 37bc ecb3 0fbe 7267 033d 9bb9 e43c
00000140: 8060 a2bc d38b a6bd 7c9a 373d c7f8 0c3c
00000150: 49c0 18bd e5dc 1fbd ca53 75bd 3c19 51bd
00000160: 71e3 903c 1490 51bd c87e 833d 0bf5 b0bc
00000170: 2155 d9ba 9658 05be af2e 613b 5be0 cbbd
00000180: f93b f53c f127 f8bd e4d0 653c 4cbc f4bd
00000190: ca0f 40be 10a8 38bd 4149 bfbd dda0 95bd
000001a0: 47c3 f7bc 616f e739 ec24 00bc 846e c9bb
000001b0: 20be aebd 57e1 da3c e33b e73b ec34 ddbb
000001c0: 880c 75bd 3b9b e5bd 9069 cbbc a7a4 81bb
000001d0: 832b f6bc 6ef1 f93d 1a85 d93c 2582 24bc
000001e0: a1cd bcbc d243 123d 1537 08be ee40 c43c
000001f0: 8cf6 d2bb e5fb 60bc 4c7c 3e3e d8ed 1bbd
00000200: 84e7 cbbc 8545 07bc d07a 003e 8fdc 953c
00000210: 64dd 3bbd 273c d13a 1c91 94bd f103 36be
00000220: 5ab0 85bc 015d 68be 5fb4 4abd 88ec aebd
00000230: ce40 ec3d 5c13 c6bd 9bb9 16be 9bea 31bc
00000240: 2b6c 983d 0e43 0d3d b40d aebd 8e41 11bd
00000250: 02d0 ae3c 596e f0bd d77d 92bb c17c 97bc
00000260: 0f9f 78bd 9fd8 59be 9eef 95bc a75d 4bbd
00000270: 9bf3 813d 199f f7bd 5a67 7d3d abe3 163d
00000280: 29f3 41be 16cb 393d db1c 88bc dd09 8fbd
00000290: 4ade 98bd 79ab 3abc 8ef6 49bd 9d50 41bd
000002a0: c9d9 08bb fb16 8d3b 7f43 d3bc e0aa 753d
000002b0: 7dbc d0bb 7a40 da3c e022 a33d 2392 e23b
000002c0: ae18 5fbd 0ea7 21be 6a0f 3bbd f1e0 88bd
000002d0: addf 00bc 2a04 4b3c 42f8 8f3c 7892 e93d
000002e0: befb a3bd d7ac 363d 3912 523c 7266 d7bd
000002f0: 47c6 ecbd 097e 97bd 5561 9fbd 09cf 383e
00000300: c5b7 4fbe 667f b6bd e32c fcbb 9ce1 743c
00000310: fa7a e2bd ce60 393d 9ba3 8bbd 2b15 c63d
00000320: ef34 44be c804 2dbc b337 03bd 8b31 5a3e
00000330: 921e edbc f05b bf3c 0eef 6e3d 004f f33c
00000340: a3ca 32be 6ca9 f4bc 0060 493a 9d0b 1a3d
00000350: 6408 25bc c982 e4bc faa1 033c a0dd 993d
00000360: 2f44 c4bd cc29 3ebd 2acc 693d da40 433c
00000370: b3e4 50bd 8ea3 b7bd 8668 5dbd f34e a0bd
00000380: dbf7 0e3b 9b6a a43d 85c2 9a3c d010 4dbd
00000390: 09d4 21be 81e8 f7bd b1eb 0dbe e638 aabd
000003a0: 4301 b7bd 9336 b5bb 5e28 64bd a7a0 0ebd
000003b0: 4cb5 4f3d c78d 99bc f6a3 f3bd bc58 093c
000003c0: 25d9 54bd a714 1b3c 49ea 363d 8b32 783d
000003d0: fd91 9dbd 0bb7 63bd 7b81 c6bd 9931 943d
000003e0: 61b5 c03d a4d6 fd3c d688 babc aff1 81bd
000003f0: eeed 44be e42c 12be 369f 8f3c 079d 8dbd

action_model._discrete_distribution.branches.1.bias f4 [3]
-0.09365886 -0.051035065 0.12888849
00000000: 37d0 bfbd 250a 51bd 58fb 033e

action_model._discrete_distribution.branches.1.weight f4 [3, 256]
0.00833581 0.007711 0.11351613 0.011490147 0.045959625 0.009715624 -0.02905723 0.06114063
-0.07460736 -0.09207655 0.054161455 -0.122030266 0.034931045 -0.21050946 0.032618046 0.069480136
0.046968695 -0.1642554 0.054157417 0.0015365114 -0.07367254 -0.05482852 0.09046608 0.072815694
-0.026201695 -0.05127228 -0.062986925 -0.09350297 0.009062757 0.010173309 0.10033493 0.09464188
9.564189e-05 -0.007185113 -0.012151846 -0.014109214 0.07780692 0.09121072 -0.0007759218 -0.10202852
-0.046098113 -0.055956356 0.06277223 0.21555914 0.034296002 -0.0053234696 0.032501403 0.050807375
-0.08714393 0.030045804 0.049968358 0.03418042 -0.095160514 -0.05034655 0.04582183 0.060043078
0.009775799 0.13830455 -0.054467645 0.07333791 -0.11591744 0.028697297 -0.09614522 0.04527154
-0.1582373 0.00930124 0.012523762 -0.037552282 -0.12911859 -0.03915747 0.023714395 0.07266817
-0.009665306 -0.04081373 -0.011115222 -0.088215575 -0.01897482 -0.13311438 0.045831226 0.013318501
-0.04294615 0.07829586 0.06965262 -0.04011914 0.06253676 0.013259653 -0.021082517 -0.098811485
-0.049427483 0.06901553 0.06181841 0.079437636 -0.104005486 0.05519317 0.033076365 -0.057220355
0.05194967 -0.13632947 0.011552343 -0.00048175128 0.0023233262 -0.068276644 -0.088856265 -0.033164132
-0.018253602 -0.016972886 -0.17876802 0.02588798 0.039480448 0.0075714183 0.058649838 0.029093532
0.079361625 -0.12887996 0.06364808 0.0689742 0.0011508359 0.032184172 -0.01034332 -0.02920876
0.0100426795 0.09343071 -0.060187414 -0.11920401 -0.057290465 0.029406346 0.008243617 -0.021963317
0.024655983 0.0924206 0.05060762 0.038844716 -0.035962988 0.016322806 -0.018195912 -0.13051869
-0.02116285 -0.05680723 -0.03965157 0.12874478 0.0036523952 0.016538363 0.056113966 -0.08884278
0.039425038 0.016337724 -0.07337934 0.009021486 0.043049697 0.08389382 -0.017197587 0.02518246
-0.026110495 -0.00047023568 -0.09358702 -0.1639388 0.022043828 0.1050508 -0.021043176 -0.11598839
-0.019188385 -0.055208452 -0.20370029 0.20787857 0.020922368 -0.013817955 -0.039033305 0.0821707
0.07434181 0.0021269517 -0.060857452 0.025929626 0.064076714 0.19471392 -0.13389513 0.03521478
0.054275416 -0.11425401 0.06600784 0.02706581 0.0173051 0.004198854 0.15577705 -0.043775484
0.044387896 0.026766626 -0.06490733 0.028559312 -0.028742671 0.042326245 -0.10222001 0.03217257
-0.19744214 -0.18724477 -0.027388541 0.0140445065 0.044346273 -0.05232934 0.12588014 0.15340167
-0.042572424 0.01018188 -0.010066052 0.08202865 0.0077806483 -0.01734691 0.07539876 -0.014020139
-0.14491013 -0.06247005 0.060685206 0.012787022 -0.0014986467 0.01658552 0.014463665 0.03979698
-0.033802703 0.021869479 0.028693762 0.0119136525 0.035214595 -0.124609366 0.11583566 0.12562361
0.03349231 0.08716185 -0.013317474 -0.050678585 -0.10938492 -0.092054166 -0.033579793 0.053918682
0.0921609 -0.06826819 0.09121943 -0.011999637 -0.024527987 0.049446896 -0.0940908 0.095626116
-0.099106066 0.081966035 -0.010726729 0.027417164 0.07073285 0.092864305 0.05427614 0.06636813
0.112265885 -0.007836844 0.11414133 -0.006674791 -0.08758719 0.007535464 0.07626243 -0.03836563
00000000: ec92 083c 8eac fc3b 257b e83d 2b41 3c3c
00000010: 2940 3c3d 482e 1f3c 6e09 eebc 996e 7a3d
00000020: becb 98bd a192 bcbd 67d8 5d3d 01eb f9bd
00000030: db13 0f3d cb8f 57be 809a 053d 9a4b 8e3d
00000040: 3f62 403d 9132 28be 2bd4 5d3d c464 c93a
00000050: a1e1 96bd df93 60bd 4846 b93d 6520 953d
00000060: f0a4 d6bc e202 52bd 4aff 80bd 7c7e bfbd
00000070: f57b 143c f3ad 263c 667c cd3d 9ad3 c13d
00000080: 5993 c838 1971 ebbb 8918 47bc 552a 67bc
00000090: 3c59 9f3d b0cc ba3d 3b67 4bba 54f4 d0bd
000000a0: 60d1 3cbd 7e32 65bd ba8e 803d 89bb 5c3e
000000b0: f779 0c3d 8070 aebb 3120 053d 651b 503d
000000c0: 8478 b2bd 9e22 f63c 9fab 4c3d c500 0c3d
000000d0: 84e3 c2bd 2f38 4ebd acaf 3b3d bbef 753d
000000e0: ac2a 203c b59f 0d3e 7719 5fbd 3032 963d
000000f0: 1f66 edbd 9816 eb3c c9e7 c4bd a66e 393d
00000100: f508 22be 3a64 183c 7730 4d3c 6cd0 19bd
00000110: aa37 04be 9563 20bd b144 c23c 0dd3 943d
00000120: 3b5b 1ebc 4c2c 27bd 9f1c 36bc 5eaa b4bd
00000130: 1571 9bbc 234f 08be 86b9 3b3d d835 5a3c
00000140: 4de8 2fbd 9459 a03d 08a6 8e3d f853 24bd
00000150: 4613 803d 043f 593c 3eb5 acbc ad5d cabd
00000160: 7974 4abd 0458 8d3d 4d35 7d3d 33b0 a23d
00000170: d400 d5bd 3c12 623d 157b 073d e45f 6abd
00000180: 2dc9 543d f499 0bbe 0a46 3d3c 9093 fcb9
00000190: f242 183b a0d4 8bbd 46fa b5bd 1dd7 07bd
000001a0: 9488 95bc b90a 8bbc f70e 37be 0713 d43c
000001b0: 40b6 213d a919 f83b d03a 703d 8f55 ee3c
000001c0: 5988 a23d 1cf9 03be ed59 823d 5842 8d3d
000001d0: a5d7 963a 8dd3 033d 0777 29bc 3647 efbc
000001e0: 0d8a 243c 9a58 bf3d 1487 76bd 3b21 f4bd
000001f0: 68a9 6abd 94e5 f03c 3c10 073c 6aec b3bc
00000200: 58fb c93c 0347 bd3d f049 4f3d a31b 1f3d
00000210: ed4d 13bd 68b7 853c 980f 95bc b1a6 05be
00000220: b75d adbc b3ae 68bd af69 22bd acd5 033e
00000230: 065d 6f3b 767b 873c c2d7 653d 34f3 b5bd
00000240: 267c 213d b1d6 853c e847 96bd dbce 133c
00000250: e154 303d 86d0 ab3d f4e1 8cbc 724b ce3c
00000260: ade5 d5bc f789 f6b9 8daa bfbd 93df 27be
00000270: 4295 b43c e024 d73d bd62 acbc 528b edbd
00000280: f630 9dbc 4222 62bd cf96 50be 1fde 543e
00000290: 6365 ab3c b464 62bc 63e1 1fbd 1d49 a83d
000002a0: 8540 983d 5464 0b3b aa45 79bd 5e6a d43c
000002b0: a73a 833d 1663 473e ce1b 09be 603d 103d
000002c0: e64f 5e3d 02fe e9bd 1e2f 873d 1eb9 dd3c
000002d0: 6dc3 8d3c 8a96 893b 0584 1f3e ec4d 33bd
000002e0: 15d0 353d af45 db3c 22ee 84bd 38f5 e93c
000002f0: c075 ebbc 495e 2d3d b958 d1bd 62c7 033d
00000300: 462e 4abe 18bd 3fbe ef5d e0bc ee1a 663c
00000310: 70a4 353d 4a57 56bd b9e6 003e 5415 1d3e
00000320: 6c60 2ebd e6d1 263c 15ec 24bc a3fe a73d
00000330: cff4 fe3b 1b1b 8ebc aa6a 9a3d bab4 65bc
00000340: 5263 14be 98e0 7fbd 0d91 783d a880 513c
00000350: 3d6e c4ba 5bde 873c 02f9 6c3c 2802 233d
00000360: b474 0abd 9f27 b33c 2e0f eb3c 7b31 433c
00000370: 2e3d 103d 3233 ffbd 3f3b ed3d 7aa3 003e
00000380: 3c2f 093d e981 b23d 8931 5abc 5994 4fbd
00000390: 3305 e0bd e586 bcbd f78a 09bd d6d9 5c3d
000003a0: dbbe bc3d 31d0 8bbd 41d1 ba3d 209a 44bc
000003b0: ebee c8bc d488 4a3d adb2 c0bd a0d7 c33d
000003c0: 1ff8 cabd cfdd a73d 2abf 2fbc f699 e03c
000003d0: 62dc 903d a42f be3d a850 5e3d 04ec 873d
000003e0: a8eb e53d 1b66 00bc eec2 e93d 35b8 dabb
000003f0: ea60 b3bd 0eec f63b 7a2f 9c3d 4725 1dbd

discrete_action_output_shape f4 [1, 2]
3.0 3.0
00000000: 0000 4040 0000 4040

network_body._body_endoder.seq_layers.0.bias f4 [256]
0.019511592 0.06395231 0.12814948 -0.100802615 -0.11512667 -0.101061806 0.026480814 -0.058250632
-0.12722751 -0.08335001 -0.1440313 -0.19414519 0.025767777 0.03967646 -0.08327241 -0.36593097
-0.073132224 0.22634964 -0.06899491 -0.08726405 -0.008857754 -0.03318111 -0.11184731 -0.0043722587
-0.09949888 -0.06546174 -0.07549576 -0.14738481 0.03225155 -0.041704804 0.195039 0.03565169
-0.050992962 0.013448029 -0.01332271 -0.026202012 -0.021091742 -0.084133945 -0.053110328 -0.02762428
-0.07014881 -0.09524161 0.011274194 -0.06590573 -0.0124570085 -0.14288107 -0.056161504 -0.12492955
-0.05324183 -0.0845491 -0.12463826 -0.034254406 0.029057277 -0.016444433 -0.09387341 -0.047797214
0.018590536 -0.012216535 -0.11063056 -0.06446856 -0.08989854 -0.026653346 -0.012457014 -0.09332605
0.020509357 0.04464516 0.0021801724 -0.20113322 -0.10852709 -0.21548401 -0.1011066 -0.033140723
-0.030733196 -0.045670584 -0.09433585 -0.015142003 -0.12453311 -0.1283868 -0.13530485 -0.08646103
0.05748371 -0.011138366 0.03086936 -0.18318754 -0.095558174 -0.09777683 -0.039177164 -0.04514674
-0.08909645 0.08265053 -0.10906861 0.14213438 0.022060838 -0.06531832 -0.030536024 -0.120400876
-0.12647527 -0.11191392 0.07193615 -0.18661995 -0.12939648 -0.028683215 -0.019774146 -0.07339431
-0.079430304 -0.044705056 -0.08412212 -0.020959025 0.043437216 -0.048242815 -0.096802644 -0.19449101
0.2505899 0.022685215 -0.034827616 -0.09593651 -0.026251167 -0.26463115 -0.05796647 -0.035458732
-0.119804196 -0.018570254 -0.041417 -0.07049442 -0.06382318 -0.11695263 -0.0031173686 0.054490387
-0.097350076 -0.02260381 -0.09434327 -0.033304933 -0.032584317 -0.089431025 -0.12846969 0.016271636
-0.09543505 -0.07897617 -0.1528616 -0.114745475 -0.1377725 -0.2544619 -0.08453904 -0.11463567
-0.087578475 -0.0825573 -0.11040529 -0.15981668 0.018131603 -0.12553832 0.026581416 -0.08005962
-0.119957745 0.10625108 -0.13695443 -0.0645608 -0.003576682 -0.020992523 -0.005924852 -0.07202906
-0.042246234 -0.031743243 0.11077646 -0.043436132 -0.12313776 -0.090117574 -0.024996683 0.012643082
0.028929848 -0.026393307 -0.021585273 -0.07003927 -0.08908509 -0.046949383 -0.08712443 -0.13611503
-0.09708145 -0.090490535 -0.07050952 -0.08606102 0.028745867 -0.09797707 -0.09168326 -0.06682447
-0.054239374 0.07884156 -0.009956072 -0.20660916 0.024094736 -0.10514722 -0.04021284 0.0009561966
-0.056599163 0.15659273 -0.10048024 0.048427247 -0.059553087 -0.2434021 -0.016820947 -0.034642182
0.0035669517 -0.0057930565 0.0963723 -0.17065364 -0.033963755 0.04221781 -0.11218848 -0.063904926
-0.009865229 0.013889428 -0.07181445 -0.07170794 -0.054343082 0.02515721 -0.13325764 -0.19018832
0.057762455 -0.16148281 -0.030238664 -0.07564795 -0.10727634 -0.027648147 0.08839153 0.076613344
-0.034709223 -0.088215694 0.10397788 -0.024358248 -0.025597466 -0.026032459 -0.068765216 -0.09133715
-0.06116502 -0.113719225 -0.12264571 -0.05567221 -0.047497522 0.027363585 -0.09864302 0.0015932415
0.009441849 -0.13219571 -0.04768821 -0.062039036 -0.089822195 -0.07321032 -0.04415455 0.09583431
-0.22226775 -0.10708269 -0.12347538 0.0558855 0.022424165 -0.0143269 0.0028379261 -0.061084144
00000000: c6d6 9f3c 6ef9 823d 9e39 033e 9a71 cebd
00000010: 88c7 ebbd 7ef9 cebd 4bee d83c 3798 6ebd
00000020: ee47 02be 69b3 aabd f17c 13be ffcd 46be
00000030: f216 d33c c983 223d ba8a aabd 4e5b bbbe
00000040: 59c6 95bd 33c8 673e 344d 8dbd 7fb7 b2bd
00000050: 1d20 11bc eae8 07bd 3410 e5bd 2a45 8fbb
00000060: 12c6 cbbd ce10 86bd 859d 9abd 0bec 16be
00000070: 341a 043d a8d2 2abd 4eb8 473e 8207 123d
00000080: ffdd 50bd 1f55 5c3c 7f47 5abc 9aa5 d6bc
00000090: 97c8 acbc 6b4e acbd 378a 59bd 504c e2bc
000000a0: 2eaa 8fbd 090e c3bd 66b7 383c 95f9 86bd
000000b0: 7b18 4cbc 6a4f 12be 9b09 66bd 10db ffbd
000000c0: 1b14 5abd 1428 adbd 5842 ffbd 594e 0cbd
000000d0: 8709 ee3c 7ab6 86bc b440 c0bd 03c7 43bd
000000e0: 2e4b 983c dd27 48bc 4692 e2bd 1808 84bd
000000f0: ba1c b8bd 1e58 dabc 8118 4cbc ba21 bfbd
00000100: 3d03 a83c d8dd 363d 39e1 0e3b def5 4dbe
00000110: 7343 debd d7a7 5cbe fa10 cfbd 91be 07bd
00000120: 2fc4 fbbc 1411 3bbd 2733 c1bd 2a16 78bc
00000130: 370b ffbd d477 03be 5b8d 0abe 7b12 b1bd
00000140: 0a74 6b3d b17d 36bc bde1 fc3c 8495 3bbe
00000150: 01b4 c3bd 383f c8bd 3c78 20bd caeb 38bd
00000160: 3378 b6bd ae44 a93d 5d5f dfbd ad8b 113e
00000170: eeb8 b43c 9dc5 85bd af26 fabc bc94 f6bd
00000180: bc82 01be 2033 e5bd 4353 933d 4d19 3fbe
00000190: 8380 04be 10f9 eabc 64fd a1bc c24f 96bd
000001a0: 5bac a2bd a61c 37bd 3848 acbd 43b2 abbc
000001b0: 39eb 313d 429a 45bd 7740 c6bd a728 47be
000001c0: 524d 803e 58d6 b93c 67a7 0ebd 5c7a c4bd
000001d0: b00c d7bc bc7d 87be 406e 6dbd 2d3d 11bd
000001e0: e75b f5bd a520 98bc dfa4 29bd 615f 90bd
000001f0: bab5 82bd dc84 efbd c44c 4cbb 5031 5f3d
00000200: 7a5f c7bd a02b b9bc 0b37 c1bd c16a 08bd
00000210: 2277 05bd 9d27 b7bd 8f8d 03be 184c 853c
00000220: 7473 c3bd 42be a1bd c087 1cbe adff eabd
00000230: 3c14 0dbe d548 82be ce22 adbd 1bc6 eabd
00000240: 585c b3bd cd13 a9bd 2b1c e2bd fca6 23be
00000250: ba88 943c 1e8d 00be 45c1 d93c 4cf6 a3bd
00000260: 68ac f5bd 2b9a d93d c83d 0cbe 7438 84bd
00000270: c466 6abb 83f8 abbc 4325 c2bb f983 93bd
00000280: 630a 2dbd 3405 02bd c5de e23d 16ea 31bd
00000290: a62f fcbd 908f b8bd d8c5 ccbc ee24 4f3c
000002a0: 4afe ec3c c736 d8bc 99d3 b0bc c070 8fbd
000002b0: 3e72 b6bd ff4d 40bd 4b6e b2bd bd61 0bbe
000002c0: a4d2 c6bd 1a53 b9bd 4c67 90bd c340 b0bd
000002d0: 747c eb3c 34a8 c8bd 6fc4 bbbd 45db 88bd
000002e0: 1b2a 5ebd af77 a13d cb1e 23bc 5a91 53be
000002f0: 5362 c53c 6d57 d7bd 38b6 24bd 45a9 7a3a
00000300: 86d4 67bd d859 203e 96c8 cdbd a65b 463d
00000310: f0ed 73bd 663e 79be 15cc 89bc f6e4 0dbd
00000320: 85c3 693b aed3 bdbb d75e c53d d4bf 2ebe
00000330: 941d 0bbd 95ec 2c3d 13c3 e5bd 96e0 82bd
00000340: c5a1 21bc 7c90 633c 7413 93bd 9ddb 92bd
00000350: da96 5ebd 7e16 ce3c b174 08be bac0 42be
00000360: 5398 6c3d c05b 25be 13b7 f7bc 50ed 9abd
00000370: b3b3 dbbd 5e7e e2bc 9e06 b53d 75e7 9c3d
00000380: 422b 0ebd 6eaa b4bd 5bf2 d43d f38a c7bc
00000390: c7b1 d1bc 0642 d5bc c7d4 8cbd f90e bbbd
000003a0: 2c88 7abd a0e5 e8bd ad2d fbbd 8b08 64bd
000003b0: c38c 42bd 9929 e03c 5a05 cabd 50d4 d03a
000003c0: fcb1 1a3c 505e 07be b654 43bd a51c 7ebd
000003d0: b3f4 b7bd 4bef 95bd 67db 34bd c744 c43d
000003e0: 289a 63be 2b4e dbbd a9e0 fcbd 32e8 643d
000003f0: e2b2 b73c 60bb 6abc 80fc 393b 5e33 7abd

network_body._body_endoder.seq_layers.0.weight f4 [256, 99]
-1.4033307 0.089293785 0.67971736 0.11709552 0.976086 -0.8525858 0.043105472 0.59903014
-0.15752469 1.4050127 -0.6191085 0.3330396 0.4298101 0.46346638 0.7114473 -0.310083
-0.055553883 0.3109566 -0.11751071 0.8387905 0.09645056 0.22723684 -0.11060424 0.15602423
0.5932563 -0.052280355 -0.135111 0.37481445 0.061969828 0.44028023 0.63346535 -0.2741969
-0.10256885 -0.014652348 0.5863446 -0.16613321 -0.15049136 0.17284824 0.14843045 0.31227547
0.34531358 -0.35919288 -0.36886814 -0.17812712 0.45688164 -0.15236773 0.30467704 0.7028365
-0.28772828 0.24642499 0.48146123 -0.57430136 -0.30746344 -0.011913888 0.818495 -0.0366522
-0.05601246 0.58097565 -0.115957886 0.099226296 0.17393726 0.13392992 -0.6991813 0.0034948133
0.7855982 -0.006031511 -0.2721601 0.5207085 0.09717223 0.13792603 0.1888822 0.26003346
-0.56909394 -0.2263484 0.24579634 0.25558895 -0.42233896 0.14286628 0.06020099 0.36081326
0.16996285 0.2807825 -0.4706855 -0.031672213 0.060215544 0.1780385 -0.2054116 0.3731295
-0.06849306 0.251937 0.041163895 -0.1329448 -0.12449418 -0.053033013 0.19299835 -0.12339057
0.051766373 -0.13962999 0.18602942 0.21378782 -0.27779457 0.17082636 0.31797975 0.08695525
0.25939843 -0.550099 -0.015025851 -0.25098646 -0.24011895 -0.21568389 -0.29176196 0.3941769
0.19925559 0.18915033 0.12341562 -0.27117682 -0.055503078 -0.03127164 0.03048223 -0.63164765
-0.35419753 0.6472608 -0.116749495 0.23197255 0.107373156 0.10232573 -0.30098292 0.12989184
-0.12647143 -0.35697836 -0.093338974 0.30145717 -0.08084609 0.1041366 0.15833455 -0.2831135
-0.06689356 -0.13175961 -0.08148373 -0.060847796 -0.03959302 0.020400092 0.04912567 -0.1244701
0.14694254 -0.10904255 -0.024867104 -0.08249369 0.028221758 -0.012397962 -0.06716704 0.052652076
0.03772126 0.03504805 0.05302385 -0.081649646 0.10722488 0.2404613 -0.014076326 -0.26989555
-0.1696541 0.2884403 -0.068674736 -0.0695091 0.19320145 -0.24861771 -0.09688877 -0.017791517
0.13906804 0.45037615 -0.28879514 0.047862463 0.07256212 -0.13390562 0.102933615 -0.49527788
-0.07686581 0.016080132 -0.04571327 -0.050137624 0.26056275 0.18536913 0.04071891 0.097149536
0.0667748 -0.20335163 0.058842234 0.004871504 0.012610231 0.29994157 -0.10461009 0.16383263
0.020196328 -0.14411871 0.057253048 -0.21720278 -0.047676213 -0.0064866985 0.20828389 0.0284827
0.010853585 0.47552222 0.21198913 0.107727095 -0.119644195 0.25455865 0.23952141 0.05931008
-0.032062553 -0.19449921 0.05030942 0.5128671 0.22656989 0.19207141 -0.43146852 0.08508254
-0.093703285 0.015502466 -0.09567689 -0.04080859 0.29929835 0.064449124 0.1516421 0.044319797
-0.12672606 0.13698971 -0.34385946 0.17469849 -0.017543899 -0.03620533 -0.11868271 0.05819069
0.043676205 -0.014407067 0.15006554 0.2384914 -0.092021465 0.11874506 0.16580051 -0.038203213
0.13715264 -0.065487966 0.23798922 -0.0027058758 0.1893416 0.19663535 0.07102763 0.11461371
0.24637075 -0.011795214 -0.09180163 -0.06423263 0.16366526 0.06113058 0.1034901 -0.023708206
00000000: 57a0 b3bf a9df b63d f501 2e3f c7cf ef3d
00000010: c6e0 793f 1043 5abf 5d8f 303d 0a5a 193f
00000020: 274e 21be 75d7 b33f e57d 1ebf 2b84 aa3e
00000030: 1210 dc3e 774b ed3e 6921 363f 33c3 9ebe
00000040: 788c 63bd b435 9f3e 75a9 f0bd f9ba 563f
00000050: df87 c53d c6b0 683e 7a84 e2bd d1c4 1f3e
00000060: a5df 173f ed23 56bd 8a5a 0abe aee7 bf3e
00000070: 13d4 7d3d 696c e13e c92a 223f 8963 8cbe
00000080: 9e0f d2bd 6710 70bc ae1a 163f d31e 2abe
00000090: 681a 1abe 21ff 303e 27fe 173e 92e2 9f3e
000000a0: f1cc b03e 21e8 b7be 49dc bcbe f566 36be
000000b0: 64ec e93e 4906 1cbe a1fe 9b3e 18ed 333f
000000c0: 1f51 93be d556 7c3e 1682 f63e 6a05 13bf
000000d0: d96b 9dbe 7832 43bc e388 513f 9e20 16bd
000000e0: 526d 65bd d2ba 143f 547b edbd 2837 cb3d
000000f0: 9c1c 323e ed24 093e 8cfd 32bf 3d09 653b
00000100: f71c 493f fba3 c5bb 9258 8bbe 274d 053f
00000110: 3c02 c73d 7b3c 0d3e 566a 413e 1b23 853e
00000120: 24b0 11bf e0c7 67be 09b2 7b3e 8edc 823e
00000130: d03c d8be 8a4b 123e 5095 763d 84bc b83e
00000140: be0a 2e3e b9c2 8f3e b1fd f0be b9ba 01bd
00000150: 93a4 763d b94f 363e 6b57 52be d40a bf3e
00000160: 1746 8cbd e3fd 803e 799b 283d af22 08be
00000170: cef6 febd 2539 59bd 5ca1 453e 32b4 fcbd
00000180: fa08 543d 2afb 0ebe 7f7e 3e3e 32eb 5a3e
00000190: 173b 8ebe 1bed 2e3e 3ece a23e 9815 b23d
000001a0: dfcf 843e 4ad3 0cbf fd2e 76bc 4c81 80be
000001b0: bee1 75be 3ddc 5cbe d361 95be 8ed1 c93e
000001c0: a809 4c3e a0b0 413e 54c1 fc3d b0d7 8abe
000001d0: 3257 63bd b116 00bd dfb5 f93c a9b3 21bf
000001e0: 6159 b5be e2b2 253f 5c1a efbd 368a 6d3e
000001f0: 75e6 db3d 2790 d13d 6f1a 9abe 5e02 053e
00000200: ba81 01be dec5 b6be 8128 bfbd 9858 9a3e
00000210: a392 a5bd 9245 d53d 7422 223e 41f4 90be
00000220: 7eff 88bd feeb 06be f1e0 a6bd 8a3b 79bd
00000230: 4a2c 22bd 181e a73c 0038 493d 2eea febd
00000240: 1b78 163e b351 dfbd 19b6 cbbc 74f2 a8bd
00000250: 5131 e73c d220 4bbc e08e 89bd b4a9 573d
00000260: 9c81 1a3d 8b8e 0f3d 892f 593d ee37 a7bd
00000270: b898 db3d 7d3b 763e 64a0 66bc c02f 8abe
00000280: ceb9 2dbe 72ae 933e 57a5 8cbd c95a 8ebd
00000290: 9ad6 453e a495 7ebe 9f6d c6bd 84bf 91bc
000002a0: da67 0e3e b497 e63e f5dc 93be 6e0b 443d
000002b0: 739b 943d 8e1e 09be dcce d23d 1095 fdbe
000002c0: d26b 9dbd 7bba 833c d63d 3bbd 1c5d 4dbd
000002d0: 7b68 853e 68d1 3d3e dfc8 263d 56f6 c63d
000002e0: 3ac1 883d 693b 50be 8e04 713d 23a1 9f3b
000002f0: 249b 4e3c f191 993e d13d d6bd bec3 273e
00000300: c572 a53c db93 13be 2c82 6a3d 686a 5ebe
00000310: 2248 43bd 5f8e d4bb 5f48 553e 8d54 e93c
00000320: 3cd3 313c a677 f33e ae13 593e 06a0 dc3d
00000330: 0408 f5bd 8355 823e 1a45 753e 20ef 723d
00000340: 0654 03bd cd2a 47be 4011 4e3d 424b 033f
00000350: f001 683e 5eae 443e 71e9 dcbe c13f ae3d
00000360: 82e7 bfbd 0efe 7d3c 3ff2 c3bd e826 27bd
00000370: a23d 993e e7fd 833d 1148 1b3e ad88 353d
00000380: 7ac4 01be 0847 0c3e 590e b0be 29e4 323e
00000390: 39b8 8fbc 0a4c 14bd ec0f f3bd 5c59 6e3d
000003a0: d2e5 323d 9e0b 6cbc c8aa 193e 1737 743e
000003b0: c075 bcbd 9c30 f33d 9cc7 293e f97a 1cbd
000003c0: be71 0c3e 8e1e 86bd 72b3 733e 1055 31bb
000003d0: c4e2 413e c75a 493e ef76 913d 98ba ea3d
000003e0: 9d48 7c3e b740 41bc 7e02 bcbd 668c 83bd
000003f0: de97 273e 0f64 7a3d 9ef2 d33d b637 c2bc

network_body._body_endoder.seq_layers.2.bias f4 [256]
-0.2790173 -0.24359226 -0.25079015 -0.2395443 -0.34690723 -0.21156941 0.26447505 -0.24964452
-0.24432819 -0.3116832 -0.24777842 -0.30906695 -0.009184368 -0.24947828 -0.25100002 -0.32653406
-0.06766904 -0.27549526 -0.10766373 -0.038211554 -0.0696387 0.07517147 -0.26005563 -0.27970502
-0.16340101 -0.15647271 -0.11652437 0.018132389 -0.14773796 -0.1962305 -0.26128063 0.0063659674
-0.3864974 -0.23695081 -0.16875342 -0.0359511 -0.1788048 -0.18085088 -0.3130749 -0.28280854
-0.19070867 0.039362315 -0.062357623 -0.19773738 -0.24723685 -0.25305474 -0.09533659 -0.16826735
-0.21244189 -0.2527824 0.022877956 -0.28121716 -0.108123995 -0.19097956 -0.13697019 -0.1690127
-0.047220886 0.051167674 -0.23003398 -0.10811345 0.11859984 -0.11412987 -0.060336713 -0.26266596
-0.22038896 -0.052249562 -0.19889052 -0.18356888 -0.37221113 -0.05279146 -0.26371634 -0.3090771
-0.11305319 -0.12613624 -0.18270928 -0.042214643 -0.085644804 -0.16333295 -0.17435424 0.0005509771
-0.04639369 -0.2588461 0.106468566 -0.2286512 -0.2058716 -0.2448073 -0.15750653 -0.23059176
-0.3490441 0.080494545 -0.12072563 -0.24248466 -0.12739481 -0.18316908 -0.06084734 -0.20767036
-0.14883952 -0.21425177 -0.12490892 -0.13307247 -0.31977123 -0.31238356 -0.22854212 -0.09244951
-0.30099848 -0.32699555 -0.18145244 0.03086973 0.03360418 -0.026173258 -0.19580775 -0.25942147
-0.32201338 -0.12449096 -0.11123129 -0.08181938 -0.08745056 -0.24411304 -0.17287205 -0.2180538
0.07396472 -0.17627536 -0.33237925 -0.11669569 -0.3085659 0.27372122 -0.15349363 -0.21988603
-0.17071411 -0.14876536 -0.21756531 -0.17578252 -0.24959639 -0.092679165 0.09036447 -0.17066501
-0.14902125 -0.14464828 -0.24041487 -0.02479886 -0.1401422 -0.30696043 -0.28284627 -0.1329024
-0.06728847 -0.12495191 -0.31792915 0.14042838 -0.2810444 -0.026381416 -0.012186232 0.1604016
-0.062460996 -0.39670414 0.045063525 -0.31313148 -0.2121451 -0.17759846 -0.22772087 -0.21402086
-0.2255065 -0.16358875 -0.179489 -0.13110942 -0.26592025 -0.049891748 -0.012645156 -0.16746034
-0.13304847 -0.34256834 -0.21513976 -0.025701975 -0.015303973 -0.011748245 -0.021022804 -0.091164015
-0.268723 -0.37670794 0.09056891 -0.298036 -0.28126997 -0.23218139 -0.14621478 0.10186945
-0.26084876 -0.2147785 -0.1493114 -0.16686644 -0.1492247 -0.09907022 -0.014442578 -0.31809807
-0.26730534 -0.3635419 -0.22329617 -0.28028128 -0.08415439 -0.18480475 -0.09421822 -0.21609099
-0.21541202 -0.17094778 -0.035230897 -0.3343603 -0.07377165 -0.14819075 -0.18878023 -0.19839503
-0.13131475 -0.18598583 -0.2597496 -0.061211385 -0.27537942 -0.28348437 -0.2407396 -0.15754001
-0.12457103 -0.24069275 -0.37954485 -0.034807127 -0.2156831 -0.2976033 -0.09937741 -0.12698288
-0.10729807 -0.30194253 -0.100829944 -0.0288856 -0.24956562 -0.17073911 -0.18778783 -0.18904462
-0.20004998 -0.30274203 -0.08591102 -0.13832058 -0.26269138 -0.29645976 -0.2777669 -0.16646893
-0.24075997 0.064490154 -0.19652843 0.052428726 -0.05969358 -0.1971543 -0.08958779 -0.28853187
-0.31093922 -0.07607612 -0.095338374 -0.014401279 -0.04329537 -0.011570846 -0.19507751 -0.10534194
00000000: 5bdb 8ebe 4070 79be 9167 80be 1a4b 75be
00000010: d39d b1be a7a5 58be 4669 873e d0a2 7fbe
00000020: 2b31 7abe f194 9fbe a0b9 7dbe 063e 9ebe
00000030: 087a 16bc 3c77 7fbe 1383 80be 792f a7be
00000040: 1196 8abd b70d 8dbe cd7e dcbd b883 1cbd
00000050: bc9e 8ebd 80f3 993d 0326 85be 7f35 8fbe
00000060: 9852 27be 623a 20be 54a4 eebd 608a 943c
00000070: 9f48 17be a6f0 48be 93c6 85be 9b99 d03b
00000080: fde2 c5be 3ca3 72be b2cd 2cbe 7641 13bd
00000090: 9b18 37be f930 39be 5a4b a0be 48cc 90be
000000a0: 2249 43be 613a 213d b56a 7fbd ab7b 4abe
000000b0: a82b 7dbe 6490 81be d53f c3bd 474e 2cbe
000000c0: 5e8a 59be b26c 81be 8d6a bb3c b2fb 8fbe
000000d0: 1d70 ddbd 2590 43be ea41 0cbe aa11 2dbe
000000e0: b06a 41bd 3295 513d 078e 6bbe 966a ddbd
000000f0: 79e4 f23d ecbc e9bd a123 77bd 277c 86be
00000100: a5ad 61be a303 56bd f5a9 4bbe 7bf9 3bbe
00000110: 7592 bebe dc3b 58bd d405 87be 5b3f 9ebe
00000120: 6e88 e7bd dc29 01be 2418 3bbe 43e9 2cbd
00000130: 8b66 afbd c140 27be eb89 32be 736f 103a
00000140: 4f07 3ebd 7a87 84be 310c da3d 8a23 6abe
00000150: 01d0 52be c4ae 7abe 6449 21be 3f20 6cbe
00000160: e9b5 b2be 53da a43d 003f f7bd e64d 78be
00000170: c973 02be ad90 3bbe 0f3b 79bd 8aa7 54be
00000180: 6369 18be d164 5bbe 3fd0 ffbd 2644 08be
00000190: 0eb9 a3be bdf0 9fbe f206 6abe 2b56 bdbd
000001a0: 791c 9abe f66b a7be abce 39be 84e2 fc3c
000001b0: 89a4 093d 4d69 d6bc d481 48be e4d2 84be
000001c0: f0de a4be 1ef5 febd 3bcd e3bd eb90 a7bd
000001d0: 4719 b3bd c5f8 79be 5f05 31be 7f49 5fbe
000001e0: d17a 973d 8781 34be 9d2d aabe 26fe eebd
000001f0: 5afc 9dbe 3025 8c3e 6f2d 1dbe ce29 61be
00000200: aecf 2ebe f255 18be 71c9 5ebe 5500 34be
00000210: 3296 7fbe 93ce bdbd 0211 b93d cfc2 2ebe
00000220: 0799 18be ae1e 14be 512f 76be fb26 cbbc
00000230: 7081 0fbe eb29 9dbe 3ad1 90be 9117 08be
00000240: 8ace 89bd c9e6 ffbd 9cc7 a2be 75cc 0f3e
00000250: 0de5 8fbe d71d d8bc c3a8 47bc 5140 243e
00000260: 1ad7 7fbd ce1c cbbe 8894 383d c552 a0be
00000270: 913c 59be 5fdc 35be a92f 69be 4928 5bbe
00000280: 2deb 66be cf83 27be f7cb 37be 8c41 06be
00000290: b326 88be 4a5b 4cbd a12d 4fbc b97a 2bbe
000002a0: dc3d 08be 1e65 afbe 994d 5cbe f38c d2bc
000002b0: 84bd 7abc b67b 40bc 0438 acbc 33b4 babd
000002c0: 1096 89be dddf c0be 317c b93d 2d98 98be
000002d0: 9e02 90be f5c0 6dbe 54b9 15be eea0 d03d
000002e0: f88d 85be e5ee 5bbe 16e5 18be 09df 2abe
000002f0: 5cce 18be 54e5 cabd 90a0 6cbc c0dd a2be
00000300: 3fdc 88be 2a22 babe c0a7 64be 0781 8fbe
00000310: 2359 acbd 753d 3dbe 7bf5 c0bd f546 5dbe
00000320: f894 5cbe ef0c 2fbe 464e 10bd 4631 abbe
00000330: 9715 97bd 51bf 17be 9b4f 41be 1128 4bbe
00000340: 6077 06be 1273 3ebe e6fd 84be cab8 7abd
00000350: 88fe 8cbe dd24 91be 7184 76be 2b52 21be
00000360: 191f ffbd 2978 76be b453 c2be eb91 0ebd
00000370: 08dc 5cbe 765f 98be 6286 cbbd cd07 02be
00000380: 17bf dbbd 3698 9abe ee7f cebd 7ea1 ecbc
00000390: 218e 7fbe 3cd6 2ebe 744b 40be ea94 41be
000003a0: e7d9 4cbe 0101 9bbe 1ef2 afbd e9a3 0dbe
000003b0: 7c7f 86be 93c9 97be 7737 8ebe d576 2abe
000003c0: c889 76be 6a13 843d c03e 49be 81bf 563d
000003d0: 4181 74bd d1e2 49be ce79 b7bd 73ba 93be
000003e0: 6d33 9fbe cccd 9bbd c440 c3bd 58f3 6bbc
000003f0: 7c56 31bd a593 3dbc 66c2 47be 84bd d7bd

network_body._body_endoder.seq_layers.2.weight f4 [256, 256]
-0.51492405 0.2397454 -0.1065138 0.06719396 0.070083454 -0.062174555 -0.20676406 0.2847606
0.044936102 0.21562575 0.14261772 -0.06141589 0.20947967 0.22445063 0.04611832 -0.10434542
0.04530388 0.24180445 -0.059750326 0.18989526 0.28311095 0.1287175 0.07341516 0.111005746
0.22353701 0.19358344 0.026607078 0.10441578 0.25160554 0.44121823 -0.12049277 0.26816836
0.4639499 0.06668788 0.0058111483 0.22793348 0.26212648 0.3842056 0.31989682 0.28247696
0.29020014 0.1001052 0.3659049 0.22866493 0.34195635 -0.034113828 0.26225057 0.22938104
0.08916675 0.057625704 0.21588463 0.045735784 0.2788695 0.16606691 0.26384395 0.24953549
0.1390672 0.016710328 0.021459699 0.071674064 -0.00051972416 0.18872422 0.23864274 0.11702745
0.36537942 0.3135254 0.09354205 -0.13025151 0.17225716 0.06987676 0.12374843 0.15650666
0.1521168 -0.026767405 0.02250074 0.3341493 0.28601998 0.18877287 0.1318414 0.3708395
0.2257964 -0.08714004 -0.5481823 -0.07918743 0.3051941 0.050694406 0.10306741 -0.023949739
0.13678922 -0.3332115 0.3413387 -0.15254882 0.29835212 0.01482219 -0.07677029 0.19467843
0.24891949 0.15204571 -0.056574564 0.023477675 0.23298366 0.3085273 -0.19355936 0.17565233
-0.027761422 -0.051934868 0.34833032 0.07547529 0.26176554 0.20639572 0.105009906 0.083193
-0.42753994 -0.32886043 0.32990342 -0.029865496 0.115459 -0.25825185 0.08498344 -0.4297177
0.18842405 0.29225978 0.10030817 -0.10450985 0.00972546 0.101767875 -0.094911985 0.0581748
0.25857815 0.28167868 0.24317726 0.15224396 -0.20829515 0.2003357 0.085804656 0.13649397
0.28792113 0.24792603 0.16446023 -0.09997838 0.08384694 -0.033964373 0.24453034 0.07876812
0.06291311 0.18920106 0.012993553 -0.029327353 -0.03221184 0.043092288 0.3001982 0.24088566
0.1638871 -0.35923076 0.20258659 0.24028713 -0.068142645 0.38333434 0.21468373 0.20292652
0.12604655 0.1295033 -0.2232373 0.10742786 0.32923782 0.16887993 0.21576886 0.13188438
-0.08273441 0.14064454 0.25753006 0.12607989 0.23537762 0.24569234 0.27508986 0.31893572
0.20328982 0.21765374 0.20519213 0.12912957 0.23550129 0.30256116 0.33567774 0.19190012
0.20595731 -0.08598811 -0.16762426 -0.2906331 0.22126406 0.0862896 0.1868067 -0.17164403
0.36330223 -0.37290236 0.20412534 0.22843076 0.25464165 0.013248955 0.34602177 0.21806502
0.27781013 0.22749814 0.10460121 0.12680295 0.1725349 0.03974165 0.02459531 0.31933475
-0.43851772 0.019438468 0.3863747 0.23465946 0.12642913 0.2122702 0.015577992 0.12449674
0.19815993 0.12440346 -0.13829145 0.18596663 0.16248213 0.19979218 0.29182506 -0.12455595
-0.09843196 -0.28780064 0.18019837 0.35640648 0.21700813 -0.22375135 -0.08400787 0.15070517
0.0323964 0.043232076 0.28605676 0.28169724 0.11972746 0.17019737 0.2404779 0.32054093
0.020552145 0.036322106 0.124335 0.13207397 0.25280076 0.09837419 0.16703692 0.131358
-0.05569041 0.043459788 0.24403702 0.011600272 0.20222479 0.16774589 0.027898865 0.30551827
00000000: 10d2 03bf d17f 753e e823 dabd fd9c 893d
00000010: ea87 8f3d bfaa 7ebd f5b9 53be 24cc 913e
00000020: eb0e 383d ffcc 5c3e 610a 123e 3a8f 7bbd
00000030: d781 563e 63d6 653e 90e6 3c3d 0db3 d5bd
00000040: 9090 393d 969b 773e c2bc 74bd e773 423e
00000050: ebf3 903e 85ce 033e b05a 963d fb56 e33d
00000060: e3e6 643e bd3a 463e 16f7 d93c f1d7 d53d
00000070: 71d2 803e 5be7 e13e eac4 f6bd 5d4d 893e
00000080: d78a ed3e a893 883d 726b be3b 6567 693e
00000090: 7135 863e 99b6 c43e 84c9 a33e d2a0 903e
000000a0: 1d95 943e f503 cd3d e357 bb3e 2427 6a3e
000000b0: e714 af3e f1ba 0bbd b545 863e dde2 6a3e
000000c0: 0f9d b63d ee08 6c3d dc10 5d3e 7255 3b3d
000000d0: fcc7 8e3e 720d 2a3e 8e16 873e 3b86 7f3e
000000e0: a267 0e3e 19e4 883c 40cc af3c dac9 923d
000000f0: 193e 08ba ec40 413e c35e 743e 16ac ef3d
00000100: 0313 bb3e 6786 a03e f992 bf3d a760 05be
00000110: 2e64 303e 8c1b 8f3d d16f fd3d 4843 203e
00000120: 82c4 1b3e 5147 dbbc 7953 b83c 9e15 ab3e
00000130: 3671 923e ad4d 413e 6f01 073e adde bd3e
00000140: 2c37 673e 7a76 b2bd ad55 0cbf 052d a2bd
00000150: 6742 9c3e f0a4 4f3d 0215 d33d 3e32 c4bc
00000160: 7912 0c3e b39a aabe f2c3 ae3e c235 1cbe
00000170: 9cc1 983e c5d8 723c be39 9dbd c859 473e
00000180: c0e4 7e3e dfb1 1b3e bbba 67bd 4154 c03c
00000190: 4593 6e3e 4af7 9d3e 6d34 46be 34de 333e
000001a0: ec6b e3bc a8b9 54bd 5a58 b23e ca92 9a3d
000001b0: 2206 863e 6659 533e 6f0f d73d 1761 aa3d
000001c0: 84e6 dabe 6560 a8be 1ae9 a83e 7ca8 f4bc
000001d0: c575 ec3d 9639 84be cc0b ae3d f503 dcbe
000001e0: 3cf2 403e 13a3 953e 5f6e cd3d 4309 d6bd
000001f0: 8957 1f3c ad6b d03d 3761 c2bd b348 6e3d
00000200: 5b64 843e 3038 903e 7603 793e d7e5 1b3e
00000210: 534b 55be cd24 4d3e 5aba af3d 13c5 0b3e
00000220: 666a 933e 52e0 7d3e 4368 283e 77c1 ccbd
00000230: f2b7 ab3d 3a1e 0bbd 2966 7a3e 2e51 a13d
00000240: 97d8 803d ecbd 413e e9e2 543c eb3f f0bc
00000250: 90f0 03bd 8a81 303d 94b3 993e bbaa 763e
00000260: 05d2 273e 18ed b7be dc72 4f3e d40d 763e
00000270: 5f8e 8bbd 6644 c43e 0dd6 5b3e f8cb 4f3e
00000280: 5912 013e 839c 043e 5298 64be 2303 dc3d
00000290: dc91 a83e dcee 2c3e 83f2 5c3e b30c 073e
000002a0: a970 a9bd 1f05 103e fbda 833e 161b 013e
000002b0: d506 713e c696 7b3e 94d8 8c3e 8b4b a33e
000002c0: 352b 503e 9fe0 5e3e e31d 523e 8b3a 043e
000002d0: 4027 713e 4ce9 9a3e f4dd ab3e 7781 443e
000002e0: 79e6 523e 891a b0bd b2a5 2bbe ddcd 94be
000002f0: 0c93 623e 9ab8 b03d 414a 3f3e 74c3 2fbe
00000300: c002 ba3e 0fed bebe 3c06 513e c1e9 693e
00000310: 6460 823e 2512 593c c429 b13e 704c 5f3e
00000320: 213d 8e3e 46f5 683e 2939 d63d a2d8 013e
00000330: fdac 303e 24c8 223d 1b7c c93c d87f a33e
00000340: 6585 e0be 6c3d 9f3c e8d2 c53e 924a 703e
00000350: a376 013e 5c5d 593e d63a 7f3c 26f8 fe3d
00000360: 70ea 4a3e 3ec7 fe3d 469c 0dbe 096e 3e3e
00000370: b761 263e 5296 4c3e 186a 953e 3117 ffbd
00000380: b296 c9bd 9b5a 93be ec85 383e e97a b63e
00000390: 6137 5e3e 131f 65be 510c acbd 7552 1a3e
000003a0: 16b2 043d 1e14 313d 0876 923e 9f3a 903e
000003b0: ac33 f53d 3848 2e3e d73f 763e f11d a43e
000003c0: f95c a83c 7dc6 143d 59a3 fe3d 663e 073e
000003d0: 1a6f 813e 6878 c93d ba0b 2b3e b682 063e
000003e0: a11b 64bd e402 323d d7e4 793e 110f 3e3c
000003f0: 0414 4f3e 94c5 2b3e 298c e43c e46c 9c3e

network_body._body_endoder.seq_layers.4.bias f4 [256]
-0.2469298 -0.07531227 -0.20663792 -0.29893443 -0.40945375 0.10456646 -0.12165292 -0.28927946
-0.37026137 -0.36894488 -0.27175328 -0.33546087 -0.17629763 -0.18033226 -0.08588771 -0.25379342
-0.24736425 -0.20887858 -0.3496711 -0.50391865 -0.29618955 -0.17092067 -0.46602967 -0.1975591
-0.21142052 -0.16399117 -0.33648518 -0.21253987 -0.3148837 -0.17160831 -0.23381174 -0.22896598
-0.3750529 -0.37120208 -0.34900203 -0.2635925 -0.07807842 -0.35318926 -0.32739994 -0.22462164
-0.35652113 -0.28249624 -0.31078628 -0.23773687 -0.29997763 -0.27918458 -0.07337586 -0.3031284
-0.15869687 -0.53741056 -0.27043152 -0.036390983 -0.37205383 -0.26606396 -0.025671277 -0.4028388
-0.21556666 -0.26835164 -0.31615728 -0.31294414 -0.24047711 -0.25809404 -0.17894606 -0.3688426
-0.1756844 -0.25916368 -0.30297798 -0.31616798 -0.22593616 -0.40895998 -0.282835 -0.1546473
-0.25599745 -0.21923612 -0.2981409 -0.20840463 -0.34109536 -0.1902051 -0.1315072 -0.3015122
-0.5169769 -0.34608155 -0.28100035 -0.18437019 -0.15445277 -0.26837415 -0.44715312 -0.119233415
-0.21031548 -0.32044092 -0.17941137 -0.12021927 -0.28067264 -0.47771162 -0.17840831 -0.24498658
-0.21864961 -0.34545654 -0.23657711 -0.1708225 -0.20309483 -0.21435976 0.007929139 -0.25910994
-0.38141906 0.028499817 -0.21142301 -0.16406865 -0.3434489 -0.3876258 -0.1306262 -0.31110838
-0.15726766 -0.2176989 -0.095529646 -0.5484151 -0.2409791 -0.026180873 -0.2496383 -0.2680292
-0.39333475 -0.113662906 -0.21774337 -0.06141013 -0.3210844 -0.29897007 -0.22968376 -0.21962956
-0.30881697 -0.33618763 -0.17837667 -0.25863752 0.023787096 -0.30793017 -0.31252894 -0.29156482
-0.31876597 -0.4500724 -0.17416342 -0.1125566 -0.16652843 -0.1286964 -0.19882521 -0.18618876
-0.22867906 -0.44457453 -0.22383742 -0.31714442 -0.34504053 -0.3055585 -0.17424305 -0.21995227
-0.27663493 -0.24060604 -0.22425912 -0.1523282 -0.19725184 -0.066347696 -0.3252975 -0.18137449
-0.18514599 -0.120329045 -0.07010455 -0.17078212 -0.3402099 -0.21803378 -0.38792726 -0.12942976
-0.35564354 -0.36469916 -0.24001561 -0.15710944 -0.3723056 -0.21254918 -0.05765199 -0.2999804
-0.11106535 -0.28233635 -0.21844234 -0.3524066 -0.27547932 -0.25941885 -0.25720498 -0.13436605
-0.5731995 -0.25957897 -0.22917403 -0.13822275 -0.20887001 -0.121791564 -0.25938398 -0.09573663
-0.13284777 -0.07197131 -0.25386474 -0.18312943 -0.36810133 -0.30734035 -0.5421399 -0.14397544
-0.23152137 -0.22828509 -0.25048816 -0.21076687 -0.1352636 -0.21795675 -0.4250628 -0.440799
-0.3564206 -0.06749918 -0.3740582 -0.18533625 -0.305469 -0.26657772 -0.23505557 -0.15341705
-0.3501708 -0.16379581 -0.16316466 -0.28821135 -0.32178673 -0.11724194 -0.18921301 -0.0833494
-0.35204107 -0.075421706 -0.21147138 -0.43602356 -0.2615274 -0.3620027 -0.23659252 -0.18512602
-0.117617406 -0.17503329 -0.22414933 -0.21422581 -0.19878043 -0.26369405 -0.2861637 -0.31039533
-0.11489857 -0.2674951 -0.3075647 -0.19963259 -0.37850225 -0.13642812 -0.33028522 -0.19143224
-0.046324387 -0.040623132 -0.1607592 -0.4240662 -0.44169283 -0.1771497 -0.2962417 -0.15440997
00000000: 2adb 7cbe 523d 9abd e498 53be ef0d 99be
00000010: eca3 d1be f126 d63d 2b25 f9bd 701c 94be
00000020: e692 bdbe 58e6 bcbe 3f23 8bbe 87c1 abbe
00000030: 5e87 34be 05a9 38be e5e5 afbd 36f1 81be
00000040: 0e4d 7dbe 44e4 55be 1708 b3be d000 01bf
00000050: 28a6 97be d405 2fbe 719b eebe ef4c 4abe
00000060: 9f7e 58be 4ded 27be c947 acbe 0da4 59be
00000070: 7038 a1be 17ba 2fbe 586c 6fbe 0f76 6abe
00000080: ef06 c0be 330e bebe 65b0 b2be 99f5 86be
00000090: 94e7 9fbd 39d5 b4be f7a0 a7be 3703 66be
000000a0: f089 b6be 59a3 90be 611f 9fbe 4b71 73be
000000b0: ab96 99be 48f1 8ebe 1546 96bd a533 9bbe
000000c0: 6f81 22be bd93 09bf 0076 8abe b60e 15bd
000000d0: d77d bebe 8939 88be 924c d2bc e340 cebe
000000e0: 82bd 5cbe 6365 89be 5edf a1be 373a a0be
000000f0: a23f 76be e724 84be a33d 37be f0d8 bcbe
00000100: 9de6 33be 1ab1 84be ee1f 9bbe c5e0 a1be
00000110: cf5b 67be 3463 d1be c0cf 90be dd5b 1ebe
00000120: 1912 83be 6f7f 60be eda5 98be 0668 55be
00000130: 0da4 aebe 20c5 42be d3a9 06be cf5f 9abe
00000140: 9958 04bf 9a31 b1be 47df 8fbe 8acb 3cbe
00000150: de28 1ebe 5668 89be 41f1 e4be a630 f4bd
00000160: f15c 57be d510 a4be 9db7 37be 8535 f6bd
00000170: 53b4 8fbe 9e96 f4be abb0 36be c3dd 7abe
00000180: afe5 5fbe aedf b0be 4541 72be 18ec 2ebe
00000190: 17f8 4fbe 2081 5bbe 38e9 013c 0faa 84be
000001a0: 5c49 c3be 7378 e93c 467f 58be 9d01 28be
000001b0: 89d8 afbe e476 c6be e0c2 05be 9949 9fbe
000001c0: c60a 21be 76ec 5ebe 0ca5 c3bd ef64 0cbf
000001d0: 3ac3 76be 4579 d6bc 2fa1 7fbe 203b 89be
000001e0: 2c63 c9be 19c8 e8bd 1ef8 5ebe 3089 7bbd
000001f0: 2d65 a4be 9b12 99be 3832 6bbe 92e6 60be
00000200: 421d 9ebe c920 acbe 60a8 36be 236c 84be
00000210: 28dd c23c 06a9 9dbe cb03 a0be fc47 95be
00000220: 4b35 a3be e46f e6be e557 32be 1384 e6bd
00000230: 6e86 2abe fdc8 03be d698 4bbe 44a8 3ebe
00000240: d82a 6abe 469f e3be a335 65be c160 a2be
00000250: 27a9 b0be 2a72 9cbe c56c 32be 2b3b 61be
00000260: 18a3 8dbe 6e61 76be 2fa4 65be ecfb 1bbe
00000270: 63fc 49be 4de1 87bd 658d a6be 3cba 39be
00000280: e996 3dbe 136f f6bd f992 8fbd 82e1 2ebe
00000290: fe2f aebe 3f44 5fbe 679e c6be 3c89 04be
000002a0: e916 b6be d9b9 babe a7c6 75be 4ce1 20be
000002b0: d79e bebe 7ea6 59be 7e24 6cbd 0897 99be
000002c0: 3b76 e3bd 648e 90be 59af 5fbe a36e b4be
000002d0: a00b 8dbe 8cd2 84be 5fb0 83be 4197 09be
000002e0: 34bd 12bf 89e7 84be 99ac 6abe 448a 0dbe
000002f0: 05e2 55be db6d f9bd facd 84be 9111 c4bd
00000300: 3f09 08be b265 93bd 8ffa 81be 4886 3bbe
00000310: c777 bcbe b75b 9dbe aec9 0abf 4c6e 13be
00000320: f013 6dbe 91c3 69be fc3f 80be 45d3 57be
00000330: 8b82 0abe 0e30 5fbe d5a1 d9be 68b0 e1be
00000340: c37c b6be 033d 8abd 8e84 bfbe c9c8 3dbe
00000350: 6f66 9cbe e07c 88be 68b2 70be 5c19 1dbe
00000360: 9649 b3be 17ba 27be a314 27be 7090 93be
00000370: 3bc1 a4be 8b1c f0bd 0ec1 41be 17b3 aabd
00000380: ba3e b4be b276 9abd f48b 58be 7b3e dfbe
00000390: ebe6 85be 6b58 b9be 4f45 72be ad91 3dbe
000003a0: 65e1 f0bd ed3b 33be 6787 65be 035e 5bbe
000003b0: 198d 4bbe e802 87be 0c84 92be 23ec 9ebe
000003c0: f14f ebbd 1ef5 88be 1f79 9dbe 7c6c 4cbe
000003d0: 0ccb c1be d0b3 0bbe 251b a9be d006 44be
000003e0: a4be 3dbd 7164 26bd 0f9e 24be 341f d9be
000003f0: 9025 e2be bb66 35be feac 97be a61d 1ebe

network_body._body_endoder.seq_layers.4.weight f4 [256, 256]
0.13069059 0.026213072 0.12161625 0.16193879 0.01577454 -0.12875254 -0.30867282 0.10855146
-0.003905714 -0.077601224 0.17670898 0.14015871 0.024463039 0.111558236 0.1470637 0.26916564
-0.13615657 0.12335114 0.5042556 0.08875098 -0.05205368 -0.06845432 0.12240162 0.3532846
-0.4142362 -0.010691779 0.05008029 0.07636501 -0.002263638 0.18988132 0.34165025 -0.019891802
0.07150089 0.1607572 -0.22258429 0.25286806 0.07911433 0.08920294 0.21139513 0.16623351
0.35095066 -0.2687082 0.23018552 0.25079605 0.30746442 0.064374745 0.10399697 0.14064856
0.040938396 0.2405973 -0.16385512 -0.0030312664 0.11983076 0.09316529 -0.046384737 0.27788448
0.1689456 0.02032886 0.1134068 0.13099626 0.1526597 -0.0037678147 0.18709803 0.18999982
0.2201741 0.09651843 0.23437382 0.18120399 0.19680722 -0.07649995 0.16405655 0.06635416
0.3546752 -0.009895962 0.21564831 0.314944 -0.10170684 0.03007015 -0.15689057 0.010418851
-0.052039213 0.16012612 -0.2670082 0.06967704 0.20634404 0.18557149 0.095617756 0.13908307
-0.056582265 -0.10889347 0.073624685 0.13225731 0.272444 0.16241577 -0.5628829 0.17294097
0.194053 0.07647989 0.13477105 0.23603703 0.1078258 -0.03705418 -0.13194051 0.27180016
-0.062149234 0.34388337 0.109397456 -0.12773068 -0.16256191 0.07814879 0.24188542 0.20046397
-0.11256773 0.3939396 -0.07079855 0.27398005 0.017541764 0.0066673867 0.22135337 0.07877135
-0.07570776 0.37416467 0.28878123 -0.15354156 0.12557776 -0.39729616 0.076451965 0.05496383
0.14210995 0.57098204 -0.006005224 0.1291198 0.23428261 0.16144466 -0.43589652 0.08086909
0.04917621 0.16241342 0.23866628 -0.052680798 0.30171797 0.017140463 0.15817063 0.14957036
0.13160719 0.10461254 0.055172272 -0.18279909 0.23608975 0.036338758 0.23501967 -0.07221141
0.4120374 -0.011426954 -0.30216166 0.11709667 0.06763517 0.26235852 0.2544594 0.14435367
0.34914702 0.18480763 0.20046522 0.11026916 0.28832316 0.29083562 0.028757751 0.15881552
-0.070112914 0.22472765 0.030829333 -0.3234434 -0.18060693 0.07294365 0.2402133 0.13901812
0.0051826527 0.12762868 0.08637768 0.0304033 0.11671532 0.2699144 0.036492698 0.194002
-0.046904337 -0.08076173 0.3483727 0.08879798 0.2854705 0.049577508 -0.104220495 -0.015622116
0.067411445 0.05757579 -0.07429839 0.19807146 0.015219387 0.016055988 0.11518972 0.15691338
0.16325228 -0.10002884 0.03067566 0.11716583 0.24015737 0.0964643 0.112805694 0.18078737
0.3814825 0.15063827 0.10422667 -0.11576404 -0.103684 0.029089343 0.17970608 0.25402626
0.18925282 0.087547295 0.28578386 0.02633508 0.18548077 0.045348156 0.24520144 0.19892389
0.07535643 0.0041278265 0.21505018 -0.085330956 0.34700322 0.06425725 0.056236997 0.30673525
0.054556716 0.14286633 0.022614883 0.14047512 0.06039558 0.11818941 0.17126828 0.15237638
0.107014336 -0.23865111 0.22807625 -0.027656281 0.10334239 0.0800261 0.35858363 0.0047047143
0.18665074 -0.0010568924 0.098139234 -0.086645596 0.15410548 -0.15739031 0.28363788 0.22892681
00000000: c1d3 053e ccbc d63c f111 f93d 48d3 253e
00000010: 9c39 813c b5d7 03be 5d0a 9ebe 3a50 de3d
00000020: 02f7 7fbb 64ed 9ebd 33f3 343e c485 0f3e
00000030: b666 c83c a578 e43d de97 163e 14d0 893e
00000040: a16c 0bbe 869f fc3d e516 013f 13c3 b53d
00000050: 3d36 55bd c731 8cbd b3ad fa3d b8e1 b43e
00000060: c416 d4be 922c 2fbc fd20 4d3d 4265 9c3d
00000070: 8b59 14bb 4070 423e c8ec ae3e 22f4 a2bc
00000080: 0f6f 923d 899d 243e 23ed 63be ec77 813e
00000090: b206 a23d 08b0 b63d f777 583e 1e39 2a3e
000000a0: ceaf b33e 1f94 89be c1b5 6b3e 5768 803e
000000b0: fa6b 9d3e e8d6 833d 5dfc d43d 2d06 103e
000000c0: 05af 273d 235f 763e a3c9 27be 36a8 46bb
000000d0: d469 f53d 72cd be3d ecfd 3dbd e046 8e3e
000000e0: 1300 2d3e b688 a63c d341 e83d e223 063e
000000f0: d352 1c3e 71ed 76bb a096 3f3e 508f 423e
00000100: 5275 613e 74ab c53d b1ff 6f3e 8a8d 393e
00000110: d587 493e 01ac 9cbd 71fe 273e b1e4 873d
00000120: fd97 b53e ac22 22bc e9d2 5c3e 5740 a13e
00000130: ad4b d0bd ad55 f63c eca7 20be d4b3 2a3c
00000140: 1227 55bd 1af8 233e 4cb5 88be d6b2 8e3d
00000150: da4b 533e 7406 3e3e 3ed3 c33d cb6b 0e3e
00000160: cec2 67bd 8a03 dfbd 8ac8 963d 766e 073e
00000170: c87d 8b3e 5250 263e 1819 10bf 7017 313e
00000180: d4b5 463e 7da1 9c3d 6c01 0a3e b1b3 713e
00000190: c6d3 dc3d 20c6 17bd 6a1b 07be 6429 8b3e
000001a0: 3290 7ebd 7b11 b03e c60b e03d d5cb 02be
000001b0: a176 26be 790c a03d d0b0 773e 6d46 4d3e
000001c0: e989 e6bd 74b2 c93e d5fe 90bd 1d47 8c3e
000001d0: bfb3 8f3c 187a da3b 75aa 623e e052 a13d
000001e0: ac0c 9bbd 8392 bf3e 22db 933e 003a 1dbe
000001f0: 7597 003e 676a cbbe d992 9c3d c121 613d
00000200: 4585 113e e12b 123f 78c7 c4bb fb37 043e
00000210: c8e7 6f3e c051 253e d42d dfbe b29e a53d
00000220: fe6c 493d b44f 263e ef64 743e d2c7 57bd
00000230: c77a 9a3e 286a 8c3c 7bf7 213e f928 193e
00000240: 09c4 063e 193f d63d 52fc 613d af2f 3bbe
00000250: 83c1 713e f3d7 143d ffa8 703e 93e3 93bd
00000260: 91f6 d23e 1e38 3bbc efb4 9abe 61d0 ef3d
00000270: 4f84 8a3d db53 863e 8148 823e 73d1 133e
00000280: 66c3 b23e 363e 3d3e c146 4d3e ccd4 e13d
00000290: 189f 933e 68e8 943e 6095 eb3c 89a0 223e
000002a0: 5c97 8fbd 011f 663e cc8d fc3c 609a a5be
000002b0: 06f1 38be 7b63 953d 7afa 753e c45a 0e3e
000002c0: 3ed3 a93b 18b1 023e c8e6 b03d 5710 f93c
000002d0: 7108 ef3d 3832 8a3e 5e79 153d 76a8 463e
000002e0: c31e 40bd 6866 a5bd e85d b23e b7db b53d
000002f0: 3029 923e c911 4b3d 8e71 d5bd e7f3 7fbc
00000300: 030f 8a3d 97d4 6b3d c129 98bd 3fd3 4a3e
00000310: bc5a 793c d987 833c 97e8 eb3d e7ad 203e
00000320: 9b2b 273e ecdb ccbd 864b fb3c a4f4 ef3d
00000330: d0eb 753e 138f c53d ac06 e73d 5320 393e
00000340: ad51 c33e eb40 1a3e cb74 d53d b215 edbd
00000350: 4758 d4bd c64c ee3c df04 383e bb0f 823e
00000360: 7ecb 413e ff4b b33d 4352 923e aabc d73c
00000370: acee 3d3e fdbe 393d 1616 7b3e b4b2 4b3e
00000380: 7954 9a3d b842 873b 1d36 5c3e ffc1 aebd
00000390: 68aa b13e 4e99 833d c458 663d 670c 9d3e
000003a0: dd76 5f3d 8d4b 123e d942 b93c b6d8 0f3e
000003b0: 5b61 773d 4a0d f23d f460 2f3e 8e08 1c3e
000003c0: 552a db3d f560 74be d28c 693e 6d8f e2bc
000003d0: 2da5 d33d b9e4 a33d 4698 b73e 012a 9a3b
000003e0: 5f21 3f3e 6d87 8aba 39fd c83d 3f73 b1bd
000003f0: d4cd 1d3e ed2a 21be fc38 913e ca6b 6a3e
