results/BarcelonaExtendedApr12/MoveSomewhere/MoveSomewhere-393505.onnx (onnx, 606322 bytes, 11 tensors)

action_model._discrete_distribution.branches.0.bias f4 [3]
-0.050634034 0.10155674 -0.066544734
00000000: a265 4fbd fbfc cf3d 9b48 88bd

action_model._discrete_distribution.branches.0.weight f4 [3, 256]
0.00693118 -0.009217691 0.020213328 -5.384937e-06 -0.013892734 0.0043882946 0.020934176 0.007324716
0.031332333 0.011550674 -0.032434743 -0.0025679283 0.029305585 -0.013637859 -0.07827185 0.0030173876
0.0074037868 -0.005963047 -0.023244916 0.020585326 0.03475018 0.0018805916 0.038315147 0.033829544
0.031402696 0.019667946 0.018778399 -0.02216145 0.031467278 0.028228803 0.029490132 0.008358293
0.026007282 0.00408287 0.030117683 0.00422894 0.0021209454 -0.0073285494 0.019738939 -0.011222542
-0.010172651 -0.017994191 0.024187306 -0.0025476948 0.0033525708 -0.016025351 -0.0071521457 -0.021256547
0.005738815 0.02199999 0.014745566 -0.010222784 0.055958387 0.0072115175 0.0781863 0.0010644839
-0.008428889 -0.010277677 0.021104442 -0.007729717 0.037232753 0.0016981915 -0.010407791 -0.0220509
-0.009958453 -0.0035238252 0.007226753 -0.007878078 -0.004583161 0.051533643 0.055074304 0.043540455
0.030878846 0.01041294 0.011365593 0.0049073542 0.02132546 0.033708103 -0.0077669593 0.0024278834
-0.01090032 -0.02426576 0.005813127 0.035280503 0.008404424 -0.009847429 -0.019471563 -0.008510078
0.027519198 -0.0030118267 0.07946095 0.007559641 0.0073444075 -0.0049760346 0.028719662 0.06751539
-0.0068668416 -0.006532405 -0.007456596 0.005729601 -0.0033694918 0.0021528567 0.025896631 -0.0069017196
0.0070298375 0.041719116 0.0134730255 0.007048377 0.0010929018 0.058648285 -0.0073591117 0.03168477
-0.054707557 0.003569712 -0.0036771465 0.013873432 -0.00348846 -0.010396941 0.008528893 0.011148835
-0.0033869094 0.0035629906 0.00020888697 0.009601731 -0.00615869 0.0034396509 -0.029394232 -0.0023380644
-0.0012601984 -0.010500622 0.011853812 0.0024161013 -0.012468652 0.0049127243 0.025043974 0.027932784
-0.04971663 -0.016325297 0.0034217273 0.04083921 -0.018293286 0.032403983 -0.035802994 0.056648087
0.012069969 0.0019254563 0.0027761678 -0.012959085 0.046196554 0.022950431 -0.005226363 0.006106987
-0.068825684 0.019682392 0.008997364 0.02491134 -0.01908817 0.053409368 0.0038952993 0.010076882
0.006073121 0.017616631 0.006041429 -0.004560714 0.0041440832 -0.0006419344 -0.008321374 -0.0011326276
0.053679876 0.015282403 8.294669e-05 0.031872824 0.024653956 0.021049654 0.0026378662 0.024278937
0.02047515 0.051043466 0.035210796 0.009541593 -0.020891452 0.055364072 -0.00045636136 -0.0029089982
0.03463614 0.009694483 0.0049313763 0.018133482 -0.014257752 -0.003892182 0.0054300283 -0.00015127037
0.05607186 -0.008349879 -0.009311692 -0.019401843 0.0018164978 -0.0031559374 0.017109437 -0.0024589421
0.028356114 0.0018500742 0.0035393068 0.046893492 -0.021892829 0.032907158 0.049702358 0.06491532
0.0051730247 0.022942705 -0.0012835631 -0.002966377 -0.0038803262 -0.008370147 0.02220577 -0.04116214
-0.008119607 0.00052561273 -0.0026659442 -0.025145873 0.00591302 0.0289192 -0.0010376617 0.0053884215
-0.0036020463 0.018238511 -0.0037412609 -0.0007449568 -0.0063606068 0.01863786 0.008423869 0.023488136
0.019019369 0.049791314 -0.007316111 0.01614178 -3.9478742e-05 0.0009055497 0.043769483 -0.009219708
-0.008360734 0.0031403177 -0.034882873 0.05009346 0.0015782733 0.016199121 -0.002069729 0.0010897379
0.021879507 0.014696904 -0.011316716 0.023617884 0.022609238 0.005359341 0.0067636482 0.0076277517
00000000: f41e e33b cc05 17bc 6c96 a53c 42b0 b4b6
00000010: 5a9e 63bc afcb 8f3b 267e ab3c 2c04 f03b
00000020: 5556 003d 0a3f 3d3c 4bda 04bd b04a 28bb
00000030: 4412 f03c 5471 5fbc fe4c a0bd 5dbf 453b
00000040: 779b f23b aa65 c3bb 1f6c bebc 8fa2 a83c
00000050: 3456 0e3d 2f7e f63a 58f0 1c3d d990 0a3d
00000060: 1da0 003d ac1e a13c 28d5 993c ee8b b5bc
00000070: d5e3 003d 1740 e73c 4a95 f13c 39f1 083c
00000080: 390d d53c 99c9 853b 5cb9 f63c eb92 8a3b
00000090: 8fff 0a3b 5424 f0bb 8eb3 a13c c1de 37bc
000000a0: 31ab 26bc 8e68 93bc 7524 c63c 3af7 26bb
000000b0: ceb6 5b3b 9947 83bc 8c5c eabb 3622 aebc
000000c0: ab0c bc3b 5339 b43c 6397 713c 777d 27bc
000000d0: 9f34 653d 984e ec3b 2420 a03d 2786 8b3a
000000e0: 5319 0abc b463 28bc 39e3 ac3c 9149 fdbb
000000f0: 5f81 183d da95 de3a 7085 2abc 17a4 b4bc
00000100: c728 23bc faef 66bb 66ce ec3b 0e13 01bc
00000110: 572e 96bb f114 533d 9895 613d 7a57 323d
00000120: a2f5 fc3c 099b 2a3c c136 3a3c dfcd a03b
00000130: bbb2 ae3c 8211 0a3d fa81 febb 201d 1f3b
00000140: 4197 32bc fdc8 c6bc 0b7c be3b 4a82 103d
00000150: b6b2 093c 1c57 21bc d482 9fbc db6d 0bbc
00000160: f16f e13c 1162 45bb 6cbc a23d ddb6 f73b
00000170: 5ba9 f03b 010e a3bb 7f45 eb3c 8245 8a3d
00000180: 3e03 e1bb c90d d6bb 7656 f4bb 60bf bb3b
00000190: b1d2 5cbb f116 0d3b 2c25 d43c d227 e2bb
000001a0: 8d5a e63b aae1 2a3d f7bd 5c3c 12f6 e63b
000001b0: b33f 8f3a 2f39 703d b424 f1bb e4c7 013d
000001c0: 0815 60bd d4f1 693b 48fc 70bb 644d 633c
000001d0: a69e 64bb ee57 2abc c5bc 0b3c 9aa9 363c
000001e0: e9f6 5dbb 1081 693b ab08 5b39 9450 1d3c
000001f0: d6ce c9bb c46b 613b 2ccc f0bc 363a 19bb
00000200: 3e2d a5ba cd0a 2cbc 7e36 423c 7457 1e3b
00000210: 5149 4cbc ebfa a03b 0529 cd3c 4bd3 e43c
00000220: aaa3 4bbd a1bc 85bc 0f3f 603b 0447 273d
00000230: cddb 95bc 0aba 043d 29a6 12bd d307 683d
00000240: 1fc1 453c 985f fc3a 5ef0 353b 5852 54bc
00000250: 9938 3d3d 8b02 bc3c e941 abbb 1f1d c83b
00000260: 7bf4 8cbd f83c a13c ae69 133c de12 cc3c
00000270: cb5e 9cbc c8c3 5a3d 4748 7f3b 8219 253c
00000280: 0801 c73b c150 903c 2ef7 c53b 0b72 95bb
00000290: 17cb 873b 7d47 28ba 5f56 08bc ad74 94ba
000002a0: 6edf 5b3d 0b63 7a3c aaf3 ad38 148d 023d
000002b0: 18f7 c93c 5370 ac3c 0de0 2c3b 9fe4 c63c
000002c0: 80bb a73c f412 513d 3239 103d 5754 1c3c
000002d0: 8d24 abbc 70c5 623d c943 efb9 e4a4 3ebb
000002e0: a0de 0d3d 9cd5 1e3c 6297 a13b ab8c 943c
000002f0: 5999 69bc fa13 7fbb 61ee b13b 559e 1eb9
00000300: 9bab 653d eecd 08bc 1190 18bc 9df0 9ebc
00000310: 8d17 ee3a d8d3 4ebb 1729 8c3c 3426 21bb
00000320: 154b e83c 307e f23a b7f3 673b 6413 403d
00000330: 9758 b3bc a8c9 063d b394 4b3d 53f2 843d
00000340: 7a82 a93b 57f2 bb3c 3b3d a8ba 8c67 42bb
00000350: 124d 7ebb f122 09bc e0e8 b53c a299 28bd
00000360: 1a08 05bc 46c9 093a 1fb7 2ebb b8fe cdbc
00000370: 02c2 c13b f5e7 ec3c 2602 88ba 5b91 b03b
00000380: 4f10 6cbb ee68 953c f12f 75bb 3449 43ba
00000390: a36c d0bb 6dae 983c 4404 0a3c 316a c03c
000003a0: 82ce 9b3c faf1 4b3d fdbb efbb c43b 843c
000003b0: fa95 25b8 6962 6d3a a147 333d 420e 17bc
000003c0: 76fb 08bc cacd 4d3b 58e1 0ebd cd2e 4d3d
000003d0: 10de ce3a 05b4 843c 4aa4 07bb 89d5 8e3a
000003e0: a73c b33c 49cb 703c bf69 39bc 4b7a c13c
000003f0: 0237 b93c 699d af3b 98a1 dd3b 38f2 f93b

action_model._discrete_distribution.branches.1.bias f4 [3]
-0.011817852 0.050571352 -0.023142494
00000000: aa9f 41bc e823 4f3d 5495 bdbc

action_model._discrete_distribution.branches.1.weight f4 [3, 256]
-0.02094762 0.02117775 0.00031534268 -0.0016773785 -0.01813864 -0.004972942 -0.011664131 0.04917505
-0.019091856 0.0012809519 -0.008130199 -0.0051039024 0.008615152 -0.024102146 -0.040652752 0.031502873
0.007397569 -0.011741427 -0.00034203735 0.012194461 0.029564766 -0.017125117 0.053568672 0.0016732792
0.0062236874 -0.010088022 0.007362366 0.0065463525 0.05252017 -0.01358211 0.0009355703 0.023241952
-0.003462415 0.0018124653 -0.032817118 0.000399525 -0.0013411322 0.02189032 -0.003301945 -0.014177587
-0.010814018 0.017282376 -0.042585377 -0.0090443855 0.0044848947 0.0031700493 0.018502442 -0.0014230001
0.0047533433 -0.011394751 0.009258513 0.002792954 -0.047701504 -0.010364075 -0.00958693 -0.0038259556
-0.008526386 -0.030119246 -0.010702771 -0.0120003335 0.013205018 0.016782226 -0.03616258 0.004533992
-0.0125807775 0.008323447 0.0008565575 0.0034616974 -0.013738933 0.004208054 -0.0041727526 -0.0037990594
-0.0061033983 -0.002359293 0.0026385288 0.013869675 -0.0010906296 -0.01646243 0.021841502 0.0032683064
0.005391009 0.028520813 0.0047463826 0.01987657 -0.0021078119 -0.015611716 0.021158753 -0.00023451455
-0.011463774 0.0040576174 -0.0054943697 0.008004928 0.0072264574 -0.012866073 -0.03376151 0.026212068
-0.0073998785 0.0026585208 0.002683537 -0.0066429144 0.018921234 -0.027675467 0.013839391 -0.012964393
-0.011563441 0.012040881 -0.021207446 0.010660172 0.005571039 0.02139726 0.0047673904 0.037920967
0.0030215601 0.019517886 0.01265352 0.01578722 -0.0018912929 0.009672709 0.009442931 0.06726646
0.0003180077 -0.003546987 -0.0078009237 -0.005741936 0.0022341786 4.3016622e-05 -0.011546627 0.026307294
-0.0014533077 0.023882512 -0.0045728153 -0.0042011887 -1.5933067e-05 0.011372228 0.005278523 0.009966357
-0.015745 0.021156449 -0.0040343176 -0.011016202 -0.007978031 -0.008995432 -0.022586267 -0.017310763
-0.017469594 0.0015178547 0.06846377 0.00937019 0.016345168 0.030667206 0.008199206 -0.0042182775
0.0048893797 -0.00077225873 0.0017396924 0.00062422367 -0.0010761323 -0.0018724495 0.011638294 0.004141557
-0.00981158 -0.006712651 0.0033278551 -0.038155887 0.011310046 -0.008389946 -0.008911298 0.0135950195
-0.05059637 -0.00025871868 0.005124765 0.015930118 -0.0020535984 0.03096804 0.023108164 -0.016590284
0.0029946254 0.003512309 -0.066585526 0.0012042234 0.002142178 0.0036015823 -0.015442037 -0.019672835
-0.014656231 -0.0073117665 -0.0133377835 -0.0053787096 0.0051218 -0.002090846 -0.0057406956 0.004993616
0.023880377 0.0062825843 -0.0034217648 0.0055695176 -0.007315863 0.0013231678 0.010163379 0.0036214057
0.01341241 -0.0056349663 -0.0028467937 0.026294254 0.031191025 0.018203665 0.012318845 0.0019007163
0.005668688 -0.0054123756 -0.0046269298 0.03501251 -0.0066238367 0.00916257 -0.017138414 0.026056971
-0.019373482 -0.0018540875 -0.0071777464 -0.027311571 0.006144221 0.014449627 0.023047913 -0.008168958
0.008792368 -0.0020831504 -0.009668239 0.02449908 0.009652441 0.007831667 -0.0016719803 0.0030976294
0.02229779 -0.008404194 -0.0057534175 -0.000102942984 -0.007215952 -0.013032285 -0.025484845 0.0033414466
-0.013147071 0.022588436 -0.020000972 0.013618888 -0.0013133696 0.00383845 0.001890807 -0.00028802545
-0.008113745 0.021169005 -0.009668285 0.021144293 -0.0020747515 0.008369892 -0.00031397256 0.025604544
00000000: 589a abbc f67c ad3c 9454 a539 7cdb dbba
00000010: 7c97 94bc 10f4 a2bb e91a 3fbc c76b 493d
00000020: 8666 9cbc 9de5 a73a 8734 05bc a33e a7bb
00000030: 9126 0d3c dd71 c5bc 8083 26bd 2809 013d
00000040: 4e67 f23b 1d5f 40bc 7a53 b3b9 47cb 473c
00000050: cf31 f23c f949 8cbc d36a 5b3d ef51 db3a
00000060: 13f0 cb3b 3b48 25bc 0140 f13b c982 d63b
00000070: 641f 573d 8087 5ebc 0f41 753a e865 be3c
00000080: afe9 62bb 3e90 ed3a 3e6b 06bd 5677 d139
00000090: eec8 afba 5453 b33c 7265 58bb 1c49 68bc
000000a0: 472d 31bc c593 8d3c 016e 2ebd e72e 14bc
000000b0: 06f6 923b 9ac0 4f3b 6f92 973c f683 baba
000000c0: efc1 9b3b 0db1 3abc 05b1 173c fe09 373b
000000d0: a762 43bd 15ce 29bc 8012 1dbc e2bc 7abb
000000e0: 41b2 0bbc a3bc f6bc ad5a 2fbc 0c9d 44bc
000000f0: dc59 583c e17a 893c 371f 14bd e291 943b
00000100: 9b1f 4ebc 115f 083c 9a8a 603a a5dd 623b
00000110: 4319 61bc b7e3 893b 96bb 88bb a4f9 78bb
00000120: 04ff c7bb 5e9e 1abb 2beb 2c3b a23d 633c
00000130: 75f3 8eba 38dc 86bc f3ec b23c 1531 563b
00000140: 10a7 b03b 7ba4 e93c 8b87 9b3b 30d4 a23c
00000150: 3723 0abb 48c8 7fbc 1f55 ad3c 05e8 75b9
00000160: 8ed2 3bbc c3f5 843b 1d0a b4bb 1a27 033c
00000170: ebcb ec3b 39cc 52bc 8249 0abd b1ba d63c
00000180: ae7a f2bb 943a 2e3b 48de 2f3b ceac d9bb
00000190: b400 9b3c a9b7 e2bc 9dbe 623c 9b68 54bc
000001a0: 9674 3dbc 1e47 453c 3dbb adbc 01a8 2e3c
000001b0: 438d b63b 4e49 af3c c537 9c3b 0453 1b3d
000001c0: 5e05 463b f9e3 9f3c b650 4f3c 3354 813c
000001d0: 42e5 f7ba 487a 1e3c 86b6 1a3c ffc2 893d
000001e0: 45ba a639 9174 68bb e49e ffbb da26 bcbb
000001f0: 4c6b 123b bf6c 3438 102e 3dbc 6582 d73c
00000200: ea7c beba 42a5 c33c 8ed7 95bb 20aa 89bb
00000210: 00a8 85b7 9552 3a3c 76f7 ac3b ee49 233c
00000220: a9fb 80bc 4a50 ad3c 4f32 84bb 4d7d 34bc
00000230: 4ab6 02bc 9461 13bc d606 b9bc 4dcf 8dbc
00000240: 651c 8fbc c1f2 c63a bc36 8c3d 6d85 193c
00000250: 4de6 853c cb39 fb3c f655 063c 7a39 8abb
00000260: 1737 a03b 6871 4aba 6406 e43a f1a2 233a
00000270: 020d 8dba fb6c f5ba 8bae 3e3c e6b5 873b
00000280: c0c0 20bc ccf5 dbbb 2518 5a3b 5949 1cbd
00000290: c54d 393c fc75 09bc b100 12bc a5bd 5e3c
000002a0: 243e 4fbd a2a4 87b9 a5ed a73b e17f 823c
000002b0: aa95 06bb b0b0 fd3c 554d bd3c 59e8 87bc
000002c0: 7a41 443b c42e 663b fe5d 88bd 08d7 9d3a
000002d0: c863 0c3b 8608 6c3b 9900 7dbc ed28 a1bc
000002e0: b020 70bc 8b97 efbb b886 5abc e33f b0bb
000002f0: c6d4 a73b 9306 09bb 721c bcbb 7da1 a33b
00000300: c8a0 c33c 23de cd3b b03f 60bb 8080 b63b
00000310: e8b9 efbb 256e ad3a 4d84 263c 1b55 6d3b
00000320: babf 5b3c 86a5 b8bb 4691 3abb 0c67 d73c
00000330: 5284 ff3c da1f 953c fbd4 493c 7521 f93a
00000340: 67c0 b93b 4c5a b1bb 809d 97bb 4769 0f3d
00000350: c50c d9bb 9b1e 163c dc65 8cbc 6e75 d53c
00000360: 23b5 9ebc da04 f3ba 4d33 ebbb 84bc dfbc
00000370: 7655 c93b 21be 6c3c face bc3c 18d7 05bc
00000380: dd0d 103c 7785 08bb 8967 1ebc 4bb2 c83c
00000390: 4625 1e3c 6450 003c 5926 dbba 9901 4b3b
000003a0: dba9 b63c bfb1 09bc 2a87 bcbb 18e3 d7b8
000003b0: cb73 ecbb 5d85 55bc 98c5 d0bc 2cfc 5a3b
000003c0: d066 57bc 620b b93c 14d9 a3bc c221 5f3c
000003d0: 5f25 acba 818e 7b3b f4d4 f73a 1f02 97b9
000003e0: 83ef 04bc 9f6a ad3c ba67 1ebc cc36 ad3c
000003f0: 8ef8 07bb df21 093c af9c a4b9 9fc0 d13c

discrete_action_output_shape f4 [1, 2]
3.0 3.0
00000000: 0000 4040 0000 4040

network_body._body_endoder.seq_layers.0.bias f4 [256]
-0.044149105 -0.11844703 -0.11662593 -0.11735884 -0.030466458 -0.049156178 -0.14550458 -0.01420598
-0.04025576 -0.02690883 -0.061280724 -0.13741605 -0.08961567 -0.075939365 0.0027267537 -0.052730583
-0.046840828 -0.088814534 -0.1053563 0.011449581 -0.09523947 -0.15638381 -0.08980571 -0.08990928
-0.014845628 -0.07782198 -0.044495907 -0.096075214 -0.08572132 -0.08904208 -0.07863224 -0.04900135
-0.09049985 -0.07289596 -0.041398488 -0.152872 -0.024402907 -0.056721773 -0.014193934 -0.07703287
-0.056395233 -0.10843937 -0.074800655 -0.017831229 -0.12053294 -0.1125112 -0.10134345 -0.08298987
0.023674764 -0.020175401 -0.116759576 -0.024442123 -0.095377885 -0.03050345 -0.021588359 -0.08108069
-0.045908175 -0.050557576 -0.052479234 -0.029412445 -0.046773758 -0.012172422 -0.06382428 -0.020902056
-0.09605431 -0.086824335 -0.11108792 -0.012607634 -0.043059643 -0.07630549 0.01584462 -0.082527615
-0.07375345 -0.035845064 -0.009410793 -0.024944799 -0.0074628172 -0.12050373 -0.102657236 -0.014986234
0.07778843 0.035940737 -0.16851209 -0.038915183 -0.13335446 -0.034578755 -0.014932551 -0.045876123
-0.05834249 -0.0010891247 -0.02549821 -0.057921488 -0.09034031 -0.030615391 -0.009717362 -0.046988927
-0.050190583 -0.06425508 -0.06254233 -0.06816334 -0.028333459 0.10287443 -0.070708364 -0.07504782
-0.041955262 -0.030980071 0.012968881 -0.11614024 -0.09066582 -0.025518192 -0.069066025 -0.023862826
-0.01893352 -0.063823126 0.008464339 -0.0005415408 -0.07697796 -0.029862119 -0.09871214 -0.20134199
0.05433058 -0.0729414 -0.0874861 -0.076193035 0.00039964498 -0.017408209 -0.1283629 -0.012647275
0.03516984 -0.056481566 -0.030790653 0.04207256 -0.07277418 -0.09355698 -0.0012345753 -0.06866707
0.01575553 -0.058802407 -0.091196984 0.003994154 -0.004653927 -0.13782637 -0.034773584 -0.032387085
-0.07586892 -0.099068925 -0.0038938276 -0.071380034 -0.09295123 -0.077648796 -0.13932495 0.012141638
-0.20604454 -0.08551056 -0.075433835 -0.036979582 -0.0814489 -0.119343765 -0.079817064 -0.09915977
-0.026637072 0.0074431966 0.063633256 -0.004124452 -0.12744378 -0.10845263 -0.072844096 -0.03355862
-0.074798465 -0.011309464 -0.06183417 -0.04337779 -0.13866374 -0.06875731 0.00437404 -0.022577353
-0.15755221 -0.08099392 -0.012328069 -0.0904907 -0.004785175 -0.15144892 -0.08399607 -0.012271719
0.003490622 -0.0489257 -0.083560854 -0.057315566 -0.02303459 -0.004840084 -0.07708908 -0.04623144
-0.049523395 -0.15819222 0.009799659 -0.021745821 -0.16374622 -0.03416845 -0.010493627 -0.095816426
-0.11150787 -0.06074945 -0.06583118 -0.016684167 -0.08227352 -0.015173404 -0.05663003 -0.08068795
-0.13243599 -0.024148058 -0.06875801 -0.07176107 -0.06060321 -0.086949065 -0.032937363 0.009906127
-0.097924165 -0.057165213 -0.041209105 -0.07934654 -0.025874717 -0.049090024 -0.050961412 -0.050545786
-0.09557576 -0.052766703 -0.114648245 -0.06460716 -0.029906984 -0.0040089795 -0.04694564 -0.056771632
-0.044590212 0.028364357 -0.10436277 -0.02117635 -0.081830055 -0.13360104 -0.07259119 0.03538951
-0.060964458 -0.058493387 -0.09648295 -0.02389894 0.014125807 -0.008179119 -0.024710763 -0.11060014
-0.041118804 -0.08042765 -0.011838224 -0.09182952 -0.07438953 -0.026016958 -0.06821595 -0.10046289
00000000: b1d5 34bd 5b94 f2bd 93d9 eebd d559 f0bd
00000010: cb94 f9bc fd57 49bd 27ff 14be 33c0 68bc
00000020: 39e3 24bd e86f dcbc 7f01 7bbd cbb6 0cbe
00000030: 6c88 b7bd 1986 9bbd 56b3 323b 06fc 57bd
00000040: 2bdc 3fbd 65e4 b5bd 0bc5 d7bd 0697 3b3c
00000050: e90c c3bd 1423 20be 0eec b7bd 5b22 b8bd
00000060: 143b 73bc 2161 9fbd 5741 36bd 15c3 c4bd
00000070: a98e afbd b25b b6bd f109 a1bd a4b5 48bd
00000080: fc57 b9bd 7a4a 95bd 7691 29bd 7a8a 1cbe
00000090: 9be8 c7bc 1755 68bd ad8d 68bc 69c3 9dbd
000000a0: b0fe 66bd 7615 debd 1631 99bd cc12 92bc
000000b0: f9d9 f6bd 466c e6bd 288d cfbd 98f6 a9bd
000000c0: 94f1 c13c e246 a5bc a51f efbd d93a c8bc
000000d0: 7b55 c3bd 5fe2 f9bc 12da b0bc a20d a6bd
000000e0: 360a 3cbd 7615 4fbd 77f4 56bd 5ef2 f0bc
000000f0: d795 3fbd d76e 47bc 4eb6 82bd ca3a abbc
00000100: 1fb8 c4bd f5d0 b1bd 1082 e3bd 4090 4ebc
00000110: 4f5f 30bd 0e46 9cbd 94cc 813c 3d04 a9bd
00000120: 0c0c 97bd 46d2 12bd ba2f 1abc 0959 ccbc
00000130: a68a f4bb a9ca f6bd f53d d2bd d288 75bc
00000140: 8a4f 9f3d 9836 133d 6f8e 2cbe 8765 1fbd
00000150: 128e 08be 74a2 0dbd a9a7 74bc 9ae8 3bbd
00000160: 89f8 6ebd f6c0 8eba 9fe1 d0bc 153f 6dbd
00000170: 5704 b9bd 21cd fabc 9235 1fbc 7677 40bd
00000180: a494 4dbd 2b98 83bd 3116 80bd 3999 8bbd
00000190: 921b e8bc d4af d23d 8ccf 90bd acb2 99bd
000001a0: 48d9 2bbd ebc9 fdbc 6e7b 543c efda edbd
000001b0: 00af b9bd 870b d1bc 7d72 8dbd f97b c3bc
000001c0: 781a 9bbc b3b5 82bd 03ae 0a3c 30f6 0dba
000001d0: 9fa6 9dbd 67a1 f4bc 9729 cabd 982c 4ebe
000001e0: be89 5e3d 4d62 95bd ea2b b3bd 180b 9cbd
000001f0: 7187 d139 a99b 8ebc 9071 03be 8436 4fbc
00000200: 400e 103d 3759 67bd ae3c fcbc 4754 2c3d
00000210: a10a 95bd cd9a bfbd 79d1 a1ba 52a1 8cbd
00000220: be11 813c cbda 70bd 7cc5 babd 64e1 823b
00000230: f87f 98bb 5b22 0dbe bf6e 0ebd 52a8 04bd
00000240: 2a61 9bbd a6e4 cabd 962f 7fbb b22f 92bd
00000250: 375d bebd 5506 9fbd 33ab 0ebe b9ed 463c
00000260: 57fd 52be 2920 afbd 0e7d 9abd e777 17bd
00000270: aece a6bd 816a f4bd 2177 a3bd 4714 cbbd
00000280: fd35 dabc 0fe6 f33b 2752 823d 6926 87bb
00000290: 9f80 02be 6a1c debd 492f 95bd c374 09bd
000002a0: f02f 99bd 554b 39bc d445 7dbd e9ac 31bd
000002b0: defd 0dbe a2d0 8cbd 1b54 8f3b 24f4 b8bc
000002c0: 5e55 21be 24e0 a5bd abfb 49bc 3053 b9bd
000002d0: f5cc 9cbb 6d15 1bbe 2206 acbd 520f 49bc
000002e0: ebc2 643b 5166 48bd f421 abbd bac3 6abd
000002f0: 09b3 bcbc 9199 9ebb e1e0 9dbd 2e5d 3dbd
00000300: 0bd9 4abd 24fd 21be c08e 203c 4b24 b2bc
00000310: 17ad 27be 37f4 0bbd 76ed 2bbc 673b c4bd
00000320: 3d5e e4bd 6ad4 78bd 7fd2 86bd 3cad 88bc
00000330: 057f a8bd de99 78bc e4f4 67bd b93f a5bd
00000340: 4d9d 07be 26d2 c5bc 00d1 8cbd 78f7 92bd
00000350: 123b 78bd 5a12 b2bd 54e9 06bd 4f4d 223c
00000360: 778c c8bd 1226 6abd e1ca 28bd 7080 a2bd
00000370: 37f7 d3bc 9f12 49bd eabc 50bd 1909 4fbd
00000380: 39bd c3bd e621 58bd b3cc eabd c250 84bd
00000390: 7eff f4bc c25d 83bb 124a 40bd 5f89 68bd
000003a0: 3aa4 36bd 5e5c e83c 26bc d5bd 067a adbc
000003b0: 8496 a7bd b6ce 08be b1aa 94bd 97f4 103d
000003c0: deb5 79bd c396 6fbd da98 c5bd b6c7 c3bc
000003d0: ee6f 673c b601 06bc 3a6e cabc 5482 e2bd
000003e0: 316c 28bd 40b7 a4bd 1cf5 41bc 1e11 bcbd
000003f0: 8a59 98bd 8421 d5bc ceb4 8bbd 7dbf cdbd

network_body._body_endoder.seq_layers.0.weight f4 [256, 68]
0.07672069 0.21611965 0.020564944 -0.13745634 0.073055804 -0.006088463 0.09003112 -0.009755312
-0.05130054 0.053106744 0.12914844 -0.20391749 0.3348213 0.21896605 0.23888423 -0.034860883
0.07252234 0.095580384 0.06874613 -0.102823995 -0.11620623 -0.17311382 0.036475174 0.18529527
-0.030886084 0.14004959 0.0071777985 -0.31914157 0.08761482 -0.13084874 -0.03570525 0.23857449
-0.04182767 -0.07998754 -0.066509075 -0.254588 0.33758613 -0.17633723 -0.09163237 0.16661334
0.08399046 0.17086315 -0.09519177 0.16751567 0.22946005 -0.2627086 -0.026726907 -0.10995689
0.022114618 -0.036801487 0.028233059 -0.014901942 -0.04743905 -0.02346421 -0.13955146 -0.05940698
-0.008544228 -0.060020365 -0.07481972 0.020128876 -0.052620076 -0.2819472 -0.019812739 -0.29457417
-0.041864023 -0.0730988 -0.07699785 -0.11690139 0.09551773 -0.13632101 -0.03875664 -0.076371826
0.07753322 -0.14224516 -0.15550044 -0.3595146 0.21505018 -0.044367395 0.07297849 0.0026010692
0.013278758 -0.10172015 0.24417314 0.16291302 -0.09762884 0.028661272 0.092421375 0.13784501
0.04067954 0.05285963 0.03665783 0.023998441 -0.1058821 -0.025115289 0.012331841 -0.17955883
-0.13963816 -0.34757882 0.1125665 -0.13393658 0.08241839 -0.1406349 0.079318784 -0.18299025
-0.082405955 -0.28732598 -0.11601945 0.039270833 -0.189939 -0.018388396 0.16288172 -0.031525306
0.016375614 -0.16407439 -0.07914317 -0.1799728 0.18739806 -0.21520934 -0.019282583 -0.009035521
-0.19184452 -0.022474192 0.12837511 -0.15265386 -0.005917436 0.11658222 -0.16095962 -0.28421587
-0.009364562 0.12513444 0.2284956 0.067276046 -0.00774949 -0.23344122 -0.03421403 -0.11783939
0.11295395 0.0075620175 0.047153607 0.117116764 -0.1844742 -0.13508496 0.12523532 -0.21231274
-0.016334634 0.03941749 0.13397188 -0.20936449 -0.10910513 -0.26928437 -0.13467018 -0.068084516
-0.09099491 -0.20482315 0.17086367 -0.14313059 -0.122452356 0.15807179 0.09178165 -0.3226334
-0.076177485 -0.0900874 -0.111979164 -0.16111296 0.067591526 -0.40506586 0.18059929 -0.120582715
0.03526186 0.029502662 0.022295844 -0.1820937 -0.097912684 -0.105192825 0.16073379 -0.29823527
0.0338657 -0.013478526 0.0032264658 0.10227526 0.13112383 0.07003635 -0.2148615 -0.14708014
-0.073199324 0.22959703 0.083493955 0.118180804 0.086424135 0.047045242 -0.045805797 -0.49819258
0.21101727 0.22692524 0.09900248 -0.24589574 -0.09693614 -0.3568248 0.19084804 0.012617104
-0.017239498 -0.03357451 0.07221942 0.1334385 -0.07532648 -0.2130591 -0.037793282 -0.102440625
0.10497156 -0.095997795 0.03148298 0.11041958 -0.26756817 -0.1785968 -0.07700635 -0.045448568
-0.31509843 -0.17645869 -0.038717564 -0.12194731 -0.002345187 -0.1870779 -0.26251552 0.07748839
-0.16055743 -0.15056957 0.24195383 0.00534064 -0.08987987 -0.1712199 0.21505895 -0.12176275
0.057667032 -0.31828573 0.037045404 -0.14077896 0.12629971 -0.04605354 0.045085568 -0.11583234
0.041868813 0.20885509 -0.097719625 -0.22555003 -0.1746514 -0.30225936 0.083376504 -0.11793052
-0.04614149 0.0073188995 0.0018586782 -0.15374221 -0.07959638 -0.010859821 -0.14606906 0.01381983
00000000: bd1f 9d3d 784e 5d3e d077 a83c 5bc1 0cbe
00000010: 489e 953d bb81 c7bb 3c62 b83d bfd4 1fbc
00000020: 8420 52bd 7586 593d 7d3f 043e bfcf 50be
00000030: b36d ab3e a338 603e 119e 743e 49ca 0ebd
00000040: 9886 943d a6bf c33d c5ca 8c3d 6395 d2bd
00000050: 88fd edbd c044 31be fe66 153d 0bbe 3d3e
00000060: d004 fdbc 2969 0f3e bd33 eb3b 8666 a3be
00000070: 666f b33d 36fd 05be ab3f 12bd df4c 743e
00000080: 7e53 2bbd 82d0 a3bd e935 88bd 5c59 82be
00000090: 17d8 ac3e bf91 34be c1a9 bbbd b09c 2a3e
000000a0: 3103 ac3d c0f6 2e3e e7f3 c2bd 3a89 2b3e
000000b0: 93f7 6a3e be81 86be 63f2 dabc 1431 e1bd
000000c0: b729 b53c 28bd 16bd 0449 e73c 4627 74bc
000000d0: 734f 42bd 0438 c0bc 94e6 0ebe bc54 73bd
000000e0: 17fd 0bbc ead7 75bd 153b 99bd 50e5 a43c
000000f0: 2688 57bd 625b 90be 534e a2bc 6dd2 96be
00000100: 9c79 2bbd d3b4 95bd 0cb1 9dbd ff69 efbd
00000110: cd9e c33d bc97 0bbe 48bf 1ebd d568 9cbd
00000120: bdc9 9e3d b7a8 11be 823b 1fbe 4c12 b8be
00000130: 1d36 5c3e 96ba 35bd bf75 953d b376 2a3b
00000140: 268f 593c a752 d0bd 8608 7a3e acd2 263e
00000150: a1f1 c7bd 0bcb ea3c 6b47 bd3d 3e27 0d3e
00000160: 979f 263d 5783 583d 8526 163d 6198 c43c
00000170: b7d8 d8bd 94be cdbc 7d0b 4a3c 45de 37be
00000180: 4efd 0ebe daf5 b1be 4489 e63d ac26 09be
00000190: f9ca a83d 9802 10be e371 a23d cc61 3bbe
000001a0: 74c4 a8bd 641c 93be 9b9b edbd 74da 203d
000001b0: 5f7f 42be 43a3 96bc 77ca 263e ae20 01bd
000001c0: 2726 863c 1e03 28be d015 a2bd ca4a 38be
000001d0: 47e5 3f3e d65f 5cbe 82f6 9dbc b909 14bc
000001e0: e472 44be cc1b b8bc c474 033e 4b51 1cbe
000001f0: 0de7 c1bb a9c2 ee3d 99d2 24be be84 91be
00000200: d26d 19bc 3e23 003e c0fa 693e 06c8 893d
00000210: 6fef fdbb 370b 6fbe 0324 0cbd c755 f1bd
00000220: 6754 e73d cdca f73b 2424 413d eada ef3d
00000230: cee6 3cbe b653 0abe b03d 003e 8368 59be
00000240: 36d0 85bc 3c74 213d ed2f 093e a563 56be
00000250: 8372 dfbd a4df 89be fbe6 09be e56f 8bbd
00000260: 8a5b babd 29bd 51be e3f6 2e3e d390 12be
00000270: 4dc8 fabd 92dd 213e 05f8 bb3d 3430 a5be
00000280: f102 9cbd be7f b8bd 5555 e5bd ccfa 24be
00000290: 6d6d 8a3d cb64 cfbe 05ef 383e 12f4 f6bd
000002a0: bd6e 103d 91af f13c c6a5 b63c c576 3abe
000002b0: 7286 c8bd 566f d7bd 6697 243e 4bb2 98be
000002c0: c3b6 0a3d 09d5 5cbc 1d73 533b b175 d13d
000002d0: 5345 063e 386f 8f3d a704 5cbe 2d9c 16be
000002e0: 87e9 95bd 7c1b 6b3e e1fe aa3d c708 f23d
000002f0: 23ff b03d 83b2 403d dc9e 3bbd 1913 ffbe
00000300: e914 583e 175f 683e d0c1 ca3d 18cc 7bbe
00000310: 7486 c6bd bdb1 b6be ab6d 433e f8b7 4e3c
00000320: d939 8dbc 6d85 09bd c6e7 933d 1aa4 083e
00000330: c544 9abd 2a2c 5abe 21cd 1abd 64cc d1bd
00000340: 54fb d63d 7e9a c4bd 4cf4 003d a923 e23d
00000350: b2fe 88be 14e2 36be 81b5 9dbd 4728 3abd
00000360: 9554 a1be 96b1 34be 4f96 1ebd 83bf f9bd
00000370: b5b1 19bb 5991 3fbe 6f68 86be 3cb2 9e3d
00000380: 2b69 24be e92e 1abe bfc2 773e 8900 af3b
00000390: f012 b8bd 4554 2fbe 6a38 5c3e c05e f9bd
000003a0: 4434 6c3d 59f6 a2be ecbc 173d 5c28 10be
000003b0: b654 013e a3a2 3cbd a5ab 383d 8239 edbd
000003c0: a27e 2b3d 1cde 553e 3a21 c8bd 96f6 66be
000003d0: d1d7 32be bdc1 9abe 4dc1 aa3d 8e85 f1bd
000003e0: dcfe 3cbd 61d3 ef3b e49e f33a 996e 1dbe
000003f0: 6d03 a3bd 64ed 31bc 2193 15be 916c 623c

network_body._body_endoder.seq_layers.2.bias f4 [256]
-0.15355945 -0.025963673 -0.07814727 0.007942984 -0.05334786 -0.0057760593 -0.038432885 0.022902343
-0.09153422 0.00387309 -0.082759924 -0.12085403 -0.071428955 -0.04531134 -0.086546205 -0.09547103
0.013224619 -0.03907104 -0.032349173 -0.162352 -0.037261993 -0.055812657 0.0073530166 -0.07905366
-0.11415181 -0.034159638 -0.0039869556 -0.046734385 -0.057114687 -0.023948407 0.06782817 -0.11385309
-0.020620055 -0.043525055 -0.085394 0.028109299 -0.06704999 -0.08395894 -0.027645465 -0.051561974
-0.06061729 -0.07083576 -0.055671036 -0.072290264 -0.06340663 -0.07964987 0.028157393 -0.06795576
-0.059326593 -0.008003692 -0.025734674 -0.11392091 -0.027610501 -0.034695216 -0.07431246 -0.0048250193
-0.06780688 -0.09026596 -0.048797134 -0.058821682 -0.08776197 0.0015469376 -0.03805025 -0.040028173
-0.102723174 -0.05639019 -0.12180521 -0.042746246 -0.06097851 -0.066649 -0.046281673 0.074514434
-0.047343764 -0.0025629275 0.0026734867 0.024664547 -0.03423005 -0.06143788 -0.071807265 -0.031506516
-0.0044512833 -0.076243766 -0.046254367 -0.0866074 0.044250906 -0.027326003 -0.108317 -0.03537395
-0.07523763 -0.024833161 -0.06905846 -0.104028895 -0.06557734 -0.08000409 -0.097364575 0.016959935
-0.11027537 -0.046951614 0.032808777 -0.04469657 -0.06960551 -0.0651501 -0.072519235 -0.07221566
-0.04589157 -0.05187496 -0.030854406 -0.06786152 -0.018668894 -0.082757406 -0.032664716 -0.018219933
-0.03726519 -0.030341018 -0.10788362 -0.07484029 -0.05587463 -0.06190843 -0.039732937 -0.087113224
-0.05517646 -0.12229679 -0.046133414 -0.041094206 -0.08244577 -0.029782467 -0.03598009 0.018657377
-0.03683254 -0.031320367 -0.04478157 -0.15006973 -0.093735375 -0.05043896 -0.03330684 -0.030076284
-0.1059994 -0.09967227 -0.034369428 -0.043451622 -0.09527355 -0.055035226 -0.08458742 -0.02750801
-0.035590574 -0.04733688 -0.03579575 -0.044117626 -0.030394064 -0.09139627 -0.082372 0.008276668
0.017773997 -0.102721475 -0.039318077 -0.02991576 -0.12436681 -0.025551895 -0.05372275 -0.04138459
0.008505199 -0.0670298 -0.020434149 -0.025800873 -0.093647376 -0.010777824 -0.049717557 -0.111397766
-0.14129514 -0.15189591 -0.08254933 0.06294456 -0.04000305 -0.09127654 -0.09961096 -0.049456958
-0.08143883 -0.02486617 -0.09250975 -0.108143516 -0.0854267 -0.0544857 -0.014221164 -0.03066748
-0.09405528 -0.042749126 -0.054577745 0.00985293 -0.05598451 -0.029152889 -0.030287897 -0.08743569
-0.030913642 -0.104068436 -0.06980821 -0.07093735 -0.054839507 -0.0495649 -0.015202673 -0.063830204
-0.05925731 -0.06870013 -0.08313615 -0.037961688 -0.04174987 -0.0071953903 -0.041128505 -0.037221845
-0.023309397 0.0014905264 -0.04516887 -0.06748849 5.9725302e-05 -0.11016409 -0.06304284 -0.003889333
0.020113938 -0.06256973 -0.039172277 -0.12945427 -0.042566575 -0.0873177 0.0376905 -0.025437674
-0.054852765 -0.029740019 -0.034961835 -0.0881018 0.042366188 -0.054520592 -0.14804448 -0.08444854
-0.052669797 -0.06884456 -0.095661476 -0.029207762 -0.05744515 -0.05580171 -0.0052838326 -0.006884892
-0.10556273 -0.13391812 -0.056553453 -0.03511637 -0.09339817 -0.031619847 -0.014543115 -0.08156406
-0.014724242 -0.021832211 -0.1355959 -0.010166161 -0.08173868 -0.101757064 -0.11598034 -0.081648275
00000000: b03e 1dbe c5b1 d4bc ad0b a0bd 4a23 023c
00000010: 4983 5abd 1945 bdbb cd6b 1dbd b29d bb3c
00000020: 4b76 bbbd abd3 7d3b 097e a9bd 5182 f7bd
00000030: 5849 92bd 6298 39bd 233f b1bd 5186 c3bd
00000040: 13ac 583c f408 20bd 9180 04bd 9a3f 26be
00000050: 08a0 18bd d09b 64bd 93f1 f03b e3e6 a1bd
00000060: 6dc8 e9bd faea 0bbd 02a5 82bb 8e6c 3fbd
00000070: 17f1 69bd 732f c4bc 7fe9 8a3d cf2b e9bd
00000080: 64eb a8bc 5447 32bd 0de3 aebd 7945 e63c
00000090: 8151 89bd aaf2 abbd be78 e2bc a632 53bd
000000a0: d649 78bd 5712 91bd 5007 64bd eb0c 94bd
000000b0: 56db 81bd 791f a3bd 55aa e63c 642c 8bbd
000000c0: 7100 73bd eb21 03bc 86d1 d2bc 5e4f e9bd
000000d0: 6b2f e2bc 921c 0ebd 2231 98bd 321b 9ebb
000000e0: 55de 8abd 5cdd b8bd 81df 47bd 01ef 70bd
000000f0: 8cbc b3bd 9dc2 ca3a 94da 1bbd 95f4 23bd
00000100: 8760 d2bd 66f9 66bd 0375 f9bd b016 2fbd
00000110: 9ac4 79bd 457f 88bd da91 3dbd 069b 983d
00000120: 89eb 41bd caf6 27bb aa35 2f3b 4e0d ca3c
00000130: cf34 0cbd 49a6 7bbd b00f 93bd fa0c 01bd
00000140: 12dc 91bb b125 9cbd 3875 3dbd 385f b1bd
00000150: 7040 353d c8da dfbc 4ed5 ddbd 46e4 10bd
00000160: 3016 9abd ea6e cbbc 866e 8dbd 1a0d d5bd
00000170: 6a4d 86bd 2fd9 a3bd 1467 c7bd 90ef 8a3c
00000180: 0ed8 e1bd 5650 40bd 7f62 063d c013 37bd
00000190: 558d 8ebd 6a6d 85bd f784 94bd cee5 93bd
000001a0: cdf8 3bbd d77a 54bd 61c2 fcbc fbfa 8abd
000001b0: 82ef 98bc b77c a9bd 70cb 05bd f841 95bc
000001c0: 62a3 18bd ba8d f8bc 16f2 dcbd de45 99bd
000001d0: ccdc 64bd b293 7dbd 01bf 22bd 6b68 b2bd
000001e0: b600 62bd bd76 fabd 64f6 3cbd 6652 28bd
000001f0: 54d9 a8bd 5cfa f3bc dc5f 13bd 5bd7 983c
00000200: b8dd 16bd c949 00bd e16c 37bd e1ab 19be
00000210: 55f8 bfbd 1599 4ebd c16c 08bd 8a62 f6bc
00000220: 3716 d9bd fa20 ccbd f5c6 0cbd 54fa 31bd
00000230: c71e c3bd 9e6c 61bd 2b3c adbd 7a58 e1bc
00000240: 6cc7 11bd 51e4 41bd 909e 12bd afb4 34bd
00000250: f9fc f8bc f82d bbbd a7b2 a8bd dd9a 073c
00000260: c69a 913c a35f d2bd fe0b 21bd e511 f5bc
00000270: 07b4 febd 3552 d1bc 630c 5cbd e382 29bd
00000280: 6459 0b3c eb46 89bd 8465 a7bc 5a5c d3bc
00000290: 32ca bfbd 7895 30bc a3a4 4bbd 8324 e4bd
000002a0: acaf 10be 9a8a 1bbe a00f a9bd 14e9 803d
000002b0: 3dda 23bd 32ef babd d500 ccbd 6193 4abd
000002c0: 67c9 a6bd 23b4 cbbc c075 bdbd 597a ddbd
000002d0: 32f4 aebd 662c 5fbd e3ff 68bc 5e3a fbbc
000002e0: 0ea0 c0bd b519 2fbd ea8c 5fbd 2f6e 213c
000002f0: 0350 65bd 0ad2 eebc 531e f8bc 7c11 b3bd
00000300: 9b3e fdbc d521 d5bd 9bf7 8ebd 9a47 91bd
00000310: 649f 60bd 9104 4bbd a214 79bc 69b9 82bd
00000320: cbb7 72bd a7b2 8cbd 4943 aabd b77d 1bbd
00000330: e901 2bbd 4fc7 ebbb 5d76 28bd ef75 18bd
00000340: 59f3 bebc c45d c33a fe02 39bd 6837 8abd
00000350: 8e81 7a38 b69d e1bd 9b1c 81bd 2ee4 7ebb
00000360: fcc5 a43c 8f24 80bd 1c73 20bd a98f 04be
00000370: 4a5a 2ebd 9fd3 b2bd 5b61 1a3d ab62 d0bc
00000380: 4bad 60bd 57a1 f3bc 2434 0fbd b76e b4bd
00000390: 2b88 2d3d fc50 5fbd f998 17be 5bf3 acbd
000003a0: 49bc 57bd 60fe 8cbd 2aea c3bd 1e45 efbc
000003b0: 9b4b 6bbd 5590 64bd 0024 adbb a99a e1bb
000003c0: 4631 d8bd d521 09be 98a4 67bd 2fd6 0fbd
000003d0: 8a47 bfbd d083 01bd 3f46 6ebc 0f0b a7bd
000003e0: f23d 71bc 77d9 b2bc a7d9 0abe f88f 26bc
000003f0: 9c66 a7bd 0266 d0bd 1a87 edbd 3637 a7bd

network_body._body_endoder.seq_layers.2.weight f4 [256, 256]
0.013925735 -0.010779584 0.13495429 -0.14036736 0.03441878 0.09563643 0.06858672 -0.060497735
-0.020508632 -0.032071974 0.062107798 0.1361106 -0.018807983 -0.05922039 0.10393977 0.09221727
0.0164259 -0.031496316 -0.08670676 0.17427789 -0.1211832 -0.16417074 0.048356157 0.08000624
-0.12584536 0.13273226 0.10306912 0.1063669 0.07141187 0.06786106 0.14664832 0.15540694
0.13701615 -0.06391747 0.02054121 0.032158725 -0.04343211 0.022448344 0.073292434 0.01634288
0.024493352 0.21863286 0.066214584 0.1770723 -0.11287884 -0.10579884 0.035970658 0.016917396
0.09327555 -0.1907235 0.10435776 0.00074836257 -0.014666314 -0.13797283 -0.0680359 -0.1993037
-0.15315802 -0.14468566 -0.07275652 0.090822056 -0.15534958 0.2628623 -0.05180096 0.05303133
0.051640224 0.024017254 -0.036001433 -0.2853929 -0.051224947 0.1527101 0.15591638 -0.047347043
-0.08223673 -0.07441764 0.08110976 -0.1254297 0.06609823 -0.20088845 -0.09397049 0.082048655
0.09248361 -0.0045884335 -0.0079964055 -0.00067200384 -0.060321562 -0.0053673615 0.12715706 0.0957722
-0.028768888 -0.08742631 -0.09204579 0.10242128 -0.17149234 0.063532785 -0.044856865 -0.13196024
0.10704693 -0.043144118 -0.11074127 0.25012508 -0.019540608 0.1032303 0.044571925 0.22865146
-0.03233501 -0.13096277 0.011239928 0.12693213 0.15173526 -0.004968522 0.0803781 0.030839274
-0.100384586 0.0107769035 -0.110776775 0.13733836 -0.25192967 -0.122025974 -0.08017194 -0.13547437
0.09533272 -0.12936549 0.121865764 -0.011521664 -0.06485594 0.10475376 0.33002776 0.31032637
-0.100718446 -0.059434183 0.14388986 0.26683497 -0.041812353 0.32796112 0.009012326 0.01685454
-0.069444254 0.067667596 -0.17519784 -0.029196583 0.17213953 -0.08383565 -0.24396363 0.0861021
0.14866263 -0.022472102 0.12938465 0.002505852 0.13825507 -0.062948234 0.01659078 0.23581202
0.09165804 -0.086871505 0.010761312 -0.09368617 0.006297752 0.13418178 -0.043735795 -0.0778148
0.078413986 0.123287536 0.12500846 0.057796054 0.055606026 -0.11781489 -0.20579484 0.06308359
-0.021985006 -0.03065285 0.08913415 0.08030347 0.032931887 0.1308835 0.009926922 0.060136363
-0.09129342 -0.06646898 -0.050615326 0.170592 -0.04364314 0.19277525 0.14576553 -0.18305713
-0.10276344 0.036856696 -0.012878021 0.113091685 -0.014220186 -0.0036167197 0.12466615 0.132871
-0.0652108 0.085034125 0.0361958 0.1692642 0.091019064 -0.17609264 -0.019351957 0.048646618
-0.109065756 0.09726453 -0.14548199 0.04890672 0.039986826 0.015273688 -0.032530244 -0.01711165
-0.04605732 0.11671002 0.07687492 0.050292768 0.06561064 -0.11254477 0.04008304 0.31367406
-0.047236994 -0.07137059 -0.19330578 0.014118891 -0.01566138 0.07879382 0.031377837 -0.04083015
0.1444818 0.2332016 -0.018945897 -0.06847287 0.13787681 -0.016767148 -0.13293308 0.05604698
0.016044164 0.10530547 -0.070533045 -0.17967242 -0.0038379747 0.035595607 -0.085498996 0.14301313
0.105078265 -0.19263764 -0.033350993 0.047473 -0.109032065 0.16738424 -0.07919066 0.079163276
0.24051693 0.16533928 -0.11241138 0.090154774 -0.11398992 -0.051459804 -0.1135912 -0.18044053
00000000: c428 643c da9c 30bc 7531 0a3e 76bc 0fbe
00000010: b5fa 0c3d 08dd c33d 3277 8c3d 79cc 77bd
00000020: b801 a8bc e75d 03bd bf64 7e3d 9460 0b3e
00000030: 3313 9abc 1491 72bd 60de d43d 68dc bc3d
00000040: 9c8f 863c 4802 01bd 5093 b1bd e775 323e
00000050: e62e f8bd 601c 28be 1b11 463d 50da a33d
00000060: 9bdd 00be f7ea 073e e715 d33d e4d6 d93d
00000070: 6340 923d bdfa 8a3d fa2a 163e ff22 1f3e
00000080: f64d 0c3e 2ae7 82bd 0a46 a83c deb8 033d
00000090: dee5 31bd 97e5 b73c 581a 963d 81e1 853c
000000a0: 48a6 c83c 4be1 5f3e 839b 873d 7152 353e
000000b0: 052d e7bd 10ad d8bd f855 133d 5a96 8a3c
000000c0: 4007 bf3d 054d 43be 85b9 d53d c32d 443a
000000d0: fb4a 70bc c048 0dbe 6856 8bbd 4516 4cbe
000000e0: 75d5 1cbe 7a28 14be 5f01 95bd ea00 ba3d
000000f0: f613 1fbe e395 863e 3e2d 54bd 6137 593d
00000100: b384 533d d5bf c43c 3d76 13bd 051f 92be
00000110: 40d1 51bd 0960 1c3e 8ba8 1f3e f9ee 41bd
00000120: bb6b a8bd 4768 98bd e01c a63d a570 00be
00000130: 825e 873d b4b5 4dbe 9a73 c0bd 2009 a83d
00000140: 0c68 bd3d 925a 96bb 5b03 03bc 6a29 30ba
00000150: be13 77bd b1e0 afbb 7635 023e 3724 c43d
00000160: bbac ebbc 910c b3bd 8182 bcbd 40c2 d13d
00000170: b09b 2fbe 7a1d 823d d5bb 37bd 9620 07be
00000180: 6c3b db3d e3b7 30bd 52cc e2bd 6510 803e
00000190: a013 a0bc 686a d33d 0d91 363d 9c23 6a3e
000001a0: b771 04bd 1b1b 06be ad27 383c 7ffa 013e
000001b0: 7d60 1b3e fcce a2bb 469d a43d a5a2 fc3c
000001c0: 6f96 cdbd 9c91 303c efde e2bd 6da2 0c3e
000001d0: edfc 80be c1e8 f9bd 3031 a4bd cbb9 0abe
000001e0: cd3d c33d 6378 04be c294 f93d 5dc5 3cbc
000001f0: 31d3 84bd 2489 d63d 66f9 a83e 19e3 9e3e
00000200: 7945 cebd 4271 73bd dd57 133e 989e 883e
00000210: 6e43 2bbd 85ea a73e 6fa8 133c 8812 8a3c
00000220: ca38 8ebd 4f95 8a3d 1067 33be ac2d efbc
00000230: 5845 303e 06b2 abbd 9ad1 79be 4c56 b03d
00000240: 043b 183e 6a17 b8bc 697d 043e 3839 243b
00000250: bd92 0d3e 01eb 80bd 63e9 873c b578 713e
00000260: 36b7 bb3d b0e9 b1bd 3750 303c 89de bfbd
00000270: 5f5d ce3b f366 093e 4e24 33bd 5e5d 9fbd
00000280: 8397 a03d 2d7e fc3d 3802 003e 8ebb 6c3d
00000290: 25c3 633d ef48 f1bd e2bb 52be f831 813d
000002a0: e619 b4bc b01b fbbc f78b b63d 2576 a43d
000002b0: 96e3 063d 5306 063e 87a4 223c 8c51 763d
000002c0: 0bf8 babd e320 88bd 0452 4fbd abaf 2e3e
000002d0: 26c3 32bd e066 453e 8f43 153e 5473 3bbe
000002e0: a375 d2bd 0cf7 163d 56fe 52bc 9d9c e73d
000002f0: c8fb 68bc 7d06 6dbb f750 ff3d 560f 083e
00000300: 3d8d 85bd 5f26 ae3d 0c42 143d 9853 2d3e
00000310: 3468 ba3d a151 34be ff87 9ebc ad41 473d
00000320: de5d dfbd a032 c73d 3bf9 14be 6a52 483d
00000330: 3ac9 233d 7e3e 7a3c 6f3e 05bd bb2d 8cbc
00000340: 9aa6 3cbd aa05 ef3d 9970 9d3d caff 4d3d
00000350: df5e 863d df7d e6bd 1d2e 243d e399 a03e
00000360: 947b 41bd be2a 92bd f3f1 45be ec52 673c
00000370: 4b4c 80bc a85e a13d 0c86 003d 843d 27bd
00000380: 09f3 133e 66cc 6e3e 6d34 9bbc 813b 8cbd
00000390: 942f 0d3e 425b 89bc 9c1f 08be 8591 653d
000003a0: 0d6f 833c 65aa d73d a173 90bd 0cfc 37be
000003b0: 8886 7bbb b3cc 113d 191a afbd 0972 123e
000003c0: 4633 d73d cd42 45be 0d9b 08bd 0c73 423d
000003d0: 344c dfbd c666 2b3e b62e a2bd 5b20 a23d
000003e0: 124a 763e b34e 293e f037 e6bd 11a3 b83d
000003f0: 8c73 e9bd 84c7 52bd 81a2 e8bd 67c5 38be

network_body._body_endoder.seq_layers.4.bias f4 [256]
-0.00020777625 -0.06993656 -0.042102482 -0.0688742 -0.05671292 -0.06697408 -0.046713933 -0.032655146
-0.022485921 -0.09953484 -0.06662053 -0.06542376 -0.05447163 -0.067571245 0.031216662 -0.06390868
-0.07539188 -0.032505114 -0.047590334 -0.07598383 -0.052180678 -0.054735318 -0.07042229 -0.061973546
-0.020661397 -0.07022851 -0.0546305 -0.05736155 -0.03607629 -0.08438964 -0.04301001 -0.03562259
-0.02597932 -0.115433365 -0.06604825 -0.046180595 -0.11307497 -0.088183664 -0.081011705 -0.051002905
-0.03759565 -0.064433 -0.09067339 -0.031975355 -0.09374208 -0.04157844 -0.101542465 -0.06060134
-0.07892735 -0.06842991 -0.075129785 -0.11100164 -0.08082553 -0.05780738 -0.03940694 -0.08184768
-0.055842366 -0.1151834 -0.092255265 -0.07544877 -0.055222914 -0.07961591 -0.07047209 -0.10697467
-0.12553279 -0.06799641 -0.050335523 -0.06131226 -0.0516781 -0.035909005 -0.08185176 -0.031331982
-0.059535943 -0.0877312 -0.01911012 -0.090944685 -0.03142535 -0.08223481 -0.08074284 -0.13478576
-0.08348841 -0.06827295 -0.07590271 -0.04101614 -0.0336324 -0.080209635 -0.06751688 -0.10222345
-0.09803527 -0.09025681 -0.02839777 -0.056463614 -0.11925431 -0.088932104 -0.051489092 -0.09672951
-0.09526692 -0.04825573 -0.057751134 -0.08801684 -0.05573282 -0.041261483 -0.06602921 -0.06821704
-0.08497338 -0.047597833 -0.023242703 -0.08834188 -0.0713104 -0.082658894 -0.12929668 -0.0903699
-0.04738037 -0.010185923 -0.038776368 -0.07240239 -0.06042535 -0.053190086 -0.124498956 -0.098296665
-0.07514609 -0.09681624 -0.059296515 -0.09163854 -0.09869837 -0.070359506 -0.040948488 -0.077441014
-0.052535463 -0.07996113 -0.09773296 -0.09299835 -0.09346603 -0.12772134 -0.076011 -0.09131823
-0.015988555 -0.089079745 -0.061556958 -0.07794641 -0.07966616 -0.08919754 -0.05137795 -0.07610072
-0.07673842 -0.061727032 -0.10909622 -0.048789345 -0.09174802 -0.08384407 -0.053020157 -0.130618
-0.050768044 -0.033798173 -0.08494664 -0.030591926 -0.035217993 -0.03541908 -0.10552311 -0.07091633
-0.056495644 -0.038822573 -0.058448616 -0.09312421 -0.067331344 -0.06708945 -0.062424853 -0.05872439
-0.024146179 -0.055071823 -0.04211795 -0.027436258 -0.06564446 -0.060988624 -0.02055908 -0.04158384
-0.08035771 -0.045504555 -0.05952218 -0.07383401 -0.024703845 -0.077691644 -0.06162658 -0.034695715
-0.039853584 -0.09397077 -0.07910517 -0.13957691 -0.044615656 -0.06981529 -0.06974455 -0.07004668
-0.09246631 -0.030859547 -0.043957416 -0.052182473 -0.042686637 -0.03400356 -0.054978006 -0.10020727
-0.08022206 -0.08734765 -0.08857058 -0.048058942 -0.08670055 -0.029999755 -0.09491821 -0.06079357
-0.12037518 -0.08787187 -0.107693814 -0.082913995 -0.10128008 -0.1085512 -0.09918218 -0.099637225
-0.067062154 -0.091405265 -0.09050816 -0.096015476 -0.052071843 -0.028221402 -0.0663138 -0.054490875
-0.03625392 -0.06439792 -0.12216562 -0.06898645 -0.05459243 -0.06261764 -0.025878118 -0.025284208
-0.04045595 -0.069164574 -0.09028646 -0.061550643 -0.034490958 -0.038489114 -0.05952021 -0.04170923
-0.055113062 -0.08365274 -0.05281169 -0.084873185 -0.07271749 -0.07233511 -0.10940689 -0.07553864
-0.06517205 -0.07862805 -0.033443056 -0.052518677 -0.04818924 -0.06632868 -0.07701807 -0.028656486
00000000: 83de 59b9 e63a 8fbd a773 2cbd eb0d 8dbd
00000010: cf4b 68bd b529 89bd 1c57 3fbd 67c1 05bd
00000020: 6534 b8bc ecd8 cbbd 5870 88bd e4fc 85bd
00000030: a51d 5fbd cb62 8abd 16ba ff3c 8ee2 82bd
00000040: 0f67 9abd 1524 05bd 15ee 42bd 699d 9bbd
00000050: 68bb 55bd 2432 60bd 9039 90bd f9d7 7dbd
00000060: 1742 a9bc f7d3 8fbd 3bc4 5fbd f2f3 6abd
00000070: bbc4 13bd 7ad4 acbd 442b 30bd fee8 11bd
00000080: 95d2 d4bc 5468 ecbd 4e44 87bd dd27 3dbd
00000090: da93 e7bd a399 b4bd 77e9 a5bd 6ce8 50bd
000000a0: e5fd 19bd 73f5 83bd f8b2 b9bd 97f8 02bd
000000b0: d9fb bfbd 284e 2abd 7ff5 cfbd 1c39 78bd
000000c0: aaa4 a1bd fb24 8cbd a5dd 99bd d454 e3bd
000000d0: db87 a5bd 6ec7 6cbd 2c69 21bd c29f a7bd
000000e0: f7ba 64bd 46e5 ebbd 54f0 bcbd e284 9abd
000000f0: 6c31 62bd ab0d a3bd ac53 90bd 8915 dbbd
00000100: ab8b 00be b441 8bbd 9f2c 4ebd 9022 7bbd
00000110: 6aac 53bd 5215 13bd e5a1 a7bd f755 00bd
00000120: f6db 73bd 6aac b3bd d48c 9cbc 3541 babd
00000130: deb7 00bd b96a a8bd 815c a5bd 4705 0abe
00000140: f9fb aabd b0d2 8bbd e172 9bbd 8a00 28bd
00000150: 21c2 09bd f344 a4bd 4a46 8abd 875a d1bd
00000160: b7c6 c8bd 90d8 b8bd 71a2 e8bc 6446 67bd
00000170: 9b3b f4bd 0922 b6bd 3ae6 52bd 1f1a c6bd
00000180: 4e1b c3bd cda7 45bd 748c 6cbd 2c42 b4bd
00000190: 1948 64bd cd01 29bd 533a 87bd 60b5 8bbd
000001a0: 8606 aebd f2f5 42bd 7b67 bebc 96ec b4bd
000001b0: 300b 92bd 1149 a9bd 5966 04be db13 b9bd
000001c0: eb11 42bd dce2 26bc f8d3 1ebd b447 94bd
000001d0: 9280 77bd d9dd 59bd 4ff9 febd c34f c9bd
000001e0: 31e6 99bd 9847 c6bd e7e0 72bd fdac bbbd
000001f0: 5f22 cabd a518 90bd 9ab9 27bd 6599 9ebd
00000200: 6d2f 57bd a9c2 a3bd 3828 c8bd eb75 bebd
00000210: 1e6b bfbd 62c9 02be a8ab 9bbd 0d05 bbbd
00000220: 6efa 82bc 716f b6bd 2623 7cbd 5ea2 9fbd
00000230: 0328 a3bd 33ad b6bd af71 52bd b2da 9bbd
00000240: 0829 9dbd 7cd5 7cbd d76d dfbd 56d7 47bd
00000250: 63e6 bbbd 71b6 abbd aa2b 59bd bac0 05be
00000260: 27f2 4fbd f46f 0abd 81f8 adbd eb9b fabc
00000270: be40 10bd 9913 11bd 801c d8bd 953c 91bd
00000280: fa67 67bd 6b04 1fbd d167 6fbd e8b7 bebd
00000290: 04e5 89bd 3266 89bd 34b1 7fbd fc88 70bd
000002a0: 35ce c5bc fe92 61bd df83 2cbd 01c2 e0bc
000002b0: 9a70 86bd 35cf 79bd 846b a8bc d153 2abd
000002c0: 9592 a4bd fc62 3abd 88cd 73bd 4936 97bd
000002d0: b85f cabc cc1c 9fbd 276c 7cbd 181d 0ebd
000002e0: 833d 23bd bf73 c0bd e401 a2bd 40ed 0ebe
000002f0: e8be 36bd 52fb 8ebd 3bd6 8ebd a274 8fbd
00000300: fa5e bdbd 29cd fcbc b10c 34bd 4abd 55bd
00000310: 2fd8 2ebd 5147 0bbd 9e30 61bd 7839 cdbd
00000320: 774b a4bd 53e3 b2bd 7e64 b5bd 74d9 44bd
00000330: 0f90 b1bd 0cc2 f5bc 7a64 c2bd ae02 79bd
00000340: 4387 f6bd 2bf6 b3bd 938e dcbd d0ce a9bd
00000350: ee6b cfbd 1750 debd 0720 cbbd 9a0e ccbd
00000360: e257 89bd af32 bbbd 585c b9bd c3a3 c4bd
00000370: 4949 55bd 9230 e7bc 88cf 87bd d331 5fbd
00000380: fe7e 14bd 0fe3 83bd f831 fabd c548 8dbd
00000390: 509c 5fbd ad3d 80bd 59fe d3bc d420 cfbc
000003a0: 23b5 25bd 28a6 8dbd 1ce8 b8bd 871c 7cbd
000003b0: 6446 0dbd c3a6 1dbd 77cb 73bd 4cd7 2abd
000003c0: 3cbe 61bd 2152 abbd 1251 58bd fed1 adbd
000003d0: e8ec 94bd 6e24 94bd b810 e0bd 01b4 9abd
000003e0: ec78 85bd be07 a1bd 96fb 08bd d31d 57bd
000003f0: 1562 45bd 55d7 87bd a6bb 9dbd 02c1 eabc
