results/NewRunMar22/MoveSomewhere/MoveSomewhere-154336.onnx (onnx, 171634 bytes, 11 tensors)

action_model._discrete_distribution.branches.0.bias f4 [3]
-0.00605514 0.042142328 -0.038821694
00000000: 326a c6bb 6f9d 2c3d 7f03 1fbd

action_model._discrete_distribution.branches.0.weight f4 [3, 128]
0.010170461 0.008510286 0.02076685 0.002433249 0.009085513 -0.00728538 -0.0012695707 -0.009023481
-0.011982889 0.0076111704 0.027654795 -0.01645158 -0.019774469 0.016870147 0.029518956 0.0035034618
0.025426876 -0.04415972 -0.0077070263 0.019730521 -0.0051747067 0.0198381 0.043083515 0.011029417
0.009318445 0.00046931073 0.015084345 0.014106655 0.02106367 0.005955295 0.028918967 0.00012241032
-0.009884042 0.024437884 0.0027944257 -0.00635022 -0.023610374 -0.0029458723 0.03633551 0.019943867
0.0036417008 -0.00037844153 -0.0016162612 0.04685931 0.0031396202 0.034056745 0.011544578 -0.0038825606
-0.006685856 -0.014575566 -0.009979354 0.013436888 -0.011428224 -0.005055161 0.0036537764 0.024999984
-0.0037581297 0.0235253 0.028160805 0.030041968 0.005106436 -0.0048396285 0.014093919 -0.011668557
0.030967923 0.02349786 -0.0017369897 -0.0032787223 -0.0045179096 0.0018762581 0.014218926 0.03223747
0.0039461805 0.0010648866 0.0019251244 0.00057270116 -0.006500929 0.026493903 0.018273784 0.0019873918
0.0016887772 0.021520901 -0.0023800682 -0.013368328 0.00914402 -0.0045808065 -0.007624155 0.024483986
-0.0038847777 0.040908217 -0.0005461276 0.004790182 -0.012431403 -0.0060504996 0.008058852 0.04806656
-0.0071138833 0.0038281316 0.0065427762 0.0062099444 0.021204477 -0.009070547 -0.013752249 0.0045869616
0.03837666 -0.013077185 0.0154594015 0.013262683 -0.006181603 -0.010016043 -0.015952982 -0.018554559
0.030960403 -0.0018504995 0.026486842 0.004172695 0.014612889 0.009897012 -0.001293138 0.037018366
0.020472614 -0.009407286 0.0069187665 -0.0050599743 -0.016198844 -0.01848522 0.03177878 0.022179723
-0.013654029 -0.019295737 -0.02558141 -0.008614205 -0.039063998 0.015230418 -0.008808615 -0.0025200008
-0.002729645 -0.021229094 -0.025948258 -0.00585973 0.0068240194 0.016105045 -0.02217511 0.0015193613
0.001534273 0.025181612 -0.006379925 -0.01822621 -0.018305782 -0.021163236 -0.006610402 -0.0120373415
-0.012290161 0.025386393 -0.016422518 -0.03262876 -0.042507194 -0.053369828 -1.712221e-05 -0.014952581
0.001956196 -0.035262123 -0.0014998107 -0.008606001 0.01641617 -0.01735053 -0.058773108 0.0033969553
-0.022940412 0.0033399446 -0.027099501 -0.03349947 -0.0243485 -0.014156855 -0.0045387866 -0.0025027895
-0.01305506 -0.00065024506 -0.019620106 -0.01457207 0.008209766 -0.026209898 -0.03226189 -0.04534369
-0.00428145 -0.022899626 -0.025736084 -0.054154117 -0.01722722 -0.026578216 -0.028647626 0.0022259655
-0.05406 -0.037775196 -0.010231104 -0.014032814 0.0069595436 -0.0026717524 -0.019506074 -0.06906631
-0.0051282938 -0.026406366 0.01671254 0.038042944 -0.019045543 -0.025991224 -0.017932452 0.008040989
-0.009410311 -0.011784645 -0.026394716 -0.0083116125 -0.0012766775 0.013286042 -0.0070604393 -0.042143755
0.0008309512 -0.0657931 0.019034654 0.017347207 -0.015373227 -0.0010686083 -0.020797424 -0.034628537
0.009286159 0.022978546 0.030701967 -0.015063214 -0.03250933 0.013369053 -0.0070968275 -0.030943112
-0.054913852 -0.0012472541 -0.0073387804 -0.04927774 0.006655968 0.018363032 0.0019996203 -0.01644608
-0.046965964 -0.010679143 -0.03801719 -0.018792665 -0.035037663 -0.034032717 -0.035995994 -0.025967069
-0.018843863 -0.008187469 0.024661455 -0.0025437374 -0.008541779 0.007765109 -0.06760168 -0.045877762
00000000: 01a2 263c ba6e 0b3c 3e1f aa3c 2577 1f3b
00000010: 67db 143c 32ba eebb b967 a6ba 39d7 13bc
00000020: e153 44bc 2067 f93b 4f8c e23c 77c5 86bc
00000030: 11fe a1bc 4333 8a3c bdd1 f13c 569a 653b
00000040: 064c d03c d3e0 34bd 398b fcbb e7a1 a13c
00000050: 9690 a9bb 8383 a23c 5778 303d bab4 343c
00000060: 64ac 183c d20d f639 5424 773c 991f 673c
00000070: b88d ac3c a324 c33b 78e7 ec3c 455b 0039
00000080: adf0 21bc f531 c83c af22 373b 8215 d0bb
00000090: 8b6a c1bc 890f 41bb 8bd4 143d 5261 a33c
000000a0: 9aa9 6e3b 9069 c6b9 bad8 d3ba 8cef 3f3d
000000b0: 16c2 4d3b 167f 0b3d 7825 3d3c 8f72 7ebb
000000c0: 0615 dbbb 5bce 6ebc 7280 23bc 6526 5c3c
000000d0: 723d 3bbc c4a5 a5bb 3274 6f3b c4cc cc3c
000000e0: f44a 76bb 21b8 c03c 7db1 e63c 931a f63c
000000f0: e453 a73b bf95 9ebb 2eea 663c 7a2d 3fbc
00000100: 71b0 fd3c 967e c03c b4ab e3ba d5df 56bb
00000110: f90a 94bb c6ec f53a 80f6 683c 700b 043d
00000120: f64e 813b aa93 8b3a 7554 fc3a 5321 163a
00000130: bf05 d5bb be09 d93c e7b2 953c e73e 023b
00000140: f659 dd3a 9a4c b03c ebfa 1bbb d506 5bbc
00000150: cdd0 153c 971a 96bb 0cd4 f9bb a492 c83c
00000160: c197 7ebb 608f 273d 012a 0fba f6f6 9c3b
00000170: 15ad 4bbc 4543 c6bb 4609 043c 71e1 443d
00000180: 941b e9bb 64e1 7a3b c964 d63b ca7c cb3b
00000190: 03b5 ad3c a29c 14bc 1d51 61bc 394e 963b
000001a0: d830 1d3d b041 56bc 6e49 7d3c b94b 593c
000001b0: 0b8f cabb 541a 24bc d4af 82bc bbff 97bc
000001c0: aca0 fd3c 768c f2ba effa d83c 1abb 883b
000001d0: e66a 6f3c 1427 223c 837e a9ba 92a0 173d
000001e0: 2fb6 a73c 0421 1abc d2b6 e23b 24ce a5bb
000001f0: 70b3 84bc 516e 97bc 772a 023d 40b2 b53c
00000200: 26b5 5fbc 1812 9ebc 1b90 d1bc 9822 0dbc
00000210: 9201 20bd 0189 793c 0252 10bc 9926 25bb
00000220: d8e3 32bb a3e8 adbc 7191 d4bc fa02 c0bb
00000230: 069c df3b baee 833c 94a8 b5bc 4e25 c73a
00000240: a919 c93a ab49 ce3c b10e d1bb 224f 95bc
00000250: 02f6 95bc 865e adbc 129c d8bb 4538 45bc
00000260: ac5c 49bc 20f7 cf3c 8488 86bc bca5 05bd
00000270: 061c 2ebd 529a 5abd aaa1 8fb7 acfb 74bc
00000280: 8633 003b 046f 10bd 4c95 c4ba 2f00 0dbc
00000290: 347b 863c b322 8ebc 12bc 70bd 749f 5e3b
000002a0: 88ed bbbc f9e2 5a3b c6ff ddbc be36 09bd
000002b0: 8176 c7bc 27f2 67bc 1aba 94bb d705 24bb
000002c0: e4e4 55bc 3575 2aba 58ba a0bc b1bf 6ebc
000002d0: 4182 063c 24b6 d6bc 0b25 04bd 4eba 39bd
000002e0: 684b 8cbb ff97 bbbc 7bd4 d2bc b5d0 5dbd
000002f0: 1920 8dbc 8fba d9bc 6dae eabc 81e1 113b
00000300: 056e 5dbd 2aba 1abd 5ca0 27bc e3e9 65bc
00000310: e20c e43b 9118 2fbb 34cb 9fbc a372 8dbd
00000320: 3f0b a8bb 2a52 d8bc bde8 883c ebd2 1b3d
00000330: 6605 9cbc 8ceb d4bc 14e7 92bc 5abe 033c
00000340: b42d 1abc 6214 41bc bb39 d8bc 6e2d 08bc
00000350: 3056 a7ba b3ad 593c 425b e7bb ee9e 2cbd
00000360: 31d4 593a 88be 86bd 90ee 9b3c bb1b 8e3c
00000370: fddf 7bbc 8b10 8cba 5c5f aabc a7d6 0dbd
00000380: f924 183c 813d bc3c b182 fb3c b3cb 76bc
00000390: 8128 05bd df09 5b3c 818c e8bb 697c fdbc
000003a0: 59ed 60bd e77a a3ba 277a f0bb 75d7 49bd
000003b0: 4e1a da3b 126e 963c 100c 033b eeb9 86bc
000003c0: 625f 40bd 92f7 2ebc eab7 1bbd 13f3 99bc
000003d0: a783 0fbd e465 0bbd 8970 13bd e4b8 d4bc
000003e0: 725e 9abc bc24 06bc d206 ca3c d5b4 26bb
000003f0: d1f2 0bbc 7572 fe3b c072 8abd 52ea 3bbd

action_model._discrete_distribution.branches.1.bias f4 [3]
-0.007057613 0.018345466 -0.017721955
00000000: 8d43 e7bb 3b49 963c a22d 91bc

action_model._discrete_distribution.branches.1.weight f4 [3, 128]
-0.013445009 0.006579398 0.009046253 0.0056091305 0.014471835 0.0017925772 -0.0005221182 0.006952561
-0.010602163 0.014544298 0.0072862105 -0.0054908334 -0.0013436255 0.004065667 0.013203955 0.014810262
0.0043584146 -0.0059593692 0.009413166 0.0005230381 -0.010958793 -8.467317e-05 -0.0055057895 -0.0008284225
0.0069735013 -0.0037569893 0.007419614 -0.0014312672 0.00072621286 0.014790574 -0.0027946308 -0.00045263086
0.003646069 -0.0047629056 -0.004618773 0.009424447 0.009532796 0.0051324097 -0.0206877 0.0055985977
0.002534423 -0.01148698 0.015779374 0.007130503 0.025266707 0.017381975 -0.013618512 -0.009231326
-0.01020469 -0.0033365018 -0.0010260527 -0.00783443 0.007993935 -0.003611084 -0.012241699 -0.01157514
0.001036113 0.025163952 -0.0043377103 0.012811653 -0.0053256126 -0.0072573354 0.00034290063 0.007480016
-0.011826142 -0.0045290426 0.0070853336 0.0086640855 0.008209928 -0.0003161614 -0.0031608227 0.0032721702
-0.001885281 0.0052638957 -0.004441703 0.0020612997 -0.012031498 -0.005800858 0.005339252 0.00089571933
-0.0025395665 -0.0010673143 0.014897769 0.0021357662 -0.002275781 -0.010632673 -0.0005826842 -0.0043479265
-0.0013561647 -0.019294456 -0.007350148 -0.009952141 -0.0017286165 -0.0048589306 -0.0008550957 -0.009477433
-0.0018773245 0.007960273 0.0026957728 0.005305581 -0.018600237 0.012869822 0.0009433732 0.0057952236
-0.02257331 0.0029567073 0.0048292344 -0.0040285247 -0.0055010295 -0.0016336094 -0.0013010621 0.006739689
-0.012504456 0.00018425092 -0.008527148 -0.0050678123 0.0071928604 -0.0017586242 0.00601469 -0.017732264
-0.00675034 0.014435876 0.006656768 0.006313811 -0.0014434347 -0.0047796206 -0.014018217 -0.016522495
0.010270551 -0.0033793803 -0.0012496444 0.0039042751 0.0008979468 0.012674903 -0.019345943 0.0072421166
-0.010374157 -0.008354028 6.733555e-05 -0.01566209 0.005390566 0.0050496534 0.0020242776 0.020720862
-0.00077669934 -0.010559613 0.0043529207 -0.0035807837 -0.018605113 -0.00072707655 0.013607527 0.00030897162
0.0038285912 0.0065008723 -0.0023553139 -0.0023319747 -0.01093947 0.0048628156 0.0071207704 0.0008293081
0.004783283 -0.023091467 -1.1387892e-05 0.0032729036 0.009855291 0.0016067316 -0.0019271881 -0.0047283894
0.012341165 -0.0050644455 -0.00035430485 0.0027938457 -0.0048930896 -0.0050030933 0.003383887 0.0143098645
0.013374015 0.005558581 -0.014929399 -0.00489241 0.011592152 -0.012381442 -0.0015071136 -0.019970123
0.019151298 -0.0056021768 -0.008298515 -0.01183163 -0.0061310427 -0.0021313925 0.009882475 0.01432972
0.0055924086 -0.0029636356 0.0026721589 -0.0005312228 0.0015309099 -0.008366344 -0.020665754 -0.004795144
0.0009283171 0.0011215211 0.003749499 -0.016562143 -0.0028359958 -0.0030377004 -0.004783001 0.009105253
0.0012743094 0.012870783 0.0042254603 0.010407211 -0.002254896 0.009397366 0.008453103 -0.009212947
0.006594185 -0.009393174 0.007291074 -0.006113763 0.002784369 0.0036495537 0.0018198115 -0.0049927616
0.009166573 0.00082106475 -0.0021843917 -0.00166257 -0.028162504 0.0064370623 -0.004612221 0.011755582
-0.03483675 -0.0004487146 0.0012842081 -0.0064497385 4.687281e-05 -0.03237811 -0.0030937975 -0.0017831568
-0.00020917802 -0.015274148 -0.013823478 0.012977127 -0.0057804976 -0.0136607615 -0.010933465 0.0026085414
-0.005725397 0.0038506717 -0.005448146 0.0017844611 0.0051705586 0.0024532499 0.004933923 -0.020763407
00000000: 7448 5cbc fe97 d73b bc36 143c cccc b73b
00000010: 471b 6d3c e9f4 ea3a c2de 08ba 4fd2 e33b
00000020: b2b4 2dbc 354b 6e3c 2ac1 ee3b 73ec b3bb
00000030: 971c b0ba 4939 853b 6755 583c bea6 723c
00000040: 08d1 8e3b d046 c3bb ae39 1a3c 7e1c 093a
00000050: 828c 33bc 9092 b1b8 e969 b4bb 7e2a 59ba
00000060: f881 e43b d237 76bb 3c20 f33b 5c99 bbba
00000070: 525f 3e3a 2a54 723c 2026 37bb 164f edb9
00000080: e3f2 6e3b 2612 9cbb 1359 97bb ff68 1a3c
00000090: 722f 1c3c c62d a83b 4079 a9bc 7174 b73b
000000a0: 9018 263b e333 3cbc bf43 813c ffa6 e93b
000000b0: 20fc ce3c a564 8e3c 2e20 5fbc fd3e 17bc
000000c0: 9231 27bc 36a9 5abb 9e7c 86ba fb5b 00bc
000000d0: fef8 023c f0a7 6cbb 6891 48bc a8a5 3dbc
000000e0: 2fce 873a a224 ce3c 5a23 8ebb f8e7 513c
000000f0: 7a82 aebb f1ce edbb 58c7 b339 ec1a f53b
00000100: 6fc2 41bc 5d68 94bb 162c e83b cff3 0d3c
00000110: ef82 063c 77c2 a5b9 ce25 4fbb e871 563b
00000120: 881b f7ba c27c ac3b b58b 91bb df16 073b
00000130: c31f 45bc 2015 bebb e4f4 ae3b b5ce 6a3a
00000140: db6e 26bb 20e5 8bba c615 743c 36f8 0b3b
00000150: 4525 15bb aa34 2ebc 46bf 18ba 0d79 8ebb
00000160: 56c1 b1ba 680f 9ebc 83d9 f0bb 4e0e 23bc
00000170: bf92 e2ba aa37 9fbb 8028 60ba 3c47 1bbc
00000180: 8f10 f6ba ce6b 023c 90ab 303b 70da ad3b
00000190: 865f 98bc f2db 523c b44c 773a dce5 bd3b
000001a0: aaeb b8bc 51c5 413b 8e3e 9e3b b701 84bb
000001b0: fb41 b4bb d61e d6ba 6688 aaba 9cd8 dc3b
000001c0: 7ddf 4cbc 7b33 4139 73b5 0bbc e40f a6bb
000001d0: 16b2 eb3b a381 e6ba e016 c53b 4143 91bc
000001e0: f531 ddbb 7484 6c3c 0421 da3b 16e4 ce3b
000001f0: a231 bdba 5d9e 9cbb aaac 65bc 2f5a 87bc
00000200: d045 283c 9878 5dbb 1ccb a3ba dede 7f3b
00000210: 3164 6b3a 65aa 4f3c 627b 9ebc 474f ed3b
00000220: 5ef8 29bc 55df 08bc 8036 8d38 c94d 80bc
00000230: 58a3 b03b 9077 a53b bea9 043b ccbe a93c
00000240: 699b 4bba 3a02 2dbc f2a2 8e3b 95ab 6abb
00000250: c069 98bc 4899 3eba 1bf2 5e3c 78fd a139
00000260: 1ae9 7a3b 4505 d53b 9c5b 1abb 0bd4 18bb
00000270: 763b 33bc 4158 9f3b 5a55 e93b ed65 593a
00000280: 16bd 9c3b 512a bdbc a00e 3fb7 367e 563b
00000290: 1678 213c f798 d23a b499 fcba 9bf0 9abb
000002a0: 9932 4a3c a6f3 a5bb fec1 b9b9 f418 373b
000002b0: 3656 a0bb fdf0 a3bb 34c4 5d3b ec73 6a3c
000002c0: af1e 5b3c c224 b63b 709a 74bc 8250 a0bb
000002d0: 02ed 3d3c 88db 4abc 578a c5ba 6298 a3bc
000002e0: 2fe3 9c3c 7792 b7bb 7ff6 07bc 74d9 41bc
000002f0: eae6 c8bb d5ae 0bbb 1bea 213c 34c7 6a3c
00000300: 8640 b73b 8e39 42bb 631f 2f3b c241 0bba
00000310: d0a8 c83a fd12 09bc 3a4b a9bc 9520 9dbb
00000320: 4e5a 733a 0100 933a 28ba 753b 55ad 87bc
00000330: 1ddc 39bb 2814 47bb b8ba 9cbb 332e 153c
00000340: ba06 a73a fadf 523c bb75 8a3b 0283 2a3c
00000350: e1c6 13bb 69f7 193c e27e 0a3c e7f1 16bc
00000360: 0814 d83b d4e5 19bc f6e9 ee3b f655 c8bb
00000370: f679 363b 5a2d 6f3b be86 ee3a 529a a3bb
00000380: 652f 163c b93c 573a 0328 0fbb 98ea d9ba
00000390: 0db5 e6bc feed d23b 1d22 97bb 7c9a 403c
000003a0: fbb0 0ebd 7441 ebb9 e052 a83a 5458 d3bb
000003b0: 4c99 4438 e99e 04bd 4fc1 4abb d0b8 e9ba
000003c0: cc56 5bb9 6c40 7abc de7b 62bc 049e 543c
000003d0: 546a bdbb 63d1 5fbc 4722 33bc 10f4 2a3b
000003e0: 1c9c bbbb 8d5b 7c3b 5c86 b2bb 94e4 e93a
000003f0: ca6d a93b b4c6 203b bfac a13b 0518 aabc

discrete_action_output_shape f4 [1, 2]
3.0 3.0
00000000: 0000 4040 0000 4040

network_body._body_endoder.seq_layers.0.bias f4 [128]
-0.018300544 -0.024956735 0.0050925836 0.020690806 0.028476954 -0.011595586 0.023624692 0.021567218
-0.010461065 -0.042760488 -0.036951654 -0.013451884 -0.05438977 0.0010231399 0.01021509 -0.0031968015
-0.011701248 -0.024816785 0.016692532 -0.035170075 -0.009546053 -0.03431281 0.052517828 -0.037938613
-0.018472712 -0.0043645585 -0.03796141 -0.037918285 -0.07039965 -0.0029680815 -0.0017560073 -0.05833381
0.00710025 -0.06634389 -0.049169026 0.009243265 -0.04869031 -0.024365813 0.0010437611 -0.03011246
-0.06312025 -0.03016051 -0.050052777 -0.022101415 -0.030809103 -0.0072802505 -0.024319036 -0.039302092
-0.06363608 -0.041248973 -0.010447445 -0.004103983 -0.013190414 0.028513558 -0.03352923 -0.0039541926
0.0013394977 -0.018226821 -0.029051624 -0.022980051 0.044595078 -0.058249075 -0.031253926 -0.09392147
-0.004584529 -0.07941529 0.016640576 -0.013218167 -0.030471578 -0.033972535 0.021278491 0.00891964
-0.0479971 -0.017652217 0.005393204 -0.04096011 -0.024894262 -0.021427847 -0.041655198 -0.048864152
-0.056668457 -0.010610498 0.0579693 -0.019754004 -0.011952847 -0.008546014 -0.024943065 -0.03995069
-0.032848656 -0.0040376596 -0.018213531 -0.004249587 -0.032905944 0.012874039 -0.016052099 0.018456364
-0.016715232 -0.07711377 -0.025529016 -0.0038591765 -0.03259284 -0.048300974 -0.02703995 0.0009907035
0.046099376 -0.028913343 -0.030646367 -0.01666604 0.008216303 -0.055751618 -0.030036902 -0.035451397
0.022028148 -0.03731432 0.024533834 -0.029780308 -0.028553125 -0.056489818 -0.049031742 0.0039358283
0.041819807 0.0037788395 -0.05074815 -0.0066965315 0.003138014 -0.009316752 0.006073162 0.044592533
00000000: 06eb 95bc 1172 ccbc b0df a63b c47f a93c
00000010: 8048 e93c 6afb 3dbc 9288 c13c bcad b03c
00000020: e364 2bbc 9f25 2fbd 9e5a 17bd 4a65 5cbc
00000030: cfc7 5ebd e11a 863a 315d 273c 6e81 51bb
00000040: 97b6 3fbc 924c cbbc c7be 883c 7f0e 10bd
00000050: 0c67 1cbc 978b 0cbd ef1c 573d 8565 1bbd
00000060: 1654 97bc 9204 8fbb 6c7d 1bbd 3450 1bbd
00000070: b12d 90bd 2584 42bb d429 e6ba 6fef 6ebd
00000080: 37a9 e83b 4edf 87bd 7665 49bd 1071 173c
00000090: 7e6f 47bd d09a c7bc d0ce 883a 68ae f6bc
000000a0: 3145 81bd 2d13 f7bc 2404 4dbd 070e b5bc
000000b0: 5f63 fcbc 2b8f eebb b738 c7bc 3bfb 20bd
000000c0: a253 82bd aff4 28bd c32b 2bbc b47a 86bb
000000d0: 9b1c 58bc 4495 e93c f255 09bd 2c92 81bb
000000e0: 1692 af3a 6a50 95bc acfd edbc a940 bcbc
000000f0: 54a9 363d 9596 6ebd 1e04 00bd e659 c0bd
00000100: d139 96bb 7ca4 a2bd d151 883c 0391 58bc
00000110: 889f f9bc c926 0bbd 3b50 ae3c af23 123c
00000120: 9b98 44bd 629b 90bc 79b9 b03b cac5 27bd
00000130: 0def cbbc 7489 afbc a49e 2abd c725 48bd
00000140: 2f1d 68bd a7d7 2dbc 3771 6d3d 26d3 a1bc
00000150: e0d5 43bc 9504 0cbc 6655 ccbc 56a3 23bd
00000160: 508c 06bd 584e 84bb 8b34 95bc 1f40 8bbb
00000170: 62c8 06bd a2ed 523c b17f 83bc cd31 973c
00000180: 62ee 88bc d3ed 9dbd 3a22 d1bc 3dea 7cbb
00000190: 1280 05bd 3ed7 45bd e382 ddbc 7eda 813a
000001a0: b3d2 3c3d addb ecbc 170e fbbc 3887 88bc
000001b0: ac9d 063c cf5b 64bd f30f f6bc 7c35 11bd
000001c0: 6074 b43c e7d6 18bd 2efb c83c d5f5 f3bc
000001d0: 3ee8 e9bc de61 67bd 82d5 48bd 1ff8 803b
000001e0: 3f4b 2b3d 68a6 773b 4bdd 4fbd 946e dbbb
000001f0: 24a7 4d3b 4aa5 18bc 6001 c73b a9a6 363d

network_body._body_endoder.seq_layers.0.weight f4 [128, 64]
-0.054326206 0.019697215 0.03580294 -0.004369797 -0.036631513 -0.09703985 -0.067765206 -0.08362583
-0.014868185 -0.05058647 -0.086827956 -0.16449615 0.27982625 -0.009385638 0.00679439 0.048709814
-0.049888466 0.10546181 0.28572345 0.08666536 0.1350852 0.00939856 0.022947347 -0.13136238
-0.10242275 -0.054273475 0.012185454 -0.07663716 0.017815745 -0.07765302 -0.16079608 0.051324464
0.15693171 0.091478705 -0.10138641 -0.30451876 0.11570774 0.06590419 -0.052317206 -0.05464572
0.14477971 -0.18355453 -0.024186306 -0.16899697 -0.058691535 0.058886945 -0.06313706 -0.09985232
-0.08937306 -0.0077425553 0.024568237 -0.045351114 -0.20818655 0.045524154 -0.010270724 -0.218838
0.052162398 0.17023215 -0.008175666 0.10096942 0.0052328957 -0.06342331 0.06151114 -0.051519584
0.08243779 0.07196931 -0.00019887174 0.10171272 0.035951626 0.03979338 -0.010392869 -0.026109546
0.050611544 -0.27653626 -0.14874026 -0.04009305 -0.192455 -0.028717246 -0.15532458 -0.034889214
-0.009024503 -0.17755699 0.026586367 0.02875298 -0.32059833 -0.23603866 0.05457931 0.022976078
-0.0017821117 -0.043087836 -0.12723963 0.083073005 0.37684554 -0.024434673 -0.1526794 -0.13789532
-0.06893112 0.037192285 -0.063761696 0.17098045 -0.114537165 0.038571782 0.07525347 0.02155219
-0.11428435 -0.029980006 0.09454418 0.004950299 0.036802165 -0.070361994 -0.03230455 -0.05920257
0.11372773 0.070743755 -0.13801447 0.11456843 -0.24446677 0.08873319 -0.058770172 -0.1554773
-0.033575226 -0.09016105 0.0017978331 0.07716127 0.12283903 0.0032571359 0.0022362333 -0.19482575
-0.06020179 -0.06909054 0.07039398 -0.042503122 -0.017478095 -0.13707474 0.13164268 -0.0072793025
-0.13603374 -0.056174237 -0.19273736 -0.067457646 -0.24544361 -0.10500636 0.13980398 0.123978265
0.035416357 -0.1607142 0.14995319 0.024623541 -0.021407668 -0.032720435 0.082914114 0.0032225647
0.10838905 0.022321427 -0.16489941 0.058849066 -0.15022033 0.058936927 -0.025724344 0.2228487
-0.10902689 0.03405833 0.087118834 -0.19484115 -0.2935214 -0.038752016 -0.053798787 0.20090869
0.14624341 -0.12867717 -0.051719334 0.015686661 0.14011876 -0.0023040597 0.27790412 0.24248224
0.07296239 -0.44669226 -0.007878816 -0.042743176 0.14565805 -0.030283863 0.10355462 0.25237858
-0.053043045 -0.16344285 -0.29586232 -0.07552071 0.043501247 0.12765136 -0.035152063 0.28325415
-0.044948813 0.049939264 0.019461388 0.26313347 -0.06247744 0.17122337 -0.25788552 -0.2053128
-0.3148167 0.09936719 -0.11060201 0.25846085 -0.0040334533 -0.033746205 -0.20363837 -0.08012657
-0.2162673 0.13729957 -0.03540143 -0.12673351 0.21781965 0.18186633 -0.15501094 0.04868989
-0.45374843 0.281294 0.100900024 -0.022153698 -0.4083781 -0.009143206 0.28080368 0.12355557
-0.01639028 0.0917088 0.1905795 -0.06500492 0.01782488 -0.053390123 -0.118002154 0.09243438
0.04050459 -0.07988794 0.009837478 0.07090382 0.2629519 -0.0061643706 0.03744856 0.143077
0.18055794 -0.32180852 -0.0974934 -0.0069572353 -0.02764127 -0.11314157 -0.09152501 0.09925106
0.105505645 -0.46748233 -0.06286043 0.17065416 -0.1098747 0.028715624 -0.02040585 0.31906268
00000000: 2885 5ebd 0e5c a13c 1ba6 123d 8430 8fbb
00000010: ed0a 16bd d4bc c6bd 7cc8 8abd 0544 abbd
00000020: b099 73bc c233 4fbd dbd2 b1bd ae71 28be
00000030: 6345 8f3e 38c6 19bc 79a3 de3b f183 473d
00000040: d957 4cbd 5dfc d73d 584a 923e 9c7d b13d
00000050: c653 0a3e 6bfc 193c 13fc bb3c dc83 06be
00000060: 05c3 d1bd dd4d 5ebd 80a5 473c f1f3 9cbd
00000070: 53f2 913c 8c08 9fbd baa7 24be 9a39 523d
00000080: b5b2 203e 3059 bb3d aea3 cfbd e2e9 9bbe
00000090: 2ef8 ec3d c7f8 863d 914a 56bd 31d4 5fbd
000000a0: 2241 143e b8f5 3bbe 5c22 c6bc 8b0d 2dbe
000000b0: 8966 70bd 7033 713d 014e 81bd 607f ccbd
000000c0: 3909 b7bd 43b5 fdbb 5443 c93c 17c2 39bd
000000d0: db2e 55be 8977 3a3d 8a46 28bc 1217 60be
000000e0: 3da8 553d 5651 2e3e 3bf3 05bc 0ec9 ce3d
000000f0: b678 ab3b 15e4 81bd 1bf3 7b3d 3306 53bd
00000100: 25d5 a83d a564 933d 3a88 50b9 c24e d03d
00000110: 0342 133d 62fe 223d da46 2abc b0e3 d5bc
00000120: 0d4e 4f3d 2996 8dbe 5e4f 18be 9c38 24bd
00000130: ec12 45be 6e40 ebbc 680d 1fbe fee7 0ebd
00000140: 82db 13bc 80d1 35be a7cb d93c 5f8b eb3c
00000150: 7725 a4be 1eb4 71be 8e8e 5f3d 5438 bc3c
00000160: bf95 e9ba df7c 30bd 1b4b 02be 2e22 aa3d
00000170: e6f1 c03e 392b c8bc fd57 1cbe 6e34 0dbe
00000180: c22b 8dbd f056 183d 7e95 82bd 8015 2f3e
00000190: 7692 eabd 72fd 1d3d 7e1e 9a3d 388e b03c
000001a0: ea0d eabd a198 f5bc 61a0 c13d 1e36 a23b
000001b0: debd 163d f319 90bd c751 04bd 657e 72bd
000001c0: 16ea e83d 1ae2 903d aa53 0dbe daa2 ea3d
000001d0: 7f55 7abe bfb9 b53d feb8 70bd 7135 1fbe
000001e0: 2d86 09bd 5ba6 b8bd 45a5 eb3a ba06 9e3d
000001f0: 0893 fb3d ac75 553b c58d 123b 6780 47be
00000200: 2796 76bd 577f 8dbd b82a 903d c117 2ebd
00000210: 392e 8fbc 525d 0cbe 57cd 063e 3787 eebb
00000220: 6e4c 0bbe f516 66bd f15c 45be 3c27 8abd
00000230: 9255 7bbe 930d d7bd c628 0f3e 51e8 fd3d
00000240: be10 113d 4392 24be 548d 193e 4fb7 c93c
00000250: 225f afbc dd05 06bd e0ce a93d aa31 533b
00000260: 14fb dd3d 6ddb b63c 64db 28be b80b 713d
00000270: 5cd3 19be d967 713d dcbb d2bc 7332 643e
00000280: 7d49 dfbd bf80 0b3d 5c6b b23d 7084 47be
00000290: 7048 96be 6fba 1ebd 1e5c 5cbd 02bb 4d3e
000002a0: d5c0 153e f3c3 03be a7d7 53bd 5081 803c
000002b0: 4b7b 0f3e b5ff 16bb 7349 8e3e 444d 783e
000002c0: 4e6d 953d d9b4 e4be 2616 01bc 7813 2fbd
000002d0: 6227 153e dd15 f8bc 7214 d43d c437 813e
000002e0: aa43 59bd 905d 27be 447b 97be 9aaa 9abd
000002f0: 5d2e 323d 0ab7 023e 9cfb 0fbd b006 913e
00000300: 3f1c 38bd 1d8d 4c3d 7d6d 9f3c 6eb9 863e
00000310: 58e8 7fbd 2e55 2f3e 9209 84be 853d 52be
00000320: a82f a1be 0681 cb3d 4e83 e2bd fb54 843e
00000330: 0f2b 84bb 7639 0abd 9486 50be 6619 a4bd
00000340: 2d75 5dbe 4298 0c3e 1701 11bd 6ec6 01be
00000350: 1d0c 5f3e 2b3b 3a3e 30bb 1ebe 0d6f 473d
00000360: b751 e8be c405 903e aca4 ce3d ac7b b5bc
00000370: ef16 d1be 63cd 15bc 80c5 8f3e b40a fd3d
00000380: e944 86bc d3d1 bb3d 4627 433e 4d21 85bd
00000390: 7c05 923c 9aaf 5abd 1dab f1bd 3c4e bd3d
000003a0: 24e8 253d 4a9c a3bd 602d 213c 0636 913d
000003b0: a2a1 863e 7dfe c9bb a963 193d c782 123e
000003c0: 2ee4 383e 16c4 a4be 9faa c7bd 85f9 e3bb
000003d0: f26f e2bc c4b6 e7bd 7771 bbbd 2444 cb3d
000003e0: 5813 d83d d859 efbe f8bc 80bd f7bf 2e3e
000003f0: fd05 e1bd 073d eb3c 2b2a a7bc 2f5c a33e

network_body._body_endoder.seq_layers.2.bias f4 [128]
-0.05411365 -0.030732062 -0.03290427 -0.02524019 -0.027550517 -0.030570392 -0.072850436 -0.055840407
-0.06529493 -0.02556325 -0.061966717 -0.028807562 -0.029184634 -0.05541335 -0.0055001774 -0.05524421
-0.054331392 -0.019694583 -0.032614447 -0.024279766 -0.050839398 -0.001777974 -0.03557973 -0.044853434
-0.023992777 -0.046529546 -0.03972283 -0.042596254 -0.03467524 -0.031655785 -0.024355315 -0.02731799
-0.006950593 -0.035997994 -0.006913812 -0.03165061 -0.05255511 -0.05379111 -0.061445184 -0.04648963
-0.043071494 -0.03081981 -0.025523556 -0.050441824 -0.07108046 -0.056001574 -0.060508326 -0.015774379
-0.04906529 -0.06285222 -0.05785666 -0.027787184 -0.05020989 0.012354202 -0.049423143 -0.033018053
-0.039794914 -0.010187602 -0.033792056 -0.03477343 -0.024592735 -0.049038135 -0.042244956 -0.045754835
-0.07439997 -0.050961252 -0.046026427 -0.036130555 -0.032078125 -0.025882525 -0.025368499 -0.034679648
-0.043879498 -0.04143384 -0.03841737 0.0038431152 -0.04976323 -0.02789024 -0.01665764 -0.06390729
-0.049024593 -0.0501822 -0.07286208 -0.06858941 -0.037040997 -0.009094493 -0.070448086 -0.039948363
-0.019050587 -0.022812769 -0.02451649 -0.025063649 -0.022427509 -0.043912873 -0.011688195 -0.0502349
-0.053454008 -0.04118034 -0.073287286 -0.02119334 -0.02019962 -0.05031804 -0.07031503 0.005053273
-0.03321748 -0.043605257 0.004216043 -0.03289425 -0.033291165 -0.046073172 -0.0492215 0.0007043784
-0.016249644 -0.044574294 -0.038170934 -0.015621231 -0.06484556 0.0074685006 -0.03137499 -0.057459965
-0.025685256 -0.04979822 -0.01304091 -0.055343486 -0.038255543 -0.046087693 -0.025270948 -0.04803221
00000000: 46a6 5dbd cec1 fbbc a1c6 06bd 84c4 cebc
00000010: 9fb1 e1bc c26e fabc 9c32 95bd e9b8 64bd
00000020: 59b9 85bd 056a d1bc d0d0 7dbd d6fd ebbc
00000030: 9d14 efbc 1cf9 62bd d53a b4bb c147 62bd
00000040: 988a 5ebd 8956 a1bc ba96 05bd 5ce6 c6bc
00000050: f93c 50bd e80a e9ba 0dbc 11bd 3cb8 37bd
00000060: 808c c4bc c495 3ebd 68b4 22bd 6979 2ebd
00000070: a007 0ebd 7fa9 01bd cc84 c7bc fac9 dfbc
00000080: cdc1 e3bb a272 13bd 428d e2bb 12a4 01bd
00000090: 0744 57bd 1154 5cbd f2ad 7bbd e96b 3ebd
000000a0: bc6b 30bd d479 fcbc c716 d1bc 169c 4ebd
000000b0: a292 91bd e861 65bd 94d7 77bd 4539 81bc
000000c0: aff8 48bd aab8 80bd 1bfb 6cbd f3a1 e3bc
000000d0: e3a8 4dbd 4769 4a3c ec6f 4abd f03d 07bd
000000e0: feff 22bd e6e9 26bc 8a69 0abd 966e 0ebd
000000f0: b476 c9bc 36dc 48bd 0c09 2dbd 6c69 3bbd
00000100: 035f 98bd bfbc 50bd 3586 3cbd a2fd 13bd
00000110: 5a64 03bd 9707 d4bc 99d1 cfbc 3f0c 0ebd
00000120: fdba 33bd 88b6 29bd 885b 1dbd c6dc 7b3b
00000130: 87d4 4bbd 137a e4bc 9a75 88bc d3e1 82bd
00000140: 03ce 48bd da8b 4dbd b738 95bd 9b78 8cbd
00000150: 4db8 17bd 1201 15bc 1647 90bd e5a0 23bd
00000160: fa0f 9cbc d8e1 babc ced6 c8bc 4852 cdbc
00000170: e5b9 b7bc fcdd 33bd d87f 3fbc 1cc3 4dbd
00000180: 97f2 5abd b7ac 28bd a517 96bd a89d adbc
00000190: ac79 a5bc 4a1a 4ebd 5401 90bd ed95 a53b
000001a0: 0d0f 08bd 6d9b 32bd bb26 8a3b 1fbc 06bd
000001b0: 515c 08bd 39b7 3cbd 7c9c 49bd 09a6 383a
000001c0: f91d 85bc 8993 36bd 2059 1cbd 31f0 7fbc
000001d0: c0cd 84bd 53ba f43b 1083 00bd 245b 6bbd
000001e0: e369 d2bc 38f9 4bbd 8aa9 55bc daaf 62bd
000001f0: d8b1 1cbd 73c6 3cbd 0505 cfbc 6cbd 44bd

network_body._body_endoder.seq_layers.2.weight f4 [128, 128]
-0.015559302 -0.031052005 -0.06171938 -0.02159284 0.03981916 -0.019949043 0.025711488 0.0699289
0.16615112 -0.022339307 -0.09042588 0.18619391 -0.22776775 -0.010842556 -0.13272555 -0.021229701
0.16673711 -0.1412585 -0.08671716 0.024413845 0.04053421 0.006461002 -0.12426617 -0.039187174
-0.08289401 -0.006849901 0.17888527 0.009534238 0.06732726 -0.035401337 0.2160958 -0.16237672
0.10232161 0.0028290497 0.123128794 -0.15909171 0.12126044 0.050654907 -0.05659928 -0.062852256
0.05613564 0.20930232 0.09913132 -0.06694617 -0.018769903 0.043997828 0.038027596 0.079347886
0.0659867 -0.096326925 -0.08875745 0.007624797 -0.08654433 0.121500894 0.10970225 0.070869215
-0.015606575 0.095209956 -0.015770892 0.053811885 0.08570782 -0.07989405 -0.0471884 -0.017520163
-0.09033726 0.08750744 -0.08219779 0.052473385 0.122131966 0.12497051 -0.03953531 -0.058513626
0.0035600204 0.04385674 -0.051807996 0.07544991 -0.013085349 0.047217686 0.10660062 0.022434741
0.07817013 0.051845867 0.104701035 0.009676288 0.053690266 -0.01980189 0.016506786 -0.04339099
0.0076770955 -0.0077328137 -0.19639522 0.10259316 -0.01340136 -0.11327336 0.069533475 -0.115199916
-0.04444296 0.12106658 0.057402764 -0.039061733 0.026576558 -0.120647356 0.08678927 -0.1257751
-0.20231986 -0.1524877 -0.08590767 -0.0320928 0.12171475 -0.056148164 0.09869769 0.00071827456
-0.18685207 0.0026558954 0.11787666 0.20342351 0.06081287 0.09239512 -0.016539607 -0.16511631
-0.13242018 -0.114023715 -0.085797794 -0.06490907 0.12554707 -0.06592052 0.14776424 0.059510183
0.16284367 0.08295512 -0.14452815 -0.06345248 0.004748383 0.01881747 0.050534394 -0.11593681
-0.02877575 0.07142917 -0.050283916 -0.04547287 -0.10763616 -0.05959418 0.070111275 0.06458727
0.09915808 -0.005755072 0.048020095 -0.108039364 0.025006922 0.08178467 0.14661258 0.061036117
-0.0649929 -0.0026614438 0.2042782 0.13738258 0.07784459 -0.2016463 0.047885623 0.15447757
0.06492291 -0.07350834 -0.02612455 -0.12547691 -0.06726967 0.073502794 0.12563336 0.03804034
-0.014020147 -0.057610873 0.16700941 0.0793256 0.07752461 0.08446992 0.10783032 0.105318174
0.19348766 0.15347826 0.05353402 0.11425542 0.0052506323 0.073698245 -0.025851388 0.12564266
0.04433704 0.054673404 -0.010386359 -0.024391057 0.01905863 -0.050531622 0.003877034 -0.028470336
-0.04270022 0.057017755 0.061607637 0.080079034 -0.030542258 0.009795327 -0.027950525 -0.039384626
-0.048235066 -0.03696239 0.009326997 -0.087172255 -0.10900064 -0.14479348 0.07501342 -0.07141386
0.061657332 0.18046202 0.16115014 -0.121724054 0.28420895 -0.10050498 -0.05334684 0.04925294
-0.062070623 -0.014774 -0.05808107 0.04145853 -0.037059475 -0.18015921 0.17084461 0.013297763
-0.010953004 -0.0137785515 -0.10315928 0.015892161 -0.013268843 -0.13543364 -0.031770147 -0.082346275
-0.08633722 0.058486484 -0.037328206 0.2550513 0.028962683 0.2667038 0.037969876 -0.042846393
0.08161973 0.06187339 0.014147787 -0.12221708 0.04700186 -0.15248594 0.027106535 -0.11367023
-0.053022984 0.08231471 -0.11696499 0.01608437 0.0931769 0.1004982 0.085307255 -0.010454511
00000000: 71ec 7ebc c660 febc 76cd 7cbd 78e3 b0bc
00000010: 6a19 233d 2d6c a3bc e6a0 d23c e236 8f3d
00000020: 8523 2a3e ec00 b7bc 3431 b9bd 9ea9 3e3e
00000030: f33b 69be faa4 31bc 35e9 07be e9e9 adbc
00000040: 22bd 2a3e 11a6 10be c498 b1bd 8bff c73c
00000050: 3307 263d d0b6 d33b 437f febd bb82 20bd
00000060: 56c4 a9bd 2275 e0bb b32d 373e 7e35 1c3c
00000070: e0e2 893d fe00 11bd 3848 5d3e 1546 26be
00000080: fe8d d13d 9467 393b f32a fc3d f0e8 22be
00000090: 6557 f83d 857b 4f3d a6d4 67bd afb8 80bd
000000a0: 7cee 653d 5953 563e 5d05 cb3d 131b 89bd
000000b0: 57c3 99bc 1137 343d d3c2 1b3d 2581 a23d
000000c0: 0924 873d 0d47 c5bd 77c6 b5bd 6fd9 f93b
000000d0: 273e b1bd 76d5 f83d 93ab e03d e123 913d
000000e0: b8b2 7fbc 70fd c23d f531 81bc da69 5c3d
000000f0: 9587 af3d 7e9f a3bd a048 41bd 7286 8fbc
00000100: be02 b9bd 1a37 b33d 5157 a8bd 55ee 563d
00000110: 5320 fa3d 8af0 ff3d c7ef 21bd fcab 6fbd
00000120: 3b4f 693b 20a3 333d 9f34 54bd 7b85 9a3d
00000130: ef63 56bc 5567 413d 6d51 da3d 10c9 b73c
00000140: a917 a03d 555c 543d 7f6d d63d 4b89 1e3c
00000150: 53ea 5b3d 9337 a2bc 3d39 873c c0ba 31bd
00000160: 2590 fb3b 8b63 fdbb d41b 49be 5d1c d23d
00000170: 6191 5bbc ddfb e7bd 9167 8e3d efed ebbd
00000180: d209 36bd c1f1 f73d 291f 6b3d 32ff 1fbd
00000190: 15b7 d93c f615 f7bd 93be b13d 30cb 00be
000001a0: f02c 4fbe bc25 1cbe 5cf0 afbd bd73 03bd
000001b0: 9545 f93d 9efb 65bd 0422 ca3d 974a 3c3a
000001c0: 2656 3fbe 880e 2e3b 5169 f13d 414e 503e
000001d0: ea16 793d a739 bd3d 127e 87bc 4014 29be
000001e0: 2899 07be 4485 e9bd c1b6 afbd 0cef 84bd
000001f0: 698f 003e 5601 87bd 824f 173e f3c0 733d
00000200: 7ec0 263e 60e4 a93d 30ff 13be 60f3 81bd
00000210: 5398 9b3b 1827 9a3c 27fd 4e3d 4770 edbd
00000220: 1fbb ebbc 7549 923d 82f6 4dbd c341 3abd
00000230: 5970 dcbd 0719 74bd 8096 8f3d 5546 843d
00000240: 6413 cb3d 0b95 bcbb b8b0 443d be43 ddbd
00000250: 51db cc3c b97e a73d 9c21 163e 0201 7a3d
00000260: ff1a 85bd 9e6b 2ebb 4e2e 513e 05ae 0c3e
00000270: fc6c 9f3d 5e7c 4ebe b723 443d 5e2f 1e3e
00000280: 4df6 843d 8a8b 96bd 2703 d6bc 057d 00be
00000290: aec4 89bd a288 963d 08a6 003e 30d0 1b3d
000002a0: c2b4 65bc 61f9 6bbd 8404 2b3e 7675 a23d
000002b0: 39c5 9e3d 91fe ac3d 25d6 dc3d 0eb1 d73d
000002c0: a121 463e 6829 1d3e 7d46 5b3d bffe e93d
000002d0: 7f0d ac3b 1bef 963d 4ac6 d3bc 78a8 003e
000002e0: c29a 353d 38f1 5f3d 8c2b 2abc c1cf c7bc
000002f0: d820 9c3c 3ffa 4ebd d615 7e3b 9f3a e9bc
00000300: 6de6 2ebd 738b 693d 4a58 7c3d 7a00 a43d
00000310: c233 fabc 947c 203c 80f8 e4bc c651 21bd
00000320: 2292 45bd e065 17bd 43d0 183c 5e87 b2bd
00000330: ba3b dfbd be44 14be a3a0 993d 6e41 92bd
00000340: 668c 7c3d 09cb 383e 8b04 253e 764a f9bd
00000350: d683 913e 8ed5 cdbd 3782 5abd 73bd 493d
00000360: c43d 7ebd a60e 72bc 6be6 6dbd 6bd0 293d
00000370: adcb 17bd a87b 38be e4f1 2e3e dcde 593c
00000380: 3a74 33bc 6fbf 61bc 2c45 d3bd 4730 823c
00000390: 9065 59bc 1eaf 0abe 6a21 02bd 2aa5 a8bd
000003a0: 92d1 b0bd 868f 6f3d 76e5 18bd 1696 823e
000003b0: 2643 ed3c 678d 883e 4d86 1b3d b37f 2fbd
000003c0: 3f28 a73d f46e 7d3d 1fcc 673c f34c fabd
000003d0: 0685 403d 4625 1cbe 860e de3c f0cb e8bd
000003e0: a12e 59bd 9d94 a83d 578b efbd 5ec3 833c
000003f0: 88d3 be3d 00d2 cd3d 92b5 ae3d 6649 2bbc

network_body._body_endoder.seq_layers.4.bias f4 [128]
-0.015830265 -0.014230485 -0.012380551 -0.056120668 -0.039771803 -0.045432493 0.01589508 -0.031705197
-0.02565995 -0.0044699907 0.011834903 -0.02198254 -0.022720719 -0.03256787 -0.026352549 -0.054970194
-0.004204798 -0.029551653 -0.04667607 -0.05624565 0.0013471806 -0.050019976 -0.02130467 -0.0038937158
-0.01695473 -0.022548858 -0.025356311 -0.00087061094 -0.023286343 -0.01968061 -0.020586632 0.00843759
-0.035097145 0.0035408225 -0.016151542 0.0015341146 -0.036226083 -0.050988093 0.03912292 -0.04076956
-0.036109157 -0.025171105 -0.0020449164 -0.007391066 -0.024783198 -0.037890404 -0.041937172 -0.017277014
-0.026934046 -0.022665538 -0.008125024 -0.069044665 -0.050813176 -0.024814157 -0.022256073 -0.06405264
-0.012119544 0.0036517498 -0.04819053 -0.028255468 0.009157034 -0.034857273 -0.019147348 -0.044883076
-0.0038680315 -0.0329467 -0.024207955 -0.035583057 -0.039030876 -0.01787122 -0.011146619 -0.017085066
-0.032931674 0.0061028833 0.0006782533 0.013412049 -0.0022452634 -0.008032438 -0.0031534762 -0.010731568
-0.011659797 -0.04423432 -0.036655523 -0.01574559 -0.056391675 -0.017665708 -0.016205968 -0.07399702
-0.019294318 0.004543967 -0.0036442918 -0.0123632755 -0.017333398 -0.022555377 -0.009607451 -0.06168028
-0.019676132 -0.01460296 -0.0037801112 -0.008423112 -0.017180378 -0.017991655 -0.028250057 -0.028845485
-0.0013518023 0.008310086 -0.057069816 -0.034273177 -0.012850646 -0.04866113 -0.0077375565 -0.02181197
-0.044837996 -0.022895012 -0.042127885 -0.014636372 0.00659318 0.0027065945 -0.0125168525 0.00037488874
-0.029845186 -0.05553741 -0.027685737 0.021744626 -0.026789332 -0.026983455 -0.0036917028 -0.0115984
00000000: 79ae 81bc fb26 69bc cbd7 4abc c9de 65bd
00000010: c2e7 22bd 6c17 3abd 6636 823c 4fdd 01bd
00000020: d134 d2bc 0079 92bb 2ee7 413c ba14 b4bc
00000030: cd20 babc e365 05bd 4de1 d7bc 6d28 61bd
00000040: 67c8 89bb 4f16 f2bc 682f 3fbd d761 66bd
00000050: e193 b03a bfe1 4cbd 2287 aebc b62d 7fbb
00000060: a5e4 8abc 62b8 b8bc 0ab8 cfbc b639 64ba
00000070: 00c3 bebc 3b39 a1bc 4ca5 a8bc d13d 0a3c
00000080: 06c2 0fbd 250d 683b 3d50 84bc 5814 c93a
00000090: cd61 14bd e4d8 50bd 5b3f 203d fbfd 26bd
000000a0: 32e7 13bd a233 cebc 0104 06bb c130 f2bb
000000b0: 2206 cbbc f832 1bbd 50c6 2bbd 8688 8dbc
000000c0: caa4 dcbc 14ad b9bc d21e 05bc 4a67 8dbd
000000d0: 7a21 50bd 0f47 cbbc 5e52 b6bc 082e 83bd
000000e0: 0d91 46bc 3252 6f3b 6f63 45bd 0378 e7bc
000000f0: 6207 163c 80c6 0ebd e6da 9cbc 51d7 37bd
00000100: cd7e 7dbb 1ef3 06bd c34f c6bc 8abf 11bd
00000110: d7de 1fbd aa66 92bc 4fa0 36bc fbf5 8bbc
00000120: 5de3 06bd b2fa c73b cfcc 313a 36be 5b3c
00000130: 4525 13bb 7d9a 03bc 8daa 4ebb 75d3 2fbc
00000140: bc08 3fbc 0c2f 35bd 1a24 16bd e5fc 80bc
00000150: f5fa 66bd adb7 90bc 61c2 84bc c08b 97bd
00000160: 1e0f 9ebc 8fe5 943b 12d5 6ebb 568f 4abc
00000170: c5fe 8dbc 0ec6 b8bc 9268 1dbc 76a4 7cbd
00000180: d72f a1bc 4141 6fbc bebb 77bb 1801 0abc
00000190: ddbd 8cbc 3c63 93bc aa6c e7bc 5e4d ecbc
000001a0: f52e b1ba 0727 083c 0ac2 69bd 0862 0cbd
000001b0: 848b 52bc e550 47bd 548b fdbb 04af b2bc
000001c0: 0ca8 37bd 528e bbbc 4a8e 2cbd 65cd 6fbc
000001d0: 9a0b d83b 1f61 313b 7c13 4dbc b78c c439
000001e0: e47d f4bc 327b 63bd 33cd e2bc c921 b23c
000001f0: 4d75 dbbc 680c ddbc 7ff0 71bb 3707 3ebc

network_body._body_endoder.seq_layers.4.weight f4 [128, 128]
0.04522047 0.061038017 0.004012717 -0.11951708 0.008508306 -0.067285866 0.17320113 0.058993813
-0.035644665 0.18441354 0.0114444755 -0.1558115 -0.08032123 -0.05428653 0.07507392 -0.05316266
-0.0658825 -0.015829675 0.0920023 0.102882914 0.12432094 -0.02602791 0.07119735 0.15617247
0.062476054 0.040356573 0.007577223 0.04682599 -0.0716185 -0.01710967 -0.10280515 -0.014389911
-0.19801447 -0.0016264423 -0.060355783 -0.054320235 -0.03195816 -0.1406515 -0.15028448 0.021595618
0.06736072 -0.0099964775 -0.059813973 0.082867935 0.15880388 -0.2656334 0.14328903 0.1261046
0.12548575 -0.09449663 0.09685259 -0.05918204 0.035982203 -0.040728647 -0.09383831 0.1750014
-0.0344303 -0.113222964 -0.04470227 0.10159999 0.03751843 0.1394447 0.037404384 -0.098818414
-0.07081031 0.036565986 0.0012649446 0.12675174 0.021672122 -0.021804422 -0.06927368 -0.029642988
0.009602603 0.109425604 0.15044597 0.07994776 -0.13927592 0.0030658762 0.14237304 0.06306972
0.012600793 -0.09344054 -0.0957445 0.06712794 -0.009769323 0.22009553 -0.086102866 -0.011962235
0.07301232 0.03814291 -0.03807937 -0.007841715 0.026837612 -0.033417616 -0.0834089 0.035483558
-0.018699909 0.16321123 -0.028902095 0.058751002 -0.061373007 -0.017505487 0.020391054 -0.018205624
0.17406228 0.09041525 0.17500243 0.07699962 -0.12509564 -0.04644029 0.12101356 0.08943946
0.0015698218 0.040259484 0.03451808 0.12721632 0.028236141 0.057175376 0.004441588 -0.042189866
-0.0617041 0.006070651 -0.13492005 -0.08297055 0.14560495 -0.0056068497 0.04798668 0.05858967
-0.045070454 0.09807212 -0.054573912 0.20431112 -0.11956444 0.10731713 -0.028027916 -0.14839102
0.09322859 -0.08472022 -0.040973883 -0.026113348 0.051387478 0.080591805 -0.09960789 0.075413376
-0.09734378 0.040542543 -0.07898824 -0.04359269 -0.021330273 0.054700997 0.12496685 0.07659906
0.07319517 0.0341691 -0.036929127 0.007586379 -0.09465984 0.08128362 -0.13117999 0.041432694
-0.11309242 0.0068465173 -0.004384273 0.08470757 0.21273181 -0.00016518863 -0.08763011 -0.0009339609
-0.11601001 0.029764954 -0.11812638 0.075770274 -0.07958171 -0.25665224 -0.01890653 -0.059682116
0.0066193803 -0.04164407 -0.12701604 -0.07519252 0.073701926 0.036122397 0.10660147 -0.17898637
0.05941166 -0.0018850656 0.119568706 0.07642975 0.032769892 -0.01783812 -0.07620711 -0.10343196
0.098617725 0.050560277 -0.052030582 0.023759428 0.012161521 -0.01749838 -0.028715571 0.12851506
-0.1088957 -0.23099142 -0.045391288 -0.042931072 0.006033999 0.10565762 0.07223399 0.020920975
0.11384475 0.10240242 0.084363155 0.066849716 0.0008722348 -0.0080922665 -0.048785165 0.049735416
0.13471231 -0.11626661 -0.044695724 -0.13154465 0.030189212 0.10649763 0.004742831 -0.09349956
-0.15880476 -0.12666579 0.027819673 -0.05304999 0.054748695 0.07793757 0.011337319 0.031072328
-0.06167809 -0.17700247 0.039677553 0.08748076 0.118142486 0.048356164 -0.12178809 0.104950875
-0.028735198 0.075742334 0.065519184 0.07254333 0.057148933 0.034567207 -0.035171058 -0.08824669
-0.004170305 -0.12300822 -0.025320407 0.04657292 -0.02688132 0.09799728 -0.082421586 -0.02460919
00000000: 1939 393d 0003 7a3d 1c7d 833b 5fc5 f4bd
00000010: 6c66 0b3c 2ccd 89bd a35b 313e 7fa3 713d
00000020: 2400 12bd e7d6 3c3e 9c81 3b3c 0d8d 1fbe
00000030: 757f a4bd 8d5b 5ebd 5bc0 993d 17c1 59bd
00000040: 67ed 86bd 3cad 81bc b46b bc3d 47b4 d23d
00000050: fa9b fe3d 7c38 d5bc ebcf 913d adeb 1f3e
00000060: e4e6 7f3d ef4c 253d 5a4a f83b 9ccc 3f3d
00000070: b8ac 92bd 9429 8cbc 828b d2bd a9c3 6bbc
00000080: 4ec4 4abe 592e d5ba a037 77bd e57e 5ebd
00000090: 8fe6 02bd f206 10be 2de4 19be 4be9 b03c
000000a0: 6bf4 893d 44c8 23bc 7fff 74bd aab6 a93d
000000b0: 7c9d 223e 1a01 88be 5cba 123e 9021 013e
000000c0: 567f 003e 7387 c1bd a75a c63d de68 72bd
000000d0: 1362 133d 15d3 26bd 4d2e c0bd 9133 333e
000000e0: c906 0dbd 71e1 e7bd ba19 37bd a813 d03d
000000f0: edac 193d 97ca 0e3e 5735 193d 4f61 cabd
00000100: ff04 91bd 37c6 153d 7fcc a53a 35cb 013e
00000110: bc89 b13c 309f b2bc 5cdf 8dbd dad5 f2bc
00000120: 3c54 1d3c 881a e03d 820e 1a3e a7bb a33d
00000130: 599e 0ebe deec 483b 3dca 113e b32a 813d
00000140: 8e73 4e3c c15d bfbd b115 c4bd 607a 893d
00000150: 830f 20bc b960 613e b356 b0bd 40fd 43bc
00000160: 7c87 953d bd3b 1c3d 1df9 1bbd 897a 00bc
00000170: 8dda db3c e9e0 08bd 49d2 aabd 3557 113d
00000180: 8d30 99bc d820 273e 16c4 ecbc e4a4 703d
00000190: 4362 7bbd ab67 8fbc 240b a73c f623 95bc
000001a0: 623d 323e a12b b93d d633 333e fab1 9d3d
000001b0: 1219 00be 2c38 3ebd f5d5 f73d 092c b73d
000001c0: 7bc2 cd3a 21e7 243d d562 0d3d ff44 023e
000001d0: 7b4f e73c ba30 6a3d be8a 913b 48cf 2cbd
000001e0: 70bd 7cbd 50ec c63b 7b28 0abe 77ec a9bd
000001f0: 7719 153e aab9 b7bb ae8d 443d b9fb 6f3d
00000200: cc9b 38bd 09da c83d e588 5fbd ef36 513e
00000210: 33de f4bd 15c9 db3d cd9a e5bc d1f3 17be
00000220: a2ee be3d cb81 adbd 3bd4 27bd a9eb d5bc
00000230: ad7b 523d 510d a53d 39ff cbbd 5472 9a3d
00000240: 2d5c c7bd f00f 263d 96c4 a1bd 408e 32bd
00000250: d3bc aebc 270e 603d 9fee ff3d f8df 9c3d
00000260: 59e7 953d e6f4 0b3d ff42 17bd 2997 f83b
00000270: 05dd c1bd 0778 a63d 0c54 06be 54b5 293d
00000280: 009d e7bd c058 e03b f3a9 8fbb 2a7b ad3d
00000290: 5ed6 593e 7c36 2db9 6a77 b3bd 0ed5 74ba
000002a0: a896 edbd a2d5 f33c 3eec f1bd 722d 9b3d
000002b0: bcfb a2bd ec67 83be dee1 9abc 3c75 74bd
000002c0: 63e7 d83b f992 2abd 7e10 02be 89fe 99bd
000002d0: 09f1 963d 14f5 133d df51 da3d 3448 37be
000002e0: a459 733d 4e14 f7ba 70e0 f43d 3387 9c3d
000002f0: b939 063d 4021 92bc 7912 9cbd 23d4 d3bd
00000300: 17f8 c93d 4b18 4f3d 051e 55bd 22a3 c23c
00000310: 1e41 473c c358 8fbc eb3c ebbc 7499 033e
00000320: b504 dfbd 0489 6cbe 37ec 39bd 7ed8 2fbd
00000330: dab8 c53b 0663 d83d 6aef 933d 7762 ab3c
00000340: 7027 e93d 5cb8 d13d 97c6 ac3d 81e8 883d
00000350: b0a6 643a 6d95 04bc f4d2 47bd 5db7 4b3d
00000360: 06f2 093e 301d eebd dd12 37bd a4b3 06be
00000370: 5e4f f73c 6e1b da3d c069 9b3b b37c bfbd
00000380: b79d 22be adb4 01be 15e6 e33c f24a 59bd
00000390: 2b40 603d bc9d 9f3d 2ac0 393c 658b fe3c
000003a0: 2aa2 7cbd 2340 35be ee84 223d 1d29 b33d
000003b0: b0f4 f13d 1d11 463d 096c f9bd 7cf0 d63d
000003c0: 1466 ebbc cc1e 9b3d ec2e 863d 9991 943d
000003d0: 0015 6a3d 5896 0d3d 870f 10bd aeba b4bd
000003e0: 0ea7 88bb bceb fbbd be6c cfbc 3fc3 3e3d
000003f0: 3736 dcbc ccb2 c83d a6cc a8bd 3699 c9bc
