results/BarcelonaPPO/MoveSomewhere/MoveSomewhere-24999946.onnx (onnx, 177778 bytes, 11 tensors)

action_model._discrete_distribution.branches.0.bias f4 [3]
0.16470878 -0.54325545 0.41897893
00000000: 6ba9 283e ca12 0bbf 6884 d63e

action_model._discrete_distribution.branches.0.weight f4 [3, 128]
0.009464319 -0.12524442 -0.49619713 -0.3365513 -0.004905027 -0.2174535 -0.49543643 -0.044417545
0.13702764 -0.26879117 -0.27541527 -0.3314988 -0.4226349 0.2967131 -0.11270147 -0.10794779
0.018607417 -0.08255925 -0.18292572 0.5244981 -0.37301898 0.38919672 0.07108584 -0.050918512
-0.20203169 -0.0018822101 -0.16057648 0.04039797 0.33166042 0.007079147 0.09616624 -0.63947815
0.1411264 -0.057780113 -0.013290746 -0.104063645 -0.19202921 0.06333683 -0.16035645 0.1131522
0.05209644 0.17671469 0.18440728 -0.070319615 -0.26046303 -0.11998692 -0.07731272 -0.5927107
0.070903055 -0.2890249 -0.3245042 -0.41454214 -0.3541234 -0.14307654 -0.15135597 -0.11902283
-0.02843581 -0.19251038 -0.30901513 -0.3924682 -0.049840957 0.100285746 -0.0016002555 -0.24929838
0.10936062 -0.20095634 -0.013228072 0.1768444 -0.36574855 -0.27614176 -0.022184346 -0.031114224
-0.5298166 -0.23710857 0.110950805 0.03503334 0.030906508 -0.01872556 -0.08463659 -0.013421045
-0.17828502 0.01953954 -0.18090402 -0.209833 -0.5767308 -0.1462593 0.0046581803 0.12582721
-0.010118725 0.1433312 0.022015458 0.12976484 -0.4761607 -0.038641438 -0.25140747 0.2540035
-0.108108036 -0.39582455 -0.0904052 0.34877768 -0.22976846 -0.06487464 -0.03971268 0.030024745
-0.04792102 -0.3576591 -0.44046542 0.17979018 0.13314511 0.10555398 0.320101 -0.36023962
-0.38443986 -0.06399203 -0.19412631 0.043889496 -0.1870274 -0.042334557 -0.44176656 -0.6848402
0.04069958 0.0406582 0.09474094 -0.3624194 0.27889866 -0.78551966 -0.09281502 -0.054187283
-0.21916834 -0.1084461 -0.093183324 0.34063494 0.2795168 0.1278298 0.33188456 0.83186984
0.10205105 -0.07979316 0.14835031 0.10178948 0.07356676 -0.051358458 -0.036025874 0.07885932
-0.1906265 -0.118083656 0.42876866 0.18131644 0.3508768 0.30158478 -0.03617715 -0.19313337
0.28233945 -0.31091142 -0.08355861 0.40219334 0.55626357 -0.14902416 1.5762252 0.31288624
0.079890355 -0.3027282 -0.08240397 -0.15040147 -0.1625365 0.34309295 -0.0872345 -0.31268853
-0.059643008 0.016650662 -0.49243683 -0.011747071 0.13437267 -0.014545627 -0.07090566 0.29993165
-0.20074214 0.038567636 0.31645495 -0.15280007 0.055118732 0.21847574 0.04697911 0.024053372
0.3978844 -0.13991837 0.05651793 0.25234735 -0.27672726 0.08179613 -0.16626573 0.24021985
0.068421945 0.19796434 -0.25699744 -0.00043765592 0.27152798 0.4252874 0.10460428 0.061838485
0.25343883 0.124254115 0.6421399 0.088590935 -0.11725025 0.113836825 -0.26863286 0.23586239
-0.13930887 0.018949268 0.08978821 0.081432626 0.23870279 0.050654266 0.10804695 -0.04650996
0.0014877397 -0.28209168 -0.3637718 0.17892316 0.42513967 -0.12102947 0.078574926 0.11225688
0.05831081 0.16936836 -0.034045093 -0.36185193 -0.07146167 0.5509848 0.16195264 0.022333115
-0.17817001 0.43470213 0.3834413 0.12588258 -0.1780078 -0.21934646 0.2609353 0.2677528
0.3103495 0.28881058 -0.0036482268 0.15927179 -0.06389148 0.08083845 0.07305832 0.8179537
0.09130278 -0.15384077 -0.24462523 0.09815212 -0.20759474 0.68758035 0.06991512 0.06278452
00000000: 3b10 1b3c 1340 00be 8d0d febe 7450 acbe
00000010: 59ba a0bb 21ac 5ebe d8a9 fdbe 2cef 35bd
00000020: f950 0c3e ff9e 89be 3b03 8dbe 36ba a9be
00000030: 9a63 d8be c8ea 973e 07d0 e6bd bb13 ddbd
00000040: 956e 983c d314 a9bd e150 3bbe 8245 063f
00000050: 58fc bebe cb44 c73e 7495 913d ee8f 50bd
00000060: 65e1 4ebe 7eb4 f6ba 296e 24be 5778 253d
00000070: 65cf a93e 30f8 e73b cef2 c43d d7b4 23bf
00000080: 7083 103e d7aa 6cbd 6ec1 59bc 521f d5bd
00000090: 4ea3 44be bdb6 813d 7b34 24be 57bc e73d
000000a0: 1463 553d b2f4 343e 43d5 3c3e bb03 90bd
000000b0: 695b 85be b4bb f5bd 2256 9ebd e3bb 17bf
000000c0: 9f35 913d 12fb 93be 6a25 a6be de3e d4be
000000d0: aa4f b5be a882 12be 0ffd 1abe 3ec2 f3bd
000000e0: 37f2 e8bc 7121 45be 3b37 9ebe 98f1 c8be
000000f0: 0826 4cbd 9d62 cd3d aabf d1ba 1348 7fbe
00000100: 76f8 df3d 80c7 4dbe 8eba 58bc b316 353e
00000110: 6543 bbbe 7462 8dbe f2bb b5bc 42e3 febc
00000120: 10a2 07bf 97cc 72be 2d3a e33d 1f7f 0f3d
00000130: a52f fd3c 5866 99bc f355 adbd f1e3 5bbc
00000140: 5990 36be 6311 a03c e73e 39be 76de 56be
00000150: a1a4 13bf ffc4 15be a6a3 983b d9d8 003e
00000160: 02c9 25bc 6ac5 123e c359 b43c 13e1 043e
00000170: 56cb f3be 7c46 1ebd 7bb8 80be bf0c 823e
00000180: bf67 ddbd 84a9 cabe 5d26 b9bd fd92 b23e
00000190: 6c48 6bbe ffdc 84bd c3a9 22bd 74f6 f53c
000001a0: d548 44bd 181f b7be af84 e1be eb1a 383e
000001b0: 3157 083e af2c d83d 47e4 a33e 5471 b8be
000001c0: 4dd5 c4be 410e 83bd 0cc9 46be 79c5 333d
000001d0: 1c84 3fbe 0067 2dbd 3a2f e2be b051 2fbf
000001e0: 9ab4 263d 3689 263d 8a07 c23d 098f b9be
000001f0: cecb 8e3e d117 49bf cd15 bebd 7cf3 5dbd
00000200: aa6d 60be fd18 debd e6d6 bebd b467 ae3e
00000210: d31c 8f3e d1e5 023e c6ec a93e 6cf5 543f
00000220: 2400 d13d 996a a3bd 25e9 173e 0177 d03d
00000230: 2baa 963d 3f5d 52bd de8f 13bd ff80 a13d
00000240: 9833 43be d8d5 f1bd 9187 db3e 04ab 393e
00000250: 20a6 b33e 5269 9a3e 7e2e 14bd c1c4 45be
00000260: cc8e 903e c82f 9fbe c720 abbd 49ec cd3e
00000270: 4a67 0e3f ca99 18be bfc1 c93f a032 a03e
00000280: 8e9d a33d 31ff 9abe 6ac3 a8bd d802 1abe
00000290: f86f 26be e1a9 af3e 00a8 b2bd b618 a0be
000002a0: 3a4c 74bd f866 883c ae20 fcbe c976 40bc
000002b0: fd98 093e c850 6ebc fd36 91bd a490 993e
000002c0: 598f 4dbe 19f9 1d3d 6206 a23e 9f77 1cbe
000002d0: 2ec4 613d 1bb8 5f3e 2b6d 403d 940b c53c
000002e0: 81b7 cb3e c346 0fbe 587f 673d ac33 813e
000002f0: 32af 8dbe bb84 a73d 9041 2abe 31fc 753e
00000300: ce20 8c3d 2ab7 4a3e 2b95 83be 2f75 e5b9
00000310: b705 8b3e 45bf d93e c53a d63d 5a4a 7d3d
00000320: bcc2 813e f178 fe3d 4863 243f 2a6f b53d
00000330: e620 f0bd 4823 e93d 3f8a 89be e985 713e
00000340: fca6 0ebe 7f3b 9b3c e2e2 b73d 26c6 a63d
00000350: 816e 743e d97a 4f3d b847 dd3d 3a81 3ebd
00000360: 4300 c33a 526e 90be 4c40 babe a237 373e
00000370: e8ab d93e 4cde f7bd e4eb a03d efe6 e53d
00000380: 51d7 6e3d e66e 2d3e de72 0bbd a844 b9be
00000390: 7f5a 92bd 570d 0d3f ead6 253e f0f3 b63c
000003a0: 3372 36be 4791 de3e 6b52 c43e 5de7 003e
000003b0: ad47 36be 5c9c 60be 5099 853e e516 893e
000003c0: 21e6 9e3e fbde 933e 1717 6fbb 2518 233e
000003d0: 89d9 82bd a18e a53d 9a9f 953d 6a65 513f
000003e0: f4fc ba3d 6f88 1dbe 097f 7abe fb03 c93d
000003f0: b793 54be 4405 303f a92f 8f3d 2c95 803d

action_model._discrete_distribution.branches.1.bias f4 [3]
0.06235896 -0.001999404 -0.046581484
00000000: 1c6c 7f3d 6f08 03bb 3acc 3ebd

action_model._discrete_distribution.branches.1.weight f4 [3, 128]
-0.07310939 -0.6059813 0.0026530884 0.2923724 -0.08230032 -0.20588166 0.3219548 -0.038538072
-0.096260116 -0.10123425 -0.47166196 -0.6314273 0.24111988 -0.112705134 0.42848846 -0.06282017
0.5265313 -0.369432 -0.07943695 0.325269 0.2731732 -0.5636059 -0.08708309 -0.21505456
-0.26061222 -0.08248314 -0.045342665 0.037273984 0.38552755 -0.2196904 -0.17108135 0.12200502
0.40826046 -0.010822263 0.48388207 0.06336924 0.24908358 -0.31942302 -0.042375408 0.21212389
-0.023565004 0.32883027 0.33745852 0.5826854 0.32753515 -0.1350459 -0.28505886 0.27039298
-0.21626572 -0.1762732 -0.16978322 0.30459538 0.29753342 0.020640764 -0.40306103 0.06747047
-0.36173046 0.33356255 0.5021631 -0.15631166 0.01140616 0.08782764 -0.2047099 -0.30276456
-0.32428586 0.52266175 -0.0051270006 0.045680802 0.34668797 -0.022009876 -0.22843614 0.17403878
-0.26102647 -0.0030654634 0.0026532968 0.23630363 0.17121783 -0.19291256 -0.016322913 -0.038709488
-0.20070413 0.11551145 -0.4147018 -0.5939834 -0.42602426 0.31520444 -0.34028852 0.20904532
0.23337175 0.32836625 0.0070965937 0.30737302 0.081294335 -0.37360877 -0.15762602 0.0131429415
-0.19467367 0.2721315 -0.04603856 -0.09592312 0.1661961 -0.15850249 -0.112777874 0.03672547
0.18642424 0.59080565 -0.09419624 0.104670055 0.0052390443 0.005647751 0.058865074 0.18372238
0.16047725 -0.027930127 0.38254538 -0.46378657 0.060599547 0.35150188 -0.07013875 0.11486882
-0.17259939 -0.16072749 0.27004227 0.047226757 0.06916093 -0.04135881 -0.23650998 -0.3223159
0.27439535 0.6750942 0.50803185 -0.21300036 0.42271894 0.7483483 0.27995506 -0.3080231
-0.10012503 1.1533275 1.194088 0.79425216 0.1679549 0.25793502 0.2638998 0.64153546
0.08275413 1.3768288 0.18400435 -0.19814989 0.259379 0.24810427 0.5034597 0.26592556
1.0907675 0.4153591 0.5931454 0.30407813 -0.055584505 0.43578523 0.5100525 -0.06583563
0.15973651 0.57125205 -0.0011386093 -0.17760068 0.09295874 0.8846466 1.0083793 0.17102101
0.668098 1.0669072 0.40211576 0.25974506 0.40862277 0.23718293 0.90104 0.29856452
1.286038 0.88382953 0.4088693 0.013569435 0.35457954 0.01293112 1.5244097 0.302421
0.7946673 0.14398447 0.34600443 0.5476508 0.42282698 0.39596534 0.7536568 0.6224182
0.07177847 0.2927526 0.27607286 0.2720494 0.11229139 0.79092586 0.25014085 0.13986072
0.747978 1.2987748 -0.14320591 -0.34719652 0.36740273 0.6023137 0.4825443 0.021971254
1.094102 0.37458718 0.71631247 0.73240346 0.56618357 0.182885 0.53486633 0.20326543
0.481213 0.17136677 0.54989004 -0.01845326 0.073307395 1.2361013 0.7764591 0.006377647
0.5185819 0.70008904 1.07685 0.09302305 0.7445641 0.4421731 0.5369127 0.20384067
0.46042958 0.3723707 0.10923056 -0.03421312 0.40425205 -0.13811544 0.6666971 0.5090801
0.57590896 0.04876966 -0.27582636 0.43045512 0.3637094 0.3161805 0.3588516 -0.031529043
0.30868906 0.43893105 0.48538533 1.0930196 0.17962086 -0.13690478 0.8707955 0.63096064
00000000: 60ba 95bd 9721 1bbf 70df 2d3b d6b1 953e
00000010: 128d a8bd a4d2 52be 42d7 a43e 19da 1dbd
00000020: 0624 c5bd e753 cfbd ad7d f1be 38a5 21bf
00000030: 21e8 763e f3d1 e6bd d762 db3e dca7 80bd
00000040: c1ca 063f 3126 bdbe d7af a2bd a989 a63e
00000050: 5cdd 8b3e 7a48 10bf 9e58 b2bd 4337 5cbe
00000060: f76e 85be ecec a8bd 3bb9 39bd 9bac 183d
00000070: de63 c53e 85f6 60be f32f 2fbe c5dd f93d
00000080: 8407 d13e dc4f 31bc 64bf f73e bbc7 813d
00000090: c40f 7f3e 6a8b a3be d691 2dbd 0137 593e
000000a0: 650b c1bc 715c a83e 5dc7 ac3e df2a 153f
000000b0: b0b2 a73e 7949 0abe 3cf3 91be f370 8a3e
000000c0: c374 5dbe f680 34be a7db 2dbe edf3 9b3e
000000d0: 4d56 983e d216 a93c 045e cebe f52d 8a3d
000000e0: bc34 b9be b6c8 aa3e c38d 003f 2a10 20be
000000f0: e7e0 3a3c fade b33d 799f 51be f503 9bbe
00000100: cc08 a6be 29cd 053f 6600 a8bb cb1b 3b3d
00000110: 1681 b13e 0e4e b4bc 2aeb 69be 3937 323e
00000120: 43a5 85be f1e5 48bb efe2 2d3b 94f9 713e
00000130: ba53 2f3e df8a 45be a1b7 85bc d78d 1ebd
00000140: 6285 4dbe 4491 ec3d cb53 d4be 4c0f 18bf
00000150: da1f dabe 7a62 a13e 4c3a aebe fa0f 563e
00000160: 01f9 6e3e 9f1f a83e 8b8a e83b ff5f 9d3e
00000170: a57d a63d a649 bfbe b768 21be 7e55 573c
00000180: 8958 47be d254 8b3e ee92 3cbd 5773 c4bd
00000190: 4f2f 2a3e 7a4e 22be 16f8 e6bd 726d 163d
000001a0: ffe5 3e3e 0a3f 173f f5e9 c0bd 415d d63d
000001b0: 4aac ab3b c510 b93b 811c 713d b821 3c3e
000001c0: 2654 243e b9cd e4bc fddc c33e 6f75 edbe
000001d0: 3b37 783d 0ef8 b33e e8a4 8fbd 5840 eb3d
000001e0: e5bd 30be bf95 24be fb42 8a3e d870 413d
000001f0: 3fa4 8d3d db67 29bd ac2f 72be 9706 a5be
00000200: 8c7d 8c3e f9d2 2c3f 600e 023f c41c 5abe
00000210: 9e6e d83e c193 3f3f 4556 8f3e 34b5 9dbe
00000220: 5a0e cdbd 3ca0 933f e0d7 983f 1c54 4b3f
00000230: 5ffc 2b3e 0f10 843e e01d 873e ab3b 243f
00000240: ff7a a93d ed3b b03f a36b 3c3e cee7 4abe
00000250: 53cd 843e 0c0f 7e3e bce2 003f 6527 883e
00000260: 459e 8b3f f3a9 d43e 60d8 173f 21b0 9b3e
00000270: 94ac 63bd 3e1f df3e cd92 023f d5d4 86bd
00000280: f891 233e 933d 123f 633d 95ba f4dc 35be
00000290: 2761 be3d 3378 623f 9312 813f 2220 2f3e
000002a0: 7808 2b3f 6a90 883f 1ee2 cd3e 4efd 843e
000002b0: 0137 d13e 15e0 723e 8faa 663f 73dd 983e
000002c0: e59c a43f a742 623f 5157 d13e 5652 5e3c
000002d0: 738b b53e 0cdd 533c db1f c33f edd6 9a3e
000002e0: 516f 4b3f aa70 133e 7e27 b13e d832 0c3f
000002f0: c77c d83e f8bb ca3e a7ef 403f cd56 1f3f
00000300: 9700 933d abe3 953e 6c59 8d3e 0f4a 8b3e
00000310: 07f9 e53d 1e7a 4a3f 7612 803e a637 0f3e
00000320: 7c7b 3f3f 413e a63f 92a4 12be bec3 b1be
00000330: 361c bc3e 3b31 1a3f 0c10 f73e 0ffd b33c
00000340: 890b 8c3f e4c9 bf3e 4160 373f cb7e 3b3f
00000350: 68f1 103f 3546 3b3e 00ed 083f d024 503e
00000360: 8d61 f63e c57a 2f3e 98c5 0c3f 4b2b 97bc
00000370: 3022 963d 9138 9e3f 06c6 463f 95fb d03b
00000380: c9c1 043f 0939 333f 39d6 893f de82 be3d
00000390: c19b 3e3f 8364 e23e 1c73 093f 9cbb 503e
000003a0: 6dbd eb3e 5fa7 be3e 46b4 df3d 0e23 0cbd
000003b0: 20fa ce3e 226e 0dbe a9ac 2a3f 1353 023f
000003c0: c56e 133f b2c2 473d 1d39 8dbe 9d64 dc3e
000003d0: 1e38 ba3e 69e2 a13e 66bb b73e 9924 01bd
000003e0: 7e0c 9e3e 92bb e03e 6d84 f83e 11e8 8b3f
000003f0: 88ee 373e c430 0cbe 74ec 5e3f a386 213f

discrete_action_output_shape f4 [1, 2]
3.0 3.0
00000000: 0000 4040 0000 4040

network_body._body_endoder.seq_layers.0.bias f4 [128]
-0.49018818 -0.28105673 -0.70644796 -0.5577722 -0.6352028 -0.5232237 -0.47399098 -0.5845279
-0.28482756 -0.5261595 -0.7099529 -0.3742712 -0.41692594 -0.48569924 -0.6324987 -0.631259
-0.8642233 -0.5845501 0.18503757 -0.4079634 -0.8755289 0.007907186 -0.3527714 -0.42756906
-0.078028984 -0.5318934 -0.38732892 -0.721833 -0.35615724 -0.70255566 -0.81800675 -0.47099623
-0.67247814 -0.28563845 -0.70807487 -0.7315507 -0.3454931 -0.20399049 -0.37030342 -0.36000955
-0.7630216 -0.6938021 -0.37397859 -0.6543507 0.043288898 0.03679332 -0.55481136 -0.3608162
-0.2065563 -0.53027564 -0.10062703 -0.29972455 -0.7712788 -0.6346666 -0.35376725 -0.36954722
-0.5619698 -0.40373528 -0.6808728 -0.63340133 0.12051767 -0.57889676 -0.11583758 -0.40112448
-0.5443131 -0.7134959 -0.50005823 -0.58529884 -0.21128933 -0.35083425 -0.61697084 -0.065026835
-0.43266898 -0.8108528 -0.12785155 -0.5262477 -0.37936306 -0.38906747 0.15712173 -0.58632624
-0.21600015 -0.60542524 -0.8359248 -0.5942951 -0.57563275 -0.49888337 -0.69199824 -0.56092227
-0.50401974 -0.5934169 -0.16241561 -0.7136016 -0.38310722 -0.63179964 -0.74180067 -0.3231338
-0.53043383 -0.60434896 -0.56440294 -0.47337174 -0.40137342 -0.651785 -0.4257598 -0.7461396
-0.6594331 -0.65834415 -0.45058295 -0.53626287 -0.25115857 -0.5662148 -0.5136725 -0.4387549
-0.5185237 -0.25307113 -0.28775787 0.357981 -0.56287825 -0.69034636 -0.41516078 -0.41364944
-0.5253866 -0.09314087 -0.5176792 -0.096054375 0.13025638 -0.49487546 -0.5874786 -0.6175692
00000000: f2f9 fabe abe6 8fbe c6d9 34bf 29ca 0ebf
00000010: a79c 22bf fdf1 05bf f2ae f2be 9fa3 15bf
00000020: ebd4 91be 64b2 06bf 79bf 35bf 7aa0 bfbe
00000030: 5177 d5be 92ad f8be 6feb 21bf 319a 21bf
00000040: bd3d 5dbf 13a5 15bf 7d7a 3d3e 94e0 d0be
00000050: a922 60bf 248d 013c 749e b4be 55ea dabe
00000060: a9cd 9fbd 2a2a 08bf fa4f c6be 0cca 38bf
00000070: 3e5a b6be b0da 33bf e468 51bf 6b26 f1be
00000080: 8727 2cbf 343f 92be 6544 35bf e846 3bbf
00000090: 79e4 b0be e2e2 50be 6998 bdbe 2c53 b8be
000000a0: 6255 43bf 049d 31bf 1f7a bfbe 8783 27bf
000000b0: b34f 313d 98b4 163d 1e08 0ebf e7bc b8be
000000c0: 7f83 53be 25c0 07bf 8b15 cebd 7f75 99be
000000d0: 8772 45bf 8379 22bf fb20 b5be 4b35 bdbe
000000e0: 41dd 0fbf 64b6 cebe ae4d 2ebf 9726 22bf
000000f0: f8d1 f63d 9432 14bf 413c edbd 3060 cdbe
00000100: 1a58 0bbf aba7 36bf d103 00bf 25d6 15bf
00000110: 3b5c 58be 8ca0 b3be cdf1 1dbf ca2c 85bd
00000120: ca86 ddbe 0d94 4fbf 84eb 02be 2bb8 06bf
00000130: e03b c2be da33 c7be 85e4 203e 7a19 16bf
00000140: 252f 5dbe 26fd 1abf 2bff 55bf b923 18bf
00000150: ab5c 13bf a46d ffbe cc26 31bf 9a98 0fbf
00000160: 7007 01bf 2cea 17bf 4750 26be 98ae 36bf
00000170: a126 c4be 9fbd 21bf a6e6 3dbf cb71 a5be
00000180: 83ca 07bf 9db6 1abf b67c 10bf c85d f2be
00000190: d180 cdbe 62db 26bf 30fd d9be 0103 3fbf
000001a0: 9cd0 28bf 3e89 28bf cfb2 e6be 8648 09bf
000001b0: db97 80be 74f3 10bf 0a80 03bf 7ba4 e0be
000001c0: f8bd 04bf 8a92 81be 0055 93be 4949 b73e
000001d0: ca18 10bf 8aba 30bf f48f d4be dcc9 d3be
000001e0: bc7f 06bf a4c0 bebd a086 04bf 28b8 c4bd
000001f0: ee61 053e 5160 fdbe ff64 16bf 0419 1ebf

network_body._body_endoder.seq_layers.0.weight f4 [128, 76]
0.18025942 -0.65054184 0.1658286 -1.1260561 0.022790559 -0.5806935 0.06272753 -1.1745554
0.23056553 -0.52966195 -0.08111745 -0.9340295 -0.23953924 -0.73671263 0.117476895 -0.9807515
-0.36192226 -0.6658585 0.13548468 -1.071238 -0.3263441 -0.4250575 0.17120124 -1.1036998
-0.51805985 -0.31943384 -0.14146093 -0.9485873 -0.37582946 -0.4577382 0.13910103 -1.0249041
-0.80682594 0.14036462 0.17289644 -0.8644023 -0.80359274 -0.06925916 0.02990918 -0.7883987
-0.7260913 0.08391229 -0.18420905 -0.749986 -0.5881086 -0.5855265 -0.100248195 -1.1917654
-0.74038076 0.21438389 -0.08488817 -0.5218654 -0.41033193 -0.09106975 -0.048268378 -1.1139174
-0.76814765 0.29627183 0.15117708 -0.66601866 0.411911 -0.36447227 -0.087001845 -0.26356915
0.08580652 -0.5172118 0.07267041 -0.18544678 0.32568425 -0.4413126 -0.07806631 -0.16843492
0.26908788 -0.6100992 -0.05601432 -0.23496148 -0.38542068 -0.32307923 -0.23983996 -0.29102144
-0.50970477 -0.21241447 -0.26907465 -0.11399166 0.1862874 -0.5570075 0.08995409 -0.47556677
-0.69071007 0.09367329 0.13369694 -0.1313866 0.21813467 -0.237583 -0.19545203 -0.5385555
-0.55326676 0.085165575 -0.17225793 -0.19693685 -0.28795713 -0.05334466 0.04266348 -0.6368882
-0.69662553 0.6147922 0.0006996671 -0.5879183 -0.53916365 0.12510498 0.05622195 -0.47127765
-0.7150792 0.83263177 0.04135931 -0.18013938 -0.35004675 -0.013533962 -0.00093357946 -0.58415556
-0.5202092 0.45255166 0.26869705 -0.2073872 -0.26943588 -0.20228904 0.09031073 -0.3010462
-0.47834575 0.2946933 0.04289973 -0.20009285 -0.33624145 0.18619724 -0.035281733 -0.48258552
-0.118778236 -0.6765081 0.06327162 -1.1483536 -0.11459365 -0.5914313 -0.020030776 -1.0037647
-6.6077766e-05 -0.8064295 0.07742698 -0.79801005 0.442472 -0.21922392 -0.10278639 0.19187184
-0.8082839 -0.55131876 0.032049187 -1.0978132 -0.40710065 -0.66424495 -0.05874469 -1.06414
-0.5642423 -0.34705415 -0.0045689787 -0.8690911 -0.452417 -0.38498643 0.15130246 -0.64542663
-0.5565676 -0.55351466 -0.1260294 -0.9019192 -0.42733213 -0.1414685 -0.053541414 -1.0367345
-0.9741336 -0.15168375 -0.0825084 -0.95045394 -0.7468316 0.059444122 -0.031673938 -0.7744126
-0.6573468 -0.31935054 0.055888828 -0.8910161 -0.6580118 0.041466653 -0.04297108 -0.70216954
-0.4452167 -0.36203116 -0.04314753 -0.7190111 -0.7971354 -0.029098228 0.224898 -0.6190206
-0.55146646 -0.45667312 0.17636122 -0.8675607 -0.68848044 0.28450644 -0.14026801 -0.662701
-0.52125657 -0.11452976 0.023396445 -0.9027804 -0.05983003 -0.62229145 -0.11715619 -0.5578534
0.09082861 -1.0756375 0.0044976575 -0.64816844 0.12753177 -0.7302166 0.07794655 -0.10686872
0.22863226 -0.8488271 -0.0034346199 -0.31402144 -0.44043785 -0.46141475 -0.033367567 -0.22312877
-0.17569445 -0.6347231 -0.050450053 -0.36369833 -0.13945052 -0.31176615 -0.1708553 -0.19274229
-0.31709838 -0.43773556 -0.098193705 -0.32029724 -0.4981335 -0.26546165 -0.09395811 -0.44846413
-0.23388442 -0.8159554 -0.04390962 -0.27227247 -0.6290353 -0.03676207 -0.20512731 -0.3666402
00000000: ed95 383e e989 26bf f9ce 293e 9b22 90bf
00000010: 44b3 ba3c 54a8 14bf 4b77 803d d557 96bf
00000020: 5f19 6c3e ed97 07bf e820 a6bd 8f1c 6fbf
00000030: c649 75be 3399 3cbf ba97 f03d 8812 7bbf
00000040: e04d b9be b475 2abf 7fbc 0a3e 541e 89bf
00000050: 9316 a7be 23a1 d9be 614f 2f3e 0946 8dbf
00000060: 929f 04bf d58c a3be 22db 10be 9ed6 72bf
00000070: b86c c0be a95c eabe 8070 0e3e 0f30 83bf
00000080: 258c 4ebf bebb 0f3e c40b 313e 7849 5dbf
00000090: 41b8 4dbf bfd7 8dbd 1904 f53c 7fd4 49bf
000000a0: 1fe1 39bf 35da ab3d 4ca1 3cbe 15ff 3fbf
000000b0: 498e 16bf 11e5 15bf ed4e cdbd c58b 98bf
000000c0: 9889 3dbf 7387 5b3e d9d9 adbd f998 05bf
000000d0: 0717 d2be c782 babd 10b5 45bd d894 8ebf
000000e0: 53a5 44bf f1b0 973e 2ace 1a3e 3380 2abf
000000f0: 00e6 d23e 1c9c babe 062e b2bd 89f2 86be
00000100: 54bb af3d fe67 04bf 39d4 943d c3e5 3dbe
00000110: 16c0 a63e baf3 e1be 3be1 9fbd 347a 2cbe
00000120: e3c5 893e 762f 1cbf 466f 65bd be99 70be
00000130: dc55 c5be a46a a5be 9b98 75be c300 95be
00000140: 037c 02bf 2e83 59be 27c4 89be 7674 e9bd
00000150: 20c2 3e3e 0b98 0ebf da39 b83d 7d7d f3be
00000160: 60d2 30bf c8d7 bf3d dae7 083e 358a 06be
00000170: b25e 5f3e f548 73be 9424 48be c6de 09bf
00000180: e4a2 0dbf 4a6b ae3d 6264 30be d0a9 49be
00000190: 1e6f 93be ee7f 5abd e7bf 2e3d 1b0b 23bf
000001a0: 0d56 32bf 0663 1d3f dd69 373a d081 16bf
000001b0: a106 0abf 851b 003e fd48 663d 4e4b f1be
000001c0: 6e0f 37bf 5b27 553f 6168 293d 7576 38be
000001d0: 5439 b3be 8dbd 5dbc 75bb 74ba 388b 15bf
000001e0: 6e2c 05bf dab4 e73e a992 893e 4f5d 54be
000001f0: 80f3 89be dc24 4fbe d5f4 b83d ba22 9abe
00000200: bce9 f4be 0ae2 963e a1b7 2f3d 24e5 4cbe
00000210: d727 acbe 7daa 3e3e 9483 10bd 7315 f7be
00000220: 0142 f3bd a32f 2dbf 8d94 813d 40fd 92bf
00000230: 13b0 eabd 0b68 17bf 9517 a4bc 5d7b 80bf
00000240: 3b93 8ab8 2a72 4ebf 0992 9e3d 634a 4cbf
00000250: b18b e23e 3c7c 60be ac81 d2bd 0d7a 443e
00000260: b2eb 4ebf 3a23 0dbf 0246 033d 2585 8cbf
00000270: 7f6f d0be f50b 2abf 469e 70bd bd35 88bf
00000280: 2f72 10bf 15b1 b1be 5fb7 95bb c17c 5ebf
00000290: 33a3 e7be f11c c5be 08ef 1a3e ae3a 25bf
000002a0: 377b 0ebf 23b3 0dbf da0d 01be 2de4 66bf
000002b0: 47cb dabe 1edd 10be 3e4e 5bbd b7b3 84bf
000002c0: d260 79bf fc52 1bbe 2afa a8bd f350 73bf
000002d0: 5b30 3fbf ae7b 733d 88bc 01bd e73f 46bf
000002e0: e147 28bf ea81 a3be afeb 643d a219 64bf
000002f0: 7673 28bf f0d8 293d 7102 30bd 62c1 33bf
00000300: 71f3 e3be 265c b9be 77bb 30bd 1d11 38bf
00000310: 1111 4cbf 685f eebc a94b 663e 2278 1ebf
00000320: e82c 0dbf 0fd1 e9be 0998 343e 7518 5ebf
00000330: 4140 30bf d4aa 913e 6ba2 0fbe c6a6 29bf
00000340: 1271 05bf 948e eabd e7a9 bf3c 9e1c 67bf
00000350: 5510 75bd 7e4e 1fbf 96ef efbd 7bcf 0ebf
00000360: 5a04 ba3d 7dae 89bf 1661 933b 5eee 25bf
00000370: b097 023e 7aef 3abf 71a2 9f3d fddd dabd
00000380: 931e 6a3e bc4c 59bf 5c17 61bb 6bc7 a0be
00000390: 1281 e1be 8e3e ecbe 6eac 08bd de7b 64be
000003a0: 3fe9 33be 377d 22bf b7a4 4ebd ab36 babe
000003b0: 1ecc 0ebe d09f 9fbe b1f4 2ebe 3c5e 45be
000003c0: b85a a2be e01e e0be c819 c9bd 00fe a3be
000003d0: 5b0b ffbe 97ea 87be 1c6d c0bd 179d e5be
000003e0: 667f 6fbe 74e2 50bf 93da 33bd 4c67 8bbe
000003f0: 7508 21bf d393 16bd e50c 52be 44b8 bbbe

network_body._body_endoder.seq_layers.2.bias f4 [128]
-0.6301307 -0.87458587 -0.5519588 -0.22800587 -0.40912244 -0.1729188 -0.08471653 -0.26686755
-0.34553367 -0.34625316 -0.4831104 -0.56103545 -0.39589003 -0.5872192 -0.33276728 -0.104099885
0.5333533 -0.3113513 -0.039969552 -0.8915163 -0.4008602 -0.46393767 -0.83291626 -0.78502685
-0.74724776 -0.7794972 -0.35767314 -0.78556985 -0.62788856 -0.1188664 -0.5514587 -0.15828356
-0.061014473 -0.339928 -0.28110397 -0.11304031 -0.55218977 -0.1391547 -0.27185166 -0.35949486
-0.0029094354 -0.82421815 0.008060039 -0.38335168 -0.22794674 -0.7244221 -0.07635839 -1.1587648
-0.14899573 -0.9604247 -0.6307424 -0.33204722 -0.1954868 -0.043527924 -1.1162235 -0.45514637
-0.9268335 -0.922989 -0.46028504 -0.6757737 -0.10530945 -1.0813473 -0.31672925 -0.029054966
-0.5497475 0.17705476 -1.1302229 -0.60581666 -0.7765082 -0.6893666 -0.5761204 -0.8889761
-1.222131 -0.6912308 -0.17484738 -1.2835221 -0.46871296 -0.21957171 0.08654077 -0.46746042
-1.048678 -0.5752653 -0.17622127 -0.6267331 -0.8987826 -0.74772537 -0.50218856 0.1966497
0.2564666 -0.42186284 -0.90312815 -0.48360777 -0.62606746 -0.726231 -0.49508533 -0.64110416
-0.865081 0.37641987 -0.21689942 -0.94458 -0.0997673 -0.45538992 -0.3296152 -0.4180346
-0.7588853 -0.07298315 -0.3248484 -0.16220188 -0.7910885 -0.14686349 -0.21437618 -0.50358623
-0.6923882 -1.0622255 -0.44923037 -0.5116624 -0.8317596 -0.23028839 -0.3942364 -0.29752147
0.1088531 -0.5648095 -0.7959763 -0.9325827 -0.8208876 -0.50672686 -1.4223107 -0.046809256
00000000: 3f50 21bf dce4 5fbf 2c4d 0dbf 5f7a 69be
00000010: 7f78 d1be a011 31be dc7f adbd dda2 88be
00000020: cae9 b0be 1848 b1be 3f5a f7be 05a0 0fbf
00000030: 19b2 cabe ff53 16bf 7960 aabe 5232 d5bd
00000040: d889 083f 7069 9fbe 1db7 23bd 6a3a 64bf
00000050: 8c3d cdbe 3d89 edbe 003a 55bf 85f7 48bf
00000060: a14b 3fbf 218d 47bf ef20 b7be 1b1b 49bf
00000070: 4ebd 20bf 3a70 f3bd 662c 0dbf 1615 22be
00000080: 50ea 79bd 0b0b aebe dcec 8fbe ae81 e7bd
00000090: 4f5c 0dbf 927e 0ebe 2430 8bbe b60f b8be
000000a0: 3aac 3ebb f6ff 52bf 410e 043c ac46 c4be
000000b0: df6a 69be ba73 39bf ca61 9cbd 6852 94bf
000000c0: 5692 18be 65de 75bf 5578 21bf 1802 aabe
000000d0: b12d 48be 564a 32bd 69e0 8ebf f208 e9be
000000e0: f644 6dbf 0249 6cbf 7baa ebbe 81ff 2cbf
000000f0: 7bac d7bd 9769 8abf 562a a2be ae04 eebc
00000100: 41bc 0cbf d84d 353e 25ab 90bf cd16 1bbf
00000110: 3ec9 46bf 547a 30bf a07c 13bf f093 63bf
00000120: ca6e 9cbf 80f4 30bf 310b 33be 744a a4bf
00000130: 25fb efbe 68d7 60be 4a3c b13d f956 efbe
00000140: 153b 86bf 9644 13bf 5973 34be 9571 20bf
00000150: 9e16 66bf ee6a 3fbf 6e8f 00bf 8a5e 493e
00000160: 974f 833e 68fe d7be 6833 67bf 709b f7be
00000170: f545 20bf 46ea 39bf d37b fdbe 671f 24bf
00000180: f375 5dbf 1bba c03e e21a 5ebe ffcf 71bf
00000190: cc52 ccbd de28 e9be 53c3 a8be a208 d6be
000001a0: 4f46 42bf 3178 95bd 8852 a6be 4018 26be
000001b0: c784 4abf 6263 16be 6e85 5bbe 07eb 00bf
000001c0: 5a40 31bf 01f7 87bf 8601 e6be 4ffc 02bf
000001d0: 32ee 54bf b8d0 6bbe 5ad9 c9be bc54 98be
000001e0: 60ee de3d 5b97 10bf 1ac5 4bbf bdbd 6ebf
000001f0: b125 52bf dab8 01bf 470e b6bf 10bb 3fbd

network_body._body_endoder.seq_layers.2.weight f4 [128, 128]
-0.08448245 0.3989564 -0.21585913 0.10772791 -0.5403417 -0.098651975 -0.09748995 -0.06667898
0.39307308 -0.041382138 -0.30312335 0.07557272 -0.07179942 0.4778982 0.06225824 0.20120914
0.010587566 0.121819 -0.74977833 -0.064581156 0.25506642 0.039998032 0.12523714 0.1900603
-0.5082373 -0.0484865 -0.17482598 -0.17316113 -0.06922296 0.25600287 -0.059443217 0.4253261
0.21337557 0.33041465 -0.17713222 -0.036551792 0.11227425 -0.21090911 0.3155762 0.03467049
-0.07518622 -0.4197021 -0.31078342 -0.0035321729 -0.71915555 -0.7162312 -0.026828544 0.23371069
-0.082156226 -0.11298759 -0.17279617 -0.77162385 -0.1665728 -0.5694095 -0.010682786 0.14875561
0.10107846 0.06231269 -0.11855951 0.24193382 0.10717896 -0.0718102 0.10803913 0.17482835
-0.19948146 -0.16524808 0.3556765 -0.035205547 0.058878537 0.35212904 -0.071513146 -0.39171392
0.4131144 -0.19239669 -0.46272138 0.4388874 0.0027428502 0.1329219 0.17525835 0.015566407
-0.5248478 0.27491438 -0.03937807 -0.07878478 -0.24643368 -0.27378103 0.17690012 0.022987679
0.033321157 -0.3255992 0.016165987 0.002285713 -0.6245544 0.08952929 0.49453285 0.14241646
0.10723972 -0.08184611 0.21254666 0.21661763 -0.004728831 0.07742163 -0.21661556 0.164574
-0.0017324509 -0.24700792 -0.10446146 -0.28442454 -0.21565571 0.20539168 0.37339208 -0.081581846
-0.10476462 0.10053209 0.1724907 -0.6923396 -0.105057456 0.17162892 -0.053444203 -0.10822846
-0.1844155 -0.25994983 -0.01813302 -0.28583398 0.031609446 0.3153754 0.20370999 -0.15217137
0.06267779 -0.048958372 0.07060567 -0.13766426 -0.28317237 -0.37133574 -0.09678575 -0.074072435
0.12168027 0.1332175 0.003407541 -0.07304821 -0.54347503 0.033868935 0.2888952 0.19859967
0.40625948 0.025257824 -0.8956353 -0.22652103 0.06564571 0.057549667 0.37309855 0.14791238
-0.1511553 0.2026561 0.12690614 -0.019073684 6.007785e-05 -0.28918624 -0.052819338 -0.05842051
0.2655432 -0.18898085 0.08002338 -0.07184987 0.29684615 0.114708155 0.12686345 -0.07241934
0.07376113 -0.0904999 0.14903903 0.0050860927 0.054115728 -0.17999431 -0.47847512 -0.120496705
0.34016168 0.21621843 0.24145259 0.0680848 -0.008790115 0.44262442 -0.21009691 -0.17115252
-0.025935272 0.0055327234 -0.1393615 0.5903368 0.08701954 -0.14387931 -0.070054024 -0.09644686
-0.23367904 0.15215908 -0.093312554 0.0037210938 -0.19583519 0.053327702 -0.11114482 -0.28388807
0.015425719 0.20076597 -0.0512397 -5.19964e-05 0.12080105 -0.061996415 -0.24020518 0.27873158
0.19264324 0.20495239 -0.020736752 -0.017195266 0.102922656 -0.15190354 -0.42504373 0.123805344
0.395807 -0.34317243 0.1962535 0.059948653 0.0295766 0.21762434 -0.22231722 0.50782746
0.2829988 0.111410044 0.17573465 -0.42188698 0.12566848 -0.16979234 -0.025165023 0.18956497
0.15363604 0.43182468 -0.29041982 -0.042607762 -0.32396644 -0.1608624 -0.04290674 -0.46527952
0.1045077 0.24263823 -0.19885486 -0.006548637 -0.15567426 0.26996517 -0.03689836 -0.29722854
0.07203249 -1.4654579 -0.06590092 0.036310587 -0.43964338 0.15027028 0.07577343 0.13484974
00000000: 2205 adbd 0344 cc3e 2d0a 5dbe 73a0 dc3d
00000010: d553 0abf 0c0a cabd d0a8 c7bd fd8e 88bd
00000020: e040 c93e 5180 29bd fc32 9bbe dfc5 9a3d
00000030: 930b 93bd 13af f43e 7f02 7f3d c509 4e3e
00000040: 7877 2d3c 3d7c f93d 79f1 3fbf 2043 84bd
00000050: 1198 823e fad4 233d 2a3e 003e 2b9f 423e
00000060: d71b 02bf c899 46bd 9505 33be 2751 31be
00000070: c4c4 8dbd cf12 833e bb7a 73bd 58c4 d93e
00000080: 207f 5a3e 1c2c a93e 2662 35be 55b7 15bd
00000090: 0bf0 e53d 8ff8 57be 3493 a13e a502 0e3d
000000a0: 3cfb 99bd 32e3 d6be 011f 9fbe 077c 67bb
000000b0: 941a 38bf ee5a 37bf 89c7 dbbc db51 6f3e
000000c0: 8641 a8bd 0a66 e7bd 7bf1 30be 2489 45bf
000000d0: 0f92 2abe d2c4 11bf da06 2fbc 6453 183e
000000e0: 3902 cf3d 973b 7f3d 54cf f2bd 80bd 773e
000000f0: a580 db3d 3a11 93bd 9f43 dd3d 3406 333e
00000100: de44 4cbe cb36 29be 3b1b b63e b133 10bd
00000110: 9f2a 713d 424a b43e 7c75 92bd ba8e c8be
00000120: bb83 d33e a303 45be d1e9 ecbe d9b5 e03e
00000130: 64c1 333b ae1c 083e ed76 333e 3e0a 7f3c
00000140: 6d5c 06bf 94c1 8c3e e64a 21bd ea59 a1bd
00000150: 1c59 7cbe 072d 8cbe 4e25 353e a850 bc3c
00000160: c47b 083d f0b4 a6be 886e 843c e7cb 153b
00000170: cce2 1fbf 225b b73d 6933 fd3e 9fd5 113e
00000180: 80a0 db3d ef9e a7bd d5a5 593e 03d1 5d3e
00000190: 4ff4 9abb 3b8f 9e3d 78d0 5dbe 1686 283e
000001a0: 6813 e3ba a5ef 7cbe e4ef d5bd 18a0 91be
000001b0: dad4 5cbe 3252 523e 3f2d bf3e 6214 a7bd
000001c0: d58e d6bd c5e3 cd3d 67a1 303e 2b3d 31bf
000001d0: 5d28 d7bd 7ebf 2f3e 4fe8 5abd e2a6 ddbd
000001e0: 6bd7 3cbe 2518 85be b38b 94bc d558 92be
000001f0: e878 013d e278 a13e 5a99 503e d0d2 1bbe
00000200: 375d 803d 9388 48bd b599 903d dcf7 0cbe
00000210: f8fb 90be b81f bebe 9b37 c6bd 4ab3 97bd
00000220: 8133 f93d 2b6a 083e 0d51 5f3b 4d9a 95bd
00000230: 2e21 0bbf 27ba 0a3d 12ea 933e b65d 4b3e
00000240: 3e01 d03e 7fe9 ce3c 5b48 65bf 21f5 67be
00000250: 4271 863d 33b9 6b3d c606 bf3e 5876 173e
00000260: 74c8 1abe 1585 4f3e aff3 013e 6a40 9cbc
00000270: 1afc 7b38 3810 94be 1759 58bd 584a 6fbd
00000280: 47f5 873e 3284 41be 4ce3 a33d 0626 93bd
00000290: 38fc 973e 1cec ea3d 7ee8 013e 9750 94bd
000002a0: 1310 973d 0358 b9bd b09d 183e 3da9 a63b
000002b0: 74a8 5d3d 6e50 38be b1fa f4be fac6 f6bd
000002c0: ac29 ae3e 5d68 5d3e 593f 773e 0b70 8b3d
000002d0: 6a04 10bc ab9f e23e a523 57be 9b42 2fbe
000002e0: 3576 d4bc d94b b53b c8b4 0ebe 5020 173f
000002f0: 4d37 b23d 1955 13be 7c78 8fbd ee85 c5bd
00000300: 8f49 6fbe 97cf 1b3e a71a bfbd 98dd 733b
00000310: 0589 48be 266e 5a3d e59f e3bd c759 91be
00000320: 28bc 7c3c 9895 4d3e b8e0 51bd b616 5ab8
00000330: 8a66 f73d f4ef 7dbd 59f8 75be e8b5 8e3e
00000340: 4544 453e 0adf 513e 1fe0 a9bc 16dd 8cbc
00000350: 1dc9 d23d 9a8c 1bbe 559f d9be a88d fd3d
00000360: 37a7 ca3e 4cb4 afbe adf6 483e b88c 753d
00000370: a04a f23c ead8 5e3e 20a7 63be fb00 023f
00000380: 38e5 903e f32a e43d c9f3 333e 9201 d8be
00000390: 3daf 003e 0bde 2dbe e126 cebc 521d 423e
000003a0: c452 1d3e 2018 dd3e e8b1 94be 7a85 2ebd
000003b0: eede a5be 1db9 24be fabe 2fbd 1e39 eebe
000003c0: 2208 d63d 2876 783e 9ca0 4bbe f395 d6bb
000003d0: 1369 1fbe e038 8a3e bc22 17bd 572e 98be
000003e0: c585 933d 2094 bbbf 10f7 86bd 69ba 143d
000003f0: f018 e1be 74e0 193e 1a2f 9b3d 0d16 0a3e

network_body._body_endoder.seq_layers.4.bias f4 [128]
-1.1365745 -0.70131 -0.14609554 -0.5178571 -0.048199452 -0.27546194 -0.20642784 -0.27821302
-0.99199945 -0.058060266 -0.09174858 -0.19501781 -0.27257857 0.17683859 -0.6363975 -0.65346444
-0.371777 -0.35159925 -0.6207513 -0.38870642 -0.44029337 0.07449336 -0.029334623 -0.54744846
-0.19265297 -0.60118955 -0.89152277 -0.4249185 0.05170725 -0.9085389 -0.41812497 -0.87301564
-0.16474606 -0.52132875 -0.76120234 -0.7014158 -0.70292485 -0.5174534 -0.5726011 -0.53470707
-0.46970162 -0.51627517 -0.035206087 -0.41705856 -0.6422727 -1.1673383 -0.6758258 -0.40312216
-0.517249 -0.6391374 -0.72067225 -0.2922273 -0.5148751 -0.03202217 -0.1477412 -0.28339335
-0.08217855 -0.4772371 -0.4806851 -0.45323277 -0.8971348 -0.041427784 -0.95712423 -0.25939578
-0.73968124 -0.3804072 -0.88072705 -0.8561174 -0.21741498 -0.10841543 -0.9128386 -0.8224696
-0.022444753 -0.40495497 -0.33819467 -0.43776292 -0.061143547 -0.8172754 -0.8730397 0.15680811
-0.1695381 -0.743003 -0.7805679 -0.4708668 -0.3255331 -0.37287632 -0.5511555 -0.6536019
-0.6783408 -0.60956264 -0.6017286 -0.28209788 -0.7770586 -0.17098598 -0.28678134 -0.528564
-0.18125807 -0.041087978 -0.35615677 -0.6451567 -0.5619464 -0.0076241745 -0.8891346 -1.1150721
-0.2769673 -0.50913906 -0.26377943 -0.5658633 -0.78776556 -0.44423983 -0.03886064 -0.49120682
-0.20739384 -0.06818219 -0.7328438 -0.6340545 -0.3897058 -0.50206685 -0.21782315 -0.38969386
-0.59596944 -0.8367454 -0.53337485 -0.34897658 -0.44690907 -0.41186142 -0.17173792 -0.35073093
00000000: 467b 91bf 0d89 33bf 129a 15be 4892 04bf
00000010: ca6c 45bd 5909 8dbe d261 53be f071 8ebe
00000020: adf3 7dbf 9ad0 6dbd aee6 bbbd c0b2 47be
00000030: 6b8f 8bbe 2d15 353e f2ea 22bf 7249 27bf
00000040: 8e59 bebe d104 b4be 8fe9 1ebf 8704 c7be
00000050: 226e e1be fa8f 983d 2a4f f0bc 9525 0cbf
00000060: d246 45be 8fe7 19bf d63a 64bf eb8e d9be
00000070: fbca 533d 0196 68bf 7a14 d6be f47d 5fbf
00000080: 31b3 28be cd75 05bf 28de 42bf fc8f 33bf
00000090: e2f2 33bf d377 04bf fc95 12bf 90e2 08bf
000000a0: bb7c f0be 9c2a 04bf 4234 10bd b388 d5be
000000b0: fc6b 24bf 576b 95bf eb02 2dbf 0766 cebe
000000c0: 6e6a 04bf 829e 23bf fa7d 38bf d19e 95be
000000d0: dbce 03bf ae29 03bd 7849 17be ef18 91be
000000e0: 3a4d a8bd 6c58 f4be 5c1c f6be 200e e8be
000000f0: a0aa 65bf 2eb0 29bd 1806 75bf 86cf 84be
00000100: c05b 3dbf bcc4 c2be 5477 61bf 832a 5bbf
00000110: 08a2 5ebe e908 debd caaf 69bf 5e8d 52bf
00000120: 0fde b7bc 4256 cfbe da27 adbe 7622 e0be
00000130: a871 7abd f638 51bf 887f 5fbf 4e92 203e
00000140: 659b 2dbe 7235 3ebf 4cd3 47bf 7415 f1be
00000150: 46ac a6be a5e9 bebe 8718 0dbf 7452 27bf
00000160: bea7 2dbf 4c0c 1cbf e30a 1abf 226f 90be
00000170: 50ed 46bf f316 2fbe 01d5 92be f84f 07bf
00000180: b79b 39be de4b 28bd 2e5a b6be fd28 25bf
00000190: b8db 0fbf 36d4 f9bb 539e 63bf afba 8ebf
000001a0: a8ce 8dbe f056 02bf 190e 87be 6bdc 10bf
000001b0: 01ab 49bf 6773 e3be 562c 1fbd 767f fbbe
000001c0: 0d5f 54be 1ba3 8bbd a79b 3bbf 6551 22bf
000001d0: 8587 c7be 7487 00bf 080d 5fbe f485 c7be
000001e0: 7491 18bf f234 56bf 418b 08bf 0fad b2be
000001f0: 44d1 e4be 80df d2be 11dc 2fbe 0193 b3be

network_body._body_endoder.seq_layers.4.weight f4 [128, 128]
0.32598647 0.3971495 0.25508693 0.26268 0.5223831 0.080371514 0.58020014 0.20990382
0.2100056 0.08464215 -0.44303384 0.6925759 0.5441591 0.10278971 0.5535728 0.12521994
-0.71679837 0.16010348 -0.09248026 0.34359336 0.55259526 0.13830815 0.2929818 0.10269719
0.59904695 0.5028122 0.71241486 0.5592696 1.0217868 0.2977765 0.32865527 0.12949307
0.156678 0.47790447 -0.23643701 -0.062691376 0.33352318 -0.4136437 0.2900011 0.43475798
0.27279547 0.15961394 0.16567522 0.06511459 1.0588318 0.206123 0.9294243 0.40522516
-0.6753507 0.21924534 0.13549626 0.2559536 0.6679325 0.36301675 0.51038665 0.63942647
0.24413247 0.5709844 0.13283046 0.6380886 -0.40429908 0.27597967 0.44401214 0.2994768
0.578979 0.058324385 0.51743144 0.62034523 0.22407408 0.38477573 0.12333469 0.633061
0.43303606 0.47832438 0.21465664 0.30576158 0.047530185 0.073867805 0.20450228 0.3004913
0.48155886 -0.16512826 -0.6198379 1.1572943 0.27501458 0.4272544 1.0521425 0.3649169
-0.704461 -0.11884088 0.14565457 0.7207397 0.88839155 -0.046506282 1.0630553 0.22613494
0.3934849 0.029007206 0.1221398 0.39331344 -0.3602789 0.17441477 -0.031739652 0.14501311
0.59404093 -0.65791345 1.02657 -0.10623327 0.22870041 -0.04676849 -0.15973987 0.5300207
0.35078558 0.30837554 -0.67405397 0.78974366 0.07348368 0.20529565 0.52679837 -0.09759786
0.021733666 -0.18695714 0.43365183 0.28969762 -0.28202683 0.1208982 0.22666958 0.43319455
0.024826644 0.5816674 0.40783918 -0.20509744 0.33706123 0.3400337 0.299144 -0.0113936085
0.19581553 -0.32925782 0.2431547 0.61980575 0.9831858 0.14891571 0.23976398 0.16724904
-0.5072175 0.21524526 -1.2402326 0.26566535 0.23376513 0.08348876 -0.06645277 -0.30064297
0.7925294 0.68296826 0.1620827 0.031797044 0.8279066 -0.002717175 0.12633365 0.42067492
-0.0706344 0.2730203 0.42410523 -0.14023636 -0.2974703 -0.45410967 0.17025869 0.46898326
0.11365226 0.20525801 -0.8015823 0.10392549 0.8802793 0.4205483 0.1417355 0.6196108
0.1234644 0.43491292 0.46722358 0.312811 0.71709347 0.021987163 0.44599748 0.3523041
0.5851801 0.9239931 -0.0022464935 -0.10370637 -0.006780396 0.48509496 0.22643775 0.0338814
0.66296893 -0.091238916 0.5004853 0.62292993 -0.06139407 0.45499077 0.14455725 0.3730908
0.3640646 0.29562846 -0.16929224 0.82422155 0.25289926 -0.3361989 -0.15917142 0.7496869
0.7102656 0.9229179 -0.061702315 0.22259368 0.6613335 0.49058717 0.44262508 -0.31587288
-0.23657514 0.11949814 0.56280696 0.5345978 0.63438505 0.24862723 0.37280282 0.18759681
0.27215168 -0.9036578 0.6244684 0.41909254 -0.009398254 0.4612841 0.23910816 0.48100856
0.5652635 -0.81027627 0.28252983 -0.15869465 0.4791569 -0.20496035 -0.18845648 0.3618523
0.25354272 0.42171475 -0.23710835 0.057001103 0.63328165 0.30935955 0.29070213 0.1078609
-0.37134716 -0.082095 0.7799132 0.26546532 0.08801902 0.5114565 0.325882 -0.11753079
00000000: b3e7 a63e 2e57 cb3e c19a 823e fe7d 863e
00000010: e6ba 053f d299 a43d ff87 143f 07f1 563e
00000020: b50b 573e dd58 ad3d 55d5 e2be a74c 313f
00000030: 034e 0b3f 6983 d23d f2b6 0d3f a839 003e
00000040: 1980 37bf 2bf2 233e 4a66 bdbd 78eb af3e
00000050: e276 0d3f a7a0 0d3e b601 963e e852 d23d
00000060: 245b 193f 4db8 003f d260 363f 4b2c 0f3f
00000070: e9c9 823f 2976 983e 8145 a83e d599 043e
00000080: 3370 203e e5af f43e 8b1c 72be 5664 80bd
00000090: 8dc3 aa3e 1bc9 d3be 067b 943e 9998 de3e
000000a0: d9ab 8b3e d671 233e c4a6 293e cc5a 853d
000000b0: cd87 873f e811 533e c0ee 6d3f ac79 cf3e
000000c0: c9e3 2cbf da81 603e 88bf 0a3e 5a0c 833e
000000d0: a0fd 2a3f 55dd b93e b3a8 023f 74b1 233f
000000e0: ddfd 793e 092c 123f b504 083e c659 233f
000000f0: 4a00 cfbe 354d 8d3e 8f55 e33e 0655 993e
00000100: f837 143f 8de5 6e3d 6376 043f f2ce 1e3f
00000110: ad73 653e 5301 c53e e696 fc3d 4910 223f
00000120: e7b6 dd3e efe6 f43e f3ce 5b3e c88c 9c3e
00000130: 03af 423d 0148 973d 0c69 513e ffd9 993e
00000140: e28e f63e 6217 29be b2ad 1ebf 3822 943f
00000150: b6ce 8c3e 17c1 da3e 9bac 863f 63d6 ba3e
00000160: 8e57 34bf d962 f3bd 7926 153e 6682 383f
00000170: a16d 633f 5f7d 3ebd 3212 883f eb8f 673e
00000180: da76 c93e 85a0 ed3c 6e24 fa3d 6160 c93e
00000190: 7a76 b8be c999 323e 7001 02bd 517e 143e
000001a0: 1113 183f 046d 28bf a566 833f d490 d9bd
000001b0: 7130 6a3e 5190 3fbd d992 23be 70af 073f
000001c0: 2b9a b33e 66e3 9d3e cd8e 2cbf a42c 4a3f
000001d0: 9d7e 963d 0639 523e 42dc 063f 63e1 c7bd
000001e0: cd0a b23c b171 3fbe 9d07 de3e 3f53 943e
000001f0: d265 90be 7a99 f73d 121c 683e adcb dd3e
00000200: 3f61 cb3c 28e8 143f 4cd0 d03e 1005 52be
00000210: 4a93 ac3e e618 ae3e 6729 993e 42ac 3abc
00000220: de83 483e 7b94 a8be 8cfd 783e 97ab 1e3f
00000230: 11b2 7b3f 5c7d 183e b084 753e 5543 2b3e
00000240: 02d9 01bf 4169 5c3e f1bf 9ebf 4a05 883e
00000250: 2060 6f3e 28fc aa3d 6418 88bd e0ed 99be
00000260: 35e3 4a3f 02d7 2e3f 02f9 253e 9e3d 023d
00000270: b0f1 533f a212 32bb 9c5d 013e b462 d73e
00000280: c5a8 90bd 51c9 8b3e 5224 d93e 1f9a 0fbe
00000290: 074e 98be 1081 e8be 4b58 2e3e 931e f03e
000002a0: 84c2 e83d 282f 523e 7f34 4dbf e3d6 d43d
000002b0: fc59 613f 1b52 d73e 1c23 113e d09e 1e3f
000002c0: e7da fc3d e8ac de3e ee37 ef3e c328 a03e
000002d0: 7093 373f 6c1e b43c c859 e43e 3461 b43e
000002e0: 5dce 153f d08a 6c3f e839 13bb 0164 d4bd
000002f0: 162e debb 5e5e f83e 4cdf 673e 39c7 0a3d
00000300: 55b8 293f 78db babd ce1f 003f 5678 1f3f
00000310: 5978 7bbd 8df4 e83e d106 143e c205 bf3e
00000320: ad66 ba3e 9d5c 973e f25a 2dbe 2f00 533f
00000330: 037c 813e 4322 acbe d5fd 22be 7beb 3f3f
00000340: f7d3 353f 5944 6c3f 91bb 7cbd 99ef 633e
00000350: 274d 293f 3e2e fb3e c19f e23e 17ba a1be
00000360: c140 72be 71bb f43d 1e14 103f 67db 083f
00000370: 0f67 223f 2398 7e3e 03e0 be3e 6119 403e
00000380: 7757 8b3e 1e56 67bf 29dd 1f3f 4c93 d63e
00000390: 22fb 19bc 6e2d ec3e c5d8 743e c146 f63e
000003a0: 1cb5 103f 446e 4fbf c0a7 903e da80 22be
000003b0: 0e54 f53e 20e1 51be bcfa 40be b444 b93e
000003c0: 5ad0 813e ffea d73e 88cc 72be fd79 693d
000003d0: bf1e 223f 6064 9e3e e9d6 943e 2de6 dc3d
000003e0: 3721 bebe 6c21 a8bd 64a8 473f 12eb 873e
000003f0: 5143 b43d d0ee 023f 01da a63e fcb3 f0bd
