results/Barcelona_Imitation/MoveSomewhere/MoveSomewhere-431657.onnx (onnx, 156274 bytes, 11 tensors)

action_model._discrete_distribution.branches.0.bias f4 [3]
0	0xba8375c6	-0.0010029606
1	0x3d2953c5	0.041339654
2	0xbd619cb0	-0.05508107

action_model._discrete_distribution.branches.0.weight f4 [3, 128]
0	0xbbd52493	-0.006504604
1	0xbcc18c05	-0.023626337
2	0xbb5e2501	-0.0033896568
3	0x3cdb9fde	0.026809629
4	0xbb79c401	-0.0038111212
5	0xbb32e52c	-0.0027297242
6	0x3c391041	0.011295379
7	0x3c8cc06e	0.017181601
8	0xbc815422	-0.015787188
9	0x3c8caea4	0.017173119
10	0x3cf97448	0.030450955
11	0x3a8cd268	0.0010743858
12	0xbd21fc8d	-0.03954749
13	0xbc4363f7	-0.011925689
14	0x3d29f75a	0.04149566
15	0x3b42e428	0.0029738043
16	0xbc9513d9	-0.01819794
17	0xbd61c20c	-0.0551167
18	0xbd4bb5cd	-0.049733926
19	0xbb1aec82	-0.0023639505
20	0x3aa93598	0.0012909649
21	0xbcc38134	-0.02386532
22	0x3c2c7ddc	0.010528054
23	0xbc6cc66a	-0.0144516025
24	0x3d029afe	0.031886093
25	0x3cadfc25	0.021238396
26	0x3c98028d	0.018555904
27	0x3cd63468	0.026148036
28	0x3c9ddbb2	0.019269798
29	0x3c31ca5e	0.010851471
30	0x3db47e54	0.08813158
31	0xbc214523	-0.009843144
32	0xba828d4d	-0.0009960324
33	0xbcc143b5	-0.023591856
34	0xbb921097	-0.004457544
35	0x3beae2ee	0.0071681654
36	0x3d847125	0.06466893
37	0x3be3f645	0.006956848
38	0x3c5e598f	0.013571157
39	0x3d19169e	0.037375085
40	0xbd0683eb	-0.03284065
41	0x3b973917	0.00461496
42	0x3cc12b83	0.023580318
43	0x3cc6c2a8	0.024262741
44	0x3aa8891f	0.0012858248
45	0xbd3b5d10	-0.04574305
46	0x3c348ee5	0.011020397
47	0x3d184270	0.037172735
48	0xba1ae7a9	-0.0005909154
49	0x3c96eed9	0.018424438
50	0xbc3f9b4b	-0.01169474
51	0x3d1f1049	0.03883389
52	0x3cbe475e	0.02322739
53	0x3d43e10d	0.047822047
54	0x3bc19643	0.005907805
55	0xbb8d613c	-0.0043145698
56	0x3c76757e	0.015042661
57	0x3c5f47a3	0.013627919
58	0x3d431929	0.047631416
59	0x3d0dbcd7	0.03460392
60	0x3c8150e0	0.015785635
61	0xbd276436	-0.040867053
62	0x3c240ea9	0.010013261
63	0x3c95eae7	0.018300487
64	0xbca1dbe1	-0.019758167
65	0xbdb2abe0	-0.08724189
66	0x3cd05f58	0.025436088
67	0x3caeed7d	0.021353478
68	0xbd35173c	-0.04421161
69	0x3d6b18ac	0.057396576
70	0x3d72378f	0.059135016
71	0xbbfad866	-0.0076551912
72	0x3d5c38fe	0.05376529
73	0xbd92bc33	-0.071648024
74	0xbd071cdf	-0.032986518
75	0x3c89e93e	0.016834851
76	0xbc216e2c	-0.009852927
77	0x3d3f1bcb	0.046657365
78	0x3d02858a	0.031865634
79	0x3c849543	0.016184455
80	0x3ccf29e1	0.025288524
81	0x3c6ae041	0.014335693
82	0xbbff62cd	-0.0077937604
83	0xb9907aef	-0.00027557413
84	0x3cb62a13	0.02223686
85	0x3bd57d7a	0.006515202
86	0x3ce520b8	0.027969703
87	0x3dab917f	0.083773606
88	0x3c1b2e03	0.009471419
89	0xb91d4661	-0.00014998905
90	0x3b0ece85	0.0021790576
91	0x3a92b929	0.0011194098
92	0x3bd95fa9	0.006633718
93	0x3d1a84f1	0.03772444
94	0x3b8159eb	0.0039474866
95	0x3c520a20	0.012819797
96	0xb85cb548	-5.262092e-05
97	0x3c14c315	0.009079714
98	0xbbed5067	-0.0072422507
99	0x3c8ac1b4	0.016938068
100	0x3d30d099	0.043167684
101	0x3d5b0529	0.053471718
102	0x3ccf4edd	0.02530616
103	0x3d1189ef	0.035531934
104	0xbd539705	-0.051657695
105	0x3c3e57db	0.011617626
106	0xbc6adf80	-0.014335513
107	0x3beab00b	0.0071620992
108	0x3ca36ba8	0.019948795
109	0x3ce72042	0.028213624
110	0x3c5efef4	0.01361059
111	0x3c048a36	0.008089593
112	0xbc79c553	-0.0152448
113	0x3bc87378	0.0061172806
114	0x3ca10422	0.019655291
115	0x3c560f88	0.013065226
116	0xbb27945d	-0.002557061
117	0xb7583526	-1.2886978e-05
118	0x3c5bc982	0.013414742
119	0xbc2881fd	-0.010284898
120	0xbc0f8154	-0.008758862
121	0xba8ea1f8	-0.0010882011
122	0x3cb268f7	0.021778567
123	0xbc888638	-0.016665563
124	0x3cc398a0	0.023876488
125	0xba01aa76	-0.000494636
126	0x3c705def	0.014670833
127	0x3bcc54f4	0.006235713
128	0xbcb8b25d	-0.022545988
129	0x3ccddcd8	0.02512972
130	0xbcab42cb	-0.020905873
131	0xbde7e51b	-0.11322995
132	0x3d0142d3	0.03155787
133	0xbc63e24e	-0.013908936
134	0xbcd6bb9e	-0.02621251
135	0xbd540278	-0.051760167
136	0xbce4a3d8	-0.027910158
137	0xbc2d3d67	-0.0105737215
138	0xbb0b0d4f	-0.002121765
139	0xbc3abd55	-0.011397679
140	0x3d0db0e2	0.034592517
141	0x3ddb6115	0.10711876
142	0xbd632aa2	-0.05546058
143	0x3ca95fd0	0.02067557
144	0xbb55b4d4	-0.0032609003
145	0x3d2e815a	0.042603828
146	0xbd8b5b6e	-0.06804548
147	0xbcc3385d	-0.023830587
148	0x3ce818e7	0.028332187
149	0xbc75b078	-0.014995687
150	0xbbe14e37	-0.006875779
151	0xbcbc5297	-0.0229886
152	0xbd68c53f	-0.056828734
153	0xbcaa0bae	-0.020757522
154	0xbd4d1ebb	-0.050078135
155	0xbc456472	-0.012047874
156	0xbd4644cd	-0.048405457
157	0xbb1ea390	-0.0024206378
158	0xbcee29c2	-0.029072646
159	0xbaae4c3a	-0.0013297864
160	0x3c215306	0.0098464545
161	0xbccfe5e4	-0.025378175
162	0xbc988cc8	-0.018621817
163	0xbcb6f38c	-0.02233293
164	0xbc167579	-0.009183281
165	0xbd0ee4ee	-0.034886293
166	0x3c0a2a09	0.0084328735
167	0x3c32e4ad	0.010918778
168	0xbb992d44	-0.0046745855
169	0xbcd098e7	-0.025463535
170	0xbb892064	-0.0041847695
171	0xbd4a73ac	-0.04942672
172	0xbd72ddb0	-0.05929345
173	0x3ce45b4a	0.027875561
174	0xbd426fa4	-0.04746975
175	0xbd4d7549	-0.05016068
176	0xbd5c2d11	-0.053753916
177	0xbc1823d8	-0.00928589
178	0x3b25d914	0.002530639
179	0xbd09541a	-0.03352747
180	0xb947a43d	-0.00019039302
181	0x3c21e1a9	0.009880462
182	0xbcbf6a03	-0.02336598
183	0xbcc8b706	-0.024501335
184	0xbd83b2ad	-0.06430564
185	0xbcc7fe95	-0.024413386
186	0xbd2ca7fb	-0.042152386
187	0xbc816520	-0.01579529
188	0xbd109fd7	-0.035308685
189	0x3c3b6c49	0.011439391
190	0x3b847fb4	0.0040435437
191	0xbccab1ec	-0.024743043
192	0x3b57087a	0.003281145
193	0x3d6443e1	0.055728797
194	0xbcd91b42	-0.026502255
195	0xba3c8663	-0.0007191656
196	0x3d1be059	0.03805575
197	0xbcbef9ad	-0.023312414
198	0xbd1f615b	-0.038911205
199	0x3c7a2382	0.015267255
200	0xbd7b2eca	-0.06132392
201	0x3ab8123e	0.0014043523
202	0x3e043581	0.12911035
203	0xbd20a90d	-0.03922372
204	0xbb8de9af	-0.004330836
205	0xbce37858	-0.027767345
206	0xbc9ea144	-0.019364007
207	0xbc737c6e	-0.014861209
208	0xbc85751c	-0.016291194
209	0xbc2fb9c5	-0.010725443
210	0xbd1ef95c	-0.038812026
211	0x3d6376e1	0.055533294
212	0xbcc4e1c4	-0.024033435
213	0x3c98dd95	0.018660346
214	0xbc163c9e	-0.009169726
215	0xbd2943d0	-0.041324437
216	0xbc98a46f	-0.018633096
217	0xbd203bd9	-0.039119575
218	0xbb0e8015	-0.0021743823
219	0xbc05daa0	-0.0081698
220	0xbd150fa2	-0.03639186
221	0x3c3899ae	0.011267109
222	0xbcec108a	-0.02881648
223	0xbd4159ee	-0.047204904
224	0xbc5bcf8f	-0.013416185
225	0xbb4edcd2	-0.0031564725
226	0x3c25d180	0.0101207495
227	0x3c975d84	0.018477209
228	0xbd3dd545	-0.046345968
229	0xbcd2f05c	-0.025749378
230	0xbc90cd17	-0.01767592
231	0xb98b8ac5	-0.00026615537
232	0x3b6bd72a	0.0035986402
233	0xbce766ed	-0.028247321
234	0x3d247473	0.040150117
235	0xbc867ed3	-0.016417896
236	0xbd2865c8	-0.04111269
237	0xbd2ff3b7	-0.042957034
238	0xbccc1cd1	-0.024916084
239	0xbcbce8b4	-0.02306018
240	0xbcd04f6d	-0.025428498
241	0x3abe87cc	0.001453632
242	0xbbb12146	-0.005405578
243	0xbccb9258	-0.024850056
244	0x3cb1a72c	0.02168616
245	0xbbdea225	-0.0067942315
246	0xbd1245d0	-0.03571111
247	0xbc7cdfc1	-0.015434206
248	0xbc703846	-0.014661854
249	0xbc07e325	-0.008293902
250	0xbc49ea85	-0.01232398
251	0x3d1ba7e2	0.038001902
252	0xbbbe60f4	-0.0058098976
253	0xbc183910	-0.0092909485
254	0xbc48fe33	-0.012267637
255	0xbd24e735	-0.04025956

action_model._discrete_distribution.branches.1.bias f4 [3]
0	0xbd38d2b0	-0.045122802
1	0xbc4dbdc7	-0.0125574535
2	0x3d5e08c8	0.054207593

action_model._discrete_distribution.branches.1.weight f4 [3, 128]
0	0x3d0db85b	0.034599643
1	0x3d5d7930	0.05407065
2	0xbd3180cd	-0.043335725
3	0x3cd2dab0	0.025739044
4	0x3d69335a	0.05693374
5	0xbc14a394	-0.009072203
6	0x3dd20be1	0.10256172
7	0x3c3c6804	0.011499409
8	0x3cce8d4e	0.025213864
9	0xbc1f628f	-0.009728088
10	0x3cb5b0f2	0.0221791
11	0x3daa1b77	0.0830602
12	0x3a23be69	0.000624633
13	0x3c927302	0.017877106
14	0x3c988cb3	0.018621778
15	0xbcfe95cb	-0.031077286
16	0x3aa4382d	0.0012528949
17	0x3d4ab44a	0.049488343
18	0x3c3d537b	0.011555548
19	0x3d0f1fc8	0.03494242
20	0x3acbfc2a	0.0015562822
21	0xbb43e5a3	-0.0029891513
22	0x3d4bd111	0.049759928
23	0x3c954fb9	0.018226491
24	0x3d61f1c4	0.055162206
25	0x3b0a5dff	0.0021113155
26	0x3adbe99b	0.0016777994
27	0x3c954f7f	0.018226383
28	0x3bc0e55a	0.005886716
29	0x3d085fbf	0.033294436
30	0x3c9a6a2e	0.018849459
31	0x3c17e61c	0.009271171
32	0xbbc738ff	-0.0060797925
33	0x3b8714e7	0.004122365
34	0xbc59a3d6	-0.01328369
35	0x3d213dd4	0.039365605
36	0x3d7a4dfe	0.061109535
37	0xbd1280d6	-0.0357674
38	0x3bdf2ef2	0.0068110162
39	0x3b36f608	0.0027917642
40	0xbd0ed580	-0.03487158
41	0x3c5418f9	0.012945407
42	0x3d16c85f	0.036812183
43	0x3cd9724b	0.026543757
44	0x3d6db2a6	0.0580317
45	0x3dfa812d	0.122316696
46	0xbcf17b2f	-0.029477684
47	0x3c343e64	0.011001203
48	0x3bcf93fd	0.0063347802
49	0xbae745ec	-0.001764474
50	0x3d86c2b4	0.065801054
51	0x3d81b8a3	0.06334045
52	0x3cb6c6f6	0.022311669
53	0xbc869980	-0.016430616
54	0x3c2a75dc	0.010404076
55	0x3d4b6fea	0.049667276
56	0x3dbec842	0.0931554
57	0x3c715da2	0.014731796
58	0x3c84d844	0.016216405
59	0xbd5dca90	-0.054148257
60	0x3cf1fe2f	0.02954015
61	0x3d88b0c8	0.06674343
62	0x3d7ec216	0.062196814
63	0xbcc9e950	-0.024647385
64	0x3d8d2b0c	0.06892976
65	0x3d2cf991	0.042230193
66	0x3d6f9416	0.058490835
67	0x3b23d238	0.0024997126
68	0x3e2875d8	0.16451204
69	0x3d3e845d	0.04651295
70	0xbd8a1a17	-0.067432575
71	0x3ddd3af6	0.108022615
72	0x3d82b9f2	0.063831225
73	0x3cb7292c	0.0223585
74	0x3d6c1604	0.057638183
75	0xbcc251cd	-0.023720646
76	0x3d8809ec	0.066425174
77	0x3cddba6d	0.027066434
78	0x3c5a0cbc	0.0133087
79	0x3d29dfa0	0.04147303
80	0x3ced9157	0.028999968
81	0xbb4337bc	-0.002978786
82	0x3c4aef98	0.012386225
83	0x3d174b7a	0.036937214
84	0x3d155ee2	0.03646744
85	0x3caed814	0.021343268
86	0x3c076df8	0.008265965
87	0x3dcdcfb6	0.10049383
88	0x3c2195c8	0.009862371
89	0xbd62349f	-0.055225965
90	0x3b5e9ea3	0.0033969067
91	0x3c3faae6	0.01169846
92	0xbcf97444	-0.030450948
93	0x3d8dd106	0.06924634
94	0xbc19f642	-0.009397091
95	0x3d59ef95	0.053207
96	0x3d8e1e32	0.06939353
97	0xbbc99fd2	-0.0061530853
98	0x3cbc4f26	0.02298696
99	0x3c6a5f72	0.0143049825
100	0x3dd8046d	0.10547719
101	0x3d1d75dc	0.038442478
102	0x3b001cc2	0.001954839
103	0xbc48d0f5	-0.0122568505
104	0x3d1b84e9	0.03796855
105	0x3c01ebad	0.007929725
106	0x3cf013fa	0.0293064
107	0x3d21154e	0.03932696
108	0xbd76b207	-0.060228374
109	0x3d4442a0	0.0479151
110	0xbd045117	-0.032303896
111	0xbbb63acc	-0.0055612084
112	0x3ca666c2	0.02031267
113	0x3c8ccf1e	0.017188605
114	0x3daea9fc	0.08528516
115	0x3c452e16	0.0120349135
116	0x3c38e5c8	0.011285253
117	0x3af36c91	0.0018571784
118	0x3b924382	0.004463614
119	0xbcb82d4a	-0.022482533
120	0x3caa25c7	0.020769967
121	0x3abded9c	0.0014490369
122	0x3bf03b12	0.0073312605
123	0x3c71a029	0.014747658
124	0x3d2f1fca	0.042754926
125	0x3d003af3	0.03130622
126	0x3cc67e0e	0.02423003
127	0x3e045c28	0.1292578
128	0xbd3659df	-0.0445193
129	0xbd5122dd	-0.05105864
130	0x3a9596f1	0.0011412782
131	0xbab6cad4	-0.0013945946
132	0xba29c3d7	-0.0006476021
133	0x3c73f4b9	0.014889889
134	0xbdc1fd2a	-0.09472115
135	0xbb474c65	-0.0030410525
136	0xbd8a63a6	-0.06757288
137	0xbcd7d7f6	-0.026348095
138	0xbc48b5e2	-0.0122503955
139	0xbd75a352	-0.059970208
140	0x3c5c22cc	0.013436031
141	0xbcb092e2	-0.021554414
142	0xbcbd2054	-0.023086704
143	0x3d50bd87	0.050961997
144	0x3a3af5e1	0.0007131976
145	0xbd36cc97	-0.044628706
146	0x3d0d12e1	0.034441832
147	0x3bd4e72e	0.0064972853
148	0x3cfc6032	0.030807588
149	0xbb8d5245	-0.004312786
150	0xbda04a08	-0.0782662
151	0x3cb774fe	0.022394653
152	0xbd1e646b	-0.038669985
153	0xbcd4846c	-0.02594205
154	0xbcc24fd1	-0.0237197
155	0xbbdefed2	-0.0068052793
156	0x3ca383d3	0.01996032
157	0xbb917340	-0.0044387877
158	0xbd4d77f0	-0.05016321
159	0x3cd929d3	0.026509201
160	0x3b09025f	0.0020905954
161	0x3bb08259	0.0053866324
162	0xbade81ac	-0.0016975901
163	0x3c12731f	0.00893858
164	0xbdc11e0b	-0.09429558
165	0x3dd705bb	0.1049914
166	0xbb1d2110	-0.0023976006
167	0x3c403dac	0.011733454
168	0xbc9ab14d	-0.018883372
169	0x3d008974	0.031381086
170	0xbcffc888	-0.03122355
171	0x3c3514c4	0.011052314
172	0xbc9c8791	-0.019107612
173	0xbcc11efa	-0.023574341
174	0x3ce3a6bc	0.027789466
175	0xbc117d53	-0.008879977
176	0x3bf90650	0.0075996295
177	0x3c3068e2	0.0107671935
178	0xbd9f6ea7	-0.07784777
179	0xbda5a367	-0.08087807
180	0x3c445d3d	0.01198512
181	0xbcba95d9	-0.022776531
182	0x3c987e24	0.018614836
183	0xbcad20ea	-0.021133859
184	0xbde15791	-0.1100303
185	0x3b24c431	0.0025141353
186	0x3c7d33c7	0.015454239
187	0x3e090a92	0.13382939
188	0x3d1549dd	0.036447395
189	0xbde84040	-0.1134038
190	0xbd3e5bd3	-0.04647429
191	0x3c8e9923	0.017407006
192	0x3ca9ef5b	0.020744016
193	0xbd80ee4c	-0.062954515
194	0x3c903272	0.01760218
195	0xbd0a620e	-0.03378492
196	0xbdb06bfc	-0.086143464
197	0xbd8d1470	-0.06888664
198	0x3cec0281	0.028809788
199	0xbc436740	-0.011926472
200	0x3d2d9e9b	0.042387586
201	0xbd9fad40	-0.07796717
202	0x3ca49052	0.020088349
203	0x3b09e660	0.0021041855
204	0xbbb0d6f6	-0.005396719
205	0xbd22988f	-0.039696272
206	0xbc015bc2	-0.007895412
207	0xbd8a8e39	-0.06765408
208	0x3c0717fe	0.008245466
209	0x3d10b393	0.035327505
210	0x3c97f1f4	0.01854799
211	0x3c76bb0f	0.015059247
212	0xbd33711b	-0.043809038
213	0x3cf115c2	0.02942932
214	0x3c923fe9	0.01785274
215	0xbdeee4a5	-0.11664704
216	0x3bb5076a	0.0055245655
217	0x3d67ad96	0.05656203
218	0x3cb66d3d	0.022268886
219	0xbcb481db	-0.022034576
220	0xbc03c174	-0.008041728
221	0xbd2a79b8	-0.041619986
222	0x3bbfe780	0.0058564544
223	0xbbbffffe	-0.005859374
224	0xbd8067a7	-0.0626977
225	0xbc817d96	-0.015806954
226	0xbcc8eeb8	-0.024527892
227	0xbc585a99	-0.013205194
228	0xbdbc1a64	-0.09184721
229	0xbd4024a6	-0.04690995
230	0x3bc12f17	0.005895506
231	0xbbc34f8e	-0.0059604114
232	0xbda384fd	-0.0798435
233	0xbca0f81c	-0.019649558
234	0xbcc4cc96	-0.024023335
235	0xbca37546	-0.019953381
236	0x3d0c7421	0.034290437
237	0xbc880dc8	-0.016608134
238	0x3d4f3089	0.050583396
239	0xbbb9782c	-0.0056600776
240	0x3bd2fcc5	0.006438824
241	0xbd08fdd6	-0.0334452
242	0xbb8b4ee5	-0.0042513483
243	0xbc56671f	-0.013086109
244	0xbd3ab7ed	-0.04558556
245	0x3d9fd8ad	0.078049995
246	0x3c6447d2	0.013933139
247	0x3c21f0bf	0.0098840585
248	0x3bddbc36	0.0067668213
249	0xbc612aae	-0.013743086
250	0xbc770219	-0.015076184
251	0x3d4bbf33	0.04974289
252	0xbccbdaa8	-0.024884537
253	0x3c096d96	0.008387944
254	0xbd162a2f	-0.036661323
255	0xbd9bace2	-0.07601334

discrete_action_output_shape f4 [1, 2]
0	0x40400000	3.0
1	0x40400000	3.0

network_body._body_endoder.seq_layers.0.bias f4 [128]
0	0xbca6f81e	-0.020381983
1	0xbdb5f013	-0.08883681
2	0xbd94673f	-0.07246255
3	0xbd05c207	-0.032655742
4	0xbdd75526	-0.10514288
5	0xbdf20b3b	-0.11818548
6	0xbe02975c	-0.12753052
7	0xbde3d0c5	-0.11123804
8	0xbc3af299	-0.011410379
9	0xbd6ef0c6	-0.05833509
10	0xbda13e4b	-0.078732096
11	0xbd67c187	-0.056581046
12	0xbdc7b04a	-0.09750421
13	0xbcebe980	-0.028797865
14	0xbcb52824	-0.022113867
15	0xbd1b23ea	-0.037876047
16	0xbdabd7c2	-0.08390762
17	0xbd55378f	-0.052054938
18	0xbdd6a234	-0.104801565
19	0xbda8cfab	-0.082427345
20	0xbc060033	-0.008178758
21	0xbd159133	-0.036515426
22	0xbb91af11	-0.0044459184
23	0x3b851854	0.004061738
24	0x3de2126e	0.110386714
25	0xbd94e94d	-0.07271061
26	0xbd7d872f	-0.0618965
27	0xbcb91dce	-0.02259722
28	0xbd07cdb9	-0.033155177
29	0xbd10379b	-0.03520928
30	0x3c54b0b3	0.0129815815
31	0xbd2d0451	-0.042240445
32	0xbd060640	-0.032720804
33	0xbe20464d	-0.15651818
34	0xbd548497	-0.05188426
35	0xbd2c7459	-0.042103145
36	0xbda87727	-0.082258515
37	0xbe1f6bb8	-0.15568435
38	0x3d9d8f15	0.07693306
39	0xbdc3ddb8	-0.09563774
40	0xbdb9397f	-0.0904417
41	0xbdccb466	-0.09995346
42	0xbdd235e4	-0.10264185
43	0xbdb4b04e	-0.0882269
44	0xbdc5021d	-0.09619544
45	0xbdab86e4	-0.08375338
46	0xbd5b5014	-0.053543165
47	0xbdc7f1b1	-0.09762896
48	0xbdd3fe2d	-0.103512146
49	0xbd67e0b2	-0.05661077
50	0xbdba5117	-0.09097498
51	0x3d3bbb74	0.045833066
52	0xbde8bc11	-0.11363996
53	0xbda98e8a	-0.0827914
54	0xbd9ec3e4	-0.07752207
55	0xbc92c4b1	-0.017916055
56	0xbdb805a5	-0.089854516
57	0xbddf8949	-0.10914857
58	0x3bdec7a3	0.006798701
59	0xbd2aaa67	-0.041666415
60	0xbc95ec36	-0.01830111
61	0xbd9c2785	-0.07624725
62	0xbc9a8280	-0.018861055
63	0xbd1ae383	-0.03781463
64	0xbd2d5800	-0.04232025
65	0x3cd8d903	0.026470667
66	0xbdd3d888	-0.103440344
67	0xbddea539	-0.108713575
68	0xbdc19308	-0.09451872
69	0xbccec819	-0.025241898
70	0xbd3033c8	-0.043018132
71	0x3cfb5201	0.030678751
72	0xbdb7ea87	-0.089802794
73	0xbdbdbabe	-0.09264134
74	0xbd0abf2a	-0.033873715
75	0x3d0f3051	0.034958187
76	0xbd9322d4	-0.07184377
77	0xbdbab3a5	-0.09116296
78	0xbbb63b0a	-0.005561237
79	0x3db0eb00	0.08638573
80	0xbdc66667	-0.096875004
81	0xbd4c94bf	-0.049946543
82	0xbd64db66	-0.055873297
83	0xbd5f7162	-0.05455149
84	0xbd54379b	-0.051810842
85	0xbdfa6283	-0.12225821
86	0xbad9aa4a	-0.0016606536
87	0x3d12ce73	0.035841417
88	0xbd9614e5	-0.07328204
89	0x3c5849d4	0.013201196
90	0x3c07f704	0.008298639
91	0xbd433bde	-0.047664516
92	0xbd8ccbb1	-0.068747886
93	0xbdd1d31a	-0.102453426
94	0xbde32c07	-0.11092382
95	0x3c3827a1	0.011239917
96	0xbcdb871e	-0.026797827
97	0xbc2a78e3	-0.010404798
98	0xbcea4b85	-0.028600464
99	0xbd508aca	-0.05091361
100	0xbda3a44a	-0.0799032
101	0x3d035493	0.032063078
102	0xbd92cd2a	-0.07168038
103	0xbd355bb9	-0.044276927
104	0x3ab797df	0.0014007053
105	0xbc6b720f	-0.014370455
106	0xbcff9386	-0.031198274
107	0xbe01281d	-0.12612958
108	0xbd2f8a70	-0.042856634
109	0xbdbe74c0	-0.09299612
110	0xbd6f8da2	-0.05848468
111	0xbdbc8da5	-0.09206704
112	0x3ca3de09	0.020003336
113	0xbd92c070	-0.07165611
114	0x3e5e441b	0.21705668
115	0xbd71a51e	-0.05899536
116	0xbd63d80f	-0.05562597
117	0xbde6d95e	-0.11271928
118	0xbdad9774	-0.08476153
119	0xbd5d6f22	-0.054061063
120	0xbd679236	-0.056535922
121	0xbd950279	-0.07275862
122	0x3d2a9058	0.041641563
123	0xbdaa0098	-0.083008945
124	0xbd2f26d9	-0.042761657
125	0xbddf3a37	-0.108997755
126	0xbd1d3c75	-0.038387734
127	0xbd94e301	-0.0726986

network_body._body_endoder.seq_layers.0.weight f4 [128, 34]
0	0x3d135a4e	0.035974793
1	0x3d98afcd	0.07455406
2	0x3e18fd78	0.1494044
3	0xbe7feaa5	-0.24991854
4	0xbe2f38f1	-0.17111565
5	0xbc8ebd27	-0.01742418
6	0xbdbe0fa5	-0.09280328
7	0xbd096035	-0.033539016
8	0x3e1d3159	0.15350856
9	0x3e5948a1	0.21219112
10	0xbd367029	-0.044540558
11	0xbcd7d554	-0.02634684
12	0xbe34f920	-0.17673159
13	0xbd295ab2	-0.04134626
14	0x3d1a574b	0.037680905
15	0xbe10964f	-0.14119838
16	0xbe367f71	-0.17822053
17	0xbdc37b97	-0.09545057
18	0xbe8fd3a0	-0.28091145
19	0xbc23959a	-0.009984398
20	0xbcd45951	-0.025921496
21	0x3dec6da9	0.115443535
22	0xbebb6201	-0.3659821
23	0xbd0dcbe1	-0.034618262
24	0xbd1aaf44	-0.037764803
25	0x3e91ca56	0.28474683
26	0xbd4c1627	-0.049825814
27	0xbdbc7c88	-0.0920344
28	0xbe96ae9a	-0.29430085
29	0xbdb27e40	-0.087154865
30	0xbd9bd659	-0.07609243
31	0xbd5808f1	-0.052742902
32	0x3d94404e	0.07238828
33	0x3c6e78c3	0.014555159
34	0x3c8a5097	0.016884131
35	0xbe83ae78	-0.25719047
36	0x3dff70d0	0.12472689
37	0xbd6d52e0	-0.057940364
38	0xbd2d906e	-0.042374067
39	0x3dfe276d	0.124098636
40	0x3ddae647	0.10688453
41	0xbe82b89a	-0.25531465
42	0xbddefb6e	-0.108878
43	0xbde29336	-0.110632345
44	0xbd2e92c0	-0.04262042
45	0xbdd8fae3	-0.10594728
46	0x3ea66550	0.3249917
47	0xbd2330e5	-0.03984155
48	0x3e87a702	0.26494604
49	0xbe1c01cc	-0.1523506
50	0xbd8c7a02	-0.06859209
51	0xbeffe26f	-0.49977443
52	0xbde4487b	-0.11146637
53	0x3b27e32e	0.0025617587
54	0x3e800f99	0.250119
55	0xbe72fc64	-0.23729092
56	0x3bbf9643	0.00584677
57	0x3d0263b5	0.03183337
58	0x3e035d08	0.12828457
59	0xbde7fc84	-0.113274604
60	0xbe097564	-0.13423687
61	0x3d7d7f8a	0.06188921
62	0xbe995ea9	-0.29955032
63	0x3c47d246	0.012196129
64	0xbe3208c5	-0.17386158
65	0xbe4ea340	-0.20179462
66	0x3d89f01b	0.067352496
67	0xbdee0f80	-0.1162405
68	0xbe0658d9	-0.1311983
69	0xbdaf5cd1	-0.08562625
70	0x3d53a0ae	0.051666908
71	0xbcb31d75	-0.021864632
72	0xbd5a6026	-0.05331435
73	0xbda7b691	-0.08189119
74	0x3d834de1	0.064113386
75	0xbea4bc63	-0.32174978
76	0x3e386a9e	0.18009421
77	0x3e857cdf	0.26071832
78	0xbd00a587	-0.03140786
79	0xbe5ce1de	-0.21570536
80	0x3da2317d	0.079195954
81	0xbeb7c5d1	-0.3589311
82	0xbd8e75ba	-0.06956048
83	0x3c49aaaf	0.012308761
84	0x3e36e651	0.17861296
85	0xbe5f74a5	-0.2182184
86	0xbe250599	-0.16115417
87	0x3cf3e9e8	0.029774621
88	0xbc9721ec	-0.018448792
89	0xbe69afee	-0.22821018
90	0xbecf1810	-0.40448046
91	0x3e10c6e7	0.14138375
92	0xbd38ad06	-0.045086883
93	0x3e21683e	0.15762421
94	0x3e5ea3b8	0.21742141
95	0x3e1b5b24	0.15171486
96	0xbe0a0ef3	-0.13482265
97	0x3e8619ae	0.26191467
98	0x3e27a5bd	0.16371818
99	0xbe80fdd2	-0.2519365
100	0x3ec5ae77	0.3860967
101	0x3b8a6266	0.004223156
102	0xbd9b027e	-0.07568835
103	0xbebcd1bb	-0.36878762
104	0x3e4481c7	0.19190131
105	0xbe696b89	-0.22794928
106	0xbe1de763	-0.15420298
107	0x3e59fd98	0.21288145
108	0xbea50cd8	-0.32236362
109	0xbd031164	-0.031999007
110	0xbd1842ea	-0.03717319
111	0x3dba1695	0.090863384
112	0x3a6b7f4b	0.00089835067
113	0x3e745cce	0.23863527
114	0xbd8fc4f2	-0.07019986
115	0x3e0273fe	0.1273956
116	0xbd375410	-0.044757903
117	0xbe19ef46	-0.15032682
118	0x3d0be43d	0.03415321
119	0xbecb9e9b	-0.39769444
120	0x3c3730d3	0.011181074
121	0x3d49aff9	0.049240086
122	0xbdde2f71	-0.108488925
123	0xbe374d04	-0.17900473
124	0x3d58ffa9	0.05297819
125	0xbe75a0fc	-0.23987192
126	0x3ea7eeb8	0.32799315
127	0x3c938700	0.018008709
128	0x3d430835	0.04761525
129	0x3e9e31e3	0.30897436
130	0x3e681981	0.22665979
131	0x3e150839	0.14553918
132	0x3d3e3c50	0.046444237
133	0x3d163f68	0.036681563
134	0x3d4a63fc	0.04941176
135	0xbe916c16	-0.28402776
136	0x3d4ad459	0.049518917
137	0xbdb74bdb	-0.08950015
138	0xbd2b9958	-0.041894287
139	0xbd997e3e	-0.07494782
140	0x3e0206e5	0.12697943
141	0xbe67beeb	-0.22631423
142	0x3e2e1bfe	0.17002866
143	0xbeb7953c	-0.35856044
144	0xbdfa544f	-0.12223112
145	0xbe01b822	-0.12667897
146	0x3e06537b	0.13117783
147	0x3e9dfe76	0.308582
148	0x3dae164b	0.08500346
149	0xbeac6821	-0.33673194
150	0xbccc1e2c	-0.02491673
151	0x3e50eadb	0.2040209
152	0xbc370551	-0.011170701
153	0x3dce8741	0.100843914
154	0x3e1a6878	0.15078914
155	0x3e950ffa	0.29113752
156	0xbc65295d	-0.013986913
157	0xbdac1b91	-0.084036954
158	0xbd3d3b69	-0.046199236
159	0xbd8b1b1a	-0.067922786
160	0xbe3ea23c	-0.18616575
161	0xbe4eb199	-0.20184936
162	0xbe042aa9	-0.12906899
163	0x3d8028dd	0.06257794
164	0x3d2aea8d	0.04172759
165	0x3e14bca0	0.1452508
166	0xbd93e96d	-0.07222257
167	0x3ed6d237	0.41957256
168	0x3bd8d0e7	0.0066167
169	0x3e030fa9	0.12798943
170	0x3e6b64f4	0.2298773
171	0xbf0ebb80	-0.5575485
172	0x3e180822	0.14846852
173	0xbeca6ec0	-0.3953762
174	0x3c957e6d	0.018248761
175	0xbc87e3b3	-0.016588068
176	0x3d2011aa	0.039079346
177	0x3e8a31ee	0.26991218
178	0x3c7fbb73	0.015608656
179	0xbddcc6a8	-0.10780078
180	0xbe7dade1	-0.24773361
181	0x3d4f23c6	0.050571226
182	0xbdcb2f7d	-0.09921167
183	0x3dc01b75	0.09380237
184	0x3e12279b	0.14272921
185	0xbd4042fe	-0.04693889
186	0xbe0dc62c	-0.13845128
187	0x3b32e399	0.0027296303
188	0x3d304077	0.04303023
189	0x3e10aabf	0.14127634
190	0xbe8227d7	-0.2542102
191	0x3e321077	0.17389093
192	0xbe197566	-0.1498619
193	0x3daf0569	0.08545954
194	0xbcba0d9b	-0.022711566
195	0xbe821627	-0.25407526
196	0xbd68990f	-0.056786593
197	0xbe47aded	-0.19499941
198	0xbd55360f	-0.052053507
199	0xbd5285bf	-0.05139708
200	0xbcfecaa9	-0.031102495
201	0x3da07d7a	0.07836433
202	0x3eb9152c	0.36148965
203	0xbe23be17	-0.15990482
204	0xbab3fa5d	-0.001373123
205	0xbe2c0583	-0.16798978
206	0x3d466fad	0.048446346
207	0xbe27b983	-0.16379361
208	0xbe3a267b	-0.18178742
209	0xbc9278d8	-0.017879888
210	0xbd2402da	-0.040041782
211	0x3ab98101	0.0014152826
212	0x3d8276cc	0.06370315
213	0xbd775d5e	-0.060391776
214	0xbdb98136	-0.09057848
215	0xbdad20c5	-0.08453516
216	0xbe979e55	-0.29612985
217	0xbd854640	-0.0650754
218	0x3e8776c1	0.2645779
219	0x3d1851eb	0.037187498
220	0xbe99ba05	-0.30024734
221	0xbee9bb24	-0.4565059
222	0xbe6b8954	-0.23001605
223	0xbe4bae58	-0.19890726
224	0xbe6ba34b	-0.2301151
225	0x3c83c1c6	0.01608361
226	0xbe7b022c	-0.24512547
227	0x3dcb621f	0.099308245
228	0xbb98f549	-0.004667912
229	0xbe6ae403	-0.22938542
230	0xbe8cb19c	-0.27479255
231	0x3e78036b	0.24220054
232	0x3e3ea73d	0.18618484
233	0x38214027	3.8445138e-05
234	0xbe754890	-0.23953462
235	0xbcdb2c8a	-0.026754636
236	0x3cb71459	0.02234857
237	0xbda891ff	-0.082309715
238	0x3e6fad2e	0.23405907
239	0xbdb1beb0	-0.08678949
240	0xbe7bf643	-0.2460566
241	0xbe54a020	-0.20764208
242	0xbcd51dda	-0.02601521
243	0xbdce42dc	-0.10071346
244	0x3e78a788	0.24282658
245	0xbe831b4c	-0.25606763
246	0x3e10b579	0.14131726
247	0xbeb4a9a8	-0.35285687
248	0x3e0b9dd9	0.13634433
249	0x3ed15ae8	0.40889668
250	0x3df9bba1	0.121939905
251	0x3da4798b	0.08030995
252	0xbdbf32b0	-0.0933584
253	0xbeadb888	-0.3392985
254	0x3c940e8c	0.018073343
255	0x3e5b8989	0.21439184

network_body._body_endoder.seq_layers.2.bias f4 [128]
0	0xbd1816fb	-0.03713129
1	0xbcae1a2c	-0.021252714
2	0xbdbdcd4e	-0.092676744
3	0xbdb5312b	-0.08847269
4	0xbd625be0	-0.0552634
5	0x3b32057d	0.0027163916
6	0xbd8e316d	-0.06943021
7	0xbd005c12	-0.031337805
8	0x3bfaacd1	0.007649996
9	0xbc25c3bd	-0.010117468
10	0xbc7f95e9	-0.015599706
11	0xbcd2454e	-0.025667813
12	0xbd834e64	-0.06411436
13	0x3ca919ab	0.020642122
14	0xbd8550d1	-0.06509555
15	0xbd054e18	-0.03254518
16	0xbd1c32c6	-0.03813436
17	0xbc7267a4	-0.014795218
18	0xbd0938e6	-0.03350153
19	0xbd99a28c	-0.075017065
20	0xbc82f2b4	-0.01598487
21	0xbd4a772d	-0.04943006
22	0xbd8f2047	-0.06988578
23	0x3a44cf2e	0.0007507679
24	0xbc579cd3	-0.013159948
25	0xbd0ed0cd	-0.034867097
26	0xbd012bf8	-0.031536072
27	0x3d2cb9e7	0.042169478
28	0xbb480d8c	-0.0030525653
29	0xbc433f1f	-0.011916905
30	0xbd4d888f	-0.05017906
31	0xbd63dd51	-0.055630986
32	0xbca043b8	-0.01956354
33	0xbd32926f	-0.04359668
34	0xbd211b5b	-0.03933273
35	0xbcc80dd3	-0.024420654
36	0xbd593602	-0.05303002
37	0xbd2f6b5f	-0.042827006
38	0xbb531c8a	-0.0032213056
39	0xbdc6aff6	-0.09701531
40	0xbc528ee2	-0.012851449
41	0xbdb17192	-0.0866424
42	0xbd788e7c	-0.06068276
43	0xbcd4366d	-0.025904858
44	0xbd7e3b43	-0.062068235
45	0xbd055ceb	-0.032559317
46	0xbc94b3b1	-0.01815209
47	0xbcadea33	-0.021229839
48	0xbd87576f	-0.066084735
49	0xbdaef434	-0.08542672
50	0xbd08ff0c	-0.033446357
51	0xbd2d9e38	-0.042387217
52	0x3d2001b2	0.039064117
53	0x3b8df040	0.0043316185
54	0xbcf91b76	-0.030408602
55	0xbdb20cad	-0.08693824
56	0xbd8966fa	-0.06709094
57	0xbd53c59b	-0.051702123
58	0x3d96bf29	0.0736068
59	0xbaf31ed4	-0.0018548616
60	0xbd3234a8	-0.04350725
61	0xbda21bd0	-0.07915461
62	0xbd6894a5	-0.056782383
63	0xbd8d43cb	-0.06897696
64	0xbd844f39	-0.06460423
65	0xbd25a556	-0.04044088
66	0x3cd8cab6	0.026463848
67	0xbc259707	-0.0101068085
68	0x3d90ed3c	0.07076499
69	0xbd7dd9b2	-0.06197519
70	0xbdc0d128	-0.094148934
71	0xbd8835e8	-0.06650907
72	0xbdb08b2c	-0.08620295
73	0xbdb9142a	-0.09037049
74	0x3d420881	0.04737139
75	0xbd084873	-0.033272218
76	0xbd22f5be	-0.03978514
77	0xbd99b050	-0.07504332
78	0xbd2d295d	-0.042275775
79	0xbd0e8757	-0.03479704
80	0x3dadeafe	0.08492087
81	0xbdd15c12	-0.10222639
82	0xbd52bf3d	-0.05145191
83	0xbd3d2b39	-0.0461838
84	0xbc95f84b	-0.018306872
85	0xbcf6ed2a	-0.030142386
86	0xbd6d3f12	-0.057921477
87	0xbdb419b4	-0.08793965
88	0xbd1f16c8	-0.038840085
89	0xbcd1dd7c	-0.025618307
90	0xbd9e6a86	-0.077351615
91	0xbd2eb742	-0.042655237
92	0xbd0438a8	-0.032280594
93	0xbd68206c	-0.056671545
94	0x3c7f4559	0.015580499
95	0xbd88c6fa	-0.06678577
96	0xbdecf08e	-0.1156932
97	0xbd41e73f	-0.047339674
98	0x3cc3355a	0.023829151
99	0xbd3dc988	-0.046334773
100	0xbdf3fa03	-0.1191292
101	0xbd82a6c9	-0.06379468
102	0xbd94ed3d	-0.07271812
103	0xbdbceabb	-0.09224459
104	0x3d4614cd	0.04835968
105	0xbdd0291d	-0.10164092
106	0xbd3941f8	-0.04522893
107	0xbdece0b1	-0.11566294
108	0xbcd27c7d	-0.025694126
109	0xbccc840b	-0.024965307
110	0xbcd09fb3	-0.025466776
111	0x3ccaa1b9	0.024735318
112	0xbc402e7f	-0.0117298355
113	0xbd6f0cff	-0.058362003
114	0xbc79aecb	-0.015239428
115	0xbb73c9d2	-0.0037199152
116	0x3daa5e31	0.08318747
117	0xbc55c9e5	-0.013048624
118	0xbd6c0986	-0.05762627
119	0xbd8d48fc	-0.06898686
120	0xbd62380d	-0.055229235
121	0xbd70f93b	-0.058831435
122	0xbca3a736	-0.019977193
123	0x3d7c92e1	0.061663512
124	0xbdc048f3	-0.09388914
125	0xbd5ff783	-0.054679405
126	0xbd809e60	-0.06280208
127	0x3cf08d9d	0.029364401

network_body._body_endoder.seq_layers.2.weight f4 [128, 128]
0	0xbd9f8c63	-0.077904485
1	0xbd0b42a0	-0.033999085
2	0x3e4872a9	0.1957499
3	0xbcd6bc27	-0.026212765
4	0xbd3d113f	-0.046159025
5	0xbdbfcd6f	-0.09365355
6	0xbd753198	-0.05986175
7	0xbc4c9964	-0.012487743
8	0x3dbb25d1	0.09138072
9	0x3e297eb5	0.16552241
10	0x3d1bf2b2	0.03807325
11	0xbd48cfb8	-0.04902622
12	0xbdfa724e	-0.12228833
13	0xbe0891c2	-0.13336852
14	0xbe5ad785	-0.21371277
15	0x3a94ef56	0.0011362832
16	0xbd8e588a	-0.06950481
17	0x3dc22b2d	0.094808914
18	0x3ad5e87e	0.0016319898
19	0x3dec7828	0.115463555
20	0xbe42e54b	-0.19032781
21	0xbdbc1218	-0.091831386
22	0x3d1b458f	0.037908133
23	0x3dacce03	0.08437731
24	0xbe56dda0	-0.2098298
25	0xbd9e71b6	-0.077365324
26	0x3ddf427c	0.10901353
27	0x3a0d2537	0.00053842686
28	0x3c2058e4	0.009786818
29	0xbd65b6a3	-0.05608238
30	0xbd0787ed	-0.033088613
31	0xbcab0447	-0.020876063
32	0xbe1ce5af	-0.15321992
33	0x3d6e3370	0.058154523
34	0xbdfc8318	-0.12329692
35	0xbcadcd9d	-0.021216208
36	0xbe25d145	-0.16193111
37	0xbd087ba0	-0.033321023
38	0x3d9d3806	0.07676701
39	0x3e474e9e	0.19463584
40	0x3a91a7ee	0.0011112669
41	0xbc52db31	-0.012869642
42	0xbc1fde0a	-0.009757528
43	0xbe394ad3	-0.1809495
44	0xbd013cdc	-0.03155218
45	0x3d714d91	0.058911864
46	0xbe21c546	-0.1579791
47	0xbc968983	-0.018376118
48	0x3df77568	0.1208294
49	0x3d4cd35a	0.050006248
50	0x3d2550b8	0.040360183
51	0xbe4e07db	-0.20120184
52	0xbd58ce42	-0.052931078
53	0x3d1c3ef2	0.038145967
54	0x3b2af9a2	0.0026088734
55	0x3cd63740	0.026149392
56	0x3cefe546	0.02928413
57	0x3dbf4518	0.093393505
58	0xbd04af60	-0.032393813
59	0xbbfbf6dc	-0.00768934
60	0xbe0d5abc	-0.13804144
61	0xbc3e5e9d	-0.011619237
62	0xbddfa68a	-0.10920437
63	0xbc4ade44	-0.012382094
64	0xbd70787b	-0.05870865
65	0xbda6ddc1	-0.08147765
66	0xbd5f624a	-0.054537095
67	0x3ccee1d0	0.02525416
68	0xbe1e5e84	-0.15465742
69	0x3df19f4f	0.11797964
70	0xbda7d580	-0.08195019
71	0xbd600e9b	-0.05470143
72	0x3c4f470f	0.012651219
73	0x3d6e1ef1	0.058134977
74	0xbe2fe727	-0.17178021
75	0x3c818b6c	0.015813552
76	0xbdaebde4	-0.085323125
77	0xbdff3626	-0.124615
78	0xbe044b83	-0.1291943
79	0x3d8dceb8	0.06924194
80	0x3a892b94	0.0010465258
81	0xbe1915e2	-0.14949754
82	0x3d8c2e84	0.0684481
83	0x3dab3ad7	0.08360832
84	0x3c368d3f	0.011142074
85	0xbe0100dc	-0.12597984
86	0x3d581ff2	0.05276484
87	0xbeaa949c	-0.33316505
88	0xbe19621b	-0.1497883
89	0x3c916745	0.017749438
90	0x3d3a5c25	0.045498032
91	0x3db1148e	0.086464986
92	0xbd7bc802	-0.06147004
93	0x3d475a86	0.048670314
94	0xbe1e6eb7	-0.15471922
95	0x3df29b74	0.118460566
96	0xbcb6415c	-0.022247963
97	0x3de5b024	0.11215237
98	0xbdee69d1	-0.11641277
99	0xbcae7fb5	-0.02130113
100	0x3e090b13	0.1338313
101	0x3ddbccbe	0.10732411
102	0x3d837ebf	0.06420659
103	0x3bc36030	0.005962394
104	0x3e046c75	0.12931998
105	0xbe2b5162	-0.16730264
106	0x3dc61d02	0.096735016
107	0xbd702170	-0.05862564
108	0xbd730c5d	-0.059337962
109	0xbe109a96	-0.1412147
110	0x3c82eb2b	0.015981277
111	0x3ced90bd	0.02899968
112	0xbdb1e0c9	-0.086854525
113	0x3d2056d7	0.039145317
114	0x3e165f35	0.14684756
115	0x3deb118c	0.11477956
116	0xbd7a6f84	-0.061141506
117	0xbdda5ce7	-0.10662251
118	0x3d970734	0.07374421
119	0x3db9a0c4	0.09063867
120	0x3d27f6e6	0.041006945
121	0xbd9483d4	-0.07251707
122	0xbcf4b4ed	-0.029871428
123	0x3c7aeabc	0.015314754
124	0xbd139890	-0.036034167
125	0x3db5804c	0.08862361
126	0xbd09c99c	-0.033639535
127	0x3d4779f3	0.048700284
128	0x3e15b9d9	0.14621677
129	0x3d4e63c3	0.05038811
130	0x3d4e2e3a	0.050337054
131	0x3bc4a6c0	0.0060013235
132	0x3e3648e6	0.17801246
133	0xbe0ac420	-0.13551378
134	0x3dec1339	0.11527104
135	0x3df7bb2c	0.12096247
136	0xbd31153f	-0.043233152
137	0x3dc9ac55	0.09847323
138	0xbc6a3e5a	-0.014297092
139	0xbd8aff77	-0.06787007
140	0x3dae66a4	0.08515671
141	0x3d00fb8c	0.031489894
142	0xbd8fb918	-0.07017726
143	0x3c8c7b3b	0.017148605
144	0x3e0139c7	0.12619697
145	0x3e472efb	0.19451515
146	0x3d3309c6	0.043710493
147	0x3ddcfcf4	0.107904345
148	0xbd60fb05	-0.05492689
149	0x3d50bf5d	0.05096375
150	0xbd8ab670	-0.067730784
151	0xbe016a9d	-0.12638326
152	0x3e480ce5	0.19536169
153	0x3d385769	0.045005236
154	0xbe141120	-0.14459658
155	0xbe3879ff	-0.18015288
156	0xbd61eb9e	-0.055156343
157	0xbd902462	-0.070381895
158	0xbde9ace4	-0.114099294
159	0xba5d3aa3	-0.00084392185
160	0x3d414560	0.0471853
161	0xbd353f06	-0.044249557
162	0xbd37ddba	-0.04488919
163	0x3c7c413e	0.015396414
164	0xbdd95354	-0.10611597
165	0xbc3599db	-0.011084045
166	0xbe621349	-0.22077669
167	0x3c847217	0.016167684
168	0xbddfe6a0	-0.1093266
169	0xbde961eb	-0.113956295
170	0x3c853247	0.016259326
171	0xbca6a628	-0.020342901
172	0xbd71e0bd	-0.059052218
173	0xbc822e33	-0.01589117
174	0x3d92808a	0.07153423
175	0x3dd0416d	0.10168729
176	0xbd53b789	-0.051688705
177	0xbdc2af73	-0.095061205
178	0x3e250e32	0.16118696
179	0xbd30414e	-0.04303103
180	0x3db4daa8	0.08830768
181	0xbe03d1c2	-0.12872985
182	0x3c16e676	0.00921022
183	0xbcc54630	-0.02408132
184	0x3d4a50c6	0.049393438
185	0x3dd80b46	0.10549025
186	0xbd573528	-0.052540928
187	0xbcad2047	-0.021133555
188	0x3cbe0852	0.023197327
189	0xbdc45241	-0.09586001
190	0x3d85a3c5	0.06525377
191	0xbd08f4af	-0.033436473
192	0x3c400f15	0.011722346
193	0xbd986032	-0.07440223
194	0x3d2dd2a0	0.042437196
195	0x3d667c8d	0.056271125
196	0xbe501762	-0.2032142
197	0x3d0e893e	0.034798853
198	0x3d933b4b	0.071890436
199	0x3d4d00aa	0.05004946
200	0xbe08d8d2	-0.1336396
201	0x3e00bef2	0.1257284
202	0xbdca7586	-0.09885697
203	0xbdd98ec4	-0.106229335
204	0x3d38978f	0.045066413
205	0xbde6821e	-0.11255287
206	0x3d0fcca9	0.03510729
207	0xbe62fbf4	-0.22166425
208	0xbd3e6ca0	-0.04649031
209	0x3dfec8d2	0.12440647
210	0x3e6c368a	0.2306768
211	0xbd8bf65a	-0.06834097
212	0xbe6c1083	-0.23053174
213	0x3e6d38a8	0.23166144
214	0x3e0f757c	0.1400966
215	0x3e6ef44e	0.23335382
216	0x3d9d5b4d	0.0768343
217	0x3d7eb3f6	0.062183343
218	0x3bb3cb70	0.005486898
219	0x3e167fb1	0.14697148
220	0x3ba85bc1	0.005137891
221	0xbd47f663	-0.048818957
222	0x3e83e137	0.25757763
223	0xbcc9cb9b	-0.02463322
224	0x3d9a00a0	0.075196505
225	0x3e003a6b	0.12522285
226	0x3d6a679d	0.05722772
227	0x3daef827	0.08543425
228	0x3dc266bb	0.094922505
229	0xbe3cbcd1	-0.18431403
230	0xbd45e4a9	-0.04831377
231	0x3c8672d1	0.01641217
232	0xbdc002c0	-0.093755245
233	0xbe12f6e6	-0.14351997
234	0xbe414500	-0.18873978
235	0x3da3706d	0.07980428
236	0xbc613096	-0.013744494
237	0x3e30f100	0.17279434
238	0x3dde076d	0.1084126
239	0x3bc64aa0	0.0060513765
240	0xbd1ae6d7	-0.037817802
241	0x3d6970e2	0.05699242
242	0x3e25fe26	0.16210231
243	0x3dcc20d6	0.099672005
244	0x3d3763b7	0.04477283
245	0xbe0ec733	-0.13943176
246	0x3bb4e752	0.0055207396
247	0xbd7b9c89	-0.06142858
248	0x3dc4861b	0.09595891
249	0xbd69dd78	-0.057095975
250	0xbd93baa4	-0.07213333
251	0xbca323cb	-0.019914528
252	0xbd9b23c4	-0.07575181
253	0x3de641ed	0.11243043
254	0xbc9d2508	-0.019182697
255	0xbe2e7762	-0.17037728

network_body._body_endoder.seq_layers.4.bias f4 [128]
0	0xbe20914e	-0.1568043
1	0xb9fd2b12	-0.0004828801
2	0xbd43a068	-0.047760397
3	0xbd308487	-0.043095138
4	0xbdf77864	-0.120835096
5	0xbc838a60	-0.016057193
6	0xbe4ca884	-0.19986159
7	0xbc4ef563	-0.012631747
8	0xbdb6638a	-0.08905704
9	0xbd116c87	-0.03550389
10	0xbcd068d6	-0.025440615
11	0xbe5ea56d	-0.21742792
12	0xbddd6069	-0.108094044
13	0x3d6e7f82	0.05822707
14	0xbdcfaa20	-0.10139871
15	0xbd223da8	-0.03960958
16	0xbd529dda	-0.05142007
17	0xbd72c5c4	-0.059270635
18	0xbcf8ad02	-0.030355934
19	0xbdc0f7d0	-0.094222665
20	0xbde31dea	-0.1108969
21	0xbdafa030	-0.08575475
22	0xbe5ce71f	-0.2157254
23	0xbd7131fb	-0.058885556
24	0xbda49f43	-0.08038189
25	0xbd926e2d	-0.071499206
26	0xbe1b24c5	-0.15150745
27	0xbe03378a	-0.12814155
28	0xbd8c3fe9	-0.068481274
29	0xbd338187	-0.0438247
30	0xbdcb3079	-0.09921355
31	0xbce94381	-0.028474571
32	0xbda8945e	-0.08231424
33	0xbcb1336d	-0.021630967
34	0xbd698143	-0.05700804
35	0xbdc192b5	-0.0945181
36	0xbd91748f	-0.0710231
37	0xbdfba420	-0.12287164
38	0xbc8f9c74	-0.017530657
39	0xbcb6c455	-0.022310415
40	0x3be6117a	0.0070211263
41	0xbba13fcf	-0.0049209367
42	0xbdc719e9	-0.09721739
43	0x3b42a265	0.0029698845
44	0xbceeaec1	-0.029136064
45	0xbdc5d7a1	-0.096602686
46	0xbdc412aa	-0.095738724
47	0xbdcfdcda	-0.10149546
48	0xbca85114	-0.020546474
49	0xbd47074f	-0.048590954
50	0xbdf45d61	-0.11931873
51	0xbe627151	-0.2211354
52	0xbd80986a	-0.06279071
53	0xbd496156	-0.049165092
54	0xbe234697	-0.15944897
55	0xbe0e138c	-0.13874644
56	0xbde6a31c	-0.112615794
57	0xbda37ff1	-0.07983387
58	0xbd88a609	-0.06672294
59	0xbdd8e16d	-0.105898716
60	0xbe03fdd5	-0.12889798
61	0xbe230c65	-0.15922697
62	0xbe3847fd	-0.17996211
63	0xbd0816b1	-0.033224765
64	0xbd01198c	-0.031518504
65	0xbdb29484	-0.08719733
66	0xbd3f24a0	-0.046665788
67	0xbd8101a4	-0.06299141
68	0xbd1a4d28	-0.03767124
69	0xbe6ed1f1	-0.23322274
70	0x3d01682b	0.031593483
71	0xbd1026c9	-0.03519324
72	0xbe19d66e	-0.15023205
73	0xbdd419b8	-0.10356468
74	0xbd5a41e2	-0.053285487
75	0xbd325740	-0.04354024
76	0x3bffb303	0.0078033223
77	0xbdb83bb1	-0.0899576
78	0xbd6b590e	-0.057457976
79	0xbe454ed2	-0.19268349
80	0xbd312dfb	-0.04325674
81	0x3ae78fba	0.0017666735
82	0xbd8620a7	-0.06549197
83	0xbd4dde78	-0.05026099
84	0xbe15e393	-0.14637594
85	0xbd9d7664	-0.07688597
86	0xbcde793d	-0.02715742
87	0xbe1f6c9b	-0.15568773
88	0xbcba8651	-0.022769125
89	0xbd29151b	-0.041279893
90	0xbd14e9ac	-0.03635566
91	0xbda779aa	-0.081775025
92	0xbdb9a7f4	-0.09065238
93	0xbdd378ba	-0.10325761
94	0xbd341fb0	-0.043975532
95	0xbdbc0b16	-0.09181802
96	0xbe0fd9e1	-0.14047958
97	0xbd26468a	-0.040594615
98	0xbdb95f3d	-0.090513684
99	0xbd830c0a	-0.06398781
100	0xbe46b92e	-0.19406578
101	0xbe2409fb	-0.16019432
102	0xbd1c28af	-0.038124736
103	0xbda08b39	-0.078390546
104	0xbd9bbe91	-0.07604707
105	0xbdb6d86e	-0.089279994
106	0xbd66c6dc	-0.05634199
107	0xbc58da79	-0.013235682
108	0xbc0e58d4	-0.00868817
109	0xbe2d19bf	-0.16904353
110	0xbd8c4da6	-0.06850748
111	0xbd1e2aa0	-0.03861487
112	0xbd244bf0	-0.040111482
113	0xbd93738a	-0.07199772
114	0xbdc2f410	-0.095192075
115	0xbdab28f4	-0.083574206
116	0xbdc2cdef	-0.09511935
117	0xbc36cf31	-0.011157797
118	0xbc9a4635	-0.018832305
119	0xbdb35262	-0.08755948
120	0xbd119bd6	-0.035549007
121	0xbdbfc0a4	-0.09362915
122	0xbd821384	-0.063513786
123	0xbd414265	-0.04718246
124	0xbe227efd	-0.15868755
125	0xbd332840	-0.043739557
126	0xbdbcc384	-0.09216979
127	0xbe102728	-0.14077437

network_body._body_endoder.seq_layers.4.weight f4 [128, 128]
0	0x3df90c3a	0.12160535
1	0xbda647dd	-0.081191756
2	0xbd4ee0df	-0.050507423
3	0xbdeaf0be	-0.11471699
4	0xbd99f58d	-0.07517538
5	0xbe44dd99	-0.19225158
6	0x3d63c89d	0.05561124
7	0x3caf41d7	0.0213937
8	0xbd7c124d	-0.06154089
9	0xbd20f6ac	-0.039297745
10	0x3d30082d	0.042976547
11	0xbe043de0	-0.12914228
12	0xbc44b88d	-0.012006891
13	0xbe283444	-0.16426188
14	0x3d196e5d	0.037458766
15	0xbda8d4c5	-0.082437076
16	0xbd9749a2	-0.07387091
17	0x3d3fc21a	0.04681597
18	0x3e52e09b	0.20593493
19	0x3d0d85ec	0.034551546
20	0xbc413bc0	-0.011794031
21	0xbb49c817	-0.003078943
22	0x3ea3744c	0.31924665
23	0xbe31d3f8	-0.17366016
24	0x3d9f152a	0.077677086
25	0xbe2f2a9f	-0.17106102
26	0x3cdc3158	0.026878998
27	0xbd172787	-0.03690293
28	0xbd0b1f4b	-0.03396539
29	0xbda8f142	-0.08249141
30	0x3e37e50d	0.1795847
31	0x3e2e22d8	0.1700548
32	0xbb447c74	-0.0029981406
33	0x3dbd282b	0.09236177
34	0x3e8921a1	0.2678347
35	0xbdde3253	-0.10849442
36	0x3dbc3fb4	0.09191838
37	0xbcbb1841	-0.022838714
38	0xbe075b56	-0.13218436
39	0x3db5b8fa	0.08873172
40	0x3e68a7a9	0.22720207
41	0xbcc75b14	-0.024335422
42	0xbd952429	-0.072822876
43	0xbdf357c5	-0.11881975
44	0x3cd52504	0.026018627
45	0x3e4617ee	0.19345066
46	0x3e5bdf34	0.21471864
47	0xbe0090d0	-0.12555242
48	0x3dab9667	0.08378296
49	0xbd0804b8	-0.033207625
50	0xbdb49227	-0.08816939
51	0xbe141c85	-0.14464004
52	0xbc49140e	-0.012272848
53	0x3df94453	0.12171235
54	0xbdcf7b06	-0.10130887
55	0x3d2b8dbd	0.04188322
56	0x3e42170a	0.18954101
57	0x3e1dd8ed	0.15414782
58	0x3ba21ac4	0.0049470384
59	0x3dcedaf8	0.10100359
60	0x3d6e4069	0.058166895
61	0x3e87e0cf	0.26538703
62	0x3dc0a7f3	0.09407034
63	0x3c2256a6	0.009908354
64	0x3d8f879e	0.07008289
65	0x3e11f069	0.14251865
66	0xbdd84df9	-0.10561747
67	0xbd4b8b4f	-0.049693402
68	0xbda1b756	-0.07896297
69	0x3d86e70b	0.06587037
70	0x3dfee7de	0.12446569
71	0xbcd57c71	-0.026060315
72	0x3e026759	0.12734737
73	0xbd90283a	-0.070389226
74	0xbdd308db	-0.103044234
75	0x3e63c3c4	0.22242647
76	0xbcc11ae3	-0.02357239
77	0x3e307b9e	0.17234656
78	0x3df290ba	0.11844011
79	0xbd1c86fd	-0.038214672
80	0xbd5add17	-0.053433504
81	0x3d887853	0.06663575
82	0x3deb3a05	0.11485676
83	0x3dab4eb2	0.08364619
84	0xbddf2577	-0.10895818
85	0xbcbfd933	-0.023418998
86	0x3c6dba63	0.01450977
87	0x3e0b5eaf	0.13610338
88	0x3d80385c	0.0626075
89	0xbd938867	-0.07203751
90	0xbdbf752d	-0.093485214
91	0xbd4a5c5c	-0.049404487
92	0xbdb5a5f7	-0.08869546
93	0xbdf6a25a	-0.12042685
94	0xbdc6fd16	-0.09716241
95	0xbc884aa4	-0.016637154
96	0x3d229b0e	0.039698653
97	0x3da7c537	0.081919126
98	0x3cfd45ab	0.03091701
99	0xbd5e3ec0	-0.05425906
100	0xbd0d2fac	-0.03446929
101	0xbdfd2f06	-0.12362485
102	0xbe273ef5	-0.1633261
103	0x3e4c9256	0.19977698
104	0xbdf291e8	-0.11844236
105	0xbddd0da4	-0.10793617
106	0x3dc1da6e	0.0946549
107	0x3d168b53	0.036753964
108	0xbdf9fde8	-0.12206632
109	0x3d14a384	0.036288753
110	0xbd8593ac	-0.06522307
111	0xbd84ab55	-0.064779915
112	0x3ddd3723	0.10801532
113	0x3e525845	0.20541485
114	0xbe3ac4b7	-0.18239103
115	0xbe30cc16	-0.17265353
116	0xbe20238f	-0.15638565
117	0xbdd8c7d5	-0.1058499
118	0xbdb1eaaf	-0.086873405
119	0x3e3afa06	0.18259439
120	0x3e25e167	0.16199265
121	0x3e27933d	0.1636476
122	0xbd11e731	-0.035620872
123	0x3c118d76	0.008883825
124	0x3e10ff5a	0.14159909
125	0x3de00b80	0.109396935
126	0x3e206065	0.15661772
127	0xbe0b59a9	-0.13608421
128	0xbdc1db5e	-0.09465669
129	0x3dac5c89	0.08416087
130	0x3d84d650	0.06486189
131	0xbc431600	-0.011907101
132	0xbb3e0a53	-0.0028997853
133	0x3de31f9a	0.11090012
134	0xbc680f03	-0.014163735
135	0x3d3af016	0.04563912
136	0x3d219606	0.039449714
137	0xbe15caa1	-0.14628078
138	0xbe3e438c	-0.18580455
139	0x3d2805e2	0.041021235
140	0x3d786b37	0.060649123
141	0xbd547186	-0.051866077
142	0x3d47d929	0.048791084
143	0xbc4c1d7a	-0.0124582
144	0xbdfabe1d	-0.122432925
145	0xbdd2e613	-0.102977894
146	0xbc1296dd	-0.008947101
147	0xbd36ca53	-0.044626545
148	0xbc711cb1	-0.014716313
149	0x3bad9b93	0.005298087
150	0xbc767f82	-0.015045049
151	0x3d00ec89	0.031475578
152	0xbe21be70	-0.15795302
153	0x3b466227	0.0030270906
154	0x3ddbf434	0.107399374
155	0x3d12339f	0.03569376
156	0x3d22a5a4	0.03970875
157	0xbd2c82ff	-0.042117115
158	0xbdd8647d	-0.105660416
159	0x3da433e1	0.080177076
160	0x3e5d2717	0.21596943
161	0xbe7e6594	-0.24843436
162	0xbd0e3652	-0.034719773
163	0x3da84126	0.08215551
164	0x3d2025c9	0.039098535
165	0xbd8c67f1	-0.06855763
166	0xbc7e749a	-0.01553073
167	0xbc0a185f	-0.008428662
168	0x3d388ca8	0.045056015
169	0x3de503da	0.11182375
170	0x3e21eb9d	0.15812536
171	0x3e29c2ea	0.1657826
172	0xbe41f5c0	-0.18941402
173	0x3d60a50b	0.054844897
174	0xbdc64e3e	-0.09682892
175	0xbdd6a84a	-0.10481317
176	0x3d88e154	0.06683603
177	0xbc4931be	-0.012279926
178	0xbe215f7f	-0.15759085
179	0x3bc2fd5b	0.0059506125
180	0x3d7558cc	0.059899136
181	0x3cf0981f	0.029369412
182	0x3d9dd06c	0.07705769
183	0x3d8d6d6a	0.06905635
184	0xbea26ce2	-0.31723696
185	0x3d2cdef5	0.042204816
186	0x3d63ae19	0.055585954
187	0x3e2b7e8f	0.16747497
188	0xbc99bcf4	-0.018766858
189	0xbddcb875	-0.1077737
190	0x3cad1b85	0.021131286
191	0xbdd28728	-0.10279685
192	0x3e0a9e89	0.13537039
193	0x3bec307c	0.007207928
194	0xbcb490a5	-0.022041628
195	0xbdfbdb67	-0.12297707
196	0xbe5cf301	-0.21577074
197	0x3dbf6e57	0.093472175
198	0xbbb98200	-0.005661249
199	0xbd83f9d2	-0.06444134
200	0xbd08f20e	-0.033433966
201	0x3daddb31	0.08489073
202	0xbdee843f	-0.11646318
203	0xbdfe85f3	-0.124278925
204	0xbd00c5b4	-0.031438544
205	0xbdd4629c	-0.10370371
206	0x3d1a4e74	0.037672475
207	0xbd1f05db	-0.038823944
208	0xbd5feee3	-0.05467118
209	0xbdc67b2b	-0.09691461
210	0x3d6ccfc5	0.057815332
211	0x3d59bfed	0.05316155
212	0xbe46cba2	-0.19413617
213	0xbc7b0187	-0.015320188
214	0xbe465688	-0.19368947
215	0x3e2fe4b5	0.17177089
216	0xbde8ba88	-0.11363703
217	0x3dd861f9	0.10565562
218	0x3c4233dd	0.0118531855
219	0xbdc90a36	-0.09816401
220	0xbdaead8b	-0.085291944
221	0xbdc4e593	-0.096141
222	0xbcdac76f	-0.026706425
223	0x3c7677b2	0.015043186
224	0xbd9a2eb9	-0.07528443
225	0x3d0e3cfb	0.034726124
226	0xbbb6cbe5	-0.0055785053
227	0x3da784c6	0.081796214
228	0x3b968f23	0.0045947
229	0xbdb569e4	-0.08858088
230	0xbe769015	-0.240784
231	0xbd2a0be4	-0.041515246
232	0xbe45fbe6	-0.19334373
233	0x3d97447e	0.07386111
234	0x3d1b0827	0.03784957
235	0xbdc14434	-0.09436837
236	0x3d97aa48	0.074055254
237	0xbb9f8068	-0.004867602
238	0x3d0e325a	0.034715988
239	0xbe43fb83	-0.19138913
240	0xbd075065	-0.033035655
241	0x3cd17568	0.025568679
242	0x3e1be7fe	0.15225217
243	0xbe1dd695	-0.15413888
244	0xbbf15be0	-0.0073656887
245	0xbe8956e2	-0.268241
246	0xbde5225f	-0.111881964
247	0x3de06be7	0.10958081
248	0x3d121b96	0.03567084
249	0xbcf2e13e	-0.02964842
250	0xbddb52c9	-0.107091494
251	0x3d97cdb6	0.07412283
252	0x3da11474	0.07865229
253	0x3e16017c	0.14649004
254	0xbd90f28d	-0.07077513
255	0xbd856548	-0.065134585
