results/AT-2M-TwoKink-AWSTrack-25May-10am/MoveSomewhere/MoveSomewhere-6999953.onnx (onnx, 638066 bytes, 11 tensors)

action_model._discrete_distribution.branches.0.bias f4 [3]
0.032891847 -0.35178787 0.337002
00000000: 9ab9 063d 8a1d b4be 878b ac3e

action_model._discrete_distribution.branches.0.weight f4 [3, 256]
0.11653681 0.0871586 -0.0356346 0.099497415 -0.1434999 0.21233588 -0.0050608586 -0.086299345
0.037179735 0.089594685 0.030609913 -0.2510229 0.21128315 0.04490336 0.15174529 -0.39533904
0.014942005 0.02560485 0.06421559 0.03681079 0.09232858 -0.020289 -0.011872206 -0.0040026326
-0.06963819 0.119426295 0.01826786 -0.04273393 -0.32746074 -0.08375829 -0.064814895 0.004708106
-0.08270399 0.10050493 -0.1536128 0.16312909 0.055671435 0.08644351 -0.21916609 0.0056086304
0.09779781 -0.13712375 0.016915172 0.16789424 -0.031851586 -0.0027389403 0.092366725 -0.2389435
-0.16262652 0.1627882 -0.019653218 -0.07305956 0.027359946 -0.011409696 -0.12585439 -0.02961073
-0.24252944 0.09030802 0.028979044 -0.08365232 0.25251758 0.27005872 -0.019319396 0.039499085
0.005886053 -0.14843664 0.15045112 0.039157454 -0.011734914 -0.15491198 -0.08407686 -0.056716114
-0.027060892 0.21549101 -0.037697744 -0.18428296 0.12511134 0.04961611 0.15731026 -0.016614225
-0.17530014 0.20523925 0.040424827 0.038678218 -0.13166352 -0.14933057 -0.017264001 0.053248987
0.10442867 -0.115975775 -0.03951547 -0.2156716 -0.055393167 -0.008660913 0.022743402 0.10318222
0.09673104 0.21435004 -0.017041218 -0.0755511 0.14212109 -0.34457967 -0.19640675 0.021726556
0.031270843 0.09982782 -0.0924921 0.030022545 -0.022616973 0.09621492 0.21871975 0.11504579
-0.1417734 -0.015284251 0.023649333 -0.02319203 0.061758526 -0.015990367 0.001083556 0.06892433
0.09813074 0.31272414 -0.06581135 0.06959441 0.18646628 -0.03182036 0.18019046 0.03491632
0.057971742 0.11627945 0.09850372 -0.10864407 0.032913953 0.14142989 0.062147424 0.014143498
-0.0644777 0.07057555 0.047716286 -0.0694206 0.27180368 -0.018498901 -0.007232753 -0.1177009
0.18217823 -0.09991083 -0.040041294 -0.080530316 -0.09787071 0.15956526 -0.1456965 -0.025222179
-0.11175334 -0.045012027 -0.10551005 -0.22374763 0.05096632 -0.042994343 -0.06512524 -0.041104432
0.08027603 -0.09619336 0.0071473666 0.21646786 -0.040058378 -0.08813907 -0.09691536 0.20985772
0.1788642 -0.10968372 0.16010344 0.2949968 0.036466807 0.0248955 0.03785048 -0.0037460225
0.03317172 -0.033865664 -0.25991875 0.13104905 -0.23027381 -0.038021244 -0.05998253 -0.02215572
0.12622447 0.18685593 0.14239934 0.092236325 0.11606091 0.08970852 0.064834565 0.07495929
-0.05240136 -0.3499759 -0.105470575 0.21944883 0.13369574 0.16621482 -0.09453847 -0.0069497987
-0.14209445 0.07397912 0.19832987 -0.027489055 0.010667682 0.030624807 -0.20015863 0.041857366
-0.007852878 -0.034185335 -0.0008126457 0.014713872 0.08799928 -0.10186687 0.1761519 0.14761458
0.06679725 -0.0020319847 0.12030232 0.07283646 0.101157576 0.017067036 0.019972589 0.098509885
-0.148998 -0.06805527 -0.16879797 -0.012861269 0.13737182 -0.102857456 -0.004325012 0.07914249
0.032315467 0.075029366 -0.026749179 -0.008821391 -0.032172635 0.15014368 0.03203424 0.16060862
-0.12704529 -0.02030182 0.104512304 -0.08415477 -0.05430206 0.08401245 -0.30108967 -0.1891207
0.14413613 -0.03681498 0.07464702 0.10016025 0.08016417 -0.22833496 0.20990056 0.20933676
00000000: daaa ee3d 3580 b23d 96f5 11bd 4dc5 cb3d
00000010: a3f1 12be 946e 593e 8fd5 a5bb b6bd b0bd
00000020: c749 183d 6b7d b73d a4c1 fa3c 1386 80be
00000030: 9c5a 583e 96ec 373d 1e63 1b3e e169 cabe
00000040: 50cf 743c 43c1 d13c 7783 833d e9c6 163d
00000050: c416 bd3d 1e35 a6bc a483 42bc 8428 83bb
00000060: 789e 8ebd c695 f43d 7ba6 953c c609 2fbd
00000070: efa8 a7be 7789 abbd acbd 84bd 7546 9a3b
00000080: b660 a9bd 87d5 cd3d ad4c 1dbe 500b 273e
00000090: bb07 643d 4c09 b13d 136d 60be 9ac8 b73b
000000a0: 384a c83d 2b6a 0cbe b091 8a3c 78ec 2b3e
000000b0: cf76 02bd cb7f 33bb c42a bd3d 9bad 74be
000000c0: 9187 26be f3b1 263e c9ff a0bc 40a0 95bd
000000d0: f721 e03c bcef 3abc f9df 00be 3492 f2bc
000000e0: a359 78be 69f3 b83d 7665 ed3c e851 abbd
000000f0: fc49 813e 2345 8a3e b643 9ebc cbc9 213d
00000100: cbdf c03b c6ff 17be dc0f 1a3e 9163 203d
00000110: cc43 40bc 3fa1 1ebe 7d30 acbd 284f 68bd
00000120: ceae ddbc ada9 5c3e f368 1abd acb4 3cbe
00000130: 301d 003e 433a 4b3d f115 213e 8e1a 88bc
00000140: e181 33be 3d2a 523e 8194 253d 0d6d 1e3d
00000150: cdd2 06be 1dea 18be 3c6d 8dbc 9c1b 5a3d
00000160: b3de d53d b584 edbd f9da 21bd 04d9 5cbe
00000170: f2e3 62bd 81e6 0dbc 5f50 ba3c 3351 d33d
00000180: ec1a c63d 947e 5b3e 069a 8bbc 89ba 9abd
00000190: 3188 113e bf6c b0be da1e 49be e4fb b13c
000001a0: db15 003d 8772 cc3d 806c bdbd d7f1 f53c
000001b0: 3b47 b9bc 540c c53d 12f8 5f3e 219d eb3d
000001c0: 0c2d 11be cc6a 7abc 3fbc c13c 36fd bdbc
000001d0: 82f6 7c3d 3bfe 82bc 1b06 8e3a 3328 8d3d
000001e0: c5f8 c83d 611d a03e 1ac8 86bd 8487 8e3d
000001f0: 04f1 3e3e 1156 02bd d983 383e 6a04 0f3d
00000200: c773 6d3d ec23 ee3d 51bc c93d c880 debd
00000210: c8d0 063d ffd2 103e 4c8e 7e3d 21ba 673c
00000220: e20c 84bd ea89 903d 2772 433d 632c 8ebd
00000230: da29 8b3e 028b 97bc bb00 edbb 2b0d f1bd
00000240: ee8c 3a3e 0d9e ccbd 5702 24bd 14ed a4bd
00000250: 7070 c8bd 1365 233e 7731 15be be9e cebc
00000260: efde e4bd 885e 38bd a715 d8bd 191e 65be
00000270: 0fc2 503d d61a 30bd 6260 85bd 1f5d 28bd
00000280: c267 a43d 0601 c5bd 7534 ea3b c0a9 5d3e
00000290: 4114 24bd 4282 b4bd 8f7b c6bd f1e4 563e
000002a0: 2d28 373e dca1 e0bd 28f2 233e d209 973e
000002b0: 385e 153d a6f1 cb3c 1b09 1b3d d47f 75bb
000002c0: 12df 073d b9b6 0abd 1214 85be b931 063e
000002d0: e6cc 6bbe 2abc 1bbd 3eb0 75bd ea7f b5bc
000002e0: fd40 013e 2957 3f3e 22d1 113e 66e6 bc3d
000002f0: 58b1 ed3d 1ab9 b73d fcc7 843d 4284 993d
00000300: cfa2 56bd 0b30 b3be f500 d8bd 32b7 603e
00000310: 89e7 083e 3834 2a3e 639d c1bd 23bb e3bb
00000320: 3581 11be 5d82 973d fc16 4b3e ba30 e1bc
00000330: 80c7 2e3c e0e0 fa3c 62f6 4cbe a172 2b3d
00000340: 5ca9 00bc ec05 0cbd bb07 55ba 7412 713c
00000350: f738 b43d 949f d0bd 2a61 343e 4728 173e
00000360: ffcc 883d 0c2b 05bb 1061 f63d 482b 953d
00000370: b42b cf3d 2bd0 8b3c 8e9d a33c 8dbf c93d
00000380: ef92 18be 9060 8bbd 60d9 2cbe 12b8 52bc
00000390: 33ab 0c3e eea6 d2bd d5b8 8dbb 7515 a23d
000003a0: 395d 043d ffa8 993d 1821 dbbc 9887 10bc
000003b0: 74c7 03bd 44bf 193e 5636 033d 9676 243e
000003c0: 2918 02be 0150 a6bc 8c0a d63d 5659 acbd
000003d0: d66b 5ebd b80e ac3d 6d28 9abe dba8 41be
000003e0: 6c98 133e 4ecb 16bd 89e0 983d d120 cd3d
000003f0: 1d2d a43d a4d0 69be 2cf0 563e 605c 563e

action_model._discrete_distribution.branches.1.bias f4 [3]
-0.04138054 0.052459456 -0.008376903
00000000: a47e 29bd badf 563d 473f 09bc

action_model._discrete_distribution.branches.1.weight f4 [3, 256]
-0.031047413 -0.04358224 -0.101468645 0.3520845 -0.02035759 -0.42036924 -0.032445595 -0.115333885
0.04309734 0.1264322 0.13521713 -0.13734907 -0.01523468 -0.10358789 0.33973527 0.034931373
-0.088475734 0.060609188 -0.20152143 0.13962206 -0.17401434 0.008803802 0.058525022 0.23134495
0.038681354 0.064285 0.12825495 -0.2540729 -0.47374815 0.06737748 -0.063293874 -0.048054755
-0.09844606 -0.0025764168 -0.09676949 -0.1303261 0.16996248 0.09760482 0.094660394 -0.09653587
-0.05240263 0.116242506 0.00067107135 -0.25939742 0.13672052 -0.0071329437 0.05059942 -0.046965126
-0.04013981 -0.07970642 0.10191981 0.064396776 0.05994796 0.15328375 0.20523539 -0.12850617
-0.10145954 -0.022207415 0.080160275 0.12317994 0.039750256 0.051196806 0.010642823 -0.19445914
0.081412725 0.10250201 -0.094543695 0.11980224 0.01844533 -0.11303683 0.089043126 -0.27175778
0.13699116 -0.26334602 -0.14796573 0.13602194 0.30555457 0.08437296 0.090873554 -0.09288887
-0.08893152 0.08862054 0.11855574 -0.37634194 0.006688161 -0.092366144 0.028486194 0.040071905
0.08938818 0.03217843 0.033898722 0.0034020517 -0.054425545 -0.11542304 0.26435962 0.03637495
-0.09826185 -0.19320263 -0.16698168 -0.24072048 -0.33164755 0.1022758 -0.15354013 0.032683257
0.109393306 0.020323047 -0.10711609 -0.20132335 -0.1828999 0.09239716 -0.13964494 -0.11778027
0.0065474925 0.050270453 0.14762862 0.039849713 0.1369902 -0.1038032 -0.04364036 -0.04926273
-0.028799132 -0.01711878 0.03931784 0.036314286 0.010517623 0.10885488 0.081480555 0.18072021
-0.21639921 -0.13784042 0.03845067 0.2724757 0.021552721 0.12190759 -0.15644737 -0.16556917
0.31758553 0.067518316 0.09855926 0.09184525 0.11067651 -0.29841298 0.032475427 0.31063756
0.0022720878 -0.028382642 -0.049685683 -0.07020878 0.060079392 -0.06837027 0.026368158 0.21503446
-0.06369946 0.033750366 -0.13009134 -0.1951818 0.12605183 0.066644624 0.23408817 0.19584103
-0.08319602 0.03592663 0.23489259 0.061663035 0.19283982 -0.033377837 -0.079863824 -0.10134345
0.39890736 0.03865563 -0.07196867 -0.20443732 0.3164379 -0.085739344 0.045333494 -0.28216416
0.29389572 -0.23461165 -0.03663959 0.037308566 0.09109029 0.021969605 0.119196475 -0.21810988
-0.046570707 0.083211884 0.00011781599 -0.04958172 0.106085815 0.08232689 -0.04424403 -0.035221443
0.068874955 -0.22946121 0.014495437 -0.0004031121 -0.008926311 -0.1327391 -0.13297297 0.0010207312
-0.01512718 -0.111981295 -0.20856808 -0.03419344 0.055196255 0.06744166 0.23260209 -0.3272168
-0.07314044 -0.06103068 0.14696255 -0.11529625 -0.15106449 0.055144712 0.1322747 0.17551921
-0.010413026 -0.04602865 0.04576822 0.03423255 -0.08918132 0.21208958 0.041288994 -0.05611804
-0.09455088 0.011874114 -0.46876392 -0.10695922 -0.19542678 0.013805189 0.01453204 0.048219953
0.045965355 -0.024879007 0.18667346 -0.03954512 0.022778854 -0.11876932 -0.12447162 0.08472982
0.02626815 0.12169465 0.18508363 0.032237988 0.018834824 0.18686764 0.16098888 0.00013184214
-0.0074843164 -0.087235846 0.08073874 0.21097429 -0.1354459 0.02778702 0.29115498 0.102687195
00000000: 2557 febc 4a83 32bd cbce cfbd 6b44 b43e
00000010: f6c4 a6bc a33a d7be ace5 04bd 2c34 ecbd
00000020: d686 303d 7177 013e 5c76 0a3e 3ca5 0cbe
00000030: e19a 79bc e325 d4bd c8f1 ad3e 3314 0f3d
00000040: c432 b5bd 5741 783d a25b 4ebe 16f9 0e3e
00000050: d130 32be d23d 103c efb7 6f3d b1e5 6c3e
00000060: 5770 1e3d dba7 833d 4455 033e d815 82be
00000070: 1e8f f2be 34fd 893d 38a0 81bd 10d5 44bd
00000080: 179e c9bd 1ad9 28bb 152f c6bd 3574 05be
00000090: a50a 2e3e 09e5 c73d 4fdd c13d 99b4 c5bd
000000a0: 24a4 56bd 8d10 ee3d d6ea 2f3a bdcf 84be
000000b0: 7700 0c3e 78bb e9bb 5641 4f3d 815e 40bd
000000c0: a469 24bd 1f3d a3bd 55bb d03d 75e2 833d
000000d0: fe8b 753d 6af6 1c3e 3a29 523e 1f97 03be
000000e0: 05ca cfbd 53ec b5bc 122b a43d c445 fc3d
000000f0: 2ad1 223d beb3 513d 3c5f 2e3c 4c20 47be
00000100: b7bb a63d 93ec d13d 20a0 c1bd e05a f53d
00000110: a91a 973c db7f e7bd 3e5c b63d d623 8bbe
00000120: 6947 0c3e 4ad5 86be 5484 17be 5649 0b3e
00000130: a671 9c3e bbcb ac3d ea1b ba3d 853c bebd
00000140: bb21 b6bd b07e b53d 5acd f23d e4af c0be
00000150: 5c28 db3b 762a bdbd e15b e93c 7022 243d
00000160: 2611 b73d 88cd 033d 63d9 0a3d f5f4 5e3b
00000170: 52ed 5ebd ea62 ecbd 255a 873e e6fd 143d
00000180: 823d c9bd e9d6 45be 3ffd 2abe 6e7f 76be
00000190: b5cd a9be fa75 d13d a039 1dbe e1de 053d
000001a0: 9909 e03d 857c a63c ae5f dbbd b527 4ebe
000001b0: 1d4a 3bbe b93a bd3d 15ff 0ebe c836 f1bd
000001c0: 598c d63b 64e8 4d3d f52b 173e 7439 233d
000001d0: 2947 0c3e c696 d4bd 3cc0 32bd b7c7 49bd
000001e0: 28ec ebbc af3c 8cbc be0b 213d 4abe 143d
000001f0: 1c52 2c3c 4fef de3d 47df a63d b80e 393e
00000200: c197 5dbe 0a26 0dbe 737e 1d3d ef81 8b3e
00000210: 558f b03c b0aa f93d bd33 20be f78a 29be
00000220: 929a a23e 0b47 8a3d 70d9 c93d 5d19 bc3d
00000230: 5eaa e23d 96c9 98be f404 053d e30b 9f3e
00000240: 4fe7 143b b782 e8bc 3783 4bbd 9fc9 8fbd
00000250: cf15 763d b605 8cbd 0902 d83c fe31 5c3e
00000260: dd74 82bd d33d 0a3d aa36 05be bddd 47be
00000270: bb13 013e fa7c 883d cfb4 6f3e 8d8a 483e
00000280: ad62 aabd cd27 133d af87 703e 6192 7c3d
00000290: cd77 453e 33b7 08bd a58f a3bd 288d cfbd
000002a0: 963d cc3e 5e55 1e3d 4f64 93bd 0458 51be
000002b0: 2604 a23e 1c98 afbd 9daf 393d d277 90be
000002c0: 8079 963e 093e 70be 6513 16bd ded0 183d
000002d0: 8c8d ba3d 9af9 b33c 481d f43d 3258 5fbe
000002e0: edc0 3ebd fe6a aa3d fa13 f738 3416 4bbd
000002f0: 8543 d93d 009b a83d 3a39 35bd 5c44 10bd
00000300: 500e 8d3d e1f7 6abe 457e 6d3c ca58 d3b9
00000310: a93f 12bc c2ec 07be 112a 08be 0eca 853a
00000320: fed7 77bc 7356 e5bd df92 55be 6c0e 0cbd
00000330: 7815 623d da1e 8a3d 3e2f 6e3e f688 a7be
00000340: a8ca 95bd 4efb 79bd 5a7d 163e 7120 ecbd
00000350: a6b0 1abe 6cdf 613d 0573 073e 4fbb 333e
00000360: 669b 2abc 8a88 3cbd 7577 3b3d 6e37 0c3d
00000370: b2a4 b6bd 032e 593e a61e 293d 08dc 65bd
00000380: e4a3 c1bd a58b 423c d301 f0be 6f0d dbbd
00000390: f51d 48be 292f 623c cb17 6e3c 4982 453d
000003a0: 2b46 3c3d 0fcf cbbc 5427 3f3e 10fa 21bd
000003b0: b89a ba3c 543d f3bd faea febd d486 ad3d
000003c0: 4e30 d73c 0b3b f93d 9086 3d3e fb0b 043d
000003d0: 7d4b 9a3c 3b5a 3f3e 45da 243e 1b3f 0a39
000003e0: ff3e f5bb b5a8 b2bd 5a5a a53d a509 583e
000003f0: 54b2 0abe 9ba1 e33c 4412 953e aa4d d23d

discrete_action_output_shape f4 [1, 2]
3.0 3.0
00000000: 0000 4040 0000 4040

network_body._body_endoder.seq_layers.0.bias f4 [256]
-0.21584366 -0.2046668 -0.18964507 -0.02167229 -0.23953828 0.026710154 -0.1870436 -0.057073038
-0.217867 -0.059084702 0.08065938 0.0502472 -0.3414012 0.08750118 -0.05732534 0.11667107
-0.18734492 0.09439708 -0.13888365 -0.21317504 -0.2348375 -0.15067168 0.059206463 0.0016603767
-0.17123756 -0.2723749 -0.10741661 0.0047414973 0.13259733 -0.32392186 -0.13271311 0.15887931
-0.16211249 -0.11678833 -0.19975184 -0.16147093 -0.10093827 -0.20482211 0.24256061 -0.113371864
-0.116850495 0.23306943 -0.04079369 0.00029941773 -0.040820535 -0.04501776 0.11829693 -0.2093189
0.11201369 0.22798254 -0.2105947 -0.1878624 -0.07095497 -0.08371202 0.14313853 -0.08461709
-0.014330908 -0.21824212 -0.17419603 -0.1628518 -0.17654458 0.03642337 -0.003158258 -0.18500596
-0.14851522 0.05871412 0.22340608 0.033092257 -0.047768027 -0.1276159 0.059671506 -0.1152766
-0.112949274 -0.10757577 -0.065020904 -0.10261973 -0.2065535 0.11317799 -0.20397088 -0.05434076
0.010061505 -0.12663765 -0.16880307 -0.04510596 -0.3001769 -0.086671844 -0.057928897 -0.27390164
-0.27933025 0.2778964 -0.08480591 -0.14745227 -0.18900615 -0.33995572 -0.2842274 -0.2476877
-0.08199063 -0.1001099 -0.10837413 -0.14308612 -0.006649774 0.043311816 -0.2168201 -0.0050219367
-0.17659858 -0.10814198 -0.17210066 -0.008078402 -0.18998046 -0.24777722 -0.13144854 -0.011241382
0.017959956 -0.23142797 -0.30462074 -0.050419394 -0.34546652 -0.05633249 0.061534114 -0.1444893
-0.23531829 -0.12592174 -0.121437356 -0.15104407 -0.15299378 -0.4490049 -0.050835315 -0.099806525
-0.05886529 -0.4984831 -0.11222171 -0.06519957 -0.306657 -0.098698504 -0.1721185 -0.079756
-0.29674757 0.4235254 -0.20705807 -0.07822139 -0.16214673 -0.11642805 -0.09748766 0.016844427
-0.10959529 -0.11585534 -0.1763259 -0.36851472 -0.3669946 0.20319235 -0.12680665 0.06895048
-0.15359806 -0.25777757 -0.15133707 0.05026986 -0.09091035 -0.2465968 -0.18792209 -0.11282328
-0.22340232 -0.10990032 -0.22731242 -0.27602735 -0.08560386 -0.2741021 -0.15611543 -0.14801848
-0.08278125 0.05021159 -0.37520877 -0.22074723 -0.061069004 -0.14474665 -0.19356957 -0.21935463
-0.010624795 -0.19827682 0.17043471 0.06636738 -0.10800906 -0.3487241 -0.13098921 -0.21291287
0.22639976 -0.33569196 -0.21887621 -0.10247351 -0.32173505 -0.12401352 -0.09751429 -0.20346995
-0.19860849 -0.18389697 -0.025525406 -0.088903084 -0.07291725 -0.04956583 0.106906295 0.0466461
-0.1701188 -0.24792016 0.1576107 0.013574022 -0.14645813 -0.052987523 -0.05648358 -0.10937464
-0.24287851 -0.021685038 -0.19313747 -0.07257269 0.036498535 -0.15683076 0.020282645 0.05870595
-0.07574162 0.027246475 -0.39180326 -0.14203767 0.08627275 -0.0367083 -0.043658886 -0.18419716
-0.021273784 -0.15875039 -0.05324524 -0.23107292 -0.15947926 0.020734672 0.1819726 -0.08195067
-0.1204602 -0.47630316 -0.118860334 -0.25035313 -0.08234449 -0.14234324 -0.14066735 -0.0005681911
-0.11943756 -0.1798472 -0.15342773 -0.061852086 -0.08173091 -0.22447124 -0.07440775 0.15806109
0.00028556955 -0.0076494613 -0.2649263 0.10402137 -0.18792836 -0.01672541 -0.28929803 -0.11927769
00000000: 1f06 5dbe 2c94 51be 5132 42be 168a b1bc
00000010: 8649 75be 41cf da3c 5c88 3fbe 6bc5 69bd
00000020: 8718 5fbe cd02 72bd bf30 a53d 02d0 4d3d
00000030: 23cc aebe d233 b33d facd 6abd 3ef1 ee3d
00000040: 59d7 3fbe 4253 c13d 8437 0ebe 8f4a 5abe
00000050: 3e79 70be ad49 1abe 7a82 723d ffa0 d93a
00000060: e658 2fbe b974 8bbe 3dfd dbbd 905e 9b3b
00000070: 98c7 073e 16d9 a5be f2e5 07be 42b1 223e
00000080: d100 26be b82e efbd bf8b 4cbe a358 25be
00000090: b9b8 cebd e3bc 51be cf61 783e 822f e8bd
000000a0: 504f efbd c1a9 6e3e 4917 27bd 2bfb 9c39
000000b0: 6f33 27bd 8b64 38bd a945 f23d b257 56be
000000c0: 6f67 e53d 4174 693e 23a6 57be 005f 40be
000000d0: d750 91bd 3571 abbd e892 123e ba4b adbd
000000e0: 2fcc 6abc dd7a 5fbe 7260 32be 9fc2 26be
000000f0: 1ac8 34be ac30 153d c7fa 4ebb 3472 3dbe
00000100: 6014 18be 387e 703d 90c4 643e bf8b 073d
00000110: 68a8 43bd bead 02be 1c6a 743d 2316 ecbd
00000120: f351 e7bd af50 dcbd ae29 85bd 4b2a d2bd
00000130: c382 53be ddc9 e73d bedd 50be 6b94 5ebd
00000140: 03d9 243c 4dad 01be b6da 2cbe 07c1 38bd
00000150: c9b0 99be 0281 b1bd da46 6dbd d63c 8cbe
00000160: 6004 8fbe 7048 8e3e b9ae adbd bafd 16be
00000170: d48a 41be ad0e aebe 4186 91be d8a1 7dbe
00000180: b4ea a7bd 6b06 cdbd 42f3 ddbd 2b85 12be
00000190: 59e6 d9bb bb67 313d 1706 5ebe 0f8f a4bb
000001a0: 42d6 34be 8b79 ddbd 283b 30be 465b 04bc
000001b0: 3d8a 42be 50b9 7dbe 729a 06be c62d 38bc
000001c0: c220 933c 74fb 6cbe 40f7 9bbe 9184 4ebd
000001d0: fde0 b0be e6bc 66bd 320b 7c3d 01f5 13be
000001e0: 47f7 70be a1f1 00be 26b4 f8bd 4cab 1abe
000001f0: 67aa 1cbe f8e3 e5be b138 50bd 5d67 ccbd
00000200: bb1c 71bd 2d39 ffbe 7fd4 e5bd 5a87 85bd
00000210: 2502 9dbe 7122 cabd d53f 30be 1d57 a3bd
00000220: 4cef 97be 52d8 d83e 0807 54be 8932 a0bd
00000230: cb09 26be d471 eebd 9ca7 c7bd 53fd 893c
00000240: 7f73 e0bd 9145 edbd c78e 34be f6ad bcbe
00000250: b7e6 bbbe a811 503e 9ad9 01be e935 8d3d
00000260: cf48 1dbe 6cfb 83be 1bf8 1abe c5e7 4d3d
00000270: 352f babd df83 7cbe a66e 40be e40f e7bd
00000280: 94c3 64be 6b13 e1bd 96c4 68be 7553 8dbe
00000290: 1451 afbd 1c57 8cbe b9dc 1fbe 2892 17be
000002a0: 3789 a9bd abaa 4d3d 5d1b c0be 900b 62be
000002b0: 7e23 7abd 7738 14be 1a37 46be 809e 60be
000002c0: 9f13 2ebc 1409 4bbe 7086 2e3e 9feb 873d
000002d0: db33 ddbd f78b b2be 0922 06be d505 5abe
000002e0: 57d5 673e d1df abbe 1621 60be a2dd d1bd
000002f0: 75ba a4be cdfa fdbd 92b5 c7bd 6d5a 50be
00000300: 0660 4bbe 7d4f 3cbe a81a d1bc d212 b6bd
00000310: a455 95bd 8a05 4bbd b0f1 da3d fb0f 3f3d
00000320: 9f33 2ebe c8de 7dbe b364 213e 9365 5e3c
00000330: 1ff9 15be 7209 59bd 545b 67bd d0ff dfbd
00000340: 25b5 78be d2a4 b1bc d4c5 45be fea0 94bd
00000350: 7d7f 153d 3e98 20be ca27 a63c a675 703d
00000360: 6c1e 9bbd 0034 df3c 709a c8be 5372 11be
00000370: c4af b03d 715b 16bd a9d3 32bd 2e9e 3cbe
00000380: 5c46 aebc 768f 22be ae17 5abd 619e 6cbe
00000390: 884e 23be c2db a93c 0657 3a3e c1d5 a7bd
000003a0: d6b3 f6bd 02de f3be 0c6d f3bd 492e 80be
000003b0: 3aa4 a8bd 6dc2 11be 1a0b 10be a9f2 14ba
000003c0: ae9b f4bd dd29 38be 291c 1dbe 9d58 7dbd
000003d0: 8962 a7bd cadb 65be 1763 98bd c4da 213e
000003e0: 7fb8 9539 55a8 fabb 6ca4 87be 2809 d53d
000003f0: 4b70 40be ba03 89bc df1e 94be dd47 f4bd

network_body._body_endoder.seq_layers.0.weight f4 [256, 99]
-0.29784843 -0.21451321 0.17622003 0.27219692 -0.4977242 -0.42069453 -0.1518817 0.006021969
0.36430266 -0.062119838 -0.5770407 -0.48149565 0.08097577 -0.086690195 -0.3093843 0.033326164
0.04162984 0.03529281 -0.15555477 -0.2681083 -0.4787126 -0.5752251 0.036750212 0.45019978
-0.23797522 -0.33168644 0.2615529 -0.04192179 0.024277894 -0.07935043 -0.69755286 -0.11272376
0.06768361 0.6052456 -0.22340389 -0.03708606 0.03562213 0.2358796 0.09476967 -0.4154123
-0.38813084 -0.27919585 0.23972231 -0.25502244 -0.6154256 -0.0869117 -0.42001548 0.22408439
0.053016614 0.02355514 -0.33738026 -0.5177221 0.17599195 -0.010317975 -0.6139845 -0.4795703
-0.1637401 0.2120904 -0.015631402 -0.28091857 0.06918137 -0.43921867 0.02916392 0.07588906
-0.14360644 -0.6511719 0.13162881 0.2780135 0.024184445 -0.34909624 -0.052468453 -0.022815289
0.20855564 0.103686176 -0.3653338 -0.2590313 0.32091162 -0.06121569 -0.02198224 -0.2000451
0.007868518 -0.16964437 -0.14090732 -0.13247514 -0.21258819 -0.24388565 0.5666979 -0.24109599
0.014582327 -0.4074863 -0.10964208 0.13161379 -0.08202416 0.09042062 -0.33238995 -0.20034471
-0.19483145 -0.35458842 0.010336938 -0.43314457 -0.19221619 -0.07329566 0.06776459 -0.03256987
0.03647568 -0.42645526 0.028024703 0.11630398 -0.1572301 -0.19737683 -0.016130714 -0.2406919
0.08005795 -0.12694246 -0.11167995 -0.1632481 -0.09658877 0.032855894 -0.012504941 -0.20591827
-0.1999482 -0.051398344 -0.14856134 -0.28739926 -0.24496794 0.24093753 0.009064055 -0.06705811
-0.030693898 -0.2926335 -0.082274966 -0.19155933 -0.49338531 -0.2146554 -0.24289295 0.22213086
0.0012785491 -0.38833195 -0.14297864 -0.35980737 0.18069804 -0.08171348 0.08675579 -0.36672094
-0.3545696 -0.22902493 0.028870504 0.3752219 0.22360468 0.25111586 -0.08981737 0.0060000923
0.16268356 -0.19156717 -0.14086072 0.120726824 -0.046101935 0.007800746 -0.09951592 -0.11504459
-0.12739749 -0.00502856 0.29953408 0.05617832 -0.4488396 0.6295965 -0.19295461 -0.11143888
-0.16530451 0.014435755 -0.0016044416 0.48036653 0.09240357 -0.034534585 -0.1380572 -0.2993941
-0.027661478 -0.14382996 -0.18085024 -0.227782 0.28860793 -0.098073244 -0.06737279 -0.22680879
0.013995395 -0.533893 -0.07544108 -0.20728439 -0.28109968 0.1452772 0.24796943 -0.44324067
0.17573611 -0.13717541 -0.14277264 -0.23756686 -0.11270044 -0.020699024 -0.37833396 0.1582708
0.05080346 -0.015443627 -0.27651307 -0.38597685 0.14074187 0.2198618 0.22347033 -0.0502258
-0.40807846 -0.007813507 -0.06723646 -0.015491721 -0.2858996 -0.447857 0.1454529 0.06570638
0.36693427 -0.39937377 -0.18310474 -0.14231533 0.18680257 0.16971812 -0.07071497 -0.29663572
-0.1657053 0.09392061 0.045436345 -0.27420884 -0.21045384 0.046505336 0.07504222 -0.006959078
-0.2633729 -0.3326914 -0.24112397 0.20964222 0.3590113 -0.1464849 -0.17188396 -0.21484172
0.19037054 0.22770542 -0.17441468 -0.14642572 -0.047190405 0.20750055 0.14692177 -0.301313
-0.22092426 -0.18406862 -0.08836212 0.20619234 -0.09940476 -0.41112673 0.08173687 0.29905903
00000000: 977f 98be 5aa9 5bbe 0673 343e 655d 8b3e
00000010: b5d5 febe 4665 d7be e086 1bbe f053 c53b
00000020: e185 ba3e 5f71 7ebd f0b8 13bf 9986 f6be
00000030: a0d6 a53d a18a b1bd 9e67 9ebe 0481 083d
00000040: 0d84 2a3d 328f 103d c049 1fbe 7e45 89be
00000050: d119 f5be f441 13bf 6487 163d 9680 e63e
00000060: c7af 73be ced2 a9be 43ea 853e 2fb6 2bbd
00000070: 6fe2 c63c 7a82 a2bd d392 32bf b7db e6bd
00000080: b49d 8a3d 60f1 1a3f fdc3 64be 8de7 17bd
00000090: 83e8 113d 6c8a 713e 9a16 c23d ecb0 d4be
000000a0: 16b9 c6be c2f2 8ebe c479 753e 4d92 82be
000000b0: 888c 1dbf c3fe b1bd 450c d7be 6176 653e
000000c0: f327 593d b5f6 c03c 1bbd acbe 6f89 04bf
000000d0: 3c37 343e b90c 29bc 172e 1dbf 3d8a f5be
000000e0: 7cab 27be 3a2e 593e 6d0d 80bc 8fd4 8fbe
000000f0: f6ae 8d3d 45e1 e0be 2ce9 ee3c b96b 9b3d
00000100: 910d 13be 34b3 26bf b4c9 063e c957 8e3e
00000110: 751e c63c bebc b2be 29e9 56bd 21e7 babc
00000120: 9c8f 553e 6b59 d43d 080d bbbe c09f 84be
00000130: 874e a43e 4ebd 7abd 1914 b4bc 9fd8 4cbe
00000140: f5ea 003c 41b7 2dbe 024a 10be 90a7 07be
00000150: b8b0 59be 29bd 79be 1d13 113f dee1 76be
00000160: b6ea 6e3c 0ba2 d0be 078c e0bd c4c5 063e
00000170: 48fc a7bd 722e b93d 042f aabe 2a27 4dbe
00000180: e581 47be 9d8c b5be 435c 293c 20c5 ddbe
00000190: 52d4 44be 091c 96bd 29c8 8a3d fc67 05bd
000001a0: 8667 153d 5858 dabe 1094 e53c c830 ee3d
000001b0: ed00 21be 271d 4abe 8f24 84bc f077 76be
000001c0: 6cf5 a33d 34fd 01be 75b8 e4bd 832a 27be
000001d0: 55d0 c5bd e793 063d 86e1 4cbc 3ddc 52be
000001e0: 39bf 4cbe 1287 52bd 7720 18be ff25 93be
000001f0: e0d8 7abe 54b8 763e 6781 143c c355 89bd
00000200: c571 fbbc 0fd4 95be c77f a8bd 2128 44be
00000210: 009d fcbe a0ce 5bbe eeb8 78be 4676 633e
00000220: fd94 a73a 72d3 c6be fe68 12be ac38 b8be
00000230: e808 393e 6659 a7bd 05ad b13d d9c2 bbbe
00000240: 268a b5be 8385 6abe d681 ec3c 161d c03e
00000250: a0f8 643e 4292 803e 2bf2 b7bd 6c9c c43b
00000260: 8596 263e 2f2a 44be cb3d 10be a03f f73d
00000270: 62d5 3cbd 669d ff3b 01cf cbbd 7f9c ebbd
00000280: 7d74 02be 9ec6 a4bb 885c 993e 3d1b 663d
00000290: 4ece e5be 3c2d 213f e595 45be 113a e4bd
000002a0: 9645 29be f283 6c3c 204c d2ba 9af2 f53e
000002b0: 153e bd3d 2374 0dbd de5e 0dbe 2f4a 99be
000002c0: 539a e2bc 2948 13be ce30 39be af3f 69be
000002d0: 6bc4 933e a0da c8bd bffa 89bd 9040 68be
000002e0: f14c 653c 36ad 08bf da80 9abd 5c42 54be
000002f0: 4cec 8fbe 8cc3 143e b3eb 7d3e 71f0 e2be
00000300: 2bf4 333e b677 0cbe fe32 12be ba44 73be
00000310: 7dcf e6bd 0091 a9bc fdb4 c1be be11 223e
00000320: 4a17 503d 4407 7dbc 1f93 8dbe c29e c5be
00000330: a31e 103e 7423 613e 68d5 643e 92b9 4dbd
00000340: a9ef d0be 3904 00bc 45b3 89bd fdd0 7dbc
00000350: 6f61 92be 834d e5be 9bf1 143e 1191 863d
00000360: cfde bb3e b87a ccbe cf7f 3bbe 1cbb 11be
00000370: 2c49 3f3e 96ca 2d3e 03d3 90bd a3e0 97be
00000380: a6ae 29be 7359 c03d 761b 3a3d 1a65 8cbe
00000390: 3681 57be 617c 3e3d bcaf 993d fa08 e4bb
000003a0: d0d8 86be 8756 aabe 34e9 76be 73ac 563e
000003b0: 54d0 b73e 2300 16be 5902 30be 78ff 5bbe
000003c0: 7ff0 423e 9c2b 693e c399 32be a0f0 15be
000003d0: ba4a 41bd 067b 543e a972 163e b345 9abe
000003e0: f839 62be 7c7c 3cbe 33f7 b4bd 1624 533e
000003f0: b994 cbbd 347f d2be a965 a73d 441e 993e

network_body._body_endoder.seq_layers.2.bias f4 [256]
0.05820953 -0.28764638 -0.15988858 -0.38888782 0.4420605 -0.17741725 -0.084100775 0.104642324
-0.12163701 -0.17007086 -0.16935006 -0.33436906 -0.18330228 0.07346748 -0.2170238 -0.12185769
-0.3187009 -0.22397783 -0.25432453 -0.20222569 -0.4316015 -0.093231544 -0.0050901007 -0.25647274
-0.28293964 -0.13452403 -0.049934167 -0.33267757 -0.23690665 -0.3639725 -0.10786021 -0.1372468
-0.19678567 -0.22678328 -0.33679008 -0.2883938 -0.42516258 -0.005325514 0.052220657 -0.19308288
-0.36107296 -0.34612516 -0.006654642 -0.120266184 -0.27058798 -0.2042065 -0.09104727 -0.15287822
-0.4140952 -0.6452218 -0.30055064 -0.24923761 -0.16419157 -0.083177164 -0.22152993 -0.26052296
-0.15884806 -0.17169495 -0.34968948 -0.18860453 -0.2885022 -0.18222368 -0.2125636 -0.10328975
-0.394716 -0.1595139 -0.014987309 -0.036051173 -0.22563739 -0.37416533 -0.0935776 -0.14936018
-0.017174657 -0.18107189 -0.5507689 -0.22610494 -0.15173818 -0.13477673 -0.5056318 -0.0805536
-0.39897725 0.07101033 -0.1151289 -0.32844418 -0.28319606 -0.17864245 -0.07345623 -0.15796064
-0.1333906 -0.22150317 -0.35075787 -0.25440004 -0.19136551 -0.31661943 -0.07253975 -0.13756496
-0.21663733 -0.4390485 -0.42561212 -0.35693592 -0.13254964 -0.17969275 -0.23558734 -0.18563873
-0.17545861 -0.37331894 -0.1103596 -0.2734237 -0.34631303 -0.24192433 -0.19022898 -0.29056245
-0.30440333 -0.1683861 -0.4301462 -0.14341088 -0.20647867 0.053885557 -0.17947324 -0.10279448
-0.102968745 0.1389064 -0.10006745 -0.16087472 -0.13929163 -0.2322322 -0.29583454 -0.073736206
-0.16135126 0.2868085 -0.13004439 -0.21511565 -0.1690514 -0.44918293 -0.080140285 -0.1841178
-0.39563164 -0.33270484 -0.13726206 -0.48554593 -0.37153694 -0.10252934 -0.23421334 -0.048727695
-0.42094836 -0.30760956 -0.0267163 -0.18355402 -0.2736625 -0.25407115 -0.17794597 -0.17562951
-0.23767568 -0.28450444 -0.14145333 -0.3162509 -0.29523352 0.48686367 -0.23154767 -0.086974956
-0.20959824 -0.053475503 -0.30858126 -0.09677614 -0.27436963 -0.2373923 -0.2897053 0.20506026
-0.261621 -0.35407156 -0.2992521 -0.059538208 -0.28687614 -0.17494558 -0.24408697 -0.24939762
-0.08659631 -0.42701775 -0.14106534 -0.15464686 -0.17502739 -0.3064004 -0.17079757 0.23319161
-0.1555089 -0.17816645 -0.24927403 -0.17604615 -0.11229613 -0.16766901 -0.3117201 -0.10755312
-0.26342556 0.07126711 -0.417697 -0.08776236 0.03167637 -0.18262935 -0.17216358 -0.5097165
-0.15564014 -0.22516459 -0.35979968 -0.03309272 -0.11746274 -0.054494668 -0.17051317 0.54205734
-0.17827153 -0.13350455 -0.122801766 -0.20783888 -0.17970078 -0.04467629 -0.26090035 -0.3774574
-0.4046563 -0.12918052 -0.24058187 -0.23100121 -0.1664082 -0.084173 -0.1419316 -0.24752407
-0.21597873 -0.13175757 -0.30405992 -0.21910615 -0.32671407 -0.2138768 -0.31636673 -0.34056574
-0.44872284 -0.2639106 -0.14750497 -0.12048933 -0.18009907 -0.16297723 -0.3633275 -0.3170854
-0.117684856 -0.19186522 -0.20607685 -0.4777961 -0.25946602 -0.2573701 -0.09187552 0.44578844
-0.27404422 -0.18198279 -0.30169898 -0.32438716 -0.17929494 -0.25160933 -0.076453865 -0.14915867
00000000: 1e6d 6e3d 6346 93be d5b9 23be 4e1c c7be
00000010: c155 e23e deac 35be 073d acbd b74e d63d
00000020: d31c f9bd 0e27 2ebe 1a6a 2dbe 6c32 abbe
00000030: 98b3 3bbe 1e76 963d 7d3b 5ebe 8690 f9bd
00000040: c42c a3be 725a 65be d336 82be 4014 4fbe
00000050: dffa dcbe 2ef0 bebd dcca a6bb 6550 83be
00000060: 77dd 90be abc0 09be c587 4cbd b754 aabe
00000070: a897 72be 9b5a babe d0e5 dcbd 6d8a 0cbe
00000080: 2f82 49be e039 68be c06f acbe 5aa8 93be
00000090: e9ae d9be a681 aebb 54e5 553d 85b7 45be
000000a0: 8ede b8be 5137 b1be 2f0f dabb 1e4e f6bd
000000b0: 828a 8abe 821b 51be fe76 babd 1c8c 1cbe
000000c0: 4904 d4be 422d 25bf c6e1 99be 2538 7fbe
000000d0: d621 28be ca58 aabd bed8 62be 4463 85be
000000e0: 11a9 22be cdd0 2fbe 800a b3be 8c21 41be
000000f0: 8fb6 93be d898 3abe 46aa 59be 9489 d3bd
00000100: 3718 cabe 9d57 23be 558d 75bc 65aa 13bd
00000110: 7d0d 67be 9992 bfbe 9da5 bfbd e0f1 18be
00000120: deb1 8cbc e96a 39be 31ff 0cbf 0e88 67be
00000130: 4161 1bbe e902 0abe 1671 01bf 49f9 a4bd
00000140: bf46 ccbe dd6d 913d b3c8 ebbd d629 a8be
00000150: 13ff 90be 0cee 36be 3870 96bd 6fc0 21be
00000160: 8c97 08be bad1 62be 8996 b3be b940 82be
00000170: 52f5 43be f11b a2be b88f 94bd d4dd 0cbe
00000180: 2dd6 5dbe f7ca e0be d5e9 d9be 4ec0 b6be
00000190: 18bb 07be 6001 38be cf3d 71be 1418 3ebe
000001a0: 6cab 33be a923 bfbe 3704 e2bd 31fe 8bbe
000001b0: f14f b1be 03bb 77be 63cb 42be 9ac4 94be
000001c0: c1da 9bbe 686d 2cbe 1f3c dcbe 4dda 12be
000001d0: 256f 53be 1ab7 5c3d d5c7 37be ea85 d2bd
000001e0: 47e1 d2bd 7b3d 0e3e 2af0 ccbd 58bc 24be
000001f0: 77a2 0ebe 47ce 6dbe a077 97be 0203 97bd
00000200: 4439 25be 90d8 923e 5b2a 05be 4747 5cbe
00000210: cf1b 2dbe 4efb e5be 9720 a4bd 6089 3cbe
00000220: 3b90 cabe 4a58 aabe 6d8e 0cbe 7a99 f8be
00000230: 173a bebe e7fa d1bd 9fd5 6fbe b196 47bd
00000240: 8b86 d7be 007f 9dbe 24dc dabc 96f5 3bbe
00000250: 7e1d 8cbe 9d15 82be 7837 36be 39d8 33be
00000260: 4161 73be 91aa 91be 24d9 10be a3eb a1be
00000270: d928 97be 3246 f93e d51a 6dbe ed1f b2bd
00000280: eca0 56be 2109 5bbd 5dfe 9dbe 9232 c6bd
00000290: 2d7a 8cbe f816 73be 4154 94be 51fb 513e
000002a0: 30f3 85be de48 b5be 9237 99be 56de 73bd
000002b0: 6ee1 92be ef24 33be eff1 79be 1762 7fbe
000002c0: 6859 b1bd 12a2 dabe 6f73 10be bf5b 1ebe
000002d0: 613a 33be 83e0 9cbe 8fe5 2ebe c8c9 6e3e
000002e0: ba3d 1fbe 4471 36be b141 7fbe 7145 34be
000002f0: 83fb e5bd 6db1 2bbe c799 9fbe cf44 dcbd
00000300: b7df 86be 7ef4 913d 62dc d5be c1bc b3bd
00000310: 15bf 013d 3003 3bbe a64b 30be c87c 02bf
00000320: 2160 1fbe 8c91 66be aa37 b8be 3b8c 07bd
00000330: 4e90 f0bd cd35 5fbd 019b 2ebe 45c4 0a3f
00000340: d08c 36be 6bb5 08be 7e7f fbbd b7d3 54be
00000350: 7b03 38be 7cfe 36bd bb94 85be 1942 c1be
00000360: 1c2f cfbe e647 04be 185b 76be 958b 6cbe
00000370: e966 2abe e562 acbd 8456 11be f376 7dbe
00000380: 8729 5dbe 75eb 06be bead 9bbe 5d5d 60be
00000390: 1147 a7be 8502 5bbe d2fa a1be a25e aebe
000003a0: 00bf e5be 4a1f 87be 8b0b 17be 1cc3 f6bd
000003b0: e46b 38be 81e3 26be 1006 babe 0459 a2be
000003c0: c204 f1bd 5178 44be cf05 53be b1a1 f4be
000003d0: bbd8 84be 04c6 83be 3c29 bcbd 623e e43e
000003e0: 864f 8cbe b259 3abe 4a78 9abe 1316 a6be
000003f0: 1899 37be f0d2 80be d893 9cbd 0dbd 18be

network_body._body_endoder.seq_layers.2.weight f4 [256, 256]
0.46467593 0.30683792 0.28529212 0.32323942 0.24454923 0.42531374 -0.039220814 0.030258195
-0.10675066 0.09827819 -0.10761376 0.2517615 0.22328857 0.23222739 0.21939312 0.2027787
-0.15663327 -0.16923337 0.19161943 0.37947816 -0.056130476 -0.04494931 0.21294945 -0.0062597515
-0.37462765 -0.14431427 0.35692152 0.22787057 -0.4365311 0.22556387 -0.15105413 -0.08001006
0.31208265 -0.05842257 0.24050803 0.20352378 -0.09786745 0.49589482 0.007551515 -0.18329616
-0.011447738 0.24885754 -0.022821045 0.015313929 -0.12006622 0.15252207 -0.638776 0.019657006
-0.6487177 -0.005309612 -0.13009502 0.010950901 0.040626585 0.08285795 0.007275615 0.4672299
0.0013650751 0.29071492 -0.058263987 0.3080658 0.1576372 0.25433478 -0.12720959 0.12470769
0.25592226 -0.26922038 0.053690787 -0.10375592 -0.3444701 -0.066773094 0.15869643 -0.3182592
0.18231168 -0.07362187 0.2745771 0.21976675 -0.23542723 -0.05395854 0.18892446 0.15226956
0.293614 -0.2144158 -0.01468415 -0.278551 0.14208008 -0.06799504 0.15070267 0.10816533
0.09073223 -0.09830463 0.26969665 0.26744175 0.14015934 0.37665772 0.11816819 0.15450479
0.14501753 0.025891675 -0.13236408 -0.049550585 -0.6635955 0.024433859 -0.033309747 0.11361743
0.17853208 -0.14125484 0.04050789 -0.3991192 0.16467561 -0.14970322 -0.30748022 0.4154289
-0.29249117 -0.26868564 -0.06677754 0.06009646 -0.13439344 0.118004054 0.12833613 -0.2091771
0.13584563 0.21883328 -0.10735706 0.20961218 0.22094323 0.47970045 -0.051088776 0.117462456
0.2563458 0.11288632 0.16831501 0.24019976 -0.16751587 0.11248631 0.21005489 0.18771374
0.092872575 -0.17498773 -0.033765595 -0.0654784 0.13255222 0.32407603 0.18985535 0.0475169
0.1114595 0.1915941 0.13267575 -0.049882784 -0.3911615 0.089171864 -0.019453606 0.2952839
-0.49177638 -0.79485893 0.14944857 0.26293737 0.17730288 0.27537933 0.0014601299 0.2111578
0.212621 0.04551211 0.0039770124 0.11841998 0.21690463 -0.17704839 0.1505895 -0.30036178
0.18075733 0.05857179 -0.15780549 -0.14903027 -0.1312839 0.20301814 0.1651321 0.26125434
-0.14355277 -0.12136848 0.045454644 -0.082904175 0.11741845 0.21986319 0.41009483 0.15986964
-0.22846675 -0.35231218 -0.096817434 -0.115922876 0.41193593 -0.25107867 0.024963703 -0.29581594
-0.049453385 -0.3370953 0.2424988 0.24387465 -0.12508161 -0.029199269 0.19831544 0.10624637
0.38425982 0.14004613 -1.0681562 0.15084532 0.15153168 -0.21578583 0.60728353 0.0312653
-0.31287074 -0.19304235 -0.061774276 -0.04459863 -0.9689769 0.19997865 -0.04479814 -0.33471045
0.11094286 -0.28202286 0.18892056 -0.059886627 0.000962785 -0.015818307 0.114895515 -0.24359731
0.29078737 0.1640835 0.33195272 0.17708461 -0.020688022 0.2788361 -0.09648157 0.25689077
-0.21545234 0.21396555 0.32351613 0.36101225 -0.028118186 0.075502254 -0.8803416 0.14113288
0.25420427 -0.14199464 -0.15609194 0.19900641 0.11054387 0.055363692 -0.049726382 0.06525554
-0.29571652 0.020609703 0.2711017 -0.123749405 0.058029816 0.0989112 0.043671872 -0.1726024
00000000: 01ea ed3e dc19 9d3e cf11 923e a37f a53e
00000010: 1d6b 7a3e b9c2 d93e 01a6 20bd 09e0 f73c
00000020: 17a0 dabd 1346 c93d 9a64 dcbd e2e6 803e
00000030: c2a5 643e 04cd 6d3e 97a8 603e 38a5 4f3e
00000040: 7964 20be 834b 2dbe e237 443e f64a c23e
00000050: 12e9 65bd c51c 38bd 6c0f 5a3e 9a1e cdbb
00000060: 32cf bfbe 1fc7 13be 6bbe b63e e756 693e
00000070: 0181 dfbe 37fa 663e efad 1abe 50dc a3bd
00000080: 4cc9 9f3e 814c 6fbd bd47 763e 8a68 503e
00000090: bb6e c8bd ede5 fd3e b372 f73b fdb1 3bbe
000000a0: 4b8f 3bbc 83d4 7e3e 33f3 babc 46e7 7a3c
000000b0: 47e5 f5bd bf2e 1c3e d386 23bf bb07 a13c
000000c0: 5d12 26bf 41fc adbb a137 05be 686b 333c
000000d0: 1068 263d 6eb1 a93d 4868 ee3b c238 ef3e
000000e0: 52ec b23a 96d8 943e 38a6 6ebd cdba 9d3e
000000f0: a56b 213e 2b38 823e 3b43 02be bf66 ff3d
00000100: 3e08 833e 41d7 89be dfea 5b3d fc7d d4bd
00000110: 635e b0be 55c0 88bd 5181 223e dff2 a2be
00000120: eaaf 3a3e 10c7 96bd 5f95 8c3e 890a 613e
00000130: d613 71be a103 5dbd 6a75 413e 8dec 1b3e
00000140: 9354 963e d18f 5bbe ca95 70bc 3d9e 8ebe
00000150: 717d 113e fc40 8bbd cd51 1a3e c985 dd3d
00000160: d2d1 b93d f053 c9bd ae15 8a3e 20ee 883e
00000170: ee85 0f3e 48d9 c03e 2a02 f23d 8136 1e3e
00000180: 7a7f 143e c71a d43c 738a 07be 8ef5 4abd
00000190: 65e1 29bf 8429 c83c cd6f 08bd 41b0 e83d
000001a0: 1dd1 363e 1ca5 10be 9aeb 253d 5a59 ccbe
000001b0: b9a0 283e cd4b 19be 0c6e 9dbe 19b3 d43e
000001c0: 67c1 95be 2a91 89be aac2 88bd b527 763d
000001d0: 6f9e 09be 1cac f13d 8c6a 033e 8632 56be
000001e0: 1e1b 0b3e d515 603e 05de dbbd 93a4 563e
000001f0: f13e 623e 4c9b f53e 7742 51bd 2890 f03d
00000200: c23f 833e f130 e73d c55a 2c3e edf6 753e
00000210: 4889 2bbe 395f e63d a118 573e 0838 403e
00000220: fa33 be3d fc2f 33be cb4d 0abd 8a19 86bd
00000230: c5bb 073e 4bed a53e 7169 423e 15a1 423d
00000240: e144 e43d 3e31 443e 27dc 073e e451 4cbd
00000250: 5246 c8be bd9f b63d 2b5d 9fbc 742f 973e
00000260: 1dca fbbe e07b 4bbf 0c09 193e ba9f 863e
00000270: e38e 353e 85fe 8c3e d461 bf3a c039 583e
00000280: 52b9 593e e86a 3a3d 9951 823b 2d86 f23d
00000290: 3f1c 5e3e 2c4c 35be 2234 1a3e 05c9 99be
000002a0: 7318 393e f9e8 6f3d c397 21be 649b 18be
000002b0: 496f 06be fde3 4f3e 6418 293e 21c3 853e
000002c0: 7fff 12be 0a90 f8bd a62e 3a3d aac9 a9bd
000002d0: 1679 f03d d123 613e f3f7 d13e deb4 233e
000002e0: 30f3 69be 4362 b4be 3848 c6bd f968 edbd
000002f0: 44e9 d23e 628d 80be ae80 cc3c 3075 97be
00000300: a28f 4abd c197 acbe 9b51 783e 47ba 793e
00000310: 6515 00be 4e33 efbc 3413 4b3e b297 d93d
00000320: b4bd c43e 4168 0f3e 58b9 88bf 3277 1a3e
00000330: 1f2b 1b3e f6f6 5cbe ef76 1b3f 0b10 003d
00000340: 9830 a0be e5ac 45be 0607 7dbd 0ead 36bd
00000350: df0e 78bf 34c7 4c3e 417e 37bd 2b5f abbe
00000360: 0336 e33d 4d65 90be 6474 413e ae4b 75bd
00000370: 6863 7c3a 6595 81bc 574e eb3d 9371 79be
00000380: 15e2 943e 8105 283e b5f5 a93e ab55 353e
00000390: ed79 a9bc 9bc3 8e3e 2198 c5bd 3087 833e
000003a0: 8a9f 5cbe c919 5b3e e8a3 a53e 99d6 b83e
000003b0: 1c58 e6bc eda0 9a3d 115e 61bf 2385 103e
000003c0: 1027 823e 0b67 11be 91d6 1fbe 56c8 4b3e
000003d0: d364 e23d 0ac5 623d e4ad 4bbd b2a4 853d
000003e0: 2868 97be aed5 a83c d8cd 8a3e 5470 fdbd
000003f0: acb0 6d3d f591 ca3d 47e1 323d afbe 30be

network_body._body_endoder.seq_layers.4.bias f4 [256]
-0.29214752 -0.32885304 -0.40854445 -0.2143085 -0.3434855 -0.38074812 -0.060664028 -0.13065611
-0.31474316 -0.32408148 -0.35400534 -0.26362815 -0.22702172 -0.28576687 -0.24616916 -0.042786114
-0.38985652 -0.36927482 -0.40458453 -0.23855019 -0.31881618 -0.45802316 -0.28776318 -0.2067085
-0.3825648 -0.33947724 -0.28920397 -0.24705929 -0.3011632 -0.41360313 -0.383741 -0.43536514
-0.34553865 -0.18314756 -0.32934937 -0.14643992 -0.34817752 -0.19652747 -0.10802063 -0.32651964
-0.38955933 -0.24988718 -0.37105396 -0.1995023 -0.15675613 -0.29653442 -0.22127457 -0.3774592
-0.27488583 -0.3026075 -0.29313344 -0.31195173 -0.15448871 -0.35148138 -0.28939596 -0.31405765
-0.23038515 -0.28117338 -0.5005725 -0.40932307 -0.35107517 -0.14247897 0.104514845 -0.29452583
-0.2955226 -0.23832202 -0.23412904 -0.24806182 -0.3917496 -0.41812688 -0.15783554 -0.29732952
-0.1580385 -0.14108123 -0.40183476 -0.32233524 -0.36575392 -0.111594915 -0.20745152 -0.25750732
-0.31383672 -0.14414261 -0.1673875 -0.045239747 -0.26092014 -0.37626705 -0.4282207 -0.31314248
-0.47381115 -0.24556908 -0.31518295 -0.22254479 -0.34736404 -0.3570986 -0.24687299 -0.4124154
-0.17014961 -0.24155682 -0.15373196 -0.41968742 -0.25403523 -0.33715168 -0.09730382 -0.2548255
-0.30828023 -0.16389647 -0.35290107 -0.29678687 -0.36512277 -0.38659295 -0.24731028 -0.2873862
-0.4021727 -0.258477 -0.2591913 -0.26883638 -0.15756147 -0.3571536 -0.32282132 -0.25658235
-0.27443662 -0.51942855 -0.20576178 -0.24171078 -0.2018977 -0.3383701 -0.39558154 -0.33416533
-0.14333047 -0.35282218 -0.11104981 -0.25673395 -0.28640717 -0.27947244 -0.282568 -0.16612446
-0.25829452 -0.17033114 -0.3004461 -0.3388198 -0.15850715 -0.20478763 -0.29820684 -0.32600054
-0.31328467 -0.42781746 -0.14352503 -0.2604086 -0.30759427 -0.36234742 -0.30647922 -0.30250537
-0.37511116 -0.2891103 -0.48336497 -0.28161567 -0.294005 -0.39597827 -0.22133385 0.046472862
-0.26906085 -0.1996904 -0.35269898 -0.30348113 -0.35757712 -0.36086404 -0.37402484 -0.35485736
-0.058436777 -0.2742082 -0.23348075 -0.24082266 -0.306473 -0.387927 -0.3774164 -0.40894789
-0.22938833 -0.35054943 -0.21744381 -0.32691514 -0.32493362 -0.32036722 -0.3040213 -0.33130917
-0.27242514 -0.15273543 -0.039476715 -0.23390128 -0.25664452 -0.34061506 -0.20478322 -0.34648612
-0.49901113 -0.10840944 -0.40545005 -0.20967393 -0.26805925 -0.28505012 -0.3779867 -0.270999
-0.37658384 -0.03426777 -0.14226453 -0.23211531 -0.38074946 -0.55578077 -0.20662487 -0.26073948
-0.4656395 0.12114472 -0.081878565 -0.2725817 -0.25102863 -0.38337743 -0.31051284 -0.19781426
-0.28349718 -0.50035083 -0.3033091 -0.22445808 -0.31913596 -0.42239416 -0.27244288 -0.19713864
-0.2624547 -0.34014845 -0.29227105 -0.27444312 -0.18547957 -0.4815205 -0.406138 -0.36534652
-0.30076694 -0.2339687 -0.21317993 -0.46507668 0.16940328 -0.18230924 -0.33740243 -0.2766965
-0.30152577 -0.37651515 -0.27961197 -0.33634833 -0.39508832 -0.26971793 -0.3167501 -0.38224876
-0.25417903 -0.33265412 -0.1641155 -0.29286683 -0.29932553 -0.21804832 0.05829442 -0.50078994
00000000: 5c94 95be 6d5f a8be bd2c d1be b073 5bbe
00000010: 55dd afbe 6bf1 c2be d87a 78bd b7ca 05be
00000020: 0426 a1be 02ee a5be 3040 b5be 45fa 86be
00000030: 6278 68be 0950 92be c513 7cbe 7e40 2fbd
00000040: 469b c7be 9711 bdbe b425 cfbe 8046 74be
00000050: e03b a3be 0382 eabe b255 93be 65ab 53be
00000060: 89df c3be f6cf adbe 8b12 94be 1cfd 7cbe
00000070: 1032 9abe cac3 d3be b379 c4be 2ee8 debe
00000080: 71ea b0be 098b 3bbe 7ba0 a8be 59f4 15be
00000090: 5344 b2be 7f3e 49be ec39 ddbd 952d a7be
000000a0: 5274 c7be 6de2 7fbe c9fa bdbe 554a 4cbe
000000b0: ae84 20be 5cd3 97be cd95 62be 5542 c1be
000000c0: d6bd 8cbe 5fef 9abe 9615 96be 23b8 9fbe
000000d0: 4a32 1ebe 5ef5 b3be b52b 94be 2acc a0be
000000e0: 16ea 6bbe f5f5 8fbe 8525 00bf cb92 d1be
000000f0: 20c0 b3be 02e6 11be e10b d63d 17cc 96be
00000100: bd4e 97be b00a 74be 86bf 6fbe eb03 7ebe
00000110: 6793 c8be ba14 d6be a49f 21be 933b 98be
00000120: d8d4 21be 9977 10be 49bd cdbe 2009 a5be
00000130: 1944 bbbe e08b e4bd 2c6e 54be 00d8 83be
00000140: 35af a0be 1f9a 13be a167 2bbe 504d 39bd
00000150: 5397 85be 13a6 c0be be3f dbbe 3654 a0be
00000160: 6097 f2be 7676 7bbe a95f a1be c8e2 63be
00000170: b3d9 b1be a1d5 b6be 46cc 7cbe 1c28 d3be
00000180: b33b 2ebe ac5a 77be e96b 1dbe 45e1 d6be
00000190: e810 82be 259f acbe 3a47 c7bd 7d78 82be
000001a0: e8d6 9dbe 7ad4 27be 73af b4be 73f4 97be
000001b0: 5ff1 babe 83ef c5be e83e 7dbe 4924 93be
000001c0: 95e9 cdbe 1957 84be b9b4 84be eca4 89be
000001d0: cb57 21be d6dc b6be d648 a5be c35e 83be
000001e0: f582 8cbe 45f9 04bf 37b3 52be 0883 77be
000001f0: 45be 4ebe d93e adbe aa89 cabe b817 abbe
00000200: 39c5 12be 1ca5 b4be 156e e3bd a272 83be
00000210: f6a3 92be 0317 8fbe c1ac 90be 881c 2abe
00000220: 2e3f 84be 496b 2ebe 12d4 99be ca79 adbe
00000230: b34f 22be d9b3 51be 91ae 98be 8be9 a6be
00000240: d966 a0be e40a dbbe 3af8 12be 4754 85be
00000250: ff7c 9dbe 9a85 b9be d8ea 9cbe fce1 9abe
00000260: 920e c0be 4406 94be 9d7b f7be ee2f 90be
00000270: d387 96be aabd cabe 57a5 62be 545a 3e3d
00000280: 58c2 89be a47b 4cbe f694 b4be e161 9bbe
00000290: 5914 b7be 2cc3 b8be 2f80 bfbe ddaf b5be
000002a0: 675b 6fbd 0465 8cbe 9415 6fbe 379a 76be
000002b0: 07ea 9cbe 5e9e c6be b93c c1be 9e61 d1be
000002c0: c6e4 6abe 377b b3be 97a9 5ebe 6c61 a7be
000002d0: b35d a6be 2c07 a4be aea8 9bbe 5ba1 a9be
000002e0: 4f7b 8bbe ad66 1cbe 56b2 21bd d183 6fbe
000002f0: e966 83be 1965 aebe b1b2 51be a166 b1be
00000300: 637e ffbe c505 debd 2697 cfbe c3b4 56be
00000310: 103f 89be 17f2 91be 7987 c1be 62c0 8abe
00000320: 99cf c0be 5c5c 0cbd cbad 11be a3af 6dbe
00000330: 98f1 c2be a647 0ebf 7895 53be a57f 85be
00000340: 4d68 eebe b91a f83d f3af a7bd d48f 8bbe
00000350: d386 80be 0c4a c4be 8afb 9ebe d28f 4abe
00000360: 8b26 91be fe16 00bf 554b 9bbe 57d8 65be
00000370: ca65 a3be 0c44 d8be a27d 8bbe b6de 49be
00000380: 7660 86be f027 aebe 8da4 95be cf83 8cbe
00000390: 5bee 3dbe db89 f6be 52f1 cfbe b30e bbbe
000003a0: 20fe 99be 7e95 6fbe d74b 5abe 881e eebe
000003b0: 0e78 2d3e 46af 3abe 03c0 acbe 2aab 8dbe
000003c0: 9661 9abe 98c6 c0be 4d29 8fbe d935 acbe
000003d0: 0449 cabe 7818 8abe 122d a2be 1cb6 c3be
000003e0: c123 82be a451 aabe e50d 28be a4f2 95be
000003f0: 3241 99be 0f48 5fbe 21c6 6e3d c533 00bf

network_body._body_endoder.seq_layers.4.weight f4 [256, 256]
0.055323813 0.13057064 0.16201027 0.27636224 -0.29760307 0.29679027 -0.2091457 -0.13382365
0.07239639 -0.19289184 0.25813892 0.14424983 0.2729958 -0.004013328 0.13876376 0.18736066
0.264942 0.12281657 0.0722771 0.09820732 0.074033685 0.47417575 -0.015555532 0.20951246
0.20989509 -0.03025605 0.10754164 0.32707417 0.31974995 0.2083211 0.1083978 -0.026579514
0.33632913 -0.10374355 0.15516838 0.52979296 0.16993827 0.4215307 -0.19637829 0.1807103
0.24376024 0.5753076 -0.07913203 0.19708335 0.1671491 0.3389547 0.3037086 0.18949474
0.007869709 -0.04393209 0.17911308 0.3356899 0.3788869 -0.16738941 0.21452664 0.37283412
0.045423668 -0.08239056 0.51036227 0.17555046 0.23756468 0.0051996736 0.2995397 0.2581453
0.16293544 0.16936338 0.23338678 0.34927088 0.24079761 0.33913594 -0.037421796 0.32843974
0.33969405 0.19531463 0.051022295 0.13690963 0.28882572 -0.004506978 0.31029046 0.21194531
0.07737703 0.08017938 -0.013822897 0.07530143 0.21088919 0.065650694 -0.10516471 0.24854602
0.061023764 0.1892088 0.18746287 0.1263682 0.13430396 0.13963445 -0.053210273 0.26042414
0.088623874 0.20234644 -0.06522939 0.15341127 0.16446458 0.06278908 -0.43475807 0.096193485
0.3447154 0.061018255 0.0295272 0.2037128 0.012731093 0.24475177 0.19428994 0.47646728
0.36658412 0.26257816 0.29413208 0.5300594 0.0570835 0.20853765 0.1330596 0.31245464
0.098325334 -0.26989564 0.046303853 0.10009995 0.41025797 0.024931142 0.11608952 -0.13711609
0.21135005 -0.5940185 0.3340965 0.18659924 0.40681922 0.23820126 0.010945338 0.24477118
0.15681525 0.19697335 0.16328666 0.0012774785 0.06503982 0.37356627 0.23782764 0.08527027
0.35430595 0.11716649 0.010901431 0.35259992 0.14059103 0.34593967 -0.00079497375 0.021989563
0.39472732 0.06450054 0.2686515 0.2311063 0.31469616 -0.44588968 0.21432368 0.11716493
0.21231903 -0.12621452 0.17649102 -0.07410561 0.3107218 0.041986972 -0.07226875 -0.11159264
0.27632895 0.2814101 -0.21303451 -0.015033245 0.29344487 -0.15337661 0.30849427 0.13531789
-0.2316941 0.21015595 0.022535808 0.07264165 0.51705676 0.3233041 -0.041290645 0.15042824
0.25163132 0.36596158 0.46614367 -0.053790092 0.17881656 0.17245436 0.18036333 0.07320926
0.21110718 -0.13273126 0.34997478 0.19293964 0.08440589 0.05695273 0.34684303 0.19884612
0.12529854 0.21501583 0.04133475 0.4591373 0.19403774 0.25778487 0.101985 -0.20362516
0.21978733 0.06641292 0.3679597 0.06425549 0.35836992 -0.08507922 0.14867927 0.19094455
0.06886317 0.15422678 -0.07457129 0.18085442 0.20378047 0.09694057 0.14736356 0.10346098
0.09506111 -0.039119154 0.24313203 0.30397245 0.3886427 0.11979576 0.24760795 0.15793529
0.28050724 0.14646706 0.026308358 0.054167762 0.2239566 0.31792468 0.16313583 0.22147088
0.2458289 -0.09570404 0.08246211 0.16171241 0.15184955 0.28212562 0.29654202 -0.2027387
0.16317154 0.10463634 0.0002807008 0.14072728 0.28955197 0.379745 0.43274942 0.21785568
00000000: 399b 623d 4fb4 053e 05e6 253e 5a7f 8d3e
00000010: 6e5f 98be e5f4 973e 4a2a 56be 1109 09be
00000020: 8f44 943d 7085 45be c92a 843e 3ab6 133e
00000030: 1bc6 8b3e 3c82 83bb 1618 0e3e 79db 3f3e
00000040: 7aa6 873e 4187 fb3d 0406 943d eb20 c93d
00000050: f99e 973d 2ac7 f23e a1dc 7ebc 6f8a 563e
00000060: bdee 563e 89db f7bc cb3e dc3d 4476 a73e
00000070: 44b6 a33e 2052 553e aaff dd3d 48bd d9bc
00000080: 5533 ac3e 8077 d4bd 76e4 1e3e 83a0 073f
00000090: 4c04 2e3e dfd2 d73e 6417 49be 1f0c 393e
000000a0: 499c 793e 5c47 133f f90f a2bd 38d0 493e
000000b0: 2229 2b3e 788b ad3e b27f 9b3e e90a 423e
000000c0: f4ef 003c 23f2 33bd 6b69 373e 8cdf ab3e
000000d0: 77fd c13e 2168 2bbe dfac 5b3e 1de4 be3e
000000e0: 2b0e 3a3d 62bc a8bd 1aa7 023f 80c3 333e
000000f0: 2844 733e 0662 aa3b 445d 993e 9f2b 843e
00000100: 8cd8 263e 986d 2d3e f2fc 6e3e a2d3 b23e
00000110: a693 763e 3aa3 ad3e 9947 19bd 4129 a83e
00000120: 61ec ad3e 8f00 483e c1fc 503d 0a32 0c3e
00000130: f7e0 933e 46af 93bb 64de 9e3e 3108 593e
00000140: d977 9e3d 1635 a43d 6f79 62bc a337 9a3d
00000150: 56f3 573e df73 863d 9860 d7bd d982 7e3e
00000160: 0ef4 793d f4bf 413e 44f6 3f3e aa66 013e
00000170: fa86 093e 55fc 0e3e 04f3 59bd 5056 853e
00000180: 6f80 b53d e833 4f3e fd96 85bd d817 1d3e
00000190: 6769 283e 9097 803d 9c98 debe 1701 c53d
000001a0: 897e b03e 47ee 793d 07e3 f13c 179a 503e
000001b0: 1396 503c 35a0 7a3e f1f3 463e 85f3 f33e
000001c0: eab0 bb3e a570 863e 7b98 963e f9b1 073f
000001d0: 63d0 693d e58a 553e c740 083e 0efa 9f3e
000001e0: cb5e c93d c32f 8abe 1ca9 3d3d 3401 cd3d
000001f0: 550d d23e 653c cc3c 58c0 ed3d 2968 0cbe
00000200: 266c 583e 9911 18bf b20e ab3e df13 3f3e
00000210: 9c4a d03e 08eb 733e 1354 333c 4ca5 7a3e
00000220: 2d94 203e 62b3 493e 9e34 273e 1171 a73a
00000230: 9933 853d 1444 bf3e 1789 733e 2ea2 ae3d
00000240: 9767 b53e fcf4 ef3d ea9b 323c fa87 b43e
00000250: 18f7 0f3e 011f b13e c965 50ba 7523 b43c
00000260: b319 ca3e dc18 843d b08c 893e 21a7 6c3e
00000270: db1f a13e a74b e4be ab77 5b3e 2bf4 ef3d
00000280: 296a 593e 613e 01be 10ba 343e afc4 97bd
00000290: ee16 9f3e 88fa 2b3d a301 94bd af8a e4bd
000002a0: fd7a 8d3e fc14 903e b825 5abe 004e 76bc
000002b0: 683e 963e c20e 1dbe f6f2 9d3e c690 0a3e
000002c0: 3841 6dbe 1f33 573e 049d b83c 25c5 943d
000002d0: d55d 043f 1d88 a53e 6120 29bd dc09 1a3e
000002e0: d2d5 803e 515f bb3e 62aa ee3e 0053 5cbd
000002f0: b01b 373e e097 303e 2ab1 383e bdee 953d
00000300: 7b2c 583e b4ea 07be e52f b33e f891 453e
00000310: ffdc ac3d 4447 693d 6995 b13e 519e 4b3e
00000320: 434e 003e 1c2d 5c3e a04e 293d 0b14 eb3e
00000330: d4b1 463e 61fc 833e 83dd d03d 1d83 50be
00000340: ee0f 613e 7f03 883d 3765 bc3e 6298 833d
00000350: 437c b73e 043e aebd 613f 183e f886 433e
00000360: 2208 8d3d a0ed 1d3e d5b8 98bd e731 393e
00000370: d4ab 503e c788 c63d 79e6 163e 5ae3 d33d
00000380: 66af c23d 683b 20bd 9af7 783e 47a2 9b3e
00000390: 2dfc c63e 7b57 f53d f08c 7d3e cab9 213e
000003a0: a59e 8f3e 76fb 153e a084 d73c 04df 5d3d
000003b0: e154 653e 06c7 a23e 140d 273e 43c9 623e
000003c0: 92ba 7b3e 7b00 c4bd e5e1 a83d f097 253e
000003d0: 737e 1b3e c572 903e 5bd4 973e bc9a 4fbe
000003e0: 7116 273e 944b d63d 062b 9339 d01a 103e
000003f0: 2840 943e f06d c23e 5591 dd3e 8f15 5f3e
